models/xue_23.pth (torch, 587967 bytes, 10 tensors)

weight f4 [32, 3, 5, 5]
00000000: f3c3 eebd 3b6a ad3d 6ae4 a83d abd5 b23c
00000010: 2c0a 593d b73d e83b b21b 51bc a459 483d
00000020: 01a3 9ebd 0bf1 843d cb37 b4bd 1611 febd
00000030: 246a 83be b070 a4bd 982c 7abd d13f d3bc
00000040: c6bc f33b ac59 1dbe 97fc 69bd 99b4 343b
00000050: bed4 2fbd 4fbc 733d 5860 f33d 258f 263d
00000060: edb3 ce3d d389 01bd e380 973d 08f7 033e
00000070: e7c0 94bb 1352 e4bd 9d05 533d 9c81 213d
00000080: acbe 393e 686a aa3b b2c4 9dbd 36a5 2dbd
00000090: 6222 cfbd fbfe 18be 6f2d d7bd a39f 89bd
000000a0: e837 e63d ebc1 26bd 2cbc d1bb 8a28 5ebc
000000b0: 3740 033e 2013 5a3d 56b1 843c 91bc 483d
000000c0: 78b0 0abc b979 ebbd f74a 993c c784 c63d
000000d0: 6d73 4a3e b858 0b3d caa9 adbd c3cc d03d
000000e0: c551 e83d bd30 a63d fe01 403e 5375 953d
000000f0: 447b 74bd dce0 d6bd 4e99 7d3d 9aa2 d33d
00000100: 8684 ae3b f80e f13d 20bf d8bd 027f e4bd
00000110: 8dff 4bbd f512 d23d 7834 b23c b6f6 4abd
00000120: 0951 dfbc da31 04be c9fa 663d cc2d 843d
00000130: bcc2 03bd 5fdc 72bd 5ac5 c63a 5ede 20be
00000140: 7f23 fcbc 1be4 ab3d f60e bb3d 9cd8 ffbc
00000150: a4eb d1bc 4ccd f93d 2a35 aa3d 5f6c b33d
00000160: d334 1abd 235a 22be 916c 09be cc8e 35be
00000170: 505f 7fbd d5e0 b0bd d298 5fbd fe05 11bc
00000180: ccb8 9ebd 584f 6f3d ae74 8b3d 30c1 2c3e
00000190: daf9 183e 340a 1d3e 636e c23d 1f22 5abd
000001a0: 0d2b bfbd b335 df3d 2523 dd3d d7d1 373e
000001b0: 9f07 e33b 98b4 193d 0ca2 0c3e 0987 173d
000001c0: 9cad eebd 6403 a23d 0862 773d 6359 0fbd
000001d0: 5939 23be f4e7 1cbe b08d 20be 057b 09be
000001e0: b33f b53d 346c 0abe 037d 28bc 3b03 c83d
000001f0: e191 fa3d d982 093e 87bf 223e 2a9e 903d
00000200: 4ddc a83c 84b5 3fbc 1a5d 56bd 6165 da3d
00000210: 5472 1b3c ce28 623d 3bc4 d63d 6fa0 7dbd
00000220: 01e4 b43d 1e84 d9bd 067b 173d 2428 0bbe
00000230: e9b7 92bd bdda 7bbd 61e8 efbd dfae 47bd
00000240: ec0d 8cbd f8ed 793d 9b2f e3bd 1fd7 5cbd
00000250: e4f7 2a3c 3cfe a83d 7a83 1b3d 80e7 213e
00000260: 3d0b ebbd 59ac 52be 7714 9ebd b466 a63c
00000270: 2a24 783e 4972 b83b f17b b6bc 1b4b cfbd
00000280: fed8 b53c 1200 813e 2f89 fb3c 6f3d 3cbe
00000290: e6fe 78be 38cc 393e af65 243e e8ce 16bd
000002a0: f7b6 ad3c f798 68be b250 f83c 1198 4f3d
000002b0: a01b edbb d298 353d 828e a0bd 4c71 1d3e
000002c0: 51be d23d 6337 bdbb a07b a1bd e30e a3bb
000002d0: 4f1f 593e 0569 003e d914 d0bd 47d0 6ebe
000002e0: d9a4 9bbd f845 a13c 3664 873e 7cc8 ab3d
000002f0: 0ff9 83be f794 a2bd f9e2 2d3e 227d 973c
00000300: 7976 793d e3ac 4abe 88ac 62be da4c bb3d
00000310: 2911 183e 0c8e 04bd b8ce 86bd 3a5b 0abe
00000320: fb06 ff3d 39c8 ea3c bb9a babd 52a1 37be
00000330: e0dc 873d 1dec 273e 5fc6 243e 0ba4 f8bd
00000340: 5e5f 83be b9bc 26be d7ba 443e 0aa9 693e
00000350: 22cd ebbd 61a3 0ebe 5b31 87bd 2d60 1e3e
00000360: f0f4 af3a 5f50 b33d 7457 bbbc 2d02 54be
00000370: 8cc4 383d 5b8c 1c3e 6369 163d 3a0b ffbd
00000380: 875d 16be ab9d 19bd 4044 ebbc e177 16bd
00000390: 7341 02be 7429 f0bc 2b85 983c 4314 2cbd
000003a0: ebbc c03d ad58 cb3c 4fdb 3cbc 8eb9 b4bd
000003b0: b58e 1fbe f814 bcbd e6ee c03d dc3a 213d
000003c0: 19eb 67bd ff64 1abe 7b18 8cbe 6148 78be
000003d0: 044b 73bd 2ef2 943d d1bc c1bd 3f52 43bd
000003e0: 234a 703c 0672 7bbd c070 c0bd 79f7 69bd
000003f0: 8023 a93d c074 9dbd 818e 3dbd 0619 003e
-0.11658468 0.084675275 0.082466915 0.0218304 0.052988216 0.007087435 -0.012762951 0.048913613
-0.07745934 0.06491288 -0.08799704 -0.12405603 -0.25666916 -0.08029306 -0.061077684 -0.025787266
0.007438275 -0.15366238 -0.057125654 0.0027573465 -0.042927496 0.059505757 0.118836105 0.040663857
0.10092912 -0.03162558 0.0739763 0.12887204 -0.0045395973 -0.11148467 0.051519025 0.039430246
0.18139142 0.005200673 -0.07703532 -0.042393886 -0.1011398 -0.14941017 -0.10506713 -0.067199014
0.11241132 -0.04071228 -0.0064006057 -0.01355947 0.12817465 0.053240895 0.016197842 0.049007956
-0.008464925 -0.11497826 0.018712504 0.09693294 0.19770594 0.034020156 -0.0847965 0.10195305
0.11343721 0.08114765 0.1875076 0.072977684 -0.059687868 -0.10492107 0.06191378 0.10333748
0.0053258566 0.11770433 -0.10583329 -0.11157037 -0.04980426 0.10257522 0.021753535 -0.049551688
-0.02726032 -0.12909642 0.05639151 0.064540476 -0.032168135 -0.059292194 0.0015165017 -0.15709826
-0.030778645 0.08393117 0.09133713 -0.031231217 -0.025625058 0.121973604 0.083109215 0.087609045
-0.037648033 -0.15854697 -0.13420321 -0.17730254 -0.062346756 -0.08636633 -0.0545891 -0.008851526
-0.07750091 0.058425277 0.06809364 0.1687057 0.14939061 0.15335923 0.09493711 -0.053255197
-0.09334383 0.10898914 0.10797719 0.17951141 0.0069283987 0.037525743 0.13733691 0.036994014
-0.11654207 0.07910803 0.060396224 -0.034997355 -0.15939845 -0.15322858 -0.1567905 -0.13425834
0.0885004 -0.13517839 -0.010283711 0.09766241 0.122348554 0.1342882 0.15893374 0.070614174
0.02061286 -0.011700992 -0.052334882 0.10663868 0.009487707 0.055214696 0.10486647 -0.06192058
0.08832551 -0.106209025 0.03698256 -0.13589531 -0.07163984 -0.061487902 -0.11714245 -0.048750754
-0.06838593 0.06101796 -0.110930644 -0.053916093 0.010435078 0.08251616 0.037967183 0.15810966
-0.11476753 -0.20573558 -0.07718747 0.020312645 0.24232545 0.005628858 -0.022275897 -0.10121747
0.022198197 0.25195366 0.030705063 -0.1838281 -0.24315986 0.1814431 0.16054414 -0.036818415
0.021205408 -0.22714601 0.030311916 0.05068213 -0.007235959 0.044335194 -0.07839681 0.1537525
0.10290206 -0.005774425 -0.07884908 -0.00497614 0.2120335 0.12540062 -0.101602264 -0.23321639
-0.075998016 0.019686684 0.26443642 0.08387849 -0.25775954 -0.07938569 0.16981114 0.018492285
0.060904 -0.19792514 -0.22136128 0.09145518 0.14850296 -0.03236203 -0.06582397 -0.13511363
0.12452503 0.028659927 -0.09111544 -0.17932633 0.066339254 0.16398664 0.16091298 -0.12140664
-0.25658697 -0.1628293 0.19211899 0.2281839 -0.11513735 -0.13929512 -0.06601211 0.15466376
0.0013424437 0.08755564 -0.02286885 -0.20703955 0.045109317 0.15287916 0.0367216 -0.12453313
-0.14684115 -0.03750388 -0.028719068 -0.03673542 -0.1272028 -0.029316641 0.018618187 -0.04201151
0.09411033 0.024822557 -0.011526897 -0.08824454 -0.15581782 -0.09183687 0.09420566 0.039362773
-0.05662069 -0.1507759 -0.27362427 -0.2424636 -0.059397712 0.072727546 -0.09459842 -0.047685858
0.014666113 -0.061388038 -0.09396505 -0.057120774 0.08258724 -0.07688284 -0.04627848 0.12509546

bias f4 [32]
00000000: aa7b f5bd 4d69 6dbe e7e4 27bc 8860 15be
00000010: e38d 79be e08d c9be bfa0 c93d d09e 3d3a
00000020: f10d 96bd 365f 06be 3847 8cbe 84cc 78be
00000030: 6185 a9be ff9b 01be b291 79bd b36e 273e
00000040: 4110 f2bd ffdc 18bd eb87 90be 6ba1 9cbe
00000050: 782d f43c 02be 613e b6cb 18be da2b 153e
00000060: 0ec5 ba3c 3d85 f23d d7e7 7a3d 4d31 ea3d
00000070: 850b 123e 3b6b d8ba a108 0d3e d2ea 943d
-0.11986478 -0.231847 -0.010247446 -0.14587605 -0.24370532 -0.39366055 0.09845113 0.0007233443
-0.07326878 -0.13122258 -0.27398086 -0.24296767 -0.33109573 -0.12657164 -0.06092996 0.16350822
-0.118195064 -0.037320133 -0.28228697 -0.30591902 0.029806837 0.22045138 -0.1492146 0.1456751
0.022799041 0.118418194 0.061256256 0.11435185 0.14262207 -0.0016511449 0.13772823 0.07271351

weight f4 [32, 32, 5, 5]
00000000: 20d4 f73c 1511 033c a5f1 dc3c 5f53 493d
00000010: 9eeb 0c3d 10b1 21bc ffec 0e3d f865 173d
00000020: 32bc 48bc 4e54 94bb 709f 79bc be5a 223d
00000030: 7bc0 823c 06ea a8b9 0bfc 3d3d 4a1a ba3c
00000040: a4ba 3ebc 2f1b f1ba b1b4 1cbb 9b6e e1bc
00000050: 07ae cd3c c7e6 8c3c e99e 773a f513 fe3c
00000060: ade6 ecbb cf11 063d 8580 b03b 0005 e93c
00000070: 2014 353c fb8c ac3c 47a7 55bc a340 1b3d
00000080: 5753 8e3c 20df 563d 7a5b 023d 5394 003c
00000090: d2f8 2c3d 3369 513c 56a3 883c 9976 65bb
000000a0: 84f0 c7ba 0e65 dd3c d014 bcbc f307 42bd
000000b0: 1497 0bbd a25c debc cc21 1bbd 96a2 e83c
000000c0: 52a0 533d c1ef 2b3d cf73 693c 79a9 5338
000000d0: ac1f 8cbc 0a89 f4bb b909 54bc e3fe 243b
000000e0: 7a30 b9bc 5d1f adbb cb0f c63c 2696 7cbb
000000f0: c6b5 85bc 3e8b ae3c 11a9 bcbc 5a9f ddbc
00000100: c97f 83bc 10d3 b1bc 8f6a 1c3c 73d3 05bd
00000110: 67bf 87ba 693c 983c bddf 8fbc 967d f9bc
00000120: fe36 b2bb 250e 83bc 33d8 a53c 7ba6 eebc
00000130: 71b1 8d3c 8479 4c3c 49e6 083c 2399 e03c
00000140: 06be 973c 2714 2f3d 298e c6bc ebf0 cfbc
00000150: 53c7 9f3c 447a 1b3d 2c8c 8c3c 3785 f73c
00000160: 3e65 223b 57a2 4e3d 680e 283d a71b 393d
00000170: 2f33 503d f97f 313d 67d3 09bd 9172 2fbc
00000180: 0c83 383c 91cd 0cbc 9785 503d ac9a 743c
00000190: b6fc bb3b d866 853c bab7 153c 6e62 e83c
000001a0: 4faa 133d b2c8 133d 5fc7 993a 2ad4 02bd
000001b0: 8522 dd3c ceb9 2eba a1b3 f93c 033d 973c
000001c0: 4f97 6e3c 2048 b9bb 1dd9 a9bc 6e65 ecbc
000001d0: 504e c0bb e1b9 bdba eb6f 263d e190 fc3c
000001e0: 98c7 1b3d 919c 353d a226 b2bc 909b 4cbc
000001f0: 5999 cfbc 5ba6 9d3b 338b 483d 60b5 853d
00000200: 09a4 9a3d 73b6 373d ff83 123d 0b72 5d3d
00000210: 97f9 9b3a 73b6 3c3c b38d aaba 0422 db3c
00000220: 066a 5a3d 49e8 953c fc0b cc3b de8e 8a3c
00000230: f503 7d3c 8671 8d3a ae22 cdbc 8747 71ba
00000240: 0141 aabc b623 aa3c 2291 84bc 2362 20bc
00000250: 0e3e b1bb 5b5a 08bc 6edf 5fbd 0df9 afbc
00000260: c513 05bc 11b6 8c3b e20c 1e3b 5863 2f3c
00000270: bf16 e5bb 1af5 2c3d 1a05 11bc 77f8 783b
00000280: 3074 fabc b86a f83c 690b e83c 782f b03c
00000290: 0301 563c 98d2 c83c 648c 923d 7536 1c3d
000002a0: 341f 8d3c 7b3b 523c 06b3 b13c 6d5c 853d
000002b0: 3874 6e3d 6e56 8f3d 5e3d 583c b435 48bc
000002c0: d67c d73c 1f59 cebc 07c5 10bd 0bc8 c5bb
000002d0: 7221 aa3c 1a76 03bd 51b8 243d 40a1 8fb6
000002e0: c479 0e3d afea 113d d5bf 1c3d 912c 3f3d
000002f0: 1fc5 9a3b 0527 17bc 0ddc 053d e22b ec3c
00000300: 84d1 87bc 71b3 d83c cb36 223c 2177 9f3a
00000310: 79e0 e73b 3cdd d739 359d 373d 1eff 40bc
00000320: 5f11 febc fb91 08bd 1e99 5fbb a9f0 243b
00000330: 8f8a 94b9 da29 dabc 8677 103c 7585 0e3c
00000340: bf93 603c 5f81 053b 0ce7 c4bc c02c 0d38
00000350: b8e4 a23c 24e1 983c da4f 67b9 c62e 1d3d
00000360: 372f ad3d 5e0e b13d 8d8b aa3d 3430 123d
00000370: 26e1 6a3d b7d7 063d 4a23 e53b 4f02 18bd
00000380: 25a2 08bd d14b af3c 2310 ab3c 3905 773c
00000390: fadd c73b b13b 2dbd 9cbd b3bb e91b 903c
000003a0: 517f bd3c e9a4 0a3c 966b 9abc 170a d13c
000003b0: 4b22 0d3c 9bdf 99bb fe74 0bbd dcba f7bc
000003c0: 8d0a 5c3d 44ea 713d 4180 3b3d 5d8c 063d
000003d0: 468a 023c e269 93ba 7a72 ea3b 4826 153c
000003e0: 070a 633c 30a7 c1bc 340c 36bc c89f af3c
000003f0: 8200 5bbc d24d d7bb 52a1 bd3c 8f6f b53a
0.030252516 0.007999678 0.026970694 0.049151774 0.03440439 -0.009868875 0.034893986 0.03696248
-0.0122519005 -0.0045266515 -0.015235767 0.03963732 0.015960922 -0.00032217818 0.046382945 0.022717614
-0.011641178 -0.0018394942 -0.0023911411 -0.027518561 0.025107397 0.017199887 0.00094459817 0.031015376
-0.007229647 0.032731827 0.0053864145 0.028444767 0.011052161 0.021063318 -0.01304037 0.03790344
0.017373724 0.052458882 0.03182552 0.007847863 0.04222948 0.012781429 0.016679447 -0.0035013317
-0.0015254174 0.027025726 -0.022959143 -0.047370862 -0.034079626 -0.02714378 -0.037874028 0.02839784
0.051666565 0.041976694 0.014248802 5.0464154e-05 -0.017104946 -0.0074626254 -0.012941771 0.0025176338
-0.022606123 -0.00528328 0.024177453 -0.0038541644 -0.016322028 0.02130663 -0.023029836 -0.027053524
-0.016052144 -0.021707088 0.00954689 -0.032672357 -0.0010356725 0.018583493 -0.017562741 -0.030455392
-0.0054386845 -0.015997956 0.020244693 -0.029132118 0.017296525 0.012480143 0.0083556855 0.027416771
0.018523227 0.04274383 -0.02423771 -0.025383433 0.019504225 0.0379584 0.017156683 0.030214889
0.0024779583 0.050447788 0.041029364 0.045192387 0.050830062 0.043334935 -0.033648875 -0.010708467
0.011261713 -0.008593933 0.05090865 0.014929455 0.0057369126 0.016284391 0.009138042 0.028367247
0.03605109 0.03608007 0.0011732391 -0.031940617 0.026994 -0.00066652603 0.030481162 0.01846171
0.014562442 -0.00565435 -0.02073341 -0.02885696 -0.0058687106 -0.0014474952 0.040634077 0.030830802
0.038032144 0.044338766 -0.021746937 -0.012488261 -0.025341677 0.004811091 0.048960876 0.06528735
0.075508185 0.04485173 0.035770413 0.054063838 0.0011899945 0.011518109 -0.00130122 0.026749618
0.053323768 0.018299239 0.0062270146 0.016913828 0.015442838 0.0010791279 -0.02504095 -0.0009204079
-0.02078295 0.020768981 -0.016182486 -0.009789023 -0.005409009 -0.008322324 -0.05465644 -0.021481061
-0.008122389 0.004294165 0.0024116565 0.010704838 -0.006991237 0.042225935 -0.008851314 0.0037989893
-0.03057298 0.030324325 0.028325753 0.02150701 0.013061765 0.024514481 0.07155684 0.03813787
0.017226793 0.012831564 0.02169181 0.065117694 0.058216304 0.06998907 0.013198225 -0.012219835
0.026304644 -0.02518898 -0.03534415 -0.00603581 0.020767901 -0.032095052 0.04021484 -4.280504e-06
0.034784093 0.035624202 0.038268883 0.04667336 0.0047232057 -0.009225612 0.03268056 0.028829519
-0.016579397 0.026452752 0.009900759 0.001216624 0.00707632 0.00041172828 0.04482766 -0.011779575
-0.031014143 -0.033342343 -0.0034118365 0.0025167859 -0.00028331994 -0.026631285 0.008817559 0.008698811
0.0137071 0.00203713 -0.024035953 3.3658696e-05 0.019884452 0.018662043 -0.00022059624 0.038374685
0.08456271 0.086453184 0.083273984 0.0356905 0.057343625 0.032920565 0.006992732 -0.037111577
-0.033357758 0.021398457 0.020881718 0.015076929 0.0060994597 -0.042293254 -0.0054852497 0.017591434
0.023131998 0.008462169 -0.01885013 0.025517507 0.008614133 -0.0046958453 -0.03404712 -0.030240469
0.053721 0.059061304 0.04577661 0.032848705 0.007967537 -0.0011246765 0.00715476 0.009103365
0.013857371 -0.023639292 -0.011111308 0.021438494 -0.01336682 -0.006570556 0.023148213 0.0013842451

bias f4 [32]
00000000: 60d3 e93b beb6 6fbd 253e a1bd 3b90 71be
00000010: 33df 24be 13a3 8dbd 6c39 27be cfe2 cfbd
00000020: 4537 d0bd ca98 8bbc 929e a1be 0e60 b83b
00000030: 0e19 d5bd da4d 84bc 7f28 88bd 04c3 67bd
00000040: bc60 69bd 4c71 1dbb fd34 d3bd cd82 dabc
00000050: 7611 99bd 8fab 24bd 51de b4bd eff4 253d
00000060: 9484 e03b a49b 0bbe bc73 a4bd abd1 9dbd
00000070: a4df 98bd 3911 243c cc92 25be 0962 0dbd
0.0071357936 -0.058523886 -0.07873181 -0.23590176 -0.16100769 -0.069158696 -0.16330498 -0.10150682
-0.10166792 -0.017040629 -0.31566292 0.005626685 -0.104051694 -0.016150404 -0.06648349 -0.056582466
-0.05697702 -0.002402383 -0.10312841 -0.026673699 -0.074740335 -0.040202674 -0.08831466 0.04051679
0.006851742 -0.13633591 -0.08029887 -0.077060066 -0.07464531 0.010013872 -0.1616928 -0.03451732

weight f4 [64, 32, 5, 5]
00000000: e601 d1bb def0 0abb c1fb b0bc 4746 5dbd
00000010: 75ce 1abd ddeb 153d 49f8 203c 94b7 5c3b
00000020: 818c 8abc 1592 ac3c fdc1 e6bc 18c4 3f3b
00000030: e782 3fbc 00bf 083d 3f4f 0dbc e601 60bc
00000040: 70bd 15bd 7976 ecbc c008 a1bb e269 e33c
00000050: 73f6 5bbb ea6b 1d3c 94bd 47bb 71e5 1d3d
00000060: 8592 903b 0e41 0dbd 78ac c2bc 87a2 71bc
00000070: d1f3 e7bc 2929 debc c654 363d 353d 693a
00000080: 29e7 9a3b 2372 eabb 9985 c0bc a2e6 cf3c
00000090: 97d5 afba 51cd 2a3c 9aaf 9e3b f37c 8ebc
000000a0: c94f b4bc 57e4 913c ead5 12bd c6e5 dcbc
000000b0: bc67 b2bb 1893 013c d42b 85bc b660 6dbd
000000c0: a10d debb 45ad 91bc a7a2 a3ba cfdf 19bd
000000d0: 639d 923b ca89 9dbc f27e 1d3d e66b 6f3c
000000e0: ed66 3cbd 41df a13a 1cfe c13c 7082 a03c
000000f0: b491 7f3c bce8 413d 4886 1ebd 23c9 a03c
00000100: bc50 033d 6c14 52bd ae95 52ba 424c 50bb
00000110: a6ed 3cbd b042 dc3c 7619 ab3c 951c 13bd
00000120: 6e8d 0d3c e4fc 823c 165e f33c a84e 00bd
00000130: 6334 0ebd ca25 07bd 0fa5 473d 08b7 413b
00000140: 7975 433c f928 63bd 38fc 4a3c 7a27 743d
00000150: 91a7 813d d4e1 29bd 2f3e 21bd 3afd 583d
00000160: ecb9 073d f7b3 9cbc c0c6 663c 7b32 c63c
00000170: 3fdd ab3c d790 b93c ac2b 613c 7c16 3cbc
00000180: 1b63 87bb b06a d93c 9f76 9abc 3003 0b3d
00000190: 723c d03c d131 883d a42a 983d 2442 12bd
000001a0: 941e 52bd e643 fdbb d2bb 013d e1f3 0a3c
000001b0: a37e c63c 546f aabc 21eb bf3b 07db 663b
000001c0: a7ea e83c 2eb9 9dbb 2ca4 593b e0fe 0c3d
000001d0: 83b9 dd3c cf77 f0bb f9a1 393c 3b30 dc3c
000001e0: acb8 38bc 9694 0c3d f030 0f3d e1c0 f53c
000001f0: dbbb 173c 818a a0bb c2ff 393d dd87 083c
00000200: 3962 11bb ce15 ccbc 7477 5ebd a570 ab3d
00000210: 0f78 1e3d d26d d7bc 167a f33b e385 06bd
00000220: 0200 bdbb 163f 35bc 9142 7abc 89f3 f73b
00000230: 20f7 85bc 3474 943a d743 7dbc 0f20 27bd
00000240: 567b 87bc be41 043d 6bb3 423d 76cc e2bc
00000250: 2edf c53c 2964 f3bc 99ea 08bb 55a6 20bd
00000260: ddf9 0abb a375 883b 425a 2bbd cbe8 be3c
00000270: 3289 7a3b 3cc5 12bc 274f 3dbd 38c4 673c
00000280: a897 623b 21a4 6bbd 653d 4e3a e35d b7bc
00000290: 6449 cc3c a867 013d 9b56 71bc e721 8fbb
000002a0: c658 3b3c f28d 08bd b0d0 40bd dfd1 50bd
000002b0: 1ada 833c bbc7 99bb 9dba 343d b009 11bc
000002c0: 0a2d 67bd eb30 b33b 8845 863c f0db 08bd
000002d0: ff6d 08bd e647 1fbd 490c ed3a f2d9 c4bc
000002e0: 8d70 8f3c 323c 313c da80 2ebd 1dac 29bb
000002f0: 80a5 0d3d 32a7 17bc 3543 523c 110f ecbb
00000300: b2a4 563c c60b 173c ce8a 07ba 86fa e83a
00000310: d106 fa3c c9f7 f9bb 55ad c0bc a6c4 683b
00000320: 1e1b 503b 691f 3ebc 97af e73c 7b2a 7bbc
00000330: 53d5 cabb f14d b5bc 1d73 88bc ed3b efbb
00000340: 45c6 c53c 8509 c2bc 123f 353c 12c7 17bc
00000350: 2911 743d dbd7 0cbd 2733 a93c df17 d23c
00000360: 7a35 c9bc 0e64 0a3d d269 9a3c 15c7 b7bc
00000370: b917 ddbc ecfb 693c f762 263b b42b b93c
00000380: 3a1e 46bc b385 c4ba bb92 09bb ddbe 95bc
00000390: a9af 6d3c 9d44 11bd 6dfe 7bbc f4f4 03bd
000003a0: ec2e 043d 9a3d 9a3b 03ff 503d f74a dbbc
000003b0: 4bd9 b9bc a4e5 3b3d 9ab6 28bd 6085 fe3c
000003c0: b039 76bd a3b0 1abc 91e2 dbbc 8fbf 15bd
000003d0: 62d7 05bd ef84 a5bc becc a3bc ffd7 bb3c
000003e0: f8f6 36bc 133c 3dbb c959 7d3c 1582 0c3c
000003f0: 28b4 d0bc 0bca c53c dc52 f0bc fa16 d8bb
-0.0063784 -0.0021200697 -0.02160442 -0.0540221 -0.03779455 0.03660189 0.009824821 0.0033678757
-0.0169127 0.021065751 -0.028168673 0.0029261168 -0.011688924 0.033385277 -0.008624851 -0.013672328
-0.036557615 -0.028865086 -0.004914373 0.02776045 -0.0033563643 0.009608248 -0.0030477988 0.03854889
0.0044119977 -0.03448587 -0.02376388 -0.014748222 -0.028314503 -0.027119236 0.04451444 0.0008897365
0.0047272635 -0.0071547194 -0.023501204 0.025378529 -0.0013415095 0.010424928 0.0048427107 -0.017393565
-0.0220107 0.017809076 -0.035848536 -0.026965033 -0.005444495 0.007908605 -0.01625625 -0.05795356
-0.006776527 -0.017782817 -0.0012484387 -0.037566956 0.0044743284 -0.019230742 0.038451143 0.014613127
-0.045996595 0.001234986 0.02368074 0.019593447 0.015598703 0.047341093 -0.03870228 0.01962716
0.032059416 -0.051289007 -0.0008033168 -0.0031783734 -0.046125077 0.026887268 0.020886164 -0.03591593
0.0086396765 0.015989728 0.02970795 -0.031325012 -0.03471793 -0.032995023 0.048741397 0.0029558558
0.011929863 -0.055458996 0.012389235 0.05960796 0.06330789 -0.041475132 -0.039365944 0.05297587
0.033136293 -0.019128783 0.014085472 0.024193993 0.020979522 0.022652073 0.013743322 -0.01147997
-0.0041316873 0.02654013 -0.018855391 0.033938587 0.025419448 0.06650127 0.07430008 -0.035707608
-0.051298693 -0.0077290414 0.03167326 0.008480997 0.024230307 -0.020805039 0.005856887 0.0035225765
0.028432203 -0.004813335 0.0033209426 0.034422755 0.027065998 -0.007338501 0.011330121 0.026878467
-0.011274498 0.03432139 0.03495878 0.029999198 0.009261097 -0.0048993235 0.045409925 0.008333174
-0.002218379 -0.024912741 -0.054313138 0.083710946 0.038688716 -0.026297484 0.0074303253 -0.032842528
-0.005767823 -0.011062404 -0.01527466 0.0075668734 -0.01635319 0.0011326135 -0.015458069 -0.040802058
-0.016538303 0.03228926 0.047534388 -0.027685385 0.024154272 -0.029710846 -0.0020891784 -0.039221127
-0.002120606 0.004164414 -0.041834123 0.023304364 0.0038228747 -0.008958157 -0.046218064 0.014145903
0.0034575257 -0.057529572 0.0007867425 -0.022383636 0.02493734 0.031592995 -0.014730121 -0.004368055
0.011434739 -0.033338495 -0.04707402 -0.0509814 0.01609521 -0.004692999 0.04412328 -0.008852407
-0.056439437 0.005468478 0.016390577 -0.033412874 -0.033308025 -0.038886927 0.0018085326 -0.024029706
0.017509723 0.010817574 -0.04260335 -0.002588994 0.03458166 -0.009256171 0.012833406 -0.0072039445
0.01310079 0.009219116 -0.0005170525 0.0017774857 0.030520828 -0.0076284152 -0.023520151 0.0035517602
0.0031754444 -0.011604168 0.02828197 -0.015329952 -0.006189981 -0.022131892 -0.016656453 -0.007300845
0.024142394 -0.02368618 0.0110624 -0.009263771 0.059586678 -0.034385543 0.020654274 0.025646148
-0.024561632 0.033786826 0.018849287 -0.022433797 -0.02698885 0.014281254 0.0025388577 0.022603847
-0.0120921675 -0.0014993459 -0.0020992 -0.018279487 0.014507213 -0.035465825 -0.015380484 -0.032216027
0.03227131 0.0047070505 0.051024448 -0.026769144 -0.022686621 0.0458733 -0.041189767 0.031069458
-0.06011361 -0.009441528 -0.026841434 -0.036559638 -0.03267611 -0.02020499 -0.01999509 0.022930143
-0.01116728 -0.0028874918 0.015463301 0.008575936 -0.02547653 0.024144193 -0.029336385 -0.006594536

bias f4 [64]
00000000: f051 3cbd 5517 50bd a481 d9bd 4af5 d3bc
00000010: dcc6 f9bd 9d5a 54bd 8623 70bd 19db 2ebd
00000020: 84b6 56bd 9e50 a7bd 09ec 26bd 9cda c0bd
00000030: 8017 40bd fb1c 2bbd 4d4a 95bd 5127 6fbc
00000040: a12a 61bd c601 23bd ab67 65bd 453a fc3c
00000050: 6a8e 6cbd c956 08bd 46a6 a5bd e9f8 4ebc
00000060: 4757 08be 5c2b e0bd 88bc 90bd 2ae5 a2bd
00000070: f711 4f3b f1ed 25bd c935 9fbc f9d6 a5bd
00000080: 052c b3bc 2b30 05bd ce3d bebd 054d 4b3d
00000090: 3b85 8bbd c3b3 f33c cceb c1bd 8f26 d9bc
000000a0: f428 a9bd 1a90 05be d295 1fbd 135e 83bd
000000b0: cb60 2abe de6b 46bd ad42 2bbd 1414 353c
000000c0: c932 57bd 5d00 0dbe 3f34 e6bb e891 84bd
000000d0: 2c6f 7f3c 31aa f3bc 3d31 05be a24f a5bc
000000e0: 099c 8abd 6b10 05bd 040b 793b 59cb ea3c
000000f0: 5412 f83c 5763 503a 8998 46bd b900 bc3b
-0.04597658 -0.0508035 -0.1062043 -0.025873799 -0.121961325 -0.051844228 -0.058627628 -0.042689417
-0.052420154 -0.081696734 -0.040752444 -0.094166964 -0.04689741 -0.041775685 -0.072895624 -0.014596776
-0.054972295 -0.039796613 -0.05600707 0.030789504 -0.057753004 -0.03328589 -0.08088355 -0.012632587
-0.13314544 -0.1094577 -0.070672095 -0.07953866 0.0031596401 -0.04051012 -0.019434826 -0.080976434
-0.021871576 -0.03251664 -0.09289132 0.049634 -0.06812521 0.029748803 -0.09468803 -0.026507644
-0.08259764 -0.13043252 -0.03896124 -0.064144276 -0.16638486 -0.048442714 -0.041811634 0.01105215
-0.052538667 -0.1376967 -0.007025271 -0.06473142 0.01559047 -0.02974424 -0.13007064 -0.020179573
-0.067680426 -0.03248636 0.003800095 0.028661417 0.030282177 0.0007949373 -0.048485313 0.005737391

weight f4 [64, 1024]
00000000: 645b 5abc cc08 1f3d e21a 63ba 2eaf 0d3d
00000010: 8dde 1a3d c81a 813c 6328 e33c 30f4 babc
00000020: 44a6 383c e4ed 31bd 317d e73b 7831 33bd
00000030: 43a1 04bd f091 ffbc 8912 cb3c 51f2 e6ba
00000040: 5c3f eabb b595 6abb 43f2 eabc f85d 0a3d
00000050: 6f22 083d b562 debc 7ed4 2b3d 3d61 243d
00000060: d5ef 113d a325 943b f99a f13c 6c88 3e3d
00000070: f754 323d bc53 a53c e161 de3c 35a1 26bc
00000080: d417 373c 6f5d 8dbb a1c7 18bd 8798 6ebc
00000090: 1c80 853c 9712 90bc 684d 6b3c 531e dcbc
000000a0: 870c c63c 30d2 483c b6f6 d9bc 26b6 1d3d
000000b0: 43e7 a2bb 84d7 9dbc bb14 85bc aa18 073c
000000c0: 8a9c 163c 3c15 1c3c 1a4b 413d 31fb 803c
000000d0: bf95 3fbb 375b dfbc 717f 833b 958b 8f3c
000000e0: 5752 5e3d 542b 2a3d d512 0e3d 0c34 84bc
000000f0: f2b0 433d b158 26bd 236b fbbc 3a50 90bc
00000100: 4ca7 2fba 01ba 9bbc 2e66 6cbd 76e2 f23c
00000110: ea78 043d f66e 8dbc deb6 df3b b51d 0bbd
00000120: 00e4 973b 3df8 01bd 4320 1e3d 50de e8bb
00000130: b33a 18bd 267e 533c 8c4c 173c 208b 80b9
00000140: 9433 dd3c 5732 4e3c 3755 e43c ce74 e83b
00000150: 6cb8 b4bc 9ff6 edbc 098d 5c3d fa36 94b8
00000160: b7e5 2abd 808d d4bb f593 86bc 2f50 debb
00000170: 006c 38bc 8f57 3abb 3fc9 83bc 8be9 82bc
00000180: 6f9a d3bb b512 b33c 3744 d3bc c859 97bc
00000190: 1e5d 20bc af27 863c d3c9 dc3b d172 843b
000001a0: fb06 0ebd 4a02 47bc d9ba 0cbc 1938 3c3c
000001b0: d3fd a3bc 24e5 1f3b f0ab aabb 2d80 28bd
000001c0: df88 343d 4c89 53bd 2835 44bd 6877 023d
000001d0: 0b8d ae3c 7a85 683c ceb1 70bd 4264 083d
000001e0: 7507 ce3c c9b4 b63c bf6b 7ebc 175d ae3b
000001f0: ae1d 393d 1a76 bc3c c8bf df3c cca7 e13c
00000200: 72eb 2cbd 6476 c83b dd0e 1abc 2686 c0bc
00000210: 956c b43c 4e2d 8abc 09d9 b9bc 36ab 873c
00000220: b2bf 8a3c 98b1 48bc 933d 83bc 800d 02bd
00000230: 9e51 19bd 7ba3 05bb 6b62 91bc 2e57 9cbb
00000240: 78f3 943c e6e4 8cbc 199d f6bc 6cec 6bbc
00000250: ef52 5abb 99b1 d0bc efce f9bc 6985 c43c
00000260: 3122 c9bb 91aa cdba 5b6f 893c e1fc be3c
00000270: 0e0b 493c 27bc f93c ade7 ac3b d1d4 713c
00000280: 65e8 633c 88d1 81b9 c8dc 53bd 80d6 59bd
00000290: a8b3 803c f139 88bc 7b18 573c 3ce5 87bc
000002a0: f9c0 16bd fab8 8d3c 182c cfbb bec0 8bbc
000002b0: 40f8 febb 0f0a 16bb 441b 2f3a cb57 2dbc
000002c0: 33d9 293b f77d 6cbc 717b 7ebc 2659 8b3c
000002d0: 4490 223d 0408 f93c f43c 0cbd 2780 70bb
000002e0: 167e 9abc 7284 a53a 9b81 4a3c 6313 013d
000002f0: e246 48bc ece6 0bba d332 443c d3c6 11bd
00000300: 86e8 eebb 89ab 173c 3ba4 c13a c662 7d3c
00000310: e348 9bb9 78b6 bdbd 1cff a4bc 5848 163d
00000320: 4e58 8f3c bf6c 193d c319 29bd ca13 a53c
00000330: 8b96 81bc 1238 013c 5d2e 383d 59ee 1dbd
00000340: 440f e7bb ac54 0e3d ac31 d03b e717 583d
00000350: d3fa b6ba c853 cdbc 5044 efbc fb4a b9bb
00000360: 0eb4 113d c98b c53b e152 27bc 3b99 553c
00000370: 2e8d 06bd f947 bdbb 8faf adbc ffa6 edbc
00000380: c2e2 613c 124f 41bb ebe3 9f3c 2db4 6dbc
00000390: 85f9 f2bc 9375 fbba 268b 1abd 8a6c f03c
000003a0: edf1 b23c 3014 7b3c b6e0 123d 7d76 b43b
000003b0: 5ecc e43b 769e 80bc ee19 313c f2cb 843b
000003c0: 2fd1 d53c 91e9 153b 1591 0cbc c373 b13b
000003d0: 53cc bb3c b680 18bc 67b4 da3a c24e 05bb
000003e0: ba5e aabc 7fda 5abc 8206 3bbc 50ab 283d
000003f0: adfb a7bb a109 903b 4474 3cbc f636 9f3c
-0.013327453 0.03882675 -0.00086633686 0.034590892 0.037809897 0.01575984 0.027729219 -0.022821516
0.01127011 -0.04343976 0.0070644845 -0.04374835 -0.032380354 -0.031197518 0.024789112 -0.0017619823
-0.0071486663 -0.0035794799 -0.028679973 0.03378102 0.033235963 -0.027146677 0.041950695 0.040131796
0.035629112 0.004521088 0.029492842 0.04651682 0.04353806 0.02018153 0.027146282 -0.010170271
0.011175115 -0.0043141167 -0.037299756 -0.014562733 0.016296439 -0.01758699 0.014361717 -0.026869928
0.024175895 0.012257144 -0.026606899 0.03850379 -0.004971416 -0.019267805 -0.016245237 0.008245626
0.009192595 0.009526547 0.047190763 0.015744777 -0.0029233543 -0.027265174 0.004012995 0.017522613
0.054277744 0.041545227 0.03468593 -0.0161381 0.04777617 -0.040611926 -0.030690735 -0.01761638
-0.00067006494 -0.019009592 -0.057714634 0.029649 0.032341875 -0.017264824 0.0068272194 -0.033963878
0.004635334 -0.03173088 0.038604986 -0.00710658 -0.037165355 0.012908494 0.009234559 -0.0002451772
0.027002133 0.012585244 0.027872665 0.0070940023 -0.022060595 -0.029048262 0.05384544 -7.06743e-05
-0.04172298 -0.0064865947 -0.016427973 -0.006784461 -0.011256218 -0.0028433537 -0.016087173 -0.015980503
-0.006457619 0.021859506 -0.025789363 -0.018475428 -0.009787826 0.016376344 0.0067379265 0.0040420075
-0.034674626 -0.012146542 -0.00858947 0.011487984 -0.020018494 0.0024398053 -0.005208485 -0.041137863
0.044075843 -0.05164461 -0.047902256 0.031852156 0.021307489 0.01419198 -0.058763318 0.03329874
0.02515004 0.022303002 -0.015528618 0.005321156 0.04519432 0.023005534 0.027313128 0.027545832
-0.042216726 0.006117629 -0.009402958 -0.023501467 0.022024432 -0.016867306 -0.022686498 0.016561132
0.01693711 -0.012249373 -0.016020572 -0.031751156 -0.03743135 -0.0020391631 -0.017747125 -0.004771135
0.018182501 -0.017198991 -0.030104207 -0.014399629 -0.0033313592 -0.02547531 -0.030494181 0.023989396
-0.006138109 -0.0015691092 0.016776731 0.023313941 0.012270702 0.030485226 0.0052766413 0.014760212
0.013910388 -0.0002476091 -0.051724225 -0.05318308 0.015710667 -0.016629191 0.013128395 -0.0165888
-0.036805127 0.017300118 -0.006322395 -0.01705968 -0.0077810585 -0.002289418 0.0006679783 -0.0105800135
0.0025916814 -0.014434329 -0.01553236 0.017010283 0.039688364 0.03039933 -0.034237817 -0.0036697478
-0.01885895 0.0012627973 0.012360002 0.03151263 -0.012223931 -0.0005336839 0.011975008 -0.035590004
-0.0072909025 0.009257206 0.0014773676 0.015465444 -0.0002961821 -0.09263319 -0.020141177 0.036690086
0.017498162 0.037457224 -0.041284334 0.020151038 -0.015818855 0.007886903 0.04496609 -0.038557384
-0.0070513804 0.03474872 0.0063535776 0.05275717 -0.001396025 -0.025064364 -0.029207379 -0.0056546903
0.035572104 0.0060286266 -0.010212631 0.013037021 -0.032849483 -0.005776402 -0.021201877 -0.029010294
0.013786973 -0.0029496592 0.01951786 -0.014508289 -0.029659996 -0.001918482 -0.03773036 0.02934863
0.021843875 0.015324637 0.035858832 0.005507289 0.0069823703 -0.01570056 0.010809405 0.0040526325
0.026100723 0.0022874812 -0.008579512 0.005415411 0.022924578 -0.009308031 0.0016685844 -0.0020341133
-0.020797122 -0.013357758 -0.011415126 0.041179 -0.0051264376 0.004395679 -0.011502329 0.019435387

bias f4 [64]
00000000: 1334 243b 0779 8b3c bf68 b3bc 0432 6fba
00000010: 37b6 0abb 11c7 a63b 26c7 fe3a 5b35 0bbd
00000020: c0c8 733c 6b82 1bbd a494 643d a55c 6b3d
00000030: 991f 243d abc5 103c c914 c1bc 5dfa d9bc
00000040: 43f1 f4bc 5df2 f5bc 3b7b 26bd a62f 49bc
00000050: 1f31 4ebd f88b efbc 97e4 1c3d b439 2938
00000060: f74e 1fbd cab6 783a a891 7fbd 27a5 283b
00000070: 3066 afbc 3f73 5e3d 239b 1cbd 7246 41bd
00000080: 44a8 d4bc 8c79 d63c 3e50 2ebd c4d9 0a3c
00000090: c2ae 2f3d 3f84 8ebc ea8b 283d a5dc 653d
000000a0: 8a26 643c 793f f93c 83bc 2f3d 335f a33c
000000b0: 8907 1d3d cfd5 05bd 8694 f73b 2def 2a3d
000000c0: 2d8a c73c dc73 53bd 6a23 a13c f97b b6bc
000000d0: a2a4 54bd 31fd 01bd 05f0 1f3d 81d5 0c3d
000000e0: 0093 883c 428b 9a3c 737b ebbc d94a 2dbd
000000f0: 910a ebbc 184b 0ebd 90e9 04bd 96a1 e33b
0.0025055453 0.017025484 -0.021900533 -0.00091245794 -0.0021165737 0.0050896485 0.0019438013 -0.03398643
0.0148794055 -0.037966173 0.055805817 0.0574614 0.040069196 0.00883619 -0.023569481 -0.02660864
-0.029900199 -0.030022794 -0.040644865 -0.012279427 -0.050339814 -0.029241547 0.038303938 4.034648e-05
-0.038893666 0.0009487687 -0.062394768 0.0025733204 -0.021411031 0.054309126 -0.038233887 -0.047186323
-0.025959142 0.026181005 -0.042556994 0.008474771 0.04289127 -0.017397044 0.041149057 0.056118626
0.013925204 0.030425774 0.04290439 0.019942855 0.038337264 -0.032674607 0.007555547 0.041732002
0.02435788 -0.051624164 0.019670207 -0.022275912 -0.05191482 -0.031735603 0.03904726 0.0343833
0.016671658 0.018865231 -0.028745389 -0.04230771 -0.028691562 -0.034739584 -0.032449305 0.006946753

weight f4 [10, 64]
00000000: c5de a9bd a2b2 64be b918 d13d 2e75 35bd
00000010: 5ca8 053e bcd6 b33d 8693 1cbe 109e d13c
00000020: 0cb3 6abe 63a7 2fbe 6ea2 59be ff32 f5bc
00000030: 6666 2cbe a154 53bd 4da1 a33d b1a9 cabb
00000040: e79a 3a3e cd45 8bbd a771 703e b114 82bd
00000050: 286f 3c3e 0b3e 9dbb aef0 123e a536 3fbe
00000060: 4d6a 83bd 73d3 2b3e 2915 053e 499d 4dbe
00000070: b398 8b3e 2898 3fbe d310 7dbe b70c 8c3c
00000080: ae43 853e 2bcf 6fbe 1f91 16bd 179d 15be
00000090: f59e 753c 5525 46be 94ec cabd 851a 6a3d
000000a0: 6a62 adbd f08e 2bbe bb33 a3be cbc4 02be
000000b0: 4be1 e43d be96 ca3d 3a2a d33b d582 2fbe
000000c0: 7365 943d cc25 3c3e 4800 103e dd3e 9a3e
000000d0: 510f 6a3d 4eef 983e f0b5 2f3d e5b6 c7bd
000000e0: 0b8c 593d b50e 123e 7273 02be 2465 023e
000000f0: b50a f53d fe0a 503e a881 733d be8a 90be
00000100: ac0d 353c e5ec 6b3e 4af3 bdbe 78ad 883b
00000110: cac1 a3be 3715 50be cb89 85be 4738 24be
00000120: b178 48be 7f24 42be 4406 febd fae3 063d
00000130: d8e0 4f3e 8a9a eabc 6a44 d93d a600 78be
00000140: 3a3a 333e 05fe 1e3c f49b 3fbe 596b 9e3e
00000150: 0745 9abd bf6c 493e cd35 943e 7c7d 923e
00000160: 346f 263e fc6b 4fbe 4bcd 3e3e 8394 22be
00000170: e2d6 49be 8238 89be d9c0 6abe a5c1 653e
00000180: 0477 52be 4073 73be 5fd5 bf3e af2f a4bc
00000190: 688c 84bd eb78 babd 373b eabc 8d80 3b3e
000001a0: 34da 103d a45f 18be 5b08 49bb 3999 b23d
000001b0: b52f 47bd 2620 31be 47bb b4be be07 073e
000001c0: d083 35be eba8 963d 1ef3 90be 40e5 79bc
000001d0: b8f0 77be d38f efbc 6d6a d43c 8c76 813d
000001e0: fcf9 24be fb1b 5dbe 617f 753e ea4b 3bbd
000001f0: a0aa 6cbe 7b18 523d ff77 693d 3d6f 88be
00000200: 740a edbd 2ab3 aabd 2c2f a43e 459e fabc
00000210: 8d12 6d3e 0bcc 8b3e e476 eb3d 0f8a bf3d
00000220: f916 853e 3b74 553e e620 e2bd 8468 74be
00000230: 4223 59bc 52db 1a3d 4ac1 553e 8460 1abd
00000240: 1806 43be 7a44 1c3e 0dea 013e 4b1e 28be
00000250: 24d6 763e 508d 1bbe 524c 6a3c 71fa af3d
00000260: 9f28 4dbe ca40 6e3e f386 8cbe b860 b33d
00000270: 806d 1e3e 55a2 37be 89a7 673c 8da8 38be
00000280: ed5e 86be c714 77bd 6ae6 063c d0af 2cbe
00000290: d0ac 3c3e 575b 713e 9fc9 0abe 75b6 8b3d
000002a0: 8f4a 553e 1531 633e 645b 033d ba98 89bd
000002b0: be48 9f3c 809c a8bd ba3a 343e b5ee 2b3e
000002c0: 007b 603c 8a67 77bd db1c 36bd 1a03 ad3d
000002d0: 0ec2 2b3e 500f 5c3e cddd 37be 626e 00be
000002e0: 0bc2 01bc 1b94 05be 4f69 42bd c1a6 26be
000002f0: e751 563d 62fb 793e e85f 373e e285 8c3c
00000300: 3025 e23c 686f aabc c016 473e 56bd 97bd
00000310: 201b 9dbd a0dc 21bd cebf 5b3e 7ca3 afbd
00000320: 30bb ec3d ae63 913d a877 08be 05f7 a3bd
00000330: 3f00 fabd 3b9d 413e 6c1c 84be 6619 af3d
00000340: 4c48 4f3d f215 143d 5c7d ddbd fc5a 45bd
00000350: 3628 8cbb 6c0d 7abd 549c 3ebe c93b a2bd
00000360: c0c0 02bc d5f1 a6bc 4790 603e 2e93 03be
00000370: 0613 fc3d 9da2 5f3e ca2f eb3d f3a7 f9bd
00000380: aaf8 1cbe 4503 eebb 1609 bb3c 8e99 b7bd
00000390: c282 823b 40f4 83bd 9624 47be 6564 93be
000003a0: d509 25be 20c4 cebb 493c 7f3e 302f 793e
000003b0: deb4 04be d75f 9d3d f01f 1ebd 8017 0e3e
000003c0: 48e5 4c3d 3b6b 85bd 990e 033d 75d2 38be
000003d0: 0cff c1bd ef35 df3d ca26 903d ad14 3c3e
000003e0: 76b3 52be cfc0 3e3e cfd6 5e3d 160f 2b3e
000003f0: 76ec a73d 339e 9dbc 18f9 603d 9569 3f3e
-0.08294443 -0.22333768 0.102097936 -0.044301204 0.13052505 0.08781192 -0.1529065 0.025588065
-0.22919863 -0.17153697 -0.21253368 -0.029931543 -0.16835937 -0.05159438 0.0798975 -0.0061847796
0.18223153 -0.06800423 0.23480855 -0.06351603 0.18401778 -0.004798656 0.14349625 -0.18673189
-0.0641676 0.1677988 0.12996353 -0.20079531 0.27264938 -0.18710387 -0.24713449 0.017095907
0.26028198 -0.23418872 -0.036759492 -0.14610706 0.014991512 -0.19350179 -0.09908405 0.057154197
-0.084660366 -0.16753745 -0.31875405 -0.12770383 0.11175784 0.09892033 0.006444243 -0.17139752
0.072459124 0.18373793 0.14062607 0.30126086 0.057143513 0.29870075 0.04289812 -0.09751681
0.05311207 0.14263423 -0.12739351 0.12733895 0.11964933 0.20316693 0.05944982 -0.28230852
0.011050623 0.23039587 -0.37099677 0.0041710697 -0.31983787 -0.20320593 -0.2608169 -0.16037093
-0.1957729 -0.18959235 -0.12403539 0.03293226 0.20300615 -0.028638143 0.10608752 -0.24218997
0.1750268 0.009704118 -0.18711835 0.30941275 -0.07532697 0.1967039 0.28947297 0.28611362
0.16253358 -0.20256037 0.18633 -0.15876965 -0.19710878 -0.26800925 -0.22925128 0.22437151
-0.20553213 -0.23774433 0.37467477 -0.020042269 -0.06472093 -0.091050945 -0.028592689 0.18310757
0.035364345 -0.14880234 -0.0030675146 0.08720631 -0.04862948 -0.1729742 -0.3529913 0.13186547
-0.17726064 0.07356437 -0.28310484 -0.015252411 -0.2421292 -0.029243385 0.025929654 0.06321439
-0.16110986 -0.21592705 0.23974372 -0.045726694 -0.23111963 0.051292878 0.056999203 -0.26647368
-0.115742594 -0.08334954 0.3206724 -0.030593047 0.23151608 0.2730411 0.11497286 0.093525045
0.2599409 0.2084512 -0.11041431 -0.23867995 -0.013253035 0.037806816 0.20874515 -0.0376897
-0.19045293 0.15260497 0.1268694 -0.16417806 0.24105126 -0.15190625 0.014300423 0.0859269
-0.20035027 0.23266903 -0.27446708 0.08758682 0.15471458 -0.17933019 0.014139065 -0.18033047
-0.26244298 -0.06032255 0.008233646 -0.16863942 0.18425298 0.2357 -0.13553475 0.0682191
0.20829223 0.22186692 0.03206958 -0.067185834 0.019443866 -0.08232975 0.17600527 0.16790278
0.0137012005 -0.060401477 -0.044461112 0.08447857 0.16773245 0.21490216 -0.17955704 -0.12542108
-0.007919799 -0.13044779 -0.04746371 -0.16274549 0.052324202 0.24412301 0.17907679 0.017153684
0.027605623 -0.020805076 0.19442272 -0.0740916 -0.07671189 -0.039517045 0.21459886 -0.08576104
0.11559141 0.070990905 -0.13326895 -0.080060996 -0.12207078 0.18907635 -0.25802934 0.08549766
0.050606057 0.03615374 -0.10814926 -0.048182473 -0.0042772545 -0.061047956 -0.18614322 -0.07921559
-0.0079805255 -0.020378986 0.21930037 -0.12849113 0.12308316 0.21839376 0.114837244 -0.12190237
-0.15329233 -0.0072635734 0.022831481 -0.08964835 0.0039828727 -0.06443071 -0.1944755 -0.28787532
-0.16117032 -0.006310001 0.2492534 0.24334407 -0.1295962 0.076842956 -0.038604677 0.13876152
0.050023347 -0.06514593 0.031996343 -0.18049033 -0.094724745 0.10898959 0.070386484 0.18367262
-0.20576271 0.18628238 0.054404076 0.16704974 0.08199398 -0.019240474 0.054925054 0.1869262

bias f4 [10]
00000000: e6d0 e5bd 2b3c 38bd 48f8 d3bd 5e80 933d
00000010: 006a 563d 5f45 adbd a1d8 303e ac2b b7bd
00000020: 79e9 fabc a0ab 9cbd
-0.11221485 -0.044979256 -0.1035009 0.072022185 0.052347183 -0.08460497 0.17270137 -0.089438766
-0.030628907 -0.07649922
