models/xue_epoch_18.pth (torch, 592503 bytes, 22 tensors)

module.0.weight f4 [32, 3, 5, 5]
0	0xbd015e06	-0.03158381
1	0xbdf282f0	-0.118413806
2	0xbd4d5df0	-0.050138414
3	0x3cb77164	0.022392936
4	0x3ca8732b	0.020562729
5	0xbe5a5bf9	-0.21324147
6	0xbe504872	-0.20340136
7	0xbe5e9493	-0.21736364
8	0xbe67289f	-0.2257409
9	0xbe0abffa	-0.13549796
10	0xbe9934ed	-0.29923192
11	0xbe8c27ba	-0.2737406
12	0xbe69d5c1	-0.22835447
13	0xbe5cf312	-0.21577099
14	0xbe889cb0	-0.26682043
15	0xbe100a7b	-0.14066498
16	0xbea4baea	-0.32173854
17	0xbe8d9916	-0.27655858
18	0xbe564457	-0.20924507
19	0xbdee7dbe	-0.11645077
20	0xbe4a89de	-0.19779155
21	0xbe33239e	-0.17494056
22	0xbe96ba86	-0.2943918
23	0xbe918592	-0.2842222
24	0xbdddd6cf	-0.10831987
25	0x3d65e323	0.056124818
26	0x3d357cee	0.044308595
27	0xbbb4de28	-0.005519647
28	0xbd92e36a	-0.07172282
29	0xbdbb83d8	-0.091560066
30	0x3d206d08	0.03916648
31	0x3d24c4d6	0.04022678
32	0x3d8fea06	0.07027058
33	0x3d5db725	0.05412974
34	0x3dff5144	0.12466672
35	0x3ca9102c	0.020637594
36	0x3b4d4dd3	0.0031326904
37	0x3bf745d8	0.007546168
38	0x3e0ebe94	0.13939887
39	0x3cb4d4be	0.0220741
40	0xbd447f4d	-0.047972966
41	0x3e439faa	0.19103876
42	0x3e0f9bfe	0.1402435
43	0x3ce01be5	0.027357051
44	0x3ba4757f	0.0050188894
45	0x3e100437	0.14064108
46	0x3ded08b2	0.11573924
47	0xbe095141	-0.13409902
48	0x3c9cce1c	0.01914125
49	0xbb383e8f	-0.002811346
50	0xbca3395e	-0.019924816
51	0x3d0b9107	0.034073856
52	0x3dae94a1	0.085244425
53	0x3ded8968	0.11598474
54	0xbcf8bebc	-0.030364387
55	0x3e053083	0.13006787
56	0x3e3b6e93	0.183039
57	0x3e7ddc6c	0.24791116
58	0x3e165e7a	0.14684477
59	0x3e305402	0.17219546
60	0x3e890a88	0.26765847
61	0x3e69dbed	0.22837801
62	0x3e2186a0	0.15774012
63	0x3e20db00	0.15708542
64	0x3e1b9327	0.15192853
65	0x3e853887	0.2601969
66	0x3e9a6021	0.30151466
67	0x3e26e7ac	0.16299313
68	0x3e5590d3	0.20856027
69	0x3c969b76	0.018384676
70	0x3e51b54a	0.20479313
71	0x3e449934	0.19199067
72	0x3d29f5d5	0.04149421
73	0x3d3b5049	0.045730863
74	0xbd33f8c0	-0.0439384
75	0x3d90ae80	0.07064533
76	0xbc19ca58	-0.009386621
77	0x3e31f416	0.17378268
78	0x3e123dfc	0.14281458
79	0x3dff85e0	0.124767065
80	0x3e338dfa	0.17534629
81	0x3e2b9a5b	0.167581
82	0x3e8b583b	0.27215752
83	0x3e8a8199	0.27052
84	0x3e3bbe2d	0.18334265
85	0x3d54ca93	0.051951002
86	0x3d20557a	0.039144017
87	0x3cb6a15a	0.022293735
88	0x3d717079	0.058945153
89	0xbd901ce3	-0.0703676
90	0x3cbc97f2	0.023021672
91	0xbc59d7bd	-0.013296065
92	0x3d3f3f43	0.04669119
93	0x3d1f0949	0.038827214
94	0x3dfe88a5	0.124284066
95	0x3d011339	0.031512473
96	0xbb5c107f	-0.0033579168
97	0xbd7b541f	-0.06135952
98	0x3d4fe38f	0.050754126
99	0xb9c1bb6c	-0.0003695147
100	0x3d744908	0.05963996
101	0xbd53d665	-0.051718134
102	0x3bafb6a6	0.0053623496
103	0xbd2a435d	-0.04156815
104	0x3d296761	0.041358355
105	0x3ca4b1a9	0.020104246
106	0x3d53eb90	0.05173832
107	0xbd6629b8	-0.05619213
108	0x3e12475b	0.14285032
109	0x3d222d43	0.039593946
110	0xbd8ea882	-0.06965734
111	0xbe34823c	-0.17627805
112	0xbe0a0633	-0.13478927
113	0xbe1059f7	-0.14096819
114	0xbcef4d94	-0.029211797
115	0xbd9a8354	-0.0754458
116	0xbdb312f5	-0.0874385
117	0xbd238c12	-0.039928503
118	0xbdff2a91	-0.12459291
119	0xbda73bfe	-0.081657395
120	0x3d58eb05	0.052958507
121	0xbdbd51a9	-0.09244091
122	0x3c3e2cc4	0.011607353
123	0x3db2577f	0.08708095
124	0xbd05f47d	-0.032703865
125	0xbd003526	-0.031300686
126	0x3da505ff	0.08057784
127	0xbce1d8f6	-0.027569275
128	0x3e443688	0.19161427
129	0x3e27588a	0.16342369
130	0x3d94874c	0.07252368
131	0x3ce92dd4	0.028464235
132	0xbd0b9c95	-0.034084875
133	0x3d825fc2	0.063659206
134	0x3d70db1a	0.0588027
135	0xbd48151b	-0.048848253
136	0xbe30f2f5	-0.17280181
137	0xbd97c83c	-0.074112386
138	0xbe283ee9	-0.16430248
139	0xbe09ea37	-0.13468252
140	0xbd9a1257	-0.07523029
141	0xbe08cdb0	-0.13359714
142	0xbe6a607f	-0.22888373
143	0xbddab22f	-0.10678517
144	0xbcff0d16	-0.03113417
145	0xbdd5444f	-0.104134195
146	0xbdda3733	-0.1065506
147	0xbe135ea4	-0.14391571
148	0x3d3218f8	0.043480843
149	0x3d2b70b5	0.041855533
150	0x3d12e7f8	0.035865754
151	0xbc3408e5	-0.010988449
152	0xbd92296c	-0.07136807
153	0x3cbc3298	0.022973344
154	0x3dd37844	0.10325673
155	0xbe142fa9	-0.14471306
156	0xbde57497	-0.112038784
157	0xbdd999ba	-0.10625024
158	0x3e799c73	0.24376087
159	0x3e1c35e0	0.15254927
160	0xbe03374c	-0.12814063
161	0xbda2bd22	-0.079462305
162	0x3e16f97a	0.14743605
163	0x3ea6d526	0.32584494
164	0x3dfb76d6	0.122785255
165	0xbb633bc3	-0.0034673072
166	0xbd0675dd	-0.032827247
167	0x3e2cef57	0.16888176
168	0xbda84604	-0.082164794
169	0xbd682945	-0.056679983
170	0xbe4ffe80	-0.20311928
171	0x3d3c920c	0.04603772
172	0x3d4d62ec	0.050143167
173	0xbdb3cfd1	-0.08779872
174	0xbe6eb6b7	-0.23311888
175	0x3d60ffa3	0.054931294
176	0x3d26026c	0.040529653
177	0xbe3ca5cb	-0.1842262
178	0xbc4e97d2	-0.012609439
179	0x3cff643d	0.031175727
180	0xbcf426d8	-0.029803678
181	0xbe1085ba	-0.14113513
182	0xbdbcd795	-0.092208065
183	0x3d47a543	0.04874159
184	0x3d895b31	0.067068465
185	0x3d2e7ae5	0.04259767
186	0xbcbdeb53	-0.0231835
187	0x3db50854	0.08839479
188	0x3e647218	0.22309148
189	0x3cf49171	0.029854508
190	0x3dbe8bba	0.093039945
191	0xbbf8c9b2	-0.0075924033
192	0x3dc7086d	0.09718404
193	0x3e0ba9c8	0.13638985
194	0xbddd8abd	-0.10817478
195	0x3d7dfa74	0.06200643
196	0x3e4d8409	0.20069899
197	0x3d242744	0.04007651
198	0xbd3299f2	-0.043603845
199	0xbe28fdc5	-0.16503055
200	0xbe1720aa	-0.14758554
201	0x3d2a1ddb	0.04153238
202	0xbd397688	-0.045279056
203	0xbd17a2fc	-0.03702067
204	0x3d0f82e7	0.035036948
205	0xbdd3a23e	-0.103336796
206	0xbd7fe60e	-0.062475257
207	0xbd081f2e	-0.03323286
208	0x3e1dc885	0.15408523
209	0x3e4ea457	0.20179878
210	0xbdc163b5	-0.09442846
211	0x3da2402c	0.07922396
212	0xbcdb636a	-0.026780803
213	0x3e836d0e	0.2566914
214	0xbb104e14	-0.0022019194
215	0xbc0017ee	-0.007818205
216	0xbc8b232e	-0.016984548
217	0x3e1d7e11	0.15380122
218	0xbd054772	-0.03253884
219	0xbd9baa78	-0.07600874
220	0x3d90bed7	0.0706765
221	0xbc6b8a19	-0.014376187
222	0x3de25c2e	0.11052738
223	0xbda47fe0	-0.08032203
224	0xbdd56823	-0.10420253
225	0x3a9a93b6	0.0011793289
226	0xbbbf82b5	-0.005844439
227	0xbc91b7ee	-0.0177879
228	0x3de4e82a	0.11177094
229	0xbc6f9c07	-0.014624602
230	0x3ca02177	0.019547207
231	0xbe8b7837	-0.27240154
232	0xbdb1cffb	-0.08682247
233	0x3e2bcb7d	0.16776843
234	0x3e5cf392	0.2157729
235	0xbdeb411d	-0.11487029
236	0xbe8202ee	-0.2539286
237	0xbd7b601b	-0.06137095
238	0x3db2e0d4	0.08734289
239	0x3e2a7a09	0.16648115
240	0xbd26c0ac	-0.04071109
241	0xbe33815c	-0.17529815
242	0xbdc8b013	-0.097992085
243	0x3e2b626f	0.16736768
244	0x3e81fd62	0.25388628
245	0xbdcd0fb0	-0.10012758
246	0x3cf0fa01	0.029416086
247	0xbddea51a	-0.108713344
248	0xbdb41ff9	-0.08795161
249	0x3e2eb223	0.17060141
250	0xbd95ba60	-0.07310939
251	0xbc1ab31d	-0.009442118
252	0x3d1ce638	0.03830549
253	0x3e3517b4	0.17684823
254	0x3e85179b	0.25994572
255	0xbd9a731b	-0.07541486

module.0.bias f4 [32]
0	0x3d918c3e	0.07106827
1	0xbdbc529e	-0.091954455
2	0x3d6b71ba	0.057481505
3	0x3ddb9a7c	0.10722825
4	0x3d80f8fc	0.0629749
5	0x3d0e633a	0.0347626
6	0xbd84dea7	-0.0648778
7	0x3cd9ff85	0.026611099
8	0x3da4d603	0.08048632
9	0x3d815662	0.06315304
10	0x3d81d871	0.06340111
11	0xbd9db26d	-0.07700048
12	0x3cbd8d64	0.02313871
13	0x3dcd0a85	0.10011772
14	0x3d43c593	0.047795843
15	0xbd9381ed	-0.07202516
16	0xbdd3695f	-0.10322832
17	0xbd812179	-0.063052125
18	0xbcf02252	-0.02931324
19	0x3d9a7882	0.07542516
20	0x3ce1e108	0.027573124
21	0xbd2e54ce	-0.042561345
22	0x3ddae19a	0.10687561
23	0xbd91c0eb	-0.07116874
24	0xbdbdd90c	-0.09269914
25	0x3d4f4756	0.05060514
26	0x3d9bc512	0.076059476
27	0x3d1ae0d2	0.03781206
28	0x39bc725c	0.0003594336
29	0xbd82ee3f	-0.06393098
30	0x3d5d39d7	0.05401024
31	0x3d660718	0.05615911

module.1.weight f4 [32]
0	0x3f3d431b	0.7393052
1	0x3f5d0a0c	0.86343455
2	0x3f522ea1	0.821024
3	0x3f8fc69f	1.1232489
4	0x3f86ab01	1.0520936
5	0x3f7e5273	0.9934456
6	0x3f2d47b9	0.67687565
7	0x3f795c57	0.97406524
8	0x3fad1a10	1.3523579
9	0x3f4a33b6	0.78985155
10	0x3f5088bf	0.8145866
11	0x3f7ed5fe	0.99545276
12	0x3f669e0d	0.90084916
13	0x3f763e76	0.9618906
14	0x3f817feb	1.0117162
15	0x3f80aabb	1.0052103
16	0x3f40d24d	0.75320894
17	0x3f816294	1.0108209
18	0x3f474e50	0.7785387
19	0x3fc9b622	1.5758708
20	0x3f54be05	0.83102447
21	0x3f8e2dbc	1.1107707
22	0x3f4385d6	0.7637609
23	0x3f9275f1	1.1442243
24	0x3fb9ac7b	1.4505762
25	0x3f80a58b	1.005052
26	0x3f4d75a5	0.80257636
27	0x3f847287	1.0347451
28	0x3f90a4a4	1.1300244
29	0x3f7db032	0.9909698
30	0x3f7daf6f	0.99095815
31	0x3f939cee	1.1532266

module.1.bias f4 [32]
0	0x3e17b918	0.14816701
1	0xbe6e8142	-0.23291495
2	0xbe78ee54	-0.24309665
3	0xbdeeffc3	-0.116698764
4	0xbe05897a	-0.13040724
5	0xbe688b7c	-0.22709459
6	0x3dd95f43	0.10613873
7	0xbe2f9666	-0.17147216
8	0xbef7603a	-0.48315603
9	0xbe05b8f1	-0.13058831
10	0xbd754065	-0.059875865
11	0xbde90e40	-0.11379671
12	0x3ce17956	0.027523678
13	0x3ba8993a	0.005145219
14	0xbe8a6446	-0.27029628
15	0xbd2292d0	-0.039690793
16	0x3b2d0eb6	0.0026406473
17	0x3b90ffbd	0.0044250176
18	0xbe68f9f0	-0.22751594
19	0xbe8d3935	-0.27582708
20	0xbe1fa479	-0.15590085
21	0xbe0751eb	-0.13214843
22	0xbe9facab	-0.31186423
23	0xbde34a8a	-0.110982016
24	0x3c99bab4	0.018765785
25	0xbeb2ceb0	-0.34923315
26	0xbea866ad	-0.32890835
27	0xbd88d9bd	-0.06682155
28	0xbdfd3271	-0.123631366
29	0xbdaed432	-0.08536567
30	0xbe0138d0	-0.12619328
31	0xbd56d084	-0.05244495

module.1.running_mean f4 [32]
0	0xbe3230aa	-0.17401376
1	0x3d5bb79a	0.053641893
2	0x3ec14215	0.3774573
3	0x3c8b95e0	0.01703924
4	0xbd17a3be	-0.03702139
5	0xbeb5ccd8	-0.35507846
6	0xbeb6492a	-0.35602695
7	0x3d811c86	0.063042685
8	0xbf0a838a	-0.5410696
9	0x3eae1e63	0.34007558
10	0x3ea7f9ce	0.32807773
11	0xbec6940a	-0.3878482
12	0x3d8636b4	0.065534025
13	0x3df43c0f	0.11925518
14	0x3da9ffd0	0.083007455
15	0xbdd1cd0b	-0.10244187
16	0x3cc50afa	0.024053086
17	0xbdb62c2e	-0.08895145
18	0x3c610835	0.013734867
19	0xbbb69c33	-0.0055728196
20	0xbba82138	-0.005130913
21	0xbd929cb6	-0.071587965
22	0x3eddfbf5	0.4335629
23	0xbd06920c	-0.032854125
24	0xbe11d411	-0.14241053
25	0xbf0f0409	-0.5586553
26	0x3e6f3df6	0.2336348
27	0x3d1632a2	0.03666938
28	0xbd28279f	-0.04105341
29	0xbd80d14d	-0.06289921
30	0x3da27b67	0.079336934
31	0xbbef3f2e	-0.007301233

module.1.running_var f4 [32]
0	0x3ea4e4fa	0.32205945
1	0x3e48b7fe	0.19601437
2	0x3dd7d86f	0.10539328
3	0x3f16de18	0.5893264
4	0x3d40778a	0.046989
5	0x3de0b686	0.109723136
6	0x3e043cab	0.12913768
7	0x3d837a1a	0.064197734
8	0x3e5d9bcf	0.21641468
9	0x3d9db317	0.07700174
10	0x3e62636e	0.22108242
11	0x3dfb3cd3	0.12267461
12	0x3e122912	0.1427348
13	0x3ebddc68	0.3708222
14	0x3e31a576	0.17348275
15	0x3eab60f9	0.33472422
16	0x3e7fb257	0.24970375
17	0x3e4e4bc7	0.20146094
18	0x3d32fa25	0.043695588
19	0x3f12948c	0.57257915
20	0x3ddd94d6	0.10819404
21	0x3db6aad8	0.089193046
22	0x3df4ad8d	0.11947165
23	0x3df25654	0.11832872
24	0x3eb82b02	0.35970312
25	0x3e86e52d	0.26346722
26	0x3d254de9	0.040357504
27	0x3e8f6d38	0.28013015
28	0x3e94b207	0.29042074
29	0x3e50b5af	0.20381807
30	0x3dbbe28a	0.09174068
31	0x3f2b41a8	0.6689706

module.4.weight f4 [32, 32, 5, 5]
0	0xbd9c950d	-0.07645617
1	0xbd9d214e	-0.07672368
2	0xbdae74b5	-0.08518354
3	0xbd40364b	-0.046926778
4	0xbd975aef	-0.07390391
5	0xbd1f5f8e	-0.038909487
6	0xbbce7fa3	-0.0063018366
7	0xbcc2c0d1	-0.023773583
8	0xbd2dfae7	-0.042475607
9	0xbd2e140b	-0.042499583
10	0x3bc8ac02	0.0061240206
11	0xbd51a93b	-0.05118678
12	0xba271a13	-0.000637443
13	0xbd36fcbf	-0.04467463
14	0x3b1efe8b	0.0024260606
15	0x3cfecc5f	0.031103311
16	0x3ccea5ba	0.025225509
17	0x3d854a8a	0.06508358
18	0x3c8d2b73	0.017232632
19	0x3cf7a495	0.030229846
20	0x3d13a71f	0.03604805
21	0x3dbb9817	0.09159868
22	0x3dc1fbb2	0.09471835
23	0x3dce9001	0.1008606
24	0x3d4f11a5	0.050553937
25	0xbd098ffc	-0.03358458
26	0xbc12796a	-0.00894008
27	0xbd00c1f3	-0.031434964
28	0x3c9286c0	0.01788652
29	0xbc823752	-0.01589552
30	0xbc05a819	-0.008157753
31	0xbcf6c129	-0.030121403
32	0xbd179db7	-0.037015643
33	0xbd2cb9e3	-0.042169463
34	0x3c860c10	0.016363174
35	0x3d1f3ce8	0.038876444
36	0x3d8bdeca	0.06829603
37	0x3d979985	0.074023284
38	0x3d6bdd52	0.057584114
39	0x3b272e4a	0.0025509768
40	0xbdb0700c	-0.08615121
41	0xbcdd4e90	-0.027015
42	0xbc8566ba	-0.016284335
43	0xbcec936e	-0.028878894
44	0xbd46d289	-0.048540626
45	0xbcadbc05	-0.021207819
46	0x3ae1996a	0.0017211859
47	0x3cd65c31	0.026167007
48	0x3dabf24c	0.08395824
49	0x3d2f546a	0.042805113
50	0xbd8348ec	-0.06410393
51	0xbdb0e714	-0.08637825
52	0xbd3ebfb8	-0.046569556
53	0xbd229633	-0.039694022
54	0xbcfabca9	-0.030607538
55	0xbd551af6	-0.052027665
56	0xbd37bfaa	-0.04486052
57	0xbcce0f5c	-0.025153808
58	0xbd0e1398	-0.034686655
59	0xbd2347a3	-0.03986324
60	0xbd2513e0	-0.040302157
61	0xbb8cfa10	-0.0043022707
62	0x3a03fa7d	0.0005034579
63	0xbd2f7fc9	-0.042846475
64	0x3b23a93e	0.0024972702
65	0xbde95e3c	-0.11394927
66	0xbda07cf6	-0.078363344
67	0xbba6492d	-0.005074641
68	0xbc88217b	-0.016617527
69	0xbce8a63c	-0.02839958
70	0xbc396fd7	-0.011318169
71	0x3d0376b9	0.032095645
72	0x3d197717	0.03746709
73	0x3b28c302	0.0025751
74	0x3c8909e7	0.016728355
75	0xbdc41841	-0.095749386
76	0xbd5f8a1d	-0.054575074
77	0x3a1193bc	0.0005553325
78	0xbc3fb844	-0.011701647
79	0x3bb2f5ed	0.0054614455
80	0xbc96a7ad	-0.0183905
81	0x3c66ff54	0.014098961
82	0x3cf76069	0.03019734
83	0xbd0c4f5c	-0.03425537
84	0x3ccc1214	0.024910964
85	0xbdab6fc4	-0.08370927
86	0xbd251749	-0.04030541
87	0x3d191b91	0.037379805
88	0xbd31b690	-0.043386996
89	0xbd0d8439	-0.034549925
90	0xbd8c0abb	-0.06837984
91	0xbd741be9	-0.05959693
92	0xbd8a5d0b	-0.06756028
93	0xbdbb9a0e	-0.09160243
94	0xbd453b8f	-0.048152503
95	0xbdd437bb	-0.10362192
96	0xbdc46fe2	-0.095916525
97	0xbd57728c	-0.052599475
98	0xbda68a07	-0.081317954
99	0xbd5fd0f7	-0.054642644
100	0xbc4a4b9e	-0.01234713
101	0xbd2c0d85	-0.04200508
102	0xbd6f1c9f	-0.058376905
103	0xbd1f30ec	-0.038865015
104	0xbd54094c	-0.05176668
105	0x3d7ebbbb	0.062190752
106	0x3c741929	0.014898577
107	0x3c56e369	0.013115742
108	0xbba52355	-0.0050396123
109	0x3d35a929	0.044350777
110	0x3d5bbd5b	0.05364738
111	0xbd0517de	-0.032493465
112	0xbc9a1493	-0.018808639
113	0xbc2adef7	-0.0104291355
114	0x3d3fa2c7	0.046786096
115	0x3c478d95	0.012179752
116	0x3dcac431	0.09900702
117	0xbc9a43c4	-0.018831141
118	0xbd8af141	-0.06784297
119	0xbcee6954	-0.029102959
120	0xbdba8774	-0.09107867
121	0xbde7b94e	-0.11314641
122	0xbda06310	-0.07831395
123	0xbd1fdcb1	-0.039028827
124	0x3d2ad2ca	0.04170493
125	0xbd7c1156	-0.06153997
126	0xbd6a98c4	-0.057274595
127	0x3b5c054a	0.0033572488
128	0xbd8b969b	-0.06815835
129	0xbd80b5f0	-0.06284702
130	0xbdd120ce	-0.10211335
131	0xbd04db73	-0.032435846
132	0xbb310dec	-0.0027016355
133	0xbd4283b4	-0.047488883
134	0xbde61d3e	-0.11236046
135	0xbc81b244	-0.015832074
136	0x3d9caea4	0.076504976
137	0x3e12291d	0.14273496
138	0x3c9b5a78	0.018964037
139	0xbc7e092e	-0.015505118
140	0x3e2aa8de	0.1666598
141	0x3e9e4211	0.3090978
142	0x3e951d10	0.29123735
143	0x3e635e74	0.22204
144	0x3defc6bc	0.117078274
145	0xbcae6d97	-0.02129249
146	0x3cb9e8b6	0.022693973
147	0x3c899d08	0.016798511
148	0xbd5254ed	-0.051350523
149	0xbd312f48	-0.04325798
150	0x3d23d85b	0.040001255
151	0x3d521bbf	0.051295992
152	0x3d323936	0.04351159
153	0x3c92b234	0.01790724
154	0x3caa8100	0.020813465
155	0x3c38493f	0.011247932
156	0x3d1f2ac3	0.03885914
157	0x3d3b8df2	0.045789666
158	0x3d0a6854	0.0337909
159	0x3c2353d2	0.009968715
160	0x3cba48fc	0.02273988
161	0xbd07af2d	-0.033126045
162	0x3c7547fc	0.014970776
163	0xbc7ba25d	-0.015358535
164	0x3cafe4ec	0.021471463
165	0x3cc9a984	0.024616964
166	0x3dab614d	0.08368168
167	0x3c9e622b	0.01933392
168	0x3d3844ff	0.044987675
169	0x3d3ba755	0.045813877
170	0x3cc03d2a	0.023466665
171	0xbd1b1c26	-0.03786864
172	0x3b2dad6c	0.0026501073
173	0xbd31ff93	-0.043456625
174	0x3cf857b1	0.030315252
175	0xbc376765	-0.011194085
176	0xbc7017e4	-0.0146541335
177	0x3cc94736	0.024570089
178	0xbc1f2d7c	-0.009715434
179	0xbbc7f3bd	-0.006102054
180	0xbcda626e	-0.026658263
181	0xbcbed812	-0.02329639
182	0xbc5d8e5a	-0.013522709
183	0x3d0244a8	0.031803757
184	0xbd7e7e92	-0.062132426
185	0x3c0fa236	0.008766701
186	0x3d3d8dd7	0.046277847
187	0x3de523da	0.11188479
188	0x3d14c150	0.03631717
189	0x3c8355fb	0.01603221
190	0x3c771fac	0.015083235
191	0xbd009504	-0.031392112
192	0xbd533dbd	-0.05157255
193	0x3cec3bc9	0.028837102
194	0x3cb96b93	0.022634303
195	0xbd53adb3	-0.051679324
196	0xbd038116	-0.032105528
197	0xbdbff1c2	-0.093722835
198	0xbda18b37	-0.07887881
199	0xbd82e0eb	-0.06390556
200	0xbd4eff9c	-0.050536737
201	0xbbd2b4fd	-0.006430267
202	0xbd800d82	-0.062525764
203	0xbc64614e	-0.013939215
204	0xbd85578f	-0.06510841
205	0xba071cab	-0.0005154113
206	0x3d39cd82	0.045362003
207	0xbceca0dd	-0.0288853
208	0xbc45055c	-0.012025204
209	0xbd4588c3	-0.04822613
210	0xbd1dd1e8	-0.03853026
211	0xbc8e824e	-0.017396118
212	0xbc7607ba	-0.015016491
213	0xbd3cfa50	-0.046137154
214	0xbd1464f2	-0.03622908
215	0xbcf2e04b	-0.029647967
216	0xbcbe1d30	-0.023207277
217	0xbce632e3	-0.028100437
218	0xbd6919ba	-0.0569093
219	0xbded9a8e	-0.116017446
220	0x3dbd37fa	0.09239192
221	0x3df8d57f	0.12150096
222	0x3dcda70c	0.10041627
223	0x3e06ff9c	0.13183445
224	0x3d977851	0.073959954
225	0xbca10954	-0.019657768
226	0xbd2afa8b	-0.041742843
227	0xbcf96577	-0.03044389
228	0x3b1dd030	0.0024080388
229	0x3b4a1b5d	0.0030839064
230	0xbc3a4011	-0.011367814
231	0xbd286a94	-0.041117266
232	0xbc531160	-0.0128825605
233	0xbd365238	-0.044512004
234	0x3c7bea38	0.015375666
235	0x3d0e83dd	0.034793723
236	0x3c4279ba	0.011869842
237	0x3d0e2325	0.034701485
238	0xbb778b38	-0.003777219
239	0xbc39cd06	-0.011340385
240	0xbb08cee5	-0.0020875272
241	0xbd5e3efc	-0.054259285
242	0xbd06f47b	-0.032948
243	0xbd11f4bc	-0.035633788
244	0xbcfdee84	-0.030997522
245	0xbce750cf	-0.028236775
246	0x3beb0362	0.007172034
247	0xbd0a20e4	-0.033722773
248	0x3c4ff91c	0.01269367
249	0x3bffc446	0.00780538
250	0xbc8938df	-0.016750751
251	0xbd830cea	-0.063989475
252	0xbd2f1b61	-0.04275072
253	0xbcb8d4a5	-0.022562334
254	0x3cac0f5a	0.021003414
255	0xbce25f22	-0.027633253

module.4.bias f4 [32]
0	0xbd07f606	-0.03319361
1	0xbb16676b	-0.0022949826
2	0x3c846b40	0.016164422
3	0xbbe87dd0	-0.007095076
4	0xbcb39490	-0.021921426
5	0x3cdcfd85	0.026976356
6	0x3cb67481	0.02227235
7	0xbcb6f134	-0.022331811
8	0x3ca5858f	0.020205287
9	0x3d108c5e	0.035290115
10	0xbcfe87db	-0.03107064
11	0x3b291e09	0.0025805256
12	0xbc6af2d0	-0.014340118
13	0xbcaefbcd	-0.021360302
14	0xbd033492	-0.032032557
15	0x3c176109	0.009239444
16	0x3ccb5ec1	0.024825456
17	0xbc9897a1	-0.01862699
18	0xbadce3a4	-0.001685251
19	0xbcd723a4	-0.026262112
20	0x3cc5ee17	0.024161382
21	0xbcfa8162	-0.030579273
22	0x3b90827f	0.0044100876
23	0x3c325b4d	0.010886026
24	0x39c5a1c7	0.00037695302
25	0x3cd929e6	0.026509237
26	0x3cd0fdaf	0.02551159
27	0xbcf7d95e	-0.030255016
28	0x3b6e0f9a	0.0036325217
29	0xbcf8417f	-0.030304668
30	0x396f4b23	0.00022820807
31	0x3b8086dd	0.003922327

module.5.weight f4 [32]
0	0x3f32c772	0.6983558
1	0x3f49ee89	0.788796
2	0x3f731f5c	0.94969726
3	0x3f6af15f	0.91774553
4	0x3f4fe69b	0.8121125
5	0x3f82debb	1.0224222
6	0x3f5712b5	0.8401292
7	0x3f8620b6	1.0478733
8	0x3f85f4d3	1.046534
9	0x3f7fe4f2	0.9995872
10	0x3f8ba2d6	1.0909069
11	0x3f8531e3	1.0405849
12	0x3f6b9264	0.9202025
13	0x3fa4cc32	1.2874815
14	0x3f7ef491	0.9959193
15	0x3f8aa26a	1.0830815
16	0x3f7197e5	0.943724
17	0x3f69bbca	0.9130217
18	0x3f7a570d	0.9778908
19	0x3f854f3a	1.0414803
20	0x3f6516e0	0.8948803
21	0x3f3fa3c1	0.74859244
22	0x3f87de32	1.0614684
23	0x3f6358ae	0.8880719
24	0x3f56db4c	0.8392837
25	0x3f8100cd	1.0078369
26	0x3f58824e	0.8457383
27	0x3f7c274c	0.9849746
28	0x3f8aaaec	1.0833411
29	0x3f820b2a	1.0159657
30	0x3f7bb472	0.9832221
31	0x3f6b803d	0.9199255

module.5.bias f4 [32]
0	0xbe37e9c4	-0.17960268
1	0xbe272f8e	-0.16326734
2	0xbed81a45	-0.42207542
3	0xbec9f413	-0.39444026
4	0xbdc0ba9e	-0.094105944
5	0xbea6f233	-0.32606658
6	0xbe6446d0	-0.22292638
7	0xbeb04bb5	-0.3443276
8	0xbe9c70ce	-0.30554813
9	0xbec1f9bd	-0.37885848
10	0xbf1fdcd0	-0.6244631
11	0xbebf1062	-0.37317187
12	0xbee37ce3	-0.44431219
13	0xbef982ff	-0.48732755
14	0xbee16a01	-0.44026187
15	0xbea55c92	-0.32297188
16	0xbee18178	-0.4404409
17	0xbeac3319	-0.33632734
18	0xbe84a3d9	-0.25906256
19	0xbee647b3	-0.44976577
20	0xbeaed4b6	-0.3414666
21	0xbe04a9b6	-0.12955365
22	0xbed93b55	-0.4242808
23	0xbed67d49	-0.4189246
24	0xbeae6c37	-0.34066936
25	0xbe7817be	-0.24227807
26	0xbe6b937b	-0.23005478
27	0xbeadb41b	-0.33926472
28	0xbf0a2040	-0.5395546
29	0xbee64b5d	-0.44979373
30	0xbe5e6570	-0.21718383
31	0xbeb92836	-0.3616349

module.5.running_mean f4 [32]
0	0x3dfb9d64	0.12285879
1	0xbf2321f7	-0.637237
2	0xc0073e0d	-2.1131623
3	0x3f94a9d4	1.1614327
4	0xbfd9a38f	-1.7003039
5	0xbf1be22c	-0.60891986
6	0xbebbaf31	-0.36657098
7	0xc032aa49	-2.7916434
8	0xc01919f7	-2.3922098
9	0xc01eb744	-2.4799356
10	0xc0279962	-2.6187367
11	0xc06fea30	-3.7486687
12	0xbfaaf5b3	-1.3356231
13	0xc056806c	-3.3515882
14	0xbffb5a9a	-1.9637024
15	0xc073b5dd	-3.807975
16	0xc01d2ebb	-2.4559772
17	0xbfb47c5a	-1.4100449
18	0xc03d2873	-2.9555938
19	0xbf3e6902	-0.7437898
20	0xbfb84ed6	-1.4399059
21	0x3f14bfee	0.5810536
22	0xc08cb94d	-4.3976197
23	0xbfda3e36	-1.7050235
24	0xc043b708	-3.0580463
25	0xbf7cbeee	-0.98728836
26	0xbf7ecae4	-0.99528337
27	0xbfe99adf	-1.8250388
28	0xc0044322	-2.0665975
29	0xc032acfd	-2.7918084
30	0xc0185107	-2.3799455
31	0xbfd288de	-1.6448019

module.5.running_var f4 [32]
0	0x408dbefb	4.429563
1	0x409fe3c1	4.996552
2	0x40b970ef	5.795036
3	0x40b93226	5.7873716
4	0x40ba0f7c	5.81439
5	0x40a2f992	5.092965
6	0x40e9175d	7.284102
7	0x40e77dc1	7.234101
8	0x40f26a59	7.575482
9	0x41059df9	8.351068
10	0x40e49767	7.1434817
11	0x40caa6fb	6.3328834
12	0x408700b0	4.218834
13	0x4149b6e5	12.607152
14	0x408e963e	4.45584
15	0x4112c0dc	9.172085
16	0x409f3b93	4.9760222
17	0x40aa9cc9	5.331639
18	0x40a1a796	5.0517073
19	0x40ef3f78	7.4764977
20	0x40d088a5	6.5166802
21	0x409872d7	4.7640185
22	0x41045bf4	8.2724495
23	0x4093bb42	4.6166086
24	0x40da24ee	6.817008
25	0x408ab6f5	4.3348336
26	0x4069eb1a	3.6549745
27	0x40c1172e	6.0340796
28	0x40c68a9b	6.2044196
29	0x40bb2c81	5.8491826
30	0x40baa93d	5.833159
31	0x4099750f	4.7955394

module.8.weight f4 [64, 32, 5, 5]
0	0xbb278cec	-0.0025566174
1	0xbb45dddd	-0.0030192055
2	0xbd76ce7b	-0.06025551
3	0xbd5bcbbd	-0.053661097
4	0xbd82c891	-0.06385911
5	0x3c9a8b9c	0.018865399
6	0xbc608fce	-0.013706161
7	0xbb4870eb	-0.0030584882
8	0xbce54bf7	-0.027990324
9	0xbccab9b7	-0.024746759
10	0x3d831310	0.0640012
11	0x3a06febc	0.0005149653
12	0x3bc27ad1	0.005935051
13	0xbc617606	-0.013761049
14	0x3d5383f5	0.051639516
15	0x3d9aa3c3	0.07550766
16	0xbbb3981d	-0.00548078
17	0xbda9f234	-0.0829815
18	0xbcc202f1	-0.023683043
19	0x3ca7387e	0.02041268
20	0x3dc363a8	0.09540492
21	0x3cc0378d	0.023463989
22	0x3cc4d86b	0.024028977
23	0x3d9c4ad8	0.07631463
24	0x3d9d3ef1	0.07678021
25	0x3c8bdc50	0.017072827
26	0xba134abb	-0.00056187407
27	0x3d95c124	0.07312229
28	0x3bb7cc36	0.0056090606
29	0xbcb8bf24	-0.02255208
30	0x3d285e34	0.041105464
31	0x3a3db952	0.0007237393
32	0xbba86ba9	-0.005139787
33	0xbcdfb538	-0.027308092
34	0xbc54f967	-0.012998915
35	0x3d20c04e	0.039245896
36	0x3d7fead7	0.06247982
37	0x3dec1e38	0.11529201
38	0x3d66c660	0.05634153
39	0x3da7a239	0.081852384
40	0x3d8a77ed	0.06761155
41	0x3bbeb1ad	0.0058195204
42	0x3d8fa83a	0.070145085
43	0x3cea21bb	0.028580537
44	0x3d66c766	0.056342505
45	0x3cc6ffcd	0.024291897
46	0x3d038871	0.032112543
47	0x3cae226b	0.021256646
48	0x3c764ba1	0.01503268
49	0x3cf8039d	0.03027516
50	0x3cc6c35e	0.02426308
51	0x3d62bd4a	0.0553563
52	0x3d8f5939	0.0699944
53	0x3d687886	0.056755565
54	0x3b9d3b80	0.0047983527
55	0xbc94e77d	-0.018176788
56	0xba5a1730	-0.0008319495
57	0x3d2bcf9f	0.04194605
58	0x3d4359a2	0.047692902
59	0x3c9a1001	0.01880646
60	0x3c8183e7	0.015809966
61	0xbcfa3bfe	-0.030546185
62	0xbca48497	-0.020082755
63	0x3cd9e7d5	0.026599804
64	0xbcc414c2	-0.02393568
65	0x3d4d6cee	0.05015271
66	0x3c650b06	0.013979679
67	0xbd740664	-0.059576407
68	0xbd0e12ab	-0.034685772
69	0x3c2bf65c	0.010495748
70	0x3d1fdab2	0.039026923
71	0x3ccea0b3	0.025223112
72	0x3cf2afb3	0.029624796
73	0xbc88b007	-0.016685499
74	0xbca6adb2	-0.020346496
75	0xbd41da67	-0.047327425
76	0x3d460416	0.04834374
77	0x3ce42704	0.027850635
78	0xbce6f2b9	-0.028191911
79	0xbd34131d	-0.04396354
80	0xbcf01aaf	-0.029309599
81	0xbcbd7b0f	-0.023129968
82	0xbd842d7e	-0.064539894
83	0xba2c25eb	-0.00065669295
84	0x3bb1c00d	0.0054245056
85	0xbcf15903	-0.02946139
86	0xbd4bc180	-0.049745083
87	0x3c4fc70b	0.012681733
88	0xbd2a4922	-0.04157365
89	0xbd4b0310	-0.049563468
90	0xbddcaf86	-0.10775666
91	0x3bcf8d4a	0.0063339816
92	0x3cf12f90	0.029441625
93	0x3ae2d3b1	0.0017305521
94	0xbd1867dc	-0.037208423
95	0xbdd8e8e5	-0.10591296
96	0xbd862434	-0.06549874
97	0x3d9de694	0.07709995
98	0x3dc22c6b	0.09481128
99	0xbcb6abf2	-0.022298787
100	0xbdcd1a41	-0.10014773
101	0xbd3f9f91	-0.046783034
102	0x3c92f2bf	0.017938016
103	0xbc2741ff	-0.010208606
104	0xbd133a3f	-0.03594422
105	0xbd2e35c7	-0.042531755
106	0xbcf06a57	-0.029347582
107	0x3d659e8a	0.056059398
108	0x3d06f614	0.032949522
109	0xbb470b34	-0.0030371668
110	0x3d3f5782	0.046714313
111	0xbd51570a	-0.051108398
112	0xbd5a1450	-0.053242028
113	0x3ca219ae	0.019787636
114	0x3d5b7573	0.053578805
115	0x3d42faaa	0.047602333
116	0x3c52c875	0.0128651755
117	0xbd5bf491	-0.053700034
118	0xbd13612b	-0.03598134
119	0xbd2619f8	-0.04055211
120	0x3d77d8ad	0.060509373
121	0x3d1c3834	0.038139537
122	0xbd4a178f	-0.049338873
123	0xbd20bcf6	-0.039242707
124	0xbd144218	-0.036195844
125	0xbcbed638	-0.023295507
126	0xbcf86d55	-0.030325571
127	0xbd9c3067	-0.076264195
128	0xbd852305	-0.0650082
129	0xbc27aafe	-0.010233639
130	0x3c9bc341	0.019014003
131	0x3d9db0a1	0.07699705
132	0xbd6dc4ae	-0.058048896
133	0xbc94b9dd	-0.018155033
134	0x3c20a102	0.009804012
135	0xbd6a0988	-0.057137996
136	0x3d4c0dde	0.049817912
137	0xbcffacba	-0.031210292
138	0xbbe4418b	-0.006965821
139	0xbc1b5e3f	-0.009482919
140	0xbce3fb38	-0.027829751
141	0x3bd0a6fd	0.006367563
142	0x3cfd311a	0.030907203
143	0x3b26d3c6	0.0025455817
144	0xbd19ccca	-0.037548818
145	0xbd7653b1	-0.060138408
146	0xbad58f12	-0.0016293249
147	0x3ce16191	0.027512344
148	0x3c8152b2	0.015786503
149	0xbc3d0c58	-0.0115385875
150	0x3d10ddc1	0.03536773
151	0x3dacdb2b	0.084402405
152	0x3d610723	0.054938447
153	0x3d5872f2	0.052843995
154	0x3c727436	0.014798215
155	0x3cbd7d38	0.023130998
156	0xbb5e4d58	-0.0033920612
157	0xbb0d1b18	-0.0021531042
158	0x3c0a66bb	0.008447344
159	0x3c6d529e	0.0144850295
160	0x3d786286	0.060640834
161	0x3d4def16	0.05027684
162	0x3cdeb18d	0.027184272
163	0x3d43954c	0.047749802
164	0xbb5ca88b	-0.0033669795
165	0xbd4144df	-0.04718482
166	0x3c6769ad	0.014124316
167	0x3c978475	0.018495778
168	0xbc2d396d	-0.010572773
169	0xbd06eac9	-0.032938752
170	0x3bd48e2d	0.0064866752
171	0xbd268769	-0.04065648
172	0xbd0945b7	-0.03351375
173	0xbd476f6c	-0.048690245
174	0xbd5f4f42	-0.054518946
175	0xbd6bb2fa	-0.057543732
176	0x39dd54ef	0.00042215685
177	0x3d4b3af6	0.049616776
178	0xbcfc87e8	-0.030826524
179	0xbcc420e2	-0.023941461
180	0xbd8bbc6c	-0.06823048
181	0x3c84f433	0.016229725
182	0x3d3c1a94	0.045923784
183	0x3cd85d7b	0.026411762
184	0xbce25c3d	-0.027631873
185	0xbbfc2cc9	-0.0076957685
186	0x3c1baceb	0.009501676
187	0x3d59e621	0.053197984
188	0x3d8877d8	0.066634834
189	0x3c4c83f2	0.01248263
190	0xbcbba728	-0.022906855
191	0x3b0bd452	0.002133627
192	0x3c654c63	0.013995263
193	0xbc1f9352	-0.009739714
194	0xbc4cb03b	-0.0124931885
195	0x3d7e0230	0.062013805
196	0x3d64f0e8	0.05589381
197	0xbda8958c	-0.08231649
198	0xbd968bb3	-0.07350864
199	0xbc9fa7e1	-0.01948923
200	0x3d30d2b4	0.043169692
201	0xbcb66939	-0.022266971
202	0xbc63e9dd	-0.013910738
203	0xbd60382b	-0.054741066
204	0xbdebd679	-0.11515517
205	0x3d9dd971	0.07707489
206	0x3db1bff8	0.08679193
207	0x3c051629	0.008122959
208	0xbdb9f19e	-0.09079288
209	0xbdf5acaf	-0.119958274
210	0x3d647d44	0.055783525
211	0x3d7fb637	0.062429633
212	0xbd7ff7cc	-0.062492177
213	0xbe2b610a	-0.16736236
214	0xbe412477	-0.18861566
215	0x3e017721	0.126431
216	0x3d9af22f	0.07565724
217	0xbc84f169	-0.016228395
218	0xbe2bae15	-0.16765626
219	0xbe2a30ea	-0.16620222
220	0x3d91dc32	0.07122077
221	0x3d201662	0.039083846
222	0x3cceedf4	0.02525995
223	0xbdd18bdc	-0.10231754
224	0x3c1f7f1f	0.009734898
225	0x3d3467f0	0.044044435
226	0x3d34611a	0.044037916
227	0x3ca5e2ae	0.02024969
228	0xbb02d1d3	-0.001996149
229	0x3c79d4dd	0.0152485045
230	0xbc9b8dfd	-0.018988604
231	0x3d007e88	0.03137067
232	0x3cda30c5	0.026634583
233	0x3c96eb14	0.01842264
234	0x3c4c080d	0.012453091
235	0xbcca2406	-0.02467538
236	0xbc4f7bb0	-0.012663767
237	0x3ba55c62	0.0050464133
238	0x3c0c96f8	0.008580916
239	0x3bfc1886	0.007693353
240	0x3cdf48d7	0.027256412
241	0xbcb4f097	-0.022087378
242	0xbd37de39	-0.044889662
243	0x3c0f6278	0.008751504
244	0x3dde2623	0.10847118
245	0x3c66a865	0.014078234
246	0xbd66542b	-0.056232613
247	0xbda64067	-0.081177525
248	0xbc6d76b3	-0.014493632
249	0x3d7938ea	0.060845293
250	0x3db3ab83	0.08772948
251	0x3cc8a967	0.02449484
252	0x3dcad536	0.09903948
253	0x3ccb5b14	0.024823703
254	0xbc277d61	-0.010222764
255	0x3cf24671	0.029574605

module.8.bias f4 [64]
0	0x3cbe2bb0	0.023214191
1	0xbc6169c4	-0.013758127
2	0x3c3100aa	0.010803381
3	0xbcaa5d2c	-0.020796381
4	0xbaedf076	-0.0018153328
5	0xbc15b8dc	-0.009138312
6	0x3c9eafee	0.019371
7	0xbd02e61e	-0.031957738
8	0x3cf8809b	0.030334761
9	0xbcf9192c	-0.03040751
10	0xbd06bc16	-0.032894216
11	0x3c3181df	0.010834186
12	0x3a6f00ac	0.00091172266
13	0xb736b6c3	-1.0890598e-05
14	0x39c29339	0.00037112253
15	0x3cff49be	0.031163093
16	0xbc9bdc6e	-0.019026008
17	0xbce7eb3c	-0.02831041
18	0xbcd4ad31	-0.02596149
19	0x3d05576d	0.03255408
20	0x3c7f5936	0.015585234
21	0xbc9207ff	-0.017826078
22	0xbcdb2f66	-0.026756
23	0xbcd24613	-0.02566818
24	0xbae26f97	-0.0017275688
25	0xbaeb4bf7	-0.0017951716
26	0x3cf01036	0.029304605
27	0xba4153e0	-0.0007374864
28	0xbd0e7a96	-0.034784876
29	0xbd0b07fa	-0.033943154
30	0xbce4714b	-0.027886054
31	0xbcfebd4a	-0.03109612
32	0x3d0659a1	0.03280032
33	0x3c5dae7f	0.013530373
34	0x3bd1f018	0.0064067952
35	0xbc9ab1a0	-0.018883526
36	0xbc75e1c6	-0.015007442
37	0x3d06cf89	0.032912765
38	0xbb851d34	-0.004062319
39	0xbccc2a3a	-0.024922479
40	0xbc828d2c	-0.015936457
41	0xbcedf971	-0.029049607
42	0x3b10076a	0.0021977075
43	0xbd10018c	-0.035157725
44	0xbcf08bda	-0.029363561
45	0xbcebe9b4	-0.028797962
46	0xbc2f7405	-0.010708814
47	0x3c23be46	0.009994095
48	0xbcbcbc8e	-0.023039129
49	0xbd0029d9	-0.03128991
50	0xbd0dd82b	-0.034629982
51	0x3bb8b824	0.0056371856
52	0xb9a1a60e	-0.00030832033
53	0xbc1f16be	-0.009710012
54	0xbc2dd633	-0.010610151
55	0xbcdb4d39	-0.026770221
56	0xbb33caa0	-0.0027434006
57	0x3b3ae3cd	0.0028517128
58	0xbbe1fe35	-0.006896759
59	0xbc6781ab	-0.014130036
60	0xbbdc973c	-0.0067318957
61	0xbd09da18	-0.033655256
62	0xbb4f55c8	-0.0031636823
63	0xbcb8defa	-0.022567261

module.9.weight f4 [64]
0	0x3f490fbf	0.7853965
1	0x3f36d2a0	0.7141514
2	0x3f2c289b	0.6724946
3	0x3f4429d6	0.76626337
4	0x3f4c7a5e	0.7987422
5	0x3f2c208a	0.6723715
6	0x3f1dece7	0.6168961
7	0x3f5af21c	0.8552568
8	0x3f451f25	0.7700065
9	0x3f2d3238	0.6765475
10	0x3f441419	0.76593167
11	0x3f226144	0.63429666
12	0x3f35efbd	0.71068937
13	0x3f21e826	0.63244855
14	0x3f3530f9	0.7077785
15	0x3f05729e	0.52128017
16	0x3f45c496	0.7725309
17	0x3f3402cc	0.7031677
18	0x3f308d18	0.6896529
19	0x3f3df4c9	0.7420164
20	0x3f4493f4	0.7678826
21	0x3f3fc3e2	0.7490827
22	0x3f302b36	0.68815935
23	0x3f2e9150	0.6819048
24	0x3f150667	0.58212894
25	0x3f31a501	0.693924
26	0x3f51a373	0.8189003
27	0x3f2bdc90	0.67133427
28	0x3f3aceb1	0.72971636
29	0x3f0facfb	0.5612332
30	0x3f5b65b6	0.85702074
31	0x3f50ef0d	0.8161476
32	0x3f32fe67	0.6991944
33	0x3f33e639	0.70273167
34	0x3f3415b4	0.70345616
35	0x3f3e1cf3	0.74262923
36	0x3f1edf7f	0.6205978
37	0x3f21e43c	0.63238883
38	0x3f5c7bcf	0.86126417
39	0x3f0af9aa	0.5428721
40	0x3f26d3c2	0.65166867
41	0x3f3ec823	0.74524134
42	0x3f21bd0e	0.631791
43	0x3f2dd111	0.67897135
44	0x3f5877f9	0.84558064
45	0x3f3f269d	0.74668294
46	0x3f28af68	0.6589265
47	0x3f23f786	0.64049566
48	0x3f3d0c9a	0.73847353
49	0x3f3fbab8	0.74894285
50	0x3f2fda0a	0.68692076
51	0x3f40c572	0.7530128
52	0x3f0a7b62	0.5409452
53	0x3f5c9bfc	0.86175513
54	0x3f25f9f9	0.64834553
55	0x3f388428	0.72076654
56	0x3f44f28c	0.769326
57	0x3f3220b8	0.69581175
58	0x3f1cd79e	0.61266506
59	0x3f37ef11	0.7184916
60	0x3f3a0fea	0.7268053
61	0x3f3f81d1	0.7480746
62	0x3f5487a9	0.830195
63	0x3f37a322	0.71733296

module.9.bias f4 [64]
0	0xbf2740b5	-0.6533311
1	0xbf142f30	-0.578845
2	0xbf0113d2	-0.5042087
3	0xbf4579a1	-0.77138716
4	0xbf42c400	-0.7608032
5	0xbf2f9417	-0.6858534
6	0xbf02b7de	-0.5106181
7	0xbf783f15	-0.96971256
8	0xbf2ce52e	-0.675372
9	0xbf0eab9f	-0.55730623
10	0xbf2012a1	-0.62528425
11	0xbf1e27f4	-0.61779714
12	0xbeff2119	-0.4982994
13	0xbef9fb79	-0.4882467
14	0xbf23215f	-0.63722795
15	0xbef03307	-0.4691393
16	0xbf163b0a	-0.58683836
17	0xbf06f3b9	-0.5271564
18	0xbef8932f	-0.48549792
19	0xbf423dba	-0.7587544
20	0xbf3e58f5	-0.7435449
21	0xbf202cdb	-0.62568444
22	0xbf084163	-0.5322477
23	0xbf193438	-0.59845304
24	0xbf04eef0	-0.5192709
25	0xbf1d2731	-0.61387926
26	0xbf13ef22	-0.5778676
27	0xbf350c1b	-0.70721596
28	0xbf31c857	-0.6944632
29	0xbf026677	-0.509376
30	0xbf58f958	-0.8475547
31	0xbf222ec9	-0.6335264
32	0xbf14b3cb	-0.5808684
33	0xbf154251	-0.58304316
34	0xbf0325f0	-0.51229763
35	0xbf120568	-0.570395
36	0xbedb1b46	-0.42794245
37	0xbef6dbb3	-0.48214492
38	0xbf2e6682	-0.68125165
39	0xbefb0d45	-0.4903356
40	0xbf213ec3	-0.6298639
41	0xbf1db0e3	-0.6159803
42	0xbf029c31	-0.5101958
43	0xbf11fcb9	-0.5702625
44	0xbf36cc2f	-0.7140531
45	0xbf1ab25e	-0.60428417
46	0xbf1ee1df	-0.620634
47	0xbf0ff17f	-0.5622787
48	0xbf036a8e	-0.51334465
49	0xbf0bf07c	-0.54663825
50	0xbf2f1b8f	-0.68401426
51	0xbf240070	-0.6406317
52	0xbef6a8c0	-0.4817562
53	0xbf2fa4dc	-0.6861093
54	0xbf0ccb7c	-0.5499799
55	0xbf0d74ce	-0.55256355
56	0xbf177ba4	-0.59173036
57	0xbf10ba2c	-0.56534076
58	0xbef91cd6	-0.48654813
59	0xbf1a606e	-0.6030339
60	0xbf0d9aa8	-0.5531411
61	0xbf10158f	-0.56282896
62	0xbf3840fe	-0.7197417
63	0xbf1cca5e	-0.6124629

module.9.running_mean f4 [64]
0	0xbfa5005f	-1.2890738
1	0xc0015809	-2.0209982
2	0xbfb6684a	-1.4250576
3	0xbdf21abf	-0.11821508
4	0xc015032c	-2.3283186
5	0xbe6b5395	-0.22981103
6	0xbf9d3521	-1.2281839
7	0xbf96ef29	-1.1791736
8	0xbf1dfb27	-0.61711353
9	0xbfcf072b	-1.6174062
10	0xc0006d21	-2.0066607
11	0xbf307757	-0.689321
12	0xbfeae419	-1.835086
13	0x3e4d4486	0.20045671
14	0xc00d9e66	-2.2127929
15	0xbf4d5696	-0.80210245
16	0xc0016b65	-2.0221798
17	0xc0147272	-2.3194852
18	0xbfbdbf07	-1.4823922
19	0xbf1242ad	-0.5713299
20	0xbf5fe678	-0.8746104
21	0xc004bc38	-2.073988
22	0xbe867c63	-0.26266775
23	0xbf9bc261	-1.2168695
24	0xbe187800	-0.14889526
25	0xbf41346c	-0.75470614
26	0xc0067378	-2.1007977
27	0xbf7f822d	-0.9980801
28	0xbf91c3ce	-1.138788
29	0xbf614740	-0.87999344
30	0xbf613a38	-0.8797946
31	0xc012ce20	-2.2938309
32	0xbe5d3e28	-0.21605742
33	0xbf7ab5f1	-0.9793387
34	0xc002460c	-2.0355253
35	0xc00da124	-2.2129602
36	0xbf92d3a4	-1.1470838
37	0xbfaa89b0	-1.3323269
38	0xc04a39bf	-3.1597745
39	0xbf816ecf	-1.0111941
40	0xbef02f99	-0.46911314
41	0xc032cfa2	-2.793923
42	0xbfb4c152	-1.4121497
43	0xbf9c1d6b	-1.2196478
44	0xc035146c	-2.8293715
45	0xc00502b6	-2.0782905
46	0xbf566b75	-0.83757716
47	0xbfee10d3	-1.8598884
48	0xbf8828d4	-1.063746
49	0xbfbfd06a	-1.4985478
50	0xbf37d809	-0.7181402
51	0xbf50ce62	-0.81564915
52	0x3f09fce9	0.53901535
53	0xc0360497	-2.8440301
54	0xbf9da864	-1.2317014
55	0xbf99ccce	-1.2015626
56	0xc010068c	-2.2503996
57	0xbfb2e8cc	-1.3977294
58	0xbf33f2da	-0.7029244
59	0xbf48e55c	-0.78474975
60	0xbfbb4b16	-1.463229
61	0xbfab2697	-1.3371152
62	0xbf3bf16b	-0.7341525
63	0xbfef9cdf	-1.8719748

module.9.running_var f4 [64]
0	0x3fd130b2	1.6342986
1	0x3f8b8e69	1.0902835
2	0x3f87f05f	1.062023
3	0x3fcf1167	1.6177186
4	0x3fb66d44	1.4252095
5	0x3f7f132e	0.9963864
6	0x3f8c3782	1.095444
7	0x3fd6470a	1.6740429
8	0x3fdd5999	1.7292968
9	0x3f6c2480	0.92243195
10	0x3f9ab2cf	1.2085818
11	0x3f5caef1	0.8620444
12	0x3faec444	1.3653646
13	0x3f929751	1.1452428
14	0x3f89b01c	1.0756869
15	0x3f86b827	1.0524949
16	0x3fae085e	1.3596303
17	0x3f7c45d3	0.98544043
18	0x3f72f8e1	0.9491101
19	0x3f85c74f	1.0451449
20	0x3fb3fd89	1.4061748
21	0x3fc4dea6	1.5380447
22	0x3f87dc54	1.0614114
23	0x3f8984d0	1.0743656
24	0x3f3e320b	0.7429511
25	0x3f632b1e	0.88737667
26	0x3fe434e8	1.7828646
27	0x3f9edf81	1.2411958
28	0x3fbbde71	1.4677259
29	0x3f415f34	0.75535893
30	0x3fd45992	1.6589835
31	0x3fc342f2	1.5254805
32	0x3fa15eda	1.2607071
33	0x3f804fd0	1.0024357
34	0x3f8802dc	1.0625873
35	0x3fa1aa92	1.2630179
36	0x3f75f283	0.9607317
37	0x3faa1e25	1.3290449
38	0x3fd7f1e2	1.6870692
39	0x3f5160e4	0.8178847
40	0x3f8cabe9	1.0989963
41	0x3fadbdce	1.3573549
42	0x3f5ab107	0.8542637
43	0x3fa7dbb9	1.3113929
44	0x3fa7b633	1.3102478
45	0x3fa25f2a	1.2685292
46	0x3faa0915	1.3284022
47	0x3f7e43a6	0.99321973
48	0x3f519f78	0.81883955
49	0x3faeae4f	1.3646945
50	0x3f9509f4	1.1643662
51	0x3f9b4f4a	1.2133572
52	0x3f435f38	0.7631717
53	0x3fcc3ba0	1.5955696
54	0x3f61a393	0.8814022
55	0x3f985aeb	1.1902746
56	0x3f819730	1.0124264
57	0x3fb5d329	1.4205066
58	0x3f9e27b7	1.235587
59	0x3f892404	1.0714116
60	0x3f94b081	1.1616365
61	0x3fa60a96	1.297198
62	0x3fd5e925	1.6711775
63	0x3fc85c84	1.5653234

module.13.weight f4 [64, 1024]
0	0xbae10eaf	-0.0017170514
1	0x3d98a6b7	0.07453673
2	0x3d6550f7	0.055985417
3	0xbcf2d1ef	-0.02964112
4	0xbd4510ec	-0.04811184
5	0xbca3c1e7	-0.01998992
6	0x3d6e3fe2	0.058166392
7	0xbb6963d3	-0.0035612478
8	0xba7c7f46	-0.00096320023
9	0x3baf9622	0.0053584734
10	0x3aaf81e4	0.0013390151
11	0x3d7a9643	0.061178457
12	0xbac6820e	-0.001514496
13	0xbad303c4	-0.0016099145
14	0x3cce04d8	0.025148794
15	0x3b714164	0.0036812657
16	0x3cf988b5	0.030460695
17	0x3ca53615	0.02016739
18	0x3ceb71ed	0.028740847
19	0x3cb2d2d7	0.021829052
20	0xbd04fc35	-0.032467086
21	0x3d6cb41b	0.05778895
22	0xbd0600d9	-0.032715652
23	0x3ba60323	0.005066292
24	0x3c740b37	0.014895252
25	0x3d8f3715	0.06992928
26	0x3d407a24	0.046991482
27	0xbc949f7d	-0.018142456
28	0x3d3279a4	0.043573037
29	0x3d63c107	0.055604007
30	0x3d2c1d18	0.042019933
31	0xbd23980b	-0.03993992
32	0xbd19312c	-0.03740041
33	0xbc77d738	-0.015126996
34	0xbd983691	-0.07432283
35	0x3cb4fef5	0.02209423
36	0x3ae1e615	0.0017234707
37	0xbd759b59	-0.059962604
38	0xbdbb1208	-0.091342986
39	0x3d757c83	0.059933197
40	0x3d34d35e	0.044146888
41	0xbda667c6	-0.08125262
42	0xbdd42a38	-0.10359615
43	0x3d213804	0.03936006
44	0x3d079902	0.033104904
45	0xbcd4ceb3	-0.025977468
46	0xbd6c6cc5	-0.05772092
47	0x3d0c49be	0.034250014
48	0xbdb345f4	-0.08753577
49	0xbc988c5b	-0.018621614
50	0x3ca40c99	0.020025538
51	0x3ab8c835	0.0014097752
52	0xbc1c2ed4	-0.009532649
53	0x3ca6907b	0.020332566
54	0x3d45916a	0.04823438
55	0x3d5a5c9a	0.053310968
56	0xbd3513d4	-0.044208363
57	0x3bd5fa05	0.006530049
58	0x3d8a92f8	0.06766313
59	0xbc782fdd	-0.01514813
60	0xbdaed3e3	-0.08536508
61	0xbbb03a67	-0.005378056
62	0xbb8ec9ae	-0.004357538
63	0xbbf90e12	-0.0076005543
64	0x3dca62aa	0.098821
65	0xbc3b30d2	-0.011425214
66	0xbc358aad	-0.011080426
67	0x3c6e1697	0.014531753
68	0x3da6cefc	0.08144948
69	0xbc065835	-0.008199741
70	0xbd181a0d	-0.03713422
71	0xbcd70981	-0.026249649
72	0x3cc8def5	0.024520377
73	0x3cd3cd8c	0.025854848
74	0xb93ee030	-0.00018203328
75	0x3c53dd35	0.012931158
76	0x3d2dfbd1	0.04247648
77	0x3bf5bbe1	0.0074992036
78	0xbab94206	-0.0014134056
79	0x3d67df3f	0.05660939
80	0x3d023338	0.031787127
81	0xbdc69429	-0.09696228
82	0xbdc27e77	-0.094967775
83	0xbd528487	-0.05139592
84	0x3c729897	0.014806888
85	0xbd1614a7	-0.03664079
86	0xbe1a48dc	-0.15066856
87	0xbd5e6cfb	-0.05430315
88	0x3c09d0c3	0.008411589
89	0xbcba913c	-0.022774331
90	0xbdfa5139	-0.12222523
91	0xbdc14a47	-0.094379954
92	0xbd25a9d9	-0.040445182
93	0xbd163b6c	-0.036677763
94	0xbd30da8e	-0.04317718
95	0x3b51ccc9	0.003201293
96	0xbcc35bcd	-0.023847485
97	0xbd7741e8	-0.060365587
98	0x3cd160c1	0.025558831
99	0xbd57632e	-0.05258482
100	0x3d7665a2	0.06015552
101	0xbd32bb8d	-0.043635894
102	0xbbd42e2b	-0.00647523
103	0x3b7e0735	0.003876162
104	0x3cf29d9b	0.029616168
105	0x3ccb0d97	0.024786754
106	0x3df29c9a	0.11846276
107	0x3d0b1f38	0.03396532
108	0xbcd04cd8	-0.025427267
109	0x3d350e68	0.044203192
110	0x3c9fd961	0.019512834
111	0x3d1a9248	0.03773716
112	0x3c300f49	0.010745832
113	0x3d3c501f	0.045974847
114	0x3dcd066e	0.10010992
115	0xbce33e2f	-0.027739612
116	0xbc7525f9	-0.014962667
117	0x3cc55376	0.024087649
118	0xbcba0372	-0.022706721
119	0xbc52863a	-0.012849385
120	0xbc7aa92e	-0.015299125
121	0xbc7d0799	-0.015443706
122	0xbd26e695	-0.040747244
123	0xbd054586	-0.032537006
124	0x3c94156c	0.018076621
125	0x3bd42447	0.006474051
126	0x3d637fd9	0.055541847
127	0x3c98e0a7	0.01866181
128	0x3c5deb6e	0.0135449
129	0xba8dc8d7	-0.0010817301
130	0x3cb53689	0.022120731
131	0xbd4d7be3	-0.050166976
132	0x3a49494d	0.0007678464
133	0xbcd9447d	-0.026521916
134	0x3c9e84a7	0.019350363
135	0xbd7658ea	-0.06014339
136	0xbd03bf84	-0.032165065
137	0x3d1e6adf	0.03867614
138	0x3d0e62b6	0.034762107
139	0xbbfdfc4e	-0.0077510243
140	0xbab373fb	-0.0013691181
141	0x3d2ffe50	0.04296714
142	0x3d1052e1	0.03523529
143	0x3c490447	0.012269086
144	0xbc8b7856	-0.017025154
145	0xbd31fa71	-0.04345173
146	0x3da065ff	0.07831954
147	0x3d583011	0.052780215
148	0x3cfc71d0	0.030815989
149	0xbacb6f82	-0.0015520903
150	0x3dab978a	0.08378513
151	0x3dee6552	0.11640419
152	0x3cff3174	0.03115151
153	0xbd0ba384	-0.034091488
154	0x3c949117	0.01813559
155	0x3d7ab51b	0.061207872
156	0x3c9f3941	0.01943648
157	0x3ca6ed70	0.02037689
158	0x3c27d9eb	0.010244827
159	0x3d57d62d	0.05269449
160	0x3d464f1e	0.048415296
161	0x3d232bd9	0.03983674
162	0xbc852cf8	-0.016256794
163	0xbd18a653	-0.037267994
164	0xbd894cb4	-0.06704083
165	0xbdb14222	-0.08655192
166	0x3d586623	0.05283178
167	0x3c8e46bf	0.017367719
168	0xbce0507d	-0.02738213
169	0xbce8414c	-0.028351448
170	0x3e183072	0.1486223
171	0x3c8260e5	0.015915344
172	0x3b9f9725	0.0048703128
173	0x3baaded7	0.005214553
174	0x3dba73e5	0.091041364
175	0x3d27f2b4	0.041002944
176	0xbce375d9	-0.027766155
177	0xbd089289	-0.03334287
178	0xbdd6819d	-0.104739405
179	0xbcfff314	-0.031243838
180	0xbd4a7a36	-0.049432956
181	0xbd82dfc0	-0.06390333
182	0x3d071c17	0.032985773
183	0x3ccec5a2	0.025240723
184	0x3c02d255	0.007984717
185	0xbd1cd6ae	-0.038290672
186	0xbd17e95c	-0.037087783
187	0x3b6c2789	0.0036034307
188	0x3b58866a	0.0033039101
189	0xbd017e22	-0.03161443
190	0xbc4af716	-0.012388011
191	0x3cb13fa4	0.021636792
192	0xbd434e47	-0.047682073
193	0xbcd83908	-0.026394382
194	0x3d024610	0.031805098
195	0x3d31ff13	0.04345615
196	0xbcfb6571	-0.03068802
197	0xbdc55fea	-0.09637435
198	0xbd37219c	-0.044709787
199	0xbc6d693c	-0.014490422
200	0xbd3ec82a	-0.04657761
201	0xbdc6f0ee	-0.097139224
202	0xbcd00b6a	-0.025396068
203	0xbd742a4d	-0.059610654
204	0x3d68876d	0.056769777
205	0x3d815c6f	0.063164584
206	0x3d9422f5	0.0723323
207	0xbc58090b	-0.01318575
208	0x3c20dc20	0.009818107
209	0xbd0b4809	-0.034004245
210	0x3d185151	0.037186924
211	0xbc724b4d	-0.014788461
212	0x3ba16631	0.0049255122
213	0xbcdf2086	-0.027237188
214	0x3cc9cf43	0.024634963
215	0x3d08433f	0.033267256
216	0xbcb4467c	-0.022006266
217	0x3d0d4028	0.034485012
218	0xbc2e14bf	-0.010625063
219	0x3d4545ef	0.048162397
220	0x3ca58a02	0.020207409
221	0xbc532db3	-0.0128893135
222	0xbcc65523	-0.024210518
223	0x3d269ab5	0.040674884
224	0x3d47ce98	0.048781008
225	0x3cc0195c	0.023449592
226	0xbb5298f5	-0.0032134627
227	0x3cedef9f	0.029044924
228	0xbbad1ab5	-0.0052827247
229	0xbce53df6	-0.027983647
230	0xbd72b62a	-0.059255756
231	0xbd0ce173	-0.034394693
232	0xbd8b626b	-0.06805881
233	0xbe1c45bf	-0.15260981
234	0x3bf19a66	0.007373142
235	0xbd6ab656	-0.057302795
236	0x3c43b1fb	0.011944289
237	0xbdb39337	-0.087683134
238	0xbb8fb8d1	-0.0043860455
239	0x3d286c7b	0.04111908
240	0x3c245ff0	0.010032639
241	0x3c3e7b9b	0.0116261495
242	0xbd2802ec	-0.04101841
243	0xbc6e3f02	-0.014541389
244	0x3c903218	0.017602012
245	0xbd9c1a3c	-0.07622191
246	0xbd6e49fd	-0.05817603
247	0xbcfce03e	-0.030868646
248	0x3cd78916	0.026310485
249	0xbd355b15	-0.044276316
250	0x3a10568b	0.000550606
251	0x3d5f798e	0.054559283
252	0x3cad486a	0.021152694
253	0xbd5c6012	-0.053802557
254	0xbd013c55	-0.031551678
255	0x3c03c2ce	0.0080420505

module.13.bias f4 [64]
0	0x3c25dd82	0.010123612
1	0x3de6e5a8	0.11274272
2	0x3da9e94d	0.08296452
3	0x3d0dcbb4	0.034618095
4	0x3d5337e3	0.05156697
5	0x3cc49800	0.02399826
6	0x3c87b565	0.016565988
7	0xbca661f0	-0.020310372
8	0x3c6ed235	0.014576484
9	0x3d148145	0.036256094
10	0xbd0f42ba	-0.034975745
11	0xbc6907dc	-0.014223065
12	0x3daede49	0.08538491
13	0x3c19f894	0.009397645
14	0xbb89a6fe	-0.004200815
15	0x3d7820cf	0.060578164
16	0xbcb615fa	-0.022227276
17	0x3d655111	0.055985514
18	0x3d4bb596	0.04973372
19	0xbcba791f	-0.022762833
20	0x3df0a708	0.11750609
21	0x3aed61c2	0.0018110799
22	0x3b5122e9	0.0031911677
23	0x3d2cb0e8	0.0421609
24	0xbc8e4a48	-0.017369404
25	0x3d212866	0.039345168
26	0x3db3dd4f	0.08782446
27	0xbd00886b	-0.0313801
28	0x3d995b9a	0.07488175
29	0xbcd7cd40	-0.026342988
30	0x3cbd8c6d	0.02313825
31	0xbc23ac30	-0.009989783
32	0x3dbe8967	0.09303551
33	0x3cf5591c	0.029949717
34	0xbae2d941	-0.0017307178
35	0x3d174707	0.03693297
36	0x3c0657b6	0.008199623
37	0xbbff7b71	-0.007796698
38	0xbc4e145a	-0.012578094
39	0x3d7778fa	0.060418107
40	0x3de71ada	0.112844184
41	0x3c612081	0.01374066
42	0x3d37495e	0.044747703
43	0x3dd2d2d6	0.1029412
44	0x3c4cfbeb	0.012511234
45	0xbc0bf0d4	-0.008541305
46	0x3c38e516	0.011285087
47	0x3d86424a	0.065556124
48	0x3d765ba0	0.060145974
49	0x3acb015e	0.0015488078
50	0x3bb3e271	0.0054896404
51	0xbce907f5	-0.028446177
52	0x3d1006ff	0.035162922
53	0x3cd36d8f	0.025809078
54	0x3d4697b2	0.04848451
55	0xbcfed215	-0.031106034
56	0x3d870211	0.06592191
57	0xbd0debf5	-0.034648854
58	0x3bd8cc55	0.006616155
59	0x3d421e47	0.047392156
60	0xbd090198	-0.033448786
61	0x3d7f5539	0.062337134
62	0x3da37c3a	0.07982679
63	0x3c83a738	0.016070947
