models/xue_epoch_5.pth (torch, 592503 bytes, 22 tensors)

module.0.weight f4 [32, 3, 5, 5]
000000 af 9d 61 bc 50 61 9f bd 76 e1 c9 ba 5e 16 01 3d
       -0.013770505 -0.07782233 -0.0015402276 0.03151547
000010 9c b2 e4 3c 7e 10 52 be e6 aa 24 be 0c 74 31 be
       0.027917199 -0.20514104 -0.16080818 -0.17329425
000020 f3 8d 61 be 78 b0 06 be 21 60 85 be c7 4d 42 be
       -0.22026806 -0.13153255 -0.26049903 -0.18974982
000030 8c 44 12 be 5b 3d 2f be 57 5d 75 be bf fd a8 bd
       -0.14283961 -0.17113249 -0.23961388 -0.08251523
000040 26 79 6a be 92 93 33 be 1a dd 19 be ea b5 a0 bd
       -0.22897777 -0.17536762 -0.1502575 -0.07847197
000050 c1 7d 42 be 18 7b 14 be 23 3f 6d be 84 55 7f be
       -0.18993284 -0.14500082 -0.23168616 -0.24934965
000060 e4 20 de bd 6c 4c 81 3d 9c f2 29 3d 1a 5a d5 ba
       -0.10846117 0.063134044 0.041491136 -0.0016277463
000070 84 26 af bd 33 26 a3 bd c4 d9 34 3c 98 19 c4 3b
       -0.08552268 -0.0796627 0.0110382475 0.0059844963
000080 87 6c f1 3c cc 67 0f bb be 15 d2 3d 4f c0 c7 3a
       0.029470695 -0.0021881936 0.10258053 0.0015239808
000090 e7 10 5d bc 16 fb 53 bc 7c f5 d3 3d e4 c1 39 3c
       -0.013492799 -0.0129382815 0.10349557 0.011337731
0000a0 d0 95 5d bd ea cc 36 3e 33 1b 0e 3e 68 df 57 3c
       -0.05409795 0.17851606 0.13877563 0.013175823
0000b0 90 95 79 3c a4 f2 fe 3d 73 cc bb 3d 05 a1 f2 bd
       0.015233412 0.12448624 0.09169855 -0.11847118
0000c0 85 15 18 3d 97 02 bc 3c c8 64 4a 3d 6b 01 7a 3d
       0.037129898 0.022950454 0.04941252 0.06103651
0000d0 61 65 ed 3d a8 d1 14 3e 42 cf 53 3d d9 21 e3 3d
       0.11591602 0.14533103 0.05171133 0.1109044
0000e0 18 9f fc 3d 69 0c 3a 3e 62 77 a9 3d d6 00 2e 3e
       0.12335032 0.18168797 0.082747236 0.16992506
0000f0 0a 62 64 3e b8 ef 21 3e 07 07 b4 3d 84 1a ba 3d
       0.22303024 0.15814102 0.08790403 0.09087089
000100 b0 83 0d 3e 9c 69 59 3e 0b 49 64 3e 2b 2b d1 3d
       0.13819766 0.21231693 0.22293489 0.10213312
000110 0f 6b 1e 3e be d0 aa 3c 81 04 25 3e 18 b4 f8 3d
       0.15470527 0.02085149 0.16115 0.12143725
000120 f4 03 94 3c f8 67 37 3d 81 c8 f3 bb 09 0f 14 3d
       0.018068291 0.044776887 -0.0074396734 0.03614715
000130 d7 ab db bc c1 56 24 3e 84 b5 a1 3d ae 67 9d 3d
       -0.026815338 0.16048719 0.078959495 0.07685791
000140 87 0c cc 3d f2 16 f2 3d 33 e2 62 3e 21 56 4a 3e
       0.09963327 0.11820783 0.221566 0.19759418
000150 20 6a 11 3e 87 9d 4a 3d 31 8d 8f 3d 8d 00 12 3d
       0.1420064 0.049466636 0.07009352 0.035645057
000160 4d d7 27 3d d9 14 9d bd 3a 4a 6d 3b f8 9a 47 3c
       0.04097681 -0.07669992 0.0036207573 0.0121829435
000170 7c e9 65 3d 7b 35 0d 3c 19 fb c5 3d 93 20 36 3d
       0.05613087 0.008618708 0.09667034 0.04446466
000180 6c 84 1e 3d 36 b6 f9 bc 27 14 12 3d 58 81 f7 bb
       0.038700506 -0.030482393 0.03566375 -0.007553261
000190 e0 ee a5 3d dc ae c7 bc ae 37 d6 3c 75 2f 78 bd
       0.081022024 -0.024375372 0.026149597 -0.060592134
0001a0 29 4d 3a 3d 6d 6e d7 bb 38 67 45 3d b2 1b 8a bd
       0.045483742 -0.006574443 0.04819414 -0.06743564
0001b0 aa 2e f2 3d 06 9b 57 3d fa 43 09 bd 2b ca d3 bd
       0.11825307 0.052638076 -0.033512093 -0.10341295
0001c0 8c f0 a3 bd b9 0d e5 bd cb e1 83 3c 0b 8a 9c bd
       -0.08004865 -0.11184258 0.016098877 -0.07643517
0001d0 42 3c 2c bd 74 a0 26 bc 46 ed 07 be e7 49 b3 bd
       -0.042049654 -0.010170091 -0.13274106 -0.0875433
0001e0 9b 7c 31 3d c2 10 99 bd ca 3a 86 3c 47 95 32 3d
       0.043331724 -0.074738994 0.016385455 0.043599393
0001f0 61 cf 90 bd c8 66 1b bd 4f 36 be 3d 79 36 b2 bc
       -0.070708044 -0.037939817 0.09287702 -0.02175449
000200 34 56 1f 3e 23 0b 10 3e 35 e8 fc 3c d8 34 09 3d
       0.15560228 0.14066748 0.030872444 0.03349766
000210 5e a9 d0 bc c5 9e 5b 3d 92 5d 89 3d 11 bb 97 bb
       -0.025471386 0.05361821 0.067073 -0.0046304544
000220 04 0d 92 bd 79 e2 b2 3c 12 86 cb bd 02 1a 9e bd
       -0.07131389 0.021836506 -0.09937681 -0.07719804
000230 36 dd 5d bd 63 f8 6f bd b9 22 2b be e9 ee b5 bd
       -0.05416604 -0.05858649 -0.16712464 -0.08883459
000240 23 db ef bc 45 26 c9 bd 07 10 95 bd 3d d3 ff bd
       -0.029279297 -0.098217525 -0.072784476 -0.124914624
000250 68 ed 14 3c 94 21 8a b8 0f c0 95 3d 7f 6e f4 bb
       0.009089805 -6.586607e-05 0.07312023 -0.007459461
000260 c4 c4 07 bd 38 46 8a 3c 25 da 7f 3d 71 ec e7 bd
       -0.033146635 0.016879186 0.0624639 -0.113243945
000270 16 cc a2 bd f3 d7 7f bd 15 75 35 3e f8 f9 f2 3d
       -0.079490826 -0.062461805 0.17720445 0.11864084
000280 2b 4f dd bd bb 1e 76 bd 73 56 db 3d 45 ac 62 3e
       -0.10806116 -0.0600879 0.10709848 0.22136028
000290 b8 84 0d 3e fe 1f f1 3c a7 2d de bc 08 18 f5 3d
       0.1382016 0.0294342 -0.027121378 0.11967474
0002a0 25 87 b3 bd 1b fe bd 3c 09 90 f6 bd ff ca 83 3d
       -0.08766011 0.023192456 -0.12039191 0.06435203
0002b0 68 31 4f 3d 4d 9c 24 bc aa c2 25 be f7 ee 82 3d
       0.050584227 -0.010047031 -0.1618754 0.06393235
0002c0 4b eb 12 3d 04 f4 12 be 97 33 f8 bb 9f 7f 78 bb
       0.035868924 -0.14350897 -0.0075745094 -0.0037917865
0002d0 84 92 07 bc 57 75 d4 bd 6f 47 f2 bc 29 62 d9 3b
       -0.008274678 -0.10373943 -0.029575078 0.006634016
0002e0 55 22 28 3d de c7 56 3d 01 b7 77 bb 00 82 7d 3d
       0.041048367 0.052436702 -0.0037798288 0.061891556
0002f0 61 5a 0d 3e 10 bd 44 3d e8 ba b3 3d 10 59 f1 bc
       0.13804008 0.048031867 0.08775884 -0.029461414
000300 56 1f fb 3c 58 13 f5 3d fb 6d 55 bd ed 33 90 3d
       0.03065459 0.1196658 -0.05210684 0.07041154
000310 82 e4 24 3e 97 54 b5 ba 26 dc f9 38 a4 3a 12 be
       0.16102794 -0.0013834414 0.00011914251 -0.14280182
000320 a6 e6 0a be 9a 6a 39 3d 45 ee bc ba 42 61 2b bd
       -0.13564548 0.04526768 -0.0014414272 -0.0418408
000330 15 24 1f bc c0 bf b0 bd 12 e6 d3 bc 5c a2 f9 3c
       -0.0097131925 -0.086303234 -0.025866542 0.030472927
000340 71 05 e8 3d ce 52 34 3e 8e 9d cf bd a1 00 b8 3d
       0.11329163 0.17609712 -0.10137473 0.08984495
000350 cd e2 4a bd c0 24 37 3e 6e f7 99 3c 60 c1 ee bc
       -0.0495327 0.17885113 0.018794741 -0.029144943
000360 5c 95 28 bd d9 1f d3 3d 68 ac 01 bd 92 56 56 bc
       -0.041158065 0.10308809 -0.03165856 -0.013082163
000370 75 d7 99 3d b9 6f 26 bd 0c 4a d4 3d c2 1b 07 bc
       0.07511798 -0.04063389 0.10365686 -0.008246364
000380 80 8e 80 bd 30 6c d3 3c a5 5a 5d bc 6c d4 04 bd
       -0.0627718 0.025808424 -0.013510381 -0.032429144
000390 e6 aa ce 3d 8f d7 14 bc 63 b7 93 3d 81 3d 69 be
       0.1009119 -0.009084596 0.072127126 -0.22777368
0003a0 d6 c9 94 bd 94 49 26 3e 93 20 56 3e 29 c2 95 bd
       -0.0726506 0.16239005 0.20910864 -0.07312424
0003b0 24 61 41 be 8f 8e ad bc fb 72 9c 3d 62 92 ec 3d
       -0.18884712 -0.021186141 0.07639118 0.11551358
0003c0 c3 8c 9e bc d7 e5 f1 bd d9 6c 43 bd 3f 8c 19 3e
       -0.01935423 -0.118114166 -0.047711227 0.14994906
0003d0 3d 3b 43 3e 9f 97 9b bd 2d 26 73 3d e4 e6 79 bd
       0.19065566 -0.07597279 0.05936258 -0.06101121
0003e0 27 c7 a8 bd 30 9c 04 3e 77 be de bd db a9 57 bd
       -0.0824111 0.12950206 -0.10876172 -0.05265222
0003f0 58 ad 90 bc af f3 dd 3d 53 ca 47 3e d7 e3 af bd
       -0.017660782 0.108374946 0.19510774 -0.08588379

module.0.bias f4 [32]
000000 65 89 91 3d e0 55 bc bd 22 7b 6b 3d 62 9c db 3d
       0.07106284 -0.09196067 0.057490475 0.10723187
000010 b9 05 81 3d 73 61 0e 3d aa dd 84 bd d0 04 da 3c
       0.0629992 0.034760904 -0.064875916 0.026613623
000020 5d d3 a4 3d 53 5a 81 3d 78 d5 81 3d 85 b9 9d bd
       0.08048127 0.06316056 0.06339544 -0.07701401
000030 00 83 bd 3c 33 09 cd 3d 87 d6 43 3d f7 83 93 bd
       0.023133755 0.1001152 0.04781201 -0.07202905
000040 b9 68 d3 bd c6 26 81 bd b8 37 f0 bc f4 75 9a 3d
       -0.10322709 -0.063062236 -0.029323444 0.07542029
000050 89 c6 e1 3c 65 59 2e bd 9f e1 da 3d 14 c9 91 bd
       0.02756049 -0.042565722 0.10687565 -0.07118431
000060 dc cc bd bd 19 45 4f 3d b8 c5 9b 3d ec e2 1a 3d
       -0.092675894 0.050603006 0.07606071 0.037814066
000070 d9 7a b4 39 ed ed 82 bd 17 40 5d 3d 40 09 66 3d
       0.00034423804 -0.06393037 0.0540162 0.056161165

module.1.weight f4 [32]
000000 eb 5f 5c 3f a6 ea 64 3f 7e df 56 3f 82 5e 92 3f
       0.8608386 0.89420545 0.8393477 1.1435091
000010 38 12 62 3f b0 05 88 3f 26 ff 4e 3f 40 b0 83 3f
       0.8830905 1.0626736 0.80858076 1.0288162
000020 76 6c 9d 3f 6a 2e 53 3f 4c 23 5b 3f a1 33 77 3f
       1.2298725 0.824927 0.85600734 0.96563154
000030 7b 29 61 3f 02 1b 81 3f 4b 69 78 3f d7 32 7e 3f
       0.8795392 1.0086367 0.97035664 0.99296325
000040 a7 2f 55 3f b1 cb 7e 3f bb bd 66 3f c6 df b4 3f
       0.83275837 0.9952956 0.90133256 1.413079
000050 bc c7 64 3f b9 70 8f 3f 57 24 4a 3f 34 f4 90 3f
       0.8936727 1.1206275 0.789617 1.1324525
000060 d5 24 9c 3f 96 80 72 3f 66 fa 4d 3f 84 5e 7a 3f
       1.219874 0.94727457 0.804602 0.9780047
000070 1b e8 8a 3f 23 be 76 3f 4f 98 90 3f c4 7f 97 3f
       1.0852083 0.96383876 1.1296481 1.1835866

module.1.bias f4 [32]
000000 b7 87 40 3d 28 0e 26 be 12 10 a1 bd 39 dd c8 bd
       0.047004428 -0.16216338 -0.07864393 -0.0980782
000010 2d d1 03 be f9 e2 0c be 83 eb fe 3c 92 5c 13 bd
       -0.12872763 -0.13758458 0.03111816 -0.035976954
000020 6e 38 81 be 30 b0 14 be c5 43 f9 bc e2 c8 dd bd
       -0.25238365 -0.14520335 -0.030427823 -0.10829331
000030 89 58 09 ba 2e f4 0a 3d 04 1e 74 be 14 f3 6c bd
       -0.0005239328 0.033924274 -0.23839575 -0.057849005
000040 71 30 b9 bd e2 cc 08 3c 56 29 e6 bd b3 d6 74 be
       -0.090424426 0.008349629 -0.11238353 -0.23910026
000050 f0 5b 4c be 85 af cc bd a9 cb 76 be 0a f7 96 bd
       -0.19956946 -0.09994415 -0.24101128 -0.07371338
000060 70 81 8d bc 8c 24 65 be 4d ec 33 be da 12 7a bd
       -0.017273635 -0.22377223 -0.1757061 -0.061053135
000070 e9 49 e9 bc 2e 7e eb bd bb 6e 16 be b0 6e ac bc
       -0.028477626 -0.11498676 -0.14690678 -0.021048874

module.1.running_mean f4 [32]
000000 84 ed 81 bc ef 63 81 3e 65 ea f8 3e 02 11 50 3d
       -0.015860327 0.25271556 0.4861633 0.05079747
000010 ab af 38 3e 7d 8d 64 be 4e 1c 1f be 07 99 b8 3d
       0.18035762 -0.22319598 -0.15538141 0.09013563
000020 d4 b1 11 bf 79 8a f6 3e 45 55 c3 3e e2 ea b3 be
       -0.5691197 0.4815252 0.38150993 -0.3514014
000030 61 81 0b 3e e7 e6 03 3e 46 e4 a9 bd ef 66 85 be
       0.13623573 0.12881051 -0.08295493 -0.26055095
000040 a2 52 4b 3e 13 a7 cd bd d9 fa 8a be 3b d3 71 bd
       0.1985574 -0.100416325 -0.27144507 -0.059039336
000050 9a 05 d8 3d ce 8b c6 bd b4 8f eb 3e 44 7d 95 bd
       0.105479434 -0.096946344 0.46008074 -0.07299283
000060 47 a7 83 be 2d 3f 91 be 6a 11 b0 3e 86 12 ce 3c
       -0.2571356 -0.28368512 0.34388286 0.025155317
000070 dd 39 04 bd ac 5e 16 be 71 1a 84 3d df 79 ed bc
       -0.032281745 -0.14684552 0.06450356 -0.028988777

module.1.running_var f4 [32]
000000 c1 c4 50 3e b8 3f 02 3e 7a 7b c5 3d 06 92 bc 3e
       0.20387556 0.1271962 0.09642692 0.36830157
000010 15 66 f5 3c 24 c3 82 3d 52 1d b6 3d 37 3d 65 3d
       0.029955903 0.06384876 0.08892311 0.055966582
000020 89 82 45 3e 2c 4c cf 3d a5 35 1a 3e e1 eb 9a 3d
       0.19288076 0.101219505 0.15059526 0.075645216
000030 27 66 91 3d 76 bc 5b 3e 76 d7 de 3d e8 15 3c 3e
       0.07099562 0.21458611 0.1088094 0.18367732
000040 f4 f3 2f 3e 7a 7e 03 3e a9 81 2b 3d 06 28 aa 3e
       0.17182904 0.12841216 0.0418717 0.3323366
000050 5c ec 92 3d 5c 86 9f 3d fd 2e e7 3d 3c e0 11 3e
       0.07173988 0.07789299 0.11288259 0.14245695
000060 1c 2a 44 3e 72 8c 0c 3e 3d c9 3e 3d b7 53 1f 3e
       0.19156688 0.1372545 0.046578635 0.15559278
000070 ca ed 1f 3e ca 62 e9 3d 5d 9f 9e 3d 53 11 cb 3e
       0.15618053 0.11395796 0.0774524 0.39661655

module.4.weight f4 [32, 32, 5, 5]
000000 ff c8 99 bd 0d d8 a7 bd e3 6a a7 bd 92 f8 07 bd
       -0.0750904 -0.08195505 -0.08174684 -0.03319604
000010 75 2b 80 bd 84 f9 df bc d9 97 b4 bb a5 25 3e bc
       -0.06258289 -0.027340658 -0.0055112657 -0.011605655
000020 ae 1e a1 bc 69 c7 aa bc 75 76 37 3b f6 8d 8b bd
       -0.01966795 -0.02084704 0.002799419 -0.06814186
000030 b9 02 2e bc 58 54 2c bd 98 28 06 bc 99 d8 b7 3c
       -0.010620766 -0.042072624 -0.008188389 0.022442149
000040 7e af ef bb 80 ec c9 3c d6 af a7 bc 9c c6 ad bb
       -0.0073146215 0.024648905 -0.020469587 -0.005303217
000050 f0 6b f5 3c b6 24 8d 3d c3 f4 85 3d e6 4f a3 3d
       0.029958695 0.06891768 0.06540825 0.07974224
000060 42 c8 04 3d 2d 17 49 bd ed 6f f2 bc b1 22 72 bd
       0.032417543 -0.049094368 -0.029594386 -0.059115116
000070 23 af 81 bc f1 f9 27 bd 79 9d a0 bb d8 97 c8 bc
       -0.015830582 -0.041009847 -0.0049015847 -0.024486467
000080 42 2f 0a bd cd b2 35 bd 89 3e 68 3c fd 65 07 3d
       -0.033736475 -0.04435997 0.014175066 0.033056248
000090 cc 92 2e 3d 08 5f e8 3c 20 cc 95 3c 23 cf 80 bc
       0.042620465 0.028365627 0.018285811 -0.01572377
0000a0 f3 c0 9b bd dc 2c b6 bc 89 a0 d6 bc db 6e 09 bd
       -0.076051615 -0.022238187 -0.026199596 -0.033552986
0000b0 ed 49 1e bd 0c 55 64 3c 22 48 96 3c 45 ff cf 3c
       -0.03864472 0.013936292 0.018344942 0.025390277
0000c0 dd b0 99 3d 60 a2 80 3d c7 c0 33 bd 8f d2 1d bd
       0.07504437 0.062809706 -0.04388502 -0.038530882
0000d0 fe 3c 2c bc 55 df e4 bc 65 1e 7a bc 55 2d 17 bd
       -0.010512589 -0.027938524 -0.015266036 -0.036908466
0000e0 1a 2c 92 bc 06 ff 0a bd d7 25 12 bd 76 69 07 bd
       -0.017843295 -0.033934616 -0.035680618 -0.03305956
0000f0 9a fa 49 bd 72 cd c8 bb b1 47 d0 bc 8c 9e 59 bd
       -0.049311258 -0.0061280066 -0.02542481 -0.053129718
000100 f3 19 60 bc d0 97 ae bd ac ad 78 bd 1f b2 b2 bc
       -0.013678062 -0.0852505 -0.0607125 -0.02181345
000110 bd d8 01 bd 24 44 fe bc b2 12 ce bc d8 92 8c 3c
       -0.03170084 -0.031038351 -0.025155399 0.017159864
000120 7c 89 97 3b 6b bf 6e bc b5 8d 24 3c 92 ec 50 bd
       0.0046245437 -0.014572005 0.010043551 -0.05100686
000130 ca 7c c3 bc 4e 6e 37 3c 1e 62 54 3c ab d6 8d bc
       -0.023863215 0.011195732 0.012962846 -0.017314276
000140 e7 f4 0e 3c 6d 54 15 3d 4c 68 b4 3c 68 bd 92 bc
       0.008725381 0.036457468 0.022022389 -0.017912582
000150 51 64 90 3c 3f 37 54 bd 1a 14 83 bc 27 47 04 3d
       0.01762596 -0.0518105 -0.016000796 0.03229442
000160 9e 7b b3 bc b4 0e da bc 14 6e 0e bd 34 51 d3 bc
       -0.021909531 -0.02661834 -0.034772947 -0.025795557
000170 6b 44 35 bd a9 40 50 bd 17 f9 7d bc 23 ad 9d bd
       -0.0442547 -0.050842915 -0.015501282 -0.07699039
000180 52 a3 83 bd 69 a3 93 bc 17 8e 27 bd fb 5d 15 bc
       -0.06427635 -0.018022256 -0.04090699 -0.009116645
000190 f4 2e f3 bb f0 46 b0 bc 70 a7 83 bb c1 15 11 bc
       -0.0074213687 -0.0215182 -0.004017763 -0.008855284
0001a0 37 7e 0e bd bd 2d ea ba 6a 0b 31 bb 97 c1 98 bb
       -0.034788337 -0.0017866414 -0.002701486 -0.0046617496
0001b0 5e 2c 58 bc dc 37 97 3c 4d b3 a3 3c 58 76 d2 bc
       -0.013194172 0.018459253 0.019982958 -0.025691196
0001c0 35 d1 e6 bc ec ab d5 bc ab 28 bd 3c db 72 21 bc
       -0.02817593 -0.026082955 0.023090681 -0.009854044
0001d0 04 f4 16 3d 75 11 2e ba 95 73 67 bd 07 d4 04 bd
       0.036853805 -0.00066401745 -0.056506712 -0.032428768
0001e0 1d 54 46 bd 91 17 3e bd b2 a6 34 bd 3a 02 aa 3b
       -0.04842006 -0.046409193 -0.044104286 0.0051882537
0001f0 35 59 95 3c d4 f9 43 bd a7 a0 b0 bd 44 fd 06 bd
       0.018231014 -0.047845677 -0.08624392 -0.032956377
000200 bd 6e ba bd cc 19 99 bd b3 22 41 bd 43 b5 9f bc
       -0.09103153 -0.074756235 -0.047152232 -0.019495612
000210 b2 df 73 bb ff 94 c2 bc f8 9d a5 bd 3f 6d 0f 3d
       -0.003721219 -0.023752687 -0.08086771 0.035016295
000220 bd 9a 61 3d bb f5 cd 3d 90 17 ae 3c 66 8a b2 3c
       0.05507921 0.10056635 0.02125147 0.02179451
000230 85 0b 2c 3e e9 67 70 3e ba 8f 47 3e 8d fc 34 3e
       0.1680127 0.23477139 0.19488421 0.17674465
000240 88 8d 01 3e 45 d9 13 3c 5e 9d a6 3c 11 02 22 3c
       0.12651646 0.009023969 0.02033871 0.009888188
000250 c4 0f ca bc 61 97 f4 3a b4 f6 f8 3c 88 f8 2f 3d
       -0.02466572 0.0018660837 0.030391075 0.042961627
000260 f9 9c 94 3c 23 28 6c bc b9 a9 bb bb 0f 87 05 3c
       0.018141257 -0.014413866 -0.0057270196 0.008149876
000270 db 95 17 3d da 4f 96 3c dc 68 86 3c c0 f4 d9 bb
       0.037008148 0.018348623 0.016407423 -0.006651491
000280 2f e0 d1 bc 40 37 61 bd 41 57 11 bc 94 e5 30 bd
       -0.025619594 -0.05498433 -0.008870901 -0.043187693
000290 54 2b 0a bd a3 c7 f7 3b e7 2e 89 3d ae 5f 87 ba
       -0.033732727 0.0075616403 0.06698399 -0.0010328197
0002a0 3a 64 59 3c 9a 3e 2a bb 02 82 a5 3c 11 c0 a0 bc
       0.013268525 -0.0025977255 0.020203594 -0.019622834
0002b0 a2 ec c6 3c b2 43 c3 bc 75 09 9b 3c b2 56 ad bc
       0.024282757 -0.02383599 0.018925408 -0.021159504
0002c0 c0 95 c3 bb 8a 74 a3 3c b6 56 0f bd c9 59 ab bc
       -0.0059687793 0.019953031 -0.034994803 -0.020916836
0002d0 18 16 20 3c 9a 95 56 b9 14 52 07 bd 87 c8 68 3c
       0.009770893 -0.00020464361 -0.03303726 0.014207966
0002e0 31 a6 bc bc 5d 9d 1e bc 7d 25 3f 3c 8e fb 82 3d
       -0.023028465 -0.009681073 0.011666653 0.063956365
0002f0 dd b3 db 3c 6f 51 75 3d 83 6f 55 3d af 98 5a bc
       0.026819164 0.059892114 0.0521083 -0.013342067
000300 06 f1 4f bb 31 55 75 3c 0b f2 1c 3d 92 41 97 bd
       -0.0031729355 0.0149739245 0.038316768 -0.073855534
000310 c3 d2 02 bd 6d a1 c6 bd f3 be 46 bd ce 37 88 bd
       -0.03193928 -0.09698758 -0.048521947 -0.06651269
000320 f5 f5 79 bd db e2 91 bc 54 93 85 bd 5d 94 43 bc
       -0.06102558 -0.017808368 -0.06522241 -0.011937228
000330 7f 2d 80 bd 9a 24 35 bc f2 e4 99 3c 9e 6b 3f bd
       -0.06258678 -0.01105609 0.018785927 -0.04673349
000340 6d fd c2 bc c9 10 5f bd 6a 99 9f bc da d5 bb bc
       -0.023802483 -0.054459367 -0.019482333 -0.02292912
000350 3c 7d a6 bc 02 9d 38 bd a2 7e 02 bd 27 2b 46 bc
       -0.020323388 -0.04507161 -0.031859048 -0.012095249
000360 0f e9 8e bc 01 20 40 bc ab 01 f9 bc eb 3b a9 bd
       -0.017445115 -0.01172638 -0.030396303 -0.082633816
000370 91 09 8a 3d e7 65 b5 3d 1d c6 87 3d 1b 80 be 3d
       0.06740106 0.08857327 0.06629584 0.09301778
000380 dd c9 10 3d 6c 43 69 bc c9 55 8e bc ba f0 41 bc
       0.03534876 -0.014237266 -0.01737489 -0.011837179
000390 49 05 f9 3b 35 70 b6 bc b3 5e 3c bc 73 98 d2 bc
       0.007599507 -0.022270301 -0.011497187 -0.02570746
0003a0 29 52 2e bc 10 d5 53 bd 10 b8 32 3c b3 dc 80 3c
       -0.010639706 -0.051716864 0.010908142 0.015730238
0003b0 f6 a1 1d 3c 26 38 73 3b 7d ee e2 bc a9 6b 9b bc
       0.009621134 0.0037112324 -0.02770161 -0.018972235
0003c0 50 81 94 3c 6b f7 ac bc e3 5d 99 bc af 11 0d bd
       0.018128067 -0.021114072 -0.018721526 -0.034440693
0003d0 57 16 96 bc 40 6b a2 bc 18 dd 86 3c c1 f1 ae bc
       -0.0183212 -0.019826531 0.016462848 -0.021355512
0003e0 c1 6f 6b 3c 24 48 12 3c 9d cb 63 3c 8c bc 23 bd
       0.014369906 0.0089283325 0.013903526 -0.039974734
0003f0 20 8b 1b bd ec a7 dc bc d9 e3 d2 3c 87 6e 74 bc
       -0.037974477 -0.02693554 0.025743412 -0.01491893

module.4.bias f4 [32]
000000 fe f5 07 bd 1b 67 16 bb 20 6b 84 3c 3c 7c e8 bb
       -0.03319358 -0.002294964 0.016164362 -0.007094888
000010 db 94 b3 bc 51 fd dc 3c e4 74 b6 3c 1d f1 b6 bc
       -0.021921566 0.02697626 0.022272535 -0.022331769
000020 0f 85 a5 3c 5d 8c 10 3d 3a 88 fe bc a1 20 29 3b
       0.020205049 0.03529011 -0.031070817 0.0025806802
000030 7e f3 6a bc d9 fb ae bc 89 34 03 bd 59 61 17 3c
       -0.01434028 -0.021360325 -0.032032523 0.009239518
000040 83 5e cb 3c 6a 97 98 bc 14 e6 dc ba f8 23 d7 bc
       0.02482534 -0.018626887 -0.0016853237 -0.026262268
000050 13 ee c5 3c 81 81 fa bc b9 83 90 3b a2 5b 32 3c
       0.024161374 -0.03057933 0.004410234 0.010886105
000060 e9 93 c5 39 ec 29 d9 3c b1 fd d0 3c 99 d9 f7 bc
       0.0003768497 0.026509248 0.025511594 -0.030255126
000070 fa 0e 6e 3b 87 41 f8 bc 0e 56 6f 39 1b 87 80 3b
       0.0036324845 -0.030304683 0.00022824874 0.003922356

module.5.weight f4 [32]
000000 b6 6f 6c 3f 14 ba 6a 3f 20 8b 80 3f a8 31 73 3f
       0.9235796 0.9169018 1.0042458 0.94997644
000010 11 fe 80 3f d3 77 86 3f c1 25 74 3f 2b 0f 82 3f
       1.0077535 1.0505317 0.9537011 1.0160879
000020 69 89 8b 3f 56 f4 5c 3f d2 29 81 3f 6f f4 84 3f
       1.0901309 0.8631033 1.0090888 1.0387095
000030 c6 a5 6f 3f 45 59 8e 3f da 1e 75 3f 97 a7 84 3f
       0.93612325 1.1120993 0.957502 1.0363644
000040 64 70 78 3f fc f0 76 3f 20 0f 80 3f 55 e1 76 3f
       0.97046494 0.9646146 1.0004616 0.9643758
000050 e8 ec 75 3f b2 5c 6c 3f de b2 75 3f 95 c4 63 3f
       0.96064615 0.9232894 0.95976055 0.88971835
000060 da 6e 7e 3f df cc 88 3f fd 0f 76 3f a5 02 7e 3f
       0.99387896 1.0687522 0.96118146 0.99222785
000070 65 c2 7e 3f b9 9d 89 3f 37 86 8b 3f fc f7 7d 3f
       0.9951537 1.0751258 1.0900334 0.9920652

module.5.bias f4 [32]
000000 d7 fa 1d be 2a b2 20 be 23 ee 6d be c3 97 6b be
       -0.15427719 -0.15692964 -0.23235373 -0.23007111
000010 33 b7 1e bd 00 5c c2 bd 31 5b 49 be 55 32 25 be
       -0.03874893 -0.09490204 -0.19663693 -0.16132481
000020 41 89 55 be 1a 52 5c be 77 ae 87 be fc 9d 22 be
       -0.2085314 -0.21515694 -0.26500294 -0.15880579
000030 06 d1 4d be 6e 9d 2a be 66 43 77 be 9f b6 0f be
       -0.20099267 -0.16661617 -0.24146804 -0.14034508
000040 47 11 43 be de 00 2c be 8c bc b2 bd 35 cc 65 be
       -0.1904956 -0.16797206 -0.08727369 -0.2244118
000050 d4 3d 4c be 53 fe f7 bd 80 3a 5e be d1 58 39 be
       -0.1994546 -0.12109055 -0.21702003 -0.18100287
000060 25 07 5a be eb ef ed bd a6 6b 48 be 5b 9b 10 be
       -0.21291788 -0.11618026 -0.19572315 -0.14121763
000070 a5 79 82 be 64 da 3b be ea ba 29 bd 46 47 5d be
       -0.25483432 -0.18345028 -0.04143802 -0.2160922

module.5.running_mean f4 [32]
000000 14 cd d0 be 76 11 58 bf a6 6a c8 bf 28 da c1 3f
       -0.40781462 -0.84401643 -1.5657547 1.5144701
000010 ea 20 07 bf b4 27 32 be f6 27 0a 3f eb 4d 1e c0
       -0.527846 -0.17397958 0.53967226 -2.4735057
000020 82 51 98 bf 09 a4 92 bf d6 59 e2 bf fe 4b 87 c0
       -1.1899874 -1.145631 -1.7683666 -4.2280264
000030 1c 2e 9c bf e6 6e 39 c0 bc 0b 3c bf 32 a9 35 c0
       -1.2201571 -2.8973937 -0.73455405 -2.8384519
000040 08 88 0c c0 7f 25 7f bf 40 e6 35 c0 be d6 8a 3f
       -2.1958027 -0.9966659 -2.8421783 1.0846784
000050 c0 50 95 bf f4 b5 cc 3e 2c 3b 7d c0 b1 90 8b bf
       -1.1665268 0.3998257 -3.9567366 -1.0903531
000060 53 b4 06 c0 c3 9d 1f bf 7f c3 94 bf 30 15 ea bf
       -2.104756 -0.623501 -1.1622161 -1.8287716
000070 fa 9f 06 c0 c6 77 1a c0 88 cc b1 bd 5e 9c b9 be
       -2.1035142 -2.4135604 -0.08681589 -0.3625211

module.5.running_var f4 [32]
000000 b1 c3 63 40 93 bd 50 40 81 50 6d 40 ab 1b 75 40
       3.558819 3.2615707 3.7080386 3.8298137
000010 23 dc 71 40 2c 0c a4 40 96 dc a7 40 d9 76 93 40
       3.779061 5.126486 5.245677 4.608258
000020 ef 22 7d 40 4b 5d a5 40 07 db 62 40 a0 cb b2 40
       3.9552572 5.1676383 3.5446184 5.5873566
000030 80 26 88 40 5f 88 c9 40 62 00 64 40 cc 00 a6 40
       4.2546997 6.297897 3.5625234 5.1875973
000040 bf 16 78 40 17 f2 71 40 7f d0 69 40 b5 14 49 40
       3.8763883 3.780401 3.6533506 3.1418889
000050 a1 29 9c 40 47 95 51 40 f3 7b 94 40 49 66 2f 40
       4.8800817 3.2747362 4.6401305 2.740618
000060 5c f0 75 40 6a 2e 57 40 6b 0e 11 40 2b 3a 80 40
       3.8427954 3.362208 2.266505 4.0071006
000070 06 ae 80 40 50 f1 a3 40 3c 23 2b 40 23 a0 36 40
       4.021243 5.123207 2.6740255 2.853524

module.8.weight f4 [64, 32, 5, 5]
000000 87 e1 44 3c 4f 29 ca 3b b0 80 15 bd 09 b2 10 bd
       0.0120166605 0.006169475 -0.03649968 -0.035326038
000010 ab 63 0a bd f7 31 4f 3c fa f7 ca bc a5 26 e9 3b
       -0.033786457 0.01264619 -0.024776448 0.0071152025
000020 3b 91 35 bd db d3 e2 3b 5b 86 53 3d b0 ed 20 3d
       -0.044327956 0.006922228 0.051641803 0.039289176
000030 63 34 7f 3d 34 22 d6 ba bc 96 1c 3d 1f 1d 15 3d
       0.06230582 -0.0016337098 0.03822969 0.036404725
000040 22 95 9e bb 13 3d 24 bd aa e2 dc 3b 39 b6 93 3c
       -0.0048395554 -0.040097307 0.0067408876 0.018031226
000050 de f2 81 3d de 89 c8 3c 0b 42 a2 3c ae d2 27 3d
       0.06345151 0.024479803 0.019806882 0.040972404
000060 a5 f4 55 3d 1c b4 9a 3c 82 a4 d2 bb f1 08 5f 3d
       0.052235264 0.018884711 -0.0064283023 0.054451887
000070 02 bf 8c 3b bd 86 81 bb f0 49 c7 3c 68 f1 83 3c
       0.004295231 -0.0039528296 0.024327248 0.016106322
000080 ad f2 de bb cc cd 4c bc 15 13 29 bc f4 68 af 3c
       -0.0068038316 -0.012500238 -0.010319491 0.02141235
000090 cc da 43 3d b1 18 8e 3d 08 66 c7 3c 0e 20 21 3d
       0.047816083 0.06938303 0.024340644 0.03933721
0000a0 76 76 47 3d 6c 79 14 3c 97 bc dc 3c 7b 39 43 3c
       0.048696958 0.009062152 0.026945395 0.01191556
0000b0 5c 10 3b 3d 1a ac 94 3c a6 94 51 3d 4d 41 c5 3c
       0.0456699 0.01814847 0.051167153 0.02407899
0000c0 c5 0b 53 3d 86 95 34 3d eb f6 0d 3d 58 63 69 3d
       0.051524896 0.04408791 0.034659307 0.056979507
0000d0 03 e3 7e 3d d2 ab 0a 3d 85 fb 0f 3a d9 10 b3 bc
       0.062228214 0.033855267 0.00054924964 -0.02185862
0000e0 7a 90 06 3b b7 a4 02 3d cf 60 e7 3c 1d a0 3a 3c
       0.0020532892 0.031895366 0.028244404 0.011390713
0000f0 5b 0a 5b 3c e6 2e 6d bc c4 c6 97 3c 98 c7 22 3d
       0.013369168 -0.0144765135 0.018527396 0.03974113
000100 b3 e1 8b 3c 50 57 a7 3c 49 05 f4 3a c2 02 cc bc
       0.017075395 0.020427376 0.0018617298 -0.024903659
000110 cb 93 0d bc 61 6b 3c 3c a2 18 3a bc 12 e5 96 bc
       -0.008641194 0.0115002105 -0.011358412 -0.018419776
000120 6e ef 4c 3c 16 b5 e9 bc a4 41 80 bc e2 9c 84 bb
       0.012508256 -0.028528731 -0.0156563 -0.004047022
000130 63 6d d1 3b 49 be 1c b9 72 e4 a6 bc a4 41 49 bc
       0.0063912137 -0.00014948206 -0.020372603 -0.012283716
000140 28 bc 4a 3d 94 a4 09 3d 5a f2 8f bc 80 31 c2 3c
       0.049495846 0.03360422 -0.017571617 0.023705244
000150 e0 80 17 3d bb e4 54 3b be 26 84 3c 29 da 45 3d
       0.03698814 0.0032484967 0.016131755 0.048303757
000160 fa 89 86 3a 58 17 50 ba 15 60 98 bd c3 e5 9e 3b
       0.0010264509 -0.0007938049 -0.07440201 0.004849167
000170 94 39 8b 3c 8d c9 af 3c c6 fb 96 39 50 c2 8b bd
       0.016995229 0.021458412 0.00028797815 -0.068241715
000180 22 03 62 bd 6a b5 a2 3c ef 8b 66 3d 1a 33 19 3a
       -0.05517877 0.019861896 0.056285795 0.00058441015
000190 1a 66 a1 bd fa 3a 6f bd 17 f8 07 bd a5 59 d2 bb
       -0.078808025 -0.058405854 -0.03319558 -0.006419378
0001a0 86 03 aa 3b e5 1f 41 bd cf 02 69 bd 0d 4d 85 3c
       0.0051884083 -0.047149558 -0.056887444 0.016272092
0001b0 e0 84 44 3d 3b 36 24 3d 11 6d 20 3d 1b df 02 bd
       0.047978282 0.04009078 0.039166514 -0.03195105
0001c0 9d 39 10 bd 47 a6 c1 3c 6e 6c 67 3d 5f a9 48 3c
       -0.035211194 0.023638858 0.05649989 0.012247412
0001d0 12 5c 33 bc 79 7d 59 bd 19 5c af bc e0 5a 58 3c
       -0.010947244 -0.053098176 -0.02140622 0.01320526
0001e0 cb bc df 3c 21 ef 0a 3c 02 88 09 bd 0e ba 79 bc
       0.027311703 0.008479864 -0.033576973 -0.015242113
0001f0 3b d7 89 bb 27 d2 f9 bc 22 ec 16 bd d1 03 9a bc
       -0.0042065657 -0.030495716 -0.036846288 -0.018800648
000200 8e da 24 bd d0 00 d9 bc d4 2f 9d 3a 7f b1 c1 3c
       -0.040247492 -0.026489645 0.0011992403 0.023644207
000210 06 e8 0a bd 81 e2 01 3c a5 30 36 bc 13 a3 12 bc
       -0.03391268 0.007927538 -0.011119996 -0.008950013
000220 a3 32 a0 3d 90 57 16 b9 eb 70 0d 3d 24 b2 01 bd
       0.07822158 -0.00014337734 0.034531515 -0.03166403
000230 fe da 93 bc 35 54 79 3c 30 f7 e5 3c 36 50 af bc
       -0.01804876 0.01521783 0.02807197 -0.021400552
000240 30 55 a3 bd b6 8f e1 bc c9 14 b9 bb 02 83 84 3c
       -0.079752326 -0.027534347 -0.0056482297 0.01617575
000250 f0 9b c6 bc 3c 58 7e bd 95 48 b4 3c 29 ef 8d 3d
       -0.024244279 -0.062095866 0.022007266 0.06930382
000260 85 8e 00 3d ca 3b 0d 3d f0 e1 35 3d d8 b8 19 3d
       0.031385917 0.034480847 0.044404924 0.037529796
000270 d6 40 39 3c 8e f6 36 3c 9c 8e ae bb bd bd 64 3c
       0.011306962 0.011167182 -0.005327059 0.013961253
000280 6c 4d 49 3d b4 5f 39 3d 17 a5 f9 3c 0a ef 02 3d
       0.0491461 0.045257285 0.030474229 0.031966247
000290 c1 26 9f bc fc 6b d9 bc a0 c5 7f 3b 3a a3 0e bb
       -0.019427659 -0.026540749 0.0039027706 -0.002176477
0002a0 53 3f 16 bd a2 fb 15 bd b8 e7 aa ba 46 bb d4 bc
       -0.036681484 -0.03661693 -0.0013039028 -0.025968205
0002b0 78 8a 32 bc 03 ae 14 bd 3e 4e 4b bd 38 a2 1a bd
       -0.010897271 -0.036298763 -0.049635164 -0.03775236
0002c0 96 f6 33 ba cc c4 44 3d 65 07 13 bd 18 96 9f bc
       -0.0006865052 0.048039243 -0.035895724 -0.01948075
0002d0 c8 a9 5c bd e2 64 3d 3c ec 49 ef 3b 89 4a c7 ba
       -0.053872854 0.011559697 0.0073025133 -0.0015204708
0002e0 b9 ff 1a bc 21 9a b6 3b a8 0d 2d 3b 5c 0b 96 3c
       -0.009460383 0.005572573 0.0026405845 0.018315963
0002f0 1b 21 85 3c 80 81 ee 3c 8f f6 a3 bc 3f d6 bc 3b
       0.016251137 0.029114485 -0.02001503 0.005762845
000300 aa b9 27 3d f6 f3 84 bc 8f 85 cc 3b cc 76 60 3d
       0.040948547 -0.01622961 0.0062415074 0.054800794
000310 de d4 34 3d e7 de c5 bc 68 e4 23 bd ad f1 eb bb
       0.04414832 -0.02415414 -0.040012747 -0.007200441
000320 e6 ff 56 3d 42 12 ad bc 70 c1 ad 3a a0 31 fa bb
       0.052490138 -0.02112687 0.0013256501 -0.0076353103
000330 56 67 7c bd 9d 11 40 3d e4 9a 1c 3c c4 a3 6b 3c
       -0.061621986 0.046891797 0.009558413 0.0143823065
000340 f6 5e 45 bd 6b 9b 42 bd d7 5f cc 3d 18 36 99 3d
       -0.048186265 -0.0475115 0.099792175 0.07481021
000350 5a ac d0 bb a0 73 a3 bd 62 d3 00 be c7 4f b7 3d
       -0.006368202 -0.07981038 -0.12580636 0.08950763
000360 3f 0b 97 3d e2 8e 83 3c c4 dc 58 bd 55 e2 81 bd
       0.07375192 0.016059343 -0.052944914 -0.063419975
000370 d4 65 12 3d 21 a0 5a 3d c9 d3 72 3d 05 28 81 bc
       0.035741642 0.053375367 0.059284005 -0.015766153
000380 c1 58 5e 3b e2 cf 33 3d d2 5d 5c 3c f6 e3 02 3c
       0.0033927413 0.043899424 0.013450103 0.00798892
000390 a5 a1 9a 3b 75 54 1f 3d cd 73 5f bc fd 23 60 3b
       0.0047189766 0.038898904 -0.013638449 0.0034201138
0003a0 6f d5 21 3c 78 18 0e 3c 9f a4 58 3c 76 7a 83 bc
       0.009877547 0.008672826 0.0132228425 -0.016049605
0003b0 56 55 e3 3c 74 b1 f0 3c 94 ad f2 3c 50 2a db 3c
       0.027750652 0.029381491 0.029623784 0.026753575
0003c0 80 29 16 3d fd 86 11 3d 88 2a ff 3c 33 2b 61 3d
       0.03666067 0.035529125 0.03114821 0.05497284
0003d0 8d 46 9f 3d 2b 7e 19 3c d9 28 3f 3c d3 dc b5 3b
       0.07777128 0.00936846 0.011667454 0.005550006
0003e0 d6 3e 32 3d b8 5b 2b 3d 45 9c 63 3d ff de f5 ba
       0.043516956 0.041835517 0.055568952 -0.0018758475
0003f0 2e bb 0d 3d c1 e7 6f 3c db 94 9f 3c 41 17 9e 3c
       0.034602337 0.014642657 0.01948016 0.019298198

module.8.bias f4 [64]
000000 ae 2b be 3c d2 69 61 bc ad 00 31 3c 2c 5d aa bc
       0.023214187 -0.01375814 0.010803384 -0.020796381
000010 db f0 ed ba bf b8 15 bc ee af 9e 3c 1e e6 02 bd
       -0.0018153446 -0.009138285 0.019371 -0.031957738
000020 9a 80 f8 3c 2c 19 f9 bc 16 bc 06 bd c3 81 31 3c
       0.03033476 -0.03040751 -0.032894216 0.01083416
000030 5a fe 6e 3a 42 c4 37 b7 09 94 c2 39 be 49 ff 3c
       0.0009116881 -1.0953345e-05 0.00037112858 0.031163093
000040 6e dc 9b bc 3c eb e7 bc 31 ad d4 bc 6d 57 05 3d
       -0.019026008 -0.02831041 -0.02596149 0.03255408
000050 2b 59 7f 3c fb 07 92 bc 66 2f db bc 14 46 d2 bc
       0.015585224 -0.017826071 -0.026756 -0.025668181
000060 db 71 e2 ba a2 4b eb ba 36 10 f0 3c a3 55 41 ba
       -0.0017276363 -0.0017951617 0.029304605 -0.00073751266
000070 96 7a 0e bd fa 07 0b bd 4a 71 e4 bc 4a bd fe bc
       -0.034784876 -0.033943154 -0.027886052 -0.03109612
000080 a1 59 06 3d 7f ae 5d 3c e0 ef d1 3b a0 b1 9a bc
       0.03280032 0.013530373 0.006406769 -0.018883526
000090 ba e1 75 bc 89 cf 06 3d 04 1d 85 bb 3a 2a cc bc
       -0.015007431 0.032912765 -0.004062297 -0.024922479
0000a0 2c 8d 82 bc 6f f9 ed bc ca 06 10 3b 8c 01 10 bd
       -0.015936457 -0.029049603 0.0021976703 -0.035157725
0000b0 d0 8b f0 bc bc e9 eb bc 03 74 2f bc 68 be 23 3c
       -0.029363543 -0.028797977 -0.010708812 0.009994127
0000c0 8e bc bc bc d9 29 00 bd 2b d8 0d bd d5 b7 b8 3b
       -0.023039129 -0.03128991 -0.034629982 0.005637149
0000d0 a6 a8 a1 b9 97 16 1f bc 2d d6 2d bc 39 4d db bc
       -0.00030833966 -0.009709976 -0.0106101455 -0.026770221
0000e0 43 ca 33 bb 4c e4 3a 3b 54 fe e1 bb 95 81 67 bc
       -0.002743379 0.0028517423 -0.0068967734 -0.014130016
0000f0 95 96 dc bb 18 da 09 bd 1a 55 4f bb fa de b8 bc
       -0.006731818 -0.033655256 -0.0031636418 -0.022567261

module.9.weight f4 [64]
000000 31 da 42 3f 55 80 4e 3f 19 39 3e 3f 65 19 54 3f
       0.76114184 0.8066457 0.74305874 0.8285125
000010 e2 61 4a 3f b7 15 49 3f 69 2c 4a 3f fa f5 5c 3f
       0.7905561 0.7854876 0.78974015 0.8631283
000020 a8 15 4a 3f da 02 3c 3f db 90 50 3f 95 d3 22 3f
       0.78939295 0.7344185 0.8147103 0.636041
000030 1b 0c 33 3f 09 c1 40 3f 94 3e 53 3f e2 59 2e 3f
       0.69940346 0.7529455 0.8251736 0.681059
000040 88 d5 4b 3f 9c 3d 4d 3f ff e4 3f 3f 6c c9 3e 3f
       0.796227 0.80172133 0.74958795 0.74526095
000050 90 01 4c 3f 3c 6a 4b 3f 35 97 43 3f d9 53 52 3f
       0.79689884 0.79458976 0.764026 0.8215919
000060 06 ad 24 3f c9 ae 42 3f c6 e4 59 3f 2e 1d 40 3f
       0.6432651 0.7604795 0.85114706 0.75044525
000070 df 79 50 3f 00 5f 40 3f 1b 2b 60 3f de cd 41 3f
       0.8143596 0.7514496 0.87565774 0.75704753
000080 ac c2 44 3f e3 1a 49 3f 95 8f 48 3f d8 73 53 3f
       0.76859546 0.7855665 0.7834409 0.8259864
000090 f8 43 32 3f b1 99 39 3f a3 cb 69 3f 88 5f 2b 3f
       0.6963496 0.7250014 0.9132635 0.66942644
0000a0 cd 5d 47 3f 62 0f 4f 3f 74 c3 3a 3f 52 d4 41 3f
       0.77877504 0.8088285 0.7295449 0.757146
0000b0 62 10 5e 3f f8 a1 58 3f 16 8f 3d 3f bb 92 39 3f
       0.8674375 0.84622145 0.74046457 0.7248952
0000c0 f1 32 4e 3f 5b d1 4b 3f b0 b0 32 3f dd 42 55 3f
       0.8054648 0.79616326 0.69800854 0.8330515
0000d0 8f 76 2e 3f e5 2c 64 3f 68 a6 3b 3f 1b 83 4a 3f
       0.68149656 0.89131004 0.7330079 0.791063
0000e0 58 0a 52 3f e5 69 4e 3f b6 6e 2d 3f 40 40 3d 3f
       0.82047033 0.8063033 0.67747056 0.7392616
0000f0 d5 ed 4b 3f 38 4f 57 3f 60 de 5a 3f 61 52 49 3f
       0.7965978 0.84105253 0.8549557 0.78641325

module.9.bias f4 [64]
000000 de fa cd be d9 44 8f be c6 4e a5 be 50 0d c6 be
       -0.4023046 -0.27982214 -0.32286662 -0.38682032
000010 f4 d9 bf be 6e b4 ac be 67 78 a0 be 9c c2 f2 be
       -0.37470973 -0.33731407 -0.3134186 -0.474141
000020 63 c5 ca be d4 fe aa be 50 2a ae be 69 f9 a2 be
       -0.3960372 -0.33397543 -0.34016657 -0.3183091
000030 f1 6e a2 be 3a c9 a8 be 89 5e be be f1 ce 90 be
       -0.31725267 -0.32966024 -0.371815 -0.28282884
000040 0e e2 b1 be 0f c4 a4 be 5f 0c 97 be 69 90 b7 be
       -0.3474278 -0.3218083 -0.29501626 -0.35852364
000050 9f 87 e4 be 7f 7c b0 be 49 f1 96 be b0 25 9e be
       -0.4463472 -0.34469983 -0.2948096 -0.30888128
000060 71 94 9b be 04 01 b1 be 5c a0 97 be ec 75 ad be
       -0.3038669 -0.34571087 -0.29614532 -0.3387903
000070 e2 05 c8 be c8 76 a5 be d3 54 d5 be 15 88 b7 be
       -0.39066988 -0.32317185 -0.41666278 -0.3584601
000080 ae 01 ae be 88 1a a8 be 64 21 86 be fa b1 a7 be
       -0.33985656 -0.32832742 -0.2619735 -0.32752973
000090 ef ca 94 be 8e 74 ae be 4c 1b d0 be d6 30 9d be
       -0.29061076 -0.340733 -0.40645826 -0.3070132
0000a0 ea 45 cb be d5 94 a7 be 4e f2 9e be b9 f0 9e be
       -0.39701778 -0.32730737 -0.3104424 -0.31043032
0000b0 e3 06 cb be b6 c9 95 be 26 f7 ad be 26 02 93 be
       -0.39653692 -0.29255456 -0.33977622 -0.28712577
0000c0 af 08 88 be 59 ea a8 be 87 18 c7 be 7e fb a8 be
       -0.26569125 -0.32991293 -0.388859 -0.33004373
0000d0 5c 6c 94 be 6f 1a c5 be 53 28 b2 be b7 aa a5 be
       -0.28988922 -0.3849673 -0.3479639 -0.32356808
0000e0 3a e4 9b be 6a a4 b9 be 06 63 9c be b9 b6 aa be
       -0.3044756 -0.3625825 -0.305443 -0.3334253
0000f0 24 41 99 be 65 41 9e be e5 3f d5 be d5 97 9f be
       -0.2993251 -0.30909267 -0.4165031 -0.31170526

module.9.running_mean f4 [64]
000000 41 1d 8c 3e 19 46 00 c0 5b b7 b1 bf 0a 10 10 3f
       0.2736607 -2.0042784 -1.3884081 0.56274474
000010 c5 7f 28 c0 da 01 4e 3e e6 b7 b2 bf 21 9e 99 be
       -2.6327984 0.20117894 -1.3962371 -0.30003455
000020 0b 66 a4 3d 3c 27 b3 bf a0 3a 1a c0 bf c8 34 3f
       0.08027276 -1.3996348 -2.4098282 0.70618814
000030 f2 a9 6e bf f3 07 8b 3f a6 63 3d c0 73 08 f0 be
       -0.93228066 1.0861801 -2.959207 -0.46881446
000040 d5 8b da bf d7 c2 1e c0 73 a1 81 bf 39 3f 39 be
       -1.7073923 -2.480642 -1.0127395 -0.18090524
000050 5c 18 0d bf d3 05 54 bf 5a 48 c1 be c5 e7 68 bf
       -0.55115294 -0.8282139 -0.37750512 -0.9097865
000060 c0 88 09 3f 65 52 43 bf 14 68 da bf 42 68 70 bf
       0.5372429 -0.762976 -1.7063012 -0.93909085
000070 3e fa 75 3e c4 5c 85 bf a6 f8 96 be 42 83 f5 bf
       0.24021241 -1.0418935 -0.2948658 -1.9180682
000080 e4 6b a8 bf 9a e8 1a bf 83 78 d5 bf 57 1c f5 bf
       -1.3157926 -0.6051117 -1.6677402 -1.9149274
000090 ca d0 7a bf 37 05 57 bf 9f d8 51 c0 c2 57 31 bd
       -0.97974837 -0.8399233 -3.2788465 -0.043296583
0000a0 ba 26 71 3e 89 6a e5 bf c6 a2 85 bf a1 9a 87 bf
       0.2354993 -1.7923137 -1.04403 -1.0594064
0000b0 fa 2b 56 c0 18 37 a8 bf 4d 33 45 3f 24 54 c8 bf
       -3.346434 -1.3141813 0.77031404 -1.5650678
0000c0 60 86 80 bf ae 92 11 bf 6d 13 bb 3d a3 bf 7b bd
       -1.0041008 -0.5686444 0.091345645 -0.061462056
0000d0 51 dc b1 3f 88 01 47 c0 1b 32 a3 bf f3 5d d8 bf
       1.389536 -3.1094685 -1.2749666 -1.6903671
0000e0 87 47 20 c0 50 8a 60 bf 49 e6 33 3f de 65 14 3e
       -2.5043657 -0.8771105 0.7027326 0.14491984
0000f0 a0 82 9f bf 04 25 a2 bf 96 d8 a8 3d e7 2c 9a bf
       -1.2461739 -1.2667546 0.082444355 -1.2044953

module.9.running_var f4 [64]
000000 1f 4c 89 3f fa 68 b3 3f 6d b3 bd 3f 14 5b 9c 3f
       1.0726355 1.4016411 1.4820381 1.2215295
000010 3f ec b8 3f ca 12 6f 3f b5 48 a2 3f f3 ad b3 3f
       1.4447097 0.93388045 1.2678438 1.403746
000020 49 15 ab 3f 32 f3 9b 3f 86 63 9e 3f 1d 25 a6 3f
       1.3365871 1.2183592 1.2374122 1.2980076
000030 9c 8a ad 3f d1 fb a2 3f be 20 e8 3f 41 eb bc 3f
       1.3557925 1.2733098 1.8134992 1.4759294
000040 6f 2d ea 3f 20 65 b0 3f 6a d2 7a 3f d4 9f a1 3f
       1.8295115 1.3780861 0.97977316 1.2626901
000050 4f 61 dd 3f b8 52 c3 3f 04 80 a8 3f de ae cf 3f
       1.7295321 1.5259619 1.3164067 1.622524
000060 bb 3c 55 3f 67 c6 b4 3f 75 86 9c 3f ac e1 8b 3f
       0.8329579 1.4123048 1.2228533 1.0928245
000070 4f 1f cd 3f 27 a0 83 3f 81 eb bd 3f 1e 22 b2 3f
       1.602518 1.028325 1.4837495 1.3916662
000080 4a 90 ac 3f a1 35 74 3f 39 fc a2 3f 28 29 97 3f
       1.3481534 0.9539433 1.2733222 1.1809435
000090 3d 26 ab 3f d6 6f b5 3f 3d ef cf 3f 50 ca 41 3f
       1.3371044 1.4174755 1.6244885 0.7569933
0000a0 c1 e0 b9 3f a9 ae b0 3f 2a a2 8c 3f 19 a5 ab 3f
       1.4521714 1.3803302 1.0986989 1.3409759
0000b0 5d 59 bb 3f ca f0 8e 3f 6e d0 b7 3f 08 1e 50 3f
       1.4636647 1.1167233 1.4360483 0.81295824
0000c0 eb 65 92 3f 7d 4a 9f 3f d9 0e 69 3f 74 83 82 3f
       1.1437353 1.2444607 0.9103828 1.0196366
0000d0 a9 ea 9d 3f d8 2f cf 3f 8b 98 78 3f 4f 2a ca 3f
       1.2337238 1.6186476 0.9710776 1.5794162
0000e0 df 65 86 3f a9 50 b1 3f 16 24 89 3f 75 77 89 3f
       1.0499839 1.385274 1.0714138 1.073958
0000f0 af b7 cd 3f d0 df cb 3f f7 e6 d6 3f f1 7f d9 3f
       1.6071681 1.5927677 1.6789235 1.699217

module.13.weight f4 [64, 1024]
000000 ba 06 22 bc d4 47 29 3c 82 b4 53 3c f0 33 6e 3b
       -0.009889299 0.010332067 0.012921454 0.0036346875
000010 ad 16 d9 bc 69 dc a1 bc 2a 15 83 3c 52 45 2d 3a
       -0.02650007 -0.01975842 0.016001303 0.0006609756
000020 35 e1 19 3c 57 eb 95 bc 78 b2 7c bb 7b 9d fd 3c
       0.009392072 -0.018300695 -0.0038558524 0.030958882
000030 db 44 24 bc cd 2a f3 ba 46 c6 f5 bb e0 57 81 bc
       -0.010026182 -0.0018552184 -0.0075004427 -0.015788972
000040 66 46 ae 3c ea 6c a4 bb 53 7b 70 3c 45 a3 43 bc
       0.021273803 -0.0050178664 0.01467784 -0.011940782
000050 14 01 29 bd a0 c6 1d bc d4 4b eb bc 17 31 6f 3c
       -0.041260794 -0.009629875 -0.028722681 0.014599106
000060 cc f0 94 3a b7 51 a4 bb 68 0b 47 3c c9 4d 85 bb
       0.0011363267 -0.005014624 0.012148716 -0.0040681106
000070 ab 11 4b bc 2a 01 37 3c f9 be 61 ba 81 1c d4 bc
       -0.012394349 0.011169711 -0.0008611526 -0.025892498
000080 36 05 2a bd 9b 40 bb bc bf c1 85 bd 9e 1e 86 bb
       -0.041508876 -0.022857955 -0.06531095 -0.0040930053
000090 6d 35 df bc 9b 72 2f bd 02 70 52 bd 42 e1 af 3c
       -0.027247155 -0.042833906 -0.05137635 0.021469716
0000a0 42 a5 16 3d 47 0b 13 bd eb eb 88 bd 39 f0 42 3c
       0.036778696 -0.035899427 -0.06685623 0.011898094
0000b0 7d 77 c6 3c af cb a3 bc 31 14 3d bd 30 d8 fa 3b
       0.024226898 -0.019994585 -0.046161834 0.007655166
0000c0 07 64 b0 bb c9 59 15 3d ed c2 e7 3c 88 df 13 3d
       -0.005383018 0.03646258 0.02829119 0.036101848
0000d0 ff be 0f 3d 28 64 77 3d c6 1d 2f 3d 11 12 2f 3d
       0.035094257 0.06039825 0.042753004 0.04274184
0000e0 5f 1c 04 bc 34 7b 14 3c 19 db 61 3d 94 b8 ff bc
       -0.008063405 0.009062577 0.05514059 -0.031215943
0000f0 ef 28 3f bd b6 81 91 bc 4c 1a 64 bb 9d 71 d8 bc
       -0.046669897 -0.017762046 -0.0034805713 -0.026421363
000100 c8 29 f3 3c f4 33 7f bc 22 b6 fb bb ff a7 82 3b
       0.029683009 -0.015576351 -0.007681624 0.003987312
000110 f7 b3 eb 3c 54 54 cf bc 7a 89 35 bc be 9f 4a 3c
       0.028772337 -0.025308765 -0.01108014 0.012367187
000120 bd 83 4e 3c c5 02 94 3b 2a fc 91 ba d9 bc 2d 3b
       0.012604651 0.0045169317 -0.0011137773 0.0026510267
000130 86 8b a9 3c e4 66 98 bc 21 96 2b 3c b9 4c 14 3d
       0.020696413 -0.01860375 0.010472805 0.03620598
000140 c8 9e 35 3d 36 ba 18 bd 88 43 12 bd fd 30 7d bd
       0.04434088 -0.03728696 -0.035708934 -0.061814297
000150 02 f7 6d 3d 95 ad c7 3a c5 e6 55 bd 0c a7 53 bd
       0.058096893 0.0015234227 -0.052222032 -0.05167298
000160 16 45 5d 3c 88 3b c6 ba 13 9c 9b bd aa 48 97 bd
       0.013505241 -0.0015123943 -0.07598128 -0.073869064
000170 2d 41 d8 bc b9 ef 08 bd ca 06 0b bd bf a6 c9 bb
       -0.026398266 -0.033431742 -0.03394202 -0.006153911
000180 01 e0 9b bc 72 1d 17 bd f5 ce 1c 3d 47 31 fe bc
       -0.019027712 -0.036893316 0.038283307 -0.031029357
000190 d5 7a 23 3d d1 9b d8 bc 72 9c 2c 3b 70 5d 74 3c
       0.039912064 -0.026441487 0.0026338366 0.014914855
0001a0 df a1 43 bb 18 c9 7a bc 7b d7 a4 3d d8 f7 5f 3a
       -0.0029851121 -0.015306734 0.08048912 0.00085437065
0001b0 45 c3 f5 bc f9 06 12 3c f0 7c 0a 3c 10 2c eb 3c
       -0.030000338 0.008912795 0.008452639 0.028707534
0001c0 9a 39 08 3d 6c 28 94 3c c6 50 d2 ba 15 db 8b bc
       0.033258058 0.01808568 -0.0016045801 -0.01707224
0001d0 84 38 0c bd 47 0c be ba e4 6f c7 bc 10 eb aa bc
       -0.034233585 -0.0014499509 -0.024345346 -0.02086404
0001e0 7f 71 fe bc 3c ed 49 3c 1c fc 14 bd d5 58 c9 bc
       -0.031059979 0.0123246275 -0.036373243 -0.024578491
0001f0 6d 78 ac 3c 74 33 af bb 2e 32 18 3d 9d 26 8c 3b
       0.021053517 -0.00534671 0.03715723 0.004277064
000200 22 ec b7 3c 0c d9 b0 bc fe 25 85 3c 74 36 eb bc
       0.022451464 -0.021587871 0.016253468 -0.028712489
000210 07 23 d6 bb 34 33 27 3c af b0 f1 ba 2b b4 c9 bc
       -0.0065349373 0.010205079 -0.0018439497 -0.024622044
000220 22 a9 f2 3a 4a d3 a6 3c e8 91 23 bb da 5f 2d 3c
       0.001851354 0.020364422 -0.0024958793 0.010581935
000230 b9 05 41 3c 13 d0 88 3c 87 08 e9 3c 01 28 a5 3c
       0.01178115 0.01670078 0.028446449 0.020160677
000240 e2 09 c5 bc 61 ce 78 bc 3c 49 6b 3d 66 0b cb 3c
       -0.024052564 -0.015185923 0.05744289 0.024785709
000250 91 2c 89 bc 66 c8 00 3a 4d fc 88 3d a9 00 62 3d
       -0.016744884 0.0004912674 0.066887476 0.05517641
000260 85 2d 93 3b 0f 3a 5a bc 0c ba b9 bb 07 61 49 3c
       0.0044915103 -0.013319506 -0.0056679305 0.0122911995
000270 90 e9 49 3b c6 94 b1 3c f8 bf cb bb ba c9 b0 3c
       0.003080938 0.021677386 -0.006217953 0.021580566
000280 5f 0f 9e 3c fe 5f ba 3c f4 b4 2a bc d2 3a ea bb
       0.019294439 0.02275085 -0.010419119 -0.007148125
000290 c7 43 e9 bc fd 5b 0d bd 49 28 61 bc f4 00 1f bc
       -0.028474702 -0.034511555 -0.013742515 -0.009704817
0002a0 f0 cb 9a bb 7b e6 12 bc df ef c6 3c 1d db 1b bc
       -0.0047240183 -0.008966084 0.024284301 -0.00951269
0002b0 7b 72 a2 3b 8c 67 d8 3c 4d 47 56 3d c3 a5 88 3b
       0.004957495 0.026416562 0.05231409 0.004170151
0002c0 ac 33 05 bd dd 66 29 bc e6 34 18 bd ff 81 6c bc
       -0.03251998 -0.010339466 -0.037159823 -0.01443529
0002d0 2d e2 0d bd c2 e8 27 bd 9d 33 39 3c 22 52 0b 3b
       -0.034639526 -0.04099346 0.0113038095 0.0021258672
0002e0 7b de 3a 3c 49 b6 8e bc 3e 3b c6 bc 94 24 f2 3b
       0.011405583 -0.017420905 -0.02419817 0.0073896144
0002f0 2b af 11 bb d5 93 0d bd 1c 65 d8 bc 14 75 a7 3c
       -0.0022229652 -0.03456481 -0.0264154 0.02044157
000300 41 dc f7 bc da 6e 81 bb 39 f0 b9 3c ca 1a 1e 3c
       -0.030256392 -0.003949982 0.022697555 0.009649942
000310 b8 a3 a2 3a 9a 43 7a bd da 9c 10 bd 4b f8 51 bb
       0.0012408411 -0.061099626 -0.035305835 -0.0032038863
000320 5d 01 16 bd a2 00 24 bd 22 1f b5 bb 66 da ef bc
       -0.036622394 -0.040039666 -0.005527393 -0.029278945
000330 5e 7e 2a 3d ce bc c3 3c f4 a7 2f 3d 2a 7c de bc
       0.04162442 0.02389374 0.042884782 -0.027158815
000340 38 e7 a0 3c cd ce 74 ba 2c 81 3c 3d 8d 32 f5 38
       0.019641504 -0.0009338677 0.046021625 0.00011691926
000350 4b ef 08 bc 55 06 4d 3c 0b 08 08 3c 31 85 12 3c
       -0.008357833 0.012513717 0.008302699 0.008942888
000360 1a ca 81 bc b5 15 25 3b 43 ee 62 bd 1e 2f cf 3c
       -0.01584344 0.002518994 -0.055403005 0.025291022
000370 f9 8d 62 bc d3 27 e0 3a d4 c8 40 bc 41 04 a9 3c
       -0.013827794 0.0017101712 -0.011766631 0.020631911
000380 37 8b ba 3c 72 d5 95 3b 5f 9b 32 bc bd 97 cb 3c
       0.022771461 0.004572564 -0.010901301 0.024852628
000390 1f fc b5 bb 87 58 82 bc 43 df 0e bd b8 5d 44 3c
       -0.005553737 -0.015911354 -0.034880888 0.011985235
0003a0 1a 1f 3f bd 97 11 a3 bd 5c c5 8b bb 7a 36 4f bc
       -0.04666052 -0.07962339 -0.0042654704 -0.012647266
0003b0 4d 4f 3b bc 4a 2c 38 bd 94 00 2e 3c 7f 12 9b 3c
       -0.011432481 -0.044964112 0.010620255 0.018929718
0003c0 11 13 be 3b 74 f8 14 bc 37 62 0f bd 66 4f 48 bc
       0.0058006127 -0.009092439 -0.035005774 -0.012225961
0003d0 52 7f 5f 3c 22 ec 97 bc 3b 95 83 bc 78 65 11 bc
       0.013641195 -0.018545214 -0.01606237 -0.00887429
0003e0 76 e7 41 3c 7f b4 14 bd 32 05 80 3c 7f 16 3f 3d
       0.01183497 -0.036304947 0.015627477 0.046652313
0003f0 23 79 d0 3c 21 4d 65 bc e2 10 11 bd 95 4d a1 bc
       0.025448387 -0.01399544 -0.03541649 -0.019690314

module.13.bias f4 [64]
000000 ba 27 43 bc d4 a3 d6 3c 7d ae c3 3c 93 76 80 bc
       -0.011911327 0.026201166 0.023886913 -0.01568154
000010 7f ae af 3b df 4e 05 bd ef 76 a0 bc ea e9 b1 bc
       0.0053613777 -0.03254592 -0.019587962 -0.021717984
000020 32 3f 93 3c 3b cb 84 3c ca 45 0f bd 4b d7 a1 bc
       0.01797447 0.01621019 -0.034978665 -0.01975598
000030 96 ec 0d 3d db 48 00 bd ff 79 80 bc 37 89 94 3c
       0.034649454 -0.03131948 -0.015683172 0.018131835
000040 e0 1c 94 bc 5b a0 90 3c 6a 0f bf 3c 1f 79 ba bc
       -0.018080175 0.017654588 0.02332278 -0.022762833
000050 b5 28 2c 3d c2 61 ed 3a e4 72 8e 39 53 c5 49 3c
       0.04203101 0.0018110799 0.0002716995 0.012315112
000060 5c 01 75 bc 45 60 0a 3d 7f f2 2c 3d f7 08 f3 bc
       -0.014953937 0.033783216 0.04222345 -0.02966736
000070 92 53 41 3c 4a 33 d5 bc 6f fa 86 bc 99 b3 bf 3b
       0.01179971 -0.026025433 -0.016476838 0.005850267
000080 48 71 15 3d e5 c4 65 bc bb 18 fa ba 88 36 8c 3b
       0.036484987 -0.014023994 -0.0019080857 0.0042789616
000090 81 91 0c 3c ad 21 f6 bb 5a 14 4e bc 6a 72 1b 3a
       0.008579613 -0.0075113387 -0.012578094 0.000592983
0000a0 c4 0f 1f 3d cf 09 65 3c af 4d cd bb 1a 70 cb 3c
       0.038833395 0.013979389 -0.006265364 0.024833728
0000b0 fd c4 22 bc 4f 4b 09 bc e3 2b dd bc 80 bf 0f 3c
       -0.009934661 -0.008379771 -0.026998466 0.0087736845
0000c0 8a e1 f7 3c bf 84 8f 3a f3 cd 17 3c 7e 86 e5 bc
       0.030258913 0.0010949596 0.009265411 -0.028018232
0000d0 63 14 df 3c 7a 67 81 bc 91 c5 3e 3b d3 5f ed bc
       0.0272314 -0.015796412 0.0029109458 -0.028976357
0000e0 bc 2a 41 3d 1b 0f 0e bd 9e 99 09 3c 2e fa 54 bc
       0.047159895 -0.034682374 0.008398442 -0.012999101
0000f0 d3 60 f6 bc a4 7d 0b 3d d0 94 16 3d 4f 0b 1b bc
       -0.030075466 0.034055367 0.036763012 -0.009463145
