models/xue_epoch_25.pth (torch, 592503 bytes, 22 tensors)

module.0.weight f4 [32, 3, 5, 5]
000000 04 37 08 bd a6 0c f6 bd d0 14 4c bd ff ad c6 3c
       -0.033255592 -0.12014131 -0.049824536 0.02425289
000010 e6 3e d3 3c 12 3a 5d be 9c 57 53 be 47 39 5f be
       0.025786828 -0.21604183 -0.20638889 -0.21799193
000020 f4 29 66 be 66 8d 05 be 69 eb 99 be a4 91 8d be
       -0.22476941 -0.1304222 -0.30062416 -0.27650177
000030 68 d8 6a be af 50 5b be 59 f2 85 be 31 66 12 be
       -0.22934115 -0.21417497 -0.2616146 -0.14296795
000040 57 ea a6 be 58 b8 8e be 62 f5 55 be 78 e1 e8 bd
       -0.32600662 -0.27875018 -0.20894387 -0.1137113
000050 47 5d 49 be 4f d9 32 be c1 f1 95 be 6c 00 90 be
       -0.19664489 -0.17465709 -0.29286006 -0.28125322
000060 4f 39 d2 bd 83 07 67 3d a6 75 39 3d d8 d1 3d bb
       -0.10264837 0.056403648 0.045278214 -0.0028964188
000070 16 70 8c bd 52 8e b0 bd 94 c8 18 3d 8c 1b 21 3d
       -0.06857316 -0.086208954 0.03730066 0.03933291
000080 96 db 92 3d ff f9 66 3d 35 e2 04 3e 03 ed a1 3c
       0.07170789 0.05639076 0.12976916 0.019766336
000090 26 fa 15 3b 25 e1 0c 3c e2 a9 11 3e 57 89 de 3c
       0.0022884696 0.0085986005 0.14224961 0.027165098
0000a0 3f 65 4c bd 4a 2c 41 3e 73 54 0f 3e ef a2 ea 3c
       -0.049901243 0.18864551 0.13997059 0.028642146
0000b0 83 9f ef 3b 3b eb 0f 3e ff 78 ed 3d 13 17 08 be
       0.0073127165 0.14054577 0.11595344 -0.13290052
0000c0 72 fa aa 3c 61 cf eb 39 33 89 bd bc c7 53 04 3d
       0.020871375 0.00044977202 -0.02313671 0.03230646
0000d0 ff aa ae 3d 60 37 ee 3d c5 71 e9 bc 10 40 01 3e
       0.08528709 0.11631656 -0.028496632 0.12622094
0000e0 75 66 39 3e d1 56 7e 3e 4d 6a 17 3e f0 8c 33 3e
       0.1810549 0.24837805 0.14786644 0.17534232
0000f0 35 3b 88 3e 5e 3d 69 3e 73 f0 22 3e 61 cf 23 3e
       0.2660767 0.22777316 0.15912037 0.15997078
000100 e6 43 20 3e 01 3c 84 3e 1a ba 99 3e 8e b1 27 3e
       0.15650901 0.2582703 0.30024797 0.16376325
000110 4c 91 57 3e 30 ce aa 3c b3 be 51 3e 05 0d 46 3e
       0.2105152 0.020850271 0.20482902 0.19340904
000120 6b 3a 33 3d b4 1c 45 3d b2 bc 25 bd 00 c9 93 3d
       0.043756884 0.048123077 -0.040463157 0.07216072
000130 44 86 38 bc 7c 8b 2e 3e cc 86 10 3e 84 ad 00 3e
       -0.01126248 0.17045397 0.14113921 0.12566191
000140 12 de 32 3e c6 f5 28 3e 17 29 8a 3e 74 0f 8a 3e
       0.17467526 0.16500005 0.26984474 0.26964915
000150 ad 2d 3c 3e 45 c6 46 3d 7d ec 08 3d b7 6f 8c 3c
       0.18376799 0.04852893 0.033428658 0.017143114
000160 8d 9b 64 3d 0c 8f 93 bd 12 f1 b4 3c b8 2b 89 bc
       0.055812407 -0.072050184 0.022087608 -0.01674448
000170 ae 90 32 3d 63 49 1c 3d ea a2 01 3e c3 89 ee 3c
       0.04359501 0.038155925 0.12659803 0.029118424
000180 fd 6b d2 bb 4f df 80 bd 3f 67 52 3d 6d 59 4b 3b
       -0.0064215646 -0.06292593 0.051367994 0.0031028644
000190 2c e9 7d 3d ec ce 55 bd 07 a1 87 3b 6b 10 28 bd
       0.06198995 -0.05219929 0.004139069 -0.041031282
0001a0 ee d6 32 3d c1 de ab 3c c7 da 4f 3d fc bf 67 bd
       0.043662004 0.02098024 0.05074575 -0.056579575
0001b0 8f 98 13 3e 37 00 2a 3d ba e8 8f bd 72 e8 37 be
       0.14413665 0.04150411 -0.07026811 -0.17959765
0001c0 d2 d7 0c be 04 a6 10 be 8e f4 ea bc f3 26 97 bd
       -0.13754204 -0.1412583 -0.028681066 -0.07380476
0001d0 93 fe b5 bd c3 c0 27 bd a3 dd fb bd 40 bc 9e bd
       -0.08886447 -0.040955316 -0.12298133 -0.077507496
0001e0 29 df 58 3d 10 bf bf bd 87 1f 45 3c cb 68 b8 3d
       0.052947197 -0.09362614 0.0120314425 0.09004363
0001f0 a6 a6 de bc bb e2 d3 bc 6f 16 a8 3d da 94 e1 bc
       -0.027179074 -0.02586495 0.08207404 -0.027536798
000200 f0 83 46 3e 72 c2 2a 3e 19 cc 9b 3d 2d 03 ed 3c
       0.19386268 0.16675738 0.07607288 0.028932178
000210 cd 3b 0a bd 33 fd 87 3d 34 01 7d 3d 94 49 44 bd
       -0.033748437 0.06640091 0.061768726 -0.047921732
000220 b1 dc 33 be 31 e1 9d bd 04 55 28 be 0a da 08 be
       -0.17564656 -0.077089675 -0.16438681 -0.13364425
000230 a1 af 93 bd 84 89 09 be e7 34 6b be ce 85 d6 bd
       -0.07211233 -0.13431364 -0.229694 -0.1047474
000240 c6 9f d6 bc f7 f3 d0 bd 33 f2 d8 bd 38 7a 11 be
       -0.026199233 -0.102027826 -0.10593071 -0.14206779
000250 28 6e 45 3d 1d ac 49 3d bc b1 18 3d 1c 98 fa bb
       0.048200756 0.049236406 0.037278876 -0.0076475274
000260 38 93 88 bd f8 5d ed 3c 1d 50 de 3d c6 0e 14 be
       -0.06668705 0.028975472 0.10855124 -0.1445876
000270 1c c7 e5 bd cc dd d7 bd e4 83 7c 3e 20 12 1c 3e
       -0.11219618 -0.10540351 0.24659687 0.15241289
000280 7a 86 02 be 61 0c a2 bd 34 e8 18 3e 2b 77 a7 3e
       -0.12746611 -0.07912517 0.14932328 0.32708105
000290 d2 73 f8 3d f0 ff 6f bb 01 0f 02 bd d7 bd 2f 3e
       0.12131466 -0.0036621056 -0.03175259 0.17162262
0002a0 03 33 a6 bd bc fe 6c bd 5a c6 53 be e2 3d 3b 3d
       -0.081151985 -0.05786012 -0.20681134 0.045713313
0002b0 1a a5 53 3d 5e 73 b5 bd 72 90 70 be 2d 87 60 3d
       0.051671125 -0.08859895 -0.23492602 0.054816414
0002c0 a8 b2 25 3d 6b b3 3b be 77 bf 29 bc 0b 03 08 3d
       0.040453583 -0.18330161 -0.01036059 0.033206027
0002d0 32 73 01 bd 7a 24 14 be da 2c c2 bd 6c 78 45 3d
       -0.031604 -0.1446704 -0.09481211 0.048210546
0002e0 54 46 83 3d 85 07 2c 3d fc 32 d1 bc 02 b6 b3 3d
       0.064098984 0.04199936 -0.025537007 0.087749496
0002f0 1b 2e 63 3e cc 2c d7 3c b5 ad bd 3d 6f 2f 04 bc
       0.22185557 0.026266478 0.092616476 -0.00806795
000300 c7 7f c9 3d 74 49 0b 3e ce d8 e1 bd 93 37 6e 3d
       0.09838825 0.13602239 -0.1102768 0.05815847
000310 50 ec 4b 3e 48 0c 25 3d 20 d8 3a bd a6 97 2b be
       0.19914365 0.040294915 -0.04561627 -0.16757068
000320 dd 7e 16 be 90 3a 29 3d 2e a6 36 bd 70 ea 13 bd
       -0.14696832 0.041315615 -0.044592075 -0.03611225
000330 eb 52 0b 3d f0 99 d5 bd 5b e6 87 bd 66 f5 16 bd
       0.034014624 -0.10429752 -0.06635734 -0.036855124
000340 c9 0f 1b 3e 7f 43 48 3e e5 2e c2 bd 4f 74 9a 3d
       0.1514274 0.19556998 -0.09481601 0.07541715
000350 d9 51 f6 bc a8 e3 80 3e 3d 4a 1d bc 2b 1a 15 bc
       -0.030068325 0.25173688 -0.009600219 -0.009100477
000360 41 2d a3 bc ba 4b 1b 3e 15 9f 16 bd 0b b4 a6 bd
       -0.01991904 0.15165606 -0.036772806 -0.08139809
000370 37 37 87 3d c7 1b 95 bc 54 69 dd 3d fd a0 ad bd
       0.06602328 -0.018201722 0.10811105 -0.08477972
000380 e0 81 de bd d0 d0 af 3a 3c 83 4c bb 13 91 72 bc
       -0.108646154 0.0013413671 -0.0031206151 -0.014805096
000390 ea 70 e7 3d 58 62 77 bc 00 53 9f 3c 21 b1 8a be
       0.113008335 -0.015099131 0.019448757 -0.27088264
0003a0 af 1b ac bd 59 08 2e 3e bf d3 5c 3e 47 24 ef bd
       -0.08403718 0.16995372 0.2156515 -0.11676841
0003b0 a8 b0 82 be 61 3e 77 bd 6d be b6 3d a3 85 29 3e
       -0.25525403 -0.060362224 0.089230396 0.16554885
0003c0 1e 3e 34 bd 07 37 37 be 7a 45 cb bd 37 8d 2b 3e
       -0.044004552 -0.17892085 -0.09925361 0.16753088
0003d0 34 00 81 3e b8 97 d0 bd 96 e9 e5 3c bc 22 e0 bd
       0.25195467 -0.10185188 0.028065484 -0.10944125
0003e0 91 04 b5 bd 47 bb 2c 3e 1d 45 95 bd 17 ef f3 bb
       -0.088387616 0.16868316 -0.07288573 -0.007444273
0003f0 3f 14 24 3d df ab 35 3e 6d 1f 85 3e bb e3 99 bd
       0.04005837 0.17741345 0.26000538 -0.07514139

module.0.bias f4 [32]
000000 50 8c 91 3d ca 52 bc bd a8 70 6b 3d 69 9a db 3d
       0.071068406 -0.09195478 0.057480484 0.10722811
000010 99 f8 80 3d ee 62 0e 3d 74 de 84 bd df 00 da 3c
       0.06297416 0.034762315 -0.06487742 0.026611743
000020 e6 d5 a4 3d a0 56 81 3d 5b d8 81 3d 99 b2 9d bd
       0.080486104 0.063153505 0.06340095 -0.077000804
000030 a4 8d bd 3c c9 0a cd 3d 1b c6 43 3d 84 82 93 bd
       0.023138829 0.10011823 0.04779635 -0.07202628
000040 69 69 d3 bd 99 21 81 bd b5 22 f0 bc c5 79 9a 3d
       -0.1032284 -0.06305236 -0.029313425 0.07542757
000050 3e e1 e1 3c 98 54 2e bd 86 e1 da 3d 18 c1 91 bd
       0.027573224 -0.042561144 0.106875464 -0.07116908
000060 e3 d8 bd bd 3b 47 4f 3d 1c c5 9b 3d 17 df 1a 3d
       -0.092698835 0.05060504 0.07605955 0.03781041
000070 76 15 bc 39 60 ee 82 bd 9b 3a 5d 3d 93 07 66 3d
       0.00035874144 -0.06393123 0.05401097 0.056159567

module.1.weight f4 [32]
000000 36 a7 3b 3f dd 9c 5d 3f 82 e2 53 3f 91 7c 8f 3f
       0.7330202 0.8656748 0.827675 1.120989
000010 a1 ff 87 3f ff 66 7c 3f 97 02 2c 3f d4 ea 77 3f
       1.0624887 0.9859466 0.6719145 0.96842694
000020 14 46 ad 3f 88 26 4b 3f 66 a5 51 3f f8 64 7e 3f
       1.3537011 0.7935567 0.81893003 0.99372816
000030 50 f2 68 3f af 11 76 3f af 8d 81 3f ae 0d 81 3f
       0.9099474 0.96120733 1.0121363 1.00823
000040 7c ea 3f 3f a1 63 81 3f 77 33 48 3f 07 88 c9 3f
       0.7496717 1.0108529 0.7820353 1.5744637
000050 dd 4c 50 3f 89 fa 8d 3f c8 e4 42 3f 7e 32 93 3f
       0.81367284 1.1092082 0.7613034 1.1499784
000060 8c a0 ba 3f 5c 64 80 3f 63 29 50 3f a9 63 84 3f
       1.4580245 1.0030627 0.8131315 1.0342914
000070 53 bd 90 3f 0a f9 7f 3f cc 7e 7b 3f 77 bf 93 3f
       1.1307777 0.9998938 0.9824035 1.1542805

module.1.bias f4 [32]
000000 c0 c4 0e 3e 62 08 68 be c3 ec 79 be 7c 2e f5 bd
       0.13942242 -0.22659448 -0.24406724 -0.11971757
000010 66 cf ee bd 31 14 66 be 4c 2d cf 3d 21 25 35 be
       -0.11660652 -0.2246864 0.101160616 -0.17689945
000020 c7 55 f8 be 94 b5 f5 bd 11 09 6b bd da 51 df bd
       -0.48502943 -0.11997524 -0.057381693 -0.10904284
000030 e9 0a 0e 3d 6e 41 b4 3a 80 b7 86 be 44 f8 11 bd
       0.034678373 0.001375241 -0.26311874 -0.035637155
000040 9b 0e 15 3b 82 46 ed 3b 48 55 62 be 95 7b 88 be
       0.0022744301 0.007241071 -0.22102845 -0.26656786
000050 94 d9 1b be 32 da eb bd 74 89 9f be de 94 d3 bd
       -0.15219718 -0.11516227 -0.31159556 -0.103311285
000060 2a f1 a0 3c ba da b8 be 11 76 a4 be ec ed 86 bd
       0.019646246 -0.36104375 -0.32121328 -0.06588349
000070 15 e7 f3 bd 42 70 9a bd 73 33 f3 bd c1 22 26 bd
       -0.1190931 -0.07540943 -0.118750475 -0.040560488

module.1.running_mean f4 [32]
000000 26 bd 08 be 01 54 7a 3d f5 40 ae 3e 1b 3b d8 3b
       -0.13353404 0.06111527 0.34033933 0.006598843
000010 78 1d c8 bc d9 d2 b0 be 27 90 a1 be 5d b7 20 3d
       -0.024428114 -0.34535864 -0.31555292 0.03923737
000020 15 a0 17 bf 28 4e a8 3e 62 24 94 3e fa 72 b7 be
       -0.5922864 0.32872128 0.28934008 -0.35829908
000030 58 0b 8a 3d fd e9 a3 3d 58 7c 52 3d 06 53 a6 bd
       0.06740445 0.08003614 0.051388115 -0.08121304
000040 be c0 15 3d 00 f5 06 be 23 73 d6 3b 7c 0c 2b 3c
       0.036560766 -0.13179398 0.006544487 0.010439988
000050 89 1a 62 bd 6b 54 21 bd c0 69 ea 3e e2 59 67 bc
       -0.055201087 -0.039387148 0.45783806 -0.014120551
000060 eb c0 1a be 34 ed 18 bf f9 9e 5a 3e 77 81 6d 3d
       -0.15112655 -0.59736943 0.21349706 0.057984795
000070 cb 35 1a ba ec 0d 7d bd 19 a0 06 3d 6c bf 39 3d
       -0.00058826496 -0.061780855 0.032867525 0.04534857

module.1.running_var f4 [32]
000000 1f f3 97 3e 5f 18 3f 3e 04 b7 c3 3d f3 45 13 3f
       0.29677674 0.1866164 0.09556392 0.5752861
000010 b6 8b 34 3d 00 ea d2 3d 82 e6 f4 3d 1a 22 73 3d
       0.04407855 0.10298538 0.119580284 0.059358694
000020 0d 54 74 3e 9f 9b 94 3d b2 d5 52 3e cd ad e9 3d
       0.23860188 0.07256245 0.20589331 0.11410103
000030 6b 20 0c 3e b8 43 b3 3e 91 33 2a 3e 40 f0 a5 3e
       0.13684241 0.35012603 0.16621234 0.3240986
000040 8c af 7a 3e b3 21 42 3e 7f 6e 2e 3d c7 e3 0c 3f
       0.24481028 0.18958168 0.042585846 0.5503506
000050 7b 7d d1 3d 9a 7f ab 3d bc 5a f6 3d b1 a6 f5 3d
       0.102290116 0.083739474 0.12029025 0.119946845
000060 dd 73 af 3e 82 0c 8d 3e 17 17 11 3d c4 2e 87 3e
       0.34268084 0.27548605 0.03542241 0.26402867
000070 75 86 8a 3e f4 a1 49 3e 78 6a b8 3d 14 2a 26 3f
       0.27055708 0.19690686 0.09004682 0.64907956

module.4.weight f4 [32, 32, 5, 5]
000000 9f bb 9f bd c6 78 9f bd ef fc af bd fb 06 44 bd
       -0.07799458 -0.077867076 -0.08593165 -0.04785822
000010 97 50 97 bd fe a1 20 bd a3 c5 d0 bb 4d e9 c0 bc
       -0.07388418 -0.039216988 -0.0063712164 -0.023548746
000020 ac 46 2e bd 0a 50 2e bd 49 fe e5 3b 42 13 4b bd
       -0.042547867 -0.0425568 0.0070188385 -0.049578913
000030 ec d5 8c 3a 68 e9 33 bd 30 96 58 3b b6 17 08 3d
       0.0010744906 -0.043923765 0.0033048503 0.033225738
000040 a6 ae e5 3c d2 4c 8c 3d 05 ce a3 3c 67 79 06 3d
       0.02803738 0.0685059 0.019995699 0.032830622
000050 1c 51 17 3d 7c 4b bf 3d f5 8e c6 3d f3 43 d1 3d
       0.036942586 0.093405694 0.09695236 0.102180384
000060 21 0b 53 3d 31 01 0d bd 33 54 26 bc 24 dc 06 bd
       0.051524285 -0.034424964 -0.010151911 -0.032924786
000070 cc a7 81 3c 17 1f 9d bc 62 19 fe bb 57 10 f8 bc
       0.015827082 -0.019179864 -0.0077544907 -0.030281229
000080 fb a6 18 bd 7b f8 29 bd cd 5a 85 3c eb d0 1f 3d
       -0.03726862 -0.041496735 0.016278649 0.0390176
000090 f9 82 8b 3d 7f c5 97 3d a8 bf 70 3d c5 0f 25 3b
       0.068120904 0.07410716 0.058776528 0.0025186401
0000a0 82 fd ae bd c4 12 d4 bc 5c c9 82 bc b5 7b ec bc
       -0.085444465 -0.025887854 -0.015965156 -0.028867582
0000b0 6b b9 46 bd de c6 ba bc 6b d8 c6 b9 65 9a be 3c
       -0.048516672 -0.022799905 -0.00037926747 0.02326698
0000c0 cc c5 a5 3d 96 07 26 3d 69 db 84 bd c1 ca b3 bd
       0.080943674 0.04053458 -0.06487162 -0.087789066
0000d0 e5 2c 44 bd 9a 58 29 bd 21 4e 0b bd da 29 53 bd
       -0.047894377 -0.041344263 -0.034010056 -0.051553585
0000e0 c2 25 37 bd 39 bc c7 bc a0 a9 0d bd 44 13 24 bd
       -0.044713743 -0.024381744 -0.034585595 -0.040057436
0000f0 29 f1 1f bd ec f4 54 bb 9c ad a0 3a 80 a4 2f bd
       -0.039048348 -0.0032494618 0.0012258771 -0.04288149
000100 91 e7 57 3b 4d 2a ec bd 1f f1 a4 bd 27 5a d2 bb
       0.003294442 -0.11531506 -0.08053803 -0.0064194384
000110 68 09 91 bc c1 ec ea bc 80 cd 45 bc d9 6f 01 3d
       -0.01770468 -0.028677346 -0.012072921 0.031600807
000120 1b ae 1d 3d 6d 00 2b 3b cb 10 8a 3c 60 a2 c6 bd
       0.038496118 0.0026092783 0.01685371 -0.09698939
000130 3b fe 63 bd 1e 44 8b b8 7c 4e 59 bc cf e9 5e 3b
       -0.055662375 -6.640724e-05 -0.013263341 0.0034013873
000140 a5 05 a0 bc 22 3b 50 3c 85 95 eb 3c ce ba 0a bd
       -0.019533942 0.012709411 0.02875782 -0.033869557
000150 18 20 cc 3c 5e 34 af bd 54 40 2c bd 4c 48 13 3d
       0.024917647 -0.0855491 -0.042053536 0.03595762
000160 05 6b 2e bd e6 45 0b bd db 25 91 bd 1d d4 7c bd
       -0.04258253 -0.034002207 -0.070872985 -0.061725724
000170 f8 3f 90 bd 29 99 bc bd c5 36 42 bd 98 ed d9 bd
       -0.07043451 -0.092089005 -0.047415514 -0.106410205
000180 23 d5 c6 bd e7 09 65 bd f2 3f ab bd 8c 6b 60 bd
       -0.09708621 -0.055917647 -0.08361806 -0.054790065
000190 a4 9c 54 bc f5 d9 26 bd c6 52 7b bd 6d ab 32 bd
       -0.012976799 -0.040735204 -0.061358236 -0.043620516
0001a0 c5 66 60 bd 48 4c 81 3d 8a 21 66 3c 20 4e 48 3c
       -0.05478551 0.063133776 0.014046082 0.012225658
0001b0 6a e9 02 bc c5 b3 26 3d b6 b6 5c 3d b3 28 fb bc
       -0.007990221 0.040698785 0.053885184 -0.030659055
0001c0 cc 19 a3 bc 12 e6 09 bc d7 6c 45 3d 45 13 1b 3c
       -0.019909762 -0.008416669 0.0481995 0.009465043
0001d0 03 db ca 3d a9 c3 a2 bc da 3d 89 bd 20 14 e0 bc
       0.099050544 -0.019868689 -0.067012504 -0.027353346
0001e0 6f b6 c3 bd 5b 8c ea bd a5 70 a5 bd 2d 23 2a bd
       -0.09556281 -0.11452552 -0.08078126 -0.041537452
0001f0 ff a9 19 3d b2 72 84 bd aa dc 72 bd 49 3d f1 3a
       0.037515637 -0.06467189 -0.059292473 0.0018405105
000200 95 fe 8e bd 0f 54 85 bd 92 04 da bd d6 16 13 bd
       -0.069821514 -0.065101735 -0.10645403 -0.03591045
000210 36 b7 8a bb 46 00 4b bd 66 54 ec bd f9 62 a7 bc
       -0.004233266 -0.049560808 -0.11539535 -0.020432936
000220 2f b0 97 3d bd ba 11 3e e0 e6 86 3c 07 4b 9f bc
       0.07406651 0.14231391 0.016467512 -0.019444956
000230 f3 38 26 3e 5e 3a 9d 3e 0b d5 94 3e 3b 99 60 3e
       0.16232662 0.30708593 0.2906879 0.21933453
000240 da 77 e6 3d bc 0f c0 bc 44 4e af 3c 50 46 88 3c
       0.112533286 -0.023445003 0.021399625 0.01663509
000250 20 70 59 bd af c5 3d bd 06 33 23 3d 31 b2 56 3d
       -0.053085446 -0.046331104 0.03984358 0.05241603
000260 67 09 35 3d 56 16 9b 3c 27 cb ac 3c de 33 47 3c
       0.04419842 0.018931549 0.021092964 0.012158362
000270 c8 fa 27 3d 4b cc 42 3d d6 55 14 3d 1f 60 22 3c
       0.041010648 0.04755811 0.036214672 0.009910612
000280 2d b2 d1 3c bb 09 f4 bc 0b 64 8f 3c c1 a2 45 bc
       0.025597656 -0.029789796 0.017503759 -0.012062729
000290 cf 37 c6 3c e0 d4 cc 3c d0 78 ac 3d 2b 60 9e 3c
       0.024196533 0.02500385 0.08421481 0.019332966
0002a0 bc 21 38 3d c2 0a 39 3d 3f d8 bc 3c ba ad 15 bd
       0.044954047 0.045176275 0.023052333 -0.03654263
0002b0 6f ad 82 3b 5f 92 2f bd 76 1c 01 3d 3b 76 2d bc
       0.00398796 -0.0428642 0.031521283 -0.01058727
0002c0 c6 a8 61 bc 84 4f d1 3c 9f 4f 1f bc 6d 27 c3 bb
       -0.013773149 0.025550611 -0.009723573 -0.0059556277
0002d0 6c 95 e0 bc f1 e7 bc bc 6c 7c 37 bc ff a0 02 3d
       -0.027415 -0.023059817 -0.011199098 0.03189182
0002e0 83 9a 80 bd 78 19 d5 3b a5 94 40 3d 6b 22 e4 3d
       -0.06279471 0.0065032803 0.04701676 0.11139377
0002f0 f0 ab 09 3d a3 77 53 3c e4 c9 5f 3c 7c 00 0c bd
       0.033611238 0.012906942 0.013658974 -0.03418015
000300 9c 7c 58 bd f6 ce f0 3c 83 eb c4 3c 48 e6 52 bd
       -0.05285321 0.029395562 0.024038082 -0.051489145
000310 8f 88 fd bc e1 45 ba bd 61 42 9e bd 87 fb 82 bd
       -0.030948905 -0.090953596 -0.077275045 -0.06395631
000320 8e 4b 55 bd 2e db da bb b1 c7 7e bd 83 ca 7a bc
       -0.052074008 -0.0066789603 -0.06220216 -0.015307072
000330 3e 66 88 bd 2a e6 20 bb 53 61 3b 3d ae 75 e7 bc
       -0.06660126 -0.002455125 0.045747112 -0.028254356
000340 e2 b6 5c bc 1d 14 49 bd e7 6a 20 bd 88 5c 76 bc
       -0.013471337 -0.049091447 -0.03916445 -0.01503671
000350 1f 2e 3e bc 7e 60 34 bd d9 1a 0c bd b0 6d fe bc
       -0.011607676 -0.044037335 -0.03420529 -0.031058162
000360 99 98 b5 bc 63 b6 cf bc cb 70 63 bd 65 c6 eb bd
       -0.02216749 -0.025355523 -0.05552749 -0.1151245
000370 8f 57 bb 3d 34 43 f9 3d e8 42 d0 3d 27 a7 06 3e
       0.0914756 0.12171021 0.10169011 0.13149701
000380 c8 66 97 3d 1c b5 a5 bc 06 58 2e bd 44 fa 02 bd
       0.07392651 -0.020227961 -0.042564414 -0.031976953
000390 93 b6 01 3b 28 b5 ae 3a a5 5c 2c bc b4 27 2b bd
       0.001979266 0.0013329135 -0.010520135 -0.04178591
0003a0 21 58 6a bc 13 34 35 bd b9 61 77 3c 95 5d 13 3d
       -0.014303238 -0.044239115 0.0150989825 0.03597792
0003b0 28 71 45 3c e6 ad 0c 3d c4 3c 35 bb 0b 73 2c bc
       0.012050904 0.03434553 -0.0027654627 -0.010525475
0003c0 ed 74 b2 ba 4d 9b 5e bd 5d ec 0c bd 3d 10 12 bd
       -0.0013615169 -0.054347325 -0.0344051 -0.035660017
0003d0 dd 3c f7 bc b6 56 ee bc b3 7f b7 3b d6 8b 14 bd
       -0.030180389 -0.029094081 0.0055999397 -0.03626617
0003e0 be 00 10 3c 62 1a c2 3b 71 b5 7a bc 7b 0b 81 bd
       0.008789239 0.005923555 -0.015302048 -0.06301018
0003f0 54 ca 2a bd ac a5 b4 bc b6 ac ad 3c 54 b7 d2 bc
       -0.04169686 -0.022051655 0.021200519 -0.025722183

module.4.bias f4 [32]
000000 06 f6 07 bd 7b 67 16 bb 40 6b 84 3c d0 7d e8 bb
       -0.03319361 -0.0022949863 0.016164422 -0.007095076
000010 90 94 b3 bc 85 fd dc 3c 81 74 b6 3c 34 f1 b6 bc
       -0.021921426 0.026976356 0.02227235 -0.022331811
000020 8f 85 a5 3c 5e 8c 10 3d db 87 fe bc 1a 1e 29 3b
       0.020205287 0.035290115 -0.03107064 0.0025805295
000030 d0 f2 6a bc cd fb ae bc 92 34 03 bd 09 61 17 3c
       -0.014340118 -0.021360302 -0.032032557 0.009239444
000040 c1 5e cb 3c a1 97 98 bc e9 e3 dc ba a4 23 d7 bc
       0.024825456 -0.01862699 -0.001685259 -0.026262112
000050 17 ee c5 3c 62 81 fa bc 7f 82 90 3b 4d 5b 32 3c
       0.024161382 -0.030579273 0.0044100876 0.010886026
000060 75 a1 c5 39 e6 29 d9 3c b7 fd d0 3c 5e d9 f7 bc
       0.00037695063 0.026509237 0.025511606 -0.030255016
000070 dd 0f 6e 3b 7f 41 f8 bc d8 4b 6f 39 dd 86 80 3b
       0.0036325373 -0.030304668 0.0002282107 0.003922327

module.5.weight f4 [32]
000000 9b 59 2c 3f ed 51 48 3f 31 04 73 3f a4 52 6a 3f
       0.6732423 0.7825001 0.9492827 0.9153235
000010 95 cb 4f 3f 95 77 82 3f 2c b5 52 3f 61 74 86 3f
       0.81170017 1.0192744 0.82307696 1.0504266
000020 27 95 84 3f ca 7d 80 3f 07 f9 8a 3f a7 25 85 3f
       1.0358018 1.0038388 1.0857247 1.0402116
000030 48 15 6c 3f 1d 3c a6 3f 3a f5 80 3f e2 8c 8b 3f
       0.9221997 1.2987095 1.0074837 1.0902369
000040 65 9e 72 3f 44 e1 68 3f 79 a8 7a 3f 59 39 85 3f
       0.9477294 0.9096873 0.9791332 1.0408126
000050 f4 1e 65 3f 84 0d 3f 3f ea 8f 88 3f a2 f0 60 3f
       0.89500356 0.7463 1.0668919 0.87867177
000060 95 40 54 3f d2 dc 80 3f b9 d3 56 3f 4a 71 7c 3f
       0.82911044 1.0067389 0.83916813 0.98610365
000070 e0 42 8b 3f 57 11 82 3f 4c ee 79 3f ad 67 6b 3f
       1.0879784 1.0161542 0.9762924 0.9195507

module.5.bias f4 [32]
000000 a3 1b 39 be 6b ae 26 be e0 f5 da be eb e2 ca be
       -0.18076949 -0.16277473 -0.42765713 -0.3962625
000010 16 66 b5 bd 1a 21 ab be 2e 92 67 be 15 f3 b3 be
       -0.08857362 -0.33423692 -0.22614357 -0.35146394
000020 3a dc 99 be 95 e9 c6 be 5d 56 23 bf eb ba bd be
       -0.30050832 -0.38850084 -0.63803655 -0.3705667
000030 d5 ce e5 be 96 90 fb be 7c 9e e2 be aa 96 a4 be
       -0.44884363 -0.49133748 -0.4426154 -0.32146198
000040 d6 9c e6 be 0c a3 ac be 2f 58 85 be f3 38 e7 be
       -0.4504153 -0.33718145 -0.2604384 -0.45160636
000050 ff 6f af be 50 d6 ff bd 22 15 dc be 70 e9 e0 be
       -0.34265134 -0.12492049 -0.42984873 -0.439281
000060 ae 9e a5 be 76 45 7f be 2a b3 68 be d8 68 b1 be
       -0.32347625 -0.24928841 -0.22724596 -0.34650302
000070 2a 42 0b bf 98 15 e9 be e5 87 63 be b4 5d b6 be
       -0.54397833 -0.45524287 -0.22219808 -0.35618365

module.5.running_mean f4 [32]
000000 b0 e8 cb 3d 1d c1 25 bf c2 03 0c c0 35 29 70 3f
       0.09956491 -0.6474779 -2.1877294 0.93812877
000010 26 e1 e3 bf 90 8f 27 bf fd 6a 96 be c1 66 3a c0
       -1.7803085 -0.65453434 -0.293785 -2.9125216
000020 59 ac 1d c0 94 f8 1d c0 28 83 1e c0 f0 87 6b c0
       -2.4636443 -2.468297 -2.4767551 -3.680172
000030 e9 88 90 bf db 8a 51 c0 81 b5 ec bf 6e a6 76 c0
       -1.1291782 -3.2741 -1.8492891 -3.853908
000040 f6 db 26 c0 c7 a6 a7 bf 6b 4c 36 c0 66 5a 56 bf
       -2.6071754 -1.3097771 -2.8484142 -0.8373169
000050 c5 30 a8 bf 5b 94 08 3f 6c 8e 8e c0 aa 77 c8 bf
       -1.3139883 0.5335137 -4.4548855 -1.5661519
000060 9e c3 46 c0 0d 39 5c bf e5 1f 7e bf 3e b6 ef bf
       -3.1056895 -0.8602455 -0.9926742 -1.8727491
000070 d4 e4 01 c0 34 53 2d c0 b8 7a 0f c0 5a 83 ee bf
       -2.0295916 -2.7082033 -2.2418652 -1.8633835

module.5.running_var f4 [32]
000000 e0 6b 89 40 11 e6 99 40 ac 35 b7 40 1b f0 b1 40
       4.2944183 4.8093343 5.7253017 5.5605597
000010 2c e1 b5 40 70 29 a4 40 ed 6d e7 40 db 36 ee 40
       5.683737 5.1300583 7.2321687 7.444196
000020 55 00 fb 40 a0 ef 00 41 8b 05 df 40 5e d6 c2 40
       7.8437905 8.058502 6.9694266 6.088668
000030 d5 b8 85 40 67 6f 46 41 e8 58 82 40 3a e8 13 41
       4.1788125 12.402198 4.073353 9.244196
000040 61 9a a3 40 6e 8e a7 40 29 be a1 40 12 5a e8 40
       5.112595 5.2361364 5.054463 7.260995
000050 ab 48 c7 40 00 07 93 40 ed 3e 08 41 ea f8 8f 40
       6.2276206 4.5946045 8.515363 4.499135
000060 ca 4b d9 40 35 f6 82 40 d0 2a 65 40 f7 1d bc 40
       6.7905016 4.0925546 3.580738 5.878658
000070 90 6f bf 40 d9 5e bc 40 8f 8d b5 40 e5 3a 97 40
       5.9823685 5.886578 5.67353 4.7259393

module.8.weight f4 [64, 32, 5, 5]
000000 b1 86 03 ba a1 ec e1 ba 69 bd 7c bd e5 66 60 bd
       -0.0005017324 -0.0017236659 -0.061704073 -0.054785628
000010 d2 d3 83 bd cc 36 98 3c 5e 94 72 bc 31 9e cd bb
       -0.06436886 0.018580817 -0.014805881 -0.0062749614
000020 5e b1 ea bc ec be c9 bc 28 ee 7c 3d cb 71 c8 b9
       -0.028649028 -0.024627171 0.06175056 -0.00038231755
000030 b9 75 b8 3b ed 85 59 bc 26 1c 58 3d ba 51 96 3d
       0.005629268 -0.013276559 0.05276122 0.07339807
000040 41 0a c0 bb e6 3f ad bd 90 44 c8 bc 3b 34 a8 3c
       -0.0058605974 -0.08459453 -0.024446756 0.020532718
000050 b5 ea c9 3d 09 2c bc 3c e2 01 ae 3c db 17 99 3d
       0.0985922 0.022970216 0.021241132 0.07475253
000060 d0 fd 97 3d 5f 85 89 3c bb 05 b4 ba 49 16 97 3d
       0.07421458 0.01678723 -0.0013734618 0.073772974
000070 8a 6b 80 3b df 9f b5 bc 20 e6 2d 3d 77 86 b7 3a
       0.0039190697 -0.022170959 0.042455792 0.0014001866
000080 94 5c 6b bb fc 14 e8 bc a3 d0 1a bc 62 c9 2a 3d
       -0.0035913335 -0.028330319 -0.009449157 0.04169596
000090 4f e0 7c 3d d8 82 ef 3d ed c5 65 3d c0 67 aa 3d
       0.061737355 0.11694878 0.05609696 0.0832057
0000a0 97 a8 8a 3d 44 6f da 3b 9e e0 93 3d 70 c8 e5 3c
       0.06770437 0.006666096 0.07220577 0.028049678
0000b0 0d f1 68 3d 3f f1 b5 3c 5d 09 ff 3c f8 dd a6 3c
       0.05687051 0.022209762 0.031132394 0.020369515
0000c0 57 85 49 3c 9e 92 fb 3c bb a7 e2 3c 4d 90 6b 3d
       0.012299857 0.030709561 0.02766787 0.057510663
0000d0 c5 be 95 3d 85 1a 7b 3d fb ee f1 3b a0 27 93 bc
       0.07311777 0.061304588 0.007383225 -0.01796323
0000e0 9c 1e 22 ba 28 35 34 3d da 1b 47 3d d7 49 94 3c
       -0.0006184371 0.043996006 0.048610546 0.018101616
0000f0 33 80 8d 3c 65 9a 02 bd fe 85 a9 bc 92 f5 e0 3c
       0.017273044 -0.031885523 -0.020693775 0.027460847
000100 78 20 bd bc 7a c6 58 3d 29 9e 84 3c 04 5f 69 bd
       -0.023086771 0.052923657 0.016188698 -0.05697538
000110 cc e9 06 bd 4b 74 48 3c 45 b4 2b 3d 58 03 ee 3c
       -0.03293781 0.012234758 0.041919965 0.029054329
000120 99 8f f5 3c 8d e4 87 bc f7 74 ab bc 5e 4f 49 bd
       0.0299757 -0.016588474 -0.020929797 -0.049147956
000130 36 72 46 3d fa 37 ea 3c 9b b5 e5 bc 9c 12 36 bd
       0.048448764 0.028591145 -0.028040698 -0.04445134
000140 d2 e7 f4 bc 71 7d d1 bc 25 99 8c bd 95 b3 7b bb
       -0.029895697 -0.02557251 -0.068651475 -0.00384066
000150 40 ee c6 3b 36 b6 f0 bc 53 de 54 bd e4 3c b9 3b
       0.006070882 -0.02938376 -0.051969837 0.0056530107
000160 70 99 35 bd 2a 4b 55 bd a2 49 e1 bd f9 b2 2f 3b
       -0.044335783 -0.052073635 -0.110003725 0.0026809557
000170 e5 1b d2 3c 1c bf a1 ba c5 9e 1f bd 42 68 d3 bd
       0.025648067 -0.001234028 -0.038969774 -0.1032262
000180 45 c7 81 bd b5 2c 9f 3d e7 e7 c5 3d 99 29 b7 bc
       -0.06336836 0.07772199 0.096633725 -0.022358702
000190 6e 6c d1 bd 9f 3d 3a bd 1a 8e 91 3c 57 a9 26 bc
       -0.102257594 -0.045468923 0.017767955 -0.01017221
0001a0 68 7f 0a bd 56 4a 3d bd 56 9f f3 bc 7a 22 5d 3d
       -0.03381291 -0.04621347 -0.029739063 0.053987958
0001b0 92 a9 02 3d 90 1c 84 ba cf a0 2a 3d e2 b5 58 bd
       0.031899996 -0.0010079313 0.041657265 -0.052907832
0001c0 9e 58 65 bd 77 88 a0 3c 4a b7 5d 3d 78 e2 30 3d
       -0.055992715 0.019596322 0.054129876 0.043184727
0001d0 78 83 4e 3c 0c 40 5f bd 16 a0 17 bd 91 03 23 bd
       0.012604587 -0.05450444 -0.037017904 -0.039798323
0001e0 f9 a2 75 3d 25 38 22 3d 53 df 47 bd 8f 09 2a bd
       0.059969876 0.039604325 -0.048796963 -0.041513022
0001f0 70 25 06 bd d6 37 c8 bc 2e c4 f1 bc c6 7c 98 bd
       -0.032750547 -0.024440687 -0.029512491 -0.07445674
000200 96 bf 80 bd 19 15 34 bc c1 2d 88 3c ab 5b a1 3d
       -0.06286542 -0.010991358 0.01662338 0.078788124
000210 63 09 5c bd 34 3e 44 bc 31 5f 2f 3c 41 e2 73 bd
       -0.05371989 -0.011977721 0.010703848 -0.059541944
000220 c5 d9 52 3d 09 b0 01 bd af 73 6d bb f7 cb 2b bc
       0.051477212 -0.03166202 -0.0036232283 -0.010485641
000230 d6 d4 eb bc 62 49 32 3c 63 67 06 3d 8d f9 04 3c
       -0.028788012 0.010881754 0.03281344 0.008116138
000240 c6 41 1b bd 7c 3b 7e bd f8 5a 65 bb 17 d6 c3 3c
       -0.037904523 -0.062068447 -0.0034996849 0.023905797
000250 85 87 82 3c 4e 58 2b bc 70 4c 04 3d 7e 9d ac 3d
       0.015933761 -0.010458065 0.03229946 0.08428477
000260 9c af 5c 3d 6c e5 53 3d 7b ad 55 3c b0 5e b3 3c
       0.05387841 0.051732466 0.013041849 0.021895736
000270 8b ef 84 bb 13 d5 4a bb 9c b1 ee 3b 49 ab 57 3c
       -0.004056876 -0.0030949756 0.0072843563 0.013163396
000280 39 84 6b 3d a7 f3 40 3d 48 63 cb 3c 60 3c 3f 3d
       0.057499144 0.047107365 0.024827614 0.046688437
000290 a9 f6 04 bc 60 ac 30 bd 70 52 7b 3c 61 d7 a0 3c
       -0.008115449 -0.04313314 0.015339479 0.01963395
0002a0 3a 23 2a bc ce 86 05 bd cd 30 fa 3b 28 07 24 bd
       -0.010384375 -0.032599263 0.007635212 -0.040045887
0002b0 f1 a2 0f bd 7d 7b 56 bd 8c 63 71 bd cd 8c 72 bd
       -0.035067502 -0.05236386 -0.058932826 -0.05921631
0002c0 fe 34 84 ba d3 80 48 3d 96 49 ed bc 74 7b c8 bc
       -0.0010086594 0.04895098 -0.028965753 -0.02447293
0002d0 e9 1f 8b bd 46 79 94 3c eb 89 49 3d 9c d0 04 3d
       -0.06793196 0.018124234 0.049203794 0.032425508
0002e0 0a c2 c7 bc 23 9c 06 bc 94 16 fa 3b 7e 04 5a 3d
       -0.024384517 -0.008215937 0.007632086 0.05322694
0002f0 e6 11 8f 3d 84 db 43 3c 63 d9 a6 bc df 05 2d 3b
       0.06985836 0.011954192 -0.02036733 0.0026401205
000300 ca 16 66 3c ce 6f cd bb 37 34 49 bc f4 3a 81 3d
       0.014043519 -0.0062694317 -0.012280515 0.063100725
000310 a4 cb 68 3d 09 8a aa bd 13 e3 92 bd 34 ec 94 bc
       0.05683483 -0.08327109 -0.07172217 -0.018179037
000320 bf 22 33 3d af bb aa bc 9b f7 45 bc d3 c3 5e bd
       0.04373431 -0.020841448 -0.0120829595 -0.05438597
000330 bf 72 e4 bd a4 a8 9d 3d da 2e ad 3d c2 e5 0d 3c
       -0.111546986 0.07698181 0.08456202 0.008660736
000340 16 f4 b4 bd 34 9c ed bd 61 a5 5d 3d 45 92 7c 3d
       -0.08835618 -0.11602059 0.054112796 0.06166293
000350 ce 4e 86 bd 40 d3 2e be f4 88 3e be e7 66 fe 3d
       -0.065579996 -0.17072773 -0.18606931 0.12421971
000360 e2 7b 95 3d c0 31 81 bc 15 f2 2d be 49 16 2b be
       0.072990194 -0.015770793 -0.16986878 -0.1670772
000370 06 9a 8c 3d 2f 75 0d 3d 77 cb dd 3c 40 3d cf bd
       0.06865315 0.034535583 0.027074559 -0.101191044
000380 17 a9 58 3c 05 6b 3a 3d dc 04 2f 3d 6f 35 9d 3c
       0.013223908 0.045512218 0.042729244 0.019190518
000390 7d 14 00 bb 2f fc 8b 3c 03 16 92 bc ac 06 f2 3c
       -0.0019543462 0.017088024 -0.017832762 0.029544197
0003a0 f5 fd d9 3c 5a 2b 95 3c e5 a9 47 3c bd 6f cd bc
       0.026610354 0.018209148 0.012186502 -0.025077695
0003b0 1a 91 8b bc a8 3a b2 3b f5 f1 eb 3b 3a f9 f9 3b
       -0.017036963 0.0054391213 0.0072004744 0.007628587
0003c0 d7 6f e7 3c a2 d0 d7 bc 00 91 3c bd a7 12 ee 3b
       0.028251572 -0.026344601 -0.04603672 0.007265407
0003d0 3f 0b e1 3d 35 85 77 3c 85 70 70 bd 97 54 a7 bd
       0.10988473 0.015107443 -0.058701057 -0.08170431
0003e0 79 ea 70 bc 20 67 81 3d dc 62 b7 3d 07 83 cb 3c
       -0.01470434 0.06318498 0.08954403 0.024842752
0003f0 c4 a1 cc 3d a1 42 ce 3c 22 9a 37 bc 95 8f e7 3c
       0.09991792 0.025178256 -0.011206182 0.028266707

module.8.bias f4 [64]
000000 b0 2b be 3c c4 69 61 bc aa 00 31 3c 2c 5d aa bc
       0.023214191 -0.013758127 0.010803381 -0.020796381
000010 5c f0 ed ba dc b8 15 bc ee af 9e 3c 1e e6 02 bd
       -0.0018153298 -0.009138312 0.019371 -0.031957738
000020 9b 80 f8 3c 2c 19 f9 bc 16 bc 06 bd df 81 31 3c
       0.030334761 -0.03040751 -0.032894216 0.010834186
000030 67 00 6f 3a 70 b2 36 b7 95 92 c2 39 be 49 ff 3c
       0.00091171864 -1.0889591e-05 0.00037111776 0.031163093
000040 6e dc 9b bc 3c eb e7 bc 31 ad d4 bc 6d 57 05 3d
       -0.019026008 -0.02831041 -0.02596149 0.03255408
000050 36 59 7f 3c ff 07 92 bc 66 2f db bc 13 46 d2 bc
       0.015585234 -0.017826078 -0.026756 -0.02566818
000060 8e 6f e2 ba af 4b eb ba 36 10 f0 3c a8 53 41 ba
       -0.0017275678 -0.0017951633 0.029304605 -0.00073748315
000070 96 7a 0e bd fa 07 0b bd 4b 71 e4 bc 4a bd fe bc
       -0.034784876 -0.033943154 -0.027886054 -0.03109612
000080 a1 59 06 3d 7f ae 5d 3c 18 f0 d1 3b a0 b1 9a bc
       0.03280032 0.013530373 0.0064067952 -0.018883526
000090 c6 e1 75 bc 89 cf 06 3d 34 1d 85 bb 3a 2a cc bc
       -0.015007442 0.032912765 -0.004062319 -0.024922479
0000a0 2c 8d 82 bc 71 f9 ed bc 6a 07 10 3b 8c 01 10 bd
       -0.015936457 -0.029049607 0.0021977075 -0.035157725
0000b0 da 8b f0 bc b4 e9 eb bc 05 74 2f bc 46 be 23 3c
       -0.029363561 -0.028797962 -0.010708814 0.009994095
0000c0 8e bc bc bc d9 29 00 bd 2b d8 0d bd 24 b8 b8 3b
       -0.023039129 -0.03128991 -0.034629982 0.0056371856
0000d0 67 a6 a1 b9 be 16 1f bc 33 d6 2d bc 39 4d db bc
       -0.00030832292 -0.009710012 -0.010610151 -0.026770221
0000e0 a4 ca 33 bb cd e3 3a 3b 35 fe e1 bb ab 81 67 bc
       -0.0027434016 0.0028517128 -0.006896759 -0.014130036
0000f0 3c 97 dc bb 18 da 09 bd c2 55 4f bb fa de b8 bc
       -0.0067318957 -0.033655256 -0.003163681 -0.022567261

module.9.weight f4 [64]
000000 58 6b 4a 3f 18 ec 37 3f 00 ba 2f 3f 8c bf 45 3f
       0.79070044 0.71844625 0.6864319 0.772454
000010 2a 39 4c 3f 7a f3 2d 3f 52 6f 1f 3f 8f 61 5e 3f
       0.79774725 0.6794964 0.62279236 0.8686761
000020 45 a3 45 3f 02 e4 2d 3f 58 e9 47 3f 73 a1 27 3f
       0.77202255 0.6792604 0.7809043 0.65480727
000030 b4 24 38 3f d8 5e 21 3f d8 2e 36 3f 03 e3 04 3f
       0.71931005 0.63035345 0.7116523 0.5190889
000040 41 01 48 3f 9f 25 34 3f 0d 68 32 3f 83 90 42 3f
       0.78126913 0.70369905 0.6969002 0.7600176
000050 6d 69 48 3f 36 77 43 3f 20 4d 31 3f f5 8c 31 3f
       0.78285867 0.76353776 0.6925831 0.6935571
000060 52 ec 16 3f fc 6f 33 3f af bf 54 3f d3 f3 2e 3f
       0.58954346 0.7009275 0.83104986 0.68340796
000070 a0 06 3a 3f 52 73 11 3f bc 5f 5c 3f 64 90 53 3f
       0.7266636 0.5681659 0.8608358 0.826422
000080 2f 42 35 3f ad 84 38 3f 74 4b 36 3f 7b 9e 3e 3f
       0.70804113 0.7207745 0.7120888 0.7446057
000090 d5 5e 20 3f 28 44 21 3f 5c a1 5d 3f fa 34 0e 3f
       0.626447 0.62994623 0.8657434 0.55549586
0000a0 1f d6 27 3f e6 51 41 3f 6e 73 23 3f 9a df 2d 3f
       0.655611 0.7551559 0.63848007 0.67919314
0000b0 76 4d 5d 3f de f3 43 3f 66 2f 2a 3f b3 19 25 3f
       0.8644632 0.76543987 0.66478574 0.6449234
0000c0 de fd 40 3f 3f f2 41 3f b1 ec 30 3f 29 cc 44 3f
       0.7538737 0.75760263 0.6911116 0.76874024
0000d0 be 06 0d 3f dc 53 5e 3f 50 31 28 3f 93 bf 38 3f
       0.5508841 0.8684671 0.65700245 0.7216732
0000e0 55 3d 46 3f 1b 09 34 3f 12 ab 1e 3f f3 1b 3b 3f
       0.77437335 0.70326394 0.6197978 0.7308952
0000f0 49 34 3a 3f 66 8f 41 3f 38 e8 55 3f 41 48 39 3f
       0.7273603 0.75609434 0.8355746 0.72375876

module.9.bias f4 [64]
000000 18 33 28 bf 07 78 15 bf d2 b4 00 bf 6e 5d 46 bf
       -0.6570296 -0.5838627 -0.5027591 -0.7748631
000010 1c 9c 45 bf 2b 98 2f bf 15 12 02 bf 18 b0 79 bf
       -0.7719133 -0.68591565 -0.5080884 -0.9753432
000020 21 fe 2d bf 0e 57 0f bf ec 90 20 bf 49 d1 1e bf
       -0.67965895 -0.5599221 -0.62721133 -0.62038094
000030 06 39 00 bf 0e 27 fc be b0 7d 24 bf 85 c5 f1 be
       -0.5008701 -0.49248546 -0.64254284 -0.47221008
000040 71 95 17 bf 36 ac 08 bf 6b 64 f7 be 2d 16 44 bf
       -0.59212404 -0.53387773 -0.483188 -0.7659634
000050 ef fe 3d bf b6 34 21 bf e1 a4 08 bf a1 82 19 bf
       -0.7421712 -0.62971056 -0.53376585 -0.5996495
000060 29 f3 05 bf 1d 92 1d bf 41 6e 13 bf 47 63 36 bf
       -0.5232416 -0.61551076 -0.5759011 -0.71245235
000070 6b 87 33 bf ae fb 01 bf 9a 1b 5b bf b2 a4 23 bf
       -0.70128506 -0.5077466 -0.8558899 -0.6392318
000080 86 3f 15 bf 37 03 15 bf 41 06 03 bf 10 a6 12 bf
       -0.58300054 -0.5820803 -0.5118142 -0.5728464
000090 4c ab db be f7 48 fa be 6f dd 2f bf 02 ef f7 be
       -0.42904127 -0.48883793 -0.68697256 -0.48424536
0000a0 35 85 21 bf 06 f0 1e bf 02 19 03 bf 92 a8 13 bf
       -0.6309388 -0.62084997 -0.51210034 -0.5767909
0000b0 76 d4 35 bf e1 de 1b bf 2d 90 21 bf bf 3a 11 bf
       -0.71027315 -0.6088696 -0.6311062 -0.56730264
0000c0 b6 74 02 bf 54 ad 0b bf c3 0c 30 bf ff 27 24 bf
       -0.50959337 -0.5456135 -0.6876947 -0.6412353
0000d0 7d ad f5 be fd 2d 31 bf 5a 6f 0c bf 7e 32 0f bf
       -0.47983924 -0.692108 -0.5485741 -0.5593642
0000e0 5b a5 18 bf fb fb 11 bf f2 8a f8 be b8 a8 1a bf
       -0.5962731 -0.57025117 -0.48543507 -0.60413694
0000f0 3c 87 10 bf 3d 05 10 bf 00 86 38 bf 64 f0 1e bf
       -0.5645635 -0.56257993 -0.7207947 -0.62085557

module.9.running_mean f4 [64]
000000 6c 11 a4 bf ab 8b 00 c0 f8 90 a6 bf 25 86 42 be
       -1.2817817 -2.0085247 -1.3012991 -0.18996485
000010 9b 98 17 c0 23 cd 1e be 9f 38 99 bf 2c 01 95 bf
       -2.3686893 -0.15507941 -1.1970404 -1.1640983
000020 4c 2e 24 bf 79 59 cf bf b5 c6 ec bf 10 e2 16 bf
       -0.64133143 -1.619918 -1.849814 -0.58938694
000030 80 30 ed bf e9 56 20 3e 21 04 0c c0 5e 43 5c bf
       -1.8530426 0.15658154 -2.187752 -0.86040294
000040 66 86 02 c0 53 66 16 c0 17 2e bf bf 65 90 0b bf
       -2.039453 -2.3499954 -1.493594 -0.54517204
000050 af 18 62 bf ce 35 02 c0 1c c5 7f be a0 5e 98 bf
       -0.88318914 -2.034534 -0.24977535 -1.1903877
000060 4f 14 da bd 26 00 56 bf 36 7e 07 c0 3b b9 78 bf
       -0.10648405 -0.83593976 -2.1170783 -0.9715764
000070 48 fc 9f bf 61 f1 63 bf 5a 8c 50 bf 7a 9d 0e c0
       -1.2498865 -0.8904019 -0.8146416 -2.2283616
000080 2a 5b 65 be d8 58 61 bf ed ef f7 bf 75 d4 0f c0
       -0.22398058 -0.8802619 -1.9370095 -2.2473423
000090 bb f7 92 bf 48 6a aa bf e3 44 4d c0 d6 ab 78 bf
       -1.1481851 -1.3313684 -3.2073295 -0.971372
0000a0 36 1b 07 bf 99 af 2f c0 c3 d6 ac bf 13 ce 94 bf
       -0.52775896 -2.7450926 -1.350304 -1.1625389
0000b0 e6 c6 2d c0 d9 df 05 c0 5e ba 5a bf 73 c2 e9 bf
       -2.7152648 -2.0917876 -0.85440624 -1.8262466
0000c0 3b 1b 7e bf 22 fe c5 bf f4 98 4b bf 0c 6a 3b bf
       -0.992603 -1.546818 -0.7953026 -0.7320869
0000d0 3c ac e4 3e e3 fa 33 c0 01 35 9e bf 45 b5 9e bf
       0.44662654 -2.812188 -1.2359926 -1.2399069
0000e0 c2 1d 11 c0 f1 d1 b3 bf d5 d7 3a bf 04 f7 32 bf
       -2.2674413 -1.4048444 -0.72985584 -0.69908166
0000f0 0f b7 b4 bf 9a b4 a8 bf 44 e0 3d bf 3b b8 f3 bf
       -1.4118365 -1.3180115 -0.7417033 -1.9040598

module.9.running_var f4 [64]
000000 19 ac d5 3f 38 83 85 3f 56 fc 86 3f 85 ea cb 3f
       1.6693145 1.043067 1.0545757 1.5930945
000010 24 54 b1 3f 37 4d 79 3f ab b5 85 3f fc ca d1 3f
       1.3853803 0.97383446 1.0446066 1.6390071
000020 c2 92 db 3f bf 63 66 3f 7e 75 96 3f 3b d9 4b 3f
       1.7154162 0.8999595 1.1754606 0.7962834
000030 83 32 aa 3f 2b 0e 92 3f c5 ef 85 3f 38 3b 8a 3f
       1.3296665 1.1410574 1.0463797 1.0799322
000040 1f 13 b0 3f df be 81 3f 21 f8 6c 3f 9b 9c 81 3f
       1.3755835 1.0136374 0.92566115 1.0125917
000050 db 48 b2 3f f9 95 b8 3f 7f d4 7e 3f 6f df 89 3f
       1.3928484 1.4420768 0.99542993 1.0771312
000060 26 54 3f 3f cf 70 5b 3f 76 e0 ee 3f a8 98 97 3f
       0.74737775 0.8571901 1.866225 1.1843462
000070 b1 c0 b5 3f a1 53 46 3f 2f a1 c7 3f 4f 35 bc 3f
       1.419943 0.7747136 1.5596064 1.4703768
000080 87 63 99 3f 61 23 73 3f c3 f9 80 3f 61 28 a5 3f
       1.1983498 0.9497586 1.0076221 1.2902948
000090 15 3a 76 3f 65 99 a4 3f 43 ce da 3f a8 02 4e 3f
       0.96182376 1.2859312 1.7094196 0.80472803
0000a0 b6 11 85 3f bb 74 a8 3f 83 bf 56 3f 3a be a4 3f
       1.039603 1.3160623 0.83885974 1.2870553
0000b0 54 e2 a1 3f df 77 9f 3f 7d fa a7 3f fc e8 7a 3f
       1.2647195 1.2458457 1.3123318 0.98011756
0000c0 7a fb 44 3f cc f0 ad 3f e5 bb 8d 3f d5 cf 8d 3f
       0.7694622 1.358911 1.1072966 1.107905
0000d0 4b 23 3f 3f cf c8 d1 3f ec fc 5f 3f 38 3d 95 3f
       0.7466323 1.6389407 0.87495303 1.1659307
0000e0 25 05 79 3f ff 44 b5 3f 70 38 9f 3f 4d a4 85 3f
       0.97273475 1.4161681 1.2439098 1.0440766
0000f0 18 d4 8c 3f 79 cd 9b 3f 32 1c cc 3f dd b8 c5 3f
       1.1002226 1.217208 1.5946105 1.5447041

module.13.weight f4 [64, 1024]
000000 f3 b5 b3 3a 03 4a 9c 3d ed 55 70 3d 59 2c df bc
       0.0013710841 0.07631304 0.058675695 -0.027242826
000010 2c bd 47 bd 43 03 a3 bc 2a 5d 6a 3d 9d 50 7d 39
       -0.048764393 -0.019899016 0.057217754 0.00024157991
000020 5c 2f ad b9 14 e5 5d 3b 24 ce 53 39 b3 4d 87 3d
       -0.00033032417 0.0033858465 0.00020199321 0.06606617
000030 4a ae 65 bb aa 18 0b bb 5a 19 d5 3c 8e 88 b0 3b
       -0.0035046511 -0.0021224418 0.026013065 0.0053873723
000040 23 ee f2 3c 04 91 98 3c 28 7d de 3c 0f 14 b1 3c
       0.029654568 0.018623836 0.027159289 0.02161601
000050 f1 c8 e3 bc 8e 23 82 3d bc a6 f7 bc 0d d5 8c 3b
       -0.027805777 0.06354438 -0.030230872 0.0042978586
000060 0a b1 8f 3c 39 07 9b 3d 2d 85 4f 3d bd 91 93 bc
       0.017540473 0.07569737 0.050664116 -0.01801383
000070 0b 5a 39 3d 7b 9f 58 3d f8 d8 1f 3d ce 2f 21 bd
       0.045251887 0.052886467 0.039025277 -0.03935223
000080 cc e8 29 bd 8e 78 99 bc 0c 14 9e bd f6 5a 9a 3c
       -0.041481778 -0.018734243 -0.077186674 0.018842202
000090 ff c9 8f 3a 9a 22 70 bd 59 66 b8 bd c4 0d 7b 3d
       0.0010970234 -0.05862675 -0.09003896 0.061292425
0000a0 b2 75 38 3d 98 39 a5 bd 6b 7f d1 bd 37 74 23 3d
       0.045034118 -0.08067626 -0.10229381 0.039905753
0000b0 94 4d 0b 3d f1 e3 d6 bc 79 3e 6b bd e0 2a 08 3d
       0.03400953 -0.026231738 -0.057432625 0.033244014
0000c0 f5 0a b1 bd b9 a2 91 bc a4 18 9c 3c de fd e3 3a
       -0.08644668 -0.017777788 0.019054718 0.0017394384
0000d0 39 31 2b bc 97 53 ab 3c 56 df 35 3d 6c 48 5d 3d
       -0.010448747 0.020913882 0.044402443 0.054024145
0000e0 7a 96 3c bd 81 bd ab 3b 87 81 85 3d 93 c8 5a bc
       -0.046041943 0.0052410965 0.06518846 -0.013353485
0000f0 9a 99 af bd 06 a0 c8 bb 4d e3 0a bb a5 93 cf bb
       -0.08574219 -0.006122592 -0.002119261 -0.0063347393
000100 92 e6 c9 3d ba da 32 bc 9c e8 30 bc 87 a5 67 3c
       0.09858431 -0.010916406 -0.010797646 0.014138586
000110 55 a2 a7 3d b5 af 06 bc e2 f6 1b bd 11 4f d7 bc
       0.08185259 -0.008220603 -0.038077243 -0.026282819
000120 bd 8c ee 3c b8 2c f3 3c 5a 29 36 3b da 65 6d 3c
       0.029119844 0.02968441 0.0027795644 0.014489615
000130 81 f0 2e 3d 2e a1 04 3c 2a cf eb ba e3 1d 64 3d
       0.04270983 0.008095069 -0.0017990817 0.055692565
000140 b4 13 01 3d 82 b3 ca bd e9 8b c5 bd d8 25 54 bd
       0.03151293 -0.0989752 -0.09645826 -0.051793903
000150 9e fc 64 3c c1 e7 1e bd 77 c9 1a be ae 27 62 bd
       0.013976244 -0.038795236 -0.15115915 -0.055213623
000160 74 89 c0 3b 6f 02 cd bc 0a 5a fb bd 4e 0e c3 bd
       0.0058757607 -0.025025574 -0.12273033 -0.09524213
000170 c7 13 2c bd 3b d8 16 bd 3b 86 2e bd a6 6f 51 3b
       -0.04201105 -0.036827307 -0.04260848 0.0031957417
000180 9f 7c ca bc 26 61 74 bd 53 22 d6 3c 7b f6 53 bd
       -0.024717627 -0.05966296 0.026139414 -0.051748734
000190 c9 d2 6f 3d 63 5a 39 bd f1 bc e0 bb 22 02 99 3b
       0.05855063 -0.045252215 -0.006858461 0.0046694437
0001a0 32 ad f5 3c 0a 9e e1 3c be 23 f7 3d 1b 2e 0f 3d
       0.029989813 0.02754118 0.12067364 0.03495608
0001b0 7d 7b cc bc 8f f6 43 3d 0b a4 9d 3c 81 c2 14 3d
       -0.024961228 0.04784256 0.01924326 0.036318306
0001c0 06 98 17 3c 12 0f 3b 3d a5 ef cc 3d 1b 4e e4 bc
       0.009252554 0.04566867 0.10006646 -0.027869275
0001d0 e1 8a 93 bc 9d 81 ba 3c b8 95 b4 bc f3 36 55 bc
       -0.018010559 0.022766883 -0.022044048 -0.013013589
0001e0 63 98 86 bc 15 40 8f bc 51 9e 2d bd 1a 6a 03 bd
       -0.016430086 -0.017486611 -0.04238731 -0.03208361
0001f0 d0 a4 91 3c a5 60 b8 3b a5 b0 65 3d 36 28 9d 3c
       0.017778784 0.0056267553 0.056076664 0.019184213
000200 b5 04 63 3c 61 e6 ae bb 5f 8d aa 3c 29 f5 51 bd
       0.013856103 -0.005337522 0.020819364 -0.051259194
000210 cb 78 c2 b9 90 30 ee bc 99 ad 9d 3c 37 93 7a bd
       -0.0003709256 -0.02907589 0.019247817 -0.06117555
000220 06 9c 0e bd 4c c4 0a 3d 19 ed f4 3c eb d7 02 bc
       -0.034816764 0.03387861 0.029898213 -0.007986049
000230 f1 3b e1 bb 28 6c 25 3d 99 15 0d 3d 9f d2 5f 3c
       -0.0068736007 0.04038635 0.034444425 0.013661056
000240 2e 02 9c bc 93 4e 35 bd c7 62 a1 3d 98 79 55 3d
       -0.019044008 -0.044264387 0.078801684 0.052117914
000250 8f 63 10 3d ac 4b be 39 04 35 a6 3d bb 6a e7 3d
       0.035251196 0.00036296004 0.08115581 0.11299654
000260 84 8a 14 3d 9f 50 e1 bc f2 ff 9c 3c 77 0b 6f 3d
       0.03626491 -0.027504263 0.019165013 0.058360543
000270 a2 73 a3 3c b8 71 a5 3c fc b3 1b 3c 5c 6a 4c 3d
       0.019952599 0.020195827 0.009503361 0.04990612
000280 0a 42 3b 3d eb 39 17 3d b5 8f 8a bc 54 19 1c bd
       0.045717277 0.03692047 -0.016914228 -0.038110092
000290 e5 75 87 bd 84 9b b2 bd 9a 90 63 3d 28 ed a4 3c
       -0.066142835 -0.087210685 0.055557825 0.020132616
0002a0 eb 77 cd bc cd 55 d4 bc 23 c5 1a 3e b6 88 65 3c
       -0.025081595 -0.02591982 0.15114264 0.014009645
0002b0 d3 b5 41 3b 2a aa 91 3b 1e 81 b2 3d 81 97 1d 3d
       0.0029557839 0.004445334 0.087160334 0.038474564
0002c0 d0 6f dc bc 0c 3b 07 bd ac 93 da bd 39 92 05 bd
       -0.026908785 -0.033015296 -0.106726974 -0.032610152
0002d0 8d 96 54 bd e6 71 80 bd 89 4a 08 3d fa ea d8 3c
       -0.05190139 -0.062717244 0.033274207 0.026479233
0002e0 20 47 0e 3c c5 dc 1f bd 72 d1 1a bd d7 d8 a1 3b
       0.00868395 -0.0390289 -0.0377974 0.0049391794
0002f0 67 d9 98 3b f8 c0 03 bd 2b 75 42 bc 77 b5 bd 3c
       0.0046645883 -0.03216645 -0.011868755 0.023157818
000300 f6 96 40 bd 35 c9 c7 bc a1 25 02 3d 31 f7 39 3d
       -0.047018968 -0.024387935 0.031774167 0.045401756
000310 d9 f8 01 bd 42 8e cc bd 64 32 43 bd f0 6c 9a bc
       -0.03173146 -0.09988071 -0.047655478 -0.018850774
000320 0c 68 3b bd 22 b2 c8 bd 73 9c cb bc 5d 1a 87 bd
       -0.045753524 -0.09799601 -0.024854874 -0.06596825
000330 17 6d 6f 3d 1d 96 82 3d 2c ee 97 3d ca 61 8e bc
       0.058453646 0.06376288 0.074184746 -0.017380614
000340 74 39 38 3c 55 97 0a bd 52 4b 1b 3d 24 fe 50 bc
       0.011244167 -0.033835728 0.037913628 -0.012755904
000350 5a f8 d9 3b 24 ea f2 bc ac da db 3c d6 78 12 3d
       0.0066519203 -0.029652663 0.02683767 0.03575977
000360 a2 8d b3 bc a6 c8 12 3d 40 5f fb bb 2b 65 47 3d
       -0.021918122 0.035835885 -0.007671267 0.048680466
000370 86 de 9f 3c d0 3c 47 bc 83 b9 c7 bc 98 a7 2e 3d
       0.019515287 -0.012160495 -0.024380451 0.0426403
000380 8c b3 46 3d 85 09 be 3c 38 92 d0 ba d9 74 ef 3c
       0.048511073 0.023197899 -0.0015912717 0.029230522
000390 4e 96 a8 bb bb 57 e2 bc 3d 07 73 bd 9c 38 0a bd
       -0.005144871 -0.027629724 -0.059333075 -0.033745393
0003a0 dc 30 8c bd c4 32 1c be 1f 9a 08 3c 9f 0a 64 bd
       -0.06845257 -0.1525374 0.008337527 -0.05567419
0003b0 52 40 30 3c c3 bd b7 bd 2c 8a 8e bb b7 b6 1f 3d
       0.010757523 -0.08971741 -0.0043499675 0.03899261
0003c0 4c 9e 25 3c 6d 98 38 3c de b0 2b bd dd 8b 6d bc
       0.010108542 0.01126681 -0.04191672 -0.014498678
0003d0 63 ce 92 3c 2c 88 9d bd c6 d8 6a bd 7d b9 f6 bc
       0.017920678 -0.07691988 -0.057335638 -0.030117745
0003e0 7b a1 d7 3c 6e 1b 2e bd ee 6c 97 39 1e 46 64 3d
       0.026322117 -0.042506628 0.00028882123 0.05573093
0003f0 d9 80 ad 3c 8d 23 5f bd 0f ff fc bc 9f d0 0c 3c
       0.021179603 -0.054477263 -0.03088334 0.008594661

module.13.bias f4 [64]
000000 12 bd 07 3c 84 01 ef 3d aa bc af 3d 08 87 07 3d
       0.008284824 0.11670211 0.08580907 0.03308776
000010 50 05 54 3d df 8f c2 3c e2 9c 8b 3c dd de a8 bc
       0.05176288 0.023750244 0.017042581 -0.020614082
000020 20 97 6f 3c 6f b0 09 3d a3 39 0f bd ac a6 24 bc
       0.014623433 0.033615526 -0.034967076 -0.010049503
000030 3b 6f b1 3d a0 b0 3c 3c b5 31 34 bb 39 38 82 3d
       0.08663794 0.01151672 -0.0027495448 0.0635838
000040 99 42 b6 bc 5f f8 6d 3d 25 13 50 3d 1f 79 ba bc
       -0.022248553 0.058098193 0.050799508 -0.022762833
000050 22 88 ec 3d c2 61 ed 3a 43 c8 40 3b 15 22 34 3d
       0.11549403 0.0018110799 0.002941624 0.043977816
000060 39 e7 8d bc 47 d2 23 3d 95 00 af 3d 78 a0 00 bd
       -0.01732217 0.039995458 0.08545033 -0.031403035
000070 28 8e 98 3d f3 b0 d6 bc 8c 37 b1 3c d3 69 3f bc
       0.07448989 -0.026207423 0.021632932 -0.011682945
000080 d2 f7 bf 3d b4 d2 01 3d ee 07 dd ba 6c 9a 21 3d
       0.0937344 0.031695083 -0.0016863325 0.03945391
000090 d8 ff 00 3c b0 6e ff bb 6c 15 4e bc 99 cf 7c 3d
       0.007873498 -0.0077951774 -0.01257835 0.061721418
0000a0 1a f1 e6 3d 10 22 61 3c ed 52 3c 3d 22 c1 d6 3d
       0.11276455 0.013741031 0.04597752 0.10486056
0000b0 99 d8 05 3c 6e 25 0b bc 16 af 2c 3c 27 13 8a 3d
       0.008169317 -0.008492811 0.010539791 0.06741934
0000c0 19 39 74 3d 55 7f ba 3a 1b f6 b8 3b 82 0b e8 bc
       0.059624765 0.0014228622 0.0056445724 -0.0283258
0000d0 3e 72 1b 3d 7c a5 cd 3c 0f f9 4e 3d 16 30 00 bd
       0.037950747 0.025103323 0.05053049 -0.03129586
0000e0 35 74 8b 3d 58 17 0e bd 54 63 d6 3b a4 4b 4a 3d
       0.06809274 -0.03469023 0.0065426026 0.049388543
0000f0 fc f8 08 bd dc 77 7c 3d fa f0 a5 3d 68 6d 8c 3c
       -0.033440575 0.061637744 0.08102603 0.017142013
