models/xue_9.pth (torch, 587967 bytes, 10 tensors)

weight f4 [32, 3, 5, 5]
000000 5d 76 ac bd fc a9 89 3d 94 c6 55 3d ab e4 0b 3d
       -0.084210135 0.06721875 0.052191332 0.03415362
000010 ff a3 97 3d 60 11 8e 3c 75 d6 c2 bc 26 d6 e7 3c
       0.07404327 0.01734227 -0.023783902 0.028300356
000020 73 a2 9b bd e4 24 90 3d 7a ea 8e bd b5 06 8a bd
       -0.07599344 0.07038286 -0.069783166 -0.067395605
000030 03 79 35 be 4c 54 52 bd 4c 38 8b bd fc 93 4e bd
       -0.17721944 -0.051349923 -0.06797847 -0.050434098
000040 26 1b 85 3c 0d 21 e7 bd 9d c1 54 bd fa 53 26 bd
       0.016248297 -0.11285601 -0.051942457 -0.04060743
000050 5d 82 26 bd 64 b0 36 3d 00 a6 cb 3d b8 da 23 3d
       -0.040651668 0.044601813 0.09943771 0.04000351
000060 b8 81 bf 3d 88 4b 60 bc f7 88 27 3d e7 cf ab 3d
       0.09350914 -0.013689883 0.040902104 0.083892636
000070 11 dd 0d 3a af cc b7 bd df fd 24 3d 6a 99 94 3b
       0.00054116646 -0.08974587 0.040281173 0.00453489
000080 8a fc 07 3e 72 51 6f bc 92 7e ab bd a7 23 30 bd
       0.1327993 -0.01460682 -0.08373751 -0.04300275
000090 02 37 81 bd f4 e1 c2 bd 34 47 ca bd 27 60 b5 bd
       -0.0630932 -0.095157534 -0.09876862 -0.0885623
0000a0 94 24 ac 3d 1f 93 0c bd d6 b4 f0 3c b4 0b 4e bc
       0.08405414 -0.034319993 0.029383104 -0.012576032
0000b0 1a 3a ad 3d ce 61 82 3d a1 11 39 3c 69 58 27 3d
       0.084583476 0.06366311 0.011295707 0.0408558
0000c0 30 a3 86 3b 48 05 df bd f8 72 44 3d bd 43 9d 3d
       0.004108809 -0.10889679 0.047961205 0.07678936
0000d0 3d 2c 26 3e c9 4e 40 3d d0 fb 57 bd 32 37 c3 3d
       0.16227813 0.046950135 -0.05273038 0.09532012
0000e0 a5 07 a4 3d fe 12 d9 3c 6c 7e 25 3e 57 63 87 3d
       0.080092706 0.026498314 0.16161507 0.066107444
0000f0 8b ae 6e bd dd 6a 90 bd a2 fa d1 3d 8c c2 ce 3d
       -0.058271926 -0.070516326 0.102528825 0.100957006
000100 50 0f 59 bc ab 27 c9 3d 08 a0 bd bd e0 a5 99 bd
       -0.01324828 0.09822019 -0.09259039 -0.07502341
000110 77 e4 32 bd 6b db 91 3d 83 59 39 3d e7 90 17 bd
       -0.043674912 0.07121929 0.04525138 -0.037003424
000120 80 fe a4 bc 36 b2 cc bd 98 b8 a5 3d bf ed b2 3d
       -0.020140886 -0.099949285 0.08091849 0.08736753
000130 2b 74 0a bd bf e2 43 bd bb 0c d2 3c 46 f0 01 be
       -0.033802193 -0.047823664 0.025640836 -0.12689313
000140 cd 1c bd bc cb 61 3e 3d 7a 4e 90 3d 21 e9 ac bc
       -0.023085022 0.04647998 0.07046218 -0.021107258
000150 bb 52 7f bc 71 57 e7 3d f7 4e 82 3d 58 0d c6 3d
       -0.015583689 0.11295975 0.063627176 0.09670514
000160 bf 56 a9 bc 99 0d 0f be 88 7f e4 bd 29 10 07 be
       -0.020671247 -0.13970031 -0.11157137 -0.13189758
000170 2a 7d 80 bc 49 6e 64 bd 63 4f 6c bd 1a 57 c6 bb
       -0.015684683 -0.05576924 -0.057692897 -0.006052864
000180 2d cb 85 bd 07 5d 5e 3d ae f5 14 3d ee 01 d7 3d
       -0.06532893 0.054287937 0.03636711 0.10498415
000190 da 15 0b 3e 65 be f2 3d 16 3c 9d 3d bf 5b 63 bd
       0.13582554 0.11852721 0.07677476 -0.055507418
0001a0 e3 28 b1 bd 93 ec b3 3d 4d 70 34 3d 32 63 08 3e
       -0.08650377 0.08785357 0.04405241 0.1331909
0001b0 aa 12 46 bc 68 4d 95 3c a3 8b eb 3d 7a f5 dd 3b
       -0.012089411 0.018225387 0.11501243 0.006773648
0001c0 08 ed f1 bd 86 c1 a2 3d 45 2d 7a 3d ab cc 88 bc
       -0.11812788 0.07947068 0.06107833 -0.016699156
0001d0 ba df e9 bd 0e 85 d8 bd ed a4 01 be ae e3 0d be
       -0.114196256 -0.10572253 -0.1266057 -0.13856384
0001e0 c2 1c bc 3d 02 18 f1 bd df 30 23 bc c2 a9 8f 3d
       0.091851726 -0.11772157 -0.009960382 0.070148006
0001f0 ef 76 80 3d 09 30 14 3e 74 44 18 3e 78 9e 99 3d
       0.06272685 0.14471449 0.14869863 0.07500929
000200 55 0f 1c 3d 1d 7e 05 3c 64 b7 45 bd 96 bd 89 3d
       0.03810056 0.0081477435 -0.048270598 0.06725614
000210 52 16 8f bc 26 2c 4f 3d 3c 8c c4 3d e0 2c 7c bd
       -0.017466698 0.050579213 0.0959706 -0.061566234
000220 6b ab 97 3d 31 93 c7 bd bc 36 3d 3d f1 66 03 be
       0.07405742 -0.097448714 0.046194777 -0.12832238
000230 fb b2 15 bd 70 86 17 bc 16 e6 8a bd 4d 5d 5b bc
       -0.036547642 -0.009248361 -0.06782167 -0.013388944
000240 f2 a1 83 bd f0 e8 af 3d 93 4c a3 bd 5d ed 2e bd
       -0.06427373 0.08589351 -0.0797359 -0.042706836
000250 c6 b8 63 ba 62 b9 26 3d 0e df 85 3d c9 9e 16 3e
       -0.0008686896 0.04070414 0.06536685 0.14709009
000260 65 a2 a6 bd 20 da 2f be 3f a2 af bd 7a 0d 85 3c
       -0.08136443 -0.17173052 -0.08575868 0.016241778
000270 a3 43 2e 3e e0 1a 63 3c f2 fb 2c 3d f7 45 bc bd
       0.17017989 0.013861388 0.04223246 -0.09193032
000280 61 00 d2 bb e0 d5 37 3e 72 02 3e 3d af 98 b0 bd
       -0.0064087366 0.1795268 0.04638905 -0.08622872
000290 f4 d1 3e be df 8d 20 3e 28 db d3 3d e7 39 4f bd
       -0.18634778 0.1567912 0.10344535 -0.05059233
0002a0 92 fb 85 3d 63 94 45 be 45 86 5a 3d b6 a4 23 3d
       0.06542124 -0.19294886 0.053350706 0.039952002
0002b0 cb 0a 1b bc 87 c2 79 3d 42 86 80 bd bc 9f 20 3e
       -0.009463022 0.06097653 -0.06275608 0.15685934
0002c0 84 9f 90 3d 2f 45 88 3c 43 3c 57 bd a0 08 cd bc
       0.07061675 0.016634552 -0.052547704 -0.025028527
0002d0 52 3a 40 3e 5e 52 19 3d 99 bf d7 bd c7 f9 36 be
       0.18772247 0.037432067 -0.10534591 -0.1786872
0002e0 29 0b 9f bd 5a 5d 60 bc c7 0c 41 3e 80 83 c4 3d
       -0.077658005 -0.013694132 0.1885253 0.09595394
0002f0 39 61 2a be 68 e1 ef bc 3a 48 11 3e 1f 49 25 bd
       -0.1663865 -0.029282287 0.14187708 -0.040352937
000300 66 75 37 3d ee 88 24 be 40 26 4a be 7c 29 d6 3d
       0.044789694 -0.1606786 -0.19741154 0.10457131
000310 44 15 07 3e 80 ba 21 bd 33 77 66 bd ae 81 04 be
       0.13191706 -0.0394845 -0.05626602 -0.12940094
000320 b8 36 f8 3d e5 50 33 bc d3 35 8a bd c9 e6 17 be
       0.12119812 -0.01094458 -0.067485474 -0.14834131
000330 72 cc 57 3d 21 45 0f 3e 02 58 97 3d 3c 73 ea bd
       0.05268521 0.13991214 0.07389833 -0.114477605
000340 fe 1c 43 be 1f 7c 1c be eb 8f 26 3e 46 2e 23 3e
       -0.19054028 -0.15281723 0.16265838 0.1593562
000350 2a c2 ba bd 42 bc 20 bd 4d f5 be bb 6f 9b fd 3d
       -0.09119065 -0.039242037 -0.005827582 0.12383162
000360 dc 6c 67 bd fc 16 9d 3d ed f1 80 3c 6a b6 37 be
       -0.0565003 0.076703995 0.01574036 -0.17940679
000370 37 ff 3d 3d ca c1 fe 3d a4 56 c9 3c 4a 0c f8 bd
       0.04638597 0.12439306 0.024577446 -0.12111719
000380 30 b6 15 be 6f 39 1c bd 80 82 f7 bc 70 ee fe bc
       -0.1462028 -0.03814071 -0.030213594 -0.031119555
000390 16 20 cf bd d4 95 a5 bc 90 b3 9e 3c 0b 89 e8 bc
       -0.10113542 -0.020213045 0.019372731 -0.02838566
0003a0 3a 3a 9d 3d e5 83 8e 3c d4 c7 98 bc 58 94 9b bd
       0.076771215 0.017396877 -0.018649973 -0.07596654
0003b0 1c 3d f6 bd 5b a1 92 bd ad 79 a9 3d 3b c2 98 3c
       -0.120233744 -0.07159682 0.08275161 0.018647304
0003c0 c9 a4 db bc e7 b7 c9 bd 01 b4 49 be 20 b2 2e be
       -0.026811974 -0.0984953 -0.19697572 -0.17060137
0003d0 8f 0d ec bc 44 5b 52 3d 25 4c d9 bd 6f 25 98 bd
       -0.028815059 0.05135657 -0.106102265 -0.07429015
0003e0 5f ee 63 3c d2 af 8c bd 6e 75 ac bd 6c 6d 89 bd
       0.013911813 -0.068694726 -0.084208354 -0.06710324
0003f0 ca 07 9a 3d 77 ab 49 bd 04 48 f9 bc 99 0f e8 3d
       0.07521017 -0.049235787 -0.030429848 0.113311

bias f4 [32]
000000 47 cd bc bd 36 f8 34 be 0e e5 a2 3c 10 10 ec bd
       -0.09218841 -0.1767281 0.019884612 -0.11526501
000010 cd 4b 84 be 7c 9d bd be 1e 03 b2 3d 2a 92 2a 3d
       -0.2583908 -0.37034214 0.08692001 0.0416433
000020 f3 18 7c bd 8d f3 98 bd e8 4d 6b be ea 2c 5a be
       -0.06154723 -0.074683286 -0.22978938 -0.21306196
000030 92 b6 89 be c4 6a bb bd 71 55 67 bc 5e f1 26 3e
       -0.26897103 -0.09151223 -0.014119492 0.16303012
000040 b7 de 94 bd c8 64 09 3b 5b 6d 28 be 52 a1 98 be
       -0.07269042 0.0020964611 -0.16447966 -0.29810578
000050 59 f7 1d 3d e7 04 42 3e ff 1b f6 bd 40 67 5b 3e
       0.038565967 0.18947183 -0.120170586 0.21426105
000060 3a ed 58 3d a1 fc f3 3d bd 88 84 3d 1b 0d bd 3d
       0.052960612 0.119134195 0.06471393 0.09231015
000070 8f 34 e7 3d 9f 11 1e bb ef fc 0d 3e a9 79 8b 3d
       0.11289322 -0.002411939 0.13866018 0.06810314

weight f4 [32, 32, 5, 5]
000000 0b 99 d5 3c 25 de 14 3c 8f 63 be 3c c9 f3 28 3d
       0.026073953 0.0090861665 0.023240833 0.041248117
000010 d9 f3 b1 3c 8d e3 78 bc e5 f0 a6 3c d0 91 d5 3c
       0.021722721 -0.015190971 0.02037854 0.026070505
000020 2c 92 9a bc dd f4 49 bc 60 22 5d bc a9 8e 2d 3d
       -0.018868528 -0.012326446 -0.013496965 0.04237238
000030 6b 76 40 3c 9a bc 03 bc 28 24 2d 3d c6 94 b1 3c
       0.011746983 -0.008040572 0.04227081 0.021677386
000040 f1 1a 3f bb 61 c5 22 3c 73 da 63 3c 23 d4 a8 bc
       -0.0029160345 0.009934754 0.013907063 -0.020608967
000050 59 66 f7 3c 6d 53 99 3c 14 c1 18 bc cb 96 a0 3c
       0.03020017 0.018716538 -0.009323377 0.019603154
000060 fe a5 3a bc aa 2c 14 3d 2d 81 12 3b 95 fe f1 3c
       -0.011392115 0.036175407 0.0022354827 0.02954034
000070 35 3d bc 3b d8 78 65 3c 2a a6 93 bc 9f 25 05 3d
       0.005744601 0.014005862 -0.01802357 0.03250658
000080 1f 0d 52 3a 09 33 3b 3d e9 c0 f7 3c 5f e3 50 ba
       0.00080128195 0.045702968 0.030243354 -0.0007968451
000090 d4 80 32 3d 2e c6 4a 3c ec df 3c 3c 8c 30 87 bc
       0.04357989 0.012376351 0.0115279965 -0.016502641
0000a0 50 78 36 3c b1 18 1c 3d 48 dc 47 bc 8f dd 07 bd
       0.011137083 0.038109485 -0.012198515 -0.03317028
0000b0 9c 5d d1 bc 8a 56 4e bc 4b 60 bb bc c0 ab df 3c
       -0.025557332 -0.012593875 -0.022873065 0.027303576
0000c0 af d9 3d 3d 9f 17 18 3d e7 7d 1c 3c 9b 19 57 39
       0.046350177 0.0371319 0.009551502 0.00020513537
0000d0 48 e1 c0 bc 7d 63 63 bc f6 d2 9a bc 62 c5 cc ba
       -0.023544922 -0.0138787 -0.018899422 -0.001562279
0000e0 0b 49 56 bc 26 d1 70 ba 04 44 f4 3c 30 d1 e6 b7
       -0.013078938 -0.0009186439 0.029817589 -2.7515547e-05
0000f0 0b 55 0a 3b 7e c4 c5 3c 08 52 00 3c 47 74 2e bc
       0.0021107818 0.024141546 0.007832058 -0.01064784
000100 e1 c0 75 bb 3d 2d 10 3c 82 63 37 3c e0 fb 74 bc
       -0.0037498998 0.008799848 0.011193158 -0.01495263
000110 2a d7 21 3c e5 01 93 3c d1 dd de bb c9 40 ef bc
       0.009877959 0.01794524 -0.006801345 -0.029205697
000120 e4 73 64 3c f1 39 d6 3b d4 c0 8c 3c a3 44 12 bd
       0.013943646 0.006537669 0.017181791 -0.03570999
000130 a9 c9 75 3c 89 09 8e 3b c7 e2 7a b9 76 01 a6 3c
       0.015001693 0.004334633 -0.00023926339 0.020264369
000140 83 d2 aa 3c c2 3a 18 3d b3 6c f4 bc 5e ad e2 bc
       0.020852333 0.03716541 -0.029836988 -0.027670559
000150 d5 6f fa 3c a0 08 c9 3c 11 e3 3c 3c 9a 76 a8 3c
       0.030570904 0.024540246 0.011528746 0.020564366
000160 2b 73 7c bc c1 36 0e 3d 4a 1b 15 3d 88 25 1b 3d
       -0.015408318 0.034720186 0.036402978 0.03787759
000170 dd a3 31 3d b8 a2 19 3d 57 3c e9 bc 9e b6 0e bc
       0.043369163 0.037508696 -0.028471155 -0.0087105315
000180 27 0a fc 3b 9c f2 87 bc a8 ed 2d 3d 76 00 27 3c
       0.00769164 -0.016595177 0.042462975 0.010192981
000190 3e 56 2f 3c aa a4 55 3c 34 e0 5e ba 57 c9 a4 3c
       0.010701714 0.013039747 -0.0008502037 0.020115538
0001a0 7e a2 f0 3c ee 69 02 3d e7 b1 88 3b 2a 61 05 bd
       0.029374357 0.031839304 0.0041715982 -0.032563366
0001b0 79 98 7b 3c 66 59 92 bc 45 0a 14 3d d2 7b 96 3c
       0.0153561765 -0.017864894 0.036142606 0.018369589
0001c0 e1 32 f5 3b 01 b1 40 bc 77 9d a6 bc 1b ef c5 bc
       0.007482872 -0.011760951 -0.020338757 -0.024161866
0001d0 12 57 2d bc 14 70 a0 bb be cf 00 3d 13 42 95 3c
       -0.010579841 -0.0048961733 0.03144812 0.018219983
0001e0 68 07 0a 3d e6 91 25 3d c0 8c 22 bc d8 5e 6b bc
       0.03369847 0.040422343 -0.009921253 -0.014365874
0001f0 7a 39 e8 bc b0 1e a3 3a 25 2b 25 3d f7 ec 61 3d
       -0.02834772 0.0012445059 0.04032435 0.055157628
000200 8a 8e 55 3d ae 0b cf 3c 7c 15 f2 3c ec 29 1b 3d
       0.05213789 0.025274124 0.02955126 0.037881777
000210 df d0 38 bc 77 86 16 bb 2b bf 0f bc 9b ac a8 3c
       -0.0112802675 -0.002296833 -0.008773605 0.020590117
000220 4e 63 36 3d 50 17 a9 3c d9 c1 c3 3b c0 a0 8e 3c
       0.044528298 0.020641 0.005974036 0.017410636
000230 46 0c cb 3c 4c fd 00 3c 68 96 80 bc da 35 a0 3a
       0.024786126 0.007872891 -0.01569672 0.001222308
000240 86 27 6f bc 33 b7 93 3c 19 55 a8 bc b3 e5 bd bb
       -0.014596825 0.018031692 -0.02054839 -0.0057952045
000250 f6 fc b8 bb 15 24 0b bc 9c 5c 30 bd 21 7e 14 3b
       -0.0056453897 -0.008492489 -0.04305707 0.0022658186
000260 3a 5b d1 3b ca a8 52 3c c6 63 1a 3c 13 33 d0 3c
       0.006389049 0.012857625 0.009423202 0.02541498
000270 53 5f 2c 3b 1d be 53 3d 07 1c d3 bb 8b a6 3f 3c
       0.0026301935 0.051694978 -0.00644255 0.011697422
000280 b8 27 b9 bc 9e c3 1a 3d 52 43 f5 3c 45 d3 57 3b
       -0.022601947 0.03778421 0.029939327 0.0032932323
000290 24 bb 78 3b 68 4e 83 3c 59 ae 70 3d bd 3a 08 3d
       0.0037953341 0.016028598 0.05876002 0.033259142
0002a0 f3 0d 9c 3b d5 8d af 3b 2b d9 03 3d 80 4b 75 3d
       0.004762405 0.005357484 0.03218953 0.059886456
0002b0 cb d4 5a 3d d0 59 4d 3d 4b 96 6d bb 73 ab 45 3c
       0.05342559 0.05013448 -0.0036252912 0.012064802
0002c0 43 35 47 3d 58 e7 0f 3c 7e ea 77 bc 22 65 81 3c
       0.04863478 0.008783184 -0.015131591 0.015795294
0002d0 d6 a2 31 3d 62 30 2a bc 0e 91 4d 3d 09 15 89 3c
       0.043368183 -0.010387512 0.050187163 0.016733663
0002e0 9a 5c 27 3d 0c 0d 18 3d b2 58 f3 3c 55 36 2c 3d
       0.040859796 0.037121817 0.02970538 0.042044003
0002f0 f6 17 68 3c 92 51 29 3c f2 1f 05 3d b9 9e cc 3c
       0.014165869 0.010334389 0.03250117 0.024978029
000300 6c ce 17 bc 3d 91 0e 3d bc 76 30 3c 03 5a a8 3c
       -0.009265523 0.03480648 0.010770496 0.020550733
000310 75 15 10 3d 59 83 a1 3c 3f 75 12 3d f2 19 71 bc
       0.035176713 0.019715952 0.035756346 -0.0147156585
000320 49 40 13 bc 81 37 93 bc 76 50 8d 3b db 43 37 3c
       -0.008987495 -0.017970802 0.00431257 0.011185612
000330 fd 83 80 3c ce e1 b7 bc ea 6a bf 3c cb 4c 01 3d
       0.015687937 -0.02244654 0.02336641 0.031567376
000340 69 b8 5d 3c f5 9c 57 bc 8b 81 0a bc fd 52 1e bc
       0.013532736 -0.01315998 -0.008453737 -0.009663341
000350 f6 77 df 3b 09 b0 ae ba 69 6e dd bb c9 f1 28 3d
       0.0068197204 -0.0013327609 -0.0067575467 0.04124621
000360 2e 2d 90 3d ed 69 8d 3d 74 cb 8c 3d 63 fe bc 3c
       0.07039867 0.06904969 0.06874743 0.02307052
000370 df 85 46 3d 42 d5 cd 3c a2 2a 89 3c 00 b6 ac bc
       0.048467513 0.025126103 0.016743962 -0.021082878
000380 8e fe df bc 8e f2 fc 3c 6a 13 03 3d 73 32 e0 3c
       -0.02734306 0.030877378 0.032000937 0.027367806
000390 ea 16 ca 3c 4a 0c 02 bd 20 f6 5d 39 06 9c fa 3c
       0.02466913 -0.03175 0.00021167891 0.030591976
0003a0 9c 8e 16 3d 0d 2f 8b 3c 3f a6 ab ba 45 60 d8 3c
       0.036757097 0.016990209 -0.001309581 0.026413092
0003b0 e5 68 99 3c 16 96 7b 3b e5 b6 a0 bc ac ac 1c bc
       0.018726775 0.0038389019 -0.01961846 -0.009562653
0003c0 eb 56 64 3d 38 5a 4c 3d 6e 12 50 3d d8 df 2a 3d
       0.055746954 0.049890727 0.050798826 0.04171738
0003d0 75 b7 f0 3c b2 81 98 3b fe 0f 99 3c 10 aa 06 3d
       0.029384354 0.0046541328 0.018684383 0.032877028
0003e0 18 87 67 3c b3 4c 6b bc 76 4d 82 3a 7c ed b1 3c
       0.01413133 -0.014361548 0.0009941298 0.021719687
0003f0 3b 42 4b bc 5f e6 ff bb 85 c8 bb 3c ef b8 e0 3b
       -0.012405927 -0.007809445 0.022922764 0.0068579833

bias f4 [32]
000000 30 22 41 bd 6c 65 16 bd 89 6c c1 bc aa f0 de bd
       -0.047151744 -0.036717817 -0.023611324 -0.10885747
000010 0a 3d bb bd 33 b6 70 3c e6 23 01 be 98 8b 68 bd
       -0.09142502 0.014691877 -0.1261135 -0.056773752
000020 6a a7 79 bd d2 4e 1a bd eb 9d 29 be 85 49 66 bc
       -0.060950674 -0.037672825 -0.16564147 -0.014055614
000030 69 9c 3c bd ba ae f2 bc cc 94 d8 bc b3 e9 15 3c
       -0.0460476 -0.029624332 -0.02643814 0.0091499565
000040 7b e5 c0 bb 36 79 2b 3d e6 79 13 bd 17 36 c8 bc
       -0.005886731 0.041863643 -0.036004923 -0.024439855
000050 15 95 15 bd 99 af 8d bc be 82 b4 bc c2 7e 77 3d
       -0.03651913 -0.017295646 -0.022034999 0.06042362
000060 27 95 00 3d df f8 82 bd 0e 0e 08 bd 98 ba 2d bd
       0.031392243 -0.06395125 -0.03321653 -0.042414278
000070 5b 67 89 bc 44 cb ad 3b 0d 1c 59 bd 10 10 13 3c
       -0.016772917 0.005303772 -0.053005267 0.008975998

weight f4 [64, 32, 5, 5]
000000 1a 33 b1 bc 16 3e 49 bc 46 64 77 bc 1c 00 e9 bc
       -0.021630812 -0.012282869 -0.015099591 -0.028442435
000010 28 f0 e4 bc 00 db 0a 3d 6d 31 42 3b 0a 4d 80 3c
       -0.027946547 0.03390026 0.002963151 0.015661735
000020 21 58 09 bb 4a 17 a8 3c e5 a8 c4 bc 57 af 5d bc
       -0.002095707 0.020518918 -0.024006316 -0.013530574
000030 4b aa 46 bc dc 77 e7 3c e9 04 e2 bc ab cc f0 bc
       -0.012125562 0.028255396 -0.027590232 -0.029394468
000040 eb 3a 10 bd 95 08 e3 bc d0 ba 84 bc fe 36 09 3c
       -0.03521244 -0.027714053 -0.01620236 0.008374928
000050 45 cf 1d 3c 54 28 40 3c f2 6c 8e bc d5 18 f9 3c
       0.009631936 0.011728365 -0.017385934 0.030407349
000060 3e cb 51 3c 47 9f 9e bc 14 6f 49 bb 4a 3e 92 bc
       0.012804804 -0.019363059 -0.0030736374 -0.017851967
000070 51 20 14 bd 65 4a d3 bc ca 71 24 3d 2c f2 c1 3b
       -0.03616363 -0.02579231 0.04014758 0.0059187617
000080 46 24 8a 3c 0e 44 37 bb 8f ca c7 bc 55 a5 d7 3c
       0.016863 -0.0027964148 -0.02438858 0.026323954
000090 90 8e a9 39 19 e7 91 3c fa 38 a8 3b 71 9d 66 bc
       0.0003234041 0.017810391 0.0051337453 -0.014075623
0000a0 d6 3c c5 bc d9 f6 e0 3c 7e d5 a0 bc 88 b1 68 bc
       -0.02407686 0.027461456 -0.019633051 -0.014202483
0000b0 7a 6e 27 bb 87 da 9b 3b f8 3d 6b bc de a5 27 bd
       -0.0025548027 0.004756275 -0.014358036 -0.040929668
0000c0 65 f5 f8 3b 8a da 00 bd 75 9b 13 3b 4b b8 e4 bc
       0.0075976127 -0.031458415 0.002252308 -0.027919909
0000d0 7c 72 55 3c d4 d4 ae bc a1 57 ee 3c d7 09 a9 3b
       0.0130277835 -0.021341719 0.02909452 0.0051586437
0000e0 d0 77 07 bd 31 98 f1 3b 26 94 a7 3c 8d 00 53 3c
       -0.033073246 0.007372879 0.020456385 0.012878549
0000f0 df 0b 29 3b 70 06 1d 3d 23 65 fd bc 8b 44 8c 3c
       0.002579443 0.038336217 -0.030932015 0.017122528
000100 61 39 01 3d 05 b7 0c bd ca 4f bc 3a 88 8c 02 3b
       0.03154886 -0.03435423 0.0014367041 0.001992019
000110 ff f9 00 bd 6c 15 0b 3d 58 47 c6 3c c5 60 0c bd
       -0.031488415 0.033955976 0.024203941 -0.034271974
000120 5d ff 07 3c 41 86 cd 3c 03 07 ce 3c 58 09 56 bc
       0.008300629 0.025088431 0.025149828 -0.013063751
000130 c0 4f dc bc 70 f1 ad bc da 60 22 3d 8d 9a 53 3b
       -0.026893497 -0.02123329 0.039643146 0.0032288164
000140 53 e1 6f 3c f1 65 39 bd 40 c7 f7 3b 33 4b fc 3c
       0.014641124 -0.045263235 0.0075615942 0.030797577
000150 a0 96 14 3d 0d c4 b4 bc 36 d4 87 bc 4f 19 3d 3d
       0.03627646 -0.02206614 -0.016580682 0.046166714
000160 5c 7a 41 3c 49 39 c7 bc 32 b5 b4 3c c8 07 d8 3c
       0.011808958 -0.024319308 0.022059057 0.026370898
000170 67 d7 b3 3c 53 31 eb 3b 0f 6e 26 3c 93 13 70 bc
       0.021953298 0.0071775108 0.010158076 -0.014653104
000180 a1 13 ac bc f1 fd 9b 3c ca b8 cd bc 79 33 e5 3c
       -0.021005454 0.019041987 -0.025112528 0.027978646
000190 cf 7f 21 3c 02 9e 43 3d c8 b5 36 3d 7f a2 a7 bc
       0.009857132 0.04775811 0.044606954 -0.020463226
0001a0 48 aa 1d bd d2 7a 69 bc 5b be ba 3c 4a 68 a4 3b
       -0.03849247 -0.014250474 0.022795847 0.005017315
0001b0 81 83 f3 3c 8d 08 fb bc 19 52 69 3b 4b bf 00 3c
       0.029725792 -0.030643726 0.0035601913 0.007858108
0001c0 dc 82 dd 3c 36 9e 9e bc be 68 aa bc 8c 73 00 3d
       0.027039938 -0.01936255 -0.020801898 0.031360194
0001d0 26 51 c2 3c 10 7f 66 bc 53 3b 17 3c 93 12 48 3c
       0.023720335 -0.01406838 0.009230453 0.01221146
0001e0 56 6b d9 3b 97 8f 2b 3d b1 1f 01 3d ae 46 0a 3d
       0.00663511 0.041884985 0.031524364 0.03375881
0001f0 a8 90 df 3c 56 75 40 ba 64 9d c3 3c b6 10 0c 3c
       0.027290657 -0.0007341703 0.02387876 0.008548906
000200 a6 c1 77 3c b4 1f 68 bc 92 82 26 bd 24 19 45 3d
       0.015121853 -0.014167715 -0.040651865 0.04811968
000210 6c cc eb 3c 33 25 8d bc 62 71 4c 3c 4c 77 80 bc
       0.028784 -0.017229652 0.012478204 -0.015681885
000220 4d 64 8f bc 06 32 40 bc 91 4c 08 bb e3 63 c9 3c
       -0.017503882 -0.0117306765 -0.002079759 0.024583763
000230 36 b2 1b bc 4e ff 98 bb d6 78 b1 bc f7 b9 9a bc
       -0.009502938 -0.0046691066 -0.021664064 -0.018887503
000240 6d 12 7f bc 05 e3 0f 3d 99 ce 17 3d d4 21 e5 bc
       -0.015568358 0.035128612 0.03706226 -0.027970232
000250 75 b6 e5 3c 7e 0b e3 bc 21 61 6b 3c 2e 51 8f bc
       0.028041104 -0.02771544 0.014366419 -0.017494764
000260 03 f9 ac 3b 73 d9 88 bc d8 e8 21 bd 34 59 12 3d
       0.005278708 -0.01670525 -0.039528698 0.035729602
000270 65 f0 8c 3c 46 e7 f2 bc 51 07 0c bd 98 74 93 3c
       0.017204473 -0.029651295 -0.034186665 0.017999932
000280 39 4b 5c 3c bb a3 2b bd 68 45 01 3b d2 ad a9 bc
       0.013445669 -0.041904192 0.0019725207 -0.020712767
000290 b2 ff 06 bc 50 38 bc 3c a9 5b 4a bc e8 ae e1 ba
       -0.008239673 0.02297607 -0.012350955 -0.0017218264
0002a0 bd 7d 86 3b e6 21 28 bd 4f a4 10 bd 98 2b 41 bd
       0.0041043446 -0.041047953 -0.035312947 -0.047160715
0002b0 95 e7 a8 3c e8 41 96 bc c6 50 fb 3c b2 d8 3f 3c
       0.02061824 -0.018341973 0.030678164 0.011709379
0002c0 64 9c 10 bd a9 77 49 bc 0b 7a f6 ba da d0 27 bd
       -0.035305396 -0.012296596 -0.0018804682 -0.04097066
0002d0 96 db cd bc 24 bf 21 bd a3 ab 67 bc be 90 0b bc
       -0.02512912 -0.039488927 -0.0141400425 -0.008518396
0002e0 7d de 04 3d 5c d7 04 3d d0 74 2f bd 86 b5 b0 bc
       0.032438744 0.032431945 -0.04283601 -0.021570932
0002f0 15 9b 11 3d fe 40 89 bc 4f fe 11 3c d9 8b 98 bc
       0.03554829 -0.016754624 0.00891073 -0.018621372
000300 45 66 e1 3b 55 42 40 3c 19 7b 04 3b 45 d9 bd bb
       0.0068786466 0.011734565 0.0020214973 -0.005793723
000310 35 b6 58 3c ea 01 7b bb d6 5a 0e bc 3c 6e c1 3c
       0.013227035 -0.0038300701 -0.008688649 0.023612134
000320 6a 24 da ba e8 04 95 bc d1 3f 00 3d 6e 97 4a bc
       -0.0016642932 -0.018190816 0.03131086 -0.012365205
000330 3d f6 86 3b 6c 36 60 bc 16 70 d6 bc dc af 02 bc
       0.0041187094 -0.01368485 -0.026176494 -0.007976498
000340 fe 5b d9 3c 53 e9 f8 bc 2c f4 6f 3b 46 c6 5d bc
       0.026533123 -0.030384695 0.0036614044 -0.013536042
000350 df 77 23 3d 8f 76 a9 bc fe 8d 51 3c a0 a2 4d 3c
       0.03990924 -0.020686416 0.012790201 0.01255098
000360 65 91 c2 bc ec e9 cb 3c bc 42 c2 3c 38 66 da bc
       -0.02375097 0.024891816 0.023713462 -0.02666007
000370 78 ff 00 bc a5 38 87 3c d9 d2 02 3b 5f fe 36 3c
       -0.0078734085 0.016506502 0.00199621 0.011169045
000380 cf 5a 01 bc ff b2 81 bc 38 43 fa 3b b5 78 a5 bc
       -0.007895186 -0.015832422 0.0076374076 -0.02019916
000390 7c 26 e5 3c b2 50 02 bd e6 b9 77 bb c0 34 f0 bb
       0.027972452 -0.03181524 -0.0037800013 -0.007330507
0003a0 18 24 0d 3d b3 a1 cb 3c 08 d8 1d 3d 25 4f 5d bc
       0.03445825 0.024857378 0.0385361 -0.013507639
0003b0 6e b5 07 bc a0 1e 2d 3d 89 75 de bc 9c 86 60 3c
       -0.008283002 0.042265534 -0.027155655 0.013703968
0003c0 14 45 1e bd 74 9d 22 3c 8c 98 1c bc 32 df 83 bc
       -0.038640097 0.009925235 -0.009557854 -0.016097639
0003d0 9d 9a f1 bc b6 83 64 bb c4 37 ca bb 9d 6a d0 3c
       -0.02949267 -0.0034868545 -0.0061711986 0.025441462
0003e0 ce 14 4b 3b 5c 22 a6 ba 93 a1 a0 3c 31 3b b5 bb
       0.0030987742 -0.0012675035 0.019608295 -0.005530738
0003f0 9a 16 51 3c ec 00 08 3d 07 29 12 bc be 92 83 bc
       0.012761736 0.033204004 -0.0089209145 -0.016061183

bias f4 [64]
000000 1b 33 72 bc e7 e4 e2 bc ca 27 63 bd 17 b7 f0 3c
       -0.014782692 -0.02769704 -0.055457868 0.029384179
000010 97 2b 9d bd d4 77 5e bc 80 29 1e bd ed 90 02 bc
       -0.0767433 -0.013578374 -0.038613796 -0.007969123
000020 92 c6 03 bd 46 b7 78 bd 04 6f d2 ba 68 96 4d bd
       -0.032171793 -0.06072166 -0.0016054814 -0.050192267
000030 76 e1 b0 bc 9e 64 d1 bc 9a b4 28 bd e7 c4 59 3c
       -0.021591883 -0.025560673 -0.04118786 0.013291574
000040 0b b2 07 bd 12 49 00 bc a4 31 5e bd c1 70 40 3d
       -0.03312878 -0.007829921 -0.05424656 0.04698253
000050 1c 9b d6 bc de ec 9a bc c1 4b 4d bd 40 8d 5d bc
       -0.026197009 -0.018911775 -0.050121073 -0.013522446
000060 81 21 b1 bd 2c 21 6d bd 07 5c 1c bd bf a1 3b bd
       -0.086489685 -0.057892963 -0.0381737 -0.04580855
000070 f9 3b b8 3c 05 31 1b bc fb ec 0c 3c 35 59 1b bd
       0.022489535 -0.009472136 0.008601422 -0.03792687
000080 da 99 6c bb 5a 02 61 bc b5 0c 34 bd e9 78 61 3d
       -0.0036102445 -0.013733471 -0.04395743 0.05504695
000090 7b 95 2a bd 8b 68 23 3d 81 ce 07 bd 84 0c 1b 3c
       -0.041646462 0.03989462 -0.03315592 0.009463433
0000a0 14 42 60 bd 2a dd 98 bd b3 94 b0 bc 9d 12 92 bc
       -0.054750517 -0.07464059 -0.02155528 -0.017831141
0000b0 dc 80 bd bd 8a f7 6f ba e7 3b 41 bc 1a 2d 0f 3d
       -0.092530936 -0.00091540127 -0.011794067 0.03495512
0000c0 72 fa 25 bd 7d 26 98 bd d6 10 23 bb 9a 38 e6 bc
       -0.040522046 -0.07429216 -0.0024881861 -0.028103162
0000d0 7b b2 b0 3c 94 a7 7d 3b 80 2f 8a bd 30 36 ea ba
       0.021569481 0.003870462 -0.06747341 -0.0017868932
0000e0 3d b3 f4 bc 4e fe e3 b9 67 aa e9 3a d9 9d 00 3d
       -0.029870624 -0.00043486286 0.0017827273 0.031400535
0000f0 0f 82 10 3d a5 c6 96 3c 6b 41 26 3a 45 7c be 3c
       0.035280284 0.018405268 0.00063421455 0.023252616

weight f4 [64, 1024]
000000 e0 9b 39 bc 64 a7 fb 3c 1b e0 49 3c d6 9a fe 3c
       -0.011328667 0.030719467 0.012321497 0.03107969
000010 8c 46 d3 3c f6 c8 3f 3c 62 4d da 3c ef 3b b2 bc
       0.025790475 0.011705628 0.026648227 -0.021757094
000020 28 17 78 3c bf 15 1e bd d3 ee 32 3a 3c ab e7 bc
       0.01514224 -0.038594957 0.0006825749 -0.028279893
000030 5a a1 38 bc 0f d2 d9 bc f5 c4 db 3c e9 35 a9 3c
       -0.011268938 -0.026589422 0.026827315 0.02065559
000040 7c b9 1d 36 fc 01 4f bc cc 87 c5 bc 2c 00 53 3c
       2.350279e-06 -0.01263475 -0.024112605 0.012878459
000050 33 de a1 3c 0c 74 31 bc 1f f0 fd 3c 8f 5e 15 3d
       0.019759273 -0.01083089 0.030998288 0.03646713
000060 04 66 18 3d 20 9c 39 ba c7 35 1f 3d cc 59 1c 3d
       0.037206665 -0.00070804544 0.038869645 0.038171574
000070 45 ca 02 3d 6e 19 81 3b 64 5b f3 3b a5 84 7b bc
       0.03193118 0.003939799 0.007426666 -0.015351449
000080 cd 70 4c 3c 2c 5d 1c ba 9b 03 d1 bc ea 0e 88 bb
       0.012478066 -0.00059648114 -0.025514415 -0.0041521685
000090 2e f9 4c bc 04 50 c3 bc 43 f3 80 3c d9 3a a1 bc
       -0.012510581 -0.023841865 0.015740996 -0.019681381
0000a0 52 3f aa 3c ef 37 60 bb 4a 90 b9 bc 11 53 ac 3c
       0.020782147 -0.0034213027 -0.02265181 0.021035703
0000b0 68 d2 85 3b 2c 99 95 bc 50 2f 67 bc 02 c7 29 3c
       0.0040839203 -0.018261515 -0.014110401 0.010362389
0000c0 a8 00 fb bb 07 7a 79 3c 0f 53 0e 3d e2 4e 68 3c
       -0.0076599903 0.0152268475 0.03474718 0.014178963
0000d0 fd de 87 bc 19 17 b2 bc 07 f4 ad bb 7c 11 9c 3c
       -0.016585821 -0.02173953 -0.0053086313 0.019051306
0000e0 43 9e f1 3c 27 6d 27 3d 1e f7 28 3c 01 bf ec bb
       0.02949441 0.04087558 0.010312824 -0.007224918
0000f0 4a 20 30 3d 63 f5 f1 bc 69 ef b8 bc 79 8a 82 bc
       0.042999543 -0.029535955 -0.022575097 -0.01593517
000100 1c 8b e9 ba 93 bd 19 bc 71 0c 04 bd 8b a1 cd 3c
       -0.0017817947 -0.009383577 -0.032238428 0.025101444
000110 7b 56 e6 3c 78 71 e2 bc d9 09 a8 bb 98 bd ee bc
       0.028117409 -0.027641997 -0.005128127 -0.02914314
000120 d3 ee 9e 3c b6 3f d5 bc ee 8c c0 3c ab 50 84 bc
       0.01940099 -0.026031356 0.0235047 -0.016151747
000130 3b ab e8 bc ae f8 a5 3c 91 19 89 3c 1e ff b9 bb
       -0.028401962 0.020260181 0.016735824 -0.0056761643
000140 8a d3 b6 3c be fc 88 3c 29 5d eb 3c b1 ec 99 3b
       0.022317667 0.01672208 0.028730946 0.0046974053
000150 81 88 cf bc 32 d1 b2 b9 f0 bb 03 3d 53 8d 90 3c
       -0.025333645 -0.00034106668 0.032161653 0.017645514
000160 c2 21 26 bd 4f ec 3c 3c cc 2b de bb 99 9e c2 bb
       -0.040559538 0.01153095 -0.0067801233 -0.0059393165
000170 0e 03 73 bc 94 e1 20 bc fc 2a 85 bc c5 6b 04 bc
       -0.014832271 -0.009819407 -0.016255848 -0.008082335
000180 59 28 79 bb e7 c1 9e 3c d4 ae 84 bc ca 48 50 bc
       -0.0038018434 0.01937957 -0.016196646 -0.012712667
000190 b6 cb d8 bc 58 99 1f 3c 3d e3 72 3c 34 66 24 3b
       -0.026464324 0.00974115 0.014824686 0.0025085332
0001a0 c4 a1 d7 bc fd 6c dc bc cd 90 c2 ba 92 44 02 bc
       -0.026322253 -0.026907438 -0.0014844179 -0.007950919
0001b0 2d 68 1b bc 1e 4f b4 3c 41 ee df 3b 28 fd fc bc
       -0.009485287 0.022010382 0.006833822 -0.030882433
0001c0 f3 c6 dd 3c 3e 8a 27 bd 22 a0 fe bc fa db d3 3c
       0.027072405 -0.040903322 -0.031082217 0.025861729
0001d0 53 a6 8c 3c 40 1e 4a bc c4 6c 66 bd 1b 17 e2 3c
       0.017169153 -0.012336314 -0.05625607 0.027598908
0001e0 f4 34 d9 3c a6 5b bc 3c eb fc 84 bb 0c a5 c1 3b
       0.026514508 0.02299292 -0.0040584705 0.0059095677
0001f0 ca f0 05 3d ef 7d 0b 3d c0 98 d6 3c a5 4a c3 3c
       0.032700337 0.034055647 0.026195884 0.023839304
000200 11 8e e7 bc 3e 80 a0 3c ef 16 ad bb bd 73 5d bc
       -0.028265985 0.0195924 -0.005282275 -0.013516364
000210 ba d6 06 3c 4f eb 8e bb 70 34 85 3b 28 e3 c3 3c
       0.008229906 -0.004361547 0.004065089 0.023912027
000220 36 6a 19 3c 26 ac 4b bc 77 60 73 bc fa 1c 93 bc
       0.009363702 -0.01243118 -0.014854542 -0.017958153
000230 bf 4f fc bc b4 86 de 3a d9 eb e9 bb 6e ca ad 3a
       -0.030799745 0.00169774 -0.007138711 0.0013259181
000240 fc 98 9f 3c 85 d9 69 bc f1 66 0b bd 51 85 12 bc
       0.019482128 -0.014273052 -0.03403372 -0.008942918
000250 5b e0 5f bc 04 ac b4 ba d4 f0 cf bc 9e ed b2 3c
       -0.01366433 -0.0013784175 -0.02538339 0.02184182
000260 6c e1 41 bc 1e a6 84 3b f1 12 c2 3c 80 27 d0 3c
       -0.01183353 0.004048123 0.023690673 0.02540946
000270 40 34 ee 3b 4c ea b1 3c 8a e2 aa 3c 4f 49 86 3c
       0.0072694123 0.021718167 0.020859975 0.016392378
000280 f5 b4 58 3c 06 b3 f8 3b f9 0d 33 bd a4 a1 f4 bc
       0.013226737 0.0075897006 -0.043714497 -0.029862233
000290 56 16 13 3c 56 e8 e1 bc 16 e2 7f 3c ca cb 4b 3b
       0.008977493 -0.027576607 0.015617868 0.003109681
0002a0 52 c2 cc bc 64 15 2f 3a b9 5e ed 3b 61 84 31 bb
       -0.024995003 0.00066789077 0.007243958 -0.002708696
0002b0 39 c8 8a 39 32 ec 82 3b 18 87 25 3c d0 73 67 bc
       0.0002647059 0.003995442 0.01010301 -0.014126733
0002c0 be 69 b3 bb 68 c4 6b bc d1 d8 54 bc 65 08 28 3c
       -0.005475252 -0.014390089 -0.012991146 0.010255908
0002d0 a7 f4 ff 3c 7b 5e d3 3c 36 e9 f3 bc bd cb 1f 3c
       0.031244589 0.025801888 -0.02977429 0.009753165
0002e0 e4 1d a6 bc fe 2f fd ba ae 4e 36 bc 82 b2 b6 3c
       -0.020277925 -0.0019316671 -0.011127157 0.022301916
0002f0 c3 7b 9f bc 81 59 b1 bb 27 c3 00 3c de 75 b4 bc
       -0.019468194 -0.005412281 0.007859028 -0.02202886
000300 85 b3 ab bc 06 3e 08 3c 05 e3 b9 bc a6 30 62 3c
       -0.020959625 0.008315569 -0.02269126 0.013805544
000310 80 8a 83 bc 37 f0 8d bd 27 f0 eb bc 51 0c 0c 3d
       -0.016057253 -0.06930583 -0.028801037 0.034191433
000320 e8 c8 ce 3c 29 7b f2 3c 16 a0 06 bd a5 b4 00 3d
       0.025242284 0.029599743 -0.032867514 0.031422276
000330 50 c6 a6 bc 2f 28 ea 3c 87 6e 37 3d 5e 69 db bc
       -0.020358235 0.028583614 0.04478314 -0.026783641
000340 24 c1 f0 bb 70 45 d9 3c 67 df 9e 3b 11 37 03 3d
       -0.007347243 0.026522368 0.004848409 0.032034937
000350 e4 41 52 3a fe ca 27 bc 0b c9 c5 bc e7 93 7e bb
       0.0008020683 -0.010241268 -0.024143716 -0.003884548
000360 f8 63 fd 3c 55 d7 b4 3c e3 26 61 bc 50 ce 28 3c
       0.030931458 0.022075335 -0.0137421815 0.010303095
000370 4f 58 a9 bc 3d 2a ff bb 1a 03 b9 bc 7b 9f fb bc
       -0.020671992 -0.0077870176 -0.022584487 -0.030715695
000380 4d f3 65 3c 4f f7 32 bc 26 21 5d 3c 74 7e a8 bc
       0.014035058 -0.010923221 0.013496673 -0.02056811
000390 13 f0 eb bc 37 80 69 bc 77 0a 27 bd 3a bc a3 3c
       -0.028801 -0.01425176 -0.040781464 0.019987214
0003a0 ac 3e e6 3c f7 66 b9 3c fe 1a b8 3b 11 7b 91 bc
       0.028106056 0.022632105 0.005618452 -0.017758878
0003b0 96 60 26 ba 82 c9 7b bc 12 38 87 3c ac 44 f2 ba
       -0.000634679 -0.015367867 0.016506229 -0.00184836
0003c0 2b d9 c1 3c 86 a5 4a 3c 6b 2d 7e bb f2 3a 7c 3a
       0.023663124 0.012368565 -0.0038784395 0.00096218206
0003d0 75 42 6f 3c aa 87 3f 3b 31 09 91 3a 9a 97 bc 3b
       0.014603247 0.002922515 0.0011065361 0.005755377
0003e0 4f 80 05 bc 2f 35 d0 bb b1 ec 13 3c 7c 48 f4 3c
       -0.008148267 -0.006353996 0.0090286 0.02981972
0003f0 47 5d cf 3b 18 69 7f 3c 71 8f bd bc 67 7f ba 3c
       0.006328258 0.015589021 -0.023139687 0.022765828

bias f4 [64]
000000 8d f7 a2 bb c0 7a 8a 3c 70 76 9c bc 77 d8 c8 bb
       -0.004973358 0.016904235 -0.019099444 -0.0061293202
000010 37 53 ac bb 54 3b 0b bb 7a a8 ea b9 70 b8 12 bd
       -0.0052589434 -0.002124508 -0.00044757483 -0.035820425
000020 e1 d3 33 3c 59 07 e4 bc 9f 28 46 3d ec e8 3f 3d
       0.010975809 -0.027835535 0.048378583 0.04685299
000030 12 d0 2b 3d c2 17 71 3b 9f 6a 97 bc b0 7f f0 bc
       0.04194648 0.0036787842 -0.018483458 -0.029357761
000040 6f bc c2 bc d7 c4 94 bc 65 1e 1b bd c9 62 a5 bb
       -0.023771493 -0.018160267 -0.037870783 -0.0050471765
000050 cc f8 19 bd 95 db ed bc c2 9d ce 3c f3 d4 93 3c
       -0.037590787 -0.029035369 0.02522171 0.018045878
000060 88 16 08 bd df 60 33 bb a5 8d 2c bd ea ae 9a bb
       -0.033224612 -0.0027370972 -0.04212727 -0.0047205584
000070 c1 ca d6 bc 92 df 35 3d 1a 9f 01 bd c8 28 ee bc
       -0.026219727 0.044402666 -0.03164587 -0.02907218
000080 7f 0f f3 bc 60 30 d5 3c 36 99 c6 bc 69 48 23 3c
       -0.029670475 0.026024044 -0.024242979 0.009965994
000090 76 52 18 3d 16 2b 7b bc b8 63 13 3d 05 b2 3b 3d
       0.037188016 -0.015330097 0.03598377 0.04582407
0000a0 aa bd d9 3b 5b ff eb 3c a7 52 0a 3d 52 51 8b 3c
       0.006644924 0.028808286 0.03377023 0.01700655
0000b0 10 a7 cb 3c 8f f3 22 bd fe 7b 05 ba 06 b9 1a 3d
       0.024859935 -0.039783057 -0.00050920236 0.03777411
0000c0 c0 d3 b4 3c 00 4a 45 bd b6 bf 07 3c 56 ac 00 bd
       0.022073627 -0.048166275 0.008285454 -0.031414352
0000d0 4a cb 3f bd f1 68 d7 bc 07 3e 06 3d f9 65 da 3c
       -0.04682473 -0.026295157 0.032773998 0.026659952
0000e0 4b 74 17 3c 9f 86 18 3c eb e0 c9 bc 4c 92 17 bd
       0.009244035 0.00930944 -0.024643382 -0.037004754
0000f0 32 18 00 bd 77 0e db bc 1f 29 aa bc 5f 10 57 3b
       -0.031273074 -0.026740296 -0.020771561 0.0032816154

weight f4 [10, 64]
000000 17 f2 3a bd 60 f7 36 be 5a dd a5 3d c5 e3 5b bd
       -0.04564103 -0.17867804 0.0809886 -0.053684015
000010 99 46 a9 3d a8 05 b0 3d 5a 99 f2 bd 56 1f 6c 3c
       0.082654186 0.08594829 -0.11845656 0.014411768
000020 b0 15 24 be a7 bd ef bd 60 e6 0a be 7e 85 d9 bc
       -0.16023898 -0.11706095 -0.13564444 -0.026552912
000030 de e2 f5 bd 37 d8 f2 bc 4c ce 8f 3c 22 40 60 3b
       -0.12006162 -0.029644115 0.017554425 0.0034217914
000040 45 ce 11 3e 10 a5 a5 bc c3 52 29 3e f6 33 0d bd
       0.14238842 -0.02022031 0.16535477 -0.034473382
000050 31 cb f8 3d 7c 06 00 3d 06 00 f1 3d d3 cf 09 be
       0.12148131 0.031256184 0.117675826 -0.13458185
000060 ce 52 29 bd 10 1c f4 3d 46 c2 d2 3d 02 dd 39 be
       -0.041338734 0.11919415 0.10290961 -0.18150714
000070 ba 94 4d 3e 1c 41 e1 bd 0f e6 50 be 62 3b ea bc
       0.20076266 -0.10998747 -0.2040026 -0.028592769
000080 0c 9c 39 3e 7b a3 37 be 0a d6 3e bd f3 b3 e0 bd
       0.18125933 -0.17933457 -0.046590842 -0.109718226
000090 e0 64 64 37 fb 3a 28 be 8d f7 a1 bd 59 c3 5c 3d
       1.3613346e-05 -0.1642875 -0.07908545 0.053897236
0000a0 f9 ec ac bd a1 03 0d be 85 b2 4c be 4d 4c 9b bd
       -0.084436364 -0.13770916 -0.19989975 -0.075829126
0000b0 27 6d aa 3d da bd 8a 3d 9b 8b 96 3c a6 ab 17 be
       0.083216004 0.067744926 0.018377116 -0.14811572
0000c0 0a ae 0b 3d 8c 43 16 3e cf 56 df 3d dc 24 5f 3e
       0.034101523 0.14674205 0.10905229 0.21791404
0000d0 94 b1 3a 3d 90 e4 5d 3e 6d 75 32 3d 75 fd 91 bd
       0.045579508 0.21669221 0.043569017 -0.07128421
0000e0 cb c3 8f 3d 65 48 1d 3e f8 c1 9f bd bb 41 e5 3d
       0.070197664 0.15359648 -0.078006685 0.11194178
0000f0 22 8f c9 3d fb ed 34 3e f7 a3 bb 3c 7a 82 48 be
       0.098417535 0.17668907 0.022905333 -0.19581023
000100 fd 0e b4 3b 03 55 39 3e 5f d2 90 be 78 e6 fe bb
       0.005494951 0.18098836 -0.282855 -0.007778939
000110 90 60 72 be b9 a4 41 be e7 a8 48 be 57 43 bb bd
       -0.23669648 -0.18910493 -0.19595681 -0.091437034
000120 2f 73 35 be 8e 70 22 be ef 59 be bd b2 2c e6 3c
       -0.1771972 -0.15863249 -0.09294497 0.028097484
000130 ac d5 15 3e 6b 21 f1 bc 15 c8 d4 3d 57 a1 37 be
       0.1463229 -0.02943488 0.10389725 -0.1793264
000140 e2 2c 1c 3e d7 07 b4 3c 5f c9 0a be 0a b1 6f 3e
       0.15251496 0.021976395 -0.1355338 0.23407379
000150 5c be 0a bd 09 92 16 3e 2a e4 6a 3e d5 8e 48 3e
       -0.033872947 0.14704145 0.229386 0.19585736
000160 32 56 db 3d fa ed 0f be 19 74 25 3e 18 2b dd bd
       0.107098 -0.14055625 0.16157569 -0.10799235
000170 68 c9 fb bd 4e cb 63 be f9 00 24 be 88 b4 4a 3e
       -0.122942746 -0.22245523 -0.16015996 0.1979543
000180 ec c7 1b be 24 78 51 be 5e b8 9c 3e 7e 7d 85 bc
       -0.15212983 -0.20455986 0.3060941 -0.01629519
000190 72 8f 34 bd 04 e7 91 bd 2b e3 fa bb 56 30 26 3e
       -0.044082113 -0.07124141 -0.007656475 0.16229376
0001a0 7c 48 f6 3c 50 76 de bd 8a 48 bf bc 2a eb e8 3c
       0.03006386 -0.1086241 -0.023350019 0.028432447
0001b0 cb ba 82 bc 6a 7e f7 bd c3 5d 83 be ef f8 02 3e
       -0.01595821 -0.120846584 -0.25657472 0.12790273
0001c0 95 cb 13 be a7 38 94 3d 95 dc 63 be c4 33 fe bc
       -0.14433129 0.07237368 -0.22252114 -0.031030543
0001d0 f0 b0 42 be de f8 f0 bc 89 c6 d1 3c bc 33 8c 3d
       -0.19012809 -0.029415544 0.025607364 0.06845805
0001e0 7f 70 f2 bd b8 99 30 be 43 54 56 3e 8d c2 af bc
       -0.11837863 -0.17246139 0.20930581 -0.021455074
0001f0 77 cf 3b be 56 dd 17 3d a4 32 8f 3d d6 ae 4f be
       -0.1834086 0.037076317 0.06992081 -0.20281538
000200 57 43 bd bd ae ba 71 bd c4 45 7a 3e 18 81 81 bc
       -0.0924136 -0.059015922 0.24440676 -0.015808627
000210 a0 67 27 3e eb 4d 50 3e 5e d1 b3 3d 58 bd 9d 3d
       0.16348124 0.20342223 0.08780168 0.0770213
000220 d6 67 3e 3e 2d c5 2a 3e 74 81 db bd 0c 40 1d be
       0.18594298 0.16676779 -0.107180506 -0.15356463
000230 df 1b 81 3b 13 ec 9b 3c be 58 29 3e c3 93 c1 bc
       0.00394009 0.019033467 0.16537759 -0.023630029
000240 0f 24 05 be 24 4b d7 3d 2b c8 df 3d e8 c8 0a be
       -0.13002037 0.10512379 0.10926851 -0.13553202
000250 d0 28 32 3e b5 a9 fc bd d2 aa 09 3d a7 e6 2e 3d
       0.17398381 -0.123370565 0.033610173 0.042700436
000260 a3 7c 09 be da b6 28 3e 56 86 54 be eb d4 67 3d
       -0.13426451 0.16476002 -0.2075437 0.05659954
000270 25 04 e0 3d f0 51 09 be a1 48 ff 3b 74 b5 e9 bd
       0.109382905 -0.13410163 0.0077906405 -0.114115626
000280 37 cd 58 be c2 96 35 bd bf 98 c9 bb 58 39 ff bd
       -0.21172033 -0.044333227 -0.006152242 -0.12462109
000290 42 54 0b 3e 95 a0 15 3e 14 14 db bd 45 b8 94 3d
       0.1360636 0.14612038 -0.10697189 0.07261709
0002a0 ac fc 1f 3e 56 16 30 3e 77 f6 81 3c a6 c2 36 bd
       0.1562373 0.1719602 0.015864594 -0.044619225
0002b0 13 a4 ad 3c 49 06 68 bd 0e 3f 08 3e b3 86 13 3e
       0.0211964 -0.05664662 0.13305303 0.14406852
0002c0 d7 da 3a 3c 6b 3c 43 bd f7 89 36 bd b5 4d 88 3d
       0.011404715 -0.04766504 -0.044565167 0.066554464
0002d0 a4 11 0e 3e 00 a8 2d 3e 5d 2c 08 be 57 85 9d bd
       0.13873917 0.16958618 -0.13298173 -0.07691448
0002e0 e0 65 b7 bc c6 b9 a4 bd 0a 2c 4e bd f8 1a 15 be
       -0.022387445 -0.08043246 -0.050334968 -0.14561069
0002f0 07 82 33 3d a6 33 35 3e 07 95 18 3e c6 d9 04 3d
       0.043825176 0.17695484 0.149006 0.032434247
000300 63 2f 0f 3b cc e4 46 bc 01 9f 04 3e 52 08 41 bd
       0.0021848313 -0.01213951 0.1295128 -0.047127075
000310 94 c7 2e bd d2 53 f9 bc 73 cd 22 3e 67 b0 41 bd
       -0.0426708 -0.030435476 0.15898685 -0.04728737
000320 50 f8 cd 3d b5 4c 47 3d 52 6b d9 bd 98 c7 84 bd
       0.100571275 0.048657138 -0.10616173 -0.06483382
000330 bd c6 87 bd 6e b7 f0 3d 1e b6 43 be 0d 64 7e 3d
       -0.06629703 0.117537364 -0.19112441 0.062107135
000340 4e fa 14 bb 2e c1 ad 3c 75 bb ba bd 88 57 65 bd
       -0.00227322 0.02121028 -0.09117786 -0.05599168
000350 2e 09 e6 3b 28 1a 5f bd 51 a6 12 be cd fb a1 bd
       0.0070201373 -0.054468304 -0.14321257 -0.07909355
000360 68 89 b3 bc 57 8a 2c bb 95 1c 07 3e a2 21 b7 bd
       -0.021916106 -0.0026327574 0.13194497 -0.08941962
000370 f1 b3 a2 3d 7f 1c 13 3e 67 88 ce 3d 2b ad c8 bd
       0.07944477 0.14366339 0.100846104 -0.09798654
000380 1e e9 f3 bd 68 95 d0 3b 01 d4 66 bc 97 d6 be bd
       -0.11909698 0.006365467 -0.014088632 -0.093182735
000390 c2 8a d8 3c 8d 79 37 bd d2 6f 16 be f2 c5 50 be
       0.026433352 -0.044793654 -0.14691094 -0.2038801
0003a0 cf a7 f6 bd c3 ae e4 b9 72 40 3d 3e a5 92 3b 3e
       -0.12043726 -0.00043617756 0.18481615 0.18317659
0003b0 b3 61 a6 bd c8 85 b1 3d 27 6e 8a bc b0 ec d5 3d
       -0.081241034 0.08668095 -0.016898228 0.10445535
0003c0 b9 47 42 3d b7 80 59 bd c3 fc 6b 3d 37 df fb bd
       0.04743168 -0.053101268 0.0576141 -0.12298434
0003d0 c4 0f 5f bd 75 ea dd 3d 08 63 81 3d f7 e1 05 3e
       -0.054458395 0.10835735 0.06317717 0.1307448
0003e0 12 79 24 be 42 ae f7 3d c6 5f 4a 3c 33 45 b1 3d
       -0.1606181 0.12093784 0.012351936 0.08655777
0003f0 a4 0b 8b 3d b9 4e ff bc d8 83 10 3d 14 0d fa 3d
       0.0678933 -0.031165468 0.035281986 0.12209526

bias f4 [10]
000000 12 27 e3 bd 03 a6 9d bc b4 87 c4 bd f0 7f 92 3d
       -0.110914364 -0.0192442 -0.09596196 0.071533084
000010 f7 92 9b 3c 64 19 7d bd 77 a4 13 3e 6a c6 98 bd
       0.018990977 -0.061791793 0.14418207 -0.074597195
000020 1f 6d db bc 04 bf b8 bd
       -0.026785431 -0.09020808
