models/xue_epoch_3.pth (torch, 592503 bytes, 22 tensors)

module.0.weight f4 [32, 3, 5, 5]
000000 00 3d 79 3b 63 e6 59 bd 52 39 de 3c 64 c3 12 3d
       0.0038030744 -0.05319823 0.027126942 0.03583087
000010 76 ef bf 3c e4 13 48 be 67 7e 12 be 35 d4 20 be
       0.023429614 -0.19538838 -0.14306031 -0.1570595
000020 74 1c 60 be fe d1 05 be ba 72 5f be 6d b8 14 be
       -0.21885854 -0.13068387 -0.21821108 -0.14523478
000030 b8 46 db bd af cb 18 be 73 49 63 be 75 5b 17 bd
       -0.10706848 -0.14921449 -0.22195987 -0.036952455
000040 27 bf 30 be 4e 3b f8 bd ff 7e d0 bd 2d f0 3b bd
       -0.17260419 -0.121206865 -0.101804726 -0.045883346
000050 c2 5e 2e be 0c 47 cd bd 1f 35 30 be 99 f8 4e be
       -0.17028335 -0.10023317 -0.17207764 -0.2021202
000060 a2 c7 bc bd ff f7 85 3d f9 68 1d 3d 2a d6 86 bb
       -0.092177644 0.06541442 0.038430188 -0.004114886
000070 96 1c cf bd 98 28 c6 bd 4f 86 66 bc 12 97 d0 bc
       -0.10112874 -0.096757114 -0.014070108 -0.025462661
000080 95 66 05 bc 70 ae 34 bd 8c 53 8d 3d 00 dc 37 bb
       -0.008142133 -0.04411167 0.06900701 -0.0028054714
000090 d4 e2 fa bc 3b 21 2e bd e3 4a 8f 3d 41 7d 85 bc
       -0.030625738 -0.04251216 0.069967054 -0.016295077
0000a0 71 f7 71 bd a1 40 2b 3e 8e 56 fb 3d 59 ac 05 3b
       -0.05907387 0.16723873 0.12272368 0.0020396917
0000b0 00 db 92 37 0d 07 eb 3d 6d 1a c6 3d 29 07 ca bd
       1.7506536e-05 0.11475954 0.09673009 -0.09864647
0000c0 ad d5 58 3d f0 8a 9d 3c 80 c9 7f 3d aa 4f 71 3d
       0.052938152 0.01923129 0.062448025 0.058913864
0000d0 9c 41 e7 3d ae 48 08 3e 61 54 42 3d b9 fc b5 3d
       0.11291811 0.13308975 0.04744375 0.08886094
0000e0 dc 51 ac 3d 18 e9 08 3e 63 01 0e 3d 53 86 0e 3e
       0.08414051 0.13370168 0.03466929 0.13918428
0000f0 85 74 53 3e da 02 f4 3d 81 95 10 3d ff 9b 23 3d
       0.20649917 0.119146064 0.035298828 0.03994369
000100 b3 44 d1 3d 5a 2e 40 3e 91 0d 3c 3e 08 6d 6f 3d
       0.102181815 0.18767682 0.1836455 0.05845359
000110 fd 95 fc 3d 30 75 8c bb 9f 5a 15 3e 24 47 ef 3d
       0.123332955 -0.004286431 0.1458535 0.11683491
000120 ad 64 ee 3c d5 8e 6b 3d 25 bd b4 bb 5f 89 f3 3c
       0.02910074 0.057509262 -0.005515712 0.02972859
000130 25 5b c0 bc d3 1a 21 3e d1 84 6b 3d 13 0e 59 3d
       -0.023480961 0.15732889 0.05749971 0.052991938
000140 79 d4 8a 3d cd b2 cb 3d 0c 74 45 3e e3 5e 28 3e
       0.06778807 0.09946213 0.1928255 0.16442446
000150 d3 43 e4 3d c1 10 f6 3c b8 e6 76 3d 92 e5 c7 3c
       0.11145749 0.030037286 0.060278624 0.02440146
000160 78 9b ec 3c bd 8c b8 bd a4 56 84 3b b8 2a 92 3c
       0.028882727 -0.09011219 0.0040386487 0.017842636
000170 71 61 70 3d c5 d5 3d 3c db 10 c2 3d f1 e0 50 3d
       0.058686677 0.011586611 0.09475871 0.05099577
000180 16 0b 5f 3d ba e0 af bc 6f a3 40 3d 44 33 f0 b9
       0.05445393 -0.021469463 0.047030862 -0.00045814563
000190 71 2c c9 3d c1 eb bb ba 95 b0 41 3d f4 22 45 bd
       0.0982293 -0.0014337228 0.047287542 -0.048129037
0001a0 23 62 75 3d 96 17 3f bc 85 7b 71 3d b6 11 70 bd
       0.059908044 -0.011663338 0.058955688 -0.05861064
0001b0 61 62 03 3e e1 f8 89 3d a8 8f 02 bd 93 11 b1 bd
       0.12830497 0.06736923 -0.031875283 -0.0864593
0001c0 72 ec 70 bd f4 ae b6 bd 9c 7f 20 3d f9 ff 6b bd
       -0.05881924 -0.089200884 0.039184198 -0.05761716
0001d0 b4 d1 59 bc 6b f3 8c 3c 84 65 da bd 7a 54 8a bd
       -0.013294626 0.017205914 -0.10663894 -0.06754394
0001e0 ca 6d 5f 3d 4a 36 55 bd f2 bb 02 3d b7 5f 6f 3d
       0.054548062 -0.052053727 0.03191752 0.05844089
0001f0 f7 cc 82 bd 25 8f 39 bd 04 6e bc 3d 8b 28 c9 bc
       -0.0638675 -0.04530253 0.09200671 -0.024555465
000200 b7 c2 10 3e 95 0d f9 3d 19 93 42 3c df e5 04 3d
       0.14136778 0.12160794 0.011875891 0.032445785
000210 ab 95 d3 bc 38 a5 57 3d dc 91 79 3d 93 75 5c bc
       -0.025828203 0.0526478 0.060930118 -0.013455766
000220 9f f4 7e bd c3 54 1f 3d 6d f8 ab bd 21 e8 92 bd
       -0.062245008 0.038899194 -0.08396993 -0.07173181
000230 6e eb 2e bd 33 62 0d bd 6e 59 0f be 92 0d 87 bd
       -0.042704992 -0.03451748 -0.13998958 -0.06594385
000240 86 b8 a4 bc 9f 6a b7 bd 28 34 52 bd 41 c8 dc bd
       -0.020107519 -0.08955883 -0.05131927 -0.10780383
000250 11 1b bd 3c be 2e 18 3a 07 51 c6 3c 31 cd e5 bc
       0.023084195 0.0005805305 0.024208559 -0.028051944
000260 5d f2 d4 bc 66 9e a9 3c c1 28 3f 3d 88 ec 03 be
       -0.025994474 0.020705413 0.046669725 -0.12883198
000270 14 54 6a bd 32 f0 3d bd 3a 1d 14 3e eb 99 ab 3d
       -0.05720909 -0.046371646 0.14464274 0.08378967
000280 41 e2 f5 bd 9c 06 77 bd cb 34 a4 3d 0b 80 2d 3e
       -0.12006045 -0.060309038 0.08017882 0.16943376
000290 33 79 04 3e f6 d0 b5 3b 54 0e 75 bd 17 7e 95 3d
       0.12936859 0.0055485917 -0.059828117 0.0729944
0002a0 74 c5 d0 bd e5 07 4f 3d 53 80 dd bd b1 80 62 3d
       -0.10193911 0.05054464 -0.108154915 0.05529851
0002b0 27 a5 58 3d 60 68 00 3d ac 9b e2 bd 77 9e ae 3c
       0.052891877 0.03134954 -0.11064848 0.021315796
0002c0 86 67 f6 3c 77 bf f4 bd f6 56 9a 3c 0e 98 19 3b
       0.03007866 -0.119505815 0.018840294 0.002343658
0002d0 2f 96 32 bc 53 b4 78 bd 7c 2b 5c 3c af cb 41 3c
       -0.010900064 -0.060718846 0.013438102 0.011828347
0002e0 5b 96 38 3d ae af 3b 3d 83 ff d7 3b 2d 2a 68 3d
       0.045065265 0.045821838 0.0065917387 0.056680847
0002f0 1c 02 fc 3d 0e 5f 9d 3d 1c 18 57 3d 5b c3 8f bd
       0.1230509 0.07684146 0.052513227 -0.07019683
000300 44 df 80 bc bb b0 f6 3d c1 72 1f bc b9 66 67 3d
       -0.015731461 0.120454274 -0.009731949 0.05649445
000310 40 e9 04 3e eb 00 5f bc 58 2f 22 3d 19 53 c0 bd
       0.12979603 -0.013611059 0.03959593 -0.093908496
000320 e8 c5 22 be 14 6d 74 3d 17 29 c6 3c 22 5b 1b bd
       -0.15895808 0.059674338 0.024189515 -0.037928708
000330 2e 06 f6 bc 6e c5 a4 bd da b9 e3 3c 20 f2 89 3d
       -0.030032244 -0.08045469 0.027798582 0.06735635
000340 e8 ce bf 3d a1 96 19 3e ee 6e e1 bd 6c da cc 3d
       0.09365636 0.14998867 -0.11007486 0.10002598
000350 e3 8a 86 bd 13 e2 0e 3e 69 4d 96 3c 3d 13 8f bd
       -0.06569459 0.13953428 0.018347459 -0.06986091
000360 aa 6a aa bd 37 b2 48 3d e5 c9 48 bd 3e 18 03 3c
       -0.08321126 0.048998084 -0.049020667 0.008001385
000370 fc cb 57 3d 6d 95 95 bd 19 5f b4 3d 13 84 ae 3c
       0.05268477 -0.07303891 0.08807201 0.021303212
000380 63 59 e3 bc 64 33 cf 3c 82 66 0a bd e0 45 72 bd
       -0.027752584 0.02529306 -0.033789165 -0.05914867
000390 14 3b b7 3d 7b 95 36 bc 91 40 bb 3d d4 2f 4e be
       0.08946815 -0.011144037 0.091431744 -0.20135432
0003a0 4d a1 96 bd 43 bc 15 3e 9c cf 4b 3e 82 29 83 bd
       -0.073549844 0.14622597 0.19903415 -0.06404401
0003b0 0f a8 1d be d7 2c 90 bc 05 e8 57 3d 87 52 bb 3d
       -0.1539614 -0.017599506 0.052711505 0.091466
0003c0 53 2d 92 bc 20 64 ca bd e8 1d 4a bd 37 c1 02 3e
       -0.017843878 -0.098823786 -0.049344927 0.12769018
0003d0 7d 33 32 3e 12 4d 96 bd 20 63 7f 3d fb 97 76 bd
       0.17402454 -0.07338919 0.062350392 -0.060203534
0003e0 01 46 bf bd d5 c0 ed 3d c9 af e2 bd 6a 1e 77 bd
       -0.09339524 0.116090454 -0.110686846 -0.06033174
0003f0 b3 7a 02 bd 79 93 b1 3d f0 fd 25 3e c8 fe 94 bd
       -0.031855296 0.08670706 0.1621015 -0.07275158

module.0.bias f4 [32]
000000 d4 88 91 3d a8 56 bc bd 94 7c 6b 3d 64 9d db 3d
       0.07106176 -0.09196216 0.057491854 0.10723379
000010 59 0c 81 3d 23 60 0e 3d 64 dd 84 bd 44 14 da 3c
       0.06301183 0.034759652 -0.064875394 0.026620992
000020 3a d0 a4 3d 44 5b 81 3d 85 d6 81 3d 31 bd 9d bd
       0.080475286 0.06316236 0.063397445 -0.07702101
000030 c2 97 bd 3c a2 0b cd 3d b8 e4 43 3d c8 84 93 bd
       0.023143653 0.100119844 0.047825545 -0.072030604
000040 56 68 d3 bd 7a 27 81 bd 30 4a f0 bc a3 82 9a 3d
       -0.10322635 -0.06306358 -0.02933225 0.07544448
000050 68 ee e1 3c 62 60 2e bd 44 e2 da 3d ee c8 91 bd
       0.027579501 -0.042572387 0.10687688 -0.071184024
000060 21 d5 bd bd 19 43 4f 3d df c6 9b 3d 2d d5 1a 3d
       -0.09269167 0.0506011 0.07606291 0.037800957
000070 61 d7 b6 39 72 ee 82 bd 56 40 5d 3d 92 f7 65 3d
       0.00034874215 -0.06393136 0.054016434 0.056144305

module.1.weight f4 [32]
000000 76 65 6f 3f fa b5 63 3f 1c 21 62 3f 44 91 93 3f
       0.9351419 0.8894955 0.8833177 1.1528707
000010 71 0c 58 3f 13 b1 84 3f 99 1d 60 3f 9e 5b 81 3f
       0.84393984 1.0366539 0.8754516 1.0106084
000020 0c 14 8e 3f 84 0a 62 3f 98 5a 66 3f 77 03 78 3f
       1.1099868 0.88297296 0.89981985 0.96880287
000030 bd 43 6a 3f 05 e1 81 3f 56 80 7e 3f 2e 2c 78 3f
       0.9150961 1.0146796 0.99414575 0.9694241
000040 11 3c 61 3f 16 b9 7c 3f 88 84 74 3f 63 4d a7 3f
       0.8798228 0.9871992 0.95514727 1.3070492
000050 01 17 77 3f d8 a4 8c 3f 87 89 5b 3f 5c 41 8d 3f
       0.96519476 1.0987806 0.85756725 1.1035571
000060 f5 80 92 3f 99 0d 76 3f a2 f1 5b 3f ab 7f 83 3f
       1.1445605 0.961145 0.8591558 1.0273336
000070 7d ee 87 3f 60 13 75 3f 46 ee 8e 3f f0 d1 92 3f
       1.0619656 0.9573269 1.1166465 1.1470318

module.1.bias f4 [32]
000000 2a e4 1f bb ac b4 01 be 57 5d 0b bd 53 b2 96 bd
       -0.002439747 -0.12666577 -0.034024563 -0.073582314
000010 fc 8c ca bd 37 7b 03 be 43 0e 13 bc 89 9e bd bc
       -0.09890172 -0.12839971 -0.008975568 -0.023146885
000020 1a 8f f9 bd b5 dd a6 bd 24 70 21 bd 14 7b a4 bd
       -0.121854976 -0.08147756 -0.039413586 -0.08031288
000030 ed f5 05 bd f3 a6 58 bb 32 6a 32 be 40 a9 90 bd
       -0.032705236 -0.0033058494 -0.17423323 -0.07063532
000040 ae 51 51 bd f1 f2 be 3c cb d2 7a bd 19 d9 0e be
       -0.051103286 0.023309203 -0.061236184 -0.13950004
000050 d9 07 72 bd 7e 40 d3 bd 7a 5f 30 be 15 86 56 bc
       -0.059089515 -0.10315035 -0.17223921 -0.013093491
000060 60 47 e1 3b e3 5a 1c be 36 4f ca bd e1 3a 0f bd
       0.0068749636 -0.15269046 -0.098783895 -0.03496826
000070 07 fa 2d bc f2 98 ce bd ac d1 a9 bd 6f ac 5c 3d
       -0.010618693 -0.10087766 -0.08291945 0.053875383

module.1.running_mean f4 [32]
000000 29 c8 55 be 7d fc 9a 3e 29 05 b4 3e 79 37 8b 3c
       -0.20877136 0.30270758 0.35160187 0.016994225
000010 2f f5 a7 3d 69 32 65 be ba 6c d6 bd d4 d0 b2 3d
       0.08201062 -0.22382511 -0.10469957 0.08731237
000020 07 7f 76 be 5a f5 00 3f 15 ea 94 3e db ba 9d be
       -0.24071895 0.50374377 0.2908484 -0.30806622
000030 b0 5c 11 be 84 9e 1e 3e ba 3c 03 bd 5a 95 89 bd
       -0.14195514 0.15490156 -0.032040335 -0.0671794
000040 f4 7f 86 3e b6 77 44 be 6e 1f 72 be 4a de 8b 3c
       0.26269495 -0.19186291 -0.23644802 0.01707377
000050 fe ae 16 3e eb 60 30 be c4 98 b0 3e a9 d8 3b be
       0.14715192 -0.17224471 0.3449155 -0.18344368
000060 26 52 83 be 2c fd 3e be 4f d4 9e 3e 7b 62 49 3e
       -0.25648612 -0.18651265 0.31021354 0.19666474
000070 52 2b a4 3d d7 8e eb bd 56 96 80 bd 77 a2 43 bd
       0.08016075 -0.11501854 -0.06278674 -0.04776236

module.1.running_var f4 [32]
000000 5c dc 17 3e 98 65 da 3d 86 da 8e 3d ff 52 87 3e
       0.14830154 0.10663909 0.06975274 0.26430508
000010 eb a5 b3 3c 69 d9 45 3d 7f c0 8a 3d 20 fc 47 3d
       0.021929702 0.04830304 0.06774997 0.04882443
000020 d1 54 70 3d ce 23 d2 3d b1 9b d4 3d 10 c1 82 3d
       0.058674637 0.102607355 0.10381258 0.0638448
000030 04 39 4a 3d 5f 28 21 3e 5c 5f cc 3d 2a df 00 3e
       0.04937078 0.15738057 0.09979126 0.1258513
000040 b8 68 02 3e fa d7 df 3d 3a 79 16 3d aa 7d 4e 3e
       0.1273526 0.10929866 0.036736704 0.20165125
000050 8c e2 72 3d 5c 76 58 3d b6 7b a4 3d ed 64 fd 3d
       0.059298083 0.05284725 0.080314085 0.12372766
000060 0b 07 e5 3d a7 2b ac 3d 46 2c 11 3d cb 0f 0d 3e
       0.11182984 0.084067635 0.035442613 0.13775556
000070 b1 38 fa 3d ca 42 b0 3d 6d af 92 3d 5b 6c 91 3e
       0.12217844 0.08606489 0.07162366 0.2840298

module.4.weight f4 [32, 32, 5, 5]
000000 c8 0e 4c bd c8 4a 67 bd e7 b6 57 bd 12 08 81 bb
       -0.049818784 -0.0564678 -0.052664664 -0.0039377296
000010 2a 40 1f bd d1 36 68 3a 37 e1 b1 3c 21 c8 68 3c
       -0.03887955 0.0008858266 0.021713836 0.014207871
000020 bb 55 ba 3b bf 52 0f bb e3 dc 5e 3c 3c 53 6d bd
       0.0056864894 -0.002186939 0.013602468 -0.057940707
000030 50 4b 4e 3b 56 a0 fa bc c0 36 50 bb 45 f6 95 3c
       0.0031477995 -0.030594032 -0.0031770915 0.018305907
000040 2a c4 4c bc 5c ef 8e 3c 51 04 d9 bc 97 1a 66 bc
       -0.012497941 0.01744812 -0.026491316 -0.014044425
000050 68 7c ff 3b 85 9c 2c 3d 87 6a 20 3d dc c5 5f 3d
       0.007796813 0.042141456 0.039164092 0.054632053
000060 0b 55 b2 3b 3b ae 41 bd bb 8b cb bc 60 89 5a bd
       0.005442267 -0.0472853 -0.024846902 -0.053353667
000070 8f aa 0e bc 3f fe 04 bd 23 93 e0 3a 49 56 d1 bc
       -0.0087076565 -0.03246903 0.0017133694 -0.02555384
000080 19 29 21 bd 6f b5 51 bd 28 80 fe 3b ff 90 11 3d
       -0.039345834 -0.05119842 0.0077667423 0.03553867
000090 02 cb 35 3d e5 4b df 3c db 71 9f 3c 8e e8 6d bc
       0.044383056 0.027257869 0.01946347 -0.014520777
0000a0 dd 1c 61 bd 19 54 14 bb 96 a8 37 bc b8 83 6a bc
       -0.054959167 -0.0022633134 -0.011209628 -0.014313631
0000b0 c5 72 60 bc 35 41 ad 3b d6 8a 02 3b a0 63 88 3b
       -0.013699238 0.0052873143 0.0019919178 0.004162267
0000c0 5f 96 84 3d c3 65 72 3d 75 4c a0 bc 06 0f 8f bc
       0.064739935 0.05917908 -0.019567708 -0.017463218
0000d0 7f 41 82 3c dd 2d 09 bc 28 a9 b8 bb ee ae 03 bd
       0.015900372 -0.008372751 -0.0056353994 -0.032149248
0000e0 0b e4 c0 bb 62 b9 72 bc 27 1d e1 bc 9e 5f f3 bc
       -0.00588656 -0.0148147065 -0.027479721 -0.02970868
0000f0 fa 49 2b bd 07 5c 87 3a bd be 2a bc 48 80 6e bd
       -0.041818596 0.0010327109 -0.010421452 -0.058227807
000100 48 8f 54 bc 77 0e 82 bd 5a d6 4f bd d4 2d 02 bc
       -0.012973614 -0.06350415 -0.05074153 -0.007945497
000110 d0 c3 98 bc de 69 9d bc 57 4e c5 bc 6a d7 a5 3c
       -0.018648058 -0.01921552 -0.024085207 0.020244319
000120 11 ae d3 3c 5a fb 1b bb 58 13 de 3c b2 96 34 bd
       0.025839837 -0.002380094 0.027108833 -0.044089027
000130 cd 3d a2 bc 54 58 60 3c ed 6b b3 3b df c9 c0 bc
       -0.01980486 0.013692934 0.0054755122 -0.02353376
000140 64 a7 88 ba ac 15 af 3c af 74 03 3c f4 b9 0f bd
       -0.0010425863 0.021372639 0.008023425 -0.035089448
000150 18 94 56 3b af 0d 82 bd a1 48 07 bd 7d 0f b5 3c
       0.003274208 -0.06350266 -0.03302825 0.022102112
000160 96 35 f2 bc 33 74 1f bd 7b 41 0b bd 73 18 0e bd
       -0.029566567 -0.038929176 -0.033997994 -0.034691285
000170 01 a4 3d bd 7b 44 2d bd 2c 2a 82 bc 3e bb 94 bd
       -0.046298984 -0.042301636 -0.01588925 -0.07262276
000180 db 3c 75 bd d0 fc c7 bc 18 64 1f bd 1c c5 12 bc
       -0.05987249 -0.024412543 -0.038913816 -0.008958127
000190 fb aa 05 bc 19 67 94 bc 3e 5a f2 38 40 ef f1 3b
       -0.008158441 -0.018115567 0.00011556268 0.007383257
0001a0 9c 0d f0 bc ab e1 ba bb 70 cd 3e 3b 30 da 47 3c
       -0.029303364 -0.0057031712 0.002911415 0.012198016
0001b0 12 a0 bf bc e7 f2 f2 3c 83 c1 b7 bb 19 6d 0c bd
       -0.023391757 0.02965684 -0.005607785 -0.03428373
0001c0 d6 16 03 bd 8a 04 98 bc 1b 1b a0 3b 79 29 65 bc
       -0.0320042 -0.018556852 0.0048860437 -0.013986939
0001d0 6f 83 1b 3d d5 03 67 3c 3a d0 01 bd ef 1f 0c bd
       0.03796714 0.014100035 -0.03169272 -0.03421014
0001e0 95 cb 87 bc 23 85 53 bc 73 e0 04 bd f3 03 c8 3b
       -0.016576568 -0.01291016 -0.032440614 0.0061039864
0001f0 e4 4c 8b 3c 74 7d 00 bd 43 fa 98 bd f1 38 be bc
       0.017004438 -0.03136964 -0.07469609 -0.023220511
000200 c4 c0 90 bd 43 34 26 bd ba ae 01 bd 98 34 f1 3a
       -0.07068017 -0.040577184 -0.031660773 0.0018402515
000210 4e 30 81 3c b4 59 9a 3b 80 60 1c bd f0 7f 02 3d
       0.015770104 0.0047104005 -0.038177967 0.031860292
000220 a2 22 4e 3d b7 d0 b9 3d b5 e7 ab 3c 3a 31 1f 3d
       0.050325997 0.09073012 0.02098451 0.038865305
000230 f6 53 00 3e 00 a0 3a 3e d8 2e 0d 3e f4 61 04 3e
       0.12532029 0.18225098 0.137874 0.12927991
000240 a2 82 c6 3d d2 a6 af bb ca 25 7e 3b c7 66 7d bb
       0.09692885 -0.0053604627 0.0038779848 -0.0038665996
000250 5a 11 e7 bc 4d 72 a1 ba e0 f5 b3 3c 42 d7 3b 3d
       -0.028206516 -0.001231739 0.021967828 0.045859583
000260 ce 65 8f 3c b4 9a 76 bc 7b a1 6c bc 0d 8d 67 3c
       0.017504599 -0.015051533 -0.014442797 0.01413275
000270 77 9f 4d 3d 97 3b da 3c 88 ef f2 3c c3 58 07 bc
       0.050200906 0.026639743 0.029655233 -0.008260909
000280 5d 2c 09 bd 16 9f 5f bd 77 26 22 ba a0 b3 22 bd
       -0.033489574 -0.054595076 -0.0006185541 -0.039722085
000290 05 91 48 bd a9 dd 81 b9 ef ee 77 3d 27 d2 50 bc
       -0.048966426 -0.00024769947 0.0605306 -0.012745417
0002a0 b7 d9 50 3b 2e 0a c5 bc 50 a3 79 3c 3e 88 ca bc
       0.003186805 -0.024052706 0.015236691 -0.024723168
0002b0 43 66 9e 3c 6f 71 b7 bc 99 6a eb 3b 86 de 61 bc
       0.019335872 -0.022392957 0.0071843383 -0.013785964
0002c0 dd fb 1b 3c 1f dc b4 3c c5 18 0c bd e9 e3 bd bc
       0.009520498 0.022077618 -0.03420331 -0.023179965
0002d0 6d 27 07 3d 1d bb 67 3c 9c 0a bc bb 8f a9 f5 3c
       0.032996584 0.014143732 -0.0057385694 0.029988078
0002e0 dd c6 0a 3c c5 1e e1 bc f5 57 2a 3c 7c 72 92 3d
       0.008470264 -0.027480492 0.010396947 0.071507424
0002f0 fa f5 6c 3c 98 7a 38 3d 29 0e 56 3d d5 cf 82 bc
       0.014462942 0.04503879 0.052259598 -0.015968243
000300 45 22 cc bb e0 53 be 3c a0 46 ef 3c 70 63 90 bd
       -0.006229671 0.023233354 0.029208481 -0.07050216
000310 6f bc b7 bc 5b 0e a6 bd 9c dd 18 bd af 30 8d bd
       -0.02242872 -0.08108207 -0.03732072 -0.06894051
000320 ec e7 90 bd c2 f8 d3 bc 55 e7 73 bd 68 76 a0 bb
       -0.070754856 -0.025875453 -0.059546787 -0.0048969276
000330 db 0a 61 bd b8 e6 9f bc 3b 8f 73 3c f5 b3 30 bd
       -0.054941993 -0.019519195 0.014865692 -0.04314037
000340 53 91 91 bc 72 f5 4c bd f9 00 ee ba 3c 30 60 bc
       -0.017769491 -0.050038762 -0.0018158249 -0.013683375
000350 42 81 28 bc 84 39 36 bd f3 ec ed bc 73 af 77 3c
       -0.010284724 -0.044488445 -0.02904365 0.015117514
000360 be 8c 18 3c d9 ad 2d 3c 03 2e 75 bc bb a8 82 bd
       0.009310899 0.010600531 -0.014964583 -0.06379839
000370 12 b0 64 3d 05 9a 8a 3d 16 06 02 3d 00 b3 73 3d
       0.055831976 0.06767658 0.031744085 0.05949688
000380 b4 c1 8f 3b 4d 9a ee 3b 29 4e 4d bb 55 af 66 3a
       0.004387105 0.0072815777 -0.0031327105 0.000879993
000390 2f 1e 0f 3c df c5 86 bc 30 13 da bb a8 c4 98 bc
       0.008735224 -0.016451774 -0.0066551194 -0.01864846
0003a0 bd a4 c6 bb 58 f9 79 bd 83 65 af 3b 71 20 3d 3c
       -0.006062119 -0.06102881 0.0053526773 0.011543379
0003b0 cb fc ef 3b 90 03 1c 3c 8e db 09 bd 5b 3a ce bc
       0.0073238364 0.009522334 -0.03365665 -0.02517431
0003c0 02 62 a9 3c f1 0c 70 bc 5f e5 3c bb a8 f3 9d bc
       0.020676617 -0.014651523 -0.002882324 -0.019281223
0003d0 bc 60 46 bc b6 ed b5 bc ef 7b 3e 3c b0 58 48 bc
       -0.012108024 -0.022208076 0.011626228 -0.012228176
0003e0 21 3c ba 3c a8 be 49 3c 80 10 9c 3c 29 91 1b bd
       0.02273375 0.012313522 0.019050837 -0.037980232
0003f0 48 ab 30 bd 87 ca 17 bd 7e 5b 97 3c 04 a6 84 bc
       -0.043132097 -0.03705838 0.018476244 -0.016192444

module.4.bias f4 [32]
000000 fe f5 07 bd e0 68 16 bb e9 6a 84 3c d6 7d e8 bb
       -0.03319358 -0.0022950694 0.01616426 -0.007095079
000010 0f 95 b3 bc 59 fd dc 3c 07 75 b6 3c 15 f1 b6 bc
       -0.021921663 0.026976274 0.0222726 -0.022331754
000020 31 85 a5 3c 3d 8c 10 3d 41 88 fe bc 39 21 29 3b
       0.020205112 0.03528999 -0.03107083 0.0025807156
000030 72 f3 6a bc dc fb ae bc 8c 34 03 bd 31 61 17 3c
       -0.014340268 -0.02136033 -0.032032534 0.009239481
000040 8a 5e cb 3c 8d 97 98 bc 50 e6 dc ba fc 23 d7 bc
       0.024825353 -0.018626953 -0.0016853306 -0.026262276
000050 05 ee c5 3c a5 81 fa bc 73 83 90 3b 3f 5c 32 3c
       0.024161348 -0.030579397 0.004410201 0.010886251
000060 3b 99 c5 39 2f 2a d9 3c e9 fd d0 3c 8b d9 f7 bc
       0.00037688934 0.026509373 0.025511699 -0.0302551
000070 e2 0e 6e 3b 5d 41 f8 bc 61 52 6f 39 d0 86 80 3b
       0.0036324789 -0.030304605 0.00022823505 0.003922321

module.5.weight f4 [32]
000000 55 e5 7b 3f bb 1e 79 3f 9a 6f 7b 3f 31 b6 79 3f
       0.9839681 0.97312516 0.98217165 0.9754363
000010 e1 ec 89 3f 89 68 88 3f 46 47 79 3f 8f 03 7f 3f
       1.0775415 1.0656902 0.9737438 0.99614805
000020 03 71 83 3f 45 c5 6e 3f b5 c2 80 3f bf cc 82 3f
       1.0268863 0.9326976 1.005942 1.0218734
000030 d2 3d 77 3f c5 e1 87 3f 58 d5 79 3f 8a 61 81 3f
       0.96578705 1.0615774 0.9759116 1.0107892
000040 fa de 84 3f 94 25 7c 3f ba f5 7d 3f 43 b3 6a 3f
       1.0380547 0.9849484 0.99203074 0.9167978
000050 da 87 81 3f df 90 72 3f 71 7d 6d 3f 2d e7 69 3f
       1.0119584 0.94752306 0.92769533 0.9136837
000060 08 a7 7e 3f f9 03 83 3f fa 76 78 3f e4 7e 7f 3f
       0.9947362 1.0235587 0.97056544 0.99802995
000070 1e 0c 81 3f 82 24 87 3f e6 0c 8a 3f 45 d8 7d 3f
       1.0081823 1.0558016 1.0785186 0.99158126

module.5.bias f4 [32]
000000 84 5a f7 bd 67 ce e4 bd fe 61 18 be 13 2c 06 be
       -0.12077811 -0.111721806 -0.14881131 -0.1310275
000010 87 8e 8e bd 1b 4a c6 bc 13 1a fb bd dc 72 d0 bd
       -0.06960779 -0.024205258 -0.12260833 -0.10178158
000020 6f d1 fa bd f9 8e 01 be 5b 7f 07 be 2f 2c c9 bd
       -0.122469775 -0.12652196 -0.13232176 -0.098228805
000030 67 f6 f2 bd 4a 79 a0 bd c6 3c 1a be 57 48 c3 bd
       -0.11863404 -0.07835634 -0.15062246 -0.09535282
000040 35 cf c7 bd b0 94 af bd 13 b8 65 bd 84 e6 f0 bd
       -0.097563185 -0.08573282 -0.05608375 -0.11762717
000050 87 80 c5 bd 7b 17 9a bd 3e fb f4 bd 75 07 fd bd
       -0.09643655 -0.0752401 -0.11961983 -0.12354938
000060 bf a1 e2 bd 63 f0 a0 bd bd 1c 2f be 44 31 6a bd
       -0.11066007 -0.0785835 -0.17100807 -0.05717589
000070 d9 47 0a be bb 4f ca bd fc 7a c0 bc 03 e3 bf bd
       -0.1350397 -0.09878489 -0.023496144 -0.09369471

module.5.running_mean f4 [32]
000000 45 fa 2a bf dd 1a 38 bf b7 5e 76 bf a2 34 9c 3f
       -0.6678813 -0.7191599 -0.96238273 1.2203562
000010 24 31 6b be c3 bc d1 be b5 dc 2d 3e 9c 25 32 c0
       -0.22967964 -0.40964326 0.16978724 -2.7835455
000020 b9 6a c4 be 9d 52 12 bf 65 2d f6 be bc 06 72 c0
       -0.38362673 -0.5715731 -0.48081508 -3.781661
000030 71 1a c5 bf a0 da 66 c0 8a e9 2a bf be f1 0c c0
       -1.5398694 -3.6070938 -0.667626 -2.2022548
000040 3f 09 23 c0 18 99 04 bf cc 18 32 c0 d8 98 d9 3f
       -2.5474393 -0.517961 -2.7827635 1.6999769
000050 35 cc 8c be 80 17 03 3e 7b a8 80 c0 bf c8 02 bf
       -0.27499548 0.12801933 -4.0205665 -0.51087564
000060 e3 c7 c4 bf 41 93 09 bf e7 5a eb be ba d7 0a c0
       -1.53735 -0.53740317 -0.4596779 -2.169417
000070 00 14 0d c0 72 a9 10 c0 6e ba 83 3e fb 3f 50 be
       -2.2043457 -2.2603421 0.25728172 -0.20336907

module.5.running_var f4 [32]
000000 30 82 1e 40 d1 77 15 40 27 67 23 40 bc 6b 2b 40
       2.476696 2.335438 2.553171 2.6784506
000010 be c3 54 40 06 f6 4e 40 f1 aa 4b 40 36 a5 32 40
       3.3244472 3.233766 3.1823084 2.7913337
000020 46 29 10 40 d4 67 67 40 8e 4b 21 40 28 e7 7f 40
       2.2525191 3.6157122 2.5202365 3.9984837
000030 57 4a 35 40 c6 c6 7d 40 56 7e 3d 40 e0 ec 63 40
       2.8326623 3.9652572 2.960836 3.5613327
000040 e0 12 74 40 8e 98 19 40 c5 b7 08 40 93 29 fa 3f
       3.813652 2.3999362 2.1362164 1.9543937
000050 53 d2 4c 40 2b eb 0b 40 15 d0 45 40 ca 60 0c 40
       3.2003372 2.1862285 3.0908253 2.1934075
000060 6d bb 42 40 9c 27 33 40 cc f1 cc 3f 02 61 3a 40
       3.0426896 2.7992926 1.601129 2.912171
000070 1e cd 46 40 f8 7e 4c 40 7d f4 dd 3f 9a b9 ef 3f
       3.1062694 3.1952496 1.7340237 1.8728516

module.8.weight f4 [64, 32, 5, 5]
000000 36 9d 75 3c 8e b4 6d 3c 06 39 e3 bc 6f 42 e0 bc
       0.014991095 0.01450838 -0.027737152 -0.027375428
000010 06 5d fd bc 77 be f2 3c ba 77 9b bc 23 cc eb 3b
       -0.030928146 0.029631836 -0.018977989 0.007195966
000020 64 fa 5e bd b8 7a 34 ba e6 6a 32 3d 7b 95 d5 3c
       -0.05443801 -0.00068847416 0.043558978 0.026072254
000030 12 fd 7b 3d 16 85 9c bb 6f af d5 3c 94 0d d6 3c
       0.061520644 -0.0047766073 0.02608463 0.026129521
000040 d3 b7 8c bb 99 d5 b0 bc f2 61 49 3c 3d a0 3b 3c
       -0.0042943745 -0.021586226 0.012291418 0.011451778
000050 09 0d 05 3d c8 47 89 3c 3d 67 06 3d 6c be 1c 3d
       0.032483134 0.01675786 0.0328133 0.038267538
000060 3e bf af 3c 29 0d de 3c ff e8 94 bb 65 fb 58 3d
       0.021453496 0.027105885 -0.004544377 0.052974124
000070 3a 45 2d 3b be e0 f3 3b a9 60 00 3d ec 1e bd 3c
       0.0026438967 0.007442563 0.031342182 0.023086034
000080 6d a1 00 bc 18 3b 18 bc 7d 7f 41 bb 66 49 af 3b
       -0.007850987 -0.009291433 -0.0029525452 0.005349326
000090 7e c0 0b 3d 3a 82 1e 3d 39 5e 82 ba 35 e8 bd 3c
       0.03411912 0.038698412 -0.0009946293 0.023182014
0000a0 6c 13 00 3d 0a d8 2a bc 3f 26 5b 3c 0b 9e 97 3b
       0.031268522 -0.010427484 0.013375818 0.0046269945
0000b0 6d 5c 2e 3d e3 fb e7 bb f4 6e 36 3c 59 a6 a3 bb
       0.042568613 -0.007079588 0.011134852 -0.0049941954
0000c0 49 b2 1f 3d 60 4a 2b 3d a0 b1 ed 3c dd bc 18 3d
       0.038988385 0.041818976 0.029015362 0.03728949
0000d0 99 e5 f4 3c 49 08 78 3c a2 bf ef 3a 38 ba a9 bb
       0.029894637 0.015138694 0.0018291364 -0.0051796697
0000e0 31 de f1 bb e4 20 62 3c fd ff 85 3c d5 de ff 3b
       -0.0073812236 0.013801787 0.016357416 0.007808546
0000f0 11 63 8e 3c f4 04 33 bc 9d 22 4f 3c cb 15 12 3d
       0.017381223 -0.010926474 0.01264253 0.035665315
000100 3f d0 87 3c 94 41 99 3c d3 e8 7a 3c 45 e4 07 bc
       0.016578792 0.018708028 0.015314299 -0.00829417
000110 7e 50 13 3c 4c 33 74 3c f8 40 7d 3b 06 a2 d1 bc
       0.008991359 0.014904808 0.003864346 -0.025589954
000120 38 c3 12 3c dc ea 8d bc b4 f1 04 3c 95 33 67 3c
       0.008957677 -0.017323904 0.008114267 0.014111419
000130 c8 28 96 3c d8 4b 84 bb 42 ec 05 bd d1 5d da bc
       0.018329993 -0.0040373616 -0.032696016 -0.026656063
000140 7d 3f 55 3d ee 4b 01 3d db ae f5 bb c1 75 90 3c
       0.0520625 0.031566553 -0.007497651 0.017634274
000150 d6 95 19 3d 51 32 85 3c b2 c8 b3 3c 22 06 7d 3d
       0.03749641 0.016259344 0.021946285 0.061773427
000160 ad a5 95 3c 74 13 db 3c 47 e5 01 bd bc 26 d2 3c
       0.018267477 0.026742674 -0.031712797 0.025653236
000170 25 b2 a9 3b 64 7c ad 3c f5 dd 14 3d 17 28 67 bd
       0.005178707 0.021177478 0.036344487 -0.056434717
000180 57 f1 18 bd 3a 58 13 3c 77 3d 3e 3d cd 1a eb 3b
       -0.037339535 0.008993203 0.046445336 0.0071748258
000190 00 6e 92 bd 52 47 3f bd 56 9e 39 bd f6 79 69 bb
       -0.07149887 -0.046698876 -0.045317017 -0.0035625673
0001a0 c1 20 c7 3c c8 e0 91 bd 6c 94 82 bd 80 51 5e bb
       0.02430761 -0.07122952 -0.063759655 -0.003392309
0001b0 0a fa 30 3c 03 19 0f 3d f7 0f ab bb cc 5d 04 bd
       0.010801801 0.034935962 -0.005220409 -0.032316014
0001c0 8b 80 25 bd d8 c5 c4 ba 98 d9 13 3d c6 a0 2c bc
       -0.04040579 -0.0015012575 0.036096185 -0.010536378
0001d0 e7 0f 58 3a 43 04 2a bd d8 61 a6 bc 1c 50 82 3c
       0.0008242116 -0.04150797 -0.020310327 0.01590734
0001e0 c0 11 c2 3b 90 2d d3 bb 2b cc 44 bd b3 03 0d ba
       0.005922526 -0.0064446405 -0.048046272 -0.00053792744
0001f0 a6 3d 56 bc ca 16 1c bb d9 21 0a bc 08 09 89 bc
       -0.013076222 -0.0023817294 -0.0084309215 -0.01672794
000200 8f 89 1a bd 54 a5 c1 bc f3 8f 53 bc 8f 4c 96 bc
       -0.037728842 -0.023638405 -0.012912738 -0.018347053
000210 a3 00 24 bd 21 e8 47 3a fc eb 03 bd 46 7b 09 bc
       -0.04003967 0.00076258375 -0.032207474 -0.008391207
000220 81 8f 24 3d 59 e1 0a bc a5 13 a8 3c ab b2 14 bd
       0.04017592 -0.008476579 0.02051718 -0.036303204
000230 ad 51 a1 3c 9e 4f ef bb 50 19 31 bb 78 94 23 bc
       0.019692266 -0.0073031923 -0.0027023144 -0.009984128
000240 27 f9 4d bd da e2 1b bc 44 4a ca bc de 1f dd bc
       -0.05028644 -0.009514535 -0.024693616 -0.026992735
000250 b3 eb 2f bd c1 7c 20 bd 70 81 76 bc 4b d3 23 3d
       -0.04294939 -0.039181475 -0.015045509 0.039996427
000260 e1 fc 8f 3c eb 15 e7 3c c4 9e 5f 3d 4b e6 10 3d
       0.017576637 0.028208693 0.05459477 0.035375874
000270 da 1b 0e 3c 25 bc 52 3c df 91 0d bc 02 ea 37 3c
       0.0086736325 0.01286224 -0.008640735 0.011225225
000280 b5 af e6 3c 1a ac be 3c 88 2f 8f 3c 77 02 08 3d
       0.028159956 0.023275424 0.01747872 0.033205476
000290 d7 f9 96 bc c0 95 86 bc 26 71 44 3c df 9a 58 bc
       -0.01842968 -0.016428828 0.011989867 -0.013220518
0002a0 d7 87 25 bd 67 3a d5 bc 1d 03 eb 3a 7a 97 96 bc
       -0.04041275 -0.026028825 0.0017930005 -0.018382777
0002b0 22 5c 0b 3c 15 f1 db bb a2 14 06 bd 91 cf 1c 3a
       0.008505853 -0.006712089 -0.03273452 0.00059818575
0002c0 41 6b ae 3c 6a b6 57 3d f7 52 db bc cb 70 04 3b
       0.021291377 0.052664198 -0.02677296 0.0020208831
0002d0 09 c4 87 bc f2 55 ec 3c 80 a5 96 3b 0e 93 a4 bb
       -0.016572969 0.028849576 0.004597366 -0.005022413
0002e0 74 95 22 3c 11 1b 43 3c bb 9b 4b bb 71 60 1b bb
       0.009923328 0.011908309 -0.0031068164 -0.0023708607
0002f0 02 79 08 bc e6 2d 73 3c de 34 9f bc 25 71 da 3b
       -0.008329632 0.014842486 -0.019434389 0.00666632
000300 81 cd 30 3d 49 38 87 bc 1a e2 5e 3c ea 65 15 3d
       0.043164734 -0.016506331 0.0136037115 0.036474146
000310 b0 af 0a 3d 30 8b 62 bc f6 44 ec bc b9 cb 00 bc
       0.033858955 -0.01382713 -0.028841477 -0.007861071
000320 8d fa 4e 3d ce f3 a3 bc 76 53 8e 3b ab cb 8e 3c
       0.050531913 -0.020013716 0.0043434454 0.0174311
000330 63 03 d0 bc e3 92 4a 3d 78 76 4b 3c e7 9e 73 3c
       -0.02539224 0.04945649 0.012418382 0.014869428
000340 70 41 dd bc 34 f4 75 ba 31 25 73 3d e1 39 5f 3d
       -0.027008742 -0.00093823974 0.05936164 0.054498557
000350 06 08 89 3b 62 b2 0d bd 52 f4 b0 bd 07 f3 1f 3d
       0.0041818647 -0.034593947 -0.086403504 0.03905013
000360 d1 a4 07 3d 41 34 a9 3c 18 86 72 3b 46 de d1 bc
       0.033116166 0.0206548 0.0037006196 -0.025618684
000370 0c 9c 40 3d c1 53 2f 3d fa 27 02 3d 1f 8b 27 3b
       0.047023818 0.042804483 0.031776406 0.00255651
000380 72 8a 85 3c ac 2c 0d 3d 7c 29 ec 3b 6e 16 38 3c
       0.016301367 0.03446643 0.0072070938 0.011235816
000390 42 16 d6 3c 76 78 4c 3d e8 90 72 3b 3c 9c a3 3c
       0.02613366 0.049919568 0.003701264 0.01997196
0003a0 ef ba 08 3d 27 08 21 3d f8 ff f0 3c 72 a4 c8 ba
       0.0333814 0.039314415 0.02941893 -0.0015307798
0003b0 43 20 0d 3d a7 64 02 3d 57 dc 2b 3d f4 89 8d 3c
       0.034454595 0.03183427 0.04195818 0.017277695
0003c0 d8 ff 31 3d 62 8a 68 3d 1d af 18 3d 74 3a 21 3d
       0.043456882 0.056772597 0.037276376 0.039362386
0003d0 ef 61 31 3d cc 10 84 bb 33 6f e0 3c 6d e5 ec 3c
       0.043306287 -0.0040303227 0.027396774 0.028917992
0003e0 8f 15 3a 3d 48 d5 65 3c 62 fa 0e 3d 3e 7f 65 bc
       0.045430716 0.014027901 0.034906752 -0.014007388
0003f0 3f 4b d5 3b fa b0 2e 3c eb a2 f8 3c ca 5a 9f bb
       0.006509214 0.010662312 0.030351123 -0.004863118

module.8.bias f4 [64]
000000 ae 2b be 3c d6 69 61 bc c5 00 31 3c 2c 5d aa bc
       0.023214187 -0.013758143 0.010803406 -0.020796381
000010 00 f1 ed ba be b8 15 bc ee af 9e 3c 1e e6 02 bd
       -0.0018153489 -0.009138284 0.019371 -0.031957738
000020 9a 80 f8 3c 2c 19 f9 bc 16 bc 06 bd c7 81 31 3c
       0.03033476 -0.03040751 -0.032894216 0.010834164
000030 37 fd 6e 3a 8f cb 36 b7 4e 92 c2 39 be 49 ff 3c
       0.00091167114 -1.089544e-05 0.0003711157 0.031163093
000040 6e dc 9b bc 3c eb e7 bc 31 ad d4 bc 6d 57 05 3d
       -0.019026008 -0.02831041 -0.02596149 0.03255408
000050 12 59 7f 3c fa 07 92 bc 66 2f db bc 14 46 d2 bc
       0.015585201 -0.01782607 -0.026756 -0.025668181
000060 b5 72 e2 ba 52 4d eb ba 36 10 f0 3c 8c 57 41 ba
       -0.0017276617 -0.001795212 0.029304605 -0.0007375411
000070 96 7a 0e bd fa 07 0b bd 50 71 e4 bc 4a bd fe bc
       -0.034784876 -0.033943154 -0.027886063 -0.03109612
000080 a1 59 06 3d 85 ae 5d 3c 16 f0 d1 3b a0 b1 9a bc
       0.03280032 0.013530378 0.0064067943 -0.018883526
000090 ba e1 75 bc 89 cf 06 3d 7c 1c 85 bb 3a 2a cc bc
       -0.015007431 0.032912765 -0.0040622335 -0.024922479
0000a0 2c 8d 82 bc 6f f9 ed bc a8 06 10 3b 8c 01 10 bd
       -0.015936457 -0.029049603 0.0021976624 -0.035157725
0000b0 d0 8b f0 bc bc e9 eb bc 04 74 2f bc 68 be 23 3c
       -0.029363543 -0.028797977 -0.010708813 0.009994127
0000c0 8e bc bc bc d9 29 00 bd 2b d8 0d bd 6a b7 b8 3b
       -0.023039129 -0.03128991 -0.034629982 0.005637099
0000d0 b3 a5 a1 b9 87 16 1f bc 32 d6 2d bc 39 4d db bc
       -0.00030831769 -0.009709961 -0.01061015 -0.026770221
0000e0 0b cb 33 bb 54 e4 3a 3b 4d fe e1 bb 97 81 67 bc
       -0.0027434255 0.0028517442 -0.00689677 -0.014130018
0000f0 67 96 dc bb 18 da 09 bd f3 55 4f bb fa de b8 bc
       -0.0067317965 -0.033655256 -0.0031636923 -0.022567261

module.9.weight f4 [64]
000000 69 a1 53 3f ef f5 68 3f 3c 0a 56 3f bb 00 5b 3f
       0.8266817 0.91000265 0.83609366 0.8554799
000010 18 40 61 3f 5f 1b 55 3f 9a 56 63 3f 39 15 76 3f
       0.87988424 0.8324489 0.8880402 0.96126133
000020 c1 e9 5c 3f 8b 2b 5c 3f f9 53 67 3f 7b 0b 4a 3f
       0.8629418 0.8600394 0.9036251 0.7892377
000030 fe a0 4d 3f ad d3 5b 3f 0b b3 6a 3f b2 ff 53 3f
       0.8032378 0.85869867 0.9167945 0.82812035
000040 fa 70 61 3f 4d 60 65 3f 2f 2e 5a 3f 8a ee 58 3f
       0.88063014 0.8960007 0.8522672 0.8473898
000050 8a 45 62 3f f9 a5 5c 3f 20 20 5e 3f 01 52 64 3f
       0.8838736 0.86190754 0.8676777 0.8918763
000060 a8 80 49 3f 81 05 5e 3f b3 9a 62 3f 1a fe 57 3f
       0.7871194 0.8672715 0.885173 0.84372103
000070 3e cd 68 3f 87 29 63 3f a3 db 71 3f 7d 89 5b 3f
       0.90938175 0.8873524 0.94475764 0.85756665
000080 82 cb 63 3f 86 70 63 3f 14 68 62 3f 70 93 68 3f
       0.88982403 0.8884357 0.8844006 0.9084997
000090 48 c9 52 3f 25 a6 55 3f 62 6b 70 3f ae 94 4d 3f
       0.8233838 0.8345664 0.93913853 0.8030499
0000a0 1e 0e 67 3f 86 fe 60 3f ef ac 59 3f fd 14 58 3f
       0.90255916 0.8788837 0.850295 0.84407026
0000b0 e4 da 6c 3f 63 c6 64 3f 34 80 60 3f 3c 07 4c 3f
       0.925215 0.89365214 0.8769562 0.7969854
0000c0 b8 5f 62 3f 31 61 61 3f 66 55 50 3f 92 9b 63 3f
       0.88427305 0.8803893 0.8138031 0.88909256
0000d0 99 3e 53 3f f0 35 74 3f 8a 7d 58 3f 05 15 64 3f
       0.8251739 0.953948 0.8456656 0.89094573
0000e0 c2 13 61 3f c7 c3 6a 3f 91 1b 54 3f df 54 59 3f
       0.87920773 0.9170498 0.82854563 0.8489513
0000f0 57 26 65 3f 04 08 70 3f 9b 66 6a 3f 07 2a 56 3f
       0.89511627 0.9376223 0.91562814 0.8365788

module.9.bias f4 [64]
000000 01 7a 53 be 09 50 0a be 5d 0a 34 be da 8c 41 be
       -0.2065201 -0.13507093 -0.17582078 -0.18901387
000010 7d 4e 4d be da cb 34 be 6b c0 37 be 57 4b 78 be
       -0.20049472 -0.17655888 -0.17944495 -0.2424749
000020 83 d9 50 be 87 51 33 be 39 62 2b be c5 2e 3b be
       -0.20395474 -0.17511569 -0.16736688 -0.1827956
000030 65 50 37 be c6 56 55 be 7c 7c 47 be ae af 28 be
       -0.17901762 -0.20833883 -0.19481081 -0.16473266
000040 7e 72 44 be 77 b2 30 be 46 3e 2b be 2e 43 2f be
       -0.191843 -0.17255579 -0.16722974 -0.17115471
000050 c5 5a 63 be f6 ee 44 be f2 e7 1c be 95 80 38 be
       -0.22202595 -0.19231781 -0.15322855 -0.180178
000060 bb ff 29 be 74 36 42 be ba 69 23 be db d2 34 be
       -0.1660146 -0.18966085 -0.159583 -0.1765856
000070 7b e5 54 be b2 c2 28 be de b7 4a be aa de 34 be
       -0.20790665 -0.1648052 -0.19796702 -0.17663065
000080 46 27 3b be bc 08 43 be 3a 3e 0f be 04 14 2e be
       -0.182767 -0.190463 -0.13988581 -0.16999823
000090 5f b7 2a be 9f fb 4b be 1e 2a 57 be 2c e6 2c be
       -0.16671513 -0.19920205 -0.2101216 -0.16884679
0000a0 37 02 69 be 91 44 30 be 41 35 38 be 96 dd 2a be
       -0.22754751 -0.17213656 -0.17989065 -0.16686091
0000b0 1e 82 59 be 24 1e 31 be df 0b 34 be 2b 12 32 be
       -0.21241042 -0.17296654 -0.17582653 -0.17389743
0000c0 fd 37 26 be 2a fa 37 be d2 b4 45 be bd f8 47 be
       -0.16232295 -0.17966524 -0.19307259 -0.1952848
0000d0 3d 54 28 be 73 62 50 be 9c 00 43 be d9 c5 35 be
       -0.16438384 -0.20350055 -0.19043201 -0.17751254
0000e0 76 dd 2c be 1a 97 54 be 6b 66 2c be e8 7b 3c be
       -0.16881356 -0.20760766 -0.16835944 -0.18406641
0000f0 e7 2c 28 be a7 aa 28 be d6 7e 59 be 5d d3 44 be
       -0.16423379 -0.16471349 -0.2123979 -0.19221254

module.9.running_mean f4 [64]
000000 f3 da 91 3e b4 82 a3 bf a1 f7 ad bf 12 2a 82 3e
       0.28487357 -1.2774262 -1.3591195 0.25422722
000010 28 15 18 c0 8f 3c 80 3d 90 7e dd be 48 7b e0 3b
       -2.3762913 0.06261551 -0.43260622 0.006850634
000020 4f bb 25 3d 99 21 4c bf 0d fb 12 c0 b0 b8 71 3f
       0.040461835 -0.79738766 -2.296573 0.94422436
000030 76 68 eb 3d 96 7b 4a 3f 0e 9e 2c c0 ed fc 04 bf
       0.11494534 0.7909483 -2.697147 -0.51948434
000040 30 14 a3 bf 1e cc 10 c0 3c 4e 88 bf ea 40 b1 3e
       -1.2740536 -2.2624583 -1.0648875 0.34619838
000050 07 fc 08 be 71 17 b3 be 96 28 2c bf 8a c7 7e bf
       -0.13377391 -0.34978822 -0.6724943 -0.9952322
000060 e6 1d f9 3e 93 c1 60 bf 54 16 e5 bf c6 68 a7 bc
       0.48655623 -0.8779537 -1.7897439 -0.020435702
000070 c1 8b 96 3f 92 2d 1b bf b8 24 ef bd 25 19 8d bf
       1.17614 -0.6061641 -0.116769254 -1.1023299
000080 fc a0 47 bf 47 f0 82 bf b9 e7 ad bf 4a a4 09 c0
       -0.7798002 -1.0229577 -1.3586341 -2.1506524
000090 b9 d4 5b bf aa cb 17 be 14 12 4e c0 a0 4d aa 3d
       -0.85871464 -0.14823785 -3.2198534 0.08315587
0000a0 e6 a5 14 be 54 47 68 bf ac 03 3c bf 6a 1b 06 bf
       -0.1451641 -0.9073384 -0.734431 -0.5238558
0000b0 90 fe 50 c0 66 90 80 bf b4 74 8a 3f ee bf 6d bf
       -3.2655373 -1.0044067 1.0816865 -0.92870986
0000c0 08 82 98 bf 54 31 a2 be 3b b1 05 be 11 5f ac be
       -1.1914682 -0.3167826 -0.1305589 -0.3366628
0000d0 6b 9b d3 3f 95 65 49 c0 c7 30 58 bf 16 68 c0 bf
       1.6531805 -3.146825 -0.8444943 -1.5031765
0000e0 f1 fb 09 c0 39 de f4 be 1a 41 b5 3f 4e 75 30 3f
       -2.1560023 -0.47825792 1.4160492 0.6892899
0000f0 2f 34 80 bf dc 5a d6 bf 1d e8 22 3e 9b 38 70 bf
       -1.0015925 -1.6746478 0.15908857 -0.93836373

module.9.running_var f4 [64]
000000 47 5a 5c 3f 04 90 67 3f 5a 64 a0 3f 33 59 62 3f
       0.8607525 0.90454125 1.2530625 0.8841736
000010 97 b1 8a 3f c6 c3 2f 3f 33 83 6b 3f 58 20 89 3f
       1.0835446 0.686581 0.9199707 1.0712996
000020 f2 ee 88 3f b9 47 66 3f 66 67 8d 3f 21 52 88 3f
       1.069792 0.8995319 1.104718 1.0650064
000030 74 09 93 3f 90 aa 51 3f 6b cf b0 3f fa 3f ad 3f
       1.148726 0.8190088 1.3813299 1.3535149
000040 7f 9a bf 3f 44 db 90 3f 13 67 52 3f 96 26 a4 3f
       1.4969023 1.1316915 0.8218853 1.2824275
000050 98 64 92 3f 64 c0 90 3f c1 c2 7a 3f 31 73 9c 3f
       1.1436949 1.1308713 0.9795342 1.2222654
000060 b7 ef 4a 3f 70 f5 7f 3f c2 c0 60 3f 69 77 84 3f
       0.79272026 0.9998388 0.87794125 1.0348941
000070 8f 7c 88 3f 35 f9 36 3f e6 ca 8f 3f 16 42 57 3f
       1.0663012 0.7147401 1.1233795 0.84085214
000080 31 fa 85 3f 70 e8 6a 3f ce a9 87 3f 40 6c 66 3f
       1.0466977 0.9176092 1.0598695 0.90008926
000090 67 11 9f 3f b0 eb 8d 3f 79 1d 9b 3f 6e 78 25 3f
       1.2427186 1.1087551 1.2118369 0.64636886
0000a0 dc e6 71 3f b0 01 83 3f b0 6a 6a 3f 58 e8 6b 3f
       0.9449289 1.023489 0.9156904 0.92151403
0000b0 b4 22 a6 3f f6 b5 88 3f e2 65 8f 3f f1 6f 4c 3f
       1.297934 1.068053 1.1202967 0.7985831
0000c0 5f da 8f 3f c2 9e 69 3f 52 65 3c 3f 7d 26 45 3f
       1.1238517 0.9125787 0.735921 0.77011853
0000d0 8d 31 96 3f 17 51 ab 3f fd 22 51 3f 73 3d 89 3f
       1.1733872 1.3384122 0.8169401 1.0721878
0000e0 00 5f 83 3f 27 ca 92 3f 89 23 58 3f 53 92 6b 3f
       1.0263367 1.1467942 0.8442922 0.9202015
0000f0 c9 3c 8d 3f e3 18 ba 3f 9c f4 97 3f c7 45 99 3f
       1.1034175 1.4538845 1.1871524 1.1974419

module.13.weight f4 [64, 1024]
000000 93 12 9c 3b 61 c6 a2 3c 4f 74 c2 3c 9d 19 63 3c
       0.0047629564 0.019869985 0.0237371 0.013861087
000010 b1 a8 3b bc e0 05 0c bb d1 86 0f 3b 7b 65 b9 bb
       -0.011453793 -0.0021365806 0.0021900425 -0.0056578494
000020 f4 44 9b 3a 96 f2 44 bc a1 47 3a bc 3f ef be 3c
       0.0011846111 -0.012020728 -0.011369617 0.02330744
000030 1c 78 32 bc d6 7e 90 bc 73 ce dd bc cd ba c2 bc
       -0.010892894 -0.017638605 -0.027075982 -0.023770714
000040 f2 55 20 3c df d6 26 bc 62 4f 43 bc 37 32 dd bc
       0.009786116 -0.010183065 -0.011920782 -0.027001483
000050 0e 9e c8 bc 86 37 48 ba dc 04 ce bc 39 2e 88 3c
       -0.024489429 -0.0007637668 -0.025148802 0.016623603
000060 fc 45 f0 3b f3 ee 8d bc 3e c8 9b 3c 1a 5d c7 3c
       0.0073325615 -0.017325854 0.019016381 0.024336386
000070 7f 60 dd bc 92 13 9b bb 8f a0 3e bc d7 07 f8 bc
       -0.027023552 -0.0047325576 -0.01163496 -0.030277176
000080 08 44 82 bc 92 73 69 3c 94 28 ff bc 5d c4 92 3b
       -0.01590158 0.0142487455 -0.031147279 0.0044789747
000090 f0 f7 b9 bc 4a 3d 80 bc 7a a3 0a bc 6c f9 fb 3a
       -0.022701234 -0.015654225 -0.008461827 0.0019224114
0000a0 74 c0 cb 3c 60 83 60 bc 3b 55 fe bc 40 29 52 bc
       0.024872042 -0.013703197 -0.0310465 -0.012827218
0000b0 8a 51 c5 3c 97 ee 3f bb d6 e9 cf bc 89 b7 ee 3a
       0.024086732 -0.0029286498 -0.025380056 0.0018212657
0000c0 13 f2 e9 39 26 08 9f 3c 5e b6 78 3c e3 d0 c7 3c
       0.00044621582 0.019413065 0.0151801985 0.024391597
0000d0 e5 00 3c 3c ce 5e 1f 3b 25 44 d0 3b d1 a1 8a 3c
       0.011474823 0.0024317983 0.0063557797 0.016922863
0000e0 55 38 38 38 a0 72 29 bc 8d 37 c4 3c 1a 0b fc bc
       4.3921482e-05 -0.01034227 0.02395227 -0.030767012
0000f0 1d 92 43 bc 09 8f 3a bb d7 05 96 bb 2b 28 9c bc
       -0.011936692 -0.0028466603 -0.004578333 -0.019062122
000100 6d 2d f8 3c c9 46 d5 bc e6 91 5b bc 25 49 f2 3b
       0.030295098 -0.02603473 -0.013401484 0.0073939734
000110 cd 0f ea 3c 2e 41 a8 bc 42 59 79 bc 26 e1 f0 3b
       0.028571988 -0.020538893 -0.015219035 0.0073510585
000120 5a c6 e7 3c cb 83 b1 3c ae 9d 71 3b 04 b2 4b bc
       0.028292824 0.02166929 0.0036867666 -0.012432579
000130 75 c5 aa 3c 11 6c 21 bc c7 54 4b 3c 2f 9b a4 3c
       0.020846108 -0.009852425 0.012410349 0.020093529
000140 1b 99 e2 3c b4 89 1f bc a9 14 1d 3c f2 e6 df bc
       0.027660897 -0.009737421 0.009587445 -0.027331803
000150 02 bc b7 3c 7b 92 04 3c 96 f7 5f bc 9b 3d 58 bc
       0.022428516 0.008091564 -0.013669869 -0.013198282
000160 38 9d 80 3b cf bd 20 3b 1b 0d a3 bc d5 3a d3 bc
       0.003924992 0.0024527197 -0.01990371 -0.02578489
000170 f4 f3 be bc 95 85 d8 bc 6f 3f 0e bc af 96 55 3b
       -0.023309685 -0.026430884 -0.008682116 0.0032591035
000180 73 89 76 bc c9 ca d8 bc 8a 31 ce 3c 56 09 b6 bc
       -0.015047419 -0.026463883 0.025170106 -0.022221249
000190 7a b8 6a 3c d7 ff 11 bc 01 c1 54 bc 93 ce 8c 3b
       0.014326209 -0.008911095 -0.012985469 0.0042970865
0001a0 a7 b6 52 bc 4a ed 9f bc d8 ba c0 3c f7 a2 02 bd
       -0.0128609305 -0.019522328 0.023526594 -0.031893697
0001b0 60 e8 eb bc 0e 05 91 bc 4c e4 83 bc ef 75 91 3c
       -0.028797328 -0.017702606 -0.016100071 0.01775643
0001c0 d5 49 34 3c a2 8d 2a bc e2 2b ea bc 6f 1d ca bc
       0.011003931 -0.010409744 -0.028585378 -0.024672238
0001d0 bd d8 0a bd c1 4e 4e bc 54 4c 1e 3c 6e 4a d4 3b
       -0.033898104 -0.012592019 0.009661753 0.0064785993
0001e0 e8 b4 aa bc f6 04 49 3c f5 a2 c9 bb 45 2c e4 bc
       -0.020838216 0.012269249 -0.006153459 -0.02785314
0001f0 34 df cd 3b 8c e4 8d bc 7d 8d d0 3c a4 e6 6a bc
       0.0062827114 -0.017320894 0.025458092 -0.014337216
000200 d7 27 ed 3c a8 17 70 bc 95 6e e5 3c 45 62 81 bc
       0.028949661 -0.014654078 0.028006831 -0.015793929
000210 47 cf 33 3b 61 69 15 3c 95 6f 6e bc b2 cb fb bc
       0.002743678 0.009119363 -0.01455297 -0.030736778
000220 17 0e df 3a 63 b3 70 3c e3 5d 01 bc dc 23 a1 3b
       0.0017017749 0.014691207 -0.0078959195 0.004917605
000230 68 5f 8f bb a0 e8 fb bb f3 51 89 3a 66 95 30 3c
       -0.004375387 -0.007687643 0.0010476693 0.010777807
000240 8d fb 00 bd 12 8b 97 bc 4c 15 e9 3b 3b d6 a0 bb
       -0.031489898 -0.018498931 0.0071131345 -0.0049083508
000250 bf 8c c5 bc 51 22 47 3c 66 81 b3 3c c5 32 1f 3b
       -0.024114965 0.012154178 0.021912288 0.0024291736
000260 19 0c 21 3b e9 92 0d 3c 9b b0 03 bd 43 a0 b4 bc
       0.002457386 0.008640983 -0.032150846 -0.022049075
000270 77 ac 99 bc 0f e2 ed 3c 8a 63 87 bc bf eb 36 bb
       -0.018758995 0.029038457 -0.016526956 -0.0027911512
000280 82 e0 fd 3b bc 5c 8a 3c 77 f2 a5 bc eb a4 d1 bc
       0.0077477107 0.016889922 -0.020257218 -0.025591334
000290 6a 9c a2 bc 48 54 7e bc 3e dc 07 bd 63 c2 f7 bb
       -0.019849975 -0.015523024 -0.033169024 -0.0075610145
0002a0 06 ad 12 3c f5 24 2e 3c 18 be 3f bc 9c 7d ff bb
       0.008952385 0.010628928 -0.011703037 -0.007796956
0002b0 cb d1 6c bc f3 5a 4c 3b 57 83 d6 3c 01 07 a6 bc
       -0.014454315 0.003118214 0.026185675 -0.020267012
0002c0 9d d4 4a bc bb 1a f7 bb ec 27 40 bc 8c a1 53 bb
       -0.0123797925 -0.0075410283 -0.011728268 -0.0032292334
0002d0 b3 48 fe bc 97 b3 fa bc 5a c8 b3 3c 7c b0 26 3c
       -0.031040525 -0.030603213 0.021946121 0.010173913
0002e0 63 8d 81 bb 62 1d 33 bc 9d 4d dc bc 1c 48 7c 3c
       -0.003953622 -0.010932298 -0.026892478 0.015398052
0002f0 a1 20 bc bb 0d c7 c0 bc e5 5a d5 bc b5 fa c1 3c
       -0.0057411944 -0.023532415 -0.026044318 0.023679117
000300 81 ed 73 bc 26 33 82 3b ea 30 c8 3c d5 a7 d9 3b
       -0.014888168 0.0039733825 0.024437387 0.0066423216
000310 1a 0a a9 3c 40 ed ff bc 26 9e bf bc e8 b8 35 bc
       0.0206347 -0.03124106 -0.02339084 -0.011091448
000320 9a 9b fa bc 5e 8c 0c bc 81 27 2c 3c 91 1c b8 bc
       -0.030591775 -0.008578388 0.010507465 -0.022474559
000330 15 33 e0 3c 49 b9 81 3c 4b e9 d7 3c cf 0c 04 bd
       0.027368108 0.015835421 0.02635636 -0.032238778
000340 bc 39 ab 3c fb 5b ec bc 9a 5e b6 3c 2e 59 49 bc
       0.020901553 -0.028852453 0.022261906 -0.0122893285
000350 42 ad f4 bb 5e 92 b0 bb 7a ac 4d bc cd d4 b2 bc
       -0.007466943 -0.005388542 -0.012553329 -0.021829987
000360 ba 48 af bc 75 97 69 3b 3e b3 92 bc 02 30 e9 3c
       -0.021396983 0.0035643254 -0.017907735 0.028465275
000370 ce 4d a1 bc b3 3b 90 3b 1a 56 bc bb 19 50 14 3c
       -0.01969042 0.004401648 -0.005747569 0.0090523
000380 e0 8d 9e 3c c5 0d 0f 3c d4 26 06 3c 5b f8 6e 3c
       0.01935476 0.00873131 0.008187968 0.01458558
000390 4a 0c 82 3c a0 ff f2 3c 22 db 5a bb 3a 07 dd 3c
       0.015875 0.029662907 -0.0033394773 0.026980985
0003a0 1a c8 bd bc cc 53 a5 bc b8 26 85 3b 7a 4b 20 3c
       -0.023166705 -0.020181559 0.0040634535 0.00978362
0003b0 42 d6 8e bc e0 33 d0 bc 17 7b 17 3b fa da 36 3c
       -0.01743615 -0.02541536 0.0023114139 0.0111606065
0003c0 b5 5d 86 3c 2f 42 fe 3a 8c 44 02 bd 16 0e 1c bc
       0.016402105 0.0019398386 -0.031803653 -0.009524843
0003d0 e7 3f bb 3c 21 b5 48 3c 0d 8b 51 3c 36 5e 82 bc
       0.02285762 0.012250216 0.0127895 -0.015914064
0003e0 b1 f5 50 3c dc 2e f1 bc 46 ff eb 3c a1 7f f8 3c
       0.01275389 -0.02944129 0.028808247 0.030334296
0003f0 c8 b4 ce 3c 10 65 28 3b 67 19 fc bc be 3b f9 bc
       0.025232688 0.0025695004 -0.030773832 -0.030423995

module.13.bias f4 [64]
000000 1f ae 9a bc fc 60 82 3c 0e 12 61 3c 47 be 84 bc
       -0.018881856 0.015915386 0.013737215 -0.016204013
000010 78 a1 b5 b9 58 97 d8 bc 23 41 a0 bc ea e9 b1 bc
       -0.00034643314 -0.026439354 -0.01956231 -0.021717984
000020 bb dc 96 3c ca c9 55 3c ca 45 0f bd 3c 45 a3 bc
       0.0184158 0.013048599 -0.034978665 -0.019930474
000030 0a b4 3b 3c fd 4e 07 bd 18 9c 00 bc a0 61 9a 3c
       0.011456499 -0.033034313 -0.007849716 0.01884538
000040 6b ea 92 bc 2c 34 8e 3c 2f 99 a6 3c 1f 79 ba bc
       -0.017934045 0.017358862 0.020336716 -0.022762833
000050 0b e7 d7 3c c2 61 ed 3a e4 72 8e 39 5c 0a 32 3c
       0.026355287 0.0018110799 0.0002716995 0.010866728
000060 10 a5 5e bc d3 59 dd 3c 74 e2 fc 3c c3 58 f5 bc
       -0.013589159 0.02702037 0.0308697 -0.029949551
000070 6c fc 16 3c a5 03 d5 bc 2b 7c d4 bc f0 4b 99 3b
       0.0092154555 -0.026002714 -0.025938114 0.004678242
000080 b9 81 95 3c e9 5b 50 bc 4a 92 f9 ba 62 41 02 bc
       0.018250333 -0.012717226 -0.001904079 -0.007950159
000090 61 d9 de 3b ad 21 f6 bb 5a 14 4e bc 7b 3c 8d bb
       0.006800816 -0.0075113387 -0.012578094 -0.0043101883
0000a0 27 45 aa 3c cf 09 65 3c 21 ca ea bb 79 00 a3 3c
       0.020784928 0.013979389 -0.007165209 0.019897686
0000b0 e9 3d 1f bc b4 84 f9 bb 69 b2 81 bc 4a 51 91 3b
       -0.00971935 -0.0076146964 -0.015832143 0.0044347392
0000c0 96 cd a2 3c bf 84 8f 3a c7 80 13 3c 7e 86 e5 bc
       0.019873422 0.0010949596 0.009002871 -0.028018232
0000d0 9a 21 e6 3c e8 7f c9 bc 55 95 28 3c f8 39 ea bc
       0.028092194 -0.024597123 0.01028951 -0.028592095
0000e0 6e 1f 15 3d 1b 0f 0e bd 2f 01 0c 3c 32 a2 d3 bc
       0.036406927 -0.034682374 0.008545204 -0.025834177
0000f0 28 f8 f1 bc ac 28 92 3c a1 33 f0 3c 09 4a 35 bc
       -0.029537275 0.01784166 0.029321494 -0.011065015
