models/xue_5.pth (torch, 587967 bytes, 10 tensors)

weight f4 [32, 3, 5, 5]
0	0xbd9a02c7	-0.07520061
1	0x3d869021	0.06570459
2	0x3d20e537	0.039281096
3	0x3d0417e7	0.032249358
4	0x3d9ad804	0.07560733
5	0x3cfe8840	0.031070828
6	0xbc498322	-0.012299331
7	0x3ccc36e8	0.024928525
8	0xbd9db06f	-0.07699668
9	0x3d8dff3c	0.06933448
10	0xbd34328d	-0.04399352
11	0xbcfd2cd9	-0.030905174
12	0xbe16cf91	-0.14727618
13	0xbd06f76b	-0.0329508
14	0xbd697820	-0.056999326
15	0xbd33d85c	-0.04390751
16	0x3d0d0c74	0.034435704
17	0xbdc435fe	-0.09580611
18	0xbd2902cc	-0.041262433
19	0xbd2a7ee3	-0.041624915
20	0xbd16b42a	-0.03679291
21	0x3d491616	0.04909333
22	0x3dc50d0e	0.096216306
23	0x3d2b7093	0.041855406
24	0x3dbb491f	0.09144806
25	0xbc95bca6	-0.018278431
26	0x3cd0f9f5	0.025509814
27	0x3d67b682	0.056570537
28	0xbc4cf071	-0.012508498
29	0xbdc31844	-0.09526113
30	0x3d1b24ae	0.037876777
31	0xb9c65867	-0.00037831368
32	0x3de4d9c7	0.1117435
33	0xbcf4168f	-0.029795913
34	0xbdc15061	-0.09439159
35	0xbd010779	-0.031501267
36	0xbd259fb8	-0.040435523
37	0xbda556d1	-0.080731995
38	0xbdc03b29	-0.09386284
39	0xbdb3255d	-0.08747361
40	0x3da525a2	0.080638185
41	0xbcc974ef	-0.024591891
42	0x3d1790d4	0.037003353
43	0xbc264876	-0.010149112
44	0x3d9e7cd4	0.07738653
45	0x3d8022ff	0.06256675
46	0x3c4ef379	0.012631291
47	0x3d0c8ead	0.034315754
48	0x3b891a46	0.0041840402
49	0xbde424f4	-0.11139861
50	0x3d3f895a	0.046761848
51	0x3d8758fc	0.06608769
52	0x3e113acc	0.14182585
53	0x3d259978	0.040429562
54	0xbd51818d	-0.05114894
55	0x3dc016f5	0.09379379
56	0x3d9ca022	0.076477304
57	0x3bfc5e78	0.0077016912
58	0x3e17dfab	0.14831416
59	0x3d71aec6	0.059004568
60	0xbd4113db	-0.047138076
61	0xbd4a1d62	-0.049344428
62	0x3dec7d81	0.115473755
63	0x3dd830c9	0.1055618
64	0xbc16095f	-0.009157508
65	0x3dc68163	0.09692647
66	0xbda7a4ab	-0.08185705
67	0xbd87ad0a	-0.066248015
68	0xbd1c8ea3	-0.038221966
69	0x3d8f6120	0.07000947
70	0x3d434dab	0.04768149
71	0xbd029755	-0.031882603
72	0xbcb4017d	-0.021973366
73	0xbdc03b51	-0.09386314
74	0x3db0be00	0.086299896
75	0x3da01225	0.07815961
76	0xbd2d26c8	-0.042273313
77	0xbd47c9aa	-0.048776306
78	0x3cf8c60c	0.030367874
79	0xbde32b05	-0.1109219
80	0xbcf84ea8	-0.030310944
81	0x3d0b8ef4	0.034071878
82	0x3d81ab74	0.0633153
83	0xbcbabe82	-0.02279592
84	0xbc0707d4	-0.008241612
85	0x3de025c6	0.10944705
86	0x3d819aac	0.063283294
87	0x3dd57a01	0.10423661
88	0xbc5a765d	-0.013333884
89	0xbdfc326d	-0.123143055
90	0xbdce623c	-0.100773305
91	0xbde049c5	-0.109515704
92	0x3bc3044c	0.00595144
93	0xbd24e0c3	-0.040253412
94	0xbd301638	-0.04298994
95	0x37830938	1.562071e-05
96	0xbd5ecbf4	-0.054393724
97	0x3d683c40	0.056698084
98	0x3ce5ca21	0.028050484
99	0x3dbc4acb	0.09193953
100	0x3de09741	0.109663494
101	0x3dbf0f8f	0.093291394
102	0x3d78bf22	0.060729153
103	0xbd8530d6	-0.06503455
104	0xbdb03ea6	-0.08605699
105	0x3d86b640	0.0657773
106	0x3c95d225	0.018288681
107	0x3dea1ff3	0.11431875
108	0xbcdf396f	-0.027249066
109	0x3c1e6024	0.009666476
110	0x3dcdb594	0.10044399
111	0xbace2d05	-0.001572997
112	0xbdef2606	-0.11677174
113	0x3d9ecb73	0.077536486
114	0x3d86480d	0.06556711
115	0xbc6e1b3b	-0.014532859
116	0xbdc74c6d	-0.09731374
117	0xbdb1e820	-0.086868525
118	0xbdecab63	-0.11556127
119	0xbe056cf8	-0.1302985
120	0x3dbf57e8	0.09342939
121	0xbddf398a	-0.108996466
122	0xbc0349c0	-0.008013189
123	0x3d78c309	0.060732875
124	0x3d40bb7a	0.04705379
125	0x3e0590ae	0.13043472
126	0x3e0b37f2	0.1359556
127	0x3d916d17	0.07100885
128	0x3d1cd429	0.03828827
129	0x3c852df5	0.016257266
130	0xbd6c6f75	-0.05772348
131	0x3d5f6806	0.054542564
132	0xbcc5addf	-0.02413076
133	0x3d379261	0.044817332
134	0x3dc35168	0.095370114
135	0xbd863959	-0.06553907
136	0x3d994792	0.07484354
137	0xbdb3e19d	-0.08783267
138	0x3d52ae0a	0.051435508
139	0xbdf01fc7	-0.11724811
140	0xbcf070a9	-0.029350596
141	0x3c1f4f4d	0.009723497
142	0xbd3f1611	-0.046651904
143	0x3a8a3899	0.0010545432
144	0xbd5334fe	-0.05156421
145	0x3dbb7475	0.09153072
146	0xbd8e2bac	-0.069419235
147	0xbd1cda5c	-0.03829418
148	0xbbb94763	-0.005654262
149	0x3cfd61a8	0.030930355
150	0x3d4db9ed	0.05022614
151	0x3e021dbe	0.12706658
152	0xbd7c0aaf	-0.061533626
153	0xbe0bc524	-0.13649422
154	0xbd8b34d5	-0.06797186
155	0xbc534259	-0.0128942365
156	0x3e0099ad	0.12558623
157	0x3ca66952	0.020313893
158	0x3db0d390	0.08634102
159	0xbd6de0e6	-0.058075808
160	0xbd124b64	-0.03571643
161	0x3e0ea729	0.13930954
162	0x3d5f41b4	0.05450602
163	0xbcffa340	-0.031205773
164	0xbe056a8b	-0.13028924
165	0x3e03ba19	0.1286396
166	0x3d8090a4	0.06277588
167	0xbd766774	-0.060157254
168	0x3dc23f80	0.09484768
169	0xbe1921b9	-0.1495427
170	0x3cffac92	0.031210218
171	0x3ba16f0a	0.004926567
172	0xbca95837	-0.020671947
173	0x3d9bdc80	0.076104164
174	0xbcf12322	-0.029435698
175	0x3e08f04a	0.13372913
176	0x3d3e13cb	0.046405595
177	0x3d16dff3	0.03683467
178	0xbc5dbabc	-0.0135332905
179	0xbb890efb	-0.004182694
180	0x3e1a2d0c	0.15056247
181	0xbc3dfb87	-0.011595613
182	0xbdcd9ffe	-0.10040282
183	0xbe08dc13	-0.13365202
184	0xbd2f74a2	-0.04283584
185	0xbd44ffbe	-0.048095457
186	0x3e165c25	0.14683588
187	0x3dd662cd	0.104680635
188	0xbddf41aa	-0.10901196
189	0x3cec1c2a	0.028822023
190	0x3ddfbc63	0.10924604
191	0xbda7e70b	-0.08198365
192	0x3d134667	0.035955813
193	0xbe05420c	-0.13013476
194	0xbe1deb7c	-0.15421861
195	0x3d9f2172	0.07770051
196	0x3dc34473	0.0953454
197	0xbd52eb38	-0.051493853
198	0xbd2cd12f	-0.04219168
199	0xbdc9adcc	-0.09847602
200	0x3dc1a498	0.09455222
201	0xbd0eb11a	-0.034836866
202	0xbd437ec9	-0.047728334
203	0xbde61da8	-0.11236125
204	0x3d910205	0.07080463
205	0x3dcdb57b	0.1004438
206	0x3cd6566e	0.02616426
207	0xbde0c9ab	-0.10975965
208	0xbe18f4cf	-0.14937137
209	0xbdf9835d	-0.12183259
210	0x3e01f6aa	0.12691751
211	0x3df55c5d	0.119805075
212	0xbda81c5a	-0.08208533
213	0x3c73e6d6	0.014886579
214	0x3d49fdcd	0.04931431
215	0x3db2444b	0.08704432
216	0xbdca63f2	-0.09882344
217	0x3d87d189	0.066317625
218	0x3d28f967	0.041253474
219	0xbe10ef5d	-0.1415381
220	0x3c4f946d	0.012669665
221	0x3daba1d6	0.08380477
222	0x3c057ab4	0.0081469305
223	0xbde97dd3	-0.11400952
224	0xbdfa69c0	-0.122272015
225	0xbcd50b6c	-0.026006423
226	0xbcd5fee9	-0.026122527
227	0xbce5f178	-0.028069243
228	0xbdb4321d	-0.08798621
229	0xbc476070	-0.012168989
230	0x3caeb293	0.021325385
231	0xbcddc7e3	-0.027072852
232	0x3d860798	0.06544417
233	0x3c343d98	0.011001013
234	0xbcf06ea5	-0.029349634
235	0xbd8a8d00	-0.06765175
236	0xbdd8fc0d	-0.1059495
237	0xbd80ca25	-0.06288556
238	0x3da66892	0.08125414
239	0x3b8ec8cc	0.004357433
240	0xbb41bd22	-0.0029562195
241	0xbd90c452	-0.07068695
242	0xbe246562	-0.160543
243	0xbe0afaed	-0.13572283
244	0xbc72875a	-0.014802778
245	0x3d704698	0.058661073
246	0xbdca73a2	-0.098853365
247	0xbd8bb42d	-0.06821475
248	0x3cd9ff0e	0.026610877
249	0xbd7fa5da	-0.062414028
250	0xbda1d5ce	-0.07902108
251	0xbd988bc3	-0.074485324
252	0x3d842373	0.06452074
253	0xbd4453b5	-0.04793139
254	0xbd0a2c9d	-0.033733953
255	0x3dcb3a6f	0.09923255

bias f4 [32]
0	0xbd9b131d	-0.07572005
1	0xbe191215	-0.14948304
2	0x3d360d10	0.04444605
3	0xbdec4801	-0.11537171
4	0xbe7dcf54	-0.2478612
5	0xbe9827f9	-0.29717997
6	0x3d714d55	0.05891164
7	0x3d522646	0.05130603
8	0xbd724ee8	-0.059157282
9	0xbcf01843	-0.029308444
10	0xbe53adc1	-0.2067175
11	0xbe3a4120	-0.18188906
12	0xbe69ea06	-0.22843179
13	0xbdbe5d43	-0.09295132
14	0x3c2fb5b1	0.010724471
15	0x3e106864	0.14102322
16	0xbd34988c	-0.044090793
17	0xbc23f648	-0.0100074485
18	0xbdfa2965	-0.12214927
19	0xbe82ea70	-0.25569487
20	0x3afa1a04	0.001908124
21	0x3de364fc	0.111032456
22	0xbdc36c6a	-0.09542163
23	0x3e4cf2b2	0.20014456
24	0x3d871a52	0.06596817
25	0x3de3958c	0.11112508
26	0x3d2c70bd	0.042099703
27	0x3d8467d6	0.06465118
28	0x3d94e481	0.07270146
29	0xbc82e55e	-0.015978511
30	0x3e07306d	0.13202067
31	0x3cebbb00	0.028775692

weight f4 [32, 32, 5, 5]
0	0x3cca16ca	0.02466907
1	0x3bf45038	0.007455852
2	0x3ca0e628	0.019640997
3	0x3d14e4a4	0.03635086
4	0x3c799287	0.015232689
5	0xbc8e2ad0	-0.017354399
6	0x3c84bead	0.016204203
7	0x3cac1e84	0.021010645
8	0xbcbff7fc	-0.023433678
9	0xbc8aa959	-0.016926454
10	0xbc671d16	-0.014106056
11	0x3d229efa	0.039702393
12	0x3bedff9e	0.007263138
13	0xbc47588b	-0.012167106
14	0x3d18a103	0.037262928
15	0x3caaa533	0.020830726
16	0xbac8ad25	-0.001531039
17	0x3c3b28b8	0.011423282
18	0x3c95d572	0.018290255
19	0xbc9880b9	-0.018616067
20	0x3d008747	0.03137901
21	0x3ca0b3ec	0.019617043
22	0xbc38bc61	-0.011275382
23	0x3c8d5f3c	0.017257325
24	0xbc5c2505	-0.0134365605
25	0x3d070ea6	0.032972954
26	0xb96323c3	-0.00021661729
27	0x3cd9417f	0.026520489
28	0x3b15f8b0	0.0022883825
29	0x3c134ff7	0.008991233
30	0xbcab26ba	-0.02089249
31	0x3cebc051	0.028778227
32	0xbbce9f8f	-0.006305642
33	0x3d1cbcff	0.03826618
34	0x3cbde813	0.02318195
35	0xbb6564c0	-0.0035002679
36	0x3d2ae736	0.041724406
37	0x3bf44cc6	0.007455441
38	0x3bfd1db4	0.007724488
39	0xbcb015ff	-0.021494864
40	0x3c162fd4	0.009166677
41	0x3d140941	0.036141638
42	0xbc51eab3	-0.012812304
43	0xbd020397	-0.031741705
44	0xbccfc652	-0.025363121
45	0xbc29f3f3	-0.010373103
46	0xbcb6d1fe	-0.022316929
47	0x3ce51577	0.027964337
48	0x3d39b7c9	0.045341287
49	0x3d040482	0.03223086
50	0x3c2635dd	0.010144678
51	0x3bbd89e4	0.00578426
52	0xbcb716ab	-0.022349676
53	0xbc2b4854	-0.010454256
54	0xbc85cdba	-0.01633345
55	0x39657e0c	0.00021886098
56	0xbc0e4d3e	-0.008685408
57	0x3a8a8b16	0.0010570015
58	0x3d0e6699	0.034765813
59	0x3b92b37f	0.004476964
60	0x3bed8b06	0.007249239
61	0x3cd63559	0.026148485
62	0x3c61fddb	0.013793434
63	0xbb2e3034	-0.0026579024
64	0xb92543fc	-0.00015760952
65	0x3c8b33d0	0.01699248
66	0x3bed6d21	0.007245675
67	0xbc352268	-0.011055566
68	0x3c9334f2	0.017969582
69	0x3c918eed	0.017768348
70	0x3bba7f4f	0.005691446
71	0xbcee9a44	-0.029126294
72	0x3c862a24	0.016377516
73	0x3c90ac6f	0.017660348
74	0x3c871007	0.016487135
75	0xbd114e90	-0.035475314
76	0x3c71a8e8	0.014749743
77	0x3b8d62a3	0.004314737
78	0xba3361e1	-0.0006842893
79	0x3ca45e66	0.020064544
80	0x3c9a8ff7	0.018867476
81	0x3d066ed4	0.032820538
82	0xbd0b69fb	-0.034036618
83	0xbd034b1c	-0.03205405
84	0x3ce1e11d	0.027573163
85	0x3caa405f	0.020782648
86	0x3c04a64d	0.00809629
87	0x3c94f4c1	0.018183114
88	0xbc9b3258	-0.018944904
89	0x3cf4bf06	0.029876243
90	0x3d041432	0.032245822
91	0x3d0a602a	0.033783115
92	0x3d1fd458	0.039020866
93	0x3d06ed41	0.032941107
94	0xbd0423fd	-0.032260884
95	0xbc2be912	-0.01049258
96	0x3bb2b321	0.0054534827
97	0xbca09161	-0.019600572
98	0x3d162715	0.036658365
99	0x3ba22801	0.0049486165
100	0x3c35a429	0.011086502
101	0x3c1fa6ef	0.00974439
102	0xbbc6e2d6	-0.0060695214
103	0x3c7f38ee	0.015577538
104	0x3cd54782	0.026035074
105	0x3d032480	0.03201723
106	0x3bac8d38	0.005265858
107	0xbcf8019f	-0.03027421
108	0x3c6ebab4	0.014570881
109	0xbca41471	-0.020029278
110	0x3d0317c7	0.032005098
111	0x3c83b909	0.016079443
112	0x3bc64864	0.00605111
113	0xbc7dcbe5	-0.015490507
114	0xbcb87430	-0.02251634
115	0xbcc6b84b	-0.0242578
116	0xbc56fc30	-0.01312165
117	0xbbf123b8	-0.0073589943
118	0x3cd511a7	0.026009394
119	0x3c55288a	0.013010154
120	0x3d0cbb6a	0.03435842
121	0x3d2067ca	0.03916148
122	0xbbe813f6	-0.0070824577
123	0xbc5cf846	-0.013486927
124	0xbcd9fbd6	-0.026609343
125	0xbb663080	-0.0035124123
126	0x3d0a4819	0.033760164
127	0x3d3873ca	0.0450323
128	0x3d29641c	0.041355237
129	0x3c81ee74	0.015860774
130	0x3cd3ec1b	0.02586942
131	0x3d0598cf	0.032616433
132	0xbc97c1a0	-0.018524945
133	0xbc0836e3	-0.008313867
134	0xbc558b25	-0.013033663
135	0x3c75f809	0.0150127495
136	0x3d24012e	0.040040188
137	0x3c9399eb	0.01801773
138	0x3b88b459	0.0041718897
139	0x3c7f1210	0.015568271
140	0x3cb91cb5	0.022596696
141	0x3bd79a5b	0.00657968
142	0xbc7ce780	-0.015436053
143	0x3aa1ae4b	0.0012335269
144	0xbc8553d1	-0.016275318
145	0x3c965ba4	0.018354245
146	0xbcb36406	-0.02189828
147	0xbbd7683c	-0.006573705
148	0xbba46c75	-0.005017812
149	0xbc19a88e	-0.0093785655
150	0xbd1d4104	-0.03839208
151	0x3be89f99	0.0070991036
152	0x3c25c855	0.010118564
153	0x3c8734fb	0.016504755
154	0x3c4e168f	0.012578621
155	0x3cdb4d49	0.02677025
156	0x398bf26d	0.00026692767
157	0x3d416377	0.047213998
158	0xbc0f8b52	-0.008761244
159	0x3c1a9bbc	0.009436544
160	0xbcb3f4f5	-0.02196739
161	0x3d1381fc	0.036012635
162	0x3cd7009b	0.026245406
163	0xb8eb6668	-0.00011224748
164	0xba726dfc	-0.00092479563
165	0x3c1614a0	0.009160191
166	0x3d504444	0.050846353
167	0x3cbcf4f0	0.023066014
168	0xb9ccedb6	-0.0003908702
169	0xba67f6b5	-0.0008848713
170	0x3cf5e3b6	0.030015808
171	0x3d658df2	0.056043573
172	0x3d3af99b	0.0456482
173	0x3d2bf8ea	0.04198543
174	0xbc4cb35d	-0.012493935
175	0x3c69ca1a	0.014269376
176	0x3d424a2a	0.04743401
177	0x3c19cba0	0.009386927
178	0xbc5dfc11	-0.013548867
179	0x3c990d2c	0.018683039
180	0x3d36c3c7	0.0446203
181	0xbc12fa6a	-0.008970836
182	0x3d52743e	0.05138039
183	0x3c8b3370	0.0169923
184	0x3d353d2e	0.0442478
185	0x3d07ca4a	0.033151902
186	0x3cdb0168	0.026734069
187	0x3d09bc18	0.033626646
188	0x3bc07191	0.005872913
189	0x3bfdc3b0	0.007744275
190	0x3ce2aa14	0.02766899
191	0x3cb76fac	0.022392116
192	0xbc48c2fe	-0.012253521
193	0x3cf80dfe	0.03028011
194	0x3c461311	0.012089507
195	0x3c9a23bc	0.018815868
196	0x3d06b3c0	0.032886267
197	0x3c8f7cb8	0.017515525
198	0x3cfd0eb5	0.030890802
199	0xbc900012	-0.017578159
200	0xbba9a978	-0.005177673
201	0xbc6dc8ab	-0.014513175
202	0x3bc9823c	0.0061495584
203	0x3c5f2784	0.013620261
204	0x3cac2db6	0.02101789
205	0xbc9a2eac	-0.018821083
206	0x3ce73146	0.028221738
207	0x3d18b6c9	0.037283693
208	0x3c8fbe5b	0.017546823
209	0xbc2c9329	-0.010533133
210	0xbc31e52a	-0.01085786
211	0xbc5c36df	-0.013440817
212	0x3b7f606e	0.0038967389
213	0xbb44f7e6	-0.0030054986
214	0xbbe7eabe	-0.007077544
215	0x3d2c2d83	0.04203559
216	0x3d80d55b	0.06290694
217	0x3d7c3bf6	0.06158062
218	0x3d80ac62	0.062828794
219	0x3c8970d6	0.016777437
220	0x3d40c3db	0.047061782
221	0x3c98e42a	0.018663485
222	0x3c40a3e5	0.0117578255
223	0xbca6006d	-0.020263875
224	0xbcde196b	-0.02711173
225	0x3d04f58d	0.032460738
226	0x3ce3ee48	0.027823582
227	0x3ccb2438	0.024797544
228	0x3cda738b	0.026666423
229	0xbced57ff	-0.028972624
230	0x3a97d00f	0.0011582392
231	0x3ce455de	0.027872976
232	0x3d128072	0.035767026
233	0x3ca85e74	0.020552851
234	0x3b26f97e	0.0025478299
235	0x3cb495c6	0.022044074
236	0x3c90a0df	0.017654834
237	0x3b1d55a0	0.0024007335
238	0xbc94f201	-0.018181803
239	0xbbc239fd	-0.005927323
240	0x3d4883b8	0.04895374
241	0x3d479f75	0.048736054
242	0x3d3de315	0.04635914
243	0x3d115a88	0.035486728
244	0x3ce91535	0.028452495
245	0xba903ecd	-0.0011005044
246	0x3c97ebfd	0.018545145
247	0x3d0e8194	0.034791544
248	0x3c304599	0.010758781
249	0xbc7744d5	-0.015092094
250	0x3bfa2106	0.007633331
251	0x3cc39536	0.02387486
252	0xbc2ce34a	-0.010552237
253	0xbbc4b8ad	-0.0060034604
254	0x3cd452a8	0.02591832
255	0x3c31b7dd	0.010847059

bias f4 [32]
0	0xbd486f8c	-0.048934504
1	0xbcefe12d	-0.029282177
2	0xbc8caca8	-0.017172173
3	0xbd9286ca	-0.07154615
4	0xbd5ec967	-0.05439129
5	0x3d26655f	0.04062402
6	0xbdd3c17a	-0.10339637
7	0xbd3110d8	-0.043228954
8	0xbd42f890	-0.04760033
9	0xbd2f1d3d	-0.042752493
10	0xbdd43db6	-0.10363333
11	0xbc959130	-0.018257707
12	0xbd1e10f9	-0.038590405
13	0xbcee085f	-0.029056726
14	0xbcc3ed26	-0.023916792
15	0x3c96eb85	0.018422851
16	0xb9d47eca	-0.00040530256
17	0x3d229e0d	0.03970151
18	0xbb0c8c64	-0.0021445984
19	0xbcd568ad	-0.02605089
20	0xbc900dd2	-0.017584715
21	0xbc90f094	-0.017692842
22	0xbbc1b48b	-0.005911415
23	0x3d3677fb	0.044548016
24	0x3d119a6a	0.03554765
25	0xbd4225aa	-0.0473992
26	0xbc3d6886	-0.011560565
27	0xbca661b3	-0.020310258
28	0xbc52df51	-0.012870626
29	0xbab17e7d	-0.0013541725
30	0xbca3e029	-0.020004349
31	0x3ca23c62	0.019804183

weight f4 [64, 32, 5, 5]
0	0xbcacafd2	-0.021079931
1	0xbc665562	-0.014058443
2	0xbc4c3627	-0.012464083
3	0xbca1f36e	-0.019769397
4	0xbcabdfee	-0.020980801
5	0x3d0afa53	0.033930134
6	0x3ae37014	0.0017352127
7	0x3cb9c04c	0.022674702
8	0x3b1c4e59	0.002385041
9	0x3cb3ba2a	0.021939356
10	0xbcca1d0f	-0.02467206
11	0xbc7a5e14	-0.015281219
12	0xbc477548	-0.012173958
13	0x3cde1b55	0.027112642
14	0xbd0696af	-0.032858547
15	0xbcfe1ff1	-0.03102109
16	0xbd06d85d	-0.032921184
17	0xbcbf6c43	-0.023367053
18	0xbc884341	-0.016633632
19	0x3b93e437	0.0045132893
20	0x3c56639e	0.013085274
21	0x3c797f16	0.015228054
22	0xbc63d3bf	-0.013905465
23	0x3cf8b9d7	0.030362053
24	0x3c80e8fa	0.015736092
25	0xbcc2b64f	-0.023768572
26	0x381357f0	3.512943e-05
27	0xbc829ce1	-0.015943946
28	0xbd15bf85	-0.0365596
29	0xbcc6853d	-0.024233455
30	0x3cfb3522	0.030664984
31	0x3bd91176	0.006624396
32	0x3c907f9a	0.01763897
33	0xbb64ca23	-0.0034910522
34	0xbccb9a00	-0.024853706
35	0x3cbe24ed	0.023210967
36	0x3ab10b2c	0.0013507358
37	0x3c91598b	0.017742893
38	0x3bae7efe	0.0053251972
39	0xbc757062	-0.014980407
40	0xbcc8be52	-0.024504814
41	0x3cec7c93	0.028867995
42	0xbc8ed06d	-0.01743337
43	0xbc496083	-0.012291077
44	0xbad6927c	-0.001637056
45	0x3b890dd2	0.0041825557
46	0xbc39bcc1	-0.011336506
47	0xbd0d815e	-0.034547202
48	0x3c593e15	0.01325943
49	0xbcfe8ccc	-0.031072997
50	0x3bbfd2c3	0.005853982
51	0xbcd6e91d	-0.026234204
52	0x3c769eaa	0.015052477
53	0xbca5a0cc	-0.020218275
54	0x3cdfd93c	0.027325265
55	0x3bcf40f1	0.0063248803
56	0xbcfb6e0d	-0.030692125
57	0x3c2d4f26	0.0105779525
58	0x3cb334e1	0.0218758
59	0x3c48ed4f	0.01226361
60	0xb99b7786	-0.00029652956
61	0x3d136580	0.03598547
62	0xbce7faac	-0.028317772
63	0x3c8e2082	0.017349485
64	0x3d006a2a	0.031351246
65	0xbceb3c25	-0.028715203
66	0x3be643b3	0.0070271133
67	0x3bb936ec	0.005652299
68	0xbcffa02e	-0.03120431
69	0x3d008a82	0.03138209
70	0x3cdf94bd	0.027292604
71	0xbd0018ac	-0.03127353
72	0x3c19a45e	0.009377567
73	0x3cb913dc	0.022592478
74	0x3caf2e1d	0.021384293
75	0xbcbf4594	-0.023348607
76	0xbd016c1e	-0.03159725
77	0xbca31cdf	-0.019911228
78	0x3d112585	0.035436172
79	0xbb3b2da0	-0.002856113
80	0x3c2a54eb	0.010396223
81	0xbd129b10	-0.03579241
82	0x3bdfdae7	0.006831515
83	0x3caa0679	0.02075504
84	0x3cb5e949	0.022205966
85	0xbcdff58d	-0.027338767
86	0xbc9b68dd	-0.018970901
87	0x3d1e3836	0.038627826
88	0x3bcde557	0.006283443
89	0xbcd5669e	-0.026049908
90	0x3c8ffdb6	0.017577033
91	0x3cca5237	0.024697406
92	0x3cc92557	0.024553938
93	0x3bd2feb5	0.006439055
94	0x3c461ba8	0.012091555
95	0xbc35ae14	-0.011088867
96	0xbc7ed310	-0.015553251
97	0x3cbd9d55	0.02314631
98	0xbcf28c17	-0.029607816
99	0x3ceb68b6	0.028736454
100	0x3c3aff53	0.011413413
101	0x3d2bd10e	0.041947417
102	0x3d26db6b	0.040736597
103	0xbc9249c4	-0.01785744
104	0xbd0db55b	-0.034596782
105	0xbc2f33f5	-0.01069354
106	0x3c8c18bb	0.017101636
107	0x3befe058	0.007320445
108	0x3cf47bfa	0.029844273
109	0xbd049c4f	-0.03237563
110	0x3bd63943	0.006537588
111	0x3bd7f55b	0.006590528
112	0x3cda6335	0.026658634
113	0xbcdbc984	-0.026829489
114	0xbcfec4b4	-0.031099655
115	0x3cfe5b4d	0.031049395
116	0x3cc28c3f	0.023748515
117	0xbc6714b2	-0.014104055
118	0x3c00be87	0.007857925
119	0x3c0ffbb2	0.008788036
120	0x3c12ee5b	0.008967961
121	0x3d2be148	0.04196289
122	0x3cf39adc	0.029736929
123	0x3d08942f	0.033344444
124	0x3cf9fe9a	0.030516911
125	0x3c5d7321	0.013516218
126	0x3ce4bbfb	0.027921667
127	0x3c07287f	0.008249401
128	0x3c8cbbc9	0.017179387
129	0xbc16c87f	-0.009203075
130	0xbcf2ee4e	-0.029654648
131	0x3d2d1f35	0.04226609
132	0x3ceade47	0.028670443
133	0xbc78ee10	-0.015193477
134	0x3c5b9c9b	0.013404037
135	0xbbd91795	-0.0066251257
136	0xbc9f0d91	-0.019415649
137	0xbbb6fbe2	-0.005584226
138	0xbb86b759	-0.004111212
139	0x3c8b5ab9	0.017011033
140	0xbb90ca31	-0.0044186343
141	0xb98141f7	-0.00024653945
142	0xbc7b9385	-0.015354996
143	0xbc91c5c5	-0.0177945
144	0xbcbd2880	-0.023090601
145	0x3d0a01a9	0.03369299
146	0x3d19914d	0.037492085
147	0xbce47a78	-0.027890429
148	0x3cf16b0c	0.02946999
149	0xbd01d9b5	-0.031701762
150	0x3c6c71e1	0.014431448
151	0xbcb4c3f9	-0.022066103
152	0x3bca3a57	0.0061715054
153	0xbbe74219	-0.00705744
154	0xbd06a1ed	-0.03286927
155	0x3caf8f4e	0.021430638
156	0x3c401ad0	0.011725143
157	0xbcbd9e60	-0.023146808
158	0xbcf07c4b	-0.029356143
159	0x3c91f8bf	0.017818807
160	0x3c10a1a9	0.008827605
161	0xbd244c08	-0.04011157
162	0xbb4de368	-0.0031416062
163	0xbcb5f7ce	-0.022212889
164	0xbc3ba600	-0.011453152
165	0x3c0cb6d2	0.00858851
166	0xbc70b2ab	-0.014691035
167	0x394083d2	0.00018359654
168	0x3c37c083	0.011215332
169	0xbd09ce76	-0.033644162
170	0xbd08e1a5	-0.033418316
171	0xbd19a561	-0.037511233
172	0x3d00f29b	0.031481367
173	0xbcaa0591	-0.020754607
174	0x3cbf3471	0.023340436
175	0x3c44d761	0.012014241
176	0xbcf014d0	-0.0293068
177	0xbc4dfb24	-0.012572084
178	0x3aa0cec6	0.0012268655
179	0xbd1d9192	-0.038468905
180	0xbcfdbb6b	-0.030973157
181	0xbd1e1afe	-0.03859996
182	0xbc1ae65a	-0.009454334
183	0xbb9e5916	-0.004832397
184	0x3d079207	0.033098247
185	0x3d06afb0	0.032882392
186	0xbd1c8fdf	-0.038223144
187	0xbc9d5098	-0.01920347
188	0x3d18c416	0.037296377
189	0xbcab9c4e	-0.020948555
190	0x3a9b13ce	0.0011831464
191	0xbcb32667	-0.021868898
192	0x3c265882	0.010152938
193	0x3ca1179d	0.01966458
194	0x3be32ec0	0.0069330633
195	0xbbb9f50c	-0.005674964
196	0x3c924a23	0.017857617
197	0x3ba487a5	0.005021053
198	0xbb1b7f44	-0.002372698
199	0x3cc2e308	0.023789898
200	0xbb2e8ade	-0.0026633064
201	0xbcc26eed	-0.023734534
202	0x3cfb3379	0.030664193
203	0xbc1480c1	-0.0090639
204	0x3bf76fde	0.0075511774
205	0xbc901693	-0.01758889
206	0xbcecb611	-0.02889541
207	0xbbc9cb4b	-0.0061582676
208	0x3ccf9f39	0.025344478
209	0xbce9ba21	-0.028531136
210	0xbb10583a	-0.0022025243
211	0xbc7ce6b9	-0.015435868
212	0x3cfeeb4c	0.031118058
213	0xbcac1564	-0.021006294
214	0x3c8656fe	0.016398903
215	0x3b8a32bf	0.004217475
216	0xbcc95da3	-0.024580782
217	0x3cd6b3b5	0.026208738
218	0x3ce2617c	0.027634375
219	0xbcabd9d1	-0.020977886
220	0xbc283377	-0.010266176
221	0x3c9866de	0.018603738
222	0x3bc4d776	0.0060071303
223	0x3c7d86da	0.015474046
224	0xbb8e1bd0	-0.0043368116
225	0xbca1daa2	-0.019757573
226	0x3be02541	0.0068403785
227	0xbc74b466	-0.014935588
228	0x3ce1e74e	0.027576115
229	0xbcfe47a5	-0.031040022
230	0xbadfb01b	-0.0017066033
231	0xbaebe1a8	-0.0017996328
232	0x3d13dbe9	0.036098395
233	0x3cafabab	0.021444162
234	0x3d0d5689	0.034506354
235	0xbc8173de	-0.01580232
236	0xbc2dea2a	-0.010614911
237	0x3d183d4d	0.037167836
238	0xbcf44d04	-0.02982188
239	0x3bb1abe1	0.005422101
240	0xbd1aa4ea	-0.03775493
241	0x3c3a2b6b	0.011362891
242	0xbbc032cd	-0.005865431
243	0xbc6de40d	-0.014519704
244	0xbd0f6f3a	-0.035018183
245	0xba4d44d2	-0.00078303844
246	0xbb916224	-0.004436748
247	0x3cff4e38	0.031165227
248	0x3bb9eee1	0.0056742285
249	0xbafd73a7	-0.0019336835
250	0x3c61444f	0.013749196
251	0x3b87907d	0.0041370974
252	0x3c68b0da	0.014202321
253	0x3cfc59b3	0.03080449
254	0xbc2432f2	-0.010021912
255	0xbc8ab50b	-0.016932031

bias f4 [64]
0	0xbbdaeb79	-0.0066809026
1	0xbce3fc52	-0.027830277
2	0xbd364626	-0.044500493
3	0x3d05d70b	0.032675784
4	0xbd75950c	-0.059956595
5	0x3c004b89	0.007830509
6	0xbcb0a4e4	-0.021563001
7	0x3b72984a	0.003701704
8	0xbcdd421c	-0.027009062
9	0xbd443afd	-0.047907818
10	0x3c710e50	0.014712885
11	0xbd0e3e30	-0.034727275
12	0xbc44b649	-0.012006351
13	0xbc9bfc05	-0.01904107
14	0xbcf983cb	-0.030458352
15	0x3c92a9d0	0.017903239
16	0xbcc44242	-0.023957375
17	0x3be9b79c	0.0071324836
18	0xbd568e03	-0.052381527
19	0x3d47eb8d	0.048808623
20	0xbc77f356	-0.015133699
21	0xbc7edd12	-0.015555637
22	0xbd1eeb28	-0.03879848
23	0xbc9df80c	-0.019283317
24	0xbd8c0c27	-0.068382554
25	0xbd338888	-0.04383138
26	0xbcd299da	-0.025708128
27	0xbd1b7633	-0.03795452
28	0x3cdb079b	0.026737025
29	0xbb6bec02	-0.0035998826
30	0x3ce9b058	0.02852647
31	0xbcb0463a	-0.021517862
32	0xbb5f1b92	-0.0034043533
33	0xbc1ac517	-0.009446404
34	0xbd07560b	-0.03304104
35	0x3d5de662	0.05417479
36	0xbcfcba2c	-0.030850492
37	0x3d1dca14	0.038522795
38	0xbc0b139a	-0.00848856
39	0x3c3e9589	0.011632332
40	0xbd2ab05a	-0.04167209
41	0xbd6c3fb0	-0.057677925
42	0xbc9a9e21	-0.01887423
43	0xbc01f734	-0.007932473
44	0xbd84a1e8	-0.06476194
45	0x3c1983ea	0.00936983
46	0x3c285810	0.010274902
47	0x3d1e10e5	0.03859033
48	0xbd005e7d	-0.03134011
49	0xbd4ce41b	-0.050022226
50	0xbbb4117f	-0.0054952498
51	0xbca5555a	-0.0201823
52	0x3c6b239f	0.014351754
53	0x3c317c4d	0.010832858
54	0xbd3067dc	-0.043067798
55	0xbb3258e2	-0.0027213623
56	0xbb01144d	-0.0019695938
57	0x3bc9b9c2	0.0061561773
58	0x3bb477ac	0.00550743
59	0x3d0ae973	0.03391404
60	0x3d0168b9	0.031594012
61	0x3c86228e	0.016373899
62	0x3c405bc7	0.011740631
63	0x3cbf9054	0.02338425

weight f4 [64, 1024]
0	0xbc6efd27	-0.014586723
1	0x3cdfbf1c	0.027312808
2	0x3c46136f	0.012089594
3	0x3cd35fdf	0.02580255
4	0x3c9a1bd0	0.01881209
5	0x3c7dbd37	0.015487007
6	0x3cc8baec	0.024503194
7	0xbccc8c45	-0.02496923
8	0x3c679921	0.01413563
9	0xbd11ce40	-0.035597086
10	0xbbb5810f	-0.0055390666
11	0xbcf99f9f	-0.030471621
12	0xbc318205	-0.010834222
13	0xbcc7e16e	-0.024399485
14	0x3cbbcc0f	0.022924451
15	0x3c973c2c	0.01846131
16	0x3b489d62	0.0030611386
17	0xbc1d3cef	-0.009597047
18	0xbc87267b	-0.016497841
19	0x3ba8dc01	0.0051531796
20	0x3ca9ae1e	0.020712908
21	0xbc28c74c	-0.010301422
22	0x3cd3ce34	0.025855161
23	0x3cc43137	0.023949249
24	0x3d100db6	0.035169326
25	0x39ea21f2	0.0004465725
26	0x3cdd2dec	0.026999436
27	0x3cefd09f	0.029274283
28	0x3cffc7eb	0.031223258
29	0x3b753431	0.0037415142
30	0x3b905595	0.0044047334
31	0xbc6442c4	-0.013931934
32	0x3c8f9e96	0.017531674
33	0x3c1154d5	0.008870323
34	0xbc2d1503	-0.010564092
35	0xba5f29c1	-0.0008512997
36	0xbc05d13c	-0.008167561
37	0xbc9fc01f	-0.01950079
38	0x3c9d7d3a	0.019224752
39	0xbc95db21	-0.018292965
40	0x3ca3789e	0.019954976
41	0x3afd6076	0.0019331116
42	0xbcaaf2a0	-0.020867646
43	0x3ca5f16c	0.02025672
44	0x3bbd6beb	0.005780687
45	0xbca86d55	-0.020559946
46	0xbc5c556f	-0.013448103
47	0x3c29c702	0.010362389
48	0xbc4989d6	-0.012300929
49	0x3c908cbd	0.017645234
50	0x3ce9f85a	0.028560806
51	0x3c5f2797	0.013620279
52	0xbcd3d785	-0.025859604
53	0xbca25bdd	-0.019819194
54	0xbc856eb7	-0.016288145
55	0x3c651945	0.0139830755
56	0x3cbd86da	0.023135591
57	0x3d2630fc	0.04057406
58	0x3bf207aa	0.0073861675
59	0xbc11178f	-0.008855714
60	0x3d232090	0.039825976
61	0xbce9cfb7	-0.028541429
62	0xbca3a19f	-0.019974528
63	0xbca3eebe	-0.020011302
64	0xba9c4222	-0.0011921565
65	0xbc2e29af	-0.010630055
66	0xbcd4092f	-0.025883285
67	0x3cc29276	0.023751479
68	0x3cdf500f	0.027259855
69	0xbcdedf33	-0.027206039
70	0xbbb0e587	-0.0053984555
71	0xbcf5c21b	-0.029999783
72	0x3c6b59b5	0.01436465
73	0xbcf993e4	-0.030466028
74	0x3c7d54c5	0.015462105
75	0xbc39cb6e	-0.011340005
76	0xbd031359	-0.032000873
77	0x3c61a8ba	0.013773138
78	0x3c93f713	0.01806215
79	0xbc0875dd	-0.008328882
80	0x3cab8463	0.02093715
81	0x3c8b7dfd	0.01702785
82	0x3cc17e14	0.023619689
83	0x3aa2af22	0.0012411813
84	0xbcab0b74	-0.020879485
85	0x3c8533e7	0.0162601
86	0x3d02c1a1	0.03192294
87	0x3cb6eebd	0.022330636
88	0xbd0c24e1	-0.034214858
89	0x3cacbb3e	0.021085378
90	0xbc35fa97	-0.011107109
91	0xbafd4e92	-0.0019325784
92	0xbc559d46	-0.013037985
93	0xbc747b6b	-0.014922003
94	0xbc802879	-0.015644299
95	0xbc17282d	-0.009225887
96	0x3b86acde	0.004109963
97	0x3ce1bba8	0.027555302
98	0xbabb865b	-0.0014307009
99	0xbbf86611	-0.0075805266
100	0xbcbebb1d	-0.023282582
101	0x3cb6bd70	0.022307128
102	0x3cd2a14e	0.025711682
103	0x3bceaef4	0.006307477
104	0xbcbe5d1a	-0.023237754
105	0xbce2c3d9	-0.027681278
106	0x3b921a02	0.004458667
107	0xbc1a72fe	-0.00942683
108	0xbbb070b6	-0.00538453
109	0x3c93ee8b	0.018058082
110	0x3b7dd3be	0.0038730945
111	0xbcddfb0e	-0.027097251
112	0x3ca67c3e	0.020322915
113	0xbd1dcb12	-0.03852374
114	0xbc98392b	-0.018581947
115	0x3ccac560	0.024752319
116	0x3c3be6d7	0.011468611
117	0xbc804f3d	-0.015662784
118	0xbd15f10a	-0.036606826
119	0x3cff0b65	0.031133363
120	0x3c74974a	0.014928648
121	0x3c98c43d	0.018648261
122	0xba59de44	-0.0008311013
123	0x3c52a62a	0.012856999
124	0x3c823ae2	0.015897218
125	0x3cd9c304	0.026582249
126	0x3ce120c2	0.02748144
127	0x3cca9e6c	0.024733745
128	0xbcba1109	-0.022713201
129	0x3cd41013	0.025886571
130	0x3b0d7efe	0.0021590586
131	0xbc18a5bb	-0.009316857
132	0x3b284eb4	0.0025681676
133	0x3aa5d489	0.0012651841
134	0x3c89ed45	0.016836772
135	0x3cd09566	0.025461864
136	0x3bb8e77b	0.005642829
137	0xbc5c2ea5	-0.013438855
138	0xbc415933	-0.011801052
139	0xbc90d08b	-0.017677566
140	0xbcd70374	-0.026246764
141	0x37d03c44	2.4823596e-05
142	0xbc277d70	-0.010222778
143	0x3b20ea50	0.0024553724
144	0x3ca9ee41	0.020743491
145	0xbc38eebd	-0.011287388
146	0xbd08dec8	-0.033415586
147	0xbbda85f9	-0.006668803
148	0xbc893620	-0.016749442
149	0x3c38304e	0.0112419855
150	0xbc99fab5	-0.018796304
151	0x3cb73ea7	0.022368742
152	0xbc8fcb96	-0.017553132
153	0x3b653132	0.003497195
154	0x3c9e07e0	0.019290864
155	0x3ce2089f	0.027592001
156	0x3bf95b6c	0.0076097753
157	0x3cb5ce62	0.022193138
158	0x3cc86051	0.02445999
159	0x3c3ef27b	0.011654492
160	0x3c2ea16f	0.010658606
161	0x3b1a0836	0.002350343
162	0xbd0c2f76	-0.03422495
163	0xbd0dfb02	-0.034663208
164	0x3bea1d60	0.007144615
165	0xbd1421f4	-0.036165193
166	0x3c0efad5	0.008726795
167	0x3bb5d69e	0.005549266
168	0xbce46081	-0.027878048
169	0x3b45bbb7	0.0030171701
170	0x3c7e826a	0.015534023
171	0x3b979b1d	0.0046266452
172	0xbbc532db	-0.0060180253
173	0x3bb0294f	0.005376018
174	0x3c3d091c	0.011537816
175	0xbcaeb9a0	-0.021328747
176	0xbb777f5d	-0.0037765123
177	0xbc2ca458	-0.0105372295
178	0xbc3e6339	-0.011620336
179	0x3b5dac01	0.0033824446
180	0x3d0ad9e3	0.0338992
181	0x3cea4974	0.028599478
182	0xbce373a4	-0.027765103
183	0x3c4af15c	0.012386646
184	0xbca65c23	-0.020307606
185	0xbb9c1fd0	-0.0047645345
186	0xbc5fb43f	-0.013653814
187	0x3cae0e9c	0.0212472
188	0xbc962245	-0.018326888
189	0xbc7137bb	-0.01472276
190	0xb9e97674	-0.00044529478
191	0xbcb53693	-0.02212075
192	0xbcafa9c5	-0.021443257
193	0x3c886921	0.016651692
194	0xbcad75c6	-0.021174323
195	0x3c45b62a	0.012067357
196	0xbc4b864e	-0.012422157
197	0xbd305566	-0.043050192
198	0xbc8dc8ef	-0.017307727
199	0x3d1c5ff0	0.03817743
200	0x3d08b455	0.033375103
201	0x3cbcbae0	0.023038328
202	0xbc9d70a4	-0.01921875
203	0x3d006ff3	0.031356763
204	0xbc835d1c	-0.016035609
205	0x3cb11fd0	0.021621615
206	0x3d2723cb	0.04080562
207	0xbc89f149	-0.016838687
208	0xbbf296f0	-0.007403247
209	0x3caed657	0.02134244
210	0x3c00c5de	0.007859675
211	0x3cb2d0a3	0.021828001
212	0x3abc4127	0.0014362679
213	0xbc3a164f	-0.011357858
214	0xbcddde9b	-0.027083686
215	0xbbe9227a	-0.0071147056
216	0x3cf91130	0.030403703
217	0x3cc76d89	0.024344223
218	0xbc58f98e	-0.013243092
219	0x3c17c7ee	0.009263976
220	0xbc753fa7	-0.014968789
221	0xbb1237b4	-0.0022311034
222	0xbcd4444c	-0.025911473
223	0xbd042ef7	-0.03227135
224	0x3c486f75	0.012233605
225	0xbc5e54fe	-0.013570068
226	0x3c3551bb	0.011066849
227	0xbc918716	-0.01776461
228	0xbcbf4ac2	-0.023351077
229	0xbba49ace	-0.005023337
230	0xbd23e21f	-0.040010568
231	0x3c92cd72	0.01792023
232	0x3d0c0d69	0.034192476
233	0x3cbc913a	0.023018468
234	0xba760292	-0.0009384538
235	0xbcd3335b	-0.025781324
236	0x3a060d32	0.00051136606
237	0xbc580a13	-0.013185996
238	0x3ca42571	0.020037385
239	0xbbcd2162	-0.006260083
240	0x3cac00d0	0.020996481
241	0x3c2c3e38	0.010512881
242	0xbb3789cb	-0.0028005715
243	0xbb88dce2	-0.004176722
244	0x3c86b3c8	0.016443148
245	0x3c074817	0.008256934
246	0xb9d3329a	-0.00040282757
247	0x3befd7bd	0.007319419
248	0xbc006e09	-0.007838734
249	0xbbcb9bc8	-0.006213639
250	0x3c47dadc	0.012198176
251	0x3cf460f4	0.029831387
252	0x3b1ce377	0.002393929
253	0x3c477364	0.012173507
254	0xbcd9a95c	-0.026570015
255	0x3cb57c65	0.022154042

bias f4 [64]
0	0xbc29beaa	-0.010360399
1	0x3c889a6c	0.016675197
2	0xbc8347ec	-0.016025506
3	0xbc018828	-0.007905997
4	0xbbd50276	-0.0065005375
5	0xbbee7976	-0.007277663
6	0xb9c2d4a0	-0.0003716098
7	0xbcff3f5d	-0.031158144
8	0x3c02013b	0.007934864
9	0xbcc16186	-0.023606073
10	0x3d2695ec	0.04067032
11	0x3d24335e	0.04008805
12	0x3d20274d	0.03909998
13	0xbad12be5	-0.0015958516
14	0xbc24b417	-0.010052702
15	0xbce0506b	-0.027382096
16	0xbcb2c87e	-0.021824118
17	0xbc446138	-0.011986069
18	0xbd11f398	-0.0356327
19	0xbbde0eab	-0.006776651
20	0xbce010a2	-0.027351681
21	0xbd02330f	-0.031786975
22	0x3c928caa	0.01788934
23	0x3cb5bbbf	0.02218425
24	0xbd0bd674	-0.034140065
25	0xbb85201d	-0.004062666
26	0xbcf97877	-0.03045295
27	0xbb339bba	-0.0027406053
28	0xbccd6e80	-0.025077105
29	0x3d12eecb	0.035872262
30	0xbcc90d29	-0.024542408
31	0xbc74d71c	-0.014943864
32	0xbceb05a6	-0.028689217
33	0x3cb3ee36	0.021964174
34	0xbc4ce182	-0.012504937
35	0x3c0174e3	0.007901403
36	0x3d0c6f7a	0.034286
37	0xbc7a83f8	-0.015290253
38	0x3d07a80f	0.033119258
39	0x3d265144	0.040604845
40	0x3bd18e22	0.0063951174
41	0x3d045d71	0.032315675
42	0x3cd1cd15	0.025610486
43	0x3c4978c4	0.012296859
44	0x3cb62677	0.022235138
45	0xbd237ffb	-0.039916974
46	0xbba780d8	-0.005111795
47	0x3d1c6722	0.038184293
48	0x3cc07e41	0.023497703
49	0xbd354e3e	-0.04426407
50	0x3b2758f4	0.0025535198
51	0xbd13b76e	-0.036063604
52	0xbd2c2fb2	-0.042037673
53	0xbcafc0ba	-0.021454204
54	0x3cf1d753	0.02952162
55	0x3cbdad07	0.023153795
56	0x3b2026b7	0.0024437138
57	0x3b846f17	0.0040415633
58	0xbcbca0f0	-0.02302596
59	0xbd18221e	-0.03714191
60	0xbd00d5c0	-0.031453848
61	0xbce21c39	-0.027601348
62	0xbc2005d5	-0.009767015
63	0x3af3a8d5	0.0018589745

weight f4 [10, 64]
0	0xbcf7c659	-0.030245947
1	0xbe14b9ac	-0.14523953
2	0x3d35346b	0.044239443
3	0xbd7f4d76	-0.062329732
4	0x3d6950ae	0.056961708
5	0x3d89353f	0.06699609
6	0xbdf1c82a	-0.118057564
7	0x3bb52116	0.005527626
8	0xbe13546c	-0.14387673
9	0xbddc3e2d	-0.107540466
10	0xbde551c6	-0.11197238
11	0xbc8503b5	-0.01623712
12	0xbda39b65	-0.079886235
13	0xbbea4b3b	-0.0071500815
14	0xbc6a9f97	-0.014320276
15	0xbc0e6a1c	-0.008692291
16	0x3df93e82	0.121701255
17	0x3c580c5a	0.013186539
18	0x3e18fbf9	0.1493987
19	0xbc0af214	-0.0084805675
20	0x3dd38672	0.10328378
21	0x3d6c37ac	0.05767028
22	0x3deeae00	0.116542816
23	0xbdcb1486	-0.09916024
24	0xbc802a01	-0.015645029
25	0x3db5e7e0	0.08882117
26	0x3dc60a58	0.09669942
27	0xbe3aa1d3	-0.18225794
28	0x3e196613	0.14980344
29	0xbdc7f113	-0.09762778
30	0xbe467404	-0.19380194
31	0xbd0fcf69	-0.03510991
32	0x3e2122b1	0.1573589
33	0xbe0b2129	-0.13586868
34	0xbd3e1742	-0.0464089
35	0xbd977ded	-0.07397065
36	0xbc38445c	-0.011246767
37	0xbe0b5eb0	-0.13610339
38	0xbd642718	-0.055701345
39	0x3d89569a	0.06705971
40	0xbdca556c	-0.09879574
41	0xbe20c391	-0.15699603
42	0xbe208052	-0.1567395
43	0xbd846a76	-0.06465618
44	0x3d6c8fa8	0.05775419
45	0x3d9bd0c9	0.07608182
46	0x3c05a29f	0.008156448
47	0xbe1827a8	-0.14858878
48	0x3c240d25	0.0100128995
49	0x3e03e865	0.1288162
50	0x3dc43de4	0.09582117
51	0x3e3e28b1	0.1857021
52	0x3d349366	0.044085883
53	0x3e3e2a1d	0.18570752
54	0x3d366de5	0.044538397
55	0xbd9399a8	-0.07207042
56	0x3dad3016	0.08456437
57	0x3e0d65f4	0.13808423
58	0xbd453e13	-0.0481549
59	0x3dd4f1ff	0.103977196
60	0x3d8dc494	0.0692226
61	0x3e2bd60c	0.16780871
62	0xbc15ebae	-0.009150429
63	0xbe3b7c97	-0.18309246
64	0x3befaa84	0.007314028
65	0x3e2bbed6	0.16772017
66	0xbe741578	-0.23836315
67	0x3af16584	0.0018417095
68	0xbe42a1dd	-0.19007058
69	0xbe37e3b8	-0.17957962
70	0xbe379028	-0.17926085
71	0xbda6e3c8	-0.081489146
72	0xbe315241	-0.17316534
73	0xbe0c2caf	-0.1368892
74	0xbd904c09	-0.070457526
75	0x3cd369b2	0.025807235
76	0x3e007d0c	0.12547702
77	0xbcde741f	-0.02715498
78	0x3dc2769c	0.09495279
79	0xbe1c6a28	-0.1527487
80	0x3e0d46c8	0.13796532
81	0x3cb641b8	0.022248134
82	0xbde74ca1	-0.11293913
83	0x3e56aadd	0.20963617
84	0xbb46e81e	-0.0030350755
85	0x3de57d48	0.11205536
86	0x3e5773d4	0.21040279
87	0x3e21ca6e	0.15799877
88	0x3db93a32	0.09044303
89	0xbdd6759d	-0.10471652
90	0x3e192329	0.14954819
91	0xbdb24bf1	-0.08705891
92	0xbdba7885	-0.091050185
93	0xbe56db0f	-0.20982002
94	0xbe173809	-0.1476747
95	0x3e3777f5	0.17916854
96	0xbdfe13fc	-0.124061555
97	0xbe37a961	-0.17935707
98	0x3e83d7e2	0.25750643
99	0xbcd187f0	-0.025577515
100	0xbd29dbfe	-0.041469567
101	0xbd8c244e	-0.06842862
102	0xb8e568e8	-0.00010939111
103	0x3e179644	0.14803416
104	0x3cb1384f	0.021633295
105	0xbdc78d26	-0.09743719
106	0xbcc9cb44	-0.024633057
107	0x3c9d54a9	0.019205408
108	0xbc24311d	-0.010021475
109	0xbdb1b793	-0.08677592
110	0xbe609fc3	-0.21935944
111	0x3de73068	0.1128853
112	0xbdf4b9b8	-0.119494855
113	0x3d98c85c	0.074600905
114	0xbe30e827	-0.17276059
115	0xbcb58b12	-0.02216104
116	0xbe23eb7b	-0.16007797
117	0xbc63cbc1	-0.013903559
118	0x3d107ef0	0.035277307
119	0x3d7c8af5	0.061655957
120	0xbdd47729	-0.103742905
121	0xbe13fc05	-0.14451607
122	0x3e366097	0.17810284
123	0xbc1bcbfc	-0.009509083
124	0xbe29fabe	-0.16599557
125	0x3d15323a	0.036424853
126	0x3d8faabf	0.07014989
127	0xbe4a8557	-0.19777428
128	0xbda0fd70	-0.07860839
129	0xbd8ba410	-0.06818402
130	0x3e57b0bd	0.21063514
131	0xbcd2049a	-0.02563696
132	0x3e086522	0.13319829
133	0x3e3b1e49	0.18273272
134	0x3d26f215	0.04075821
135	0x3d689086	0.056778453
136	0x3e2b1b5e	0.16709659
137	0x3e19a876	0.15005669
138	0xbdca3b8a	-0.098746374
139	0xbe04d96f	-0.1297357
140	0x3bb74f05	0.0055941367
141	0x3d0c7ee1	0.03430069
142	0x3e07fc16	0.13279757
143	0xbca7c264	-0.020478435
144	0xbdc39e07	-0.09551626
145	0x3df4edf8	0.119594514
146	0x3de25b0e	0.110525236
147	0xbdf8b4fc	-0.12143895
148	0x3e13b6f8	0.14425266
149	0xbdb2d5d1	-0.087321885
150	0x3d1d5656	0.038412414
151	0x3d1fceee	0.039015703
152	0xbde6ac47	-0.11263328
153	0x3e0c6ffa	0.1371459
154	0xbe226c21	-0.1586156
155	0x3d2584a7	0.04040971
156	0x3dc52495	0.09626118
157	0xbdd8b961	-0.10582233
158	0x3c42dbcb	0.011893223
159	0xbdbc500d	-0.09194956
160	0xbe2aae65	-0.16668089
161	0xbd5cb27e	-0.05388116
162	0x39fc3c78	0.00048110238
163	0xbdcf0c40	-0.101097584
164	0x3de6b134	0.112642676
165	0x3dde0f2b	0.10842737
166	0xbd9ed16c	-0.07754788
167	0x3d73c6ab	0.059515636
168	0x3e04c06a	0.12964025
169	0x3e1d69e2	0.15372422
170	0x3b36cc64	0.0027892822
171	0xbd66a24b	-0.05630712
172	0x3c580c48	0.013186522
173	0xbd967539	-0.07346577
174	0x3e02d102	0.12775043
175	0x3e018507	0.12648402
176	0xbca52cac	-0.020162903
177	0xbd0be57a	-0.034154393
178	0xbd9e3ca6	-0.077264115
179	0x3d5a4e51	0.053297345
180	0x3df7c3c6	0.12097888
181	0x3e12135a	0.14265195
182	0xbe037609	-0.12837996
183	0xbd8abfc6	-0.06774859
184	0xbc217e72	-0.009856807
185	0xbda3765e	-0.07981561
186	0xbd034fed	-0.032058645
187	0xbe0649fb	-0.13114159
188	0x3d378bd5	0.04481109
189	0x3e29e8a1	0.16592647
190	0x3e10185e	0.14071795
191	0x3d4ebafa	0.050471283
192	0xbc8cf702	-0.017207626
193	0xbcb3fe78	-0.021971926
194	0x3e0ac6d7	0.13552414
195	0xbd2f383a	-0.04277823
196	0xbd522546	-0.051305078
197	0xbcc0bad1	-0.023526581
198	0x3e1ebad0	0.15500951
199	0xbcf700f6	-0.030151825
200	0x3dd6598e	0.104663
201	0x3d266510	0.040623724
202	0xbdf8e7e9	-0.12153608
203	0xbd82236e	-0.06354414
204	0xbd7012d3	-0.058611702
205	0x3dbc2051	0.09185851
206	0xbe216a61	-0.15763237
207	0x3d712583	0.058873665
208	0xbaaa5a53	-0.001299689
209	0x3c436afc	0.0119273625
210	0xbdb4f6a6	-0.08836107
211	0xbda94b20	-0.08266282
212	0xb7d986f0	-2.5931251e-05
213	0xbd4e87b1	-0.050422374
214	0xbe069228	-0.13141692
215	0xbdb13918	-0.08653468
216	0xbcd3d409	-0.025857942
217	0x3a7563f4	0.00093609025
218	0x3dca2dbb	0.09872004
219	0xbd91b86b	-0.07115253
220	0x3d7a30d9	0.06108174
221	0x3e0ccb13	0.13749342
222	0x3de2f32b	0.11081537
223	0xbd8665f9	-0.065624185
224	0xbdfb5b2e	-0.122732505
225	0x38e45190	0.000108870794
226	0xbc97cc4a	-0.01853003
227	0xbde02fcf	-0.10946619
228	0x3d053c5e	0.032528274
229	0xbd4b3f05	-0.049620647
230	0xbe16f25d	-0.14740892
231	0xbe3b5435	-0.18293841
232	0xbdcf7c6e	-0.10131155
233	0x3c3b0c7e	0.011416553
234	0x3e2b23d0	0.1671288
235	0x3e33a91e	0.17544982
236	0xbd61924b	-0.055071156
237	0x3db46c41	0.0880971
238	0x3b3200ce	0.0027161124
239	0x3dd98f98	0.106230915
240	0x3d416b6d	0.04722159
241	0xbd5266bf	-0.051367518
242	0x3d72df36	0.0592949
243	0xbddf330f	-0.108984105
244	0xbd48528c	-0.048906848
245	0x3dc81594	0.09769741
246	0x3d35e226	0.044405125
247	0x3e0016af	0.12508653
248	0xbe2611d8	-0.16217744
249	0x3dbcb637	0.09214442
250	0x3bd8897f	0.0066081877
251	0x3d989847	0.074509196
252	0x3d8450c4	0.06460717
253	0xbd4274e3	-0.047474753
254	0x3d2b3096	0.041794382
255	0x3df76de8	0.1208151

bias f4 [10]
0	0xbdcbe775	-0.09956256
1	0xbc509be8	-0.012732483
2	0xbdb12088	-0.08648783
3	0x3d87eb0f	0.06636631
4	0xbc8995f0	-0.016795129
5	0xbd1f11ba	-0.038835265
6	0x3e061e66	0.13097534
7	0xbd8e3d55	-0.06945292
8	0xbd14a963	-0.036294352
9	0xbda7e430	-0.0819782
