models/xue_epoch_12.pth (torch, 592503 bytes, 22 tensors)

module.0.weight f4 [32, 3, 5, 5]
00000000: 2894 02bd c809 f5bd 7eb6 55bd 2349 ae3c
00000010: d7b5 523c 131e 53be 10cf 49be e539 5bbe
00000020: 7c01 65be 53e7 0fbe 3e33 95be 3350 88be
00000030: 33a9 66be 91aa 5bbe 4d9a 8bbe b07f 05be
00000040: 4654 a0be 9865 8bbe 6433 54be 1362 f6bd
00000050: add7 45be 0a13 31be bcbe 95be ce78 90be
00000060: 760c e9bd ea58 713d d399 2f3d b544 0cbc
00000070: 82d7 94bd 2440 cbbd b82d 493d 8dc5 3b3d
00000080: b7ff 923d b44f 653d bccc f53d 5e93 fd3c
00000090: a98f 1c3c f11c 0a3c 8298 0f3e 2c80 8b3c
000000a0: eefb 0fbd 6966 4b3e 8171 123e 13e4 f43c
000000b0: b1a1 553b 23d9 1a3e a655 f73d 5e54 04be
000000c0: 2311 d93c 4b93 d1ba b090 49bc d685 0f3d
000000d0: 7d42 ac3d 854b f23d d2c9 09bd 9077 0f3e
000000e0: 4b35 3e3e 7715 7c3e dda0 163e c09a 2b3e
000000f0: 3fcf 8c3e 0695 6a3e d9c2 1c3e e435 1e3e
00000100: 96ea 143e 8bd3 893e 5d21 9b3e 19f7 233e
00000110: 15d4 543e 152a 7f3c 1bbe 5a3e 2c1b 463e
00000120: 8287 303d bf0c 543d 8d00 2dbd f6ad 963d
00000130: dd32 4bbb 829e 3a3e 9bf0 143e 43ba 003e
00000140: fe23 353e 5d91 303e b262 8e3e 1e03 8c3e
00000150: 6a28 3d3e 2ae3 623d 03a2 4d3d 4945 133d
00000160: 3b0c 8d3d 4309 85bd 2c0f c03c a7b0 c1bb
00000170: e2b5 673d 7926 3d3d 09d0 023e 8951 0a3d
00000180: 1e90 123b 128f 67bd 8fd0 583d 046d dd38
00000190: ba6c 733d d867 4abd 9fec 0c3c 19c6 33bd
000001a0: c907 203d bc56 853c e6d5 503d 91d4 68bd
000001b0: 5b9a 0e3e 9305 143d 40cd 92bd 63b2 2ebe
000001c0: 733a 02be c04a 0cbe 4a6b ebbc 6656 a6bd
000001d0: f3ef afbd 902c 16bd ee26 febd 0bbd adbd
000001e0: 8d3c 483d 1935 bfbd 190b 143c cdcb a63d
000001f0: a1bd 22bd 02b5 fcbc e5e3 ae3d 6a90 acbc
00000200: a56d 453e 9044 293e cb35 903d 81d9 023d
00000210: 57cd efbc c4ab 843d bc4e 743d 2cf1 43bd
00000220: 33b5 25be 2f68 77bd 3544 1fbe ccb7 05be
00000230: ddc1 9dbd 9f31 02be a2d5 61be 86e7 d1bd
00000240: e7b4 01bd 0d50 d7bd 2cc1 d5bd 9a33 13be
00000250: 6571 203d 0d93 0f3d c8e5 f93c ace5 a3bc
00000260: 0d38 a5bd b806 8a3c 2a6b cc3d 3cf8 15be
00000270: 6bf4 e6bd 17d9 dbbd 2845 763e 5432 203e
00000280: bbd3 03be cad1 9fbd 36e1 133e 9a60 a53e
00000290: 4b84 013e 8b9a 2e3b cbe1 dfbc 0308 2e3e
000002a0: eb69 a0bd b2cc 4abd da2a 47be 314a 503d
000002b0: 4e05 4c3d a77b aabd dfc8 68be fad6 483d
000002c0: 9653 073d dd5a 44be ef83 8abc e11c ee3c
000002d0: a4e3 06bd cdf9 10be 8711 bdbd 020f 3c3d
000002e0: 9149 8f3d 8c22 1a3d 55fa c8bc a715 ab3d
000002f0: d416 5f3e 74a6 f23c 7483 bc3d ee68 01bc
00000300: 730e bf3d f3b2 0a3e cd51 dbbd c01a 7f3d
00000310: cc56 4b3e 4139 0a3d aa25 37bd 5570 2abe
00000320: a824 1ebe 1d11 093d c455 5dbd 7c7a 2fbd
00000330: d01c 073d b2cd dabd 2381 7ebd 5b18 02bd
00000340: 44f8 1c3e e291 543e b407 cdbd eada a23d
00000350: 085e e2bc de4d 833e 7cb2 f93a 2f58 1dbc
00000360: 0729 74bc 9c1b 1f3e 4da3 e2bc aee3 91bd
00000370: b16e 933d 4409 53bc 0fcf e23d 1ce1 9abd
00000380: f31c d1bd b86a 853a b796 20bc 06bf bebc
00000390: 457a de3d 2354 69bc 60cb ac3c 1dd5 8cbe
000003a0: 7ec8 bdbd 6a77 273e 53fd 5c3e 3dd2 e5bd
000003b0: f790 81be 0f99 83bd da4c ac3d 417e 2a3e
000003c0: 2001 20bd a8a6 31be 5128 cbbd af2e 273e
000003d0: 6fe7 803e 9485 c0bd cc0a 0c3d 2644 d9bd
000003e0: e26f b0bd cff3 323e b684 a0bd 6dc4 88bc
000003f0: a8ea f33c f913 2e3e ca62 833e ea1e a0bd
-0.031879574 -0.11964756 -0.05217599 0.021275109 0.012860737 -0.20616941 -0.19707894 -0.21408804
-0.22363847 -0.14053087 -0.29140657 -0.26623687 -0.22525482 -0.21451785 -0.2726616 -0.1303699
-0.31314296 -0.27225947 -0.20722729 -0.12030425 -0.19320555 -0.17292419 -0.2924708 -0.28217167
-0.1137933 0.058922686 0.042871308 -0.008561303 -0.07267667 -0.09924343 0.049115866 0.045842696
0.0717768 0.055984214 0.120019406 0.03095406 0.009555736 0.008429752 0.14023021 0.01702889
-0.03515237 0.19863285 0.14301111 0.02989391 0.0032597596 0.15121894 0.12076883 -0.12922809
0.02649743 -0.0015989331 -0.012302563 0.035039745 0.08411119 0.118308105 -0.033639736 0.14010453
0.18575017 0.24617563 0.14709802 0.16758251 0.27501866 0.2290841 0.15308703 0.15450245
0.14542612 0.26919207 0.30298892 0.16012229 0.20784028 0.015573998 0.21361582 0.19346303
0.04309798 0.051769968 -0.042236853 0.07357399 -0.0031005659 0.18224528 0.14544909 0.12571053
0.17689511 0.17242952 0.27809674 0.27346128 0.18472448 0.05539242 0.050203335 0.035954747
0.068870984 -0.06495907 0.023444735 -0.005910951 0.05656994 0.04617927 0.12774672 0.033769164
0.0022363733 -0.056532927 0.052933272 0.00010558407 0.05942986 -0.04941544 0.008601337 -0.043890093
0.039069925 0.01627671 0.05098524 -0.056843344 0.1392607 0.03613813 -0.071680546 -0.17060237
-0.12717609 -0.1370039 -0.028737683 -0.08121948 -0.085906886 -0.03666359 -0.12409769 -0.08483323
0.04888587 -0.093362994 0.009035849 0.08144341 -0.039731625 -0.03084803 0.08539561 -0.021064956
0.19280107 0.16530061 0.0704151 0.03194571 -0.029272718 0.06478074 0.0596454 -0.04783742
-0.16182403 -0.06040209 -0.15553363 -0.13058394 -0.07702992 -0.12714241 -0.2205415 -0.10249238
-0.031666663 -0.10513315 -0.10437235 -0.14375153 0.03917064 0.035052348 0.030505076 -0.020006977
-0.080673315 0.016848907 0.099813774 -0.14645475 -0.11277088 -0.10734766 0.24049819 0.15644199
-0.12873738 -0.07803686 0.1444138 0.32300264 0.12648122 0.0026642408 -0.027329346 0.16995244
-0.07832702 -0.04951162 -0.1944994 0.050852004 0.049809746 -0.08324366 -0.22732876 0.049033143
0.033038698 -0.19175287 -0.016908614 0.029066505 -0.03293194 -0.14157791 -0.09231859 0.04591275
0.069964536 0.037630603 -0.02453343 0.08353739 0.21786052 0.029620387 0.0920476 -0.007898552
0.09328928 0.13544826 -0.10708962 0.06228137 0.19857329 0.033746008 -0.044713654 -0.16644414
-0.15443671 0.033463586 -0.05403687 -0.04284142 0.032986462 -0.106837645 -0.062134873 -0.03176151
0.15329081 0.20758775 -0.10011235 0.07951911 -0.027632728 0.25645345 0.0019050385 -0.009603544
-0.01490236 0.15537876 -0.027665759 -0.071235046 0.07198847 -0.012880627 0.110746495 -0.075624675
-0.102106 0.0010178899 -0.009801558 -0.023284446 0.10863165 -0.014241251 0.02109307 -0.27506343
-0.092667565 0.16354147 0.2158101 -0.112217404 -0.25305912 -0.06425678 0.08413096 0.16649725
-0.039063573 -0.1734873 -0.09919799 0.16326402 0.2517657 -0.09400478 0.034189984 -0.106087014
-0.0861509 0.17475818 -0.078378126 -0.016695226 0.029774979 0.16999806 0.25661308 -0.078183964

module.0.bias f4 [32]
00000000: 378c 913d 7b52 bcbd 2e71 6b3d 8a9a db3d
00000010: f2f8 803d 3e64 0e3d b5de 84bd 8dfd d93c
00000020: 9dd6 a43d 8456 813d 70d8 813d 7bb2 9dbd
00000030: 7e8e bd3c 140a cd3d 52c2 433d 7e81 93bd
00000040: 8f69 d3bd 6221 81bd c121 f0bc 2178 9a3d
00000050: 83e1 e13c 0454 2ebd a9e1 da3d 18c1 91bd
00000060: 25d8 bdbd 4847 4f3d 1dc5 9b3d 36e2 1a3d
00000070: 92dd bb39 5bee 82bd 293b 5d3d 1508 663d
0.07106822 -0.091954194 0.057480983 0.10722835 0.062974826 0.034763567 -0.064877905 0.02661016
0.08048747 0.0631533 0.0634011 -0.07700058 0.023139235 0.10011688 0.04779274 -0.07202433
-0.10322868 -0.063051954 -0.02931297 0.07542444 0.027573353 -0.042560592 0.106875725 -0.07116908
-0.09269742 0.05060509 0.07605956 0.037813388 0.00035832502 -0.06393119 0.054011498 0.05616005

module.1.weight f4 [32]
00000000: a8f7 3f3f d652 593f 9a6e 4f3f 342a 933f
00000010: 42af 843f 1211 7f3f 3f2d 2b3f 1864 793f
00000020: 7e57 ac3f 10cd 463f c74a 513f 3975 7c3f
00000030: b726 603f c7fa 773f 9a1f 803f 8ef7 803f
00000040: 5c18 453f 310a 813f acd8 493f b062 ca3f
00000050: 8535 543f 75b0 8f3f a9b5 403f 00b0 913f
00000060: 274d b53f 5949 7e3f 648c 473f 0950 833f
00000070: f547 903f 13e6 7b3f 6442 823f 7b6d 963f
0.7498727 0.8489202 0.8102814 1.1497254 1.0365984 0.9963542 0.66865915 0.97418356
1.34642 0.7765665 0.81754726 0.9861637 0.87559074 0.9686703 1.0009644 1.0075548
0.76990294 1.0081235 0.7884624 1.5811367 0.82894164 1.1225725 0.7527719 1.1381836
1.416417 0.9933067 0.77948594 1.02588 1.127196 0.9839794 1.0176511 1.1752161

module.1.bias f4 [32]
00000000: 0d8c 2b3e c6ae 7abe 61d0 67be b07c 00be
00000010: 1e96 3dbe f3b6 68be 7b05 d83d 349a 27be
00000020: ceb2 f2be 1d7b 0ebe 0202 8ebd 330d f5bd
00000030: e7b3 343b 713f 4b3b 46f9 94be 82bd 83bd
00000040: 1357 82bc 4e3c 4c3a d722 74be 224d a1be
00000050: c93d 58be 5fa1 2abe 43e7 98be 7596 1abe
00000060: 58c3 0fbd bd21 b7be 25dd aebe 56dc cabd
00000070: 2678 1bbe cd85 d7bd 2b42 14be 1591 a6bd
0.16752644 -0.24480733 -0.22638084 -0.12547565 -0.18514296 -0.2272604 0.1054792 -0.16367418
-0.47402042 -0.13914151 -0.06933977 -0.11965408 0.002757305 0.0031013156 -0.2909643 -0.0643263
-0.01591066 0.00077909685 -0.23841415 -0.3150416 -0.21117319 -0.1666312 -0.2986394 -0.15096457
-0.035098404 -0.35767928 -0.34153095 -0.09905307 -0.15182552 -0.10523567 -0.14478366 -0.08133141

module.1.running_mean f4 [32]
00000000: 193a f9bd 368f 093e e1bd aa3e 8878 c23c
00000010: 7434 e6bc 2c85 adbe 1083 acbe 0244 833d
00000020: da5a 14bf dad2 d83e 88b2 8b3e adbf d6be
00000030: 273a 913c 5fd1 e63d eb34 16bb 2094 a2bd
00000040: 7681 b13d 20bc ffbd 9d13 1b3c 11e1 2ebd
00000050: 37c2 edbc 7cfc 43bd fde6 e73e 3231 75bd
00000060: 53f8 2abe 3de8 03bf 8b05 823e e3f0 1f3d
00000070: 53e7 a2bb 30bc aabd 56e4 833d 88eb c23c
-0.121692844 0.13433537 0.3334799 0.023739114 -0.028101183 -0.33890665 -0.33693743 0.06409456
-0.5795113 0.42348367 0.27284646 -0.41943112 0.017727925 0.11270403 -0.0022919725 -0.07938409
0.08667271 -0.12487054 0.009465125 -0.04269511 -0.029023273 -0.04784821 0.45293418 -0.05986137
-0.1669629 -0.5152624 0.25394854 0.039048087 -0.0049714237 -0.08336675 0.06440036 0.02379395

module.1.running_var f4 [32]
00000000: 6490 ab3e ff8f 493e a9ac ca3d 1546 103f
00000010: b794 493d 4c3e eb3d 712f 033e 778e 8b3d
00000020: 0e52 6f3e 6ff3 cf3d 4c00 503e 3644 083e
00000030: 707c 093e 276f ae3e 3646 2b3e 89f6 a93e
00000040: 2fa0 7e3e 8f49 453e e399 3f3d b9ff 103f
00000050: 72b7 d93d 3b44 bf3d a84c 003e 0179 033e
00000060: b947 b43e 95ac 7f3e a280 3a3d 97e6 873e
00000070: e2a7 8c3e 8f71 4c3e 99fd c73d d7bc 2a3f
0.335086 0.19683836 0.098962136 0.56356937 0.04921409 0.114864916 0.12811066 0.068142824
0.23371145 0.10153853 0.20312613 0.1330727 0.13426375 0.34069178 0.16726002 0.33195904
0.24865793 0.19266342 0.046777617 0.566402 0.106306925 0.09339186 0.12529242 0.12839128
0.3521097 0.24968179 0.04553283 0.26543114 0.27471834 0.19965194 0.09765167 0.66694397

module.4.weight f4 [32, 32, 5, 5]
00000000: bc4a 96bd c9f9 98bd 6986 a9bd 6a85 2dbd
00000010: caf4 8fbd 000f 06bd e34b 10bb 4ef0 9abc
00000020: e839 13bd 46b1 17bd a36e 1f3c 464b 4abd
00000030: 4eed ba3a ac4e 25bd d44f b73b 9dfa ff3c
00000040: 524e c23c 1f49 7e3d e198 853c 7a34 f73c
00000050: aed7 123d e38e b73d cbe3 ba3d 0302 ca3d
00000060: e527 473d 10b3 14bd 19a4 38bc c190 05bd
00000070: 6ac0 8f3c 45ed 58bc 1ea2 f8bb 9de3 ecbc
00000080: 1538 0fbd 6b48 24bd 29d0 9d3c 907d 153d
00000090: de99 863d 1899 933d fe3a 693d b8a0 1f3b
000000a0: a9c0 babd 00c9 febc b2ec 84bc a440 cebc
000000b0: 91d0 2bbd d440 d1bc faca 51bb 1464 c33c
000000c0: b8d4 ab3d 8572 393d a09b 84bd d518 b6bd
000000d0: b7ca 39bd b34f 1abd 450b ddbc 3d04 63bd
000000e0: cc0b 45bd b778 d4bc d9b1 10bd aa41 25bd
000000f0: 703a 37bd c031 f0bb 67ad 9aba 37a7 28bd
00000100: f13d 8e3b 2b31 e3bd 8441 9cbd 3929 cbba
00000110: 407b 3dbc 4cc3 c9bc 1aee c3bb 660d 0a3d
00000120: 3ca6 293d 508b 983b 0050 763c 3af5 c6bd
00000130: 45fc 6dbd 0d52 be3b 47be 15bc c4f6 9d3b
00000140: f731 93bc a275 5a3c 70a5 063d bf04 0cbd
00000150: d450 b83c d5b0 b0bd 327b 2bbd 56c6 1f3d
00000160: 72d6 35bd 59ce 19bd dd9e 94bd 2241 7ebd
00000170: 56ee 7dbd b892 b8bd 6159 45bd 2c5c dcbd
00000180: 36f4 cbbd 92b3 44bd a82c a6bd 8147 5ebd
00000190: 9414 c0bb 05fa 37bd 7eaf 6fbd b080 2fbd
000001a0: e0fe 3dbd c0bd 6a3d 9336 5e3c 4bfc 273c
000001b0: 3fde e0bb e6fa 4f3d 9471 433d 4617 1bbd
000001c0: 525d c0bc 89a1 62bc f93c 413d b579 293c
000001d0: 8f57 b43d 8ef5 cbbc d246 92bd 326f 08bd
000001e0: 321a babd a086 f2bd 439e a2bd adc0 21bd
000001f0: 5ca4 353d 9feb 80bd c388 7dbd 84f2 09ba
00000200: 2248 8ebd f9bb 82bd b633 cfbd e142 15bd
00000210: be10 dabb 9d93 44bd e15c e3bd 6937 57bc
00000220: 2df7 943d 1b64 0e3e d313 b43c dcbf 02bc
00000230: 5ffb 273e 12a0 993e 1129 913e 1178 643e
00000240: 2237 fe3d 95bc f8bc 29e4 273c 5c16 cc3b
00000250: 0efe 62bd 4c34 35bd 2974 293d e2be 513d
00000260: df5b 353d fed2 973c ae2c a33c 6cef 643c
00000270: 259b 1e3d b282 3a3d d8ba 113d 5474 2e3c
00000280: cf73 9c3c ab29 1bbd f7fc 413c e361 92bc
00000290: cd9f 883c 8b6f c23c acfa a33d bb93 823c
000002a0: b49a 233d 1c11 1a3d a104 a33c 1dce 2fbd
000002b0: c109 40ba 67ca 3cbd c2a0 d53c ee6e c8bb
000002c0: ea32 6ebc 8760 c93c f9f7 30bc ba4d 8cb8
000002d0: 9789 ccbc a8ce d6bc e3be 6ebc a996 053d
000002e0: 084b 60bd 5c51 703c 1600 5a3d 4c62 fe3d
000002f0: 4ebf 4a3d e2e3 1a3d f4a3 913c 4081 0ebd
00000300: 187d 46bd ed89 003d 7a6d dc3c 8666 61bd
00000310: 6cdb 16bd 4633 c4bd ab4d acbd 25bb 8fbd
00000320: 3dd1 55bd 055d 06bc fd1f 8abd b8f2 97bc
00000330: 5bbe 8abd d268 b1ba e97e 303d 5f9e 0abd
00000340: f6f1 82bc 3bb8 54bd 3fdf 1dbd 76da bcbc
00000350: 516f bdbc cdc5 59bd 7961 36bd bc3c 06bd
00000360: 38b4 f4bc 8026 13bd f62f 85bd 0474 f9bd
00000370: 1a24 aa3d 886b e43d e129 b93d a033 fc3d
00000380: ecc8 8d3d f9d9 afbc d05d 38bd 257e fabc
00000390: 6c16 4f3b 49f7 cd3a 792b 5fbc d74a 30bd
000003a0: 86f2 57bc c303 30bd 83ec 663c 2e49 ee3c
000003b0: 0bd8 053c ab26 013d 0f5a eabb e8e6 72bc
000003c0: 0e2b d7bb 4249 6fbd d969 06bd 250a 15bd
000003d0: 4cf7 f6bc 54c5 e2bc 10e7 c53b 51f5 03bd
000003e0: ecdc 533c 1b43 f63b 58b1 99bc a41b 87bd
000003f0: 005c 3bbd 5967 d0bc b95b ad3c dd55 e7bc
-0.07338473 -0.07469518 -0.0827759 -0.04236356 -0.07029112 -0.03272915 -0.0022017888 -0.018913414
-0.035943896 -0.037034295 0.009730968 -0.049388193 0.0014261396 -0.04035823 0.005594233 0.031247431
0.023718987 0.062081452 0.01630825 0.03017639 0.03585022 0.089628 0.09125479 0.09863665
0.04862203 -0.03630358 -0.011269593 -0.03260875 0.017547805 -0.013240163 -0.0075876852 -0.028917128
-0.034965593 -0.040108126 0.019264298 0.0364967 0.065723166 0.07206935 0.056941025 0.002435727
-0.09118778 -0.031101704 -0.016226146 -0.025177307 -0.04194695 -0.025543608 -0.0032011853 0.023851432
0.08390182 0.04527523 -0.064749956 -0.08891455 -0.04535934 -0.037673663 -0.026982913 -0.055423964
-0.048106954 -0.025936468 -0.03532586 -0.040345825 -0.044733465 -0.0073301494 -0.0011800946 -0.041175094
0.00434088 -0.110933624 -0.076296836 -0.0015499956 -0.01156503 -0.024629258 -0.0059793117 0.033704184
0.0414183 0.004655279 0.015033722 -0.09714742 -0.05810191 0.005808121 -0.009139604 0.0048206765
-0.017968161 0.01333371 0.032872617 -0.034184214 0.02249948 -0.08627478 -0.041865535 0.039007507
-0.044393964 -0.037550304 -0.07256863 -0.062073834 -0.061994873 -0.090123594 -0.04818094 -0.10759768
-0.09958689 -0.048022814 -0.08113986 -0.05426741 -0.005861828 -0.04491617 -0.05851697 -0.042847335
-0.046385646 0.057309866 0.013562816 0.010253022 -0.0068624313 0.050776385 0.04771574 -0.037863992
-0.023481999 -0.013832458 0.04717729 0.010343959 0.08805763 -0.024897363 -0.07142414 -0.03330917
-0.090870276 -0.11842084 -0.07940342 -0.03949039 0.0443462 -0.06294941 -0.061898004 -0.0005262273
-0.06947352 -0.06383509 -0.10117285 -0.036440734 -0.006654828 -0.047992337 -0.111016996 -0.013135769
0.072737075 0.13905375 0.02198211 -0.007980313 0.16404484 0.30004936 0.28351644 0.22311427
0.124128595 -0.03036336 0.010247269 0.0062282514 -0.055418067 -0.044239327 0.041370545 0.05120743
0.04427707 0.018533226 0.019918766 0.013973098 0.038722176 0.045534797 0.03557858 0.010647852
0.01909819 -0.037881535 0.011840097 -0.017868942 0.016677761 0.023734828 0.08006796 0.015939584
0.03994246 0.037613973 0.019899668 -0.042921174 -0.0007325672 -0.046091463 0.026077632 -0.0061167395
-0.014538506 0.02458216 -0.010801309 -6.690198e-05 -0.024967952 -0.026221588 -0.014571878 0.032614384
-0.054759055 0.014667835 0.05322274 0.124210924 0.04949885 0.037814982 0.017778374 -0.03479123
-0.048459142 0.031381536 0.026907671 -0.055029415 -0.03683035 -0.09580092 -0.084132515 -0.07018117
-0.0522015 -0.0082008885 -0.067443825 -0.018548355 -0.06774589 -0.0013535267 0.04308978 -0.03384244
-0.015984517 -0.05193351 -0.038542982 -0.023053389 -0.023124369 -0.053167153 -0.04452655 -0.032772765
-0.029871091 -0.03592539 -0.065032884 -0.12180331 0.08307667 0.111533225 0.09041191 0.12314534
0.069230884 -0.021466242 -0.04501134 -0.030577729 0.0031599058 0.0015713956 -0.0136212045 -0.043040123
-0.013180381 -0.042972337 0.014094475 0.02908763 0.008169184 0.031531017 -0.007151849 -0.01482556
-0.006566412 -0.058419473 -0.032815788 -0.036386628 -0.030147217 -0.027681984 0.0060395077 -0.032216374
0.01293109 0.007515324 -0.018761322 -0.06597069 -0.045742035 -0.025439905 0.0211619 -0.028239185

module.4.bias f4 [32]
00000000: 06f6 07bd 5d67 16bb 406b 843c d17d e8bb
00000010: 9094 b3bc 85fd dc3c 8174 b63c 34f1 b6bc
00000020: 8f85 a53c 5e8c 103d db87 febc 041e 293b
00000030: d0f2 6abc cdfb aebc 9234 03bd 0961 173c
00000040: c15e cb3c a197 98bc e8e3 dcba a423 d7bc
00000050: 17ee c53c 6281 fabc 7f82 903b 495b 323c
00000060: 609d c539 e629 d93c adfd d03c 5ed9 f7bc
00000070: 900f 6e3b 7f41 f8bc 2e4b 6f39 f686 803b
-0.03319361 -0.0022949793 0.016164422 -0.0070950766 -0.021921426 0.026976356 0.02227235 -0.022331811
0.020205287 0.035290115 -0.03107064 0.0025805244 -0.014340118 -0.021360302 -0.032032557 0.009239444
0.024825456 -0.01862699 -0.0016852589 -0.026262112 0.024161382 -0.030579273 0.0044100876 0.010886022
0.00037692022 0.026509237 0.025511587 -0.030255016 0.0036325194 -0.030304668 0.00022820823 0.0039223386

module.5.weight f4 [32]
00000000: 3661 343f fdb6 4d3f 5f1d 713f 87ce 6a3f
00000010: dd54 533f 2276 833f 5500 573f 86fd 833f
00000020: 2a4c 873f f4f0 7a3f 8463 8c3f 1a34 823f
00000030: 8948 6b3f 6e74 a53f 0f14 7c3f 5c16 8a3f
00000040: 2018 703f 2aff 693f 6cfa 793f fcff 843f
00000050: 598f 653f 9ba5 413f 59c7 863f eae4 603f
00000060: 6197 5d3f 50ab 823f 7fb2 5f3f b690 793f
00000070: 7288 883f a2e1 843f 8d84 7f3f 767d 713f
0.7046083 0.8035734 0.9418544 0.91721386 0.82551366 1.0270426 0.8398488 1.0311744
1.0570118 0.98023915 1.096787 1.017215 0.91907555 1.2926157 0.98468107 1.0788074
0.9378681 0.91404974 0.9764774 1.039062 0.89671856 0.7564332 1.0529586 0.87849295
0.8655911 1.020853 0.8738174 0.97486436 1.066664 1.0381358 0.9981163 0.94332063

module.5.bias f4 [32]
00000000: fbe7 41be 3cfe 32be 1acc d7be ff51 c9be
00000010: f558 b6bd 8b73 9cbe 0922 76be b3a1 a8be
00000020: 2ed5 9cbe ef5c bebe 4867 1bbf 9273 c3be
00000030: 1eca dbbe db2c ebbe 1fbe d7be 28d0 9ebe
00000040: 6c06 d8be ee6e aebe f7d6 89be 3841 e7be
00000050: 3ea4 acbe cf51 13be 8d61 d4be a145 cdbe
00000060: 0ec4 b3be c69f 6abe 5929 6bbe 0b68 afbe
00000070: 216c 09bf 8d26 dfbe c6fe 66be 2827 c2be
-0.1893615 -0.17479795 -0.42147905 -0.3932037 -0.08903686 -0.30556902 -0.24036421 -0.32935867
-0.30631393 -0.37180278 -0.6070447 -0.3817411 -0.4292764 -0.4593266 -0.42137238 -0.31018186
-0.421924 -0.34069008 -0.26921818 -0.45166945 -0.33719057 -0.14386676 -0.41480675 -0.40092185
-0.35110515 -0.22912511 -0.22964992 -0.34259066 -0.53680617 -0.435841 -0.22558126 -0.379205

module.5.running_mean f4 [32]
00000000: c7bf b1bb 2233 10bf 9e68 01c0 3467 8b3f
00000010: 2a98 c1bf 7bd6 d5be 75ff e2be 8fe1 4ec0
00000020: 294f 16c0 6d76 13c0 21a6 0ec0 9530 6fc0
00000030: 4889 a7bf cb5a 56c0 6221 fabf f71d 72c0
00000040: 9443 1cc0 aadb 9cbf ca8c 4dc0 6f41 08be
00000050: a802 abbf 8c31 b73e 9488 89c0 1f41 b8bf
00000060: 09e5 31c0 315c 30bf b9ed 90bf 92d3 01c0
00000070: 951e 12c0 36dc 37c0 1c11 0bc0 50dc c2bf
-0.005424473 -0.5632802 -2.0220103 1.089087 -1.5124562 -0.41765198 -0.44335523 -3.232517
-2.3485816 -2.3041031 -2.2288897 -3.7373402 -1.308877 -3.3492916 -1.9541438 -3.783079
-2.4416246 -1.2254536 -3.211718 -0.13306211 -1.3360186 0.3577999 -4.297922 -1.4394873
-2.7796042 -0.6889067 -1.1322547 -2.0285382 -2.2831166 -2.8728156 -2.1729193 -1.5223484

module.5.running_var f4 [32]
00000000: e815 9440 074c ab40 b54a bb40 6a4e b340
00000010: d559 c140 5f2d aa40 5410 f440 5e95 0541
00000020: adee f940 5315 0d41 b7f6 d540 f476 d540
00000030: 783a 9740 3759 4e41 80b7 9840 d6f6 1a41
00000040: 9138 ab40 f9c0 a640 2f27 b540 e717 0041
00000050: f2d8 dc40 1357 9c40 bfef 0641 c5b2 9440
00000060: 6cf0 d840 2565 9740 af5d 8140 997b d440
00000070: 0712 d540 ef41 c140 e95a b540 999e 9a40
4.627674 5.3530307 5.8528695 5.603322 6.042216 5.3180385 7.626993 8.348967
7.810385 8.817706 6.6863666 6.6707706 4.7258873 12.896781 4.7724 9.685263
5.350655 5.211056 5.661033 8.005836 6.9014826 4.885629 8.433532 4.6468225
6.7793484 4.7310967 4.042686 6.6400876 6.6584506 6.0392985 5.6673474 4.83186

module.8.weight f4 [64, 32, 5, 5]
00000000: 1e11 54bb f4d2 66bb c881 60bd 5c98 4abd
00000010: b63a 82bd 0b78 8d3c 0afe 49bc 5040 3c3b
00000020: 8d60 d2bc dea6 d6bc 1509 863d a4c7 c83a
00000030: 96f5 643c 4bff e6bb 49f4 653d f96b 963d
00000040: f410 e3bb 54cc a1bd c893 b2bc 371b a93c
00000050: 8406 b63d eb50 b13c 9586 db3c 25f6 973d
00000060: 0e54 983d 8dfa 813c e2f0 18bb d763 953d
00000070: ad9c c03b 8973 8bbc f1fa 143d 00e5 fdba
00000080: 39b3 b5bb e365 a3bc d905 12bc f215 283d
00000090: f34d 7f3d 8dc3 e93d f211 6e3d faae a53d
000000a0: 95d7 7f3d 7c30 9d3b 6a1f 8a3d 9edc fd3c
000000b0: ddd3 763d 6a2f ae3c d73a 083d 5deb a83c
000000c0: 8e66 923c 3a8c 033d 9e7e c73c ae75 653d
000000d0: 3cbc 903d a7c6 6e3d 9cc4 b33b d023 7dbc
000000e0: 4302 173a cc95 203d 6371 393d 6a9f 943c
000000f0: 6d94 a03c 03ee e1bc f955 90bc d0c4 cf3c
00000100: 513a b8bc 22a8 423d 0051 463c 540c 6fbd
00000110: bdc0 15bd 665f 323c 977b 073d e990 9c3c
00000120: 6f34 db3c ca57 87bc 0cda 86bc 2973 25bd
00000130: ca62 503d 446c d93c a5de d3bc 7bd5 2abd
00000140: ed89 edbc 5c2a 6abc 6805 64bd 0925 3b3b
00000150: 6e3e 963b 12b5 00bd 926c 57bd be0d a03c
00000160: 9433 2dbd cfca 44bd 836c debd 3248 3a3b
00000170: a76f f63c 970a 893b c7f8 f4bc 87db d9bd
00000180: fe0a 97bd 78eb 893d 1ef4 b83d 9534 d3bc
00000190: 5068 c5bd 3f71 49bd 0770 893c 842e ffbb
000001a0: 6ab2 03bd d4f5 41bd 853f 1fbd 25c3 583d
000001b0: 0fce 003d 749b 9bba 33d3 4a3d 80dc 55bd
000001c0: 4c37 40bd 3fd7 c63c cbfc 813d 4b15 333d
000001d0: 3582 2f3c 90af 50bd 8734 fcbc e986 f8bc
000001e0: 4df1 5d3d 1dde 133d 1f60 43bd 5414 1bbd
000001f0: c20c 1abd 27dc 85bc ffa9 0cbd 8bf3 9abd
00000200: b16d 8dbd 6d0e 91bc aed6 e03c 425d a43d
00000210: f48b 6ebd 39b2 a1bc 9478 c53b c874 5fbd
00000220: 87e6 603d f127 08bd bd6e 0abc af8a 25bc
00000230: 2528 01bd 4410 d0ba dc33 143d 1be5 183b
00000240: 38d6 21bd c99f 72bd 979a 52bb 2e30 fb3c
00000250: eefe 783c 91ac 80bc e65c f03c 88a4 a33d
00000260: 34d3 553d 3be0 513d 7378 7b3c 1b89 bd3c
00000270: aec1 f8bb a0aa 1cbc f63a 1eba 7ac0 2f3c
00000280: 6f9c 713d e98e 3b3d bbf9 cb3c 6505 3d3d
00000290: 17ab 98ba 7b3f 4abd 02af 2f3c 171f 8e3c
000002a0: 95bd 57bc fdbf 0ebd c195 3b3b 0e03 1ebd
000002b0: f49f fbbc bdea 3dbd 3631 52bd a473 59bd
000002c0: 2a7d 943b 98c1 453d 2ded f1bc 21a2 b0bc
000002d0: 707b 84bd 4d13 a03c 10ff 353d 086f e63c
000002e0: 1709 c3bc 15c8 8bbb 3a9f 663c 7668 513d
000002f0: e1c8 823d 0dd0 5a3c 9a70 c2bc dd0c 733b
00000300: 065f 973c 0fad 08bc 7bc8 00bc b46b 803d
00000310: 0bd8 5d3d cb67 a8bd 8b13 a0bd e113 afbc
00000320: 318f 193d 3538 e0bc 4824 9fbc 0a18 4fbd
00000330: 2910 e2bd d518 ba3d 8583 bf3d 75be 9b3b
00000340: 6e63 bebd a55f f2bd 72ef 8a3d 1345 963d
00000350: 90c6 67bd aeea 28be 99f1 40be 84d6 073e
00000360: a8d5 a83d b3e3 40bc bd2d 21be f30c 25be
00000370: 8d08 9f3d c7ff 3a3d c7e4 ce3c 7027 ccbd
00000380: 3094 273c 325f 3b3d c39e 2d3d f995 9c3c
00000390: e0b8 ae3a 96b6 853c 3675 9bbc 03dc 103d
000003a0: 7709 d93c b321 a33c 2549 453c 31c5 d0bc
000003b0: 6401 d9bb f7e7 3e3c 29ca 873c 5585 d73b
000003c0: 2cf0 033d 483d 20bc 1917 06bd cb68 cc3c
000003d0: 9ecc f43d e400 9a3c 2d56 47bd c287 99bd
000003e0: 4a02 b5bb 9b85 823d 2cf2 b83d 1096 dd3c
000003f0: 3ce5 c93d 5b0c dc3c d21e 07bc f4ac 103d
-0.0032358835 -0.0035220953 -0.05481127 -0.049461707 -0.063588545 0.017269155 -0.012328634 0.0028724857
-0.025680805 -0.026202615 0.06544701 0.0015318287 0.013974568 -0.0070494763 0.05614117 0.07344813
-0.006929511 -0.079003006 -0.021798983 0.02064286 0.088879615 0.02164503 0.026797572 0.07419995
0.07437907 0.015866542 -0.0023336937 0.072944336 0.005878052 -0.017022865 0.03637213 -0.0019370615
-0.0055450466 -0.019946044 -0.008912527 0.041036554 0.062330198 0.114142515 0.058122583 0.08090015
0.062461454 0.0047970396 0.06744273 0.030988988 0.060260642 0.021262843 0.03325924 0.020620042
0.017871168 0.032116152 0.024352368 0.05602043 0.07067153 0.05829492 0.005486084 -0.015450433
0.000576053 0.039205357 0.04527415 0.01814242 0.019602025 -0.027579313 -0.01761912 0.025362402
-0.022488745 0.047523625 0.012104273 -0.058361366 -0.036560763 0.010887003 0.03307685 0.019112067
0.0267584 -0.016521353 -0.016461395 -0.04039303 0.050875463 0.026540883 -0.025863001 -0.041707497
-0.028996432 -0.014292326 -0.05566922 0.002855601 0.004585079 -0.031422682 -0.052593775 0.019537803
-0.042285517 -0.048044976 -0.10860541 0.002842438 0.030082537 0.0041821706 -0.029903783 -0.10637575
-0.073751435 0.06734365 0.09030937 -0.025781909 -0.09639037 -0.049180266 0.016777052 -0.0077875275
-0.03215257 -0.04735358 -0.038878936 0.05292048 0.031446513 -0.001187189 0.04951782 -0.05221224
-0.046927735 0.02427256 0.063470446 0.04372148 0.010712196 -0.05094868 -0.030786766 -0.030337768
0.0541852 0.036100496 -0.04769909 -0.037861183 -0.037609823 -0.016340328 -0.03434181 -0.075659834
-0.069056876 -0.017707074 0.027446117 0.080256 -0.05823894 -0.019738303 0.006026337 -0.05455473
0.054907348 -0.033241216 -0.008449254 -0.0101038655 -0.031532425 -0.0015873988 0.03618227 0.0023329917
-0.039510936 -0.059234414 -0.00321356 0.030662622 0.015197499 -0.015707286 0.029341172 0.07990366
0.052203372 0.051239233 0.015348542 0.023136666 -0.007591448 -0.009562165 -0.00060360075 0.010727042
0.058987077 0.045790587 0.024899354 0.046147723 -0.0011647668 -0.049376946 0.010722877 0.01734881
-0.0131677585 -0.034851063 0.0028623196 -0.038577132 -0.03071592 -0.046366442 -0.051316462 -0.0530888
0.0045315223 0.04828033 -0.02953204 -0.021561684 -0.06468856 0.019540453 0.0444327 0.028129116
-0.023808045 -0.004265795 0.0140760485 0.051125012 0.06385971 0.013355267 -0.023735333 0.0037086525
0.018477928 -0.008342042 -0.007860298 0.06270543 0.054161113 -0.08222922 -0.078162275 -0.021371784
0.037490074 -0.027370552 -0.01942648 -0.050560035 -0.110382386 0.090867676 0.09351257 0.004752929
-0.092963085 -0.11834649 0.06783952 0.073373936 -0.05658585 -0.16495773 -0.18842162 0.13265425
0.08243877 -0.011773038 -0.15740104 -0.16118221 0.07765303 0.045654085 0.025255574 -0.099684596
0.010228202 0.045745082 0.042387735 0.019114481 0.0013330244 0.016322415 -0.018976789 0.03536607
0.026493771 0.01991353 0.012041365 -0.025484653 -0.00662248 0.011651984 0.01657589 0.0065771737
0.032211468 -0.009780236 -0.03273687 0.024952313 0.1195309 0.018799253 -0.048666168 -0.07496597
-0.0055239545 0.063731395 0.090305656 0.027049094 0.09858176 0.02686136 -0.008247094 0.03532119

module.8.bias f4 [64]
00000000: b02b be3c c469 61bc aa00 313c 2c5d aabc
00000010: 9ef0 edba dcb8 15bc eeaf 9e3c 1ee6 02bd
00000020: 9b80 f83c 2c19 f9bc 16bc 06bd df81 313c
00000030: 9a00 6f3a 2a91 36b7 3d93 c239 be49 ff3c
00000040: 6edc 9bbc 3ceb e7bc 31ad d4bc 6d57 053d
00000050: 3659 7f3c ff07 92bc 662f dbbc 1346 d2bc
00000060: 9c6f e2ba 204c ebba 3610 f03c 4d54 41ba
00000070: 967a 0ebd fa07 0bbd 4b71 e4bc 4abd febc
00000080: a159 063d 7fae 5d3c 18f0 d13b a0b1 9abc
00000090: c6e1 75bc 89cf 063d 341d 85bb 3a2a ccbc
000000a0: 2c8d 82bc 71f9 edbc 6a07 103b 8c01 10bd
000000b0: da8b f0bc b4e9 ebbc 0574 2fbc 46be 233c
000000c0: 8ebc bcbc d929 00bd 2bd8 0dbd 24b8 b83b
000000d0: c7a6 a1b9 be16 1fbc 33d6 2dbc 394d dbbc
000000e0: 9dca 33bb cde3 3a3b 35fe e1bb ab81 67bc
000000f0: 3c97 dcbb 18da 09bd df55 4fbb fade b8bc
0.023214191 -0.013758127 0.010803381 -0.020796381 -0.0018153375 -0.009138312 0.019371 -0.031957738
0.030334761 -0.03040751 -0.032894216 0.010834186 0.0009117216 -1.0881844e-05 0.00037112265 0.031163093
-0.019026008 -0.02831041 -0.02596149 0.03255408 0.015585234 -0.017826078 -0.026756 -0.02566818
-0.0017275694 -0.0017951764 0.029304605 -0.00073749275 -0.034784876 -0.033943154 -0.027886054 -0.03109612
0.03280032 0.013530373 0.0064067952 -0.018883526 -0.015007442 0.032912765 -0.004062319 -0.024922479
-0.015936457 -0.029049607 0.0021977075 -0.035157725 -0.029363561 -0.028797962 -0.010708814 0.009994095
-0.023039129 -0.03128991 -0.034629982 0.0056371856 -0.00030832572 -0.009710012 -0.010610151 -0.026770221
-0.0027434 0.0028517128 -0.006896759 -0.014130036 -0.0067318957 -0.033655256 -0.0031636877 -0.022567261

module.9.weight f4 [64]
00000000: 07ef 403f 1341 303f 5008 293f 0ce7 3f3f
00000010: 1b3e 413f eda2 263f 8bc1 1c3f a997 523f
00000020: d38b 3e3f 64cc 243f e013 403f d19f 133f
00000030: 2a21 2e3f 0da4 1c3f a2d0 313f 79de 023f
00000040: 7bb7 3d3f 01e1 2f3f 8bcf 2b3f e50a 323f
00000050: 227e 3e3f 62b8 343f bcaa 2a3f 3bbf 293f
00000060: b8aa 0e3f b3ce 2c3f 49f0 483f 9774 283f
00000070: 1d3d 383f 9711 103f f1d9 4f3f b929 493f
00000080: 83bd 2b3f 9c8f 313f 89cc 2f3f 7704 3b3f
00000090: 31ac 1b3f 515f 1b3f a983 553f 778e 033f
000000a0: 90a3 213f f0e1 393f 424a 1e3f cbe0 253f
000000b0: 7f19 4d3f 7432 3b3f fb5b 253f b5fd 1e3f
000000c0: bc40 373f 9d97 3a3f df26 253f a439 413f
000000d0: 230f 033f 1f26 563f e990 233f b59f 303f
000000e0: 2124 403f 7933 303f 6aee 163f b605 343f
000000f0: b6a6 373f 3c81 393f c14f 513f 8640 303f
0.75364727 0.68849295 0.6602831 0.74961925 0.7548539 0.65092355 0.61232823 0.82262665
0.74432105 0.64374375 0.75030327 0.57665735 0.68019354 0.6118782 0.69458973 0.51120716
0.74108094 0.68702704 0.6711356 0.69547874 0.74411213 0.70593846 0.6666677 0.6630742
0.55729246 0.675029 0.78491646 0.658029 0.7196825 0.5627684 0.8119193 0.7857929
0.67086047 0.69359756 0.6867147 0.7305369 0.6080962 0.60692316 0.8340402 0.5138926
0.631402 0.7261038 0.6183206 0.6479613 0.8011703 0.7312386 0.64593476 0.62105876
0.7158315 0.72887594 0.6451244 0.7547858 0.5119497 0.8365192 0.6389299 0.68993694
0.7505513 0.6882854 0.5895754 0.70321214 0.71738756 0.7246282 0.8176232 0.68848455

module.9.bias f4 [64]
00000000: 8f84 28bf 5b43 12bf ce4f febe cc44 41bf
00000010: f480 3fbf 7f71 30bf e7c9 01bf dd80 72bf
00000020: bef1 2cbf 4d16 0fbf 1dfc 1dbf 1c66 1bbf
00000030: 6a0a ffbe b8ef febe 2330 21bf c89c f0be
00000040: cc61 16bf a572 06bf 96dc f9be bdda 3dbf
00000050: a62f 3cbf d3c5 22bf a58a 09bf dd0f 19bf
00000060: ba3f 03bf 0f34 1bbf 6ce5 12bf 0faf 30bf
00000070: d7d9 30bf 4e4a 00bf df07 59bf 064e 1fbf
00000080: bbbd 14bf 7a7f 12bf a53a 02bf 3cb2 11bf
00000090: 465e dbbe 7928 fcbe 8e29 31bf bf42 ffbe
000000a0: 2332 21bf d5be 1bbf a891 01bf f86f 10bf
000000b0: 795b 39bf 8051 16bf 735e 1abf 83ef 0dbf
000000c0: 7078 01bf bf87 0bbf 3423 2ebf 2178 1fbf
000000d0: a53d fabe a801 2ebf b5e7 0bbf 150a 10bf
000000e0: 8907 15bf 5df6 0dbf 96f7 f9be 07be 18bf
000000f0: 19ec 09bf 3646 10bf 281a 35bf 0827 1abf
-0.6582727 -0.57134026 -0.4967026 -0.754956 -0.7480614 -0.6892318 -0.50698704 -0.9472788
-0.6755637 -0.55893403 -0.6171282 -0.6070268 -0.49812633 -0.49792266 -0.62964076 -0.46994615
-0.58742976 -0.52518684 -0.48801106 -0.74161893 -0.73510206 -0.63583106 -0.5372718 -0.5978983
-0.51269114 -0.6062631 -0.5738132 -0.6901712 -0.690824 -0.5011338 -0.84777635 -0.6222843
-0.58102006 -0.57225764 -0.50870734 -0.5691259 -0.42845362 -0.49249628 -0.6920403 -0.4985561
-0.6296713 -0.6083806 -0.5061288 -0.5642085 -0.724052 -0.5871811 -0.6030037 -0.5544359
-0.505744 -0.5450401 -0.68022466 -0.6229268 -0.48875156 -0.6797128 -0.5465043 -0.56265384
-0.5821462 -0.55454046 -0.48821706 -0.5966496 -0.5387588 -0.56357133 -0.70743036 -0.60215807

module.9.running_mean f4 [64]
00000000: 432e 9abf 3348 0ec0 1c05 d0bf acd4 44bc
00000010: 9cd4 28c0 aedc dcbd 414e 94bf 3f44 8fbf
00000020: b900 a6be 1979 e6bf 17e9 0bc0 4c2e 10bf
00000030: d825 e5bf f35c e03e 2464 14c0 45bd 7cbf
00000040: 6915 0bc0 69ec 24c0 6202 c9bf ccb3 a7be
00000050: a96e 6ebf 352e 04c0 17f5 5dbe 503e a1bf
00000060: 8458 aabd efcc 6abf 35b5 fabf f5f6 53bf
00000070: 7015 7cbf 6ab9 80bf bbe1 31bf 047c 11c0
00000080: 1eea bbbc d267 54bf ef6a f9bf 43cb 16c0
00000090: 75c7 a6bf 711c aabf 3a55 59c0 62a6 74bf
000000a0: ee1d 92be a8a0 3ec0 cb4e c1bf 6f9f 94bf
000000b0: 85cb 41c0 9777 edbf 40f7 f4be 2ec2 04c0
000000c0: f3ef 8fbf d543 c8bf b233 ecbe 1f07 48bf
000000d0: 62db 323f 9826 42c0 3208 a6bf d260 c1bf
000000e0: 695c 1fc0 e8d6 b6bf 58e8 ffbe a9d4 2ebf
000000f0: f673 b8bf 1cda a3bf bd17 3ebf 1284 f7bf
-1.2045368 -2.2231567 -1.6251559 -0.012013596 -2.6379766 -0.10784279 -1.1586381 -1.1192702
-0.32422426 -1.8005706 -2.1861017 -0.56320643 -1.7902174 0.43820915 -2.318612 -0.987263
-2.1731818 -2.5769293 -1.5703852 -0.32754362 -0.93137604 -2.0653203 -0.21675526 -1.2597141
-0.08317664 -0.91718954 -1.958655 -0.827987 -0.9847021 -1.0056584 -0.6948506 -2.2731943
-0.022938784 -0.8297092 -1.9485759 -2.356156 -1.302962 -1.328993 -3.3958268 -0.9556638
-0.2853846 -2.9785557 -1.5102171 -1.1611155 -3.0280468 -1.8552121 -0.47844887 -2.0743518
-1.1245102 -1.5645701 -0.4613319 -0.78135866 0.69866 -3.0336056 -1.2971251 -1.5107672
-2.4900153 -1.4284334 -0.49981952 -0.68293244 -1.4410388 -1.2800937 -0.7425497 -1.933718

module.9.running_var f4 [64]
00000000: 0a00 e83f fd5e ae3f e3cb a13f f345 e03f
00000010: d347 dc3f a786 963f b24d 973f 1241 f33f
00000020: 995f ec3f 35bb 8f3f 06bf b53f 2dd4 7a3f
00000030: 6209 bd3f 316f 973f 1bf7 a03f 6085 9c3f
00000040: cc25 d33f b2a1 9a3f 4124 8a3f b493 943f
00000050: cc11 c83f fa66 de3f 09f0 a23f 9e2f a53f
00000060: c932 5a3f f3ef 8e3f c5d7 f43f f687 a83f
00000070: 52a7 d23f 7f18 743f 4f74 f63f b69a dd3f
00000080: 7e06 b23f 752e 903f 3955 923f c406 c33f
00000090: 8241 913f 413d bd3f bee8 0140 14a0 6b3f
000000a0: d1fa a43f 72c2 cf3f 5870 7a3f 1892 b13f
000000b0: 8fac ce3f 0a48 be3f b084 c43f 8fd2 953f
000000c0: ac10 8a3f b659 d93f 9942 a63f c33d a83f
000000d0: 7f7a 603f 4225 fd3f 1dc0 7f3f c260 b03f
000000e0: 10bf 953f fcfc ce3f 54c0 b33f 62c4 9b3f
000000f0: 9cf6 a73f 27bc be3f 0696 ed3f 2603 de3f
1.8125012 1.3622738 1.2640346 1.7521347 1.7209419 1.1759843 1.1820586 1.9004233
1.8466674 1.1229006 1.4198921 0.97980005 1.4768488 1.1830808 1.2575411 1.2228203
1.649591 1.2080595 1.0792314 1.1607575 1.5630431 1.7375176 1.2729503 1.2905157
0.8523374 1.1166977 1.9128348 1.3166492 1.6457312 0.9534988 1.9254245 1.7312839
1.3908231 1.1264178 1.1432258 1.523644 1.1348116 1.4784318 2.0298305 0.92041135
1.2889043 1.6231215 0.9782767 1.3872709 1.6146411 1.4865735 1.5352993 1.1704882
1.0786338 1.6980503 1.2989074 1.3143848 0.87686914 1.9776995 0.99902517 1.3779528
1.1698933 1.6170955 1.4043069 1.2169306 1.3122134 1.490117 1.8561409 1.7344711

module.13.weight f4 [64, 1024]
00000000: aed1 9abb f4c9 843d a965 4b3d 6177 f6bc
00000010: 86cd 39bd 9aeb bebc e160 563d 37a1 ba3b
00000020: 5b9a 713b a5bc 543c 7626 d7b9 252c 823d
00000030: d73b 8d3a 08fc 1bba b752 a93c 071d 983a
00000040: 462a f83c 9b1c 773c 4951 ca3c 8f5f a83c
00000050: f7c0 21bd 839f 1c3d 18d0 46bd 16c9 1e3b
00000060: 6a44 513c c5f2 7e3d acec 123d 8a1e aebc
00000070: 9eb5 253d 9efe 853d 5532 213d ca76 2abd
00000080: 43c5 00bd 4332 27bc 2632 8bbd 4c3d d43c
00000090: 0dc2 553b 1503 78bd 3106 bbbd b35d 6a3d
000000a0: 6c9d 2a3d f0c6 abbd 5200 dfbd 9300 223d
000000b0: 7782 f33c ee1a dcbc 7380 73bd 16a8 033d
000000c0: 1e0c b6bd db58 9fbc 65a1 993c e5d4 c43b
000000d0: b01f 3abc b20c d73c 02f1 4f3d 19ac 5c3d
000000e0: 579e 2ebd ed8d 323c 16d4 9a3d eded 81bc
000000f0: b51a aabd e0d3 b2bb 3dd7 e2ba 5614 09bc
00000100: 52bb c23d 4bd3 15bc 5f08 1ebc a38e 363c
00000110: a97d 9e3d a323 98bb dde9 12bd 8e3c f8bc
00000120: 60ff ed3c 5cb9 c63c d600 6fba 9dd1 af3b
00000130: ead1 283d e16e e73b 57f8 42bb 980d 693d
00000140: be7d 173d d7df c3bd 0cd9 cabd d3ed 58bd
00000150: e7db c73c 8836 06bd df08 21be ec87 6fbd
00000160: 0aa7 923c 1989 b8bc 4cac febd 54b7 c9bd
00000170: a079 22bd ac28 1bbd 13a9 34bd 28d1 b03b
00000180: e853 c9bc 29f8 7ebd ebd7 dc3c 2623 56bd
00000190: cbc2 793d 7f15 29bd bf6a ecbb dd95 943b
000001a0: 27ba fd3c a171 b93c bf57 f63d 3329 133d
000001b0: 3fac a7bc 11a7 323d d130 b13c e2c1 203d
000001c0: 5c2c 783c 237f 513d 9f25 db3d 414f d5bc
000001d0: 379d 9abc 0319 db3c 62a2 d4bc 0cb3 4abc
000001e0: e00a 78bc b926 52bc a5ae 32bd 9507 e3bc
000001f0: 41ae a03c 7fc3 ba3b 2ad2 613d 3468 a43c
00000200: d014 733c a5aa 65bb dbf2 b83c 715b 42bd
00000210: 294e b0b9 044a eabc 72fd 9e3c 3fa6 49bd
00000220: aa28 f0bc b116 373d 8514 0e3d cfc4 1f3b
00000230: 89d7 79bb b71e 2b3d 89c0 c63c b409 1d3c
00000240: 80ba 95bc e2e7 37bd 933e 993d 334e 503d
00000250: c5c4 e53c 9776 a6bb 9089 a73d db7a ec3d
00000260: 7d3a ee3c 49e5 2cbd 33ed 2a3c a107 623d
00000270: 439e 953c 0fcf 9d3c da7b 213c c8dc 5c3d
00000280: f11d 463d 1e8c 233d a33a 95bc 0829 17bd
00000290: 0982 8abd 6556 b6bd 3e22 383d cebc 2e3c
000002a0: dda5 bebc 23c2 fabc d01c 0f3e b1ec 8e3c
000002b0: dd99 173c 6410 343c 2cd7 cd3d d4fc 1f3d
000002c0: 46af d1bc f258 e1bc df8b cabd d05f e3bc
000002d0: 7c5d 52bd ac72 82bd ca69 1a3d c28f ca3c
000002e0: b8da 143c 7f97 12bd 286a 0ebd b963 8c3b
000002f0: 2f98 873b 1b6d 00bd 23f6 3cbc 1750 c73c
00000300: b409 43bd a565 ebbc 8fe7 013d 601f 2f3d
00000310: 9454 cdbc 6f42 b8bd c03c 27bd 7ab4 dfbb
00000320: cf2f 28bd 5b90 b8bd 33d0 cbbc 1cff 66bd
00000330: d063 6a3d 8e87 6e3d c2d1 8d3d 6ec9 80bc
00000340: 8b96 063c e902 f9bc 0f7c 1f3d 3e40 7fbc
00000350: b540 bd3b dc1a b9bc d748 de3c 4c67 033d
00000360: a391 92bc 073c 0d3d 9062 20bc 08dd 413d
00000370: caa5 ad3c 5d86 34bc 76dc 80bc 1e33 2c3d
00000380: fb16 363d c467 833c d08f b6bb e82c f73c
00000390: f856 9fbb 1e62 ecbc 4905 7fbd 595c 11bd
000003a0: a70d 77bd 852e 15be 2a21 853b e265 75bd
000003b0: 45bc 4b3c 188a aebd 9027 0abb 9e53 313d
000003c0: ada9 1f3c a13e 4c3c 0996 2fbd 8e79 87bc
000003d0: 8416 953c 264c 94bd 32ab 6cbd 14b2 ffbc
000003e0: 85fa e43c 18c1 24bd 5a64 993b 4c2d 6a3d
000003f0: e804 ad3c b0a1 59bd 58ac 05bd efd6 133c
-0.004724703 0.06483832 0.049657498 -0.030086221 -0.045362018 -0.023305703 0.052338485 0.005695488
0.0036865685 0.0129844295 -0.0004103665 0.06356076 0.001077528 -0.00059503363 0.020669324 0.001160533
0.030293595 0.015082504 0.024696963 0.020553378 -0.039490666 0.03823806 -0.048538297 0.0024228743
0.012772659 0.06224324 0.03587024 -0.021254797 0.040456407 0.06542705 0.03935464 -0.041617192
-0.031438123 -0.010204854 -0.067966744 0.025908135 0.0032616884 -0.060549814 -0.0913204 0.057218265
0.041654035 -0.08387554 -0.10888733 0.03955133 0.029725296 -0.02686831 -0.05944867 0.03214272
-0.0888903 -0.01945155 0.018753717 0.0060068243 -0.011360094 0.02625117 0.050766952 0.053875063
-0.042631473 0.010898096 0.075599834 -0.015860522 -0.08305875 -0.0054573864 -0.0017306578 -0.008366665
0.09508385 -0.009144614 -0.0096455505 0.011142406 0.077388115 -0.00464292 -0.03586756 -0.030302312
0.029052436 0.024258308 -0.0009117251 0.005365564 0.041215815 0.0070627783 -0.0029750073 0.05689773
0.03698515 -0.095641784 -0.0990468 -0.05296118 0.02439685 -0.03276685 -0.1572604 -0.058479235
0.017901916 -0.02252631 -0.12435207 -0.0984942 -0.039666772 -0.037880585 -0.044106554 0.005396027
-0.024576142 -0.062248383 0.026958426 -0.052279614 0.060976785 -0.041280266 -0.0072148736 0.0045344667
0.030972553 0.02263719 0.12028455 0.035927963 -0.020467876 0.04361636 0.021629723 0.0392474
0.015147295 0.051146638 0.10700535 -0.026038768 -0.018873794 0.026745325 -0.025956336 -0.01237179
-0.015139312 -0.012826615 -0.043623585 -0.027713576 0.01961434 0.0056995745 0.05513207 0.02006922
0.014836505 -0.003504434 0.02257674 -0.047450487 -0.0003362757 -0.028599747 0.019407962 -0.04923081
-0.029316265 0.044699375 0.034687538 0.0024378782 -0.0038122854 0.04177734 0.02426173 0.009584833
-0.018277407 -0.044898875 0.07482638 0.050855827 0.028047929 -0.005080055 0.08180535 0.1154687
0.029080624 -0.04221085 0.010432529 0.055183057 0.018263942 0.019263772 0.009856189 0.05392149
0.048368398 0.039928548 -0.018216437 -0.036904365 -0.067630835 -0.08903197 0.04495453 0.010665132
-0.02327245 -0.03061015 0.13975835 0.017446848 0.009252992 0.010990236 0.100508064 0.039059475
-0.025596272 -0.027508233 -0.098899595 -0.027755648 -0.051358685 -0.06369528 0.037698545 0.024726752
0.00908535 -0.03578901 -0.034769207 0.004284349 0.0041380147 -0.03135405 -0.011533293 0.024330182
-0.047616675 -0.028734991 0.031714972 0.04275453 -0.025064744 -0.08997046 -0.04082942 -0.0068269344
-0.04106122 -0.090119086 -0.02487955 -0.056395635 0.057224095 0.058234744 0.06924774 -0.01572105
0.008214603 -0.030396895 0.03893667 -0.015579281 0.005775536 -0.022595815 0.027134342 0.032080933
-0.01789171 0.034481075 -0.009789124 0.047329932 0.021197218 -0.011018363 -0.015730124 0.042040937
0.04445551 0.01604069 -0.005571343 0.03017278 -0.0048626624 -0.02885538 -0.0622609 -0.03548846
-0.060315754 -0.14568527 0.0040627914 -0.059911616 0.012435024 -0.08522433 -0.002108071 0.043292634
0.009745044 0.012466104 -0.042867694 -0.016537454 0.018199213 -0.07241087 -0.057780452 -0.031212844
0.027951488 -0.04022321 0.0046811523 0.057172105 0.021120504 -0.053132713 -0.032635063 0.009023412

module.13.bias f4 [64]
00000000: f0e0 433c 6808 d33d 9cdd a23d 9429 0a3d
00000010: 8795 5a3d 85da b33c 1adc 653c 7dbc a3bc
00000020: be33 6e3c 6786 083d b434 0fbd ed53 91bc
00000030: 9ba0 a83d 4324 323c dc76 03bc e118 6c3d
00000040: 5d68 b4bc e6aa 563d 7cba 343d 1f79 babc
00000050: 34ba e73d c261 ed3a f72b ea3a df1f 263d
00000060: e20e 8ebc 656d 273d aabc a33d 89a2 ffbc
00000070: be57 943d 7d6b d8bc 448a a73c 6119 55bc
00000080: 826d b13d 504d b83c 1396 d9ba 0cdc 193d
00000090: 5ca4 6e3c f75a 00bc 5a14 4ebc 4af4 663d
000000a0: 7fd1 dd3d 5b98 603c 34a1 2d3d 2e62 c03d
000000b0: fe8f 373c a204 18bc 1ef0 133c b85b 893d
000000c0: cf9a 643d 4d9f b93a 101d b13b 3a3c ecbc
000000d0: b196 ed3c 97db dc3c 46a1 393d 7dfa fbbc
000000e0: e704 763d 8f35 0ebd ff61 d63b 2b54 373d
000000f0: 1743 0abd b23d 643d ea54 a23d 31db 5e3c
0.011955485 0.10304338 0.07952425 0.03373106 0.053365257 0.021954784 0.014029527 -0.01998734
0.0145387035 0.0333313 -0.03496237 -0.017740214 0.08233758 0.010872903 -0.008023944 0.057640914
-0.02202242 0.052409075 0.044123158 -0.022762833 0.11314812 0.0018110799 0.0017865886 0.04055774
-0.017341081 0.04087581 0.07994969 -0.031205432 0.07243298 -0.026418442 0.020451672 -0.013006539
0.08663465 0.022497803 -0.0016600512 0.03756337 0.0145655535 -0.007834188 -0.012578094 0.056385316
0.10830974 0.013708199 0.042390063 0.09393726 0.011203764 -0.009278448 0.009029416 0.06706947
0.0558117 0.0014161855 0.005405076 -0.028837312 0.02900252 0.026960177 0.045319818 -0.03075909
0.06006327 -0.034719046 0.0065424438 0.044758003 -0.033755388 0.0557229 0.07926352 0.013602064

module.16.weight f4 [10, 64]
00000000: 40c5 953c e730 653e d91a 893e 3a4d 4dbe
00000010: 77eb a13e f801 8b3e 013d 803e 3279 c13d
00000020: 3823 0a3d 7c50 98be 4fac 343d 8912 733d
00000030: 3c12 44be b759 1fbe 5968 9e3e baf3 19be
00000040: fd3b f83d 8385 663e d8f0 78be a886 763d
00000050: 8a76 89be 0c38 babd 0eb3 22bd 53cb 2cbe
00000060: b038 61bd 82e5 8dbe 0f29 a3be e8af d1bd
00000070: fef1 b33e 47e8 813d 6ca8 343c 0042 5ebc
00000080: a49b 943e 6d91 43be e61d b03d 6418 843e
00000090: 6284 e33e bde7 61bc 8ce4 ca3d d94a 9f3e
000000a0: c369 72bc 0ea4 cb3d bc72 843e c282 8b3e
000000b0: ebc0 ad3e 309d aabd 96e1 913e 9c8c 75be
000000c0: 8793 023e 5713 d5bc a3c4 81bc f10c 08bd
000000d0: 550a 96bc 5024 053e f74e 7ebe 9c79 58bd
000000e0: a0ee c0be 8807 223d 148a 093d 3a34 86be
000000f0: 8635 e8bd c9ee 84bc b939 b53e 9878 9fbe
00000100: 6ae6 9fbd 3a6b 633e 3d84 8abe 508d 93be
00000110: 8905 15be ab8f c6be 863c 053e 83b4 9e3d
00000120: f294 003c c1a9 64be 1053 853d 5360 403d
00000130: 77c9 c3be fe3a a5be e97b 18be f0b2 da3e
00000140: 2265 153d 69ca c0be 7913 6cbe 56c5 f43d
00000150: 0096 a0be f274 c53d f1dc c8bd 4b47 ba3e
00000160: c04a 8c3d 1f75 92be 0b30 9fbe eabc 83bd
00000170: 5389 d53e c830 713d 8086 073f 3ed7 b9be
00000180: 4721 ca3e 24bd b2be 55d5 9f3d 3924 b33e
00000190: efae 83bd 9fa3 58bd 2b4b 8d3d 1a91 ca3e
000001a0: 8dc1 b1be 044d 6dbd 499f d2be ac24 20bd
000001b0: 3f7e 92be 053b c63d e3ce dd3e e4de 34be
000001c0: 883a 21be 5acf f63d 920a e5bd 4c48 93bc
000001d0: 537d d8bb 327c 833e 664a 5cbe f962 023d
000001e0: 096a b1be d328 0fbd 5f64 e13d 6a6c b73e
000001f0: a484 273c e845 e93e ba9e 90be bd4e 893e
00000200: c08f bc3e 26f4 4bbe 9887 743e adf8 b93e
00000210: f437 afbd 024f 803e cc5d 80bd 3593 1dbd
00000220: 8f64 f4bd c2f9 a93e e7b3 45bd 9acf 513d
00000230: 71b5 92bd 5823 b23b 3e5c a33e b4ce 873e
00000240: aa88 983d f95c 8b3e b3f1 28bd 5988 013e
00000250: a505 b53c af7e c73d a347 66bd b874 8bbd
00000260: 47bd 60bd 33a0 8d3e 9557 11bd d5d6 6d3c
00000270: 1d3e 68be bca7 dc38 4539 9b3d 5ee1 f83e
00000280: a4b7 83be 8d53 46be b49d aa3c d068 55be
00000290: a538 d63e af01 873d c9f6 d83d ce8b 273d
000002a0: 9ca2 1dbc a3df a83d e417 233e 9bfe fcbd
000002b0: ebc8 ba3e 0c5f df3c 1696 0d3e 8e5f 343e
000002c0: d349 653b beb2 bbbc 3f36 893d 6424 4b3d
000002d0: b8ac c43d 13ac 4d3e e4ed f43d 2c52 a83d
000002e0: 39a5 393e 19d4 d13d 2599 793d 9302 acbd
000002f0: 7d95 6eba 2dbe 88be 4049 203e 14c5 8ebe
00000300: 46f4 613e 4359 98bd cdc5 05be 3053 633e
00000310: 3bcb 45be 6ae1 763b 2403 a8bd 3212 a93c
00000320: 2b7b 8ebd fcce da3d 65b5 edbd 8771 003e
00000330: f4e6 95bd 70de 8dbd 06a5 a8bd 60d4 1ebe
00000340: 2792 2abd 21ae ca3c 0bad b63e 389b b83d
00000350: 2130 6f3e dc25 de3d 0057 f3bc 8eef 0bbd
00000360: b29a a5bd 2793 613e 89bd b33e 8db6 e9bd
00000370: 4ef4 87be c8b3 6a3d a9a7 6abe ca1e 1b3d
00000380: dcb1 58be a241 cc3d 1f31 5bbd 970f 01be
00000390: 0f4a ed3c 90aa 873d d369 38bd 53ef 77be
000003a0: f4d3 ac3e bc4a 223d febf 92bb 5c54 62be
000003b0: cb78 483c d71f fb3c 542b c6bd 758f 073d
000003c0: 1e1e 1abd f67d 223d 1c3e b23d ffd0 9dbd
000003d0: 0b21 8e3d 4734 48bd 0761 aa3e c5a6 b03d
000003e0: 6c4d 183e f99d 0b3d 1422 edbc 60d0 f53d
000003f0: 9c9b f93c 20a9 37be 2ba9 b43e e1b6 933e
0.018282533 0.22381936 0.26778296 -0.20048991 0.31624958 0.2714994 0.25046542 0.09446944
0.033724993 -0.29748905 0.04410964 0.05934385 -0.19147581 -0.15561567 0.30938986 -0.1503438
0.12120817 0.22511868 -0.24310625 0.060187012 -0.2684825 -0.09092721 -0.03972154 -0.16874437
-0.054985702 -0.27714163 -0.31867263 -0.102386296 0.35145563 0.063431315 0.011026483 -0.01356554
0.29024994 -0.19098444 0.08599453 0.2579986 0.44436938 -0.013788161 0.09906873 0.31111792
-0.014795723 0.099434 0.25868785 0.27248198 0.33936247 -0.083307624 0.2849242 -0.2397942
0.1275159 -0.026010199 -0.015840834 -0.033215467 -0.018315474 0.13002133 -0.2483481 -0.05285035
-0.37682056 0.039557964 0.033578947 -0.2621172 -0.11338334 -0.016227143 0.353956 -0.31146693
-0.0780762 0.22208872 -0.27054015 -0.2881875 -0.14552893 -0.38781485 0.13011369 0.07749274
0.007848011 -0.22330381 0.065099835 0.046966862 -0.38239643 -0.3227157 -0.14891018 0.42714643
0.0364734 -0.37654427 -0.23054303 0.11951701 -0.3136444 0.09641446 -0.09807766 0.36382517
0.06850195 -0.2860498 -0.3109134 -0.06432517 0.41706333 0.058884412 0.52939606 -0.3629703
0.39478514 -0.34909928 0.07804362 0.34988573 -0.0642985 -0.052890416 0.06899103 0.3956383
-0.3471798 -0.057934776 -0.4113715 -0.039097473 -0.28611943 0.09679226 0.43321905 -0.17663151
-0.15744984 0.12051268 -0.11183657 -0.01797881 -0.0066067367 0.2568069 -0.21512756 0.03183267
-0.3465121 -0.034951042 0.110054724 0.358249 0.010224495 0.45561147 -0.282461 0.26817885
0.36828423 -0.19917354 0.2387985 0.36322537 -0.08555594 0.25060278 -0.0626789 -0.038470466
-0.119332425 0.33198363 -0.04826727 0.051223375 -0.071635135 0.005436342 0.31906313 0.2652489
0.074479416 0.2721937 -0.041246127 0.12649669 0.022097418 0.0974096 -0.05622066 -0.06809372
-0.05486801 0.27661285 -0.035483915 0.014516552 -0.22679944 0.000105216604 0.07579283 0.48609442
-0.25726044 -0.1936781 0.020827152 -0.20840764 0.4184009 0.06592118 0.105939455 0.040904813
-0.009621289 0.0824578 0.15927082 -0.1235325 0.36481413 0.027267002 0.13826784 0.17614576
0.003498663 -0.02291238 0.066998 0.04959525 0.09603256 0.20085172 0.119594365 0.08218798
0.18129434 0.102455325 0.060937066 -0.083989285 -0.0009101255 -0.26707593 0.15652943 -0.27884734
0.22065839 -0.074389 -0.13063736 0.22199702 -0.19315808 0.0037670978 -0.08203724 0.020638559
-0.06957086 0.106840104 -0.11606864 0.12543307 -0.073194414 -0.06927192 -0.08234601 -0.15510702
-0.041643288 0.024741234 0.35678896 0.090139806 0.23358203 0.10847065 -0.02970457 -0.034164004
-0.080861464 0.2202879 0.3510554 -0.11411772 -0.26553577 0.05730036 -0.2291552 0.03787116
-0.21161598 0.09973456 -0.053513642 -0.12603603 0.028965978 0.06624329 -0.045022797 -0.24212389
0.33755457 0.039622054 -0.0044784537 -0.22102493 0.012235831 0.03065483 -0.09676233 0.033095796
-0.03762638 0.039670907 0.08703253 -0.077058785 0.06939896 -0.04887798 0.3327715 0.08625559
0.14873284 0.0340862 -0.028946914 0.12002635 0.030469708 -0.1793561 0.35285315 0.28850463

module.16.bias f4 [10]
00000000: 1661 8abe ad9b c1be 4fbb e1bd 197e 243f
00000010: e3d8 eabc 230d b63d b528 7a3c f88b 0e3d
00000020: 8616 3bbe 04ac 3b3c
-0.27027196 -0.37814084 -0.110220544 0.6425491 -0.028667873 0.088892244 0.015268494 0.034801453
-0.18270311 0.011454586
