models/xue_epoch_2.pth (torch, 592503 bytes, 22 tensors)

module.0.weight f4 [32, 3, 5, 5]
0	0x3cb5d456	0.022195976
1	0xbd2ff717	-0.042960253
2	0x3d269de2	0.040677913
3	0x3d1ada82	0.03780604
4	0x3ca4facf	0.020139126
5	0xbe2ac480	-0.16676521
6	0xbdef0946	-0.11671691
7	0xbdfd97e3	-0.12382486
8	0xbe4b044f	-0.19825862
9	0xbdf5a83f	-0.11994981
10	0xbe45544a	-0.19270435
11	0xbdee6a57	-0.116413765
12	0xbd85bc1a	-0.06530018
13	0xbde0d746	-0.1097856
14	0xbe44bc3b	-0.19212429
15	0xbcf913dd	-0.03040498
16	0xbe236eb3	-0.15960197
17	0xbdc2fb75	-0.09520618
18	0xbd91a0fe	-0.07110785
19	0xbcbb6f36	-0.022880178
20	0xbe3a2180	-0.18176842
21	0xbdd15727	-0.10221701
22	0xbe1be6e8	-0.15224802
23	0xbe3c15a2	-0.18367627
24	0xbda717ba	-0.08158822
25	0x3d79e7a9	0.061011944
26	0x3cb0e2c9	0.021592515
27	0xbc91076d	-0.017703736
28	0xbdf22d07	-0.118249945
29	0xbdeeafcd	-0.11654625
30	0xbcb968c8	-0.022632971
31	0xbd2b70fe	-0.041855805
32	0xbc96d905	-0.01841403
33	0xbd797528	-0.060902745
34	0x3d39cfae	0.045364074
35	0xbca7a21a	-0.020463038
36	0xbd531bfa	-0.051540352
37	0xbd574c48	-0.05256298
38	0x3d80405f	0.06262278
39	0xbce42ba5	-0.027852843
40	0xbdcfaaf5	-0.10140029
41	0x3dfff1f4	0.12497321
42	0x3dbdc000	0.09265137
43	0xbc8c8a91	-0.017155917
44	0xbc9bc15f	-0.019013105
45	0x3d826bb1	0.06368197
46	0x3d52e8fb	0.05149172
47	0xbdf8aed0	-0.12142718
48	0x3d090f63	0.03346194
49	0xbae29152	-0.001728574
50	0x3d962563	0.0733135
51	0x3d583280	0.052782536
52	0x3ddecf8a	0.10879429
53	0x3e0567cb	0.13027875
54	0x3d3c9a53	0.046045613
55	0x3dc07c0e	0.093986616
56	0x3d9f2c07	0.077720694
57	0x3e07e522	0.13271001
58	0x3d05ae9e	0.03263723
59	0x3e0886d3	0.13332681
60	0x3e4a3ac0	0.19748974
61	0x3dd5805e	0.10424875
62	0x3d019ec2	0.031645544
63	0x3d3cbae4	0.04607667
64	0x3dd9e87a	0.106400445
65	0x3e1f3917	0.15549122
66	0x3e190698	0.14943922
67	0x3d141eb5	0.036162097
68	0x3df2a710	0.11848271
69	0xbbe57c0c	-0.007003313
70	0x3deea139	0.116518445
71	0x3dbc9c83	0.0920954
72	0x3ccff4a6	0.025385212
73	0x3d7dc66e	0.061956815
74	0xbb092f79	-0.0020932837
75	0x3ce6d01d	0.028175408
76	0xbd07cd1f	-0.033154603
77	0x3e139530	0.1441238
78	0x3d1d58e3	0.038414847
79	0x3cf85035	0.030311683
80	0x3d3610a2	0.044449456
81	0x3d99ac2a	0.07503541
82	0x3e260584	0.16213042
83	0x3e0686e3	0.13137393
84	0x3daab785	0.08335785
85	0x3c19225a	0.009346569
86	0x3d43f72b	0.04784314
87	0x3bd691d2	0.006548145
88	0x3c29b2cf	0.010357573
89	0xbdd4d453	-0.1039206
90	0x3b20ce2f	0.0024536957
91	0x3cd4b0db	0.025963238
92	0x3d873ad4	0.066030174
93	0x3c8733a5	0.016504118
94	0x3dc709e0	0.097186804
95	0x3d38ef84	0.045150295
96	0x3d6033c4	0.054736868
97	0xbcabfab6	-0.020993572
98	0x3d468482	0.048466213
99	0xbbc04b62	-0.0058683613
100	0x3dd6a045	0.10479788
101	0xbbc65d2f	-0.006053589
102	0x3d1f6ca5	0.03892197
103	0xbd6f9a29	-0.058496628
104	0x3d48a0a8	0.04898134
105	0xbcb7e5f2	-0.022448514
106	0x3d35c9d8	0.044381946
107	0xbda2b0b4	-0.0794386
108	0x3ddd7f97	0.108153515
109	0x3d5c454d	0.053777028
110	0xbd331563	-0.043721568
111	0xbdbcc819	-0.09217853
112	0xbd8dffbe	-0.069335446
113	0xbdca4794	-0.09876934
114	0x3d099521	0.033589486
115	0xbd73b703	-0.059500705
116	0xbbbded5e	-0.0057961186
117	0x3cd854e1	0.02640766
118	0xbdca9042	-0.09890796
119	0xbd8449b8	-0.06459373
120	0x3d26e45f	0.040745135
121	0xbd752e9c	-0.059858903
122	0x3cd9210d	0.026505018
123	0x3d5e5e54	0.054289177
124	0xbd9f182d	-0.07768283
125	0xbd293dda	-0.041318752
126	0x3db64048	0.088989794
127	0xbd08f113	-0.03343303
128	0x3e02620c	0.12732714
129	0x3dd655c5	0.10465578
130	0x3b2d5a62	0.0026451577
131	0x3ccd5bec	0.025068246
132	0xbd26b45f	-0.04069936
133	0x3d071072	0.032974668
134	0x3d293c6a	0.04131738
135	0xbcaed6d9	-0.021342682
136	0xbd74c66b	-0.05975954
137	0x3d11fb89	0.035640273
138	0xbdbe7e95	-0.09301487
139	0xbdaa6d6f	-0.08321654
140	0xbd2fd389	-0.042926345
141	0xbcbc5faf	-0.022994844
142	0xbe03ac12	-0.12858608
143	0xbd811124	-0.063020974
144	0xbcd9f722	-0.0266071
145	0xbdcf09d7	-0.10109299
146	0xbd608bf1	-0.05482096
147	0xbde27fe6	-0.11059551
148	0x3c731cae	0.014838381
149	0xbcb32a8d	-0.021870876
150	0x3c409fc2	0.011756839
151	0xbcf575f3	-0.02996347
152	0xbc8da462	-0.017290298
153	0x3d095862	0.033531554
154	0x3d67dee9	0.056609068
155	0xbde649d9	-0.11244554
156	0xbd128e63	-0.03578032
157	0xbd12d602	-0.035848625
158	0x3e0612da	0.13093129
159	0x3d9ea7b1	0.07746828
160	0xbdda4a7e	-0.106587395
161	0xbd65381a	-0.055961706
162	0x3d9c3ac2	0.07628395
163	0x3e160d63	0.14653544
164	0x3e00369d	0.12520833
165	0x3c208284	0.009796742
166	0xbd82f042	-0.06393482
167	0x3d98fd07	0.07470136
168	0xbdc21f42	-0.09478618
169	0x3d977579	0.07395453
170	0xbde2443a	-0.110481694
171	0x3d387403	0.045032512
172	0x3d79d20a	0.060991324
173	0x3d52bab9	0.051447604
174	0xbda1372b	-0.078718506
175	0xba2dff6a	-0.0006637486
176	0x3ca425f4	0.020037629
177	0xbdf6f9ca	-0.12059362
178	0x3cd1a79f	0.025592623
179	0x3bfa3ab2	0.0076363916
180	0xbb836622	-0.004009978
181	0xbd463165	-0.04838695
182	0x3c858d72	0.016302798
183	0xbb39747f	-0.0028298197
184	0x3d1b922a	0.03798119
185	0x3d33ff74	0.04394479
186	0xbb812e0b	-0.0039422563
187	0x3d2255a0	0.03963244
188	0x3dc12f11	0.09432805
189	0x3d87a364	0.06622961
190	0x3d180ef3	0.03712363
191	0xbdbecf48	-0.093168795
192	0xbd092c99	-0.033489797
193	0x3de7d1e1	0.11319328
194	0xbb7e5422	-0.0038807471
195	0x3cfb6260	0.030686557
196	0x3dc500e3	0.0961931
197	0xbcf090dc	-0.02936595
198	0x3d251ac3	0.040308725
199	0xbdadd34e	-0.08487569
200	0xbe234ccd	-0.15947266
201	0x3d9000df	0.07031416
202	0x3d1586c5	0.03650548
203	0xbcd2e976	-0.025746088
204	0xbcba4526	-0.02273805
205	0xbd683a22	-0.056696065
206	0x3d61f408	0.055164367
207	0x3d9f813b	0.07788321
208	0x3da653a5	0.08121423
209	0x3e121f46	0.14269742
210	0xbdc4af38	-0.09603733
211	0x3dd7ae08	0.10531241
212	0xbd952095	-0.07281605
213	0x3dec9ee7	0.11553746
214	0x3c2136d1	0.009839729
215	0xbd883af2	-0.06651868
216	0xbdb176cf	-0.08665239
217	0x3d4588a9	0.048226032
218	0xbd3024c8	-0.043003827
219	0x3cb93975	0.022610405
220	0x3d37eb36	0.04490205
221	0xbdb64583	-0.08899977
222	0x3db48c8d	0.088158704
223	0x3d146dea	0.036237635
224	0xbc1b113a	-0.009464556
225	0x3caca2bb	0.02107369
226	0xbd202a2e	-0.039102726
227	0xbd628176	-0.055299245
228	0x3db63562	0.08896901
229	0xbc466a17	-0.012110255
230	0x3db7eecc	0.08981094
231	0xbe3cd543	-0.18440728
232	0xbd7620a3	-0.06008972
233	0x3e03f5ed	0.12886782
234	0x3e3fbf45	0.18725307
235	0xbd927e22	-0.07152964
236	0xbe02d569	-0.12776722
237	0xbb42fa95	-0.002975141
238	0x3cdd2ae7	0.026997996
239	0x3d8ff982	0.07030012
240	0xbc96d117	-0.018410249
241	0xbda4bca9	-0.080437966
242	0xbd222b30	-0.039591968
243	0x3ddc2c9c	0.10750696
244	0x3e2044e8	0.15651286
245	0xbd97f83b	-0.07420393
246	0x3d801c5c	0.06255409
247	0xbd4c6b31	-0.049906913
248	0xbdc05c86	-0.093926474
249	0x3de29e48	0.11065346
250	0xbde3166b	-0.1108826
251	0xbd58cb25	-0.05292811
252	0xbc5b687f	-0.013391613
253	0x3db7f22a	0.08981736
254	0x3e1a9834	0.15097123
255	0xbd92b8a6	-0.07164125

module.0.bias f4 [32]
0	0x3d9186b8	0.07105774
1	0xbdbc55d1	-0.09196056
2	0x3d6b79a4	0.057489052
3	0x3ddb9f60	0.10723758
4	0x3d810a7f	0.0630083
5	0x3d0e5ef7	0.034758534
6	0xbd84e054	-0.064881
7	0x3cda1d01	0.026625158
8	0x3da4ceb7	0.0804724
9	0x3d815ceb	0.06316551
10	0x3d81d534	0.063394934
11	0xbd9dbcc2	-0.07702018
12	0x3cbd96b6	0.023143154
13	0x3dcd099f	0.10011601
14	0x3d43db7d	0.047816742
15	0xbd938630	-0.072033286
16	0xbdd36890	-0.10322678
17	0xbd8126ed	-0.06306253
18	0xbcf04abb	-0.02933251
19	0x3d9a8027	0.07543974
20	0x3ce1fdf0	0.027586907
21	0xbd2e696a	-0.042581
22	0x3ddae0e3	0.10687425
23	0xbd91c972	-0.07118501
24	0xbdbdd245	-0.09268621
25	0x3d4f4381	0.050601486
26	0x3d9bc6fb	0.07606312
27	0x3d1ad3aa	0.037799515
28	0x39b37480	0.0003422834
29	0xbd82f059	-0.06393499
30	0x3d5d3a4a	0.054010667
31	0x3d65f93a	0.056145884

module.1.weight f4 [32]
0	0x3f7c003a	0.98437846
1	0x3f68e784	0.90978265
2	0x3f6a3db0	0.9150038
3	0x3f90376d	1.1266915
4	0x3f5acde8	0.8547044
5	0x3f81d7d8	1.0143995
6	0x3f6d566f	0.9271001
7	0x3f810a39	1.0081245
8	0x3f85981a	1.0437043
9	0x3f6c7830	0.9237089
10	0x3f69a584	0.9126818
11	0x3f7c694d	0.98598176
12	0x3f736996	0.95082986
13	0x3f8225a2	1.0167735
14	0x3f806571	1.0030957
15	0x3f79f9ad	0.976466
16	0x3f687bc4	0.9081385
17	0x3f7f3cd6	0.99702203
18	0x3f7acbac	0.9796703
19	0x3f99fbed	1.2030007
20	0x3f7be62f	0.9839811
21	0x3f86c7f7	1.0529774
22	0x3f675df6	0.9037775
23	0x3f86ba89	1.0525676
24	0x3f8d1940	1.1023331
25	0x3f7955ce	0.9739655
26	0x3f640515	0.89070255
27	0x3f86d64f	1.0534152
28	0x3f87376f	1.0563792
29	0x3f78e87c	0.97229743
30	0x3f8aa75b	1.0832323
31	0x3f91a45c	1.1378284

module.1.bias f4 [32]
0	0xbd9bb169	-0.07602198
1	0xbdcb4f3c	-0.09927222
2	0xbd1c2fee	-0.038131647
3	0xbd825762	-0.06364323
4	0xbd8d4ab5	-0.06899015
5	0xbdbd0998	-0.092303455
6	0xbbaa2928	-0.0051928945
7	0x3c355157	0.011066756
8	0xbd85dea9	-0.0653661
9	0xbd7adf2c	-0.06124799
10	0xbd072bcd	-0.033000756
11	0xbd26a544	-0.040684953
12	0xbcfbf3d8	-0.030755922
13	0x3ca70674	0.02038882
14	0xbdbc0051	-0.09179748
15	0xbda39e26	-0.07989149
16	0xbd4a2f0a	-0.049361266
17	0x3d230255	0.039797146
18	0xbca4752d	-0.020075405
19	0xbdd2d476	-0.1029443
20	0x3cfe6326	0.031053137
21	0xbcee8744	-0.029117234
22	0xbdd595c6	-0.10428958
23	0xbc506325	-0.01271895
24	0xbb6e3603	-0.0036348111
25	0xbddaf8ac	-0.10691962
26	0xbd7709ac	-0.06031196
27	0xbd971f65	-0.07379035
28	0x3bc27318	0.0059341304
29	0xbd67275b	-0.056434017
30	0xbb2dbf82	-0.0026511853
31	0x3ce0a381	0.027421715

module.1.running_mean f4 [32]
0	0xbe53a6a2	-0.20669034
1	0x3c08d99f	0.008352666
2	0x3eabae55	0.33531442
3	0x3d65b6fa	0.056082703
4	0x3e325988	0.17416966
5	0xbe085a76	-0.13315758
6	0xbe0039a7	-0.12521993
7	0x3d99b4cf	0.075051896
8	0xbe8510a7	-0.25989267
9	0x3e8dae7e	0.2767219
10	0x3ef36410	0.4753728
11	0xbd8bad3a	-0.0682015
12	0x3ce2519a	0.027626801
13	0x3d942060	0.072327375
14	0x3d79acfb	0.060955983
15	0x3e08398d	0.13303204
16	0x3e884121	0.2661219
17	0xbd883f9a	-0.06652756
18	0xbe844d75	-0.25840345
19	0x3e5997e4	0.21249348
20	0x3e68ea87	0.22745715
21	0xbe89c5b2	-0.26908642
22	0x3ef495f1	0.47770646
23	0xbdbe0084	-0.09277442
24	0xbe3957a3	-0.18099837
25	0xbeac85a6	-0.33695716
26	0x3e6273ae	0.22114441
27	0x3e3ff601	0.18746187
28	0x3d16a784	0.03678085
29	0xbe01371f	-0.12618683
30	0x3d8cc27b	0.06873032
31	0x3d02b37f	0.031909462

module.1.running_var f4 [32]
0	0x3de3d6b6	0.11124937
1	0x3d48a7ea	0.04898826
2	0x3d867c59	0.06566686
3	0x3e49cd45	0.1970721
4	0x3cbbda4f	0.022931246
5	0x3ce67c12	0.028135333
6	0x3d4541d3	0.048158478
7	0x3d33bc70	0.04388088
8	0x3d6610e0	0.056168437
9	0x3d34a8d9	0.04410634
10	0x3de2e202	0.11078264
11	0x3cee2d7b	0.029074421
12	0x3ce626e3	0.028094715
13	0x3dddba0f	0.108265035
14	0x3dbb11c6	0.091342494
15	0x3dcbd99e	0.099536166
16	0x3dccac8e	0.0999385
17	0x3da04f5f	0.07827639
18	0x3d24fbd2	0.040279217
19	0x3dfaf512	0.12253775
20	0x3d62d52a	0.05537907
21	0x3d42831e	0.047488324
22	0x3db0a477	0.08625119
23	0x3ddd5259	0.10806722
24	0x3d86380e	0.0655366
25	0x3dc7662f	0.09736287
26	0x3cb94ad2	0.022618685
27	0x3db4d08b	0.08828839
28	0x3d999e38	0.07500881
29	0x3d74f124	0.059800282
30	0x3d5b7c7e	0.053585522
31	0x3e49c20b	0.19702928

module.4.weight f4 [32, 32, 5, 5]
0	0xbd4d4aeb	-0.050120275
1	0xbd7e9073	-0.062149476
2	0xbd7aab8b	-0.061198752
3	0xbc16dee9	-0.009208419
4	0xbd3a465c	-0.045477256
5	0x3b2ef4d8	0.0026696231
6	0x3c8d61fb	0.017258635
7	0x3c3158da	0.0108244065
8	0x3b753a62	0.0037418832
9	0xbbad79e4	-0.0052940715
10	0x3c3f1ec8	0.011665054
11	0xbd712bf7	-0.05887982
12	0x3bb57aff	0.005538344
13	0xbccc7887	-0.024959816
14	0x3a91b946	0.0011117838
15	0x3b5452fe	0.00323981
16	0xbce1be1c	-0.027556472
17	0x3bc44562	0.0059897164
18	0xbd0e1928	-0.03469196
19	0xbcb61d36	-0.022230726
20	0xbb406e31	-0.0029362554
21	0x3cf15a27	0.029461933
22	0x3cf117bd	0.029430265
23	0x3d4d5b46	0.050135873
24	0xb98d35ca	-0.00026933692
25	0xbd2b1a46	-0.041773103
26	0xbcb3a2e7	-0.021928264
27	0xbd5e88bf	-0.05432963
28	0xbb807f50	-0.003921427
29	0xbce005f4	-0.027346589
30	0x375926d0	1.2943245e-05
31	0xbcbd3c65	-0.023100087
32	0xbd275d08	-0.040860206
33	0xbd340855	-0.04395326
34	0x3c4506aa	0.012025515
35	0x3cf2fdaa	0.029661972
36	0x3d227d78	0.039670438
37	0x3ccd529c	0.025063805
38	0x3cc911c4	0.024544604
39	0xbc07ead7	-0.008295736
40	0xbd2449d2	-0.040109463
41	0x3bd7ee69	0.0065897
42	0xbb8bb0bc	-0.0042630117
43	0xbbd249fb	-0.0064175106
44	0x39b0465e	0.00033621764
45	0x3c7cb2e6	0.015423512
46	0x3b879d81	0.004138649
47	0xba772a35	-0.00094285916
48	0x3d79d609	0.060995135
49	0x3d6cc607	0.05780604
50	0xbbf13f84	-0.007362308
51	0xbc83603b	-0.016037097
52	0x3caef0be	0.02135503
53	0x3c192877	0.0093480265
54	0x3c325081	0.010883451
55	0xbcae2b0b	-0.021260759
56	0x3b0b7d69	0.0021284467
57	0x399e88fc	0.0003023817
58	0xbc0da089	-0.008644232
59	0xbc969a5b	-0.01838415
60	0xbcd55bd2	-0.02604476
61	0x3c1d3ebd	0.0095974775
62	0xbba7fc78	-0.005126532
63	0xbd5b6adb	-0.053568702
64	0xbc2b0580	-0.010438323
65	0xbd40e223	-0.04709066
66	0xbd17ee79	-0.03709266
67	0xbaf86743	-0.0018951673
68	0xbbbebeb9	-0.0058210758
69	0xbc1dd8c1	-0.009634198
70	0xbcbf93fe	-0.023385998
71	0x3c63faf5	0.013914813
72	0x3c91742b	0.017755589
73	0xbb5387bb	-0.0032276947
74	0x3cc2a22b	0.023758968
75	0xbd2f4ae9	-0.04279605
76	0xbd066499	-0.03281078
77	0x3c069924	0.0082152225
78	0x3b34cd4a	0.0027588182
79	0xbce9cac6	-0.028539073
80	0x3ba2ac12	0.00496436
81	0x3cb2d051	0.021827849
82	0x3c08895e	0.008333532
83	0xbd1e5c05	-0.038661975
84	0xbb8779af	-0.004134379
85	0xbd38066c	-0.044928
86	0xbcd4a6f4	-0.025958516
87	0x3ccf6a16	0.02531914
88	0xbd013d20	-0.031552434
89	0xbd35a914	-0.0443507
90	0xbcb43fc6	-0.022003066
91	0xbd01e0a8	-0.03170839
92	0xbd38b811	-0.045097414
93	0xbd342e48	-0.04398945
94	0xbce163cf	-0.027513413
95	0xbd8511de	-0.064975485
96	0xbd6f3721	-0.058402184
97	0xbcab16d0	-0.020884901
98	0xbd364322	-0.044497617
99	0xbc6a94fe	-0.014317749
100	0xbcd9f21d	-0.026604706
101	0xbcbc8e02	-0.023016933
102	0x3adfd89f	0.0017078108
103	0xbb9efe49	-0.0048520905
104	0xbd2f61ec	-0.042817995
105	0xbc3924f9	-0.011300319
106	0x3b82e55c	0.003994627
107	0x3c4424f1	0.011971698
108	0xbd121ee6	-0.035674
109	0x3c5890a6	0.013218081
110	0xbb884e8c	-0.004159754
111	0xbd00715e	-0.031358115
112	0xbced0f09	-0.028937833
113	0xbc9c2f0c	-0.019065402
114	0xbba027db	-0.0048875636
115	0xbc207119	-0.00979259
116	0x3d0f17b0	0.0349347
117	0x3c6afe69	0.014342883
118	0xbd02bc21	-0.031917695
119	0xbcfac30a	-0.03061058
120	0x3bf8f26f	0.0075972597
121	0x3c336d60	0.01095137
122	0xbc0fac4f	-0.008769109
123	0x3cd12ffd	0.025535578
124	0x3cbde6c6	0.02318133
125	0xbc9dd888	-0.01926829
126	0xbd7a1bd0	-0.06106168
127	0xbc4c2add	-0.012461391
128	0xbd8072ec	-0.062719196
129	0xbcf6e266	-0.030137252
130	0xbd011a66	-0.031519316
131	0xbb302115	-0.0026875187
132	0x3bb3e737	0.0054902094
133	0xbad3329a	-0.0016113103
134	0xbd116eed	-0.035506178
135	0x3c12d112	0.008960979
136	0x3ca63409	0.020288484
137	0x3d58c895	0.052925665
138	0xbbc7f40d	-0.006102091
139	0x3cc0c2f3	0.023530459
140	0x3da1240a	0.07868202
141	0x3e01c5aa	0.12673059
142	0x3da011cb	0.07815894
143	0x3da98a65	0.0827835
144	0x3d86338a	0.06552799
145	0xbcea726f	-0.02861902
146	0xbca166a4	-0.019702263
147	0xbcb860b8	-0.022507057
148	0xbd1bfa87	-0.03808072
149	0xbb9ae075	-0.0047264644
150	0x3bc5505c	0.0060215425
151	0x3cb07795	0.021541396
152	0x3aa2789e	0.0012395566
153	0xbcf3d226	-0.029763293
154	0xbd0771de	-0.033067577
155	0x3b423dba	0.0029638843
156	0x3d01dd5c	0.031705245
157	0x3c80cc07	0.015722288
158	0x3ca1b39a	0.019738961
159	0xbcb4b735	-0.022060016
160	0xbd1df53d	-0.038563956
161	0xbd74f662	-0.05980528
162	0x3bda91e3	0.006670223
163	0xbce35479	-0.02775024
164	0xbd375560	-0.044759154
165	0xbc98a254	-0.018632092
166	0x3d244ff9	0.04011533
167	0xbce15797	-0.027507586
168	0xbc2fac59	-0.010722243
169	0xbd1393c0	-0.036029577
170	0x3c931b47	0.017957343
171	0xbcba9a1e	-0.022778567
172	0x3d09fb4f	0.033686932
173	0xbbfb17bc	-0.0076627415
174	0x3c9538de	0.018215593
175	0xbb3d4c30	-0.0028884523
176	0x3cd21d4f	0.025648741
177	0x3d0c9f0c	0.034331366
178	0xbc9502dd	-0.018189842
179	0xbbcda15a	-0.006275338
180	0x3d0d3842	0.03447748
181	0x3c209c61	0.009802909
182	0xbbadba75	-0.0053017684
183	0x3d096330	0.03354186
184	0x3bc62314	0.006046662
185	0xbbc0804d	-0.0058746696
186	0x3c9fac71	0.019491406
187	0x3dba1c9e	0.090874895
188	0x3cacba6f	0.021084992
189	0x3d5c00dc	0.053711757
190	0x3d890c9f	0.066918604
191	0x3b462f6c	0.0030240668
192	0x3b9e0d66	0.0048233746
193	0x3d29e692	0.041479655
194	0x3d2fdd4d	0.04293566
195	0xbd55b693	-0.05217607
196	0xbc793a88	-0.015211709
197	0xbd8e094c	-0.06935367
198	0xbcde1e51	-0.027114065
199	0xbd79e881	-0.06101275
200	0xbd9673fa	-0.073463395
201	0xbcf69af7	-0.03010319
202	0xbd86bf6b	-0.06579479
203	0xbc895fea	-0.016769368
204	0xbd853cd9	-0.065057464
205	0xbc88153e	-0.016611692
206	0x3c6272a4	0.013821278
207	0xbd3eb5f4	-0.046560243
208	0xbcff2162	-0.031143848
209	0xbd6ce868	-0.057838827
210	0x3b7883fc	0.0037920466
211	0xbc6de954	-0.014520962
212	0xbc6b651c	-0.014367368
213	0xbd484493	-0.048893522
214	0xbcde29a2	-0.027119461
215	0x3c161623	0.009160551
216	0x3adc3798	0.0016801236
217	0x3ab1c3de	0.0013562401
218	0xbca84cf9	-0.020544516
219	0xbd72306a	-0.059128202
220	0x3d3d0d64	0.04615535
221	0x3d7375f8	0.059438676
222	0x3c7759d4	0.0150971
223	0x3d2fe8df	0.042946693
224	0x3a9d5549	0.0012003566
225	0x3c230877	0.009950749
226	0xbbe518bb	-0.0069914735
227	0x3b76b8f1	0.0037646855
228	0x3cb87d64	0.022520728
229	0xbb23709b	-0.0024938944
230	0x3a98dcde	0.0011662503
231	0xbc3466e6	-0.011010861
232	0x3bbce40c	0.00576449
233	0xbd3f14b9	-0.046650622
234	0x3c9b7856	0.01897828
235	0x3c307655	0.0107704
236	0x3bec80ec	0.007217517
237	0x3c64d025	0.013965641
238	0xbccda136	-0.025101285
239	0xbca61061	-0.020271482
240	0x3cb4b599	0.022059249
241	0xbc74c29a	-0.014938975
242	0xbb5ad490	-0.0033390857
243	0xbc3e34fd	-0.011609313
244	0xbc23d797	-0.010000131
245	0xbceb09ae	-0.02869114
246	0xbb7cc153	-0.0038567379
247	0xbce0bcd2	-0.027433787
248	0x3c7bde3c	0.015372809
249	0x3a831c42	0.0010002928
250	0x3c6f674a	0.014612028
251	0xbd15ad3a	-0.036542155
252	0xbd190e4c	-0.03736715
253	0xbd02f4b2	-0.03197164
254	0x3cd6b132	0.02620754
255	0xbc6f41c8	-0.014603086

module.4.bias f4 [32]
0	0xbd07f5fe	-0.03319358
1	0xbb166a18	-0.002295142
2	0x3c846aed	0.016164267
3	0xbbe87e7c	-0.0070951562
4	0xbcb3951a	-0.021921683
5	0x3cdcfd30	0.026976198
6	0x3cb674ef	0.022272555
7	0xbcb6f12a	-0.022331793
8	0x3ca5851b	0.020205071
9	0x3d108c42	0.03529001
10	0xbcfe8841	-0.03107083
11	0x3b292132	0.002580714
12	0xbc6af364	-0.014340255
13	0xbcaefbe5	-0.021360347
14	0xbd033486	-0.032032512
15	0x3c176153	0.0092395125
16	0x3ccb5ea6	0.024825405
17	0xbc9897a9	-0.018627005
18	0xbadce62c	-0.0016853265
19	0xbcd72402	-0.026262287
20	0x3cc5ee10	0.024161369
21	0xbcfa81b7	-0.030579431
22	0x3b90831e	0.0044101616
23	0x3c325bdd	0.01088616
24	0x39c58ec7	0.00037681145
25	0x3cd92a3e	0.0265094
26	0x3cd0fe21	0.025511803
27	0xbcf7d989	-0.030255096
28	0x3b6e0f9f	0.003632523
29	0xbcf84139	-0.030304538
30	0x396f4da3	0.00022821738
31	0x3b8086ef	0.0039223353

module.5.weight f4 [32]
0	0x3f80b092	1.0053885
1	0x3f7af0cf	0.98023695
2	0x3f7da756	0.9908346
3	0x3f7ad3fe	0.97979724
4	0x3f89cb7a	1.0765221
5	0x3f86d066	1.0532348
6	0x3f83761e	1.0270422
7	0x3f7e2cdf	0.9928722
8	0x3f7e1600	0.9925232
9	0x3f78060a	0.96884215
10	0x3f7cc108	0.9873204
11	0x3f822a29	1.0169116
12	0x3f7a209b	0.97706
13	0x3f857487	1.0426186
14	0x3f80e40f	1.0069598
15	0x3f80373b	1.0016855
16	0x3f85f89a	1.0466492
17	0x3f7ce3ef	0.987853
18	0x3f7fe7de	0.99963176
19	0x3f74f126	0.95680463
20	0x3f8446ee	1.0334146
21	0x3f719e7b	0.94382447
22	0x3f70c84b	0.9405562
23	0x3f7072e8	0.93925333
24	0x3f7cac96	0.98700845
25	0x3f80c315	1.0059534
26	0x3f729d12	0.9477092
27	0x3f7bc745	0.98350936
28	0x3f7eb92e	0.9950131
29	0x3f86ed9e	1.0541265
30	0x3f871056	1.055186
31	0x3f7d7a25	0.990145

module.5.bias f4 [32]
0	0xbd5d9630	-0.054098308
1	0xbdaa900e	-0.083282575
2	0xbd8c74b8	-0.068582
3	0xbd9225a0	-0.07136083
4	0xbd30fb29	-0.043208275
5	0xbc98149d	-0.018564517
6	0xbd81125d	-0.06302331
7	0xbd7b985f	-0.06142461
8	0xbd64a325	-0.05581965
9	0xbd8d57e6	-0.06901531
10	0xbd84e346	-0.064886615
11	0xbd61259b	-0.054967504
12	0xbd8efff8	-0.06982416
13	0xbd1ffb2f	-0.039057907
14	0xbda64235	-0.08118097
15	0xbd6819da	-0.05666528
16	0xbd40b2c0	-0.04704547
17	0xbcdd79a6	-0.027035546
18	0xbcc93b15	-0.024564305
19	0xbd8469b0	-0.06465471
20	0xbd3c4962	-0.04596842
21	0xbd522bc4	-0.05131127
22	0xbd843d2a	-0.064569786
23	0xbd85ef37	-0.06539767
24	0xbd9880fa	-0.07446475
25	0xbd323c2f	-0.043514427
26	0xbdfbc93f	-0.12294244
27	0xbd1dec8b	-0.038555663
28	0xbda32fb9	-0.07968087
29	0xbd2ac45b	-0.041691165
30	0xbcc4c9a2	-0.024021927
31	0xbd667d1b	-0.056271654

module.5.running_mean f4 [32]
0	0xbf36af5e	-0.7136134
1	0x3dccceba	0.100003675
2	0xbe9551cc	-0.2916397
3	0x3f57719f	0.8415775
4	0xbd99789f	-0.0749371
5	0x3e931270	0.28725004
6	0x3e4f7d91	0.20262744
7	0xc0279388	-2.6183796
8	0xbdb02cdc	-0.08602306
9	0xbe7c5e3e	-0.24645326
10	0xbf35eb4b	-0.71062154
11	0xc0494f97	-3.1454828
12	0xbf85e53a	-1.0460579
13	0xc02eb296	-2.72965
14	0xbf002c64	-0.50067735
15	0xbfe60e2b	-1.7973074
16	0xc025f0e8	-2.5928288
17	0xbf718f80	-0.9435959
18	0xc028158f	-2.6263158
19	0x3fc94bee	1.5726297
20	0xbdda720d	-0.10666285
21	0x3e8b7c5b	0.27243313
22	0xc075f5c1	-3.8431246
23	0xbda91d93	-0.08257594
24	0xbfae9e96	-1.3642147
25	0xbe3343ea	-0.17506376
26	0x3de41c2b	0.11138185
27	0xc0249da6	-2.572122
28	0xc009c101	-2.152405
29	0xbff64407	-1.923951
30	0xbe574d84	-0.21025664
31	0xbf0987e0	-0.53722954

module.5.running_var f4 [32]
0	0x400016c6	2.00139
1	0x4003c615	2.058965
2	0x3fb204d2	1.3907721
3	0x3fb535d8	1.4157057
4	0x3fe14139	1.7598029
5	0x3fd20246	1.6406944
6	0x4007dede	2.1229777
7	0x4028ad7f	2.6355894
8	0x3fafb98e	1.3728502
9	0x40150243	2.328263
10	0x3fe6637c	1.799911
11	0x403624f0	2.8460045
12	0x4007b78d	2.120578
13	0x403e33f6	2.9719214
14	0x3fdd6a52	1.7298071
15	0x401dafb2	2.4638486
16	0x404233fe	3.0344234
17	0x3ffaec9c	1.9603457
18	0x3fc795fb	1.5592645
19	0x3fb56dde	1.4174154
20	0x401beb43	2.4362342
21	0x3fd81299	1.6880676
22	0x4023dfc8	2.5605335
23	0x3fa84f05	1.3149115
24	0x40182c66	2.3777099
25	0x3fbcd5c2	1.4752734
26	0x3fa4fedc	1.2890277
27	0x404b4b6d	3.1764786
28	0x401b9537	2.4309824
29	0x40076c4c	2.115985
30	0x3fd3a89f	1.6535834
31	0x3fb7bc8f	1.4354419

module.8.weight f4 [64, 32, 5, 5]
0	0x3c57d09f	0.013172298
1	0x3c57ebec	0.013178807
2	0xbce6fef1	-0.028197737
3	0xbc881a43	-0.016614085
4	0xbca34768	-0.01993151
5	0x3d027c3b	0.031856757
6	0xbc0de731	-0.008661077
7	0x3c4c68fe	0.012476204
8	0xbd382a1f	-0.044962045
9	0x3c280822	0.010255845
10	0x3d377297	0.044787016
11	0x3cdefe79	0.027220951
12	0x3d73a09b	0.059479337
13	0xba9182a6	-0.0011101558
14	0x3c9cf815	0.019161263
15	0x3d11166f	0.035421785
16	0x3c138c29	0.009005585
17	0xbca4b630	-0.020106405
18	0x3c7a388d	0.015272272
19	0x3c2179fd	0.009855744
20	0x3d1d46b0	0.03839749
21	0x3ce46dab	0.027884325
22	0x3d1a9960	0.037743926
23	0x3d27155c	0.040791854
24	0x3c6914f3	0.014226186
25	0x3d083ce1	0.033261184
26	0x3c05cc54	0.008166391
27	0x3d7a46a1	0.061102513
28	0x3c8653c8	0.016397372
29	0x3c84f45e	0.016229805
30	0x3d142e32	0.036176868
31	0x3cded868	0.0272028
32	0xbc18cba1	-0.009325893
33	0xbae6b663	-0.0017601963
34	0x3b62d6f4	0.0034612985
35	0x3c32782c	0.010892909
36	0x3d22c0ff	0.039734837
37	0x3d1c49bf	0.038156267
38	0x39d0522b	0.00039734071
39	0x3c8c3d43	0.017119056
40	0x3ceb13fc	0.028696053
41	0xbc04f452	-0.008114891
42	0x3c31c746	0.010850733
43	0x3b398cd5	0.0028312702
44	0x3cf3ce0f	0.029761342
45	0xbc9c0442	-0.019044999
46	0x3bb565de	0.005535825
47	0xbc339032	-0.010959672
48	0x3d2eb80d	0.042655993
49	0x3d18e524	0.0373279
50	0x3d27d7fd	0.040977467
51	0x3d246cbf	0.04014277
52	0x3cf6baf0	0.030118436
53	0x3c3697ae	0.011144562
54	0x3b75e4db	0.0037520442
55	0xbbf9c1c4	-0.0076219756
56	0xbb66ccf8	-0.0035217386
57	0x3c57fe34	0.013183165
58	0x3c8d91a0	0.017281353
59	0x3c19e7c7	0.009393639
60	0x3c8834a9	0.016626673
61	0xbc098a8f	-0.008394851
62	0x3b9594fe	0.0045648804
63	0x3d260772	0.040534444
64	0x3cab1519	0.020884084
65	0x3bb72607	0.00558925
66	0x3c924048	0.017852917
67	0xba6094ae	-0.0008567077
68	0x3c812369	0.015763955
69	0x3c7fceae	0.015613241
70	0xba2bd587	-0.00065549504
71	0xbd0244ae	-0.03180378
72	0x3b0d4511	0.002155606
73	0xbc821d5b	-0.015883138
74	0x3c54bc01	0.012984277
75	0x3c2b83af	0.0104684075
76	0x3c55d5a6	0.013051426
77	0x3a84dfe1	0.0010137522
78	0xbcb1b25a	-0.02169149
79	0xbcd58690	-0.026065141
80	0x3d22372d	0.0396034
81	0x3cd942d8	0.026521131
82	0x3abe3453	0.0014511443
83	0x3cea00a0	0.028564751
84	0x3d15e503	0.036595356
85	0x3c87ac3f	0.016561626
86	0x3caa6257	0.020798845
87	0x3d8e3418	0.0694353
88	0x3cf4cf93	0.029884135
89	0x3c91fe3f	0.01782143
90	0xbcb10928	-0.021610811
91	0x3d03abf5	0.032146413
92	0xbc46b7a3	-0.012128743
93	0x3a6afe35	0.00089642714
94	0x3ce6db00	0.0281806
95	0xbd28a296	-0.04117068
96	0xbc8c86aa	-0.017154057
97	0x3be26129	0.006908555
98	0x3cfa3a3c	0.030545346
99	0xbaac364d	-0.0013138741
100	0xbd80d3fd	-0.062904336
101	0xbd30301d	-0.043014634
102	0xbd2f2b9a	-0.04276619
103	0xbc339635	-0.010961105
104	0x3c0b1120	0.00848797
105	0xbd799997	-0.06093749
106	0xbd501d37	-0.05080911
107	0x3bd923bc	0.0066265743
108	0x3b00a3be	0.0019628848
109	0x3c5939cc	0.013258409
110	0xbc65ae5f	-0.014018624
111	0xbd07a5be	-0.03311705
112	0xbd2a50b7	-0.041580882
113	0xbc95cd1d	-0.018286282
114	0xbbd48824	-0.006485956
115	0xbc792a64	-0.015207861
116	0x3c629936	0.013830474
117	0xbd0faf88	-0.03507951
118	0xbcc21c68	-0.023695186
119	0xbc89f943	-0.01684249
120	0x3c55ecbf	0.013056933
121	0xb956d25c	-0.00020486995
122	0xbd2fd7d8	-0.042930454
123	0x3c79ceb9	0.01524704
124	0xbc6ad115	-0.014332076
125	0x3b7fa135	0.0039006
126	0x3bef7741	0.0073079173
127	0xbba56479	-0.0050473777
128	0xbc96b17a	-0.018395174
129	0xbb8f187f	-0.004366934
130	0xbca208de	-0.019779619
131	0xbc9fad18	-0.019491717
132	0xbd146efa	-0.036238648
133	0x3c4cbff4	0.012496937
134	0xbcfbd1a3	-0.030739611
135	0xbc9d4ae8	-0.019200757
136	0x3cc7a16f	0.02436897
137	0xbc63d511	-0.013905779
138	0x3cc6f749	0.024287837
139	0xbcf3396e	-0.02969047
140	0x3cf68629	0.03009327
141	0xbc1c86a1	-0.009553582
142	0xba8ddd34	-0.001082337
143	0xba5ffde0	-0.0008544605
144	0xbcf3d6e8	-0.029765561
145	0xbb8b85d2	-0.004257896
146	0xbccd6020	-0.02507025
147	0xbcf28b85	-0.029607544
148	0xbd1906b4	-0.03735991
149	0xbc831536	-0.016001325
150	0xbce1cbe0	-0.027563035
151	0x3cf98533	0.030459022
152	0x3c0f9a0e	0.008764757
153	0x3cbb7815	0.022884408
154	0x3d2f7833	0.04283924
155	0x3d462f4b	0.048384946
156	0x3cb3652e	0.021898832
157	0x3cdc76e1	0.026912155
158	0x3b4499a3	0.0029998801
159	0x3c7e9cc7	0.015540308
160	0x3cd573b7	0.026056154
161	0x3cb886a4	0.02252514
162	0x3c2d2218	0.010567211
163	0x3cf074f3	0.02935264
164	0xbcafe1a9	-0.021469908
165	0xbc8642c1	-0.016389253
166	0x3c8193a4	0.01581747
167	0xbc52f0c8	-0.01287479
168	0xbd0728fb	-0.032998066
169	0xbcb9eec8	-0.022696868
170	0x3b6f54cf	0.0036519056
171	0xbc9e06bc	-0.01929032
172	0x3b92286b	0.0044603846
173	0xbbc894d8	-0.006121259
174	0xbd059e02	-0.03262139
175	0x3bb0e373	0.005398208
176	0x3c963828	0.018337324
177	0x3d354715	0.044257242
178	0xbcf246fd	-0.029574865
179	0x3b8f8d97	0.0043808925
180	0xbc82c295	-0.015961925
181	0x3ce14c2f	0.027502147
182	0xbbf91532	-0.0076014036
183	0xbc6259b4	-0.013815332
184	0x3c2ab6af	0.010419532
185	0x3c66bced	0.014083129
186	0xbb3c016a	-0.0028687366
187	0xbc3c8006	-0.011505133
188	0xbc7b6f8e	-0.015346421
189	0x3c5ba387	0.013405687
190	0xbc90089e	-0.017582234
191	0x3c11b6eb	0.008893709
192	0x3d2b65cc	0.041845128
193	0xbc958340	-0.018251061
194	0x3c64e63a	0.013970906
195	0x3cdab64f	0.02669826
196	0x3cd97185	0.026543388
197	0xbc85b272	-0.01632044
198	0xbccb7722	-0.02483708
199	0xbb569834	-0.0032744529
200	0x3d502d79	0.050824616
201	0xbc64ffa5	-0.013976966
202	0x3bf009d0	0.0073253885
203	0x3cbbbaaf	0.022916166
204	0xbc22eb1b	-0.009943749
205	0x3d0c389e	0.03423368
206	0x3a7fbf28	0.00097559625
207	0x3b2691df	0.0025416536
208	0xbc426bf3	-0.011866557
209	0x3c45bab4	0.012068439
210	0x3d1187bc	0.035529837
211	0x3d494f5f	0.04914796
212	0xbb199df9	-0.0023440106
213	0xbc5c6bd0	-0.013453439
214	0xbd57880e	-0.052619986
215	0x3c3df42e	0.0115938615
216	0x3b3e65f3	0.0029052466
217	0x3c76c11f	0.015060692
218	0x3c7e4648	0.015519686
219	0xbbc56fb3	-0.0060252785
220	0x3d3e6f84	0.04649307
221	0x3d2fee78	0.04295203
222	0x3cb337dd	0.021877224
223	0x3be8e9fb	0.007107971
224	0x3d0296c4	0.031882063
225	0x3d17a33a	0.0370209
226	0x3be640ae	0.0070267534
227	0x3c77f297	0.0151335215
228	0x3cadaabb	0.021199575
229	0x3d4cf69c	0.050039873
230	0x3b96cf18	0.004602324
231	0x3c9b8456	0.018984001
232	0x3ce5a8d8	0.028034613
233	0x3cd2d1e7	0.025734855
234	0x3cafd09f	0.021461783
235	0x3c637c90	0.0138846785
236	0x3d1c3ab1	0.03814191
237	0x3cae6044	0.021286137
238	0x3cf5130a	0.029916305
239	0x3c088777	0.008333079
240	0x3d35e646	0.04440906
241	0x3d782ba1	0.060588483
242	0x3d102be4	0.035198107
243	0x3cab74ff	0.020929812
244	0x3cb92cf2	0.02260444
245	0x3b577321	0.0032875019
246	0x3cf0827d	0.029359097
247	0x3ced49ff	0.028965948
248	0x3d291f28	0.04128948
249	0xbb8553de	-0.0040688356
250	0x3cdd8ad9	0.027043747
251	0xbc3fafd7	-0.011699638
252	0x3bc7e22b	0.0060999594
253	0x3c58200e	0.013191236
254	0x3cf74fd9	0.030189442
255	0xbc077abb	-0.008269007

module.8.bias f4 [64]
0	0x3cbe2bae	0.023214187
1	0xbc6169cb	-0.013758133
2	0x3c3100c5	0.010803406
3	0xbcaa5d2c	-0.020796381
4	0xbaedefe0	-0.0018153153
5	0xbc15b8be	-0.009138284
6	0x3c9eafee	0.019371
7	0xbd02e61e	-0.031957738
8	0x3cf8809a	0.03033476
9	0xbcf9192c	-0.03040751
10	0xbd06bc16	-0.032894216
11	0x3c3181c7	0.010834164
12	0x3a6efbaf	0.0009116483
13	0xb736b487	-1.0890078e-05
14	0x39c28ed1	0.0003710897
15	0x3cff49be	0.031163093
16	0xbc9bdc6e	-0.019026008
17	0xbce7eb3c	-0.02831041
18	0xbcd4ad31	-0.02596149
19	0x3d05576d	0.03255408
20	0x3c7f592c	0.015585225
21	0xbc9207fa	-0.01782607
22	0xbcdb2f66	-0.026756
23	0xbcd24614	-0.025668181
24	0xbae2729a	-0.0017276586
25	0xbaeb4df4	-0.0017952309
26	0x3cf01036	0.029304605
27	0xba41572a	-0.0007375354
28	0xbd0e7a96	-0.034784876
29	0xbd0b07fa	-0.033943154
30	0xbce47150	-0.027886063
31	0xbcfebd4a	-0.03109612
32	0x3d0659a1	0.03280032
33	0x3c5dae83	0.013530376
34	0x3bd1f047	0.006406817
35	0xbc9ab1a0	-0.018883526
36	0xbc75e1ba	-0.015007431
37	0x3d06cf89	0.032912765
38	0xbb851c03	-0.004062177
39	0xbccc2a3a	-0.024922479
40	0xbc828d2c	-0.015936457
41	0xbcedf96f	-0.029049603
42	0x3b1006d6	0.002197673
43	0xbd10018c	-0.035157725
44	0xbcf08bd0	-0.029363543
45	0xbcebe9bc	-0.028797977
46	0xbc2f73fb	-0.010708804
47	0x3c23be68	0.009994127
48	0xbcbcbc8e	-0.023039129
49	0xbd0029d9	-0.03128991
50	0xbd0dd82b	-0.034629982
51	0x3bb8b76e	0.005637101
52	0xb9a1a63a	-0.0003083216
53	0xbc1f1688	-0.009709962
54	0xbc2dd632	-0.01061015
55	0xbcdb4d39	-0.026770221
56	0xbb33ca9f	-0.0027434004
57	0x3b3ae454	0.0028517442
58	0xbbe1fe49	-0.006896768
59	0xbc678199	-0.01413002
60	0xbbdc9663	-0.0067317947
61	0xbd09da18	-0.033655256
62	0xbb4f5611	-0.0031636993
63	0xbcb8defa	-0.022567261

module.9.weight f4 [64]
0	0x3f6471b6	0.8923601
1	0x3f702bd3	0.9381687
2	0x3f698681	0.9122086
3	0x3f6716b2	0.90269005
4	0x3f6f6750	0.9351702
5	0x3f64c088	0.8935628
6	0x3f6f4e87	0.934792
7	0x3f799ab9	0.97501713
8	0x3f66ff95	0.9023374
9	0x3f6b0a68	0.91812754
10	0x3f731c72	0.9496528
11	0x3f61371e	0.8797473
12	0x3f60ebcc	0.878598
13	0x3f6d8429	0.92779785
14	0x3f7914bd	0.9729727
15	0x3f67785a	0.90418017
16	0x3f7343fd	0.95025617
17	0x3f6fe74c	0.93712306
18	0x3f665cc0	0.89985275
19	0x3f6cf16c	0.9255588
20	0x3f6bb4a9	0.9207254
21	0x3f65c21c	0.8974931
22	0x3f692334	0.9106934
23	0x3f70957f	0.9397811
24	0x3f5f6bdc	0.87273955
25	0x3f6cd7b9	0.92516667
26	0x3f6f0635	0.93368846
27	0x3f63e6f4	0.8902428
28	0x3f74814f	0.9550981
29	0x3f6dd7f3	0.9290764
30	0x3f7a7077	0.9782786
31	0x3f6b5ba4	0.9193671
32	0x3f70e8dd	0.9410532
33	0x3f704a18	0.9386306
34	0x3f6f4fa9	0.93480927
35	0x3f7294c9	0.9475828
36	0x3f642d9b	0.8913209
37	0x3f6820ef	0.9067525
38	0x3f75c40b	0.9600226
39	0x3f60464a	0.8760725
40	0x3f71ceff	0.94456476
41	0x3f6ca5db	0.92440575
42	0x3f697c0f	0.91204923
43	0x3f678f89	0.9045339
44	0x3f74e78d	0.9566582
45	0x3f71ec03	0.9450075
46	0x3f6b6a3b	0.9195897
47	0x3f5dc729	0.8663202
48	0x3f6ce29a	0.92533267
49	0x3f6cda32	0.9252044
50	0x3f60eb2a	0.8785883
51	0x3f6d0a1a	0.9259354
52	0x3f61f29d	0.88260823
53	0x3f7d6470	0.9898138
54	0x3f67d4be	0.90558994
55	0x3f718553	0.9434406
56	0x3f6b37c0	0.9188194
57	0x3f7631cd	0.9616974
58	0x3f6401f1	0.8906546
59	0x3f6c6950	0.92348194
60	0x3f6f15da	0.9339272
61	0x3f77da09	0.9681707
62	0x3f6df5e8	0.9295335
63	0x3f678e10	0.90451145

module.9.bias f4 [64]
0	0xbdf4e999	-0.11958618
1	0xbda64458	-0.08118504
2	0xbdbec5c5	-0.09315065
3	0xbde3f05b	-0.111298285
4	0xbde6c9ba	-0.11268945
5	0xbdd61adf	-0.10454344
6	0xbddae073	-0.106873415
7	0xbe09eef7	-0.13470064
8	0xbde5a3c3	-0.11212876
9	0xbdc73368	-0.09726602
10	0xbdc92a38	-0.09822506
11	0xbdce6cbb	-0.100793324
12	0xbdd26731	-0.102735884
13	0xbe071764	-0.13192517
14	0xbdcf7051	-0.101288445
15	0xbdb16ec4	-0.08663705
16	0xbdda1b03	-0.10649683
17	0xbdca2dac	-0.098719925
18	0xbdd24727	-0.102674775
19	0xbdd858f2	-0.1056384
20	0xbdfc4eaa	-0.123196915
21	0xbe002289	-0.12513174
22	0xbdbad96b	-0.091235004
23	0xbdda9a71	-0.106739886
24	0xbdcb6a13	-0.099323414
25	0xbddde789	-0.108351775
26	0xbdbc1b61	-0.091849096
27	0xbdcb3822	-0.09922816
28	0xbe0301aa	-0.12793604
29	0xbdd76ebc	-0.10519168
30	0xbdd0bdcc	-0.10192451
31	0xbdd706a0	-0.104993105
32	0xbdd969c8	-0.10615879
33	0xbde80d9f	-0.11330723
34	0xbda80628	-0.08204299
35	0xbdd1fdf2	-0.10253514
36	0xbdd1d4c4	-0.1024566
37	0xbdee2f2e	-0.116300926
38	0xbdec9153	-0.11551156
39	0xbdd8d185	-0.10586838
40	0xbe03dc84	-0.12877089
41	0xbdc9168c	-0.098187536
42	0xbdc5d7a7	-0.09660273
43	0xbdc8dd0a	-0.09807785
44	0xbddfdb95	-0.10930554
45	0xbdd4408d	-0.103638746
46	0xbdd7fbd3	-0.105460785
47	0xbdd45583	-0.103678726
48	0xbdcfde7f	-0.1014986
49	0xbde45f06	-0.11150937
50	0xbde34b2b	-0.110983215
51	0xbdf2af43	-0.11849835
52	0xbdd4d688	-0.10392481
53	0xbdd0b3af	-0.10190522
54	0xbdea2721	-0.114332445
55	0xbdd3a811	-0.103347905
56	0xbdd58d85	-0.10427383
57	0xbdf555a6	-0.11979227
58	0xbddef530	-0.108866096
59	0xbde5dd5d	-0.11223862
60	0xbdd1cf6a	-0.10244639
61	0xbdaf79d7	-0.08568161
62	0xbdfeae0b	-0.1243554
63	0xbdd9db34	-0.10637513

module.9.running_mean f4 [64]
0	0x3e9662b5	0.29372182
1	0xbfa163bf	-1.2608565
2	0xbf9436c7	-1.1579217
3	0xbb1afd99	-0.002364969
4	0xbfe1f72e	-1.7653558
5	0x3f07a6ea	0.52989066
6	0xbee5db55	-0.448939
7	0x3e12ff83	0.14355282
8	0x3dc58a97	0.096455745
9	0xbf13a229	-0.5766931
10	0xc00a4c21	-2.1608965
11	0x3f74e8d4	0.9566777
12	0x3e1907d8	0.14944398
13	0x3f8bae4a	1.0912564
14	0xbff60858	-1.9221296
15	0xbefb2664	-0.49052727
16	0xbf190d79	-0.5978618
17	0xbfe50744	-1.7892842
18	0xbf5e517c	-0.86843085
19	0x3f343365	0.7039092
20	0x3e5f113d	0.2178392
21	0xbec5a413	-0.3860174
22	0xbf04652d	-0.5171688
23	0xbf5c841b	-0.86139077
24	0x3ec4358b	0.383221
25	0xbed3ba32	-0.41352993
26	0xbfb2b74c	-1.3962188
27	0xbe4ed917	-0.202
28	0x3f8c3c6f	1.0955943
29	0xbee9b5d6	-0.45646542
30	0x3e5e2ecf	0.21697544
31	0xbf674b5a	-0.9034935
32	0xbe9a32b8	-0.3011682
33	0xbf6c755a	-0.92366564
34	0xbf54d6b6	-0.8314012
35	0xc001fe50	-2.031147
36	0xbef3552d	-0.4752592
37	0x3e0d7cac	0.1381709
38	0xc02c9e36	-2.6971564
39	0x3eca386b	0.39496168
40	0x3ec10228	0.37696958
41	0xbf2f9e51	-0.68600947
42	0xbf035538	-0.5130191
43	0xbf286f1c	-0.6579454
44	0xc022c641	-2.5433505
45	0xbf27b052	-0.6550342
46	0x3f82b1ac	1.0210471
47	0xbf73b220	-0.9519367
48	0xbf9dfa04	-1.2341924
49	0xbeea6817	-0.4578254
50	0xbe243621	-0.16036274
51	0xbda56d81	-0.08077527
52	0x3fa7ca55	1.3108622
53	0xc01fdda0	-2.497902
54	0xbe907e12	-0.28221184
55	0xbf6349f8	-0.8878474
56	0xbfca35bc	-1.5797648
57	0xbf131698	-0.5745635
58	0x3fc114d0	1.5084476
59	0x3f7eacc0	0.99482346
60	0xbf479455	-0.7796071
61	0xbfbe66a9	-1.4875079
62	0x3ef5a215	0.4797522
63	0xbed80d43	-0.42197618

module.9.running_var f4 [64]
0	0x3f655409	0.8958135
1	0x3f70a1bd	0.93996793
2	0x3f9b4186	1.2129371
3	0x3f5e4286	0.86820257
4	0x3f4969c4	0.7867701
5	0x3f18110c	0.5940101
6	0x3f673f09	0.9033056
7	0x3f7624e5	0.96150047
8	0x3f5d0a15	0.8634351
9	0x3f4992ff	0.78739923
10	0x3f8e13fb	1.1099848
11	0x3f8ce014	1.1005883
12	0x3f7239f1	0.9461966
13	0x3f2bee0f	0.67160124
14	0x3f65c0f2	0.89747536
15	0x3f7f7b4b	0.99797505
16	0x3f9f92c4	1.2466664
17	0x3f84a54c	1.0362945
18	0x3f48713f	0.782978
19	0x3f72c74c	0.9483535
20	0x3f834ea1	1.0258371
21	0x3f86227b	1.0479273
22	0x3f4e8d4b	0.80684346
23	0x3f838f8a	1.027818
24	0x3f3df8d7	0.74207824
25	0x3f5a0aff	0.8517303
26	0x3f391b2e	0.723071
27	0x3f5637cf	0.8367891
28	0x3f543f54	0.8290913
29	0x3f127898	0.5721526
30	0x3f2b75f1	0.6697684
31	0x3f737b89	0.95110375
32	0x3f666d0f	0.9001016
33	0x3f68c883	0.90930957
34	0x3f40f43a	0.7537266
35	0x3f919213	1.1372703
36	0x3f807483	1.0035557
37	0x3f601417	0.87530655
38	0x3f6cefe9	0.92553574
39	0x3f332bf6	0.69988954
40	0x3f75e474	0.96051717
41	0x3f5991c2	0.84988034
42	0x3f47b620	0.78012276
43	0x3f60ff5d	0.87889653
44	0x3f734247	0.95023006
45	0x3f795dc6	0.9740871
46	0x3f86ddff	1.0536498
47	0x3f47c2d4	0.7803166
48	0x3f9e39b8	1.2361364
49	0x3f4e7c4f	0.8065843
50	0x3f4dae71	0.803443
51	0x3f1627af	0.586543
52	0x3f7236b6	0.9461473
53	0x3f9bc949	1.2170802
54	0x3f3cf389	0.73809105
55	0x3f47892b	0.77943677
56	0x3f69a287	0.9126362
57	0x3f8d1dca	1.1024716
58	0x3f47ea8f	0.78092283
59	0x3f4d0614	0.800874
60	0x3f5b30c6	0.856213
61	0x3f9609d8	1.1721754
62	0x3f78061a	0.9688431
63	0x3f870b90	1.0550404

module.13.weight f4 [64, 1024]
0	0x3b978ac1	0.004624695
1	0x3c9fd917	0.019512696
2	0x3cc185a8	0.023623303
3	0x3c645d00	0.013938189
4	0xbc3d95ae	-0.011571331
5	0xbb164930	-0.0022931807
6	0x3b0c6df0	0.0021427833
7	0xbbb60ed9	-0.005555969
8	0x3a8b51b3	0.0010629207
9	0xbc452160	-0.012031883
10	0xbc3a4798	-0.011369608
11	0x3cbf76be	0.02337205
12	0xbc32aeec	-0.010905962
13	0xbc907ed6	-0.017638605
14	0xbcddd4ca	-0.027079005
15	0xbcc2be6a	-0.023772437
16	0x3c145463	0.0090533225
17	0xbc4435e2	-0.011975737
18	0xbc54d2d4	-0.0129897185
19	0xbce425ff	-0.02785015
20	0xbcd369ff	-0.025807379
21	0xbb1c5b2e	-0.0023858058
22	0xbcd856fd	-0.026408667
23	0x3c852c53	0.016256487
24	0x3bc485c4	0.0059973914
25	0xbc93f349	-0.018060343
26	0x3c944718	0.018100306
27	0x3cc28eaa	0.023749668
28	0xbce4cd3b	-0.027929893
29	0xbbafc38b	-0.0053638867
30	0xbc4745c4	-0.0121626295
31	0xbcfc9ad8	-0.030835554
32	0xbc80ceff	-0.015723703
33	0x3c6aaf6e	0.014324052
34	0xbcff2ce8	-0.031149343
35	0x3b89fc9e	0.0042110225
36	0xbcb8bb77	-0.022550328
37	0xbc802cd2	-0.015646372
38	0xbc09f9fb	-0.008421416
39	0x3aef71ee	0.0018268207
40	0x3ccca82a	0.02498253
41	0xbc6054d2	-0.013692098
42	0xbcfe4f0e	-0.031043556
43	0xbc53340b	-0.012890826
44	0x3cc52cb4	0.024069168
45	0xbb3e5ef0	-0.0029048286
46	0xbccf4605	-0.025301943
47	0x3ae67b00	0.0017584264
48	0x3a1dab23	0.0006014576
49	0x3c9cd2e4	0.01914353
50	0x3c716278	0.014732949
51	0x3cc49113	0.023994958
52	0x3c37cb9b	0.011217977
53	0x3ae477a7	0.0017430679
54	0x3bc0fc9d	0.005889489
55	0x3c895545	0.016764292
56	0xb9bea42b	-0.0003636194
57	0xbc35ce74	-0.011096586
58	0x3cbeddcf	0.023299126
59	0xbcfebfdc	-0.031097345
60	0xbc45737f	-0.012051462
61	0xbb3ef038	-0.002913488
62	0xbb989e79	-0.0046575633
63	0xbc9c16a5	-0.019053767
64	0x3cef63f7	0.029222472
65	0xbcdb1c11	-0.026746782
66	0xbc61e12f	-0.013786598
67	0x3beb8db8	0.007188525
68	0x3cdfd1c8	0.027321711
69	0xbcaa876d	-0.02081653
70	0xbc79199f	-0.015203862
71	0x3bf29a3f	0.0074036415
72	0x3ce0d444	0.027444966
73	0x3cb14f49	0.021644251
74	0x3b777b1f	0.0037762595
75	0xbc4a1f05	-0.012336497
76	0x3ca2d998	0.019879147
77	0xbc27a7c8	-0.010232873
78	0x3c4619c6	0.012091106
79	0x3ca20c2d	0.019781196
80	0x3ce132c8	0.027490035
81	0xbc28feeb	-0.010314683
82	0x3c15ff25	0.0091550695
83	0xbce01875	-0.027355412
84	0x3cb6a0e2	0.022293512
85	0x3bed3912	0.0072394693
86	0xbc6a233e	-0.014290629
87	0xbc583d8b	-0.013198267
88	0x3b762b3a	0.0037562386
89	0x3aa9a7dc	0.0012943703
90	0xbca6d464	-0.020364948
91	0xbcd33ad5	-0.02578489
92	0xbcbf4cdb	-0.023352077
93	0xbcdc2688	-0.026873842
94	0xbc12bd60	-0.008956283
95	0x3b521dd2	0.0032061231
96	0xbc793169	-0.015209534
97	0xbcdf9aff	-0.027295588
98	0x3cc87d10	0.024473697
99	0xbcb71f6e	-0.022353854
100	0x3c642084	0.013923768
101	0xbc1f92da	-0.009739602
102	0xbc5b2467	-0.013375378
103	0x3b87f5e8	0.0041491874
104	0xbc586d20	-0.013209611
105	0xbca68f59	-0.020332025
106	0x3cbb350a	0.02285244
107	0xbd03d776	-0.0321879
108	0xbcecc243	-0.028901225
109	0xbc94d103	-0.01816607
110	0xbc858413	-0.01629833
111	0x3c91c18d	0.017792488
112	0x3c1c38c6	0.00953502
113	0xbc3b98a0	-0.011449963
114	0xbcf11512	-0.029428992
115	0xbcccd25d	-0.025002653
116	0xbd0bbd13	-0.034115862
117	0xbc4e05ec	-0.012574654
118	0x3c1df44a	0.009640763
119	0x3bd20ea4	0.0064104367
120	0xbcaf521b	-0.021401456
121	0x3c48ff95	0.012267967
122	0xbbca21e9	-0.006168593
123	0xbce5aeda	-0.028037477
124	0x3bcd12d1	0.0062583466
125	0xbc922b03	-0.017842775
126	0x3cd08d82	0.025458101
127	0xbc6ae6a4	-0.014337216
128	0x3ce8ef85	0.028434524
129	0xbc7dd96e	-0.015493734
130	0x3ce11a00	0.027478218
131	0xbc83a4da	-0.016069818
132	0x3b24fc05	0.002517463
133	0x3c092cf5	0.008372535
134	0xbc7267f4	-0.014795292
135	0xbcfcbccf	-0.03085175
136	0x3aab9773	0.00130914
137	0x3c6434e9	0.01392863
138	0xbc0e66f2	-0.008691536
139	0x3b8cbe37	0.0042951363
140	0xbb9c2957	-0.0047656703
141	0xbc0b610b	-0.008507024
142	0xb88c2cc6	-6.68406e-05
143	0x3c22295b	0.009897555
144	0xbd01e00e	-0.031707816
145	0xbca071e2	-0.019585554
146	0x3bd4e46a	0.0064969556
147	0xbbabeb29	-0.005246539
148	0xbcca756b	-0.024714192
149	0x3c31062c	0.010804694
150	0x3ca99c63	0.020704454
151	0x3ad6afa2	0.0016379247
152	0x3aeb251c	0.0017940137
153	0x3c01a020	0.007911712
154	0xbd086869	-0.0333027
155	0xbcbb0dd8	-0.02283375
156	0xbc9b8fb4	-0.018989421
157	0x3ce855a6	0.028361153
158	0xbc901cf1	-0.017591925
159	0xbb5fe1f4	-0.0034161778
160	0x3beee84c	0.0072908755
161	0x3c8666aa	0.016406376
162	0xbca8bcba	-0.020597804
163	0xbcd6f20a	-0.02623846
164	0xbca29c6a	-0.019849975
165	0xbc7efa29	-0.0155625725
166	0xbd079ae9	-0.03310672
167	0xbbfe4819	-0.0077600596
168	0x3c12d046	0.008960789
169	0x3c2fb251	0.010723666
170	0xbc413d89	-0.011794456
171	0xbbfcab0e	-0.007710821
172	0xbc6bc298	-0.0143896565
173	0x3b4afa4f	0.003097195
174	0x3cd5604b	0.026046893
175	0xbca7e17d	-0.020493263
176	0xbc50ad05	-0.012736564
177	0xbc0646b6	-0.00819557
178	0xbc459427	-0.012059248
179	0xbb5104a7	-0.0031893642
180	0xbcff083e	-0.03113186
181	0xbcfb73ea	-0.03069492
182	0x3cb39107	0.02191974
183	0x3c26b07c	0.010173913
184	0xbb818d63	-0.003953622
185	0xbc368264	-0.011139486
186	0xbcdcc782	-0.026950601
187	0x3c7c481c	0.015398052
188	0xbbbc20a1	-0.0057411944
189	0xbcc1a429	-0.023637848
190	0xbcd55ae5	-0.026044318
191	0x3cc1fab5	0.023679117
192	0xbc738aad	-0.014864606
193	0x3b855d06	0.004069927
194	0x3cc894f5	0.02448509
195	0x3bdae622	0.006680266
196	0x3ca8c979	0.020603882
197	0xbd0031cd	-0.031297494
198	0xbcbf184e	-0.023327019
199	0xbc35b8e8	-0.011091448
200	0xbcfa9b9a	-0.030591775
201	0xbc0c8c5e	-0.008578388
202	0x3c2c2781	0.010507465
203	0xbcb81c91	-0.022474559
204	0x3ce03315	0.027368108
205	0x3c81b949	0.015835421
206	0x3cd7e94b	0.02635636
207	0xbd040ccf	-0.032238778
208	0x3ca106ca	0.019656558
209	0xbcf0a73c	-0.029376619
210	0x3cb26bd7	0.021779938
211	0xbc50794e	-0.012724234
212	0xbc08e698	-0.008355759
213	0xbbcb847a	-0.006210861
214	0xbc4dab02	-0.0125529785
215	0xbcb5b013	-0.022178685
216	0xbcb0508c	-0.021522783
217	0x3b3b2ae5	0.0028559503
218	0xbc966647	-0.018359317
219	0x3ce7056d	0.02820083
220	0xbca2d65a	-0.019877601
221	0x3b87b7d7	0.0041417885
222	0xbbbcb9fb	-0.0057594753
223	0x3c11a50e	0.00888945
224	0x3c97ff06	0.018554222
225	0x3c03f86c	0.008054834
226	0x3bf83f13	0.0075758784
227	0x3c62174f	0.0137995025
228	0x3c81688c	0.015796922
229	0x3cf2c7c2	0.029636268
230	0xbb5f48ba	-0.0034070448
231	0x3cd8148d	0.026376987
232	0xbcbd8d36	-0.023138624
233	0xbca507a7	-0.02014525
234	0x3b72a685	0.0037025523
235	0x3c163a8f	0.009169235
236	0xbc8f802a	-0.017517168
237	0xbcd1cab8	-0.02560936
238	0x3b102d84	0.0021999786
239	0x3c2b11b0	0.010441229
240	0x3c84eb1c	0.01622539
241	0x3ae1d1e3	0.0017228689
242	0xbd026b7a	-0.03184078
243	0xbc1afc80	-0.009459615
244	0x3cbaa590	0.022784024
245	0x3c481b36	0.012213519
246	0x3c51e6bf	0.012811362
247	0xbc81d908	-0.015850559
248	0x3c50f5b1	0.01275389
249	0xbcf12edc	-0.02944129
250	0x3cebff46	0.028808247
251	0x3cf89433	0.030344104
252	0x3ccea6cc	0.02522602
253	0x3b2828f4	0.0025659176
254	0xbcfbb19d	-0.030724341
255	0xbcf8fcc5	-0.030393967

module.13.bias f4 [64]
0	0xbca18aa4	-0.01971943
1	0x3c832803	0.01601029
2	0x3c90becb	0.017669102
3	0xbc87d096	-0.016578954
4	0xbc11e3c4	-0.008904401
5	0xbcf0c9ff	-0.029393194
6	0xbca04123	-0.01956231
7	0xbcb1e9ea	-0.021717984
8	0x3c96dcbb	0.0184158
9	0x3c1fd050	0.009754255
10	0xbd0f45ca	-0.034978665
11	0xbca2b61d	-0.019862229
12	0x3b4ace65	0.0030945775
13	0xbd074efd	-0.033034313
14	0xbc084705	-0.008317714
15	0x3cbb8613	0.02289108
16	0xbc92ea6b	-0.017934045
17	0x3c52bfa8	0.012863077
18	0x3c75d3cd	0.0150041105
19	0xbcba791f	-0.022762833
20	0x3cb672be	0.02227151
21	0x3aed61c2	0.0018110799
22	0x398e72e4	0.0002716995
23	0x3b661a2a	0.003511081
24	0xbc681f1f	-0.014167576
25	0x3ca7b8a5	0.020473788
26	0x3ca0a605	0.019610414
27	0xbcf558c3	-0.029949551
28	0x3b971f1b	0.0046118624
29	0xbcd1862f	-0.025576679
30	0xbd02f4b7	-0.03197166
31	0x3b3d6082	0.0028896634
32	0x3ca82e8b	0.020530006
33	0xbc4c863c	-0.012483176
34	0xbafe9a7d	-0.0019424703
35	0xbc0397a6	-0.008031761
36	0x3bded961	0.006800816
37	0xbbf621ad	-0.0075113387
38	0xbc4e145a	-0.012578094
39	0xbb8c5728	-0.004282851
40	0x3caee6ab	0.021350225
41	0x3c6509cf	0.013979389
42	0xbb9e3ffa	-0.004829404
43	0x3ca30079	0.019897686
44	0xbc1d7620	-0.009610683
45	0xbbf97c3a	-0.007613686
46	0xbc96c733	-0.018405532
47	0x3a99aa08	0.0011723647
48	0x3c83dd38	0.016096696
49	0x3a8f84bf	0.0010949596
50	0x3c1380c7	0.009002871
51	0xbce5867e	-0.028018232
52	0x3ce68438	0.028139219
53	0xbcc8734d	-0.024469042
54	0x3c4bfd15	0.012450476
55	0xbce8c156	-0.028412502
56	0x3d10313c	0.035203204
57	0xbd0e0f1b	-0.034682374
58	0x3c0c012f	0.008545204
59	0xbce4a74a	-0.0279118
60	0xbcf0e274	-0.029404856
61	0x3c1c7270	0.009548768
62	0x3cde5f88	0.027145162
63	0xbc354a09	-0.011065015
