models/xue_epoch_10.pth (torch, 592503 bytes, 22 tensors)

module.0.weight f4 [32, 3, 5, 5]
0	0xbd233e2d	-0.039854217
1	0xbe002f54	-0.12518054
2	0xbd6750a1	-0.056473378
3	0x3c845eaa	0.01615842
4	0x3bed6c5b	0.007245583
5	0xbe59d523	-0.21272711
6	0xbe4e0d86	-0.20122346
7	0xbe5f60b9	-0.2181424
8	0xbe6a6f9d	-0.2289414
9	0xbe167a69	-0.14695133
10	0xbe9865e9	-0.2976525
11	0xbe89dc8f	-0.26926085
12	0xbe69cda8	-0.22832358
13	0xbe61ef20	-0.22063875
14	0xbe8f3a06	-0.27973956
15	0xbe0ca51c	-0.13734859
16	0xbea2387a	-0.31683713
17	0xbe8d18ef	-0.27558085
18	0xbe5b3f85	-0.2141095
19	0xbe034407	-0.12818919
20	0xbe4f2730	-0.20229793
21	0xbe37dcc7	-0.17955314
22	0xbe987b1b	-0.29781422
23	0xbe942537	-0.28934643
24	0xbdf954f2	-0.12174405
25	0x3d56f164	0.0524763
26	0x3d1a53a6	0.03767743
27	0xbc5121e6	-0.01276443
28	0xbd9e2d35	-0.07723466
29	0xbdd5b275	-0.104344286
30	0x3d34713d	0.044053305
31	0x3d2b5ac8	0.041834623
32	0x3d8a385f	0.06749033
33	0x3d50b4db	0.050953727
34	0x3de9cf84	0.114165336
35	0x3cd5a3e2	0.026079122
36	0x3bd25293	0.006418535
37	0x3ba018fb	0.0048857904
38	0x3e09aa7f	0.13443945
39	0x3c316d30	0.010829255
40	0xbd26d289	-0.040728126
41	0x3e4783a8	0.19483817
42	0x3e0ec51f	0.13942383
43	0x3cc1b5c2	0.02364624
44	0xbb53db36	-0.0032326705
45	0x3e13cc28	0.14433348
46	0x3deb76d8	0.11497277
47	0xbe09047c	-0.13380617
48	0x3cab5643	0.020915156
49	0xbbec97df	-0.007220253
50	0xbc9a4b4c	-0.018834732
51	0x3ce89c22	0.028394762
52	0x3da0a41b	0.07843801
53	0x3de71c25	0.11284665
54	0xbd1fa47a	-0.038975216
55	0x3e094599	0.13405456
56	0x3e37aab7	0.17936216
57	0x3e75388d	0.23947354
58	0x3e0f97df	0.14022778
59	0x3e2482fd	0.16065593
60	0x3e899f87	0.26879522
61	0x3e649eaf	0.22326158
62	0x3e1666bb	0.14687626
63	0x3e166244	0.14685923
64	0x3e0d811e	0.13818786
65	0x3e86490a	0.262276
66	0x3e97d20c	0.2965244
67	0x3e1dcd2d	0.154103
68	0x3e4cfa34	0.2001732
69	0x3c092769	0.0083712125
70	0x3e53660f	0.20644401
71	0x3e3e89f4	0.18607312
72	0x3d185fcb	0.03720073
73	0x3d3b6bf7	0.04575726
74	0xbd4298c9	-0.04750899
75	0x3d9b4f75	0.075835146
76	0x3a79ba1f	0.00095263304
77	0x3e40550c	0.18782443
78	0x3e19e4a5	0.15028627
79	0x3e04f552	0.12984207
80	0x3e34ca92	0.176554
81	0x3e322910	0.17398477
82	0x3e9022a3	0.28151426
83	0x3e8e450a	0.27787048
84	0x3e415e16	0.18883547
85	0x3d645f57	0.055754986
86	0x3d5dfe4b	0.05419759
87	0x3d2f9558	0.042867035
88	0x3d9c8d62	0.07644154
89	0xbd6e3be7	-0.058162596
90	0x3cd77cbf	0.0263046
91	0x3a1fb8d4	0.000609291
92	0x3d877858	0.066147506
93	0x3d63613e	0.05551266
94	0x3e0c4b6f	0.1370065
95	0x3d1a3ca9	0.037655506
96	0x3c07e84d	0.008295131
97	0xbd46832e	-0.048464946
98	0x3d7d9040	0.061905146
99	0x3c26895d	0.010164586
100	0x3d7a8d4d	0.06116991
101	0xbd3b2d4f	-0.045697507
102	0x3c651a97	0.01398339
103	0xbd203217	-0.03911027
104	0x3d3216cf	0.043478783
105	0x3c802a38	0.015645131
106	0x3d561f3e	0.05227589
107	0xbd5c1c72	-0.053738065
108	0x3e1295de	0.14314982
109	0x3d23b7b2	0.039970107
110	0xbd91cad8	-0.071187675
111	0xbe2ae1bf	-0.16687678
112	0xbdf78a71	-0.120869525
113	0xbe057fe6	-0.1303707
114	0xbcbb5178	-0.022865996
115	0xbda1122e	-0.078647956
116	0xbda44f9d	-0.080229975
117	0xbce9a503	-0.028521067
118	0xbdee8b63	-0.1164768
119	0xbd9e80e3	-0.07739427
120	0x3d54db3e	0.0519669
121	0xbdb54845	-0.08851675
122	0x3c7e43b1	0.015519069
123	0x3db52f9a	0.0884697
124	0xbd026214	-0.031831816
125	0xbd056d08	-0.032574683
126	0x3db0fad6	0.08641593
127	0xbc93c28b	-0.018037101
128	0x3e47ff98	0.19531095
129	0x3e2bb4f2	0.16768244
130	0x3d8a8089	0.067627974
131	0x3d041a31	0.03225154
132	0xbcdb1e3a	-0.026747812
133	0x3d8b2c06	0.06795506
134	0x3d80b36e	0.062842235
135	0xbd47ff3c	-0.048827395
136	0xbe2278c7	-0.15866385
137	0xbd5dd89c	-0.054161653
138	0xbe18972d	-0.14901419
139	0xbdffbf48	-0.12487656
140	0xbd9b5ad0	-0.075856805
141	0xbdfaca80	-0.12245655
142	0xbe5a0c15	-0.21293671
143	0xbdc35e2d	-0.09539447
144	0xbccd50f6	-0.02506302
145	0xbdd524b8	-0.10407394
146	0xbdcf8ef6	-0.101346895
147	0xbe0e183f	-0.13876437
148	0x3d370ab7	0.044687953
149	0x3d2924db	0.041294914
150	0x3cef772b	0.029231628
151	0xbcb6739b	-0.022271922
152	0xbda0fa38	-0.078602254
153	0x3ca01b92	0.019544397
154	0x3dd19c87	0.10234933
155	0xbe173786	-0.14767274
156	0xbde7e8c1	-0.11323691
157	0xbdd47a82	-0.10374929
158	0x3e785052	0.2424939
159	0x3e230ce6	0.15922889
160	0xbe050e68	-0.12993777
161	0xbda2170b	-0.07914551
162	0x3e14a71c	0.14516872
163	0x3ea5709d	0.3231248
164	0x3e044996	0.12918696
165	0x3ba4f4f9	0.005034086
166	0xbcd7175d	-0.026256258
167	0x3e312c58	0.17302072
168	0xbd970b1b	-0.07375165
169	0xbd30aad9	-0.043131683
170	0xbe422c71	-0.18962266
171	0x3d5f3911	0.054497782
172	0x3d6a18b4	0.057152465
173	0xbd96afea	-0.07357772
174	0xbe5fbb75	-0.21848853
175	0x3d43f34c	0.047839448
176	0x3d01e8f8	0.031716317
177	0xbe41172a	-0.18856493
178	0xbc46f360	-0.012142986
179	0x3d0b608f	0.034027632
180	0xbd0da28a	-0.034578837
181	0xbe1149be	-0.14188287
182	0xbdb51232	-0.08841361
183	0x3d479d11	0.048733775
184	0x3d970875	0.0737466
185	0x3d11674e	0.03549891
186	0xbcd482e7	-0.025941325
187	0x3dacbadc	0.08434078
188	0x3e5f6bf0	0.21818519
189	0x3d03eb60	0.032206893
190	0x3dbe9ca3	0.0930722
191	0xbbfeee51	-0.0077798744
192	0x3dc3ba50	0.09557021
193	0x3e0e66b2	0.13906363
194	0xbdd0e432	-0.10199775
195	0x3d852ef4	0.06503096
196	0x3e4d65f0	0.20058417
197	0x3d2237dd	0.039604057
198	0xbd17afd3	-0.037032913
199	0xbe2421f8	-0.16028583
200	0xbe252508	-0.16127408
201	0x3cdb50c1	0.026771905
202	0xbd6ab45a	-0.057300903
203	0xbd3683cb	-0.04455928
204	0x3d085e13	0.03329284
205	0xbdeb352c	-0.11484751
206	0xbd8bbc28	-0.06822997
207	0xbd0b3ef2	-0.033995576
208	0x3e1a0bc8	0.15043557
209	0x3e53e93e	0.20694444
210	0xbddf1a57	-0.10893696
211	0x3d94f947	0.072741084
212	0xbd03b814	-0.032157972
213	0x3e80d169	0.25159767
214	0xb9931229	-0.00028051555
215	0xbc73842f	-0.014863058
216	0xbca36c69	-0.019949155
217	0x3e1c0b47	0.15238677
218	0xbcf42fe3	-0.02980799
219	0xbd92bf0a	-0.07165344
220	0x3d8d633f	0.06903695
221	0xbc816f16	-0.01580004
222	0x3de43b29	0.111440964
223	0xbd977b5a	-0.07396574
224	0xbdcf6f68	-0.10128671
225	0xbab738b8	-0.0013978695
226	0xbc39bedd	-0.011337009
227	0xbccdd20f	-0.025124578
228	0x3ddd063d	0.107922055
229	0xbc626c4f	-0.013819768
230	0x3cadde44	0.021224149
231	0xbe8c9845	-0.27459922
232	0xbdbe55ce	-0.0929371
233	0x3e27ddcf	0.16393207
234	0x3e5e9606	0.21736917
235	0xbde01f4d	-0.1094347
236	0xbe800590	-0.25004244
237	0xbd8204c0	-0.06348562
238	0x3dabc48a	0.08387096
239	0x3e2b4481	0.16725351
240	0xbd182254	-0.037142113
241	0xbe300dc2	-0.17192748
242	0xbdcd183e	-0.100143895
243	0x3e248d37	0.16069494
244	0x3e808ed0	0.25108957
245	0xbdbe49f2	-0.09291448
246	0x3d0d053b	0.034428816
247	0xbddd5d6a	-0.10808833
248	0xbdb5e4c3	-0.088815235
249	0x3e32b4a2	0.17451718
250	0xbda5843d	-0.08081863
251	0xbc913bc4	-0.017728694
252	0x3ceb26e2	0.028705064
253	0x3e2de90f	0.16983436
254	0x3e838f93	0.25695476
255	0xbd9efb9d	-0.07762835

module.0.bias f4 [32]
0	0x3d918c3d	0.071068265
1	0xbdbc5288	-0.09195429
2	0x3d6b7142	0.057481058
3	0x3ddb9a6f	0.10722815
4	0x3d80f94d	0.0629755
5	0x3d0e645d	0.034763683
6	0xbd84deb4	-0.0648779
7	0x3cd9fd38	0.026610002
8	0x3da4d695	0.08048741
9	0x3d815680	0.06315327
10	0x3d81d875	0.06340114
11	0xbd9db25d	-0.07700036
12	0x3cbd91ea	0.023140866
13	0x3dcd0a01	0.10011674
14	0x3d43c294	0.047792986
15	0xbd93814c	-0.07202396
16	0xbdd3698a	-0.10322864
17	0xbd81214b	-0.06305178
18	0xbcf02001	-0.029312136
19	0x3d9a7831	0.07542456
20	0x3ce1e22d	0.02757367
21	0xbd2e54bd	-0.04256128
22	0x3ddae1a9	0.106875725
23	0xbd91c129	-0.071169205
24	0xbdbdd86a	-0.09269793
25	0x3d4f478e	0.05060535
26	0x3d9bc51c	0.07605955
27	0x3d1ae308	0.03781417
28	0x39bc2129	0.0003588286
29	0xbd82ee46	-0.06393103
30	0x3d5d3bcf	0.054012116
31	0x3d6607ab	0.056159656

module.1.weight f4 [32]
0	0x3f3dff90	0.7421808
1	0x3f572a4b	0.8404891
2	0x3f510ef5	0.8166345
3	0x3f94b26d	1.1616951
4	0x3f82c2d6	1.0215709
5	0x3f8190fc	1.0122371
6	0x3f29d38b	0.66338414
7	0x3f74829e	0.95511806
8	0x3fadfe29	1.3593189
9	0x3f451cb8	0.76996946
10	0x3f4d5837	0.8021273
11	0x3f7fe767	0.99962467
12	0x3f5d9071	0.86548525
13	0x3f795964	0.97402024
14	0x3f7ce478	0.98786116
15	0x3f7fa776	0.998649
16	0x3f45fdf7	0.77340645
17	0x3f81ff92	1.0156119
18	0x3f4affa4	0.79296327
19	0x3fca32d8	1.5796766
20	0x3f534ec9	0.8254209
21	0x3f91deda	1.1396134
22	0x3f3f62e6	0.7476028
23	0x3f935831	1.1511289
24	0x3fb19e95	1.387652
25	0x3f7ad060	0.97974205
26	0x3f43d0d1	0.76490504
27	0x3f82b1a0	1.0210457
28	0x3f8f6109	1.1201488
29	0x3f7a9569	0.9788423
30	0x3f84312b	1.0327505
31	0x3f981825	1.1882368

module.1.bias f4 [32]
0	0x3e2d2e89	0.16912283
1	0xbe806fc0	-0.25085258
2	0xbe5f80c8	-0.2182647
3	0xbe067280	-0.13129616
4	0xbe589be9	-0.21153225
5	0xbe5ede24	-0.21764427
6	0x3dc8629d	0.09784434
7	0xbe2d2a2d	-0.1691062
8	0xbee67dc0	-0.45017815
9	0xbe126c7c	-0.14299196
10	0xbda18add	-0.07887814
11	0xbde478ff	-0.11155891
12	0xbcc0b661	-0.023524465
13	0xbb829088	-0.0039845146
14	0xbe9d1a02	-0.30683905
15	0xbda41d2d	-0.08013377
16	0xbc86881d	-0.016422326
17	0x3b60c7f3	0.0034298867
18	0xbe7a03aa	-0.2441546
19	0xbeb1c7cc	-0.34722745
20	0xbe6c5717	-0.23080097
21	0xbe367fea	-0.17822233
22	0xbe99fefa	-0.30077344
23	0xbe1d2c40	-0.15348911
24	0xbdafc963	-0.08583333
25	0xbeb80abd	-0.35945693
26	0xbeb5d951	-0.35517362
27	0xbdfa6ba5	-0.12227563
28	0xbe30b3aa	-0.17256036
29	0xbdea32dd	-0.11435483
30	0xbe250139	-0.16113748
31	0xbdc27749	-0.09495408

module.1.running_mean f4 [32]
0	0xbe7a5f75	-0.24450476
1	0x3e868963	0.26276693
2	0x3edd6019	0.4323738
3	0xbc903723	-0.017604416
4	0xbe600492	-0.21876743
5	0xbea9aa17	-0.3313758
6	0xbed50118	-0.41602397
7	0x3e7e8bb8	0.24857986
8	0xbf39f93a	-0.72645915
9	0x3f03d456	0.51495874
10	0x3e787d95	0.24266656
11	0xbf070e4f	-0.5275621
12	0x3ca1fe95	0.019774714
13	0xbbea43b1	-0.0071491827
14	0xbd92bc45	-0.07164816
15	0xbe01fa30	-0.12693095
16	0x3d7503cc	0.059818074
17	0xbe276ac9	-0.16349329
18	0xbc8d52d4	-0.01725141
19	0xbd909f04	-0.0706158
20	0x3c9eb23d	0.0193721
21	0xbde32a04	-0.11091998
22	0x3f074578	0.52840376
23	0x3dff8ae5	0.12477664
24	0xbe16313c	-0.14667219
25	0xbf009931	-0.5023375
26	0x3e809340	0.25112343
27	0x3d20ee13	0.039289545
28	0x3d899b7a	0.06719108
29	0xbdca2d52	-0.098719254
30	0x3d9d8e43	0.0769315
31	0xbd470acc	-0.04859428

module.1.running_var f4 [32]
0	0x3ea97bb9	0.33102205
1	0x3e5a1710	0.2129786
2	0x3dff62fd	0.124700524
3	0x3f15299d	0.5826662
4	0x3da3830d	0.0798398
5	0x3de2070e	0.11036502
6	0x3e108eef	0.14117025
7	0x3db848ba	0.089982465
8	0x3e99bbd3	0.3002611
9	0x3e04f682	0.1298466
10	0x3e559107	0.20856105
11	0x3e279425	0.16365106
12	0x3e12ae00	0.14324188
13	0x3eb1e00d	0.3474125
14	0x3e366331	0.17811276
15	0x3eabdd65	0.33567348
16	0x3e7fd185	0.24982269
17	0x3e4abe8f	0.19799255
18	0x3d3f8e47	0.046766546
19	0x3f16c3fd	0.58892804
20	0x3dde8194	0.10864559
21	0x3dd13730	0.10215604
22	0x3e1e53fa	0.15461722
23	0x3e266085	0.16247757
24	0x3eb85e04	0.36009228
25	0x3e7e163c	0.24813169
26	0x3d49ea6e	0.049295835
27	0x3e8b7bc9	0.27242878
28	0x3e93d0e6	0.28870314
29	0x3e572b20	0.21012545
30	0x3dd11946	0.10209899
31	0x3f2fd47b	0.68683594

module.4.weight f4 [32, 32, 5, 5]
0	0xbd946856	-0.07246463
1	0xbd97e9cf	-0.07417642
2	0xbda797b6	-0.081832334
3	0xbd26d24d	-0.040727902
4	0xbd8ba46f	-0.068184726
5	0xbd017d65	-0.031613726
6	0xbaf0c42b	-0.001836901
7	0xbc947e6c	-0.018126689
8	0xbd0d9490	-0.03456551
9	0xbd0dc282	-0.034609325
10	0x3c37f20f	0.011227145
11	0xbd4807b0	-0.048835456
12	0x3b19bc2d	0.0023458109
13	0xbd1f27e2	-0.038856395
14	0x3c067e0d	0.008208764
15	0x3d0621a4	0.032746926
16	0x3cc8541a	0.024454165
17	0x3d802995	0.06257931
18	0x3c8ca1fd	0.017167086
19	0x3d04a3c0	0.032382727
20	0x3d227d22	0.039670117
21	0x3dbdfb8c	0.092764944
22	0x3dc0c76e	0.09413038
23	0x3dd0b4a8	0.101907074
24	0x3d585d81	0.052823547
25	0xbd206d7d	-0.039166916
26	0xbc65d9f0	-0.014029011
27	0xbd0f0537	-0.034917083
28	0x3c7c02ac	0.015381496
29	0xbc802698	-0.015643403
30	0xbc126786	-0.008935815
31	0xbcf6006e	-0.030029502
32	0xbd1300fc	-0.03588961
33	0xbd26ea33	-0.040750694
34	0x3c95bdfe	0.018279072
35	0x3d0f0dd3	0.034925293
36	0x3d83f8e5	0.06443957
37	0x3d919d47	0.071100764
38	0x3d6421bc	0.055696234
39	0x3a55183f	0.0008128918
40	0xbdbd806a	-0.09253009
41	0xbd02489b	-0.031807523
42	0xbc7d3e3a	-0.0154567305
43	0xbcbc185c	-0.022960834
44	0xbd224381	-0.039615158
45	0xbcd31aa4	-0.02576954
46	0xbb6769b4	-0.0035310807
47	0x3ccb80d5	0.024841705
48	0x3db12dcd	0.08651314
49	0x3d466d64	0.048444167
50	0xbd85529e	-0.065098986
51	0xbdb56774	-0.08857623
52	0xbd360749	-0.04444054
53	0xbd1768ac	-0.036965057
54	0xbcd2e2c3	-0.025742894
55	0xbd642369	-0.055697832
56	0xbd464662	-0.048406966
57	0xbcd3cc4c	-0.025854252
58	0xbd117114	-0.03550823
59	0xbd22042a	-0.039554752
60	0xbd3522ea	-0.04422275
61	0xbbd5f356	-0.006529252
62	0xb917aef9	-0.00014465665
63	0xbd22d905	-0.039757747
64	0x3bf1e775	0.007382328
65	0xbde1c1fa	-0.11023326
66	0xbd996a30	-0.07490957
67	0xb99a0a03	-0.00029380628
68	0xbc233f85	-0.009963875
69	0xbcba0752	-0.022708569
70	0xbbbf78d2	-0.0058432603
71	0x3d09af36	0.03361436
72	0x3d299630	0.041402996
73	0x3bb425a6	0.005497652
74	0x3c7a6838	0.015283637
75	0xbdc541d0	-0.09631693
76	0xbd6b6012	-0.057464667
77	0x3b9c3bf3	0.0047678887
78	0xbc1976e0	-0.009366721
79	0x3b31edca	0.002714979
80	0xbc8ed4aa	-0.01743539
81	0x3c6a6a72	0.014307605
82	0x3d014b22	0.031565793
83	0xbd0dccda	-0.03461919
84	0x3cb1160e	0.021616962
85	0xbdb12de9	-0.08651335
86	0xbd241bd6	-0.04006561
87	0x3d2249f8	0.039621323
88	0xbd33d147	-0.043900754
89	0xbd1a98c5	-0.03774335
90	0xbd95b4b2	-0.073098555
91	0xbd78b643	-0.060720693
92	0xbd752237	-0.059847083
93	0xbdb2e246	-0.087345645
94	0xbd3ca6b2	-0.04605741
95	0xbddd485f	-0.10804819
96	0xbdcb0676	-0.09913342
97	0xbd3d3e78	-0.046202153
98	0xbda0ae10	-0.078457
99	0xbd53f8f1	-0.05175108
100	0xbc12ae0d	-0.00895263
101	0xbd41ed18	-0.04734525
102	0xbd71d413	-0.05904014
103	0xbd3d3c79	-0.04620025
104	0xbd40e07c	-0.047089085
105	0x3d5af211	0.05345351
106	0x3c0d0a2e	0.008608384
107	0x3c07c9b0	0.008287832
108	0xbc1b2c39	-0.009470993
109	0x3d400c51	0.046886746
110	0x3d2a9bfa	0.041652657
111	0xbd2cbd0c	-0.042172477
112	0xbcc284b2	-0.023744915
113	0xbc753a41	-0.014967502
114	0x3d3e740e	0.046497397
115	0x3be9a5d0	0.007130362
116	0x3dadeaa4	0.0849202
117	0xbce28f77	-0.0276563
118	0xbd958f08	-0.07302672
119	0xbd13af43	-0.036055814
120	0xbdb72d33	-0.08944168
121	0xbdf02ccd	-0.11727295
122	0xbda1c80e	-0.078994855
123	0xbd2749e5	-0.040841956
124	0x3d388da0	0.04505694
125	0xbd8438f1	-0.06456173
126	0xbd853998	-0.06505126
127	0xbb1eb177	-0.0024214664
128	0xbd903f6b	-0.07043346
129	0xbd8323d3	-0.06403317
130	0xbdd11361	-0.10208774
131	0xbd1e2b7a	-0.03861568
132	0xbc004ff0	-0.007831559
133	0xbd453c3d	-0.04815315
134	0xbde1be00	-0.11022568
135	0xbc5f1a23	-0.013617071
136	0x3d9065de	0.070506796
137	0x3e0df8c9	0.13864435
138	0x3cc0139a	0.023446847
139	0xbbb0d79f	-0.005396798
140	0x3e260052	0.1621106
141	0x3e97a170	0.29615355
142	0x3e908007	0.28222677
143	0x3e657aaf	0.22410081
144	0x3e012f9d	0.1261582
145	0xbd008104	-0.03137304
146	0x3c0fd4a8	0.008778729
147	0x3bd96192	0.0066339457
148	0xbd59747b	-0.0530896
149	0xbd2b428e	-0.04181152
150	0x3d274723	0.040839326
151	0x3d505051	0.050857846
152	0x3d2eb9bb	0.042657595
153	0x3c8e8896	0.017399114
154	0x3c9cf493	0.01915959
155	0x3c61a662	0.013772579
156	0x3d1d2167	0.038361933
157	0x3d346b81	0.044047836
158	0x3d0a3206	0.033739112
159	0x3c2dd1ee	0.010609133
160	0x3c9a1336	0.018807989
161	0xbd1969d8	-0.037454456
162	0x3c40bb87	0.01176346
163	0xbc93a009	-0.018020647
164	0x3c8e8109	0.017395513
165	0x3cbccefa	0.023047913
166	0x3da3985d	0.07988045
167	0x3c68f39b	0.014218236
168	0x3d188465	0.037235636
169	0x3d15fb2c	0.03661649
170	0x3cad960a	0.021189708
171	0xbd2612db	-0.040545326
172	0x3a5ba831	0.00083792495
173	0xbd37f4f0	-0.044911325
174	0x3cdb70cf	0.02678719
175	0xbc05e631	-0.008172558
176	0xbc882c03	-0.016622549
177	0x3cb784f9	0.022402273
178	0xbc767e21	-0.01504472
179	0xbb433ea4	-0.0029791975
180	0xbcd142cf	-0.025544552
181	0xbcdec2d8	-0.027192518
182	0xbc7abbe3	-0.015303585
183	0x3cfff2df	0.03124374
184	0xbd622097	-0.05520686
185	0x3c76ebea	0.015070895
186	0x3d5c92d3	0.05385096
187	0x3e017a2b	0.1264426
188	0x3d55ae70	0.05216831
189	0x3d321474	0.043476537
190	0x3c90935a	0.017648388
191	0xbd0cbab1	-0.03435773
192	0xbd41bafc	-0.047297463
193	0x3d047dbc	0.032346472
194	0x3ce65a19	0.028119134
195	0xbd665ede	-0.056242816
196	0xbd1b3818	-0.037895292
197	0xbdc8f9b8	-0.09813255
198	0xbdadd28e	-0.08487426
199	0xbd92878d	-0.071547605
200	0xbd59b5de	-0.053151958
201	0xbc29e28d	-0.010368955
202	0xbd8ecad1	-0.06972278
203	0xbcaedfad	-0.021346891
204	0xbd8bda67	-0.06828766
205	0xbb63fb87	-0.0034787373
206	0x3d27d981	0.040978912
207	0xbd13ed6d	-0.0361151
208	0xbc93a42e	-0.018022623
209	0xbd55ca1c	-0.0521947
210	0xbd20fd72	-0.039304204
211	0xbcc74706	-0.024325859
212	0xbcd15ed4	-0.025557913
213	0xbd5ebfc2	-0.054382093
214	0xbd3897f2	-0.04506678
215	0xbd0df75a	-0.03465972
216	0xbd004ad8	-0.031321377
217	0xbd1e8ca9	-0.038708363
218	0xbd8bd296	-0.068272755
219	0xbdfd5120	-0.12368989
220	0x3da650c0	0.081208706
221	0x3de190a0	0.11013913
222	0x3db5c75e	0.08875917
223	0x3df7cfef	0.12100207
224	0x3d8b7622	0.068096414
225	0xbcb35c34	-0.021894552
226	0xbd393e1b	-0.045225244
227	0xbcfa449c	-0.030550294
228	0x3b5a870f	0.0033344661
229	0x3b1512a4	0.0022746706
230	0xbc56f251	-0.013119296
231	0xbd2d5d1e	-0.04232513
232	0xbc3e06ee	-0.011598332
233	0xbd2bcbce	-0.04194241
234	0x3c811170	0.015755385
235	0x3ceac993	0.028660571
236	0x3c11b4da	0.008893216
237	0x3d087b1a	0.033320524
238	0xbbb74488	-0.0055928864
239	0xbc5eac11	-0.0135908285
240	0xbbab1a0c	-0.005221611
241	0xbd6ae305	-0.05734541
242	0xbcf32d3b	-0.029684654
243	0xbd099d21	-0.033597115
244	0xbcdc530b	-0.026895067
245	0xbcd3f2fa	-0.025872696
246	0x3bed2f64	0.0072383154
247	0xbcfc0136	-0.030762296
248	0x3c7f3472	0.015576469
249	0x3c2e6239	0.010643535
250	0xbc9edcb5	-0.01939235
251	0xbd87bcba	-0.066277936
252	0xbd3b7bf3	-0.045772504
253	0xbcd1b322	-0.025598112
254	0x3cb35a38	0.021893606
255	0xbce06efc	-0.027396671

module.4.bias f4 [32]
0	0xbd07f606	-0.03319361
1	0xbb16675e	-0.0022949795
2	0x3c846b40	0.016164422
3	0xbbe87dcd	-0.0070950747
4	0xbcb39490	-0.021921426
5	0x3cdcfd85	0.026976356
6	0x3cb67481	0.02227235
7	0xbcb6f134	-0.022331811
8	0x3ca5858f	0.020205287
9	0x3d108c5e	0.035290115
10	0xbcfe87db	-0.03107064
11	0x3b291dfd	0.0025805228
12	0xbc6af2d0	-0.014340118
13	0xbcaefbcd	-0.021360302
14	0xbd033492	-0.032032557
15	0x3c176109	0.009239444
16	0x3ccb5ec1	0.024825456
17	0xbc9897a1	-0.01862699
18	0xbadce434	-0.0016852678
19	0xbcd723a4	-0.026262112
20	0x3cc5ee17	0.024161382
21	0xbcfa8162	-0.030579273
22	0x3b90827f	0.0044100876
23	0x3c325b49	0.010886022
24	0x39c59c95	0.0003769143
25	0x3cd929e6	0.026509237
26	0x3cd0fdad	0.025511587
27	0xbcf7d95e	-0.030255016
28	0x3b6e0f7d	0.003632515
29	0xbcf8417d	-0.030304665
30	0x396f4b08	0.00022820767
31	0x3b8086f6	0.0039223386

module.5.weight f4 [32]
0	0x3f33600d	0.70068437
1	0x3f4e8fd7	0.8068823
2	0x3f711c2b	0.94183606
3	0x3f6b3d06	0.9188999
4	0x3f4ab4c0	0.7918205
5	0x3f826889	1.0188152
6	0x3f56bed4	0.8388493
7	0x3f850e00	1.0394897
8	0x3f8a7c54	1.0819192
9	0x3f773cd7	0.9657721
10	0x3f8b1301	1.0865175
11	0x3f81d555	1.0143229
12	0x3f681092	0.90650284
13	0x3fa3fec1	1.281212
14	0x3f7cbcfc	0.9872587
15	0x3f8ac55b	1.0841478
16	0x3f6a0b58	0.9142356
17	0x3f6e00b6	0.92969835
18	0x3f78cd1f	0.9718799
19	0x3f8477a1	1.0349008
20	0x3f655c62	0.8959409
21	0x3f4343e4	0.7627547
22	0x3f8725ca	1.0558407
23	0x3f60571d	0.87632924
24	0x3f62c54a	0.8858229
25	0x3f837afe	1.0271909
26	0x3f5dbbc1	0.86614615
27	0x3f799603	0.97494525
28	0x3f8aaef5	1.0834643
29	0x3f867b43	1.0506366
30	0x3f81823b	1.0117868
31	0x3f743410	0.9539194

module.5.bias f4 [32]
0	0xbe5385c0	-0.2065649
1	0xbe34c086	-0.17651567
2	0xbed308f9	-0.41217783
3	0xbec870f7	-0.39148685
4	0xbdf3e267	-0.11908417
5	0xbe9bdf12	-0.30443627
6	0xbe73f669	-0.23824467
7	0xbea3f5d8	-0.320235
8	0xbe93fa1a	-0.2890175
9	0xbebc2cb7	-0.36752865
10	0xbf1cc2dc	-0.6123483
11	0xbec53525	-0.3851711
12	0xbede17bc	-0.43377483
13	0xbeea4537	-0.45755932
14	0xbed2f553	-0.41202793
15	0xbe9bcef6	-0.30431336
16	0xbedeb124	-0.43494523
17	0xbeb19719	-0.3468559
18	0xbe8c8f86	-0.2745325
19	0xbee8543c	-0.45376766
20	0xbeace8c3	-0.33771333
21	0xbe1cd76e	-0.15316555
22	0xbed0f518	-0.40811992
23	0xbec4717d	-0.38367835
24	0xbeb3cfef	-0.35119578
25	0xbe64b2ae	-0.22333786
26	0xbe74b193	-0.23895864
27	0xbeab7f97	-0.3349578
28	0xbf050544	-0.5196116
29	0xbeda494d	-0.4263405
30	0xbe5f29e3	-0.21793322
31	0xbec565e5	-0.38554302

module.5.running_mean f4 [32]
0	0xbbf34f50	-0.0074252263
1	0xbe6218dd	-0.22079797
2	0xbff98bbb	-1.9495767
3	0x3f942a14	1.1575341
4	0xbfb0ccb2	-1.3812468
5	0xbdf33e86	-0.1187716
6	0xbf24a5a9	-0.6431528
7	0xc03af91b	-2.9214542
8	0xc000063c	-2.0003805
9	0xc019a771	-2.4008448
10	0xbfc03374	-1.5015702
11	0xc07f5e3c	-3.9901266
12	0xbf87071d	-1.0549046
13	0xc05ae75e	-3.4203715
14	0xbfba1db4	-1.4540315
15	0xc06ed4f4	-3.7317476
16	0xc01b5980	-2.4273376
17	0xbf83fb7d	-1.0311123
18	0xc032a113	-2.7910812
19	0x3eb36035	0.35034338
20	0xbf9558e8	-1.1667757
21	0x3f058fdd	0.5217264
22	0xc0807ea0	-4.015457
23	0xbfa86dbf	-1.3158492
24	0xc00c08e1	-2.188042
25	0xbf1a8170	-0.60353756
26	0xbf79ee0c	-0.97628856
27	0xc012370d	-2.28461
28	0xc01d67fe	-2.4594722
29	0xc03d8988	-2.9615192
30	0xbffcd1a5	-1.9751478
31	0xbf9451e2	-1.1587489

module.5.running_var f4 [32]
0	0x40914058	4.5391045
1	0x409494bc	4.643156
2	0x40b901ed	5.781485
3	0x40ac5c64	5.386278
4	0x40c5dbc7	6.1830783
5	0x40afee8a	5.4978685
6	0x40e77317	7.232799
7	0x40ec0b31	7.376366
8	0x40f0a3d4	7.5199986
9	0x411470e0	9.277557
10	0x40ca1e29	6.3161817
11	0x40d0b7fe	6.52246
12	0x409fadb4	4.989954
13	0x41459c2c	12.350628
14	0x40a05600	5.010498
15	0x4109b46a	8.606546
16	0x40aa5b21	5.323624
17	0x409e3b87	4.9447665
18	0x40a2b9ca	5.0851793
19	0x40f57efd	7.6717515
20	0x40d6155e	6.6901083
21	0x40a729c8	5.2238503
22	0x40e989c8	7.298069
23	0x408d8315	4.422251
24	0x40cc5271	6.3850636
25	0x40a6be4a	5.2107286
26	0x406a9bc5	3.6657574
27	0x40d611f0	6.6896896
28	0x40d0c287	6.523746
29	0x40bdcaf5	5.931025
30	0x40a3c65e	5.1179647
31	0x408db8ec	4.4288235

module.8.weight f4 [64, 32, 5, 5]
0	0xbb93b103	-0.0045071854
1	0xbb8cff1b	-0.004302872
2	0xbd5bc2ec	-0.05365269
3	0xbd45fac4	-0.04833485
4	0xbd80dac2	-0.06291725
5	0x3c8fe025	0.017562935
6	0xbc25a402	-0.010109903
7	0x3be7e88e	0.007077283
8	0xbcae64e5	-0.021288345
9	0xbcc50ed9	-0.024054931
10	0x3d83cd70	0.064356685
11	0x3ac3b902	0.0014932456
12	0x3c858dcc	0.016302966
13	0xbbdf1c77	-0.006808813
14	0x3d657b78	0.056025952
15	0x3d965072	0.073395625
16	0xbbcded0b	-0.0062843612
17	0xbd9afa96	-0.07567327
18	0xbca33d22	-0.019926611
19	0x3cb3b200	0.021935463
20	0x3db7128e	0.08939086
21	0x3cb1bdf2	0.021697018
22	0x3cf0bb0d	0.029386068
23	0x3d92be2a	0.07165177
24	0x3d946b17	0.07246988
25	0x3c875e91	0.016524585
26	0xb9ebdb02	-0.00044985866
27	0x3d910160	0.070803404
28	0x3bd08ea6	0.0063646613
29	0xbc8c26a3	-0.017108267
30	0x3d0f913d	0.03505062
31	0xbb718196	-0.003685092
32	0xbc40eaea	-0.011774758
33	0xbca4fd90	-0.02014044
34	0xbc2f2ef6	-0.010692349
35	0x3d31757a	0.043324925
36	0x3d843e9e	0.06457256
37	0x3de3f2c9	0.11130292
38	0x3d70558a	0.058675326
39	0x3da5362b	0.08066972
40	0x3d860c52	0.06545319
41	0x3bd8c154	0.0066148434
42	0x3d81cbae	0.06337677
43	0x3cf41519	0.029795216
44	0x3d71a774	0.058997586
45	0x3cd3713d	0.025810832
46	0x3d191166	0.037370108
47	0x3ca186b3	0.01971755
48	0x3ca56fcd	0.020194912
49	0x3d08d932	0.03341026
50	0x3cdf6b0b	0.027272722
51	0x3d6faced	0.058514524
52	0x3d920e4d	0.07131634
53	0x3d6ae038	0.057342738
54	0x3bc6cbf3	0.006066793
55	0xbc62b240	-0.013836443
56	0x3a88454f	0.0010396632
57	0x3d111c23	0.035427224
58	0x3d2eb14b	0.04264955
59	0x3c920490	0.017824441
60	0x3cad9570	0.021189421
61	0xbcd3ed31	-0.025869938
62	0xbc910655	-0.017703215
63	0x3cb8343a	0.022485841
64	0xbcaccb5d	-0.021093065
65	0x3d373670	0.04472965
66	0x3c37cf55	0.011218865
67	0xbd73dddc	-0.059537753
68	0xbd2468d3	-0.04013903
69	0x3c1c36a1	0.009534509
70	0x3ceef037	0.029167278
71	0x3c691eb1	0.014228509
72	0x3cc73bab	0.024320444
73	0xbcb20202	-0.021729473
74	0xbca1dc9f	-0.01975852
75	0xbd2312f6	-0.039813004
76	0x3d508820	0.05091107
77	0x3cf170c1	0.02947271
78	0xbcd7c6b8	-0.026339874
79	0xbd257965	-0.040398974
80	0xbce1a68a	-0.027545232
81	0xbc3d4162	-0.011551233
82	0xbd3dc447	-0.046329763
83	0x3bfae2e8	0.007656444
84	0x3b8e38cd	0.0043402673
85	0xbd07a5c1	-0.03311706
86	0xbd5627f0	-0.05228418
87	0x3cd89eb1	0.026442857
88	0xbd267a5f	-0.040644046
89	0xbd48b79e	-0.049003236
90	0xbdd7c65b	-0.1053588
91	0x3ba15972	0.004923993
92	0x3d13f5ac	0.036122963
93	0x3bde3c9b	0.006782127
94	0xbce8fb73	-0.028440213
95	0xbdd49f7c	-0.10381982
96	0xbd947811	-0.07249463
97	0x3d8b35c6	0.06797366
98	0x3dba71bd	0.09103725
99	0xbcd94d47	-0.026526107
100	0xbdc80a28	-0.09767562
101	0xbd543171	-0.051804963
102	0x3c534de2	0.012896987
103	0xbbf35faa	-0.0074271755
104	0xbd0ea7e5	-0.034828085
105	0xbd486925	-0.0489284
106	0xbd29532f	-0.041339096
107	0x3d4c0429	0.049808655
108	0x3d02d90a	0.031945266
109	0xbb30283f	-0.0026879457
110	0x3d49154a	0.04909257
111	0xbd5d0702	-0.05396176
112	0xbd4fec95	-0.05076273
113	0x3caf699d	0.021412665
114	0x3d7df9b3	0.06200571
115	0x3d27ce80	0.040968418
116	0x3bf0fef2	0.0073546106
117	0xbd5ee362	-0.054416068
118	0xbd0464bd	-0.032322634
119	0xbcf25426	-0.02958114
120	0x3d5153d5	0.05110534
121	0x3d0f9fd7	0.035064545
122	0xbd512cac	-0.051067993
123	0xbd1ec073	-0.038757753
124	0xbd1dc141	-0.03851438
125	0xbc8df617	-0.017329259
126	0xbd0d8326	-0.0345489
127	0xbd98b013	-0.074554585
128	0xbd8fc787	-0.07020479
129	0xbca8508b	-0.020546218
130	0x3cde8f71	0.027168008
131	0x3da3b812	0.07994093
132	0xbd65c64e	-0.05609732
133	0xbca56052	-0.02018753
134	0x3ac8f4a8	0.0015331702
135	0xbd609309	-0.054827724
136	0x3d62dac3	0.05538441
137	0xbce99ad0	-0.028516203
138	0xbbcd4105	-0.0062638544
139	0xbc41a326	-0.011818683
140	0xbd087c1e	-0.033321492
141	0xbbab42a1	-0.0052264486
142	0x3d1be1e0	0.038057208
143	0x3af49da0	0.0018662699
144	0xbd29d36e	-0.0414614
145	0xbd74da0a	-0.05977825
146	0xbb5efedc	-0.003402642
147	0x3d084edc	0.03327833
148	0x3c84e2e8	0.016221479
149	0xbc7eac1c	-0.015543964
150	0x3cfccdaa	0.030859787
151	0x3d9ede34	0.07757226
152	0x3d525231	0.051347915
153	0x3d5723b8	0.0525243
154	0x3c8419d6	0.0161256
155	0x3cc128a5	0.023578951
156	0xbbe5b1f0	-0.007009737
157	0xbc174622	-0.00923303
158	0xbb32c797	-0.002727961
159	0x3c0dfa23	0.008665594
160	0x3d810486	0.06299691
161	0x3d4c1931	0.049828712
162	0x3ccf08e0	0.025272787
163	0x3d35ddd2	0.044400997
164	0x39b9fbf6	0.00035473675
165	0xbd462d04	-0.048382774
166	0x3c3ef69f	0.011655479
167	0x3c89b81f	0.016811429
168	0xbc534112	-0.012893932
169	0xbd044a42	-0.03229738
170	0x3b67432f	0.0035287847
171	0xbd1ec5ef	-0.038762983
172	0xbcf0cf77	-0.029395802
173	0xbd3f5c43	-0.046718847
174	0xbd534b53	-0.051585507
175	0xbd5111f6	-0.05104252
176	0x3bce6dfb	0.006299732
177	0x3d48c049	0.049011502
178	0xbcf7118a	-0.03015973
179	0xbcb87b85	-0.022519836
180	0xbd7640e1	-0.060120467
181	0x3cb652b9	0.022256242
182	0x3d3675df	0.044546004
183	0x3ced1009	0.02893831
184	0xbcb1467e	-0.021640059
185	0x38a6b92d	7.9499885e-05
186	0x3c90f754	0.01769606
187	0x3d598b20	0.053111196
188	0x3d86827c	0.06567857
189	0x3c846dea	0.016165692
190	0xbcb24aa0	-0.0217641
191	0x3b5f2eb1	0.003405493
192	0x3ca38d0b	0.019964715
193	0xbbe62c15	-0.007024298
194	0xbb945067	-0.0045261863
195	0x3d866704	0.065626174
196	0x3d5dda05	0.054162998
197	0xbda62c60	-0.081139326
198	0xbda0364b	-0.078228556
199	0xbc9f01cb	-0.019410035
200	0x3d260830	0.040535152
201	0xbce2990e	-0.027660873
202	0xbcc5bc27	-0.02413757
203	0xbd42b592	-0.04753644
204	0xbde0cda6	-0.10976724
205	0x3dd13775	0.10215656
206	0x3dc9ab2d	0.09847102
207	0x3af13c1c	0.0018404755
208	0xbdc08ac5	-0.09401468
209	0xbdf3f4e5	-0.11911944
210	0x3d9908b2	0.074723616
211	0x3da84fc0	0.08218336
212	0xbd69e557	-0.05710348
213	0xbe27b93e	-0.16379258
214	0xbe41565c	-0.188806
215	0x3e0761c3	0.13220887
216	0x3db0ee03	0.08639147
217	0xbc24dfc9	-0.01006312
218	0xbe1f89ef	-0.15579961
219	0xbe237832	-0.1596382
220	0x3da40129	0.08008034
221	0x3d4ce1df	0.050020095
222	0x3cd5f185	0.026116142
223	0xbdcef9bb	-0.10106226
224	0x3c091319	0.00836637
225	0x3d3c4752	0.045966454
226	0x3d28ffd2	0.041259594
227	0x3c96cc0b	0.018407842
228	0x3a960182	0.0011444541
229	0x3c89b26d	0.016808713
230	0xbc95056f	-0.018191068
231	0x3d10e05f	0.035370227
232	0x3ce04a30	0.027379125
233	0x3ca5124f	0.020150332
234	0x3c67576d	0.014119965
235	0xbcc52ed9	-0.02407019
236	0xbb5263b7	-0.0032102892
237	0x3c7f0411	0.015564934
238	0x3ca8fa26	0.020627093
239	0x3c089b4a	0.008337805
240	0x3d10a8ae	0.035317115
241	0xbb8cb4d0	-0.0042940155
242	0xbcd49354	-0.025949158
243	0x3cffa72a	0.03120764
244	0x3dff2c90	0.124596715
245	0x3cbb10c4	0.022835143
246	0xbd2b7801	-0.04186249
247	0xbd8ba10f	-0.06817829
248	0xba095dcf	-0.0005240114
249	0x3d833a73	0.06407633
250	0x3db91e11	0.09038938
251	0x3cd66f4c	0.026176117
252	0x3dc30eab	0.09524282
253	0x3cea5815	0.028606454
254	0xbbc07e47	-0.0058744284
255	0x3d1c9589	0.038228545

module.8.bias f4 [64]
0	0x3cbe2bb0	0.023214191
1	0xbc6169c4	-0.013758127
2	0x3c3100aa	0.010803381
3	0xbcaa5d2c	-0.020796381
4	0xbaedf0ae	-0.0018153393
5	0xbc15b8dc	-0.009138312
6	0x3c9eafee	0.019371
7	0xbd02e61e	-0.031957738
8	0x3cf8809b	0.030334761
9	0xbcf9192c	-0.03040751
10	0xbd06bc16	-0.032894216
11	0x3c3181df	0.010834186
12	0x3a6f0064	0.00091171847
13	0xb73679e3	-1.0876424e-05
14	0x39c29359	0.00037112346
15	0x3cff49be	0.031163093
16	0xbc9bdc6e	-0.019026008
17	0xbce7eb3c	-0.02831041
18	0xbcd4ad31	-0.02596149
19	0x3d05576d	0.03255408
20	0x3c7f5936	0.015585234
21	0xbc9207ff	-0.017826078
22	0xbcdb2f66	-0.026756
23	0xbcd24613	-0.02566818
24	0xbae26fa2	-0.0017275701
25	0xbaeb4c22	-0.0017951766
26	0x3cf01036	0.029304605
27	0xba415448	-0.00073749246
28	0xbd0e7a96	-0.034784876
29	0xbd0b07fa	-0.033943154
30	0xbce4714b	-0.027886054
31	0xbcfebd4a	-0.03109612
32	0x3d0659a1	0.03280032
33	0x3c5dae7f	0.013530373
34	0x3bd1f018	0.0064067952
35	0xbc9ab1a0	-0.018883526
36	0xbc75e1c6	-0.015007442
37	0x3d06cf89	0.032912765
38	0xbb851d34	-0.004062319
39	0xbccc2a3a	-0.024922479
40	0xbc828d2c	-0.015936457
41	0xbcedf971	-0.029049607
42	0x3b10076a	0.0021977075
43	0xbd10018c	-0.035157725
44	0xbcf08bda	-0.029363561
45	0xbcebe9b4	-0.028797962
46	0xbc2f7405	-0.010708814
47	0x3c23be46	0.009994095
48	0xbcbcbc8e	-0.023039129
49	0xbd0029d9	-0.03128991
50	0xbd0dd82b	-0.034629982
51	0x3bb8b824	0.0056371856
52	0xb9a1a66c	-0.00030832307
53	0xbc1f16be	-0.009710012
54	0xbc2dd633	-0.010610151
55	0xbcdb4d39	-0.026770221
56	0xbb33ca9d	-0.0027434
57	0x3b3ae3cd	0.0028517128
58	0xbbe1fe35	-0.006896759
59	0xbc6781ab	-0.014130036
60	0xbbdc973c	-0.0067318957
61	0xbd09da18	-0.033655256
62	0xbb4f55dd	-0.0031636872
63	0xbcb8defa	-0.022567261

module.9.weight f4 [64]
0	0x3f3e311a	0.74293673
1	0x3f333cc1	0.7001458
2	0x3f21aade	0.6315135
3	0x3f3fc867	0.74915165
4	0x3f39b698	0.7254424
5	0x3f2ce71c	0.67540145
6	0x3f1d92c2	0.6155206
7	0x3f4b220f	0.79348844
8	0x3f3b6d09	0.7321325
9	0x3f231a8e	0.63712394
10	0x3f3e2d67	0.7428803
11	0x3f102a19	0.56314236
12	0x3f2db3c0	0.678524
13	0x3f1c2f98	0.6101012
14	0x3f34182d	0.7034939
15	0x3efe01fe	0.49610895
16	0x3f38b574	0.72151875
17	0x3f2e05c2	0.67977536
18	0x3f2700c0	0.6523552
19	0x3f2d4791	0.67687327
20	0x3f342eb9	0.70383793
21	0x3f2ebe5e	0.6825923
22	0x3f29537f	0.6614303
23	0x3f23c1fc	0.6396787
24	0x3f10aa87	0.56510204
25	0x3f29d266	0.6633667
26	0x3f45e605	0.77304107
27	0x3f2c73cb	0.67364186
28	0x3f33175f	0.69957536
29	0x3f11de9b	0.56980294
30	0x3f463bcc	0.7743499
31	0x3f431ff0	0.7622061
32	0x3f2342f6	0.6377405
33	0x3f311c26	0.69183576
34	0x3f2bfd52	0.6718341
35	0x3f392a6c	0.72330356
36	0x3f1cb69c	0.6121614
37	0x3f16d2fe	0.589157
38	0x3f544776	0.8292154
39	0x3f00daeb	0.5033404
40	0x3f210a02	0.62905896
41	0x3f3d2205	0.73880035
42	0x3f1b86af	0.60752386
43	0x3f1e75d3	0.61898535
44	0x3f4be921	0.796526
45	0x3f3a6d29	0.72822815
46	0x3f21585f	0.6302547
47	0x3f1d9a1e	0.6156329
48	0x3f2e2796	0.68029153
49	0x3f2f4119	0.68458706
50	0x3f21c97f	0.63198084
51	0x3f3d7004	0.7399905
52	0x3eff77c8	0.49896073
53	0x3f576ec8	0.84153414
54	0x3f22aadc	0.6354196
55	0x3f2ff52d	0.68733484
56	0x3f3e0daa	0.742396
57	0x3f2f9143	0.68581027
58	0x3f117047	0.56811947
59	0x3f30004f	0.6875047
60	0x3f39aaea	0.7252642
61	0x3f39a67f	0.7251968
62	0x3f4835ba	0.7820698
63	0x3f2dbb85	0.6786426

module.9.bias f4 [64]
0	0xbf292f11	-0.6608744
1	0xbf0dfe76	-0.554664
2	0xbf02c592	-0.5108272
3	0xbf3f4bd6	-0.7472509
4	0xbf40c16a	-0.75295126
5	0xbf2c2883	-0.67249316
6	0xbf009ca1	-0.50238997
7	0xbf72cc81	-0.948433
8	0xbf2dc77b	-0.6788251
9	0xbf0ed25c	-0.5578973
10	0xbf1dc596	-0.6162962
11	0xbf1a7c2c	-0.6034572
12	0xbefdae89	-0.49547222
13	0xbefe8eb4	-0.4971825
14	0xbf1dda9f	-0.61661714
15	0xbef2fa97	-0.4745681
16	0xbf18a398	-0.59624624
17	0xbf0646b0	-0.5245161
18	0xbefdeb3d	-0.49593535
19	0xbf3d3b30	-0.7391844
20	0xbf3f8ad2	-0.748212
21	0xbf2486a4	-0.64267945
22	0xbf090750	-0.53526783
23	0xbf1bfc81	-0.60932165
24	0xbf015939	-0.5052677
25	0xbf1c8a2c	-0.61148334
26	0xbf11a255	-0.56888324
27	0xbf2c00ab	-0.6718852
28	0xbf335018	-0.7004409
29	0xbefd7777	-0.49505207
30	0xbf5a9663	-0.8538572
31	0xbf1f9036	-0.62329423
32	0xbf192096	-0.5981535
33	0xbf0fd24e	-0.56180274
34	0xbf0378ea	-0.51356375
35	0xbf11cd6b	-0.5695407
36	0xbed9b2a3	-0.42519102
37	0xbeff0036	-0.49804848
38	0xbf306b1c	-0.68913436
39	0xbeffd0d5	-0.49964014
40	0xbf2067b2	-0.62658226
41	0xbf1871d7	-0.59548706
42	0xbf02589e	-0.5091647
43	0xbf12fccf	-0.57417005
44	0xbf37c66b	-0.71787137
45	0xbf1524ed	-0.5825947
46	0xbf1aaa9d	-0.60416585
47	0xbf0dcaf9	-0.55387837
48	0xbf061162	-0.52370274
49	0xbf1167e3	-0.56799144
50	0xbf2fcb4f	-0.686696
51	0xbf1fdf3c	-0.62450004
52	0xbefd6415	-0.4949042
53	0xbf2a7504	-0.665848
54	0xbf0c094b	-0.5470168
55	0xbf0feb14	-0.56218076
56	0xbf14c240	-0.581089
57	0xbf0cae64	-0.549536
58	0xbefeb27a	-0.49745542
59	0xbf196e59	-0.59934
60	0xbf06ac0f	-0.5260629
61	0xbf0f2677	-0.5591807
62	0xbf37617c	-0.71633124
63	0xbf188459	-0.59576946

module.9.running_mean f4 [64]
0	0xbf88a98a	-1.0676739
1	0xc009d121	-2.1533892
2	0xbfdae3af	-1.7100734
3	0x3c202e0a	0.009776602
4	0xc03300f3	-2.796933
5	0x3b91a4f8	0.0044447146
6	0xbf94caaf	-1.1624354
7	0xbf8528aa	-1.0403035
8	0xbe5c94ad	-0.2154109
9	0xbfea3331	-1.8296872
10	0xc00f34a4	-2.237588
11	0xbefd18d5	-0.49433008
12	0xbfcd8f35	-1.6059328
13	0x3efd6388	0.4949
14	0xc00f0bd9	-2.2350981
15	0xbf7a5da2	-0.9779912
16	0xc0054ae6	-2.0826964
17	0xc0219012	-2.5244184
18	0xbfdb26b2	-1.7121184
19	0xbe7c86e6	-0.24660835
20	0xbf6d723d	-0.9275244
21	0xc009ad7e	-2.1512141
22	0xbe113f44	-0.1418429
23	0xbfb6e357	-1.4288129
24	0x3e0d6a6c	0.13810128
25	0xbf6d04b6	-0.92585313
26	0xbfda8aa6	-1.7073562
27	0xbf1b398e	-0.60634696
28	0xbf7357b7	-0.9505572
29	0xbf58ef82	-0.8474046
30	0xbf232d7c	-0.6374128
31	0xc01398b3	-2.306195
32	0xbdca25a7	-0.09870463
33	0xbf5b2994	-0.8561032
34	0xbff7c1fe	-1.9356077
35	0xc00921b4	-2.142682
36	0xbf9da8af	-1.2317103
37	0xbfaf0dca	-1.3676083
38	0xc04e4819	-3.2231505
39	0xbf8590d6	-1.0434825
40	0xbe157268	-0.14594424
41	0xc035c160	-2.8399277
42	0xbfb1fda2	-1.3905528
43	0xbfb23293	-1.3921684
44	0xc037df27	-2.8729951
45	0xbfd545f4	-1.6661973
46	0xbe68d102	-0.2273598
47	0xbffe2bfb	-1.9857172
48	0xbf91c038	-1.1386786
49	0xbfbf7a62	-1.4959223
50	0xbe9e1135	-0.30872503
51	0xbf57854d	-0.84187776
52	0x3f48f8fa	0.7850491
53	0xc035e73d	-2.8422387
54	0xbf978a4d	-1.1839081
55	0xbfbb9da6	-1.4657485
56	0xc01a4530	-2.4104729
57	0xbf9d3cbf	-1.2284163
58	0xbf0b3178	-0.5437236
59	0xbf3ab418	-0.7293105
60	0xbf9e7fa1	-1.2382699
61	0xbf99b463	-1.2008175
62	0xbf839607	-1.028016
63	0xbff9a39c	-1.9503055

module.9.running_var f4 [64]
0	0x3ff74b86	1.9319923
1	0x3fadff04	1.359345
2	0x3fb28a2c	1.3948417
3	0x3fe7d34f	1.8111361
4	0x3fe32e59	1.7748519
5	0x3fa19447	1.2623376
6	0x3fa30038	1.2734442
7	0x3ff769c0	1.9329147
8	0x3fec6bfe	1.8470457
9	0x3f956174	1.1670365
10	0x3fc775c9	1.558282
11	0x3f80d95d	1.0066334
12	0x3fcb0106	1.5859687
13	0x3f9eabd3	1.2396187
14	0x3fa7259f	1.3058356
15	0x3fa65381	1.2994233
16	0x3fd6b051	1.6772557
17	0x3f9f0596	1.242358
18	0x3fa087ec	1.254148
19	0x3f99dde2	1.2020838
20	0x3fd1f161	1.6401788
21	0x3fe83acc	1.8142943
22	0x3fad8814	1.3557153
23	0x3fb4ff77	1.4140462
24	0x3f61512e	0.88014495
25	0x3f9488e3	1.1604275
26	0x3ffe850e	1.9884355
27	0x3fa08a50	1.254221
28	0x3fe15902	1.7605288
29	0x3f7686b5	0.96299297
30	0x3ffd5b78	1.9793539
31	0x3ff6bcf3	1.9276413
32	0x3fc8772b	1.5661367
33	0x3f9d2bbe	1.2278974
34	0x3fa6278c	1.2980819
35	0x3fb7aeec	1.4350257
36	0x3fa564a4	1.2921338
37	0x3fccccd7	1.6000012
38	0x4004eb88	2.0768757
39	0x3f826807	1.0187997
40	0x3fa288ba	1.2697976
41	0x3fcaa881	1.5832673
42	0x3f91aeb2	1.1381438
43	0x3fc66ab1	1.550131
44	0x3fbd1c4b	1.4774259
45	0x3fca8d56	1.5824382
46	0x3fc59912	1.5437338
47	0x3f967be5	1.175656
48	0x3f8e25a6	1.1105239
49	0x3fe0a1bf	1.7549361
50	0x3fbbc288	1.4668741
51	0x3fae584b	1.3620695
52	0x3f8b9abb	1.0906595
53	0x3feecf6a	1.8657048
54	0x3f8833b7	1.0640782
55	0x3fbb8e1f	1.4652747
56	0x3fa16c8b	1.261125
57	0x3fd8de80	1.6942902
58	0x3fb9236e	1.4463937
59	0x3faa449f	1.3302191
60	0x3fadaf95	1.3569208
61	0x3fd103b0	1.632925
62	0x400ec27f	2.230621
63	0x3febc451	1.8419286

module.13.weight f4 [64, 1024]
0	0xbbdecd42	-0.006799371
1	0x3d7ad916	0.061242186
2	0x3d464d0f	0.048413333
3	0xbcfa3c4a	-0.030546326
4	0xbd44a930	-0.048012912
5	0xbcc7e173	-0.024399495
6	0x3d510afd	0.05103587
7	0x3b86b84c	0.0041113254
8	0x3b84413b	0.0040360964
9	0x3c4f1b3e	0.012640772
10	0xb890dd78	-6.907707e-05
11	0x3d7bb4b7	0.06145164
12	0x3b996881	0.0046816473
13	0xbaa338fa	-0.0012452893
14	0x3c9609e0	0.018315256
15	0x3ac037ac	0.0014665029
16	0x3ced8ade	0.028996881
17	0x3c582c87	0.01319421
18	0x3cb85cb1	0.022505136
19	0x3ca952cd	0.020669365
20	0xbd20defa	-0.039275147
21	0x3d06bbdf	0.03289401
22	0xbd5ed7ef	-0.05440515
23	0x3a6c6c82	0.00090188545
24	0x3c586d8a	0.01320971
25	0x3d6e222c	0.058138058
26	0x3cfdb78e	0.030971315
27	0xbcb3b731	-0.021937938
28	0x3d215713	0.03938968
29	0x3d878a0e	0.06618129
30	0x3d1315a6	0.035909317
31	0xbd2925e5	-0.041295905
32	0xbd005e4c	-0.03133993
33	0xbc33a1ef	-0.010963901
34	0xbd8ac50a	-0.067758635
35	0x3cd25667	0.025675965
36	0x3b1a2f92	0.002352689
37	0xbd7820b8	-0.060578078
38	0xbdb924a3	-0.09040191
39	0x3d63dcf0	0.055630624
40	0x3d3a20c2	0.045441397
41	0xbdabad16	-0.08382623
42	0xbdde2cb8	-0.10848373
43	0x3d20deb9	0.039274905
44	0x3cf508e7	0.029911472
45	0xbcd2ef11	-0.025748761
46	0xbd6f93b2	-0.058490463
47	0x3d02a729	0.031897698
48	0xbdb4572a	-0.08805688
49	0xbc977353	-0.018487608
50	0x3c9ee70e	0.019397285
51	0x3be1e132	0.0068933005
52	0xbc2ae416	-0.0104303565
53	0x3ce0e061	0.027450742
54	0x3d642345	0.0556977
55	0x3d59e0ed	0.05319302
56	0xbd207abf	-0.03917956
57	0x3c72b106	0.0148127135
58	0x3d9e1578	0.077189386
59	0xbc8e12c7	-0.017342938
60	0xbdabc56f	-0.08387267
61	0xbc12b63a	-0.008954579
62	0xbbab91a0	-0.0052358657
63	0xbc2fdeed	-0.010734302
64	0x3dbeff22	0.093260065
65	0xbc14d4b6	-0.009083917
66	0xbc0caf58	-0.008586727
67	0x3c1a2341	0.009407819
68	0x3d9a1a54	0.07524553
69	0xbba14dbd	-0.004922597
70	0xbd04ea2c	-0.032449886
71	0xbd036b3c	-0.03208469
72	0x3cdc1279	0.026864277
73	0x3cbf4e7f	0.02335286
74	0x3aa13206	0.0012298233
75	0x3bad6d15	0.0052925446
76	0x3d24d020	0.040237546
77	0x3bc0dff5	0.0058860728
78	0xbb80c455	-0.0039296546
79	0x3d67cba6	0.0565907
80	0x3d1c1aca	0.038111486
81	0xbdc1d42a	-0.09464295
82	0xbdcfb96b	-0.101427875
83	0xbd5bd2b0	-0.053667724
84	0x3cce9c05	0.02522088
85	0xbced1b8d	-0.028943801
86	0xbe21e97a	-0.1581172
87	0xbd6c579c	-0.05770074
88	0x3c99407a	0.018707503
89	0xbca3747c	-0.019953005
90	0xbdf72e16	-0.12069337
91	0xbdc6bbee	-0.097038135
92	0xbd200620	-0.03906834
93	0xbd1c717d	-0.03819417
94	0xbd314a2c	-0.043283626
95	0x3bc0e12e	0.0058862185
96	0xbcc896be	-0.024485942
97	0xbd80ef81	-0.06295682
98	0x3ce2c72f	0.027682869
99	0xbd51867a	-0.051153637
100	0x3d736424	0.059421673
101	0xbd33dbc6	-0.043910764
102	0xbbd6e83c	-0.006558446
103	0x3bed4395	0.0072407224
104	0x3cf2a59a	0.02961998
105	0x3c995297	0.01871614
106	0x3df3a2d8	0.11896294
107	0x3d1c7752	0.03819973
108	0xbcac919f	-0.021065531
109	0x3d2a9533	0.041646194
110	0x3cb1c6bb	0.021701207
111	0x3d289ad4	0.04116328
112	0x3c49301b	0.012279536
113	0x3d4d990e	0.050194792
114	0x3de00b9f	0.109397165
115	0xbcacc75a	-0.021091152
116	0xbc90a326	-0.01765592
117	0x3ce6bbf0	0.028165787
118	0xbcdf1258	-0.027230427
119	0xbc45f31e	-0.012081889
120	0xbc6f2981	-0.014597298
121	0xbc4e34d3	-0.012585836
122	0xbd31f013	-0.043441843
123	0xbce1889f	-0.027530966
124	0x3c9f12b6	0.019418102
125	0x3bfb25ad	0.0076644034
126	0x3d612dd3	0.054975342
127	0x3cb4d35e	0.022073444
128	0x3c5ede88	0.01360286
129	0xbbb227d4	-0.005436877
130	0x3cad447b	0.021150818
131	0xbd3d88ad	-0.046272922
132	0xbb59affa	-0.0033216462
133	0xbcf0b2b8	-0.029382095
134	0x3ca3ef2d	0.020011509
135	0xbd47704d	-0.048691083
136	0xbcfc7cd8	-0.030821249
137	0x3d401da7	0.04690328
138	0x3d180778	0.037116498
139	0x3b2fa2f8	0.0026800018
140	0xbb3ff98e	-0.0029293033
141	0x3d29dd19	0.04147062
142	0x3cb0acbb	0.02156674
143	0x3bfdd985	0.0077468776
144	0xbca4992b	-0.020092567
145	0xbd3f6517	-0.046727266
146	0x3d9b24f4	0.075754076
147	0x3d4e3080	0.050339222
148	0x3cd5a76b	0.026080808
149	0xbc077600	-0.0082678795
150	0x3da8b73e	0.08238076
151	0x3df1724d	0.11789379
152	0x3cedbc7e	0.029020544
153	0xbd403924	-0.046929494
154	0x3c068c07	0.008212096
155	0x3d626f7b	0.055282097
156	0x3c91d34a	0.017800946
157	0x3c973ed4	0.018462576
158	0x3c14e8b0	0.00908868
159	0x3d5c33a7	0.053760197
160	0x3d4031cc	0.04692249
161	0x3d2329e2	0.039834864
162	0xbc896586	-0.016772043
163	0xbd10e490	-0.035374224
164	0xbd850b53	-0.064963005
165	0xbdb9a6d0	-0.0906502
166	0x3d281961	0.04103983
167	0x3c249100	0.010044336
168	0xbcd702d0	-0.026246458
169	0xbd0679d9	-0.032831047
170	0x3e0bd03f	0.13653658
171	0x3c8f035d	0.017457658
172	0x3c304708	0.010759123
173	0x3c02045a	0.007935608
174	0x3dc8bd83	0.098017715
175	0x3d1b537a	0.037921406
176	0xbcd0f9ff	-0.025509832
177	0xbceb4e71	-0.028723927
178	0xbdc27c94	-0.09496418
179	0xbce39ec3	-0.027785664
180	0xbd52087c	-0.051277623
181	0xbd836fd2	-0.064178124
182	0x3d1c56a1	0.038168553
183	0x3cbf4975	0.023350457
184	0x3c07e232	0.008293675
185	0xbd119ba6	-0.03554883
186	0xbd0e0a65	-0.03467788
187	0x3b844a12	0.00403715
188	0x3b7a18b7	0.0038161704
189	0xbcfe0b53	-0.03101126
190	0xbc340d5a	-0.010989511
191	0x3ccf6d24	0.025320597
192	0xbd3e7061	-0.04649389
193	0xbce942a3	-0.028474158
194	0x3d09d3b8	0.033649176
195	0x3d287061	0.041122798
196	0xbcc8ec6a	-0.024526794
197	0xbdb78f7b	-0.089629136
198	0xbd22dc49	-0.03976086
199	0xbb553487	-0.003253253
200	0xbd23487e	-0.039864056
201	0xbdb99d18	-0.090631664
202	0xbcd21489	-0.025644558
203	0xbd5ef141	-0.054429296
204	0x3d692943	0.056924116
205	0x3d71307a	0.05888412
206	0x3d90d05e	0.07070993
207	0xbc90ae24	-0.017661162
208	0x3c0fc4aa	0.008774916
209	0xbcdd09ff	-0.026982306
210	0x3d314335	0.043276984
211	0xbc80da88	-0.015729204
212	0x3b427195	0.002966975
213	0xbcb261f4	-0.021775223
214	0x3d00ff97	0.03149375
215	0x3d08326b	0.033251207
216	0xbc8e2d5e	-0.017355617
217	0x3d08fd45	0.03344466
218	0xbc02db2f	-0.007986828
219	0x3d4837f9	0.048881505
220	0x3cb1b7e7	0.021694137
221	0xbc258bdf	-0.010104149
222	0xbc5d06fe	-0.013490437
223	0x3d2c41cb	0.042054933
224	0x3d2bcf52	0.041945763
225	0x3c3e46bc	0.011613544
226	0xbc06c7d3	-0.008226353
227	0x3cfb0fa9	0.030647116
228	0xbba7e5da	-0.005123836
229	0xbcfe7713	-0.031062638
230	0xbd7f0bae	-0.062266998
231	0xbd0b66dd	-0.034033645
232	0xbd774ecd	-0.060377885
233	0xbe0f2326	-0.13978252
234	0x3b92243d	0.0044598863
235	0xbd701d69	-0.058621798
236	0x3c4723c1	0.0121545205
237	0xbdadba17	-0.084827594
238	0x3adb5389	0.001673327
239	0x3d3d818f	0.046266135
240	0x3c186c84	0.009303216
241	0x3c4d7019	0.012538933
242	0xbd2efc10	-0.042720854
243	0xbc86c762	-0.016452495
244	0x3c95b204	0.018273361
245	0xbd93f5b8	-0.072246015
246	0xbd69805c	-0.05700718
247	0xbcf82ada	-0.03029387
248	0x3cde73c3	0.027154809
249	0xbd22999c	-0.039697275
250	0x3bc88446	0.006119284
251	0x3d6da938	0.058022708
252	0x3caf9d1a	0.021437217
253	0xbd57bd73	-0.052670907
254	0xbd070f21	-0.032973412
255	0x3c112da5	0.00886098

module.13.bias f4 [64]
0	0x3c40283b	0.011728342
1	0x3dcae708	0.09907347
2	0x3d8ca8f4	0.06868163
3	0x3d0919e8	0.03347197
4	0x3d304c9d	0.043041814
5	0x3c82fc16	0.015989345
6	0x3c50f160	0.012752861
7	0xbca683a5	-0.020326445
8	0x3c6dc860	0.014513105
9	0x3cca289f	0.024677573
10	0xbd0f249a	-0.034947015
11	0xbc9a2133	-0.018814659
12	0x3d93b096	0.072114155
13	0x3bf25b4a	0.0073961364
14	0xbc5812e2	-0.013188096
15	0x3d6dd5dd	0.058065284
16	0xbcb38a81	-0.02191663
17	0x3d4cdcf1	0.050015394
18	0x3d07e51a	0.033177473
19	0xbcba791f	-0.022762833
20	0x3df02a08	0.11726767
21	0x3aed61c2	0.0018110799
22	0x3af031f8	0.0018325439
23	0x3d01bd57	0.03167471
24	0xbc8dc3ca	-0.017305274
25	0x3d21aa4d	0.039469052
26	0x3da62ca2	0.08113982
27	0xbd0013dd	-0.031268943
28	0x3d87bd3c	0.066278905
29	0xbcd941f0	-0.0265207
30	0x3cc5a590	0.024126798
31	0xbca80b59	-0.020513223
32	0x3da9e51b	0.082956515
33	0x3cb611f5	0.02222536
34	0xbaded021	-0.0016999283
35	0x3d013de7	0.031553175
36	0x3c381797	0.011236093
37	0xbc00e8ed	-0.007868034
38	0xbc4e145a	-0.012578094
39	0x3d604300	0.054751396
40	0x3dcc2944	0.09968808
41	0x3c607c2e	0.013701482
42	0x3d1085f7	0.03528401
43	0x3da065db	0.078319274
44	0x3c316fd9	0.010829889
45	0xbc190c31	-0.009341286
46	0x3ba52051	0.005039253
47	0x3d86024b	0.06543406
48	0x3d1bc045	0.03802516
49	0x3abcf616	0.0014416601
50	0x3ba7abe8	0.0051169284
51	0xbcec1b2a	-0.028821547
52	0x3ce100cf	0.027466206
53	0x3c8f10d4	0.017464079
54	0x3d45b80d	0.048271228
55	0xbcfbcb3a	-0.030736554
56	0x3d674400	0.056461334
57	0xbd0e46c6	-0.034735464
58	0x3bd7a2b2	0.006580674
59	0x3d0cac85	0.034344215
60	0xbd0b016d	-0.033936907
61	0x3d495b24	0.049159184
62	0x3d98d2f4	0.07462111
63	0x3bc07e19	0.005874407
