models/xue_epoch_21.pth (torch, 592503 bytes, 22 tensors)

module.0.weight f4 [32, 3, 5, 5]
00000000: 05e3 09bd 19a0 f6bd 5fbd 4dbd 1190 c43c
00000010: 266f d03c 4546 5dbe 584e 53be 1765 5fbe
00000020: 2254 66be 3fcd 05be 58df 99be 9a7e 8dbe
00000030: 2bd8 6abe b76d 5bbe 0812 86be bf3c 12be
00000040: 6bd3 a6be 1cb4 8ebe e0e5 55be 5605 e9bd
00000050: 8355 49be 11b1 32be b5db 95be 8ee3 8fbe
00000060: a559 d2bd 4636 653d 8d85 373d 4716 65bb
00000070: cc39 8dbd d46d b1bd e7c5 183d 50a0 203d
00000080: 1f18 923d c7ab 653d 588c 043e 536e a33c
00000090: 7cb9 163b dd10 093c 0c5e 113e d729 dc3c
000000a0: 2a37 4bbd b73d 413e b027 0f3e d7fc e93c
000000b0: c544 ee3b 1c4c 103e 3a1c ee3d 82cd 07be
000000c0: 2954 ae3c 4bee 343a cf45 bcbc 216d 043d
000000d0: d385 ae3d 22ac ee3d 5d69 e7bc 209c 013e
000000e0: 3a83 393e 5332 7e3e 376b 173e 0a9f 333e
000000f0: 8966 883e 7540 693e 03b4 223e b8a0 233e
00000100: 5a29 203e 7d5f 843e f4ab 993e c35c 273e
00000110: d26e 573e b987 aa3c 5410 523e 8628 463e
00000120: 60a5 333d d56e 463d 28ff 24bd 492c 953d
00000130: 78d1 25bc bc80 2f3e 6b0a 113e 2cc7 003e
00000140: 78a5 333e 0333 2a3e c0aa 8a3e f859 8a3e
00000150: 771d 3c3e 0162 4b3d 03ea 0f3d 50ba 983c
00000160: 3e78 693d fe99 92bd 6b61 b73c 9ac4 82bc
00000170: 41c8 343d ecd6 1d3d 1642 013e b806 f33c
00000180: 61b0 babb ad24 80bd 975a 533d 253e 343b
00000190: 14a9 7f3d 375e 52bd 9f25 9d3b b01e 27bd
000001a0: 570d 333d 18cc ae3c 3821 533d 4f59 65bd
000001b0: b7c9 133e d7fd 283d 5180 8ebd cc9b 36be
000001c0: 8cc2 0bbe 0edf 0fbe f09d e9bc c89c 97bd
000001d0: 8157 b5bd 0f4f 27bd 8802 fcbd 1f41 a0bd
000001e0: 60cf 583d e73b bfbd d8c1 433c 07f3 b73d
000001f0: 3f9f e4bc 8cf6 d0bc 0df5 a93d b105 dbbc
00000200: 7cc0 463e 71fc 2a3e 6d82 9c3d 7deb f43c
00000210: e584 06bd c4a6 883d 6aca 7c3d 019c 41bd
00000220: 726b 32be 7a0c 9bbd 3067 27be e68b 08be
00000230: 6add 93bd 77f5 08be 61b1 6abe f62a d6bd
00000240: 9eeb dabc d4c7 d0bd 481c d8bd bd4c 11be
00000250: f9d6 443d 4fe3 463d 79cc 193d 32b9 eebb
00000260: ebd7 87bd fadd f03c 9f65 df3d d515 14be
00000270: 7f6e e5bd 895c d7bd b8b7 7c3e 65bd 1c3e
00000280: 18f4 02be 6338 a2bd c699 183e c968 a73e
00000290: a86f f93d 85b4 7abb 3163 01bd c095 2f3e
000002a0: 4ae7 a5bd 2c09 6abd 3503 54be 4ca2 3a3d
000002b0: 9ed6 523d 2b1f b5bd 652f 70be af09 633d
000002c0: 777e 293d 1aa8 3abe e45b 17bc b2e1 0c3d
000002d0: 696d 00bd ee82 13be ee8e c0bd fe9a 483d
000002e0: acbd 853d ab66 2a3d daae d0bc a89a b33d
000002f0: a251 633e 30cb dc3c 9de1 bc3d 5db9 02bc
00000300: 1a31 c93d 0b67 0b3e 2e9a e0bd c32e 6c3d
00000310: 4cac 4b3e 8ff2 233d 62b9 3abd c271 2bbe
00000320: f79e 16be 9713 2a3d 02b6 35bd da59 12bd
00000330: 5730 0e3d 2396 d6bd c7db 87bd 87e1 15bd
00000340: d666 1b3e 6333 493e d734 c4bd 7fd9 993d
00000350: b330 f8bc 6ceb 803e 20a7 13bc 0331 22bc
00000360: 421d a4bc 180c 1b3e b46b 16bd e9bf a5bd
00000370: 0fb3 853d 9951 98bc 8387 dc3d c003 aebd
00000380: d3c2 debd 1d68 c93a e2ca 3ebb 6c78 73bc
00000390: de9b e73d acff 72bc 5ee4 9e3c ebbd 8abe
000003a0: 413a adbd 9568 2d3e 4387 5c3e e3d7 efbd
000003b0: bcd8 82be 20ba 7abd e35f b43d 1e8f 283e
000003c0: 11f3 35bd 0b93 37be 4eeb ccbd 9a59 2a3e
000003d0: 0b76 803e b603 d2bd 99a7 e03c 2c1f e2bd
000003e0: 526b b7bd 6abe 2b3e 617b 94bd 3e8c e3bb
000003f0: e545 253d 972b 363e b57f 853e b57f 99bd
-0.03366377 -0.12042255 -0.050229426 0.023994477 0.025443625 -0.21608837 -0.20635355 -0.21815906
-0.22493032 -0.13066576 -0.3005321 -0.27635652 -0.22934024 -0.21428572 -0.26185632 -0.14280985
-0.32583174 -0.27871788 -0.20888472 -0.11377971 -0.19661526 -0.17450358 -0.29269186 -0.28103298
-0.102710046 0.055959962 0.0448051 -0.0034955905 -0.068957895 -0.08663526 0.03729811 0.039215386
0.07133507 0.056072023 0.12944162 0.019950068 0.002299874 0.008365837 0.14196032 0.02687542
-0.049613155 0.18871199 0.13979983 0.028562946 0.0072713816 0.14091533 0.116264775 -0.13261989
0.021280365 0.00069019635 -0.022982506 0.032330636 0.08521619 0.116539255 -0.028248483 0.12657213
0.18116465 0.24823885 0.14786993 0.17541137 0.26640728 0.22778495 0.15888982 0.15979278
0.15640774 0.25854102 0.30014002 0.1634398 0.21038368 0.02081667 0.20514041 0.19351396
0.043858886 0.04844554 -0.0402824 0.07283837 -0.010120742 0.17138952 0.1416413 0.12575978
0.1754359 0.16621022 0.27083397 0.27021766 0.18370615 0.04965401 0.03513528 0.018643528
0.056999438 -0.07158278 0.02238532 -0.015962888 0.04413629 0.038535044 0.12622866 0.02966629
-0.0056972955 -0.06256995 0.051600065 0.0027502861 0.062417105 -0.05135938 0.0047957445 -0.04080075
0.043713894 0.021337554 0.05154535 -0.055993374 0.14432417 0.041257706 -0.06958068 -0.1783287
-0.13648432 -0.14049932 -0.028517693 -0.074029505 -0.08854581 -0.04084688 -0.1230517 -0.07824921
0.052932143 -0.09337597 0.011948071 0.08981901 -0.027907966 -0.025508188 0.08298693 -0.026736112
0.19409364 0.16697861 0.07642064 0.029897446 -0.03284158 0.06672433 0.061716475 -0.047267918
-0.174238 -0.07570739 -0.16347957 -0.13334617 -0.07219966 -0.13374887 -0.22919227 -0.10457413
-0.02672368 -0.10194364 -0.10552269 -0.1418943 0.048056576 0.048556622 0.037548516 -0.0072852606
-0.0663298 0.029402722 0.109080546 -0.14461453 -0.11202716 -0.105156966 0.24679458 0.15306623
-0.12788427 -0.07920911 0.1490241 0.32697132 0.121795 -0.003825457 -0.031588737 0.17146969
-0.081007555 -0.057137653 -0.20704348 0.045564935 0.051474206 -0.088438354 -0.2345558 0.055429157
0.041380372 -0.18228188 -0.009238217 0.034394927 -0.03135434 -0.14405414 -0.09402262 0.048975937
0.06530318 0.041601818 -0.025474 0.08769733 0.22199109 0.026952356 0.0922272 -0.007978764
0.098238185 0.13613527 -0.109669074 0.057661783 0.19889945 0.040026244 -0.04558695 -0.16742614
-0.14709078 0.04152259 -0.04436303 -0.03573022 0.03471407 -0.10477855 -0.06633716 -0.036592033
0.15175948 0.19648509 -0.09580391 0.07512187 -0.03029666 0.25179613 -0.009012014 -0.009899381
-0.020033482 0.15141332 -0.036723807 -0.080932446 0.06528293 -0.018593596 0.10768034 -0.08496809
-0.108770035 0.0015366111 -0.0029112627 -0.014860254 0.11309026 -0.014831465 0.019396003 -0.2709802
-0.08458377 0.16934426 0.21535973 -0.11711099 -0.2555598 -0.06121266 0.088073514 0.16460845
-0.04442126 -0.17927186 -0.10005818 0.16635743 0.2509006 -0.10254614 0.027423667 -0.11041102
-0.089560166 0.16771856 -0.07250095 -0.0069442084 0.04034986 0.17790066 0.26073995 -0.07495061

module.0.bias f4 [32]
00000000: 508c 913d ca52 bcbd a870 6b3d 6b9a db3d
00000010: 99f8 803d ee62 0e3d 74de 84bd 1001 da3c
00000020: e6d5 a43d a056 813d 5bd8 813d 99b2 9dbd
00000030: e98d bd3c c90a cd3d 05c6 433d 8482 93bd
00000040: 6969 d3bd 9a21 81bd cf22 f0bc c179 9a3d
00000050: 71e1 e13c a454 2ebd 86e1 da3d 18c1 91bd
00000060: cbd8 bdbd 3b47 4f3d 1cc5 9b3d 12df 1a3d
00000070: 7305 bc39 60ee 82bd 953a 5d3d 8707 663d
0.071068406 -0.09195478 0.057480484 0.10722812 0.06297416 0.034762315 -0.06487742 0.026611835
0.080486104 0.063153505 0.06340095 -0.077000804 0.023138957 0.10011823 0.047796268 -0.07202628
-0.1032284 -0.06305237 -0.029313473 0.07542754 0.02757332 -0.04256119 0.106875464 -0.07116908
-0.092698656 0.05060504 0.07605955 0.037810393 0.00035862214 -0.06393123 0.054010946 0.056159522

module.1.weight f4 [32]
00000000: fc52 3b3f 7e94 5d3f 4b90 533f 8997 8f3f
00000010: 6dde 873f 2e16 7d3f 03d7 2b3f ada4 783f
00000020: 4a40 ad3f b09a 4a3f f683 513f 93fd 7d3f
00000030: 445d 683f eaba 763f 54c5 813f a901 813f
00000040: 3bbc 3f3f db83 813f 065a 483f 4a94 c93f
00000050: e1c5 4f3f acbd 8d3f 55be 423f 321a 933f
00000060: 716a ba3f a78b 803f 07ef 4f3f 395b 843f
00000070: d8a9 903f eeb2 7f3f f72b 7c3f 3004 943f
0.731735 0.86554706 0.8264205 1.121812 1.0614754 0.9886197 0.67124957 0.97126275
1.3535244 0.79142284 0.8184198 0.9921505 0.9076731 0.9637896 1.0138345 1.0078632
0.7489659 1.0118364 0.78262365 1.5748379 0.81161314 1.1073508 0.76071674 1.1492369
1.4563733 1.0042619 0.812241 1.0340339 1.1301832 0.998824 0.98504585 1.1563778

module.1.bias f4 [32]
00000000: e064 0e3e 2db9 68be 9913 7abe d49a f0bd
00000010: aa8a f6bd 6e8c 64be be74 cd3d f7e8 34be
00000020: 6bfe f7be f6a7 f9bd 7c42 6fbd 2d91 dfbd
00000030: a64a 063d dd18 fa3a f094 86be ec2c 14bd
00000040: 74b3 8539 6b33 b73b 1eae 63be ff38 89be
00000050: aafc 1fbe 0d28 f2bd 469b 9fbe 11b5 d8bd
00000060: cb19 923c 100c b8be 1b80 a4be 7381 8bbd
00000070: 17b3 f9bd ddde 9cbd 7582 f5bd ba0b 25bd
0.13905668 -0.22726889 -0.24421538 -0.11748281 -0.12038167 -0.22319195 0.100320324 -0.17666994
-0.48436293 -0.12190239 -0.058413014 -0.10916362 0.032786034 0.0019080896 -0.26285505 -0.036175653
0.0002550144 0.0055908463 -0.22234389 -0.26801297 -0.15623727 -0.11824045 -0.31173152 -0.10581411
0.017834565 -0.35946703 -0.32128987 -0.068118 -0.12192362 -0.07659695 -0.11987773 -0.040294386

module.1.running_mean f4 [32]
00000000: dadb 0dbe 9a3f 943d bb67 ae3e 74ac b83b
00000010: d993 99bc f99b b0be c711 9ebe 207c 003d
00000020: 926a 19bf 9d57 a43e 8184 943e 6ff2 b3be
00000030: d253 c43d 0934 9b3d c886 683d b90f ccbd
00000040: dcfe 413d 306c 00be 50b6 e6bb 6990 ca3c
00000050: 725e 15bd 3aed 1ebd aa06 ed3e 629c f1bc
00000060: 63a0 28be 0ebf 0fbf 1449 583e eb7a 5a3d
00000070: 043b d13c c20e b3bd d1c4 f63c f3f6 073d
-0.13853398 0.072386935 0.34063515 0.0056357924 -0.018747257 -0.34493998 -0.30872938 0.031368375
-0.5992824 0.32098094 0.29007342 -0.351459 0.095863 0.07578284 0.056769162 -0.09963936
0.047362193 -0.1254127 -0.0070407763 0.024727063 -0.036467023 -0.038800456 0.46294147 -0.029493514
-0.16467433 -0.561509 0.21121627 0.05333988 0.025540836 -0.08743049 0.030123146 0.033194494

module.1.running_var f4 [32]
00000000: 280c ad3e 9305 463e be10 c33d 5d8e 0f3f
00000010: 21d1 343d 1a33 ed3d 187b fb3d da5b 7c3d
00000020: 7faa 753e ab36 933d 190b 533e bdce e83d
00000030: 5681 0c3e 07d6 b23e 9e50 2b3e 2a29 a33e
00000040: c0dc 753e 4538 433e 443b 2e3d 4ba7 0a3f
00000050: 016c ef3d 3371 af3d f126 023e aa9c f33d
00000060: 8179 b03e 33d3 8b3e a7af 143d 1b90 893e
00000070: 9d05 8e3e ce9d 4d3e 61cb ba3d 593d 223f
0.33798337 0.19338064 0.09524678 0.56076604 0.044144753 0.115820125 0.12279338 0.061611034
0.2399082 0.071881615 0.20609702 0.11367557 0.13721213 0.34928915 0.16729972 0.31867343
0.2400999 0.19064434 0.04253699 0.5416152 0.11690522 0.08566513 0.12710167 0.11895116
0.344677 0.2730957 0.036300328 0.26867756 0.27738658 0.20079729 0.09120823 0.6337486

module.4.weight f4 [32, 32, 5, 5]
00000000: 9ba0 9fbd 0759 9fbd 8b09 b0bd 7361 44bd
00000010: d1b0 97bd 5516 20bd f8ad cebb 12cf c0bc
00000020: 3227 2ebd b84a 2ebd af7d e03b b9ac 4bbd
00000030: 9338 703a cd79 34bd 17f4 4e3b a55d 063d
00000040: 5d36 e23c 1957 8b3d c476 a03c 3f27 053d
00000050: 0890 153d 6154 be3d 6c90 c53d 2667 d03d
00000060: 74fa 513d 3852 0ebd 284c 2cbc d02e 08bd
00000070: 4b16 803c 3502 9dbc 3293 02bc 60aa f9bc
00000080: c1ce 19bd d339 2bbd 56bb 833c 13a9 203d
00000090: ccbd 8b3d 540e 983d 88a2 713d 690c 353b
000000a0: 9ef7 adbd 1c68 cfbc c9b8 79bc 03ff e4bc
000000b0: 0c26 43bd 6b77 c2bc 2377 a7ba f12b b73c
000000c0: da31 a43d 9372 233d 08df 84bd b8ae b3bd
000000d0: 1a3d 44bd 6e36 29bd ad52 0abd 956c 53bd
000000e0: 29dc 37bd f675 c8bc da49 0ebd 4723 24bd
000000f0: 45e9 20bd 88f4 58bb 22cd 973a a3be 2fbd
00000100: e826 4d3b 7921 ecbd 72a8 a4bd 858a d6bb
00000110: 7af8 90bc 9e13 ebbc 98e7 45bc 1e25 013d
00000120: c65e 1c3d debb 213b a20c 8a3c 73dd c5bd
00000130: d120 64bd f5c9 81b9 a4ba 54bc cfaf 663b
00000140: 9fec 9dbc bb20 513c 7571 e93c 31ef 0abd
00000150: 9a77 ca3c 0ff2 aebd ed38 2bbd addf 123d
00000160: ee1c 2ebd 0f56 0cbd 0e2a 91bd a713 7cbd
00000170: 795e 90bd 0024 bcbd 651f 42bd 4fad dabd
00000180: a7f4 c7bd b089 67bd c187 abbd 4905 61bd
00000190: 7c57 53bc 52a8 26bd d88c 7bbd 5d80 31bd
000001a0: 1f3b 5fbd ff98 803d 2598 603c f272 513c
000001b0: 6eee 01bc 4574 263d 2e06 5c3d 37e5 fcbc
000001c0: eab6 a5bc 6fd4 13bc bbc7 453d 363d 1f3c
000001d0: f45a ca3d 3986 a7bc 3fb5 88bd d914 dfbc
000001e0: 2068 c4bd 6b6b ecbd 5834 a7bd 08d3 2cbd
000001f0: 7bae 173d 6ec4 84bd 8b48 74bd 06ad c23a
00000200: b447 8fbd 7a12 85bd 3f84 d9bd bcc2 12bd
00000210: 7376 89bb 4ab1 49bd 1bfe eabd 81d6 a0bc
00000220: 0bc4 983d 0129 123e 7de4 8d3c baf7 94bc
00000230: 3633 273e b28e 9d3e fb1d 953e 9774 613e
00000240: feee e83d 269c bbbc cebe b13c fda6 8a3c
00000250: ea94 57bd 812a 3bbd beed 233d 43f0 563d
00000260: 0227 353d f4bd 983c 3b61 ab3c 4fb1 463c
00000270: 9366 273d f5cc 413d 11e5 123d fc0e 213c
00000280: 2d21 cf3c 77cf f5bc 79d6 8b3c 629e 4fbc
00000290: d2b8 c23c 6095 cc3c 8c48 ac3d a39a 9b3c
000002a0: 8287 363d 8a25 383d 2b6b ba3c 7465 17bd
000002b0: 9512 633b 3565 31bd d47e fe3c 5531 2fbc
000002c0: 8ff4 67bc 52a2 cc3c 15b8 28bc 49ef cbbb
000002d0: 3478 dfbc 1248 bfbc eee3 35bc 9359 023d
000002e0: 0407 80bd d03a e83b 1ada 423d c298 e53d
000002f0: 1dac 0b3d d159 5f3c d3c0 663c 0bce 0abd
00000300: 1095 57bd 6e95 ed3c e2f7 c13c 3de2 54bd
00000310: b27e 01bd 1f9e bbbd b505 a0bd d67b 84bd
00000320: b142 57bd 81bf e9bb 9034 80bd 3007 82bc
00000330: 948c 89bd 9308 2cbb 9ffa 3a3d 44e5 e8bc
00000340: 9c5d 62bc d9c7 4abd 8641 1fbd 3c1c 75bc
00000350: 6cca 42bc 4f82 35bd a152 0dbd 572d fabc
00000360: d564 b3bc 0379 cfbc af3e 63bd 2f9c ebbd
00000370: d26b ba3d 256c f83d bf50 cf3d 610f 063e
00000380: 011a 963d 6dcc a3bc 2c00 2ebd 977f 02bd
00000390: 34f8 073b e4e1 bf3a 53fa 2bbc ab07 2abd
000003a0: 4cb0 68bc d91e 35bd 6faa 773c 0c74 123d
000003b0: 1faf 463c 90a1 0c3d 95da 36bb b0d4 2bbc
000003c0: a40d deba 95cb 5ebd 2f61 0cbd 8d64 11bd
000003d0: e08a f3bc a28f f3bc e658 a43b ede9 15bd
000003e0: c7eb 093c e768 ba3b 3f4f 7bbc a5f9 80bd
000003f0: 55bd 2abd 5936 b4bc cc99 ad3c 36fb d4bc
-0.07794305 -0.077806525 -0.0859557 -0.047944497 -0.07406772 -0.039083797 -0.00630736 -0.023536239
-0.04251785 -0.042551726 0.00685092 -0.049725268 0.00091637037 -0.04406147 0.0031578594 0.03280415
0.027613813 0.06803722 0.019587882 0.03250813 0.036514312 0.09293438 0.09646687 0.10175924
0.05126424 -0.03474638 -0.010516204 -0.03324777 0.01563563 -0.019166091 -0.007969664 -0.030476749
-0.03755069 -0.041803192 0.01608054 0.03922374 0.0682331 0.07424608 0.058992893 0.0027625805
-0.08494495 -0.025318198 -0.01524181 -0.02795363 -0.047643706 -0.023738584 -0.0012776594 0.02235982
0.08017321 0.03990419 -0.06487852 -0.08773559 -0.047909833 -0.041311674 -0.033770252 -0.051617224
-0.044887695 -0.02447031 -0.0347384 -0.040072706 -0.039284963 -0.0033104736 0.001158152 -0.042906415
0.0031303708 -0.11529822 -0.08039941 -0.0065472745 -0.017696608 -0.028695878 -0.012079142 0.03152954
0.03817632 0.0024678628 0.016851727 -0.09661379 -0.05569536 -0.00024755267 -0.012983952 0.0035200005
-0.019277869 0.012764151 0.028496483 -0.033919517 0.024715234 -0.08542263 -0.041802336 0.035857845
-0.04250806 -0.03426176 -0.070880994 -0.06154218 -0.07049269 -0.09186554 -0.04739322 -0.10677587
-0.097634606 -0.056527793 -0.083755024 -0.05493668 -0.012899276 -0.040687867 -0.061413616 -0.043335307
-0.05449974 0.06279182 0.013708149 0.012783753 -0.007930381 0.040638227 0.05371683 -0.030871017
-0.020228822 -0.009022816 0.04828618 0.009719184 0.09880629 -0.020449745 -0.06675195 -0.02723162
-0.09590173 -0.11543926 -0.08164281 -0.042193443 0.037031632 -0.064827785 -0.059639495 0.001485259
-0.06996098 -0.06497665 -0.10620927 -0.035830244 -0.0041950285 -0.04924134 -0.11474248 -0.019633533
0.07459267 0.14273454 0.017320866 -0.018184531 0.16328129 0.3077293 0.29124436 0.22017132
0.11373709 -0.022901606 0.021697428 0.01692533 -0.05263225 -0.04569483 0.04002165 0.052475225
0.044226654 0.018645264 0.020920387 0.012127235 0.040869307 0.047314603 0.035862986 0.009830233
0.025284374 -0.030006154 0.017070042 -0.012672039 0.02376977 0.024973571 0.08412275 0.018994635
0.044562824 0.044957675 0.02275618 -0.036961988 0.0034648527 -0.04330941 0.031066336 -0.010692914
-0.014157428 0.024979744 -0.010297795 -0.0062235934 -0.027278997 -0.023349795 -0.011101706 0.031823706
-0.06251338 0.007087089 0.04757128 0.11210777 0.034099687 0.013632254 0.014084059 -0.033887904
-0.05263239 0.029001918 0.02367777 -0.05197357 -0.031614967 -0.091610186 -0.078135885 -0.06468932
-0.052553836 -0.0071334247 -0.062600255 -0.015872568 -0.06716266 -0.0026250228 0.045649167 -0.028429635
-0.0138162635 -0.049506996 -0.038880847 -0.014960345 -0.011889081 -0.044313725 -0.03450263 -0.030539198
-0.021898666 -0.025326258 -0.0554797 -0.11504399 0.09102596 0.12130002 0.10122823 0.13091804
0.073291786 -0.019994939 -0.042480633 -0.03185996 0.0020747306 0.0014639464 -0.010496694 -0.04151122
-0.014202189 -0.04421887 0.015116318 0.035755202 0.012126713 0.034333766 -0.002790128 -0.01048772
-0.0016941321 -0.05439337 -0.03427237 -0.035496283 -0.029729307 -0.029731575 0.0050154803 -0.036600042
0.00841803 0.005688775 -0.015338718 -0.06297616 -0.041684467 -0.021998571 0.0211915 -0.025998693

module.4.bias f4 [32]
00000000: 06f6 07bd 7b67 16bb 406b 843c d07d e8bb
00000010: 9094 b3bc 85fd dc3c 8174 b63c 34f1 b6bc
00000020: 8f85 a53c 5e8c 103d db87 febc 191e 293b
00000030: d0f2 6abc cdfb aebc 9234 03bd 0961 173c
00000040: c15e cb3c a197 98bc e9e3 dcba a423 d7bc
00000050: 17ee c53c 6281 fabc 7f82 903b 4d5b 323c
00000060: 66a1 c539 e629 d93c b7fd d03c 5ed9 f7bc
00000070: d70f 6e3b 7f41 f8bc 9d4b 6f39 dd86 803b
-0.03319361 -0.0022949863 0.016164422 -0.007095076 -0.021921426 0.026976356 0.02227235 -0.022331811
0.020205287 0.035290115 -0.03107064 0.0025805293 -0.014340118 -0.021360302 -0.032032557 0.009239444
0.024825456 -0.01862699 -0.001685259 -0.026262112 0.024161382 -0.030579273 0.0044100876 0.010886026
0.0003769502 0.026509237 0.025511606 -0.030255016 0.003632536 -0.030304668 0.00022820984 0.003922327

module.5.weight f4 [32]
00000000: 2b9b 2c3f 385a 483f ca6a 723f 4a58 6b3f
00000010: 224c 4f3f 70c9 823f 76ec 523f fcc7 863f
00000020: afe9 843f 7dce 803f 2dea 8a3f aa22 853f
00000030: 6465 6c3f 5975 a63f 63ba 803f f493 8b3f
00000040: 2fdc 723f 3392 683f a28f 7a3f d210 853f
00000050: a09e 643f 9699 3f3f 1071 883f b251 603f
00000060: be61 533f 42ef 803f 7257 563f 7a67 7c3f
00000070: a1bf 8a3f 7035 823f 43e8 7a3f a98d 6b3f
0.6742427 0.7826266 0.946942 0.91931593 0.80975544 1.0217724 0.8239206 1.052978
1.0383815 1.0063015 1.0852715 1.0401204 0.9234221 1.3004562 1.0056881 1.0904527
0.94867224 0.9084808 0.97875416 1.0395758 0.8930454 0.7484373 1.0659504 0.8762466
0.8257102 1.0073016 0.8372718 0.9859539 1.083973 1.0172558 0.98010653 0.9201303

module.5.bias f4 [32]
00000000: cac6 39be 44f5 26be 5211 dbbe 9077 c9be
00000010: 8436 b7bd 2e9a a9be 894c 68be fb3e b2be
00000020: d670 99be fc66 c5be 311b 23bf 1e6c bdbe
00000030: 1311 e5be 35d3 f9be a18f e2be 84ee a3be
00000040: a2a8 e5be e0a9 acbe 17d8 85be d28d e7be
00000050: 98e2 afbe 0aa6 00be 1eb9 dbbe 1c4d e1be
00000060: f73b a7be 2782 7ebe 9304 6ebe afd6 b0be
00000070: f4cf 0bbf b422 e9be 4d65 62be 0751 b6be
-0.18142238 -0.16304499 -0.42786652 -0.3934903 -0.08945945 -0.33125442 -0.22685446 -0.34813675
-0.299689 -0.38555133 -0.63713366 -0.3699655 -0.4473959 -0.4879395 -0.44250205 -0.3201791
-0.4485522 -0.33723354 -0.26141426 -0.45225388 -0.34352565 -0.12563339 -0.4291467 -0.44004142
-0.32662937 -0.24854337 -0.23243932 -0.3453879 -0.54614186 -0.4553429 -0.22108956 -0.35608694

module.5.running_mean f4 [32]
00000000: dace 323d 56c7 0ebf 1201 0dc0 e6af 6f3f
00000010: 4090 e3bf 9aef 0bbf b4ce 9ebe 695c 3bc0
00000020: 8232 1ac0 ec9e 1dc0 fb57 20c0 fffc 70c0
00000030: a499 8bbf 1a7a 54c0 66a3 f3bf fa01 7ac0
00000040: cc62 22c0 96cf aebf 9416 33c0 b272 6abf
00000050: a745 b0bf 41f5 0a3f 1601 8fc0 2c8b c3bf
00000060: 9bf6 4cc0 80e6 51bf 8aee 65bf aebb f8bf
00000070: 2150 0ac0 4afb 29c0 e37a 0cc0 1a36 f2bf
0.0436543 -0.5577291 -2.2031903 0.93627775 -1.7778397 -0.5466248 -0.31017077 -2.9275153
-2.4093328 -2.4628248 -2.50537 -3.7654417 -1.0906262 -3.3199525 -1.903424 -3.9063706
-2.53728 -1.36571 -2.798253 -0.9158126 -1.3771256 0.5428048 -4.4688826 -1.5276847
-3.2025516 -0.8199234 -0.89817107 -1.9432275 -2.1611407 -2.6559625 -2.1950004 -1.892276

module.5.running_var f4 [32]
00000000: e932 8b40 825d a740 076b bc40 5630 b640
00000010: 55f3 bc40 4f51 9f40 d981 f040 d75b ee40
00000020: 61b8 f540 6719 0341 ba8a e340 b54e c940
00000030: acde 8540 ab66 4641 317b 8640 aced 1341
00000040: f00c a240 22a1 a940 9547 a440 dd9d eb40
00000050: dbef c640 d1b5 9640 e9d1 0741 c7d9 9240
00000060: 4442 d940 f7e8 8540 db85 7740 d1e3 c240
00000070: 20a5 c840 6df5 ba40 a7b6 b240 bdb9 9a40
4.3499646 5.2301645 5.888065 5.6934004 5.9047036 4.9786754 7.5158505 7.448711
7.678757 8.193702 7.1106844 6.290858 4.1834316 12.400065 4.202538 9.245525
5.0640793 5.3009195 5.133738 7.3630204 6.216779 4.7096944 8.488748 4.589084
6.789339 4.184688 3.867545 6.0903096 6.270157 5.842459 5.5847964 4.835173

module.8.weight f4 [64, 32, 5, 5]
00000000: 679e 20ba 637f ebba 5112 7cbd 27ee 5fbd
00000010: 8e0f 84bd 7021 973c 8405 75bc 53aa d1bb
00000020: a2de ecbc f9f3 cbbc 36d6 7d3d 44a9 81b9
00000030: 3c53 c63b fba3 54bc 83eb 583d 12bd 953d
00000040: 8989 d2bb 4cb4 acbd 0fe6 c6bc e14d a83c
00000050: 6219 c93d 9e57 ba3c a6b2 b03c 901d 993d
00000060: b3c9 973d 86b1 863c 20da c5ba a1f4 963d
00000070: 5920 803b 4cf3 b4bc be2b 2b3d 2c1c 5f3a
00000080: 2feb 8abb 96dd ebbc 1b1f 25bc 45f5 2a3d
00000090: 631f 7e3d 9037 f03d f1fd 663d 61e9 aa3d
000000a0: df22 8b3d f146 e23b 4b3e 943d 07ef e63c
000000b0: fa77 693d 7eab b43c 1aa9 ff3c 1e65 a73c
000000c0: 1b64 473c aad7 fb3c 7997 e43c 9888 6d3d
000000d0: c4cb 963d 8a04 7b3d 05d6 ef3b 6ad9 91bc
000000e0: b9b1 31ba c52d 333d ef21 463d d9a5 943c
000000f0: 58cd 8e3c 097f 01bd f948 aabc 6c47 e03c
00000100: 4f13 bbbc f3aa 573d ecdd 833c c985 69bd
00000110: 9f77 08bd f6af 443c 9230 2b3d 6b5b ec3c
00000120: 1f38 f63c c1b6 87bc 215c abbc 4db2 47bd
00000130: 870a 463d df58 e73c 2712 e8bc bd6e 36bd
00000140: cd6d f5bc ea81 cebc dbb2 8bbd b697 85bb
00000150: 7d4e b53b 8a06 f0bc 16d3 55bd 98ff c13b
00000160: f181 35bd 4100 54bd fbe1 e0bd 14bd 0b3b
00000170: 24de ce3c e5ad d1ba e389 1ebd 8447 d4bd
00000180: 9f80 83bd 8207 9f3d 6a6d c53d 2b8e bcbc
00000190: 0c92 d1bd b304 3bbd cfee 923c 5511 26bc
000001a0: cda3 0cbd 102c 3ebd 81ec f6bc 93f5 5d3d
000001b0: 081c 033d f2c1 b0ba 4611 2c3d 8ba5 59bd
000001c0: b48c 64bd 87f5 a13c c048 5f3d a27d 323d
000001d0: 1cd5 503c 958a 5dbd 85c1 15bd ffaa 20bd
000001e0: f276 783d 339d 223d 093a 47bd 0424 28bd
000001f0: be68 04bd 6bf8 c4bc 8031 f4bc 91c4 98bd
00000200: 5e36 82bd 25f3 3bbc 967c 893c 71fe a13d
00000210: eab5 5cbd 3610 4cbc e688 273c 9341 74bd
00000220: 82ba 533d d4fd 00bd 52f4 7dbb ab66 37bc
00000230: 1906 ecbc b3de 293c dd57 063d 17f1 023c
00000240: 7083 1cbd 4344 7ebd 4e4e 67bb 90f3 c53c
00000250: 733f 823c dafa 2bbc 4d02 033d 5014 ac3d
00000260: 5b68 5c3d 9bca 523d dfce 4f3c 806c b13c
00000270: 33c7 8bbb fda1 54bb 5b63 ea3b de96 563c
00000280: 74be 693d d875 3f3d 5507 c83c 6baf 3d3d
00000290: a919 09bc 0452 32bd cf76 763c 9d69 9f3c
000002a0: 9a00 29bc 68b5 04bd c7f2 f33b fe80 23bd
000002b0: 671d 0ebd 518e 55bd 679b 71bd 1dbc 71bd
000002c0: 35d0 8bba e093 473d e27d f0bc 3ed4 cabc
000002d0: c85a 8bbd 974e 903c 7a72 463d 4f4b 013d
000002e0: 3bc2 ccbc 909f 03bc 3f90 f53b 2603 593d
000002f0: f3d7 8e3d 793c 453c 02d5 a5bc 0d6d 2e3b
00000300: 100c 6d3c b548 c9bb e90e 45bc 065b 803d
00000310: 1983 653d 9329 abbd 407c 93bd cf6d 94bc
00000320: 7934 313d 0d02 b0bc be85 48bc ed03 5ebd
00000330: cca9 e3bd fa85 9e3d 185e ad3d 33fc 013c
00000340: 9f08 b6bd be37 eebd e92f 5d3d 56fb 7f3d
00000350: 6861 85bd 9493 2ebe 77bb 3ebe e286 fd3d
00000360: 7740 963d 21e2 74bc 1369 2dbe 8ef1 2abe
00000370: 895d 8c3d 7749 0d3d 8c75 de3c 13d7 cebd
00000380: 2dab 533c d164 3a3d 6812 2f3d 4001 9d3c
00000390: 6aea 09bb 8ed8 893c 0631 95bc 7a06 f03c
000003a0: 1c2b d73c 27ae 923c ebca 423c d265 cdbc
000003b0: b4bc 89bc c7c8 b13b 1bd3 f23b d212 fb3b
000003c0: 0759 e73c edd3 d3bc 556c 3bbd b12c fb3b
000003d0: 1242 e13d 2c40 733c fb7b 70bd 3da6 a6bd
000003e0: 8193 6cbc dca8 803d 2f31 b73d 4b99 cd3c
000003f0: 1fe3 cc3d 7048 cf3c cabf 32bc cbe1 e53c
-0.00061271194 -0.0017967041 -0.061540905 -0.05467048 -0.06448279 0.018448561 -0.014954928 -0.006398478
-0.028914753 -0.024896609 0.061971866 -0.0002473091 0.006052403 -0.012978549 0.052958976 0.07311453
-0.006425087 -0.084328264 -0.024279622 0.020544948 0.098192945 0.022746857 0.021569561 0.07476342
0.07411518 0.016442072 -0.0015094914 0.07370878 0.003910106 -0.02208867 0.041789763 0.0008510973
-0.004239462 -0.028792184 -0.010078217 0.041737814 0.06204165 0.11729348 0.05639452 0.08345295
0.067937605 0.0069054295 0.07238444 0.028190149 0.056999184 0.02205443 0.031208564 0.020433959
0.012169863 0.030742485 0.027904259 0.057991594 0.07363084 0.061283626 0.0073192143 -0.017803866
-0.0006778497 0.04374482 0.048372205 0.018145489 0.0174319 -0.03161529 -0.02078675 0.027377807
-0.022836355 0.052653264 0.016097032 -0.057012353 -0.033317205 0.012004843 0.041794367 0.028852185
0.030056057 -0.016566636 -0.020917954 -0.048754025 0.048349883 0.02824062 -0.028328968 -0.044539202
-0.029959584 -0.025208432 -0.06821223 -0.0040769232 0.005533038 -0.029299993 -0.05220326 0.0059203617
-0.044313375 -0.051758055 -0.10980602 0.0021322416 0.02525241 -0.0015997259 -0.038705718 -0.10365203
-0.06421017 0.07765104 0.0964001 -0.02301701 -0.10232934 -0.04565878 0.017936138 -0.010135968
-0.0343359 -0.04642874 -0.03014207 0.054189276 0.032009155 -0.0013485535 0.04200866 -0.05313639
-0.055798247 0.019770397 0.05451274 0.043576844 0.012746122 -0.05408724 -0.036561508 -0.039225575
0.06066031 0.039700698 -0.04863933 -0.041049972 -0.032326452 -0.024044236 -0.02980876 -0.07459367
-0.06358026 -0.011471544 0.01678304 0.07909859 -0.053884424 -0.012455037 0.01022551 -0.05963285
0.05169154 -0.03149207 -0.0038750363 -0.011193912 -0.028811501 0.010368037 0.032798637 0.007992051
-0.038211286 -0.06207682 -0.0035294476 0.024163991 0.015899396 -0.010496819 0.031984616 0.08402312
0.05381046 0.05146275 0.012683599 0.021658182 -0.0042656898 -0.0032445185 0.0071529574 0.013097493
0.057066396 0.046743244 0.024417559 0.04630987 -0.008367934 -0.043535247 0.015042975 0.01945954
-0.010315085 -0.032399565 0.007444713 -0.03991794 -0.03469601 -0.052137677 -0.058986094 -0.05901729
-0.0010666909 0.04872501 -0.0293569 -0.024759408 -0.068044245 0.0176156 0.048449017 0.03156596
-0.02499496 -0.008033648 0.007494002 0.05298152 0.06974783 0.012038344 -0.020243172 0.0026615292
0.014468208 -0.0061427006 -0.012027481 0.06267361 0.056033228 -0.08357539 -0.07201433 -0.018118767
0.043262932 -0.021485353 -0.012238918 -0.054202963 -0.111163706 0.07740398 0.084652126 0.007933664
-0.08888363 -0.11631726 0.05400077 0.062495552 -0.065127194 -0.17048484 -0.186262 0.123792425
0.073365144 -0.014946491 -0.16934614 -0.16693708 0.06853778 0.03449389 0.02715566 -0.10099616
0.012919229 0.045506302 0.042742163 0.019165635 -0.0021044263 0.016826894 -0.018211853 0.029299963
0.026265673 0.017905308 0.0118892 -0.025072966 -0.016813613 0.005425546 0.0074104196 0.0076621557
0.028240694 -0.02585789 -0.04575761 0.0076652397 0.1099893 0.014846843 -0.058711987 -0.08137176
-0.014439465 0.06282207 0.08944928 0.02509751 0.100042574 0.025303096 -0.010909984 0.028061768

module.8.bias f4 [64]
00000000: b02b be3c c469 61bc aa00 313c 2c5d aabc
00000010: 5cf0 edba dcb8 15bc eeaf 9e3c 1ee6 02bd
00000020: 9b80 f83c 2c19 f9bc 16bc 06bd df81 313c
00000030: 6700 6f3a feb2 36b7 9592 c239 be49 ff3c
00000040: 6edc 9bbc 3ceb e7bc 31ad d4bc 6d57 053d
00000050: 3659 7f3c ff07 92bc 662f dbbc 1346 d2bc
00000060: 8d6f e2ba af4b ebba 3610 f03c a853 41ba
00000070: 967a 0ebd fa07 0bbd 4b71 e4bc 4abd febc
00000080: a159 063d 7fae 5d3c 18f0 d13b a0b1 9abc
00000090: c6e1 75bc 89cf 063d 341d 85bb 3a2a ccbc
000000a0: 2c8d 82bc 71f9 edbc 6a07 103b 8c01 10bd
000000b0: da8b f0bc b4e9 ebbc 0574 2fbc 46be 233c
000000c0: 8ebc bcbc d929 00bd 2bd8 0dbd 24b8 b83b
000000d0: 67a6 a1b9 be16 1fbc 33d6 2dbc 394d dbbc
000000e0: a4ca 33bb cde3 3a3b 35fe e1bb ab81 67bc
000000f0: 3c97 dcbb 18da 09bd c255 4fbb fade b8bc
0.023214191 -0.013758127 0.010803381 -0.020796381 -0.0018153298 -0.009138312 0.019371 -0.031957738
0.030334761 -0.03040751 -0.032894216 0.010834186 0.00091171864 -1.088972e-05 0.00037111776 0.031163093
-0.019026008 -0.02831041 -0.02596149 0.03255408 0.015585234 -0.017826078 -0.026756 -0.02566818
-0.0017275676 -0.0017951633 0.029304605 -0.00073748315 -0.034784876 -0.033943154 -0.027886054 -0.03109612
0.03280032 0.013530373 0.0064067952 -0.018883526 -0.015007442 0.032912765 -0.004062319 -0.024922479
-0.015936457 -0.029049607 0.0021977075 -0.035157725 -0.029363561 -0.028797962 -0.010708814 0.009994095
-0.023039129 -0.03128991 -0.034629982 0.0056371856 -0.00030832292 -0.009710012 -0.010610151 -0.026770221
-0.0027434016 0.0028517128 -0.006896759 -0.014130036 -0.0067318957 -0.033655256 -0.003163681 -0.022567261

module.9.weight f4 [64]
00000000: 773b 4a3f a3cc 373f e522 2f3f 1267 453f
00000010: 9a67 4b3f 8822 2d3f 1b34 1f3f 3598 5d3f
00000020: c671 453f 0799 2d3f a8fd 473f 3074 263f
00000030: 788e 373f ae0f 213f 3930 363f ef41 043f
00000040: ce6c 473f f603 343f 8042 323f 6247 413f
00000050: fc62 483f 36cb 423f 5786 303f c3bd 303f
00000060: 335f 163f 6d73 333f 0b58 543f 0366 2f3f
00000070: 7dc2 393f 3376 113f 1a72 5b3f c8f6 523f
00000080: 6db7 343f df7d 373f 33e0 353f 7da5 3e3f
00000090: d8ef 1f3f 6093 203f 831e 5d3f 6d05 0e3f
000000a0: 1863 273f 3c98 403f 25bb 223f 31c5 2d3f
000000b0: dccd 5c3f a416 443f 2ef5 283f beaf 243f
000000c0: 3d76 403f ec54 413f 2073 313f b9d9 443f
000000d0: efa9 0c3f ba55 5e3f ca57 273f aa72 383f
000000e0: ba4b 463f 2e35 333f 9d1e 1e3f 52cc 3a3f
000000f0: bf74 393f c0dd 403f 2d2b 553f 9ecb 383f
0.78996986 0.71796626 0.6841262 0.771104 0.7945496 0.67630816 0.6218888 0.86560374
0.7712673 0.67811626 0.78121424 0.6502104 0.71701765 0.6291455 0.7116733 0.51663107
0.779004 0.70318544 0.6963272 0.75499547 0.7827604 0.76091325 0.68954986 0.69039553
0.5873901 0.70098 0.8294684 0.6851503 0.7256239 0.5682098 0.8572098 0.8240781
0.70592386 0.7167644 0.71045226 0.74471265 0.6247535 0.62724876 0.8637468 0.5547703
0.6538558 0.7523229 0.6356681 0.67879015 0.86251616 0.76597047 0.65999115 0.6433066
0.7518042 0.75520205 0.6931629 0.7689472 0.549468 0.8684956 0.6536833 0.72049963
0.774593 0.7000302 0.6176546 0.7296802 0.72443765 0.75338364 0.83269006 0.72185695

module.9.bias f4 [64]
00000000: 20f4 27bf be3c 15bf 75d0 00bf b838 46bf
00000010: 657a 45bf b0d2 2fbf e81b 02bf a1a5 79bf
00000020: 2fd5 2dbf c541 0fbf c93f 20bf ddee 1ebf
00000030: d242 00bf fc5b fcbe 2412 24bf 4d51 f2be
00000040: b99c 17bf 8b7a 08bf e304 f7be 4624 44bf
00000050: 7d75 3dbf ba55 21bf b2eb 08bf 62a6 19bf
00000060: 2400 06bf c82b 1dbf 2563 13bf a6b5 35bf
00000070: 1e75 33bf 86ee 01bf 2f4b 5bbf 7fa2 23bf
00000080: 7756 15bf 241b 15bf 20f5 02bf 206f 12bf
00000090: 2108 dcbe d5d6 fabe 60df 2fbf a0ae f7be
000000a0: 7d93 21bf f5e8 1ebf 3c51 03bf 3156 13bf
000000b0: 9cb3 35bf 2a0b 1bbf a1a4 21bf 7c33 11bf
000000c0: 658d 02bf 04d9 0bbf 1575 2fbf 8deb 23bf
000000d0: 55d2 f5be f1a5 30bf 81c7 0cbf d6fd 0ebf
000000e0: fd3a 18bf 9b41 12bf cb2a f9be fa86 1abf
000000f0: c56c 10bf 4f4d 10bf a46e 38bf 50ff 1ebf
-0.6560688 -0.5829581 -0.5031808 -0.77430296 -0.77139884 -0.6868086 -0.5082383 -0.97518355
-0.6790342 -0.5595973 -0.6259733 -0.62083226 -0.5010196 -0.49288929 -0.6409018 -0.47327653
-0.59223515 -0.53311986 -0.48245916 -0.7661785 -0.740074 -0.63021433 -0.5348464 -0.60019505
-0.52343965 -0.6139493 -0.5757316 -0.709803 -0.7010058 -0.5075458 -0.85661596 -0.63919824
-0.5833506 -0.5824454 -0.5115528 -0.57200813 -0.42974952 -0.4899203 -0.6870022 -0.48375416
-0.63115674 -0.62074214 -0.5129583 -0.5755339 -0.7097719 -0.6056391 -0.6314183 -0.56719184
-0.50997 -0.54628015 -0.6853803 -0.64031297 -0.48012033 -0.69003206 -0.5499192 -0.5585607
-0.5946501 -0.57131356 -0.4866546 -0.6036221 -0.5641597 -0.56367964 -0.72043824 -0.62108326

module.9.running_mean f4 [64]
00000000: 65fb a5bf e5e6 00c0 2b01 a8bf 6172 2bbe
00000010: 15a3 19c0 263c 30be 4a75 9cbf 1673 97bf
00000020: 789f 28bf f3e5 d1bf 0bd4 e9bf f9ec 1abf
00000030: 5e25 edbf 0d1d 263e cbe3 0bc0 bf79 5dbf
00000040: 5774 03c0 5fbb 16c0 51d4 c2bf d414 15bf
00000050: b608 5fbf bc15 03c0 cee4 8abe 345c 99bf
00000060: 5ca2 c0bd a875 54bf 8c6f 06c0 e85e 6fbf
00000070: 0fc5 a0bf 0227 63bf d426 53bf 803b 10c0
00000080: b787 60be 7193 6fbf b751 f9bf a851 0fc0
00000090: 7147 95bf f0ed adbf 239a 4ec0 6c24 79bf
000000a0: 907c 04bf 551a 32c0 2c68 aebf da4f 92bf
000000b0: 19e1 2dc0 b848 06c0 f11f 61bf 960f eebf
000000c0: c995 7cbf 61b4 c6bf 0934 43bf 9954 36bf
000000d0: 2949 f43e 99f8 33c0 b55f a0bf f2c2 9ebf
000000e0: 5f02 12c0 3776 b7bf 2060 3fbf ee5f 35bf
000000f0: 23d0 b6bf 0e10 a7bf 4c1e 3fbf 4e4c f7bf
-1.2967345 -2.0140927 -1.3125356 -0.16742851 -2.4005787 -0.17210445 -1.2223294 -1.1831996
-0.6586833 -1.63983 -1.8267835 -0.6051784 -1.8527029 0.1622202 -2.1857784 -0.86513895
-2.0539758 -2.3551862 -1.5221044 -0.58234906 -0.87122667 -2.0482016 -0.2712769 -1.1981263
-0.094059676 -0.8299203 -2.1005583 -0.9350419 -1.2560138 -0.88731396 -0.8248112 -2.2536316
-0.21926771 -0.9358435 -1.9478062 -2.239359 -1.1662427 -1.3588238 -3.2281578 -0.973212
-0.5175257 -2.7828572 -1.3625541 -1.1430619 -2.7168639 -2.0981884 -0.87939364 -1.8598506
-0.98666054 -1.5523797 -0.76251274 -0.71222836 0.47712067 -2.8120482 -1.2529207 -1.2403243
-2.2813947 -1.4332951 -0.7475605 -0.708495 -1.4282268 -1.3051775 -0.74655604 -1.9320161

module.9.running_var f4 [64]
00000000: 1b14 d33f ac72 8a3f 334d 853f f496 cd3f
00000010: 5cc2 b83f bb75 713f d90b 863f a038 d83f
00000020: e586 d93f 783a 6e3f de79 9b3f 7181 543f
00000030: c9d3 ad3f d38e 923f e6ef 8d3f 88c0 883f
00000040: ccf6 b33f ffcf 873f 83fd 733f b606 853f
00000050: b7e5 b53f c51a c63f 3982 843f 576b 8d3f
00000060: faa2 433f b43d 633f 8bc8 ed3f a77c 993f
00000070: 1f24 c03f 9218 4c3f 5ebd d63f 861a c13f
00000080: 39c5 9c3f 0fd9 7b3f 16b0 833f db2d a83f
00000090: 01a4 6f3f bbe5 a83f 5a91 ef3f 6f87 533f
000000a0: 3fbd 843f 9063 aa3f 3426 5e3f 4ed7 a63f
000000b0: 5a00 ac3f de4f a33f 48a3 a53f f14f 843f
000000c0: ee46 463f ba9b b13f ec53 8f3f a305 913f
000000d0: a5e4 443f 934a d73f b690 5f3f 7dba 973f
000000e0: 9bc0 823f 5a60 ba3f 95a5 a13f 54dd 873f
000000f0: 3b95 933f 5e35 a13f f52f cf3f 5195 d03f
1.6490511 1.0816245 1.0414184 1.6061692 1.4434314 0.9432027 1.0472366 1.689228
1.6994292 0.93057966 1.2146566 0.8301001 1.3580257 1.1449836 1.1088836 1.0683756
1.4059691 1.061035 0.95308703 1.0392673 1.4210728 1.547692 1.0352241 1.1048383
0.7642056 0.88766026 1.8576826 1.1991166 1.5011023 0.7972499 1.677654 1.5086219
1.2247688 0.9837808 1.0288112 1.3138994 0.93609625 1.3195108 1.8716233 0.8262853
1.0370253 1.3311634 0.86777043 1.3034456 1.3437607 1.2758749 1.2940454 1.0336896
0.7745198 1.3875649 1.1197486 1.1329845 0.76911384 1.6819633 0.87330186 1.1853787
1.0215029 1.4560654 1.2628657 1.0614419 1.1529917 1.2594411 1.618651 1.6295568

module.13.weight f4 [64, 1024]
00000000: a4a7 6b3a b668 9b3d 1ed2 6e3d 9e7e e1bc
00000010: cd9a 46bd a41b a5bc 0e78 693d a7f6 1f3a
00000020: 1004 1a38 49fa 6f3b 95c0 9339 c2f6 863d
00000030: b36c 62bb 4571 03bb 5bbd d63c b53f a93b
00000040: 86a2 f43c 16f2 963c e2d3 df3c 62a9 b03c
00000050: 931e e6bc 9067 803d 448a fdbc 55c5 8a3b
00000060: c7df 903c 215e 9a3d 3f85 4b3d 0ec9 96bc
00000070: 014a 3a3d b59c 593d f67f 1f3d 3428 22bd
00000080: 9e2c 28bd 2b2e 97bc c13d 9dbd dc3d 9d3c
00000090: 1793 af3a c955 70bd 3971 b8bd f845 7a3d
000000a0: e8ac 363d c5ac a5bd 78f5 d1bd 8f52 233d
000000b0: 6ade 093d e8aa d4bc 3447 6bbd ced7 063d
000000c0: fbea b0bd 4865 92bc 7df2 9c3c f45e e33a
000000d0: 6c98 2cbc 84c0 ac3c f620 383d 6c5c 5e3d
000000e0: 625d 3bbd c7a1 b13b c7a5 863d 9e5c 58bc
000000f0: af8a afbd 45c6 c6bb 0a52 0abb 58be d4bb
00000100: 099c c93d 3ebe 36bc 4e37 32bc aca7 693c
00000110: 7ce2 a63d 1c5b 07bc d526 1cbd fad9 d7bc
00000120: e2c6 e83c efaf ef3c 4907 2e3b fe86 693c
00000130: eb0c 2d3d 0ad2 013c abf7 05bb 6a67 643d
00000140: d921 023d b970 cabd a0ee c5bd 9aa7 52bd
00000150: 1d84 693c cdf3 1fbd 9d7b 1bbe 9ac4 60bd
00000160: ef09 cf3b fa20 cabc ee75 fbbd 6651 c3bd
00000170: 4c4f 2cbd 6ad8 15bd f234 2fbd 93b0 543b
00000180: 8638 cdbc 1213 76bd c61d d33c 8dc5 54bd
00000190: a538 6f3d dd4f 3abd 1eb0 eebb be8c 8c3b
000001a0: db28 f43c 7bc8 dc3c 53c2 f53d 7f8e 0d3d
000001b0: 5d7e ccbc 7200 423d 1aed 9a3c c798 143d
000001c0: 45db 163c d993 373d d996 cd3d 0666 e7bc
000001d0: e08f 93bc c086 b93c 5f5a b3bc 88be 56bc
000001e0: 09f8 85bc 41c7 8dbc e752 2ebd ef57 04bd
000001f0: ac67 923c 79af b63b 61d6 653d 6813 9c3c
00000200: 1a73 5e3c cc37 b1bb 47c9 a93c 79fd 51bd
00000210: 0e1d a2b9 7c0f edbc c63c 9b3c b77a 7abd
00000220: eca6 0bbd dd91 0e3d a855 f73c 8573 f3bb
00000230: fc67 d9bb 7064 273d a04d 0d3d 3e85 693c
00000240: e851 9cbc fcff 35bd 7e83 a13d 0ef6 543d
00000250: 7431 103d 8fcf cb39 a889 a63d e295 e73d
00000260: acf7 123d f152 e6bc 2fbc 9a3c e6a6 6e3d
00000270: cb23 a33c c079 a63c 2697 1b3c ba12 4d3d
00000280: d0bc 393d e2fb 153d fa2a 8bbc 057c 1cbd
00000290: 4b51 88bd b3e1 b2bd 4c97 603d f1ce 9f3c
000002a0: c45d cebc b074 d3bc 4bed 1a3e 58c6 693c
000002b0: 8ae3 503b 1343 993b d0ce b33d 97ec 1c3d
000002c0: 902e dcbc 24b6 05bd fc7e d9bd cc2b 04bd
000002d0: 7872 55bd 62b7 7fbd 7c2d 0a3d 4135 d93c
000002e0: 412e 0e3c d599 1ebd e83e 1abd 140a 923b
000002f0: b619 983b 2743 03bd 2e85 42bc 92a4 bd3c
00000300: f415 40bd 97db c9bc 1ec5 013d b1a0 393d
00000310: a328 02bd e4e2 cbbd 8004 43bd 8279 98bc
00000320: a57e 3bbd 1ffc c7bd fc3c cdbc a859 87bd
00000330: 197d 6e3d d489 813d 85fa 963d 3a6f 8dbc
00000340: baeb 323c cbba 09bd 1402 193d 6f23 55bc
00000350: d70b cf3b f309 f3bc 1772 d63c 5d52 103d
00000360: fe96 b5bc 5ee6 113d 547b 05bc 3f9a 463d
00000370: 574e a13c 4c17 45bc e861 c8bc f686 2d3d
00000380: 093f 453d 0048 b93c b771 00bb 542b ee3c
00000390: 6da3 a9bb 2c1f e3bc d605 74bd 38d5 09bd
000003a0: 964d 8cbd 0e1d 1cbe 6d26 023c a48f 65bd
000003b0: 9919 2e3c 5853 b7bd 3646 96bb 1f90 1f3d
000003c0: f6d9 253c d593 383c 182a 2bbd c69a 6cbc
000003d0: f370 923c 54a5 9cbd a9c6 69bd 3e92 f6bc
000003e0: 0d46 d73c 62d2 2dbd 61d0 293a 4783 643d
000003f0: 0052 ad3c 2177 5ebd 2f2e fcbc f1f2 103c
0.0008989519 0.075883314 0.058305852 -0.027526196 -0.048487473 -0.020154782 0.05699926 0.0006102123
3.6720245e-05 0.0036617687 0.0002818151 0.06590034 -0.0034549653 -0.0020056528 0.026213339 0.005165065
0.029862653 0.018425982 0.027322713 0.021565143 -0.02809075 0.06269753 -0.03094972 0.0042349496
0.01768483 0.07537485 0.04968762 -0.018406417 0.045480732 0.053127963 0.038940392 -0.039589122
-0.041058175 -0.018454632 -0.07677794 0.019194536 0.0013395277 -0.05867556 -0.090059705 0.061101884
0.04459849 -0.08089594 -0.102518976 0.039873656 0.033659376 -0.0259604 -0.05744095 0.03292065
-0.08638569 -0.01787056 0.019158596 0.0017347024 -0.010534387 0.021087892 0.04495331 0.05428736
-0.045743354 0.0054208967 0.06574588 -0.013205675 -0.08571374 -0.006066116 -0.0021106028 -0.0064924173
0.098442145 -0.011153756 -0.0108774435 0.0142611675 0.08148667 -0.008261468 -0.03812297 -0.026349057
0.028415147 0.029258696 0.0026554635 0.014253376 0.042248648 0.007923612 -0.002044181 0.055762686
0.03177056 -0.098847814 -0.09664655 -0.05142937 0.01425269 -0.039050866 -0.15183873 -0.054874994
0.006318323 -0.024673928 -0.12278353 -0.0953701 -0.04206781 -0.03658334 -0.042775102 0.003245388
-0.025051367 -0.06007678 0.025771033 -0.05194621 0.05840363 -0.04548632 -0.0072841784 0.0042892387
0.029804638 0.026951065 0.11999955 0.034559723 -0.024962598 0.047363706 0.018911887 0.036278512
0.009207551 0.044818733 0.100385375 -0.02824689 -0.01801294 0.022647262 -0.021893678 -0.01310695
-0.016353624 -0.017306926 -0.04255953 -0.032310423 0.0178717 0.005575117 0.05611265 0.019052222
0.013577247 -0.005408263 0.02072586 -0.05126712 -0.00030920695 -0.028938048 0.018949877 -0.061152186
-0.034094736 0.034807075 0.030192211 -0.0074295425 -0.0066347104 0.04086727 0.034497857 0.014252959
-0.019082025 -0.04443358 0.07886408 0.05199247 0.035203412 0.0003887382 0.081317246 0.11307885
0.03588073 -0.028115721 0.018888561 0.058264636 0.019914528 0.020321727 0.009496486 0.050066687
0.04534608 0.036617167 -0.016988266 -0.03820421 -0.066561304 -0.08734455 0.054831788 0.019507857
-0.025191195 -0.025812477 0.15129583 0.01426848 0.0031873905 0.0046771853 0.08779681 0.038311567
-0.026877671 -0.032644406 -0.106199235 -0.03226833 -0.05211112 -0.062430747 0.033734784 0.026514651
0.00867802 -0.038720924 -0.03765765 0.004456768 0.004641737 -0.032046463 -0.011872573 0.023149762
-0.046895936 -0.024640841 0.031682126 0.045319263 -0.031777035 -0.09955385 -0.047611713 -0.018612627
-0.045775075 -0.09764885 -0.025053494 -0.066088974 0.05822477 0.06325117 0.073720016 -0.017264951
0.010920459 -0.033625405 0.037355497 -0.013008936 0.00631855 -0.02966783 0.02617745 0.035234798
-0.022166725 0.035620086 -0.0081470795 0.048486944 0.019690676 -0.01202948 -0.024460748 0.042365037
0.048155818 0.02261734 -0.001959903 0.029073395 -0.0051769526 -0.027724825 -0.059575878 -0.033650607
-0.06850736 -0.15245458 0.007943732 -0.05604519 0.01062622 -0.089514434 -0.0045860065 0.038955804
0.010122767 0.011265715 -0.04178819 -0.014441198 0.017876124 -0.07648721 -0.057074223 -0.03009903
0.02627852 -0.042436965 0.0006477889 0.05578926 0.021157265 -0.05431283 -0.03078374 0.008846984

module.13.bias f4 [64]
00000000: a5ab 013c d680 ee3d 616a ae3d b687 013d
00000010: 59cc 503d f334 be3c a0f9 8b3c cb88 a8bc
00000020: f896 6f3c 1730 103d ba39 0fbd e124 32bc
00000030: 9705 b23d 4641 213c c62b 36bb fd99 803d
00000040: ac4d b6bc 32f5 6d3d 65ac 503d 1f79 babc
00000050: f98f ec3d c261 ed3a 959f 3d3b f052 313d
00000060: 36d5 8dbc f364 223d cb7b ae3d cc9c 00bd
00000070: 42f3 953d b1d8 d6bc 5fd9 b03c b62e 2dbc
00000080: e74d bf3d 1f41 023d 2266 ddba 1da0 263d
00000090: ed33 143c 2c78 ffbb 5a14 4ebc 8b44 773d
000000a0: b8d3 e53d 7820 613c 9b1d 343d ec74 d53d
000000b0: 9ccd 033c b4c0 0bbc 9b1d 373c 9ce7 893d
000000c0: fb43 733d 419a b93a 6391 b93b de0a e8bc
000000d0: 90c7 173d 9dc6 cb3c 0157 4d3d 2330 00bd
000000e0: b84c 8b3d 5d1c 0ebd 4cb4 d63b 2fe6 443d
000000f0: 39db 08bd 3dfd 7e3d 0106 a63d 5c12 833c
0.007914458 0.11645667 0.08516384 0.031623565 0.05097613 0.023218608 0.017086804 -0.02057304
0.014623396 0.035202112 -0.03496716 -0.01087305 0.086924724 0.009842223 -0.0027797087 0.06279371
-0.022253834 0.058095165 0.05094566 -0.022762833 0.11550898 0.0018110799 0.002893423 0.043291986
-0.017313581 0.039647054 0.085197054 -0.031399533 0.07321788 -0.026226373 0.021588026 -0.010570219
0.093410306 0.031800386 -0.00168914 0.04068004 0.009045583 -0.007796308 -0.012578094 0.060368102
0.11222023 0.013740651 0.043973546 0.10422692 0.008044627 -0.008529831 0.011176492 0.06733629
0.059391003 0.0014160351 0.0056630834 -0.028325494 0.037055552 0.02487498 0.0501318 -0.031295907
0.06801742 -0.034695018 0.006552255 0.048071083 -0.033412192 0.062253226 0.08106614 0.015999965

module.16.weight f4 [10, 64]
00000000: 1a42 973c eb79 773e 59af 993e 36a5 60be
00000010: 4d05 ab3e 8c5d 933e 1c7c 913e b361 c13d
00000020: 2327 0a3d 28fd 9cbe 6bc0 343d c8ac 6e3d
00000030: e181 41be 3e33 54be 27de a93e b719 3bbe
00000040: da44 f83d d38d 733e a02a 7ebe a886 763d
00000050: ba75 8fbe 0c38 babd 88ae 22bd d5af 36be
00000060: b42f 61bd f543 97be ea75 a7be 03ba d1bd
00000070: 3db8 bd3e ef03 823d a736 ca3a 2806 29bd
00000080: fd60 963e c508 56be 2f17 b03d d0b5 913e
00000090: 5237 eb3e b4a9 62bc 8ce4 ca3d a9e4 a43e
000000a0: 03e7 063b cfa2 cb3d 6e23 893e e0db 8e3e
000000b0: 10b4 b63e f7c5 aabd 91d2 a73e 7ed4 71be
000000c0: 7211 ef3d 1530 cbbc 8788 83bc 1dd3 08bd
000000d0: 7aa4 a3bc 55cb 263e d79b 82be 06b6 58bd
000000e0: 47b9 c9be 3702 223d e182 093d 7f5d 90be
000000f0: fc27 e8bd e435 053c eabe b73e 1879 abbe
00000100: 12ca b1bd a033 803e 8472 96be cfac 9bbe
00000110: 4bcf 18be 9a88 d1be fba2 533e 7794 9e3d
00000120: c78a 003c e58e 65be c650 853d b4b9 393d
00000130: b358 cdbe f2cf babe f228 32be fd84 e43e
00000140: d06a 153d c2d9 cabe af65 7abe 56c5 f43d
00000150: b995 a5be f274 c53d ffd1 c8bd 6b2d ca3e
00000160: e250 8c3d 0ab1 95be ec9d a5be 8c9a 83bd
00000170: d47f d73e 4d59 713d 1032 053f abaf bbbe
00000180: 86b6 d33e 38c1 b8be 8ea6 9f3d a4ad b93e
00000190: 94b9 95bd a59e 58bd 2b4b 8d3d 64c6 d13e
000001a0: d578 bcbe 6e4c 6dbd be2f dabe 0b28 68bd
000001b0: 04a0 99be 2dfe c53d 7c90 e13e fb51 38be
000001c0: 7060 2ebe 4942 f73d 0423 e5bd 843a 94bc
000001d0: 0090 f4bb 20e9 803e 51fa 56be 2746 023d
000001e0: 5eeb b1be 0029 0fbd 9972 e13d 77f6 c63e
000001f0: d361 293c f958 f03e e2a4 9abe cd2b a03e
00000200: b103 c03e bc3f 66be 82d9 6b3e 7eff c13e
00000210: 1bdd aebd 7358 853e 105b b3bd 1d10 1dbd
00000220: dd81 f4bd 0cea b03e 0eb4 45bd 3c8c 513d
00000230: 33d6 c3bd c97c 08bc 387e ae3e 018f 863e
00000240: b386 983d 1529 943e e20c 27bd 5988 013e
00000250: 070d 6f3a af7e c73d 375e 65bd bcb2 a1bd
00000260: c2bd 60bd 1191 953e 4627 44bd 6096 6d3c
00000270: 0471 62be 5bd8 7638 1eb0 e63d 7dc3 043f
00000280: bf24 86be e4b9 52be 5d73 aa3c 2980 5ebe
00000290: 167c fa3e 0825 873d c9f6 d83d ee1f 0e3d
000002a0: a933 c5bc b4df a83d 8741 2b3e ff7b e5bd
000002b0: 4020 c93e 389c de3c 826e 413e b801 393e
000002c0: f29a 093c ff99 bcbc 16b2 893d edab 4c3d
000002d0: 3d3d c33d dd6b 5c3e 3d95 f73d 4323 a83d
000002e0: a721 4d3e 40d2 d13d c292 793d e626 adbd
000002f0: 5848 77ba 2b43 89be cc2d 2f3e 16ef 8ebe
00000300: d0e4 843e e510 3dbd b028 fdbd e4c2 5e3e
00000310: e531 40be fccf ba3a 01d3 a7bd 276b a73c
00000320: 0163 8ebd 6f8e d03d 76b5 edbd 6383 073e
00000330: 453b 8ebd a967 57bd 9a20 d2bd 6025 1abe
00000340: 18a7 2abd 444d c43c 4a49 bd3e 389b b83d
00000350: 32a4 7a3e dc25 de3d 226e f4bc c629 dbbc
00000360: d28f a5bd 60e7 733e c537 c43e dac9 e9bd
00000370: c922 89be 3486 6a3d 372a 78be a906 333d
00000380: 7905 63be 7f9e fc3d 3a39 5bbd f8e1 10be
00000390: 98bd 343c b0a7 873d d369 38bd 3a0a 81be
000003a0: dd2f b03e a046 223d 5627 b5bb 6f31 6abe
000003b0: 449e 9bbb b008 fc3c 9d98 cfbd 8006 253d
000003c0: 6c10 3bbd 6ea9 213d 453c b23d 19d8 9dbd
000003d0: 3620 8a3d 499e 3dbd 12bb ad3e 6795 b03d
000003e0: 7b0e fe3d 8a6b 0b3d 34a8 ecbc 0e27 013e
000003f0: 07ff f93c e459 49be 08c3 c33e 30f9 a03e
0.018464137 0.24167602 0.30016592 -0.21938023 0.33402482 0.28782308 0.28415 0.09442463
0.03372873 -0.30661893 0.044128817 0.058270246 -0.18897201 -0.20722672 0.331773 -0.18271528
0.121225074 0.2378457 -0.24820948 0.060187012 -0.28019506 -0.09092721 -0.039717227 -0.17840512
-0.054977134 -0.29544035 -0.3270715 -0.10240557 0.37054625 0.063484065 0.0015427665 -0.041265637
0.2937087 -0.20901783 0.08598172 0.28459024 0.45940644 -0.013834406 0.09906873 0.32205704
0.002058447 0.09943163 0.26784843 0.27902126 0.35684252 -0.0833854 0.32777837 -0.23616216
0.11673249 -0.0248032 -0.016056312 -0.03340446 -0.01997589 0.16288503 -0.2550952 -0.052907966
-0.39399168 0.039552893 0.03357208 -0.28196332 -0.113357514 0.008130524 0.35887843 -0.33490825
-0.0868112 0.25039387 -0.29384243 -0.3040528 -0.14922826 -0.4092453 0.20667641 0.07743161
0.007845587 -0.22417791 0.06509547 0.045343116 -0.40106735 -0.36486775 -0.17398432 0.44632712
0.036478817 -0.3961926 -0.24452852 0.11951701 -0.32340792 0.09641446 -0.098056786 0.39487776
0.06851365 -0.29236633 -0.32347047 -0.06425962 0.42089713 0.058923054 0.52029514 -0.36657462
0.41350192 -0.36084914 0.0779544 0.3626529 -0.07310787 -0.05288567 0.06899103 0.40971673
-0.36810938 -0.057934217 -0.4261455 -0.056678813 -0.30004895 0.09667621 0.44055545 -0.18000023
-0.17028975 0.1207319 -0.11188319 -0.018094309 -0.007463455 0.2517786 -0.20993926 0.031805184
-0.34749883 -0.03495121 0.11008186 0.38859913 0.0103382645 0.4694288 -0.3020392 0.31283417
0.37502816 -0.2248525 0.23032191 0.37890238 -0.08538266 0.26044044 -0.08757603 -0.038345445
-0.11938832 0.34553564 -0.048267417 0.05115913 -0.0956234 -0.008330532 0.34080672 0.26280978
0.07447567 0.28937593 -0.04078377 0.12649669 0.00091190677 0.0974096 -0.055998053 -0.07895419
-0.054868467 0.2921224 -0.047889017 0.014501184 -0.22113425 5.8852467e-05 0.112640604 0.5186079
-0.2619991 -0.20578724 0.020806963 -0.21728577 0.48922795 0.0659886 0.105939455 0.03469842
-0.024072485 0.08245793 0.16724215 -0.11205291 0.39282417 0.0271741 0.18889812 0.18067062
0.008398758 -0.02302265 0.0672342 0.04996865 0.09533165 0.21525522 0.12089012 0.08209851
0.20032369 0.1024518 0.060930975 -0.08454685 -0.00094330823 -0.26809058 0.17107314 -0.27916783
0.2595582 -0.04615869 -0.12361276 0.21754032 -0.18769033 0.0014252658 -0.08194543 0.020436836
-0.06952477 0.10183417 -0.116068766 0.13233714 -0.069448985 -0.052589092 -0.102601245 -0.1505332
-0.04166326 0.023962624 0.36969978 0.090139806 0.24476698 0.10847065 -0.029837672 -0.026753318
-0.08084072 0.23818731 0.383238 -0.11415453 -0.2678435 0.057256892 -0.24234854 0.043707523
-0.22170056 0.12334918 -0.053521372 -0.141487 0.011031531 0.06623781 -0.045022797 -0.25203115
0.34411517 0.039618134 -0.005528371 -0.2287042 -0.0047490913 0.030765861 -0.101365305 0.040289402
-0.045669958 0.03946822 0.08702902 -0.07707233 0.06744425 -0.04629353 0.33931786 0.08622246
0.12405106 0.034038104 -0.0288888 0.12612554 0.030517114 -0.19663197 0.38234735 0.31440115

module.16.bias f4 [10]
00000000: c63c 73be 364d d4be 3661 fcbd f9ea 323f
00000010: 9953 3fbd 881c bb3d a9f5 2c3c 7a83 203d
00000020: f650 3dbe 2570 24bc
-0.23753652 -0.41465157 -0.12323229 0.6988979 -0.046710584 0.09136301 0.010556617 0.039187886
-0.18487915 -0.010036503
