models/xue_27.pth (torch, 587967 bytes, 10 tensors)

weight f4 [32, 3, 5, 5]
000000 e3 42 ff bd 45 a3 b4 3d 62 10 ba 3d 10 12 a1 3c
       -0.124639295 0.08820204 0.09085156 0.019661933
000010 29 6e 4b 3d c9 6a 9d 3b 97 a8 39 bc 39 b7 5c 3d
       0.049665604 0.0048039895 -0.011331699 0.053885672
000020 60 d2 a2 bd ab 7e 78 3d 07 c5 b9 bd 0f 00 0e be
       -0.07950282 0.060667675 -0.09070783 -0.1386721
000030 b5 d2 8c be 60 9e ae bd 5b ea 6f bd e4 1b aa bc
       -0.27504507 -0.085263014 -0.05857311 -0.020765252
000040 ac 50 bd 3b f7 ed 23 be c3 bb 63 bd 1a 1f 56 3c
       0.005777439 -0.16008745 -0.055598985 0.013068939
000050 4c 2c 3f bd 94 71 7b 3d 05 57 01 3e dc e3 27 3d
       -0.046673104 0.061387613 0.12630852 0.040988788
000060 3f df ce 3d 43 5a 1a bd 3c 90 a3 3d 6c 56 0e 3e
       0.101011746 -0.037683737 0.07986495 0.13900155
000070 8d e0 e5 bb e8 3a ee bd 97 51 5f 3d bb c6 3f 3d
       -0.007015294 -0.11632329 0.05452117 0.046820384
000080 4d 8c 45 3e 74 bc 02 3c d1 e4 9f bd 6b 02 24 bd
       0.19291802 0.007979501 -0.07807315 -0.04004137
000090 83 0a e2 bd a9 d2 25 be e8 be d6 bd 46 7a 78 bd
       -0.11037161 -0.16193642 -0.10485631 -0.060663484
0000a0 3c 33 f3 3d 38 2c 28 bd d2 4c 45 bc 28 28 3d bc
       0.118750066 -0.041057795 -0.012042241 -0.0115452185
0000b0 ec 16 0e 3e 44 a2 44 3d 46 e7 81 3c 23 55 57 3d
       0.13875932 0.04800631 0.01585735 0.052571427
0000c0 a6 bb 4d bc b7 57 f2 bd 0b 86 0d 3c e8 02 cb 3d
       -0.012556946 -0.118331365 0.008637915 0.09912664
0000d0 9c 96 51 3e ab 19 ef 3c 5c 30 bb bd 8b 96 d4 3d
       0.20467609 0.029187044 -0.09140083 0.10380276
0000e0 d2 df f8 3d dd f3 c2 3d 7f 03 45 3e 78 bb 95 3d
       0.12152065 0.095191695 0.19239615 0.073111475
0000f0 e7 92 69 bd e8 df e4 bd c3 cb 5e 3d 42 81 da 3d
       -0.057024863 -0.11175519 0.05439354 0.10669185
000100 91 e0 49 3c 00 dd fa 3d fc 8a db bd 77 dd ef bd
       0.012321607 0.12249184 -0.107198685 -0.11712163
000110 96 6a 48 bd ea c8 e2 3d af ad 7b 3c e7 2a 59 bd
       -0.048929773 0.110734776 0.015361234 -0.05301943
000120 fd dc e0 bc 65 3c 0c be 89 46 49 3d 78 a6 7b 3d
       -0.027449125 -0.13694914 0.049139533 0.061438054
000130 39 34 f4 bc 3f f0 7c bd cb 23 8d bb 32 76 21 be
       -0.029810058 -0.061752554 -0.0043072454 -0.15767744
000140 bc c2 08 bd b7 91 be 3d 24 63 c3 3d ce a4 10 bd
       -0.03338884 0.09305137 0.09540394 -0.03531342
000150 1e d7 cd bc f1 db fa 3d 91 a5 b4 3d 19 9a b3 3d
       -0.02512699 0.12248982 0.08820642 0.08769626
000160 08 73 23 bd e6 f9 22 be 0c 55 0f be 7f 84 3f be
       -0.039904624 -0.15915641 -0.13997287 -0.18702887
000170 02 1c 91 bd b2 e1 be bd f0 9d 5f bd 84 3c ea bb
       -0.0708542 -0.09320392 -0.05459398 -0.0071483273
000180 38 91 a1 bd 20 7c 72 3d a0 1b 95 3d e5 2c 37 3e
       -0.078890264 0.059200406 0.0728066 0.1788822
000190 67 84 1d 3e 38 72 27 3e 27 a7 cc 3d e6 fe 5c bd
       0.15382539 0.16352165 0.09992819 -0.053954028
0001a0 19 20 ba bd 77 32 e6 3d b0 12 fe 3d 5f bf 43 3e
       -0.090881534 0.11240094 0.12405908 0.19115971
0001b0 f2 59 19 3c da 7b 30 3d 15 e7 0f 3e b5 62 39 3d
       0.009359824 0.043086864 0.14052995 0.04526015
0001c0 ac e5 e5 bd 1e e7 a3 3d e6 68 7f 3d b9 c4 25 bd
       -0.11225447 0.080030665 0.0623559 -0.040470812
0001d0 c9 2d 2d be f3 9a 24 be 72 b3 28 be 16 c8 0a be
       -0.16911997 -0.16074733 -0.16474703 -0.13552889
0001e0 a0 2c b8 3d 1f fc 0c be 93 ff 20 bc 18 92 ce 3d
       0.089928865 -0.13768052 -0.009826559 0.10086459
0001f0 05 fd 05 3e 9c 75 08 3e 6e 66 27 3e 88 01 91 3d
       0.130848 0.13326114 0.16347668 0.0708037
000200 c0 da 8c 3c e2 58 3f bc 1e 6a 61 bd 77 fc ed 3d
       0.017194152 -0.011678906 -0.05503284 0.116204195
000210 39 c8 7f 3c 57 08 60 3d 8a 8e db 3d 20 26 82 bd
       0.015611702 0.054695453 0.107205465 -0.06354928
000220 7c 57 be 3d f3 18 d7 bd 0c 9c 11 3d c1 4c 0c be
       0.0929403 -0.105028056 0.03554921 -0.13701154
000230 7a 70 a6 bd c3 36 97 bd 9b f8 00 be cb da 6d bd
       -0.08126922 -0.07383492 -0.12594835 -0.058069985
000240 b5 9d 95 bd 1c 97 6d 3d 19 62 ee bd d8 00 65 bd
       -0.07305471 0.058005437 -0.116398044 -0.055909008
000250 0f 71 2f 3c bb bd b0 3d f8 c8 0a 3d b3 97 21 3e
       0.010708108 0.08629938 0.033883065 0.15780525
000260 3c 22 f9 bd b0 d1 55 be 56 f5 a0 bd 79 e7 b8 3c
       -0.12164733 -0.2088077 -0.07859294 0.022571312
000270 6d 42 84 3e 93 4e f1 3b 3f 41 f8 bc f7 9a ce bd
       0.2583193 0.007364103 -0.03030455 -0.10088151
000280 27 c8 d3 3c 76 41 88 3e a5 68 f8 3c b7 5e 4b be
       0.025852276 0.26612443 0.030323336 -0.1986035
000290 89 91 80 be da e9 40 3e 87 64 2e 3e e1 a0 0a bd
       -0.25111035 0.18839207 0.17030536 -0.033844832
0002a0 2d 00 8b 3c cb 3d 6e be dc 14 cd 3c 41 ff 4d 3d
       0.016967857 -0.2326576 0.02503436 0.050292257
0002b0 2e ca fb bb 63 ca 36 3d b3 fd a5 bd 8e 94 1c 3e
       -0.007684014 0.044626605 -0.0810503 0.15291044
0002c0 d5 29 d9 3d 3f 66 2e bc b9 74 a1 bd 56 28 c8 ba
       0.10603682 -0.010644495 -0.07883591 -0.001527081
0002d0 aa 3c 5e 3e 61 7a 12 3e e4 84 c8 bd 3d 16 73 be
       0.21702829 0.14304496 -0.09790972 -0.23738952
0002e0 86 9e 91 bd a2 0a c1 3c 77 16 8e 3e 0a d7 ab 3d
       -0.07110314 0.02356464 0.27751514 0.08390625
0002f0 4a e8 89 be 28 01 ac bd 34 24 35 3e 84 e6 db 3c
       -0.26935035 -0.08398658 0.17689592 0.026843317
000300 35 e9 82 3d c7 7f 4c be 6b db 64 be 04 59 b4 3d
       0.06392137 -0.19970618 -0.22349326 0.08806041
000310 86 9a 17 3e b7 3c 05 bd 6d 07 85 bd 4f c8 0b be
       0.1480504 -0.032528605 -0.06495557 -0.1365063
000320 f5 79 fa 3d 0a fa 0b 3d c3 24 c2 bd 77 eb 38 be
       0.12230293 0.034174003 -0.09479668 -0.18058573
000330 68 42 8a 3d fb 63 2a 3e 0f 98 36 3e 1d ea f5 bd
       0.06750947 0.16639702 0.17831443 -0.12007544
000340 41 4a 87 be 0d a2 25 be 56 2c 45 3e c1 7c 74 3e
       -0.2642384 -0.16175099 0.19255194 0.23875715
000350 79 4c f4 bd 53 50 1e be f0 4f 97 bd 29 fc 22 3e
       -0.119286485 -0.15460329 -0.07388294 0.15916504
000360 39 8e 00 3c b0 2f b2 3d d0 c4 e0 bc aa af 58 be
       0.0078464085 0.08700502 -0.027437598 -0.2116076
000370 78 99 2b 3d 1d 85 1e 3e b1 99 16 3d f7 1a fd bd
       0.041894406 0.15480466 0.036767665 -0.12358659
000380 31 d0 17 be ff d1 0f bd b8 10 e2 bc b0 b4 16 bd
       -0.14825512 -0.035112377 -0.027595863 -0.03679341
000390 e2 59 05 be bb 76 ed bc 29 06 9b 3c fa 20 49 bd
       -0.13022569 -0.02898728 0.018923836 -0.049103715
0003a0 e5 ee c5 3d 4a 9e ee 3c bd 42 43 bc f6 38 b7 bd
       0.09664706 0.029128212 -0.011917767 -0.08946411
0003b0 e1 d4 2b be b2 31 cd bd c8 ce ce 3d 1c 92 2a 3d
       -0.16780426 -0.10019244 0.10098034 0.041643247
0003c0 e8 93 6c bd 85 5f 25 be 43 15 96 be 78 44 84 be
       -0.057758242 -0.16149719 -0.29313096 -0.25833488
0003d0 f3 83 8a bd dc 96 a7 3d 01 ae b8 bd ec 56 23 bd
       -0.067634486 0.08183071 -0.090175636 -0.039877817
0003e0 57 88 87 3c 04 2b 75 bd a0 f5 c2 bd d7 d0 5d bd
       0.016544504 -0.059855476 -0.095195055 -0.054154243
0003f0 44 a7 af 3d b5 13 a6 bd 59 55 4d bd 5f 49 00 3e
       0.08576825 -0.081092276 -0.050130222 0.12527989

bias f4 [32]
000000 4e b8 02 be 8c b4 77 be 19 d5 ac bc f6 6c 1a be
       -0.12765619 -0.24189967 -0.021097707 -0.15080628
000010 a0 a4 77 be 40 cf cd be 83 63 c2 3d ad a4 c5 bb
       -0.24183893 -0.40197182 0.094916366 -0.006031594
000020 b9 8b 94 bd 29 d1 19 be 2e f4 8f be ec a3 81 be
       -0.072532125 -0.15021195 -0.28115982 -0.25320375
000030 2f 63 ae be fb ef 05 be 0b 08 90 bd 7f 4c 25 3e
       -0.34060046 -0.13079827 -0.07032784 0.16142462
000040 8d c4 fd bd 8e 8f 2d bd d8 f4 9a be d6 dc 9f be
       -0.12391005 -0.042373233 -0.30264926 -0.31223172
000050 83 b7 e4 3c 69 56 63 3e 45 6d 1d be 45 29 0b 3e
       0.027919536 0.22200932 -0.15373714 0.13589962
000060 d1 94 8a 3c 23 2b f9 3d 2e 16 7d 3d 4c 0f de 3d
       0.016916664 0.12166431 0.06178873 0.108427614
000070 50 c3 19 3e d4 92 22 bc 5d f9 06 3e ec 06 9c 3d
       0.15015912 -0.009922702 0.13181062 0.07618508

weight f4 [32, 32, 5, 5]
000000 c7 ca fb 3c b6 59 c0 3b 44 ea db 3c 88 e2 4f 3d
       0.03073634 0.0058700694 0.026845105 0.050753146
000010 bd 6f 15 3d e8 36 0e bc 02 90 18 3d e9 9c 19 3d
       0.036483515 -0.008680083 0.03724671 0.037503157
000020 4f af 46 bc e4 42 d8 ba 06 94 75 bc 50 15 20 3d
       -0.012126758 -0.0016499427 -0.014988905 0.039082825
000030 46 35 8b 3c 3c 71 63 3a 68 d1 3c 3d 21 48 bb 3c
       0.016993176 0.0008676236 0.046098143 0.022861542
000040 ca 56 79 bc 95 c0 c2 bb 87 29 e5 bb fe 5d ef bc
       -0.015218446 -0.0059433677 -0.006993476 -0.029219624
000050 21 ca b8 3c 00 26 8a 3c 05 7a 1d 3b cb cf 11 3d
       0.02255732 0.016863823 0.0024029028 0.035598557
000060 63 a6 b9 bb 0c e5 00 3d 56 4b b5 3b f0 58 ce 3c
       -0.005665587 0.031468436 0.0055326624 0.025188893
000070 c0 f0 49 3c 5c ab ba 3c a8 7b 1d bc b8 2b 23 3d
       0.012325466 0.022786789 -0.0096120015 0.039836615
000080 f8 3f be 3c 31 5e 65 3d f3 aa 14 3d da db fc 3b
       0.023223862 0.05599803 0.036295842 0.007716638
000090 af ea 24 3d 2d 1c 2b 3c e0 36 84 3c 83 94 78 ba
       0.040262874 0.010443729 0.016139448 -0.0009482579
0000a0 02 1e 04 bc 7e a0 b8 3c 1c 8d eb bc 97 b4 50 bd
       -0.008063795 0.022537466 -0.02875381 -0.050953474
0000b0 e1 53 12 bd bb b2 f4 bc b2 ec 1e bd 17 bf f7 3c
       -0.035724524 -0.029870382 -0.03879995 0.030242486
0000c0 ef a1 6a 3d 5c 77 38 3d b2 c7 7c 3c 08 64 d1 3a
       0.05728334 0.045035705 0.01542847 0.0015975246
0000d0 11 03 a1 bc fb 73 17 bc f2 6b 28 bc b1 01 dc 3b
       -0.019654782 -0.0092439605 -0.010279642 0.006714069
0000e0 3f 96 f7 bc 8f 01 fc bb fe 6f a5 3c 6e 28 50 3b
       -0.03022301 -0.0076906155 0.020195004 0.003176238
0000f0 92 4b a7 bc 26 a1 aa 3c ca a5 fe bc 39 a9 02 bd
       -0.020421777 0.020828795 -0.031084914 -0.031899665
000100 d5 12 84 bc a5 0e d8 bc 29 3c 28 3c d1 21 15 bd
       -0.016122261 -0.02637417 0.01026825 -0.036409203
000110 82 5c 59 bb 5f 6c a9 3c 9a c0 59 bc 43 eb f1 bc
       -0.0033166711 0.020681558 -0.013290549 -0.029531127
000120 9e ab 99 bb 56 6b af bc 90 19 8e 3c 53 3a df bc
       -0.004689648 -0.021413486 0.017346174 -0.02724949
000130 59 61 89 3c a4 9c 8a 3c 3a 70 50 3c 2a 0f f0 3c
       0.016770052 0.016920395 0.012722069 0.029304106
000140 3b 30 9f 3c fb fb 38 3d 16 97 a5 bc 2e 3c b4 bc
       0.019432178 0.045162182 -0.020213645 -0.022001352
000150 3c 66 83 3c 3f ec 28 3d 96 79 a1 3c 06 b2 0b 3d
       0.01603996 0.041240927 0.019711297 0.034105323
000160 c8 14 cd 3b 5a 53 54 3d 80 7a 30 3d 7f ce 43 3d
       0.006258581 0.051837303 0.043085575 0.047804352
000170 61 99 5e 3d 3a 6f 3a 3d d7 73 13 bd 33 5d 51 bc
       0.054345492 0.04551623 -0.035999145 -0.012778568
000180 5a 5a 4c 3c a0 0b a4 bb d1 ca 5a 3d a4 28 72 3c
       0.012472713 -0.0050062686 0.053416077 0.014780197
000190 27 31 3f 3b a7 54 77 3c 72 38 37 3c 99 63 f6 3c
       0.0029173584 0.015095866 0.011182891 0.030076789
0001a0 ae be 1c 3d 00 a3 19 3d 1a 76 1f ba d5 12 00 bd
       0.038267784 0.037508965 -0.0006082967 -0.03126796
0001b0 96 4a e8 3c e6 70 ae 3a f3 f1 e8 3c 74 14 7f 3c
       0.028355878 0.0013308793 0.028435683 0.015568841
0001c0 36 6c 57 3c 4d 0b ff bb f1 ec bf bc fb 81 06 bd
       0.013148358 -0.0077833296 -0.023428412 -0.032838803
0001d0 58 e4 cc bb 29 38 85 bb 1c bf 21 3d 39 bf 03 3d
       -0.0062528066 -0.0040655327 0.039488897 0.032164786
0001e0 8c 39 20 3d 05 f2 39 3d 16 40 b9 bc 08 7d 3b bc
       0.03911738 0.045396823 -0.022613566 -0.011443384
0001f0 5e dd be bc d8 17 98 3b 74 8c 44 3d 3f cd 87 3d
       -0.023298915 0.0046415143 0.04798551 0.066309445
000200 6d 29 a2 3d 97 3f 47 3d 5e 84 13 3d 96 54 64 3d
       0.079180576 0.04864463 0.036014907 0.05574473
000210 0b e5 02 3b 1e 94 58 3c 20 79 bb b7 e9 02 c3 3c
       0.0019972946 0.013218908 -2.234854e-05 0.023805099
000220 e6 d1 4e 3d 92 28 45 3c a4 eb c1 39 dc 10 56 3c
       0.050493143 0.0120335985 0.00036987395 0.013065543
000230 25 8f 2c 3c af 62 05 bb a6 f4 fa bc 63 9b 52 bb
       0.010532175 -0.002035301 -0.030634236 -0.0032136075
000240 b1 3b bc bc bd 66 af 3c b9 b9 7c bc ad 8b 3d bc
       -0.022977682 0.021411294 -0.015425139 -0.011568946
000250 06 6a c8 bb 78 01 09 bc f9 a3 6a bd 02 ae f1 bc
       -0.0061161546 -0.008362167 -0.057285283 -0.029501919
000260 7f e7 22 bc 4a 11 26 3b 9c 02 2b 3a 0f b0 9e 3b
       -0.009942888 0.0025339895 0.0006523521 0.004842765
000270 5a c1 33 bc d5 a6 21 3d e8 91 11 bc 14 75 d9 38
       -0.010971392 0.039465744 -0.008884884 0.00010369174
000280 4e 83 0f bd d6 d9 e6 3c 29 0c dd 3c 2d f6 cc 3c
       -0.03503733 0.028180044 0.026983337 0.02501973
000290 21 d4 52 3c 06 dd bc 3c 52 a4 96 3d 1b 35 1f 3d
       0.012867958 0.023054611 0.0735556 0.038869005
0002a0 c3 61 91 3c c8 b6 5c 3c da 01 8e 3c ab 7a 86 3d
       0.017746812 0.013471313 0.017334867 0.06566366
0002b0 17 bc 7e 3d b6 ca 94 3d b9 80 7a 3c c6 5a 81 bc
       0.062191095 0.072652265 0.015289479 -0.015790354
0002c0 3c f1 b1 3c e5 f9 1b bd 65 c1 1f bd 83 2e 92 bc
       0.021721475 -0.038080115 -0.039002795 -0.017844444
0002d0 b3 a4 7d 3c 09 6e 18 bd c3 1b 16 3d 0a 7f db bb
       0.015481162 -0.037214313 0.03664757 -0.006698494
0002e0 35 b0 19 3d ea 88 20 3d c3 28 31 3d b3 3a 3e 3d
       0.03752156 0.03919307 0.043251764 0.0464427
0002f0 81 17 38 3b 39 05 74 bc 9c da 01 3d 5c a5 ed 3c
       0.0028090181 -0.014893823 0.031702623 0.029009514
000300 48 57 bc bc bb 91 a5 3c 6b 29 32 3c 7c f8 00 bc
       -0.022990838 0.020211091 0.010874133 -0.007871743
000310 74 3b 7e ba b2 f4 27 bc 5a 35 4b 3d 2b 4b ea bb
       -0.000969819 -0.010251211 0.049611427 -0.007150074
000320 d7 2b 11 bd 57 87 0c bd 83 a6 28 bb 86 07 87 39
       -0.0354422 -0.034308758 -0.0025734014 0.00025754812
000330 d3 ff a5 bb 6f 79 c5 bc bc d9 ba 3b 06 9c 1f 3b
       -0.005065897 -0.024105756 0.0057022255 0.0024354472
000340 89 95 6a 3c 77 84 f7 3b db 39 f4 bc 2f 9f a6 3b
       0.0143178785 0.007553633 -0.029812744 0.005084894
000350 da 9e bc 3c b7 1c be 3c 8f ba e3 3a 3d b5 1e 3d
       0.023024965 0.023207052 0.0017374324 0.03874706
000360 d4 40 af 3d fa 58 b7 3d 6d 93 aa 3d a6 9a 19 3d
       0.08557287 0.08952518 0.083289005 0.037501
000370 b4 08 72 3d e8 a3 03 3d 14 82 af 3a e1 b6 38 bd
       0.05909033 0.032138735 0.0013390207 -0.045096282
000380 ab 12 15 bd 9f ec c7 3c 2e 1a b3 3c a7 5c 8e 3c
       -0.036394756 0.024404822 0.02186307 0.017378164
000390 37 53 ad 3b 21 37 27 bd d3 59 63 bb a5 02 78 3c
       0.005289461 -0.04082406 -0.003469099 0.015137349
0003a0 14 fd b1 3c 17 31 36 3c 77 76 c1 bc e3 ed d8 3c
       0.021727122 0.011120102 -0.023616059 0.02648062
0003b0 ff 8d 77 3b a1 d8 e2 bb 54 50 0e bd d1 dc 06 bd
       0.0037773845 -0.006922797 -0.034744576 -0.03292543
0003c0 31 0a 58 3d 35 6c 6d 3d ba 29 31 3d f1 f2 f2 3c
       0.052744094 0.057964522 0.043252684 0.02965686
0003d0 9d c8 29 3a f2 b9 e3 ba 3d da 2e 3a 38 7b 3f 3b
       0.0006476732 -0.0017374142 0.0006670093 0.0029217731
0003e0 58 46 15 3c e5 32 ce bc 72 a3 56 bc 0c 5f d1 3c
       0.00911101 -0.025170753 -0.013100492 0.025558017
0003f0 01 30 52 bc 65 51 e2 bb 12 0b bc 3c 94 4c 92 3b
       -0.012828828 -0.0069066756 0.022954497 0.004464695

bias f4 [32]
000000 83 74 84 3c 74 53 8d bd 23 47 bf bd 6c 7b 82 be
       0.016168838 -0.06900683 -0.0933974 -0.25484788
000010 8a 04 34 be 97 7b a7 bd 58 25 29 be 90 b2 dd bd
       -0.17579857 -0.0817787 -0.16518152 -0.10825074
000020 35 41 de bd 90 5a 94 bc 59 c6 ad be 2b be a5 3b
       -0.10852281 -0.01810959 -0.3394039 0.00505807
000030 2c 57 ee bd 74 4d c5 bc 53 3c 91 bd 18 18 92 bd
       -0.116377205 -0.024084784 -0.07091584 -0.07133502
000040 0c 5a 8b bd cf 36 97 bc 7d a9 e5 bd 64 10 08 bd
       -0.068042845 -0.018458752 -0.11213968 -0.033218756
000050 84 3a ac bd 40 fc 44 bd 7c 3c c6 bd 1d 64 17 3d
       -0.084095985 -0.048092127 -0.09679505 0.03696071
000060 4d 54 40 3c 29 45 1b be 0c de bb bd e9 35 b0 bd
       0.011738849 -0.15163101 -0.091732115 -0.086040325
000070 c5 03 b4 bd 38 da d4 3b 5e 3a 40 be 32 3c 36 bd
       -0.087897815 0.0064957403 -0.18772265 -0.044491

weight f4 [64, 32, 5, 5]
000000 15 85 3f bb ff 4d 21 bb 43 df d5 bc fb 93 6e bd
       -0.002922361 -0.002461314 -0.026107436 -0.058246594
000010 de dd 26 bd fa ac 11 3d f2 54 67 3c 89 da 4e 3b
       -0.040738933 0.035565354 0.014119374 0.0031563363
000020 9e 8d bc bc 08 a3 a0 3c 0f 98 09 bd 35 d1 c0 3b
       -0.023016747 0.01960899 -0.03359228 0.0058843144
000030 46 8b 3c bc 62 40 12 3d 97 97 a9 bb bc 67 33 bc
       -0.011507815 0.03570593 -0.0051755416 -0.010950025
000040 dc 23 1f bd c4 ec e8 bc 59 d8 37 bb 3c 29 f2 3c
       -0.038852558 -0.028433211 -0.0028052537 0.029560678
000050 8d 1f 69 bb ae 98 4d 3c 66 08 f4 3b d8 2f 17 3d
       -0.0035571784 0.012548609 0.0074472902 0.03691086
000060 7b c6 7a 3b a3 22 26 bd 28 47 f0 bc 68 81 6f bc
       0.0038265276 -0.040560376 -0.029330805 -0.014618255
000070 43 bc ca bc 29 af e3 bc ac 72 44 3d fa 1b dd 3a
       -0.024747973 -0.027793484 0.047960922 0.00168693
000080 7d 3c 34 3a 0e c8 bf bb 8a d3 c3 bc 27 ce da 3c
       0.00068754685 -0.005852706 -0.02390458 0.02670963
000090 e6 c4 c2 ba 24 92 46 3c fd c5 1d 3c 3f 06 ad bc
       -0.0014859706 0.012119804 0.009629724 -0.021121142
0000a0 78 1b a9 bc 4a a5 71 3c 5a b1 25 bd 79 92 ff bc
       -0.020642981 0.014748881 -0.04045234 -0.031197773
0000b0 19 3f 0e bc 5b 5f 2e 3c 34 57 6f bc df fc 79 bd
       -0.008682036 0.010642852 -0.014608193 -0.061032172
0000c0 52 ea 29 bc 24 ca 41 bc 77 af 95 bb af aa 15 bd
       -0.010370808 -0.011827979 -0.004568036 -0.03653973
0000d0 76 87 d3 3a 29 2a b8 bc c6 e5 23 3d 48 24 bd 3c
       0.0016138393 -0.022481041 0.04001405 0.02308859
0000e0 b7 22 46 bd 7b ca 89 3b 30 3e cc 3c 1f e4 8d 3c
       -0.04837295 0.0042050458 0.024931997 0.01732069
0000f0 68 25 9a 3c ad 4b 5b 3d cb c1 28 bd 30 ce af 3c
       0.018816665 0.053538967 -0.04120044 0.021460623
000100 12 80 ff 3c be c5 5e bd ba 0b 5b 3b 28 fe 59 3a
       0.031188998 -0.0543878 0.0033423738 0.00083157653
000110 d4 a2 48 bd 0a a2 d3 3c 26 63 aa 3c 1c ca 0c bd
       -0.04898341 0.025834102 0.02079923 -0.034372434
000120 d2 63 51 3c 29 77 83 3c 3f 82 fe 3c 7a ec 21 bd
       0.012780147 0.01604803 0.031067966 -0.039532162
000130 12 df fc bc de b5 26 bd da 47 57 3d 72 7b 29 bb
       -0.030868087 -0.040700786 0.052558757 -0.0025860933
000140 b0 23 08 3c 5b 1d 56 bd 0f ea 02 3c dc d8 86 3d
       0.00830929 -0.05227409 0.007990374 0.065843314
000150 24 56 8f 3d 4e 50 42 bd ef c6 45 bd f3 e6 54 3d
       0.06998852 -0.047439866 -0.04828542 0.051978063
000160 ee 2d 0a 3d ca 84 c0 bc 39 4d 83 3c 80 80 cb 3c
       0.03373521 -0.023500819 0.016028034 0.024841547
000170 f5 6e 58 3c 30 4c cd 3c 5e 98 85 3c fb 4b 41 bb
       0.013210048 0.025060743 0.016308006 -0.002949475
000180 ec 19 0d 3c 9f ea c6 3c 67 f6 a6 bc 1c a7 11 3d
       0.008612137 0.024281798 -0.020381166 0.03555976
000190 cf 54 0a 3d 96 ca 8a 3d cc ba 9f 3d c7 2d 26 bd
       0.033772286 0.067769215 0.077993006 -0.040571
0001a0 b1 7a 44 bd b6 19 3b bb 7f 78 0b 3d 84 37 26 3c
       -0.04796857 -0.002854926 0.03405046 0.010145072
0001b0 cc 2a d4 3c b1 27 7f bc 03 af 1a 3c ed 49 cf 3b
       0.025899313 -0.015573428 0.00944114 0.0063259513
0001c0 b8 a4 bb 3c 23 3e 43 3a 88 01 04 3c 90 44 01 3d
       0.022905692 0.0007447919 0.008057006 0.031559527
0001d0 3e a8 e4 3c c5 96 0c bc 0e e9 4e 3c c1 41 e2 3c
       0.027912255 -0.008580868 0.012628807 0.027619245
0001e0 60 02 5e bc ad 72 21 3d 8b c1 0a 3d 0d fd ee 3c
       -0.013550371 0.039416004 0.033875983 0.029173398
0001f0 59 c6 86 3b ab 7a 9b bb 49 08 4e 3d 41 35 40 3c
       0.0041130004 -0.004744848 0.05030087 0.011731447
000200 93 02 d8 bb 0a 71 d0 bc 89 7d 67 bd b5 4a bc 3d
       -0.0065921037 -0.025444526 -0.056516204 0.09193937
000210 d8 ad 2e 3d df 21 fc bc c6 09 d3 3b 66 8a 13 bd
       0.04264626 -0.03077787 0.006440374 -0.03602066
000220 e7 54 79 3a 3a f4 28 bc d3 d3 8f bc 69 fd e0 3b
       0.00095112476 -0.010312134 -0.01755706 0.0068661463
000230 6a aa a1 bc bf 14 35 3b e7 3e 7b bc cd 72 46 bd
       -0.01973458 0.0027630774 -0.015334821 -0.048449326
000240 cb c3 88 bc c8 92 fc 3c f8 66 47 3d ee a0 df bc
       -0.016694924 0.03083171 0.048682183 -0.027298417
000250 e8 ec d1 3c a5 dd f7 bc ed 59 0a bc 21 9e 35 bd
       0.025625661 -0.030257056 -0.008444292 -0.044340257
000260 d3 6c b2 bb 5b 58 28 3c 51 7e 2d bd ef 1e 7a 3c
       -0.0054451018 0.010274972 -0.042356793 0.015266164
000270 6e 72 9d ba 3a c7 44 3b 46 f3 25 bd 85 6d 8d 3c
       -0.0012012252 0.0030025975 -0.040515207 0.017264137
000280 26 e0 30 bb a5 83 7a bd 8b 33 81 3b c8 b1 dd bc
       -0.0026989072 -0.061160702 0.003942912 -0.027062312
000290 e6 b4 c5 3c 75 1d 0a 3d c1 f7 28 bc a5 f4 1d bc
       0.02413411 0.0337195 -0.010312975 -0.009640847
0002a0 99 fd a4 3c 3e 38 d0 bc 57 72 39 bd f2 be 4b bd
       0.020140456 -0.025417443 -0.04527506 -0.049742647
0002b0 3d 27 a5 3c c3 ef e9 bb 87 1f 31 3d a6 07 66 bc
       0.020160312 -0.0071391775 0.043242957 -0.0140399095
0002c0 e3 8f 6f bd 0b 56 3e 3c ab 25 cf 3c 4b 85 e9 bc
       -0.05848683 0.011617194 0.025286516 -0.028505942
0002d0 84 52 17 bd df 32 18 bd 83 a0 20 3c d8 2b ee bc
       -0.036943927 -0.03715789 0.009803894 -0.02907364
0002e0 7e bf 6b 3c 23 37 ca 3b ce 7e 27 bd 5f b2 aa 3b
       0.014388917 0.0061711236 -0.040892415 0.005209252
0002f0 b4 4b 16 3d be 42 02 bc 34 ee 1b 3c 0e fa f0 bb
       0.03669329 -0.007950483 0.009517241 -0.0073540276
000300 98 70 98 3c 4e 9e 4e 3c 98 7f 96 bb fc c7 09 3c
       0.018608376 0.012610985 -0.004592847 0.008409496
000310 fb cb 25 3d 32 74 eb bb 1e 6e f2 bc 57 cd c3 bb
       0.040477734 -0.0071854824 -0.029593524 -0.005975406
000320 23 2f e2 3b 38 5f aa bb 42 ee e4 3c 05 75 86 bc
       0.006902592 -0.0051993392 0.027945641 -0.016413221
000330 bb 60 21 bc a3 57 e5 bc 35 3f 5a bc e2 d6 e6 bb
       -0.0098497225 -0.02799589 -0.013320734 -0.007044659
000340 a0 d1 c3 3c 6f 79 91 bc 17 ed a4 3b 01 eb ce bb
       0.023903668 -0.0177581 0.005033146 -0.0063146357
000350 f2 be 8b 3d 2f a4 16 bd d2 72 aa 3c a9 9b ed 3c
       0.06823529 -0.03677767 0.020806704 0.029004889
000360 90 7b b4 bc f1 f6 06 3d 2f 11 89 3c d0 74 83 bc
       -0.022031575 0.032950345 0.016731827 -0.016046911
000370 cb c1 17 bd ab e3 8b 3c 91 81 46 3b 81 47 e6 3c
       -0.03705005 0.017076334 0.003028963 0.028110268
000380 55 36 38 bc a4 38 a1 3a aa 39 81 bb 8d 90 9c bc
       -0.0112434225 0.0012300205 -0.0039436417 -0.019111896
000390 2c 6d 5e 3c 6c 47 0a bd 20 82 14 bc 48 a9 f0 bc
       0.013575833 -0.03375952 -0.009064227 -0.029377595
0003a0 9a e2 1e 3d 5b ff bb 3a 39 6c 50 3d ed 4e 9f bc
       0.038790323 0.001434307 0.05088446 -0.019446814
0003b0 0d 70 93 bc 95 41 42 3d 8b 8b 3b bd 4b 2a d7 3c
       -0.017997766 0.047425825 -0.045787375 0.026265284
0003c0 9e b1 78 bd ad 65 03 bc 2c 99 0a bd 91 51 16 bd
       -0.060716264 -0.008019847 -0.033837482 -0.03669888
0003d0 74 85 2f bd f6 c4 b1 bc bc 1b b1 bc 80 10 ca 3c
       -0.04285188 -0.021700364 -0.02161967 0.024666071
0003e0 fc 0d 58 bc e0 8e 65 bc 44 f2 86 3c bf 53 40 3c
       -0.013186928 -0.014011115 0.016472943 0.011738717
0003f0 e0 9b bf bc 8d cf d9 3c bd f3 0f bd f1 c8 2c bb
       -0.023389757 0.026588226 -0.035144556 -0.0026364888

bias f4 [64]
000000 bf e9 5b bd 96 80 6f bd 4e 8f e9 bd f8 c1 1d bd
       -0.053689715 -0.05847224 -0.11404286 -0.03851506
000010 e9 00 08 be 23 9f 74 bd 3b 87 75 bd d5 30 50 bd
       -0.13281597 -0.059722077 -0.05994342 -0.05082782
000020 d6 21 78 bd 47 3d b7 bd 9e c2 3e bd d0 17 d2 bd
       -0.060579143 -0.089472346 -0.04657232 -0.10258448
000030 68 6f 5b bd a1 1f 3d bd d0 b3 a1 bd 51 d8 9d bc
       -0.053573042 -0.04617274 -0.07895625 -0.019268187
000040 91 90 7f bd 4c 3f 30 bd f5 be 70 bd 94 ff d5 3c
       -0.06239373 -0.043029115 -0.05877586 0.026122846
000050 d1 25 89 bd 42 63 12 bd 85 ee b6 bd d8 cf 6a bc
       -0.06696666 -0.03573919 -0.08932213 -0.01433178
000060 57 a2 14 be 48 1c f8 bd 90 4b 9d bd b1 1c b3 bd
       -0.14515053 -0.12114769 -0.07680428 -0.08745707
000070 a0 2b 5a 3a 30 9d 37 bd f3 e1 cb bc 7f 55 bc bd
       0.00083225407 -0.04482764 -0.024888014 -0.091959946
000080 4b 4e dc bc 6a f6 23 bd 9b 1d d4 bd 32 2f 4e 3d
       -0.026892802 -0.04002992 -0.10357209 0.050337978
000090 10 3c 99 bd 77 e5 d1 3c ce 11 d7 bd 4f dd 19 bd
       -0.07482159 0.025622113 -0.10501443 -0.037564572
0000a0 8e 58 b1 bd fc ae 0c be 4d 3a 40 bd c6 fe 99 bd
       -0.086594686 -0.13738626 -0.0469306 -0.07519297
0000b0 fb 93 3d be a1 ed 74 bd 2c bc 4d bd ad 04 87 3b
       -0.18513481 -0.059796933 -0.050228283 0.0041204304
0000c0 d3 dd 72 bd 16 ad 19 be 73 08 40 bc fd a5 98 bd
       -0.05929358 -0.15007433 -0.011720764 -0.07453535
0000d0 28 73 3e 3c ff e7 0f bd ff 3b 0e be bd 02 ed bc
       0.011624135 -0.035133358 -0.13890074 -0.02893197
0000e0 cb 53 9a bd de 52 20 bd 46 06 a3 3b 43 71 cd 3c
       -0.075355135 -0.03914153 0.004975113 0.025078421
0000f0 02 74 d4 3c a6 fd 91 bb b9 93 62 bd 72 6a ca ba
       0.025934223 -0.004455286 -0.05531666 -0.00154431

weight f4 [64, 1024]
000000 61 4b 77 bc 74 7b 2c 3d ce fc c8 ba 38 0b 0c 3d
       -0.015093655 0.04210992 -0.0015334131 0.034190387
000010 1c e4 1c 3d 73 04 59 3c 6d 0c df 3c db 91 b6 bc
       0.03830348 0.01324569 0.027227605 -0.022286346
000020 61 23 59 3c 16 91 37 bd 9d 42 0c 3c 5e a8 4a bd
       0.013253064 -0.0448161 0.008560804 -0.049476974
000030 38 72 19 bd ee f2 05 bd ed f4 bd 3c 41 67 b2 bb
       -0.037462443 -0.03270238 0.023188079 -0.0054444377
000040 6b cb 34 bc 5e 56 51 ba 46 af f3 bc b5 86 08 3d
       -0.011034827 -0.0007985587 -0.029746663 0.03333159
000050 31 c7 19 3d 34 d5 f3 bc e9 83 2e 3d d6 78 27 3d
       0.03754348 -0.02976475 0.042606268 0.040886723
000060 35 71 11 3d d7 f1 bc 3b 78 0c e4 3c 90 b5 4a 3d
       0.035508353 0.0057661342 0.027837977 0.049489558
000070 5f ab 2b 3d f3 94 b0 3c f1 e6 04 3d d7 1d 24 bc
       0.04191148 0.0215554 0.032446805 -0.01001688
000080 ea 41 22 3c c6 99 0b bb 0f 58 1f bd ec 1b 83 bc
       0.00990341 -0.0021301373 -0.03890234 -0.016004525
000090 5d 1d ad 3c 9d 41 91 bc 1f e6 4e 3c 17 29 00 bd
       0.021132166 -0.017731482 0.012628107 -0.031289186
0000a0 3b 97 af 3c e9 ea 81 3c 30 a6 e1 bc a7 44 32 3d
       0.021434417 0.015859084 -0.027545065 0.043522503
0000b0 00 b7 b9 bb 9a ad 89 bc 68 88 73 bc 22 6c c0 3b
       -0.0056675673 -0.016806412 -0.014864065 0.0058722654
0000c0 d3 1d 44 3c 1a 3c e7 3b 9e 45 46 3d 69 21 81 3c
       0.011970001 0.007056725 0.048406236 0.015763002
0000d0 1c ad 9a bb 9c b3 f6 bc 03 58 b4 3b 5b b0 95 3c
       -0.0047203433 -0.030114941 0.005503656 0.01827257
0000e0 65 95 79 3d 0f 93 3b 3d e2 59 22 3d fd bd 7c bc
       0.06093349 0.045794543 0.0396365 -0.015426156
0000f0 47 ce 54 3d 94 e8 29 bd 1b 46 0b bd 59 a5 96 bc
       0.051954534 -0.04148157 -0.034002405 -0.01838939
000100 27 94 35 3a 4b c4 a5 bc 2f 48 7c bd c0 d1 e9 3c
       0.00069266785 -0.020235201 -0.061592277 0.0285424
000110 1d 83 f3 3c 51 cf 4a bc 00 af dd 3b 5f f5 16 bd
       0.029725606 -0.01237853 0.0067652464 -0.036855098
000120 3a 9d 03 ba a5 6c 02 bd f3 b1 36 3d 49 f8 d2 bb
       -0.0005020682 -0.031841893 0.0446033 -0.0064382893
000130 af 38 1b bd 1d 0a 3e 3c f7 3d 21 3c 31 1f 70 3b
       -0.037895855 0.011599091 0.009841434 0.0036639685
000140 8f 83 ea 3c 65 63 6c 3c b9 53 f3 3c 6c 13 ec 3b
       0.028627185 0.014427994 0.029703008 0.0072044637
000150 48 85 9d bc f7 37 09 bd b9 65 73 3d 99 2f 79 bb
       -0.019228593 -0.033500638 0.059423182 -0.0038022755
000160 bb de 2b bd 54 6d 00 bc 71 9c 8f bc fc 23 f3 bb
       -0.04196046 -0.007838566 -0.017530652 -0.007420061
000170 89 33 00 bc 0d 65 23 bb 10 8b 5a bc 26 3d 9a bc
       -0.007824787 -0.0024932057 -0.013338819 -0.018827986
000180 8c ee f0 bb ac 78 a8 3c e4 6f b7 bc fa 03 b5 bc
       -0.0073526558 0.020565353 -0.02239222 -0.022096623
000190 53 0c 07 bc 9e 2d 80 3c 31 f3 6a 3b 27 d8 31 3b
       -0.008242684 0.015646752 0.003585052 0.0027136893
0001a0 c5 b1 15 bd d3 da 2b bc ea 23 b8 bb 6b 6f 82 3c
       -0.036546487 -0.0104891835 -0.0056195157 0.015922269
0001b0 b9 07 a3 bc 81 40 16 bb 60 d5 01 bc d4 6f 2c bd
       -0.019901143 -0.002292663 -0.007924408 -0.042098835
0001c0 42 4e 40 3d 9c e2 67 bd ac d8 49 bd 4b 0f 0c 3d
       0.046949632 -0.056612596 -0.0492789 0.034194272
0001d0 25 56 98 3c 5b 8c a9 3c 97 0d 6b bd 44 e4 15 3d
       0.018595764 0.02069681 -0.057386007 0.036594644
0001e0 d3 bc bd 3c 2d 32 93 3c 2b 62 75 bc 9c 40 0e 3c
       0.023161327 0.017968262 -0.014977018 0.008682396
0001f0 18 65 4e 3d cd f7 a1 3c 8c 09 e8 3c e8 73 de 3c
       0.05038938 0.019771481 0.028324865 0.027154878
000200 f8 76 3b bd 2e 6c 2f 3b cc 61 0f bc 84 22 b8 bc
       -0.045767754 0.002676736 -0.008751344 -0.022477396
000210 e2 35 d1 3c 06 51 83 bc cc b6 e7 bc 39 1b 78 3c
       0.025538389 -0.016029846 -0.028285407 0.015143209
000220 c2 20 94 3c 25 28 26 bc 25 0a 66 bc 2a 06 07 bd
       0.018082026 -0.010141407 -0.014040505 -0.032964863
000230 b6 49 21 bd 1a e4 49 ba 80 0a a6 bc a9 48 a4 bb
       -0.039376937 -0.0007701531 -0.020268679 -0.0050135446
000240 20 42 9f 3c 14 c5 98 bc a3 4e ff bc 7d d9 85 bc
       0.01944071 -0.018648662 -0.031165427 -0.016339058
000250 e2 a1 09 b9 44 3e 05 bd de 2c 0a bd f7 1b c2 3c
       -0.00013125644 -0.032530084 -0.033734195 0.023694975
000260 b5 72 fc bb 97 2a 89 bb f9 e9 66 3c 8b aa c0 3c
       -0.007704104 -0.0041859853 0.014093869 0.023518821
000270 f1 62 6b 3c bf 77 fc 3c 30 9f 91 39 d1 8b 60 3c
       0.014366851 0.030818818 0.0002777516 0.01370521
000280 45 57 7a 3c 44 ec 34 3a f8 f3 43 bd ea fc 66 bd
       0.015279596 0.00069016614 -0.04784009 -0.05639354
000290 27 66 94 3c 58 2b 8c bc 17 aa 32 3c 6d d3 9c bc
       0.018115116 -0.017110512 0.01090481 -0.019143784
0002a0 54 a0 1a bd bb 22 c2 3c 27 18 ca bb 9a 95 95 bc
       -0.037750557 0.023698201 -0.00616743 -0.018259812
0002b0 54 34 28 bc 0d d0 c4 bb 34 cf 14 ba 67 8f f1 bb
       -0.010266382 -0.006006247 -0.00056766276 -0.007371831
0002c0 2b 5f 90 3a 31 0b 71 bc 4a 8c 83 bc ec ff 94 3c
       0.001101469 -0.014712141 -0.016058106 0.01818844
0002d0 b2 3e 2a 3d 8b 8e 08 3d 39 26 0e bd 39 71 db bb
       0.041563697 0.033339065 -0.03470442 -0.006696847
0002e0 43 14 9d bc 60 c2 bd ba d9 7d 82 3c 68 77 09 3d
       -0.0191747 -0.0014477484 0.01592915 0.03356114
0002f0 e7 ca 19 bc ee f5 2b 3b f5 8f 38 3c 69 c7 23 bd
       -0.009386755 0.0026239115 0.011264791 -0.039985094
000300 77 15 9f bb 75 c3 0a 3c f9 ac c9 3b 23 b1 57 3c
       -0.0048548537 0.008469452 0.006154653 0.013164791
000310 91 54 b1 3b 99 82 c5 bd 1e 78 aa bc 1c 91 1d 3d
       0.0054116924 -0.0964405 -0.02080923 0.038468465
000320 79 f9 99 3c 7d e0 22 3d 38 9a 27 bd 27 78 94 3c
       0.018795716 0.03976487 -0.04091856 0.0181237
000330 54 7c 71 bc d4 18 aa b9 47 30 30 3d 50 71 1d bd
       -0.014739115 -0.00032443425 0.04301479 -0.03843814
000340 0a 37 05 bc a1 90 1d 3d 12 b3 ff 3b aa 0f 61 3d
       -0.008130798 0.038468007 0.0078033293 0.05494658
000350 67 12 dc 3a de 7e fd bc 0e 6c 0c bd 95 ee d2 bb
       0.0016790152 -0.030944284 -0.034282736 -0.0064371326
000360 f2 d2 1b 3d 84 b0 60 3a cb 54 22 bc a0 08 20 3c
       0.03804297 0.0008571225 -0.0099079115 0.009767681
000370 15 78 0a bd 5d b0 83 bb 6f 58 96 bc d3 bf d7 bc
       -0.033805925 -0.004018827 -0.018352715 -0.026336586
000380 89 58 42 3c f4 f4 a5 3a d0 f8 af 3c 54 b6 37 bc
       0.011861929 0.0012661503 0.021480948 -0.011212904
000390 40 b3 f3 bc 19 e1 92 3b 12 9f 2b bd 32 ac f1 3c
       -0.029748559 0.0044824 -0.04189975 0.029501054
0003a0 9d 94 bb 3c db 2a 64 3c 78 d1 21 3d e7 7f 2e 3c
       0.022898013 0.013926233 0.039506406 0.0106506115
0003b0 1b 8a 0b 3c 9d 21 7e bc 7d c4 2e 3c 42 1b fe 3b
       0.008516814 -0.015510944 0.010666964 0.007754714
0003c0 07 70 da 3c 3b 68 f5 3a f7 b7 06 bc 8e bd b5 3b
       0.026664747 0.001872308 -0.008222572 0.0055462783
0003d0 bc a7 e6 3c a7 3d f5 bb 54 7d 59 38 a1 6c c4 bb
       0.028156154 -0.007484156 5.1853553e-05 -0.005994395
0003e0 82 6d c7 bc 78 e4 70 bc b8 1c 91 bc 99 cd 2e 3d
       -0.02434421 -0.014702909 -0.01771389 0.042676542
0003f0 4c 65 b9 bb 43 8f b7 3b c5 b7 37 bc ac ac 98 3c
       -0.0056578275 0.005601795 -0.011213248 0.018637024

bias f4 [64]
000000 75 2a 87 3b 87 65 80 3c 77 69 a6 bc 10 7c 53 ba
       0.0041249343 0.015673412 -0.020313961 -0.0008067498
000010 db 72 c7 ba d1 ff f7 3b 9e 05 39 3b 6c 9c 0c bd
       -0.0015216725 0.0075683375 0.0028232108 -0.034328863
000020 a9 d6 88 3c a7 68 20 bd 4b 72 66 3d 29 e8 6c 3d
       0.01670392 -0.039162304 0.056261342 0.057838593
000030 6d 61 1e 3d aa 2a 36 3c cd f3 ce bc 21 91 d6 bc
       0.03866713 0.01111857 -0.025262738 -0.02619225
000040 01 cb fb bc 54 67 fc bc 04 40 24 bd fb 8c 5f bc
       -0.030736448 -0.03081099 -0.040100113 -0.013644452
000050 4d 79 53 bd cd 4a f1 bc ba f5 22 3d b7 3a 2d bb
       -0.051629353 -0.029454613 0.039785124 -0.0026432702
000060 98 83 24 bd 91 22 e0 3a 50 c4 85 bd 2e 72 1e 3b
       -0.04016456 0.0017100145 -0.06531584 0.0024176943
000070 80 3b a1 bc e4 6c 67 3d 3b b2 21 bd 3d 91 53 bd
       -0.019681692 0.05650033 -0.039476614 -0.051652182
000080 7d 34 d5 bc 8b 4f d4 3c 96 a2 37 bd 48 63 00 3c
       -0.026026005 0.025916835 -0.04483279 0.0078361705
000090 ec b3 35 3d 28 88 8e bc d2 3a 27 3d b2 bb 66 3d
       0.04436104 -0.017398909 0.04082758 0.056331344
0000a0 a5 f2 7b 3c c4 34 ff 3c bb 0e 37 3d 72 1d a8 3c
       0.015377675 0.03115309 0.044691782 0.020521853
0000b0 0f ca 22 3d 76 b7 03 bd 85 12 1d 3c e1 8e 30 3d
       0.03974348 -0.032157384 0.009586935 0.04310501
0000c0 f4 09 cb 3c 4d e1 57 bd ca db a9 3c 4e 70 a6 bc
       0.02478502 -0.052705098 0.020734686 -0.020317223
0000d0 9b f6 57 bd 6a 8c 02 bd c6 3f 21 3d 0b 69 11 3d
       -0.052725416 -0.03187219 0.03936746 0.035500567
0000e0 73 17 8e 3c ca 79 ab 3c 68 0d ed bc bf ff 2c bd
       0.017345166 0.020932097 -0.028937057 -0.042236086
0000f0 e3 18 e1 bc a4 1f 0c bd 3c 84 0a bd 61 ed 0d 3c
       -0.027477687 -0.034209862 -0.033817515 0.008662553

weight f4 [10, 64]
000000 e5 ab b8 bd 63 5a 73 be 94 b0 e4 3d 5b 67 33 bd
       -0.09017161 -0.23764949 0.11166492 -0.04379974
000010 18 d7 12 3e 33 2b b3 3d 12 a1 23 be fd ce d5 3c
       0.14339864 0.08748474 -0.15979412 0.026099676
000020 0b b8 7a be 72 7d 39 be 53 ad 65 be 06 31 02 bd
       -0.2448427 -0.1811426 -0.22429399 -0.031785034
000030 5e a3 37 be 59 da 72 bd a9 62 a9 3d 49 be 09 bc
       -0.17933413 -0.059290264 0.08270771 -0.008407184
000040 dd 94 47 3e c7 c8 94 bd 1f d8 7d 3e af 80 80 bd
       0.1949038 -0.07264858 0.24789475 -0.062745444
000050 bd e7 45 3e 1e 84 05 bc 45 e6 16 3e b4 58 4a be
       0.19326682 -0.008149175 0.14736278 -0.197604
000060 c5 ae 87 bd c8 6e 37 3e 22 65 11 3e d4 03 5a be
       -0.066251315 0.17913353 0.14198735 -0.21290523
000070 d7 cd 94 3e 0c ef 4d be 87 7c 85 be d7 97 c5 3c
       0.29063293 -0.2011072 -0.2607157 0.024120254
000080 fa 02 8f 3e d0 44 7a be e7 31 1c bd 89 89 1d be
       0.27931958 -0.24440312 -0.038133528 -0.15384497
000090 b2 75 a0 3c 80 a4 50 be c6 3f e4 bd c4 f7 5c 3d
       0.019587371 -0.20375252 -0.11144976 0.053947225
0000a0 35 9a bb bd 2b 97 39 be 78 cd b2 be a8 26 0e be
       -0.09160272 -0.18124072 -0.34922385 -0.13881934
0000b0 1d 5e f3 3d 1f 06 dd 3d 9a 8c 25 3a 13 bf 3c be
       0.11883185 0.10792183 0.0006315202 -0.18432264
0000c0 da be a6 3d 25 c8 43 3e 59 20 1b 3e 3f 41 a0 3e
       0.08141871 0.19119318 0.15149058 0.3129978
0000d0 10 ae 85 3d 0d e2 a4 3e 1f 89 42 3d 68 e4 d7 bd
       0.065273404 0.32203713 0.04749405 -0.10541612
0000e0 dc 10 51 3d 17 60 16 3e 3c 6f 0b be f2 d9 0a 3e
       0.05104147 0.14685093 -0.13616651 0.13559702
0000f0 ec c2 02 3e a8 91 55 3e 0c b1 88 3d 04 06 9a be
       0.1276967 0.20856345 0.06674394 -0.30082715
000100 5f 18 3a 3c 67 b0 7d 3e f4 95 c8 be 69 5a ff 3b
       0.01135835 0.24774323 -0.39176905 0.00779276
000110 a7 a8 af be 75 83 57 be d5 0e 8c be d1 e1 35 be
       -0.3430836 -0.2104624 -0.27355066 -0.17761923
000120 6f d0 51 be 9d 93 4a be 6b c3 02 be 07 16 13 3d
       -0.20489667 -0.19782872 -0.12769859 0.03590968
000130 aa fc 5b 3e 90 80 fc bc 07 cb e2 3d ee 5a 84 be
       0.21483102 -0.030823022 0.11073881 -0.25850624
000140 1b ec 3a 3e 0c c3 a9 3b 0e 28 4d be eb cf a9 3e
       0.1825413 0.005180722 -0.20034811 0.3316644
000150 96 fd a5 bd fa 2e 52 3e 64 1e 9c 3e 4b 8e 9d 3e
       -0.08105008 0.20525733 0.30491936 0.30772623
000160 a6 6d 33 3e 68 b0 60 be e9 20 42 3e a2 d5 29 be
       0.17522296 -0.21942294 0.18957867 -0.165854
000170 2d c0 57 be 38 b0 92 be b2 39 79 be a8 33 6f 3e
       -0.21069403 -0.2865007 -0.24338415 0.23359549
000180 ba f0 63 be bf e2 7c be 38 b9 c8 3e 72 13 9e bc
       -0.22259799 -0.24695872 0.3920381 -0.019296382
000190 4b 50 91 bd ce 43 c1 bd 47 1d f2 bc 64 d9 45 3e
       -0.07095393 -0.09436761 -0.029554976 0.19321209
0001a0 1e 62 18 3d 88 e2 1f be b4 fc c1 39 63 55 c8 3d
       0.037202947 -0.15613759 0.00037000107 0.09781911
0001b0 40 98 63 bd f6 12 3f be cc 4d c0 be f3 35 0b 3e
       -0.05556512 -0.18659577 -0.37559354 0.13594799
0001c0 2e d5 3b be bd 35 99 3d 58 ca 9a be 00 0c 4b bc
       -0.1834304 0.07480953 -0.302325 -0.012392998
0001d0 9c 98 83 be 2e 76 f8 bc 31 e0 ca 3c 31 50 89 3d
       -0.2570237 -0.03032979 0.024765106 0.067047484
0001e0 e0 4c 30 be 00 10 6b be 55 75 7e 3e 5d bc 61 bd
       -0.17216825 -0.22955322 0.24849446 -0.055111278
0001f0 a7 62 7b be 0b ef 5a 3d 27 4a 55 3d f4 aa 91 be
       -0.24549352 0.053450625 0.05207267 -0.2845074
000200 4d cf ef bd c4 ca b5 bd c7 d2 a9 3e 17 54 ec bc
       -0.11709461 -0.08876565 0.33168623 -0.02884869
000210 61 e7 77 3e 7c 5f 92 3e 93 cb eb 3d c3 60 be 3d
       0.24209358 0.28588474 0.11513438 0.092957996
000220 0a b8 8c 3e 68 2a 58 3e 0a db e2 bd 70 66 82 be
       0.2748416 0.21109927 -0.11076935 -0.2546878
000230 a2 a9 7f bc aa 6c 34 3d 94 db 62 3e 21 2c 2e bd
       -0.015604408 0.044048943 0.22154075 -0.042522553
000240 f4 60 51 be 1f 06 22 3e 2f fa 04 3e 29 5c 2f be
       -0.20447141 0.15822648 0.12986062 -0.17125
000250 d4 e8 81 3e 74 80 20 be f9 56 47 3c 18 f4 bd 3d
       0.25372946 -0.15674001 0.012166732 0.09275073
000260 81 df 59 be bf b0 7a 3e 8b c3 93 be f9 e7 c9 3d
       -0.21276666 0.24481486 -0.28860125 0.098586984
000270 91 ae 23 3e 3f f2 3b be 49 65 28 3c f3 b9 46 be
       0.1598456 -0.18354128 0.0102780545 -0.19406871
000280 2f 2e 8f be d3 07 74 bd d4 d6 0b 3c 30 ce 36 be
       -0.27964923 -0.059577774 0.008535106 -0.17852092
000290 73 38 43 3e b5 d0 82 3e 5f b1 0c be 7f c6 8a 3d
       0.19064502 0.25549856 -0.13739537 0.067761414
0002a0 54 38 60 3e 8f a4 73 3e 7d a6 1f 3d 5b 1f 95 bd
       0.21896487 0.23793243 0.038977135 -0.07281371
0002b0 77 e1 8b 3c a1 75 b8 bd 1a df 39 3e bc 67 30 3e
       0.017075283 -0.09006811 0.18151513 0.17227072
0002c0 04 c0 44 3c 26 ca 84 bd ba 66 3c bd c6 59 b4 3d
       0.012008671 -0.06483869 -0.045996405 0.088061854
0002d0 e9 40 30 3e 4c 5b 67 3e 19 86 40 be cb e9 09 be
       0.17212261 0.2259342 -0.18801154 -0.13468091
0002e0 9f 80 16 bc a6 fb 0d be 6a 9a 44 bd d9 6a 2d be
       -0.009185939 -0.13865528 -0.047998823 -0.1693529
0002f0 4f ed 5d 3d 61 ee 81 3e d4 81 41 3e 0c d6 8e 3c
       0.054181393 0.2537718 0.18897182 0.01743605
000300 4b ac eb 3c 15 a1 bd bc fb b1 55 3e be 61 a3 bd
       0.02876868 -0.023148099 0.20868675 -0.07977627
000310 3f c2 a0 bd 69 fc 22 bd a1 44 68 3e dc 2a b9 bd
       -0.078495495 -0.0397915 0.2268243 -0.09041378
000320 2e 6f f5 3d 72 40 99 3d 22 d6 0f be b0 ff b8 bd
       0.119840965 0.07482995 -0.14046529 -0.090331435
000330 6f 39 0a be 5f 9b 4e 3e f7 29 88 be 10 d6 c3 3d
       -0.13498472 0.20176457 -0.26594517 0.095623136
000340 11 b5 59 3d 23 74 14 3d 04 a3 de bd 8e 46 67 bd
       0.053151194 0.03624357 -0.108709365 -0.05646377
000350 c3 76 12 ba dc 62 89 bd b6 20 48 be 0e 3a ad bd
       -0.0005587155 -0.06708309 -0.19543728 -0.08458339
000360 56 2c 07 bc 49 1c a4 bc b6 41 6d 3e 8c 1e 06 be
       -0.008250317 -0.020033019 0.23169598 -0.1309759
000370 30 bd 04 3e 0d b4 6f 3e cc aa f4 3d a9 77 fe bd
       0.12962794 0.23408528 0.119466394 -0.12425167
000380 2a 0c 22 be 85 5b 74 bb 55 10 ef 3c b8 ef ba bd
       -0.15824953 -0.0037285995 0.029182592 -0.09127754
000390 11 36 5a 3b 5a 21 8a bd 17 68 52 be 2d b9 9a be
       0.0033296386 -0.067446426 -0.2054752 -0.30219403
0003a0 e4 f7 2b be da ce 6e bb db 26 85 3e 32 98 84 3e
       -0.16793782 -0.003643921 0.26006207 0.25897366
0003b0 56 03 0b be 60 cd 9f 3d 03 b5 12 bd 5d 81 14 3e
       -0.13575491 0.07802844 -0.035817157 0.14502473
0003c0 f4 01 6a 3d ee df 8f bd da 11 03 3d f2 ed 3c be
       0.05713077 -0.07025133 0.031999446 -0.18450144
0003d0 88 41 ce bd 69 19 e7 3d 83 2a 92 3d 3d 0b 45 3e
       -0.10071093 0.112841435 0.07137015 0.19242568
0003e0 1e dd 5b be 03 02 49 3e 6a ad 68 3d 0f bd 36 3e
       -0.21471068 0.19629674 0.056806006 0.17845558
0003f0 53 0a a9 3d e4 f7 ae bc 45 cc 74 3d ba 89 4b 3e
       0.08253922 -0.021358438 0.05976512 0.19876757

bias f4 [10]
000000 87 c8 e5 bd 6f 0a 49 bd cd 23 d2 bd 2f 52 9c 3d
       -0.11219888 -0.049082216 -0.10260735 0.07632863
000010 74 fd 6c 3d 67 50 b5 bd 62 87 31 3e ea 11 bc bd
       0.0578589 -0.08853226 0.173368 -0.09183104
000020 14 5b 04 bd db 35 9b bd
       -0.03231342 -0.075786315
