models/xue_13.pth (torch, 587967 bytes, 10 tensors)

weight f4 [32, 3, 5, 5]
-0.092128895 0.07326624 0.063569725 0.033103812 0.07047607 0.012749491 -0.023189994 0.03579613
-0.073859185 0.07262799 -0.080078416 -0.08974833 -0.20254567 -0.06274278 -0.06916233 -0.042614765
0.010554916 -0.12756112 -0.05609443 -0.027958535 -0.037937693 0.04871312 0.10422561 0.041019924
0.10020306 -0.01669111 0.052151565 0.10076544 0.0027228177 -0.09369261 0.04231724 0.012287734
0.14918208 -0.005758523 -0.0789495 -0.047547635 -0.080164306 -0.11258223 -0.10324814 -0.08640262
0.09336496 -0.0394493 0.016813863 -0.015021104 0.096842274 0.06430805 0.01237768 0.043132216
0.0018770172 -0.10652302 0.042894945 0.08497895 0.17651664 0.047010317 -0.059718113 0.096730836
0.08744696 0.044026013 0.17193456 0.07063926 -0.062865034 -0.08631015 0.088649705 0.098736204
-0.012176092 0.10509938 -0.09949091 -0.0876969 -0.04772254 0.07934406 0.041719873 -0.04105126
-0.022208618 -0.10719451 0.07723296 0.08278404 -0.032690197 -0.049806155 0.020845909 -0.13914363
-0.02266195 0.05745621 0.07714466 -0.021608885 -0.020403998 0.11832307 0.068449154 0.09053457
-0.027992139 -0.1499063 -0.11828707 -0.14935343 -0.034436855 -0.0667168 -0.05756499 -0.009833072
-0.07361878 0.054408815 0.048816662 0.12946661 0.14184202 0.12949464 0.08324965 -0.052130807
-0.090173304 0.09699684 0.062360313 0.1462146 -0.0041070334 0.023583926 0.12530893 0.014766552
-0.12183372 0.07781834 0.058337163 -0.020922009 -0.13084863 -0.124925435 -0.13619119 -0.13604581
0.08825599 -0.12711054 -0.011348375 0.0817487 0.08719976 0.14318772 0.15214196 0.074174464
0.035243973 0.00086539646 -0.047305908 0.07784615 -0.010923896 0.05393857 0.09840492 -0.05913523
0.076672375 -0.104722075 0.041906487 -0.13268381 -0.045956697 -0.02737173 -0.08704514 -0.023771577
-0.06321222 0.075872935 -0.09246823 -0.046498157 0.0067892866 0.060992707 0.059324473 0.1561469
-0.094976775 -0.1896488 -0.08275163 0.019321352 0.19675343 0.007096111 0.011957839 -0.101439916
0.0060386425 0.20672543 0.03787547 -0.12735015 -0.2129353 0.1664611 0.12854107 -0.048587624
0.041965716 -0.21018882 0.053032074 0.054641593 -0.0063886237 0.051051676 -0.07132134 0.15907766
0.08619325 0.0047347816 -0.071605876 -0.022287605 0.19829376 0.06991637 -0.10872899 -0.20761248
-0.08585053 0.0009264945 0.2173488 0.08855037 -0.20663793 -0.05506392 0.152981 -0.014345151
0.04745017 -0.18290742 -0.2124605 0.106832184 0.14856683 -0.03491963 -0.06393356 -0.13468559
0.12686172 0.005893411 -0.0794644 -0.16677876 0.05562661 0.15262759 0.10604705 -0.11939809
-0.21948615 -0.16110468 0.17875116 0.18676825 -0.09992867 -0.078681804 -0.031468663 0.13873589
-0.029421603 0.08022659 -0.0035739797 -0.1924217 0.054865222 0.14508983 0.03245479 -0.12395443
-0.1470319 -0.044344313 -0.03019122 -0.033082016 -0.11372289 -0.027020492 0.016470386 -0.028856829
0.08503328 0.018712437 -0.013648433 -0.08341449 -0.12964822 -0.07662029 0.0838421 0.028846929
-0.04279347 -0.116872296 -0.22245641 -0.19677436 -0.038219307 0.052870575 -0.103226505 -0.06881783
0.009722208 -0.06850995 -0.09131046 -0.06293635 0.07871119 -0.05995943 -0.0360929 0.11792311
00000000: 13ae bcbd 9c0c 963d d830 823d dd97 073d
00000010: c255 903d 3ee3 503c f1f8 bdbc f69e 123d
00000020: 7c43 97bd fcbd 943d 2700 a4bd f9cd b7bd
00000030: 2268 4fbe 497f 80bd fba4 8dbd d28c 2ebd
00000040: 87ee 2c3c 629f 02be 46c3 65bd 4c09 e5bc
00000050: 8e64 1bbd 6987 473d 3d74 d53d 8204 283d
00000060: 4337 cd3d cbbb 88bc e19c 553d 1c5e ce3d
00000070: 4d71 323b e9e1 bfbd d854 2d3d 7e52 493c
00000080: 30c3 183e feb1 bcbb 47b0 a1bd 4fc1 42bd
00000090: 2f2d a4bd 8391 e6bd c373 d3bd dbf3 b0bd
000000a0: 2136 bf3d 9795 21bd 3abd 893c 141b 76bc
000000b0: 3e55 c63d f0b3 833d c1cb 4a3c 68ab 303d
000000c0: 3f06 f63a be28 dabd 9cb2 2f3d 7209 ae3d
000000d0: c7c0 343e e48d 403d fb9a 74bd d11a c63d
000000e0: 6417 b33d 9f54 343d 9d0f 303e 51ab 903d
000000f0: 62bf 80bd 60c3 b0bd fa8d b53d 3536 ca3d
00000100: 3b7e 47bc 583e d73d e4c1 cbbd 6f9a b3bd
00000110: b678 43bd 237f a23d 75e2 2a3d 5e25 28bd
00000120: d9ee b5bc cc88 dbbd 502c 9e3d ae8a a93d
00000130: 28e6 05bd 8a01 4cbd 0ac5 aa3c ab7b 0ebe
00000140: 8ea5 b9bc 3457 6b3d 05fe 9d3d 1e05 b1bc
00000150: 4926 a7bc 5e53 f23d 122f 8c3d 306a b93d
00000160: c54f e5bc 0981 19be 7e40 f2bd 1bf0 18be
00000170: a90d 0dbd d1a2 88bd 44c9 6bbd e51a 21bc
00000180: 71c5 96bd c7db 5e3d fbf3 473d e592 043e
00000190: 093f 113e 3e9a 043e cb7e aa3d 1d87 55bd
000001a0: c8ac b8bd 47a6 c63d 876d 7f3d 48b9 153e
000001b0: 4b94 86bb 1433 c13c fc50 003e 68ef 713c
000001c0: f583 f9bd 395f 9f3d f3f2 6e3d a264 abbc
000001d0: 2ffd 05be e8d8 ffbd b475 0bbe 984f 0bbe
000001e0: 8ebf b43d 4429 02be 89ee 39bc dd6b a73d
000001f0: ca95 b23d cd9f 123e 1acb 1b3e c8e8 973d
00000200: fc5b 103d c6db 623a d7c3 41bd cd6d 9f3d
00000210: 24fa 32bc b1ee 5c3d 8588 c93d c837 72bd
00000220: 6806 9d3d 8778 d6bd 23a6 2b3d 44de 07be
00000230: 173d 3cbd ae3a e0bc b944 b2bd 9cbc c2bc
00000240: 6975 81bd 4563 9b3d fc5f bdbd da74 3ebd
00000250: aa78 de3b 7dd3 793d 38fe 723d f9e4 1f3e
00000260: 2f83 c2bd 4c33 42be b079 a9bd d047 9e3c
00000270: bb79 493e 7e86 e83b d0ea 433c bbbf cfbd
00000280: cedf c53b d5af 533e 4f23 1b3d 1468 02be
00000290: b60b 5abe c774 2a3e 45a0 033e d103 47bd
000002a0: 3ee4 2b3d bd3b 57be 2938 593d ddcf 5f3d
000002b0: a957 d1bb 901b 513d ec10 92bd 41e5 223e
000002c0: 1686 b03d 3a26 9b3b 1aa6 92bd 7f94 b6bc
000002d0: 850d 4b3e 5030 8f3d 4ead debd 5e98 54be
000002e0: 67d2 afbd fedf 723a af90 5e3e e559 b53d
000002f0: e598 53be b48a 61bd 0da7 1c3e ed07 6bbc
00000300: 1c5b 423d 154c 3bbe 3f8f 59be d5ca da3d
00000310: e721 183e e307 0fbd 99ef 82bd 05eb 09be
00000320: 0ae8 013e 841d c13b 3bbe a2bd 0dc8 2abe
00000330: bad8 633d 684a 1c3e 322f d93d fc86 f4bd
00000340: fac0 60be a0f8 24be 8b0a 373e 2d40 3f3e
00000350: 67a7 ccbd ed23 a1bd 49e5 00bd c810 0e3e
00000360: 9305 f1bc d74d a43d 6e39 6abb 320a 45be
00000370: 5bba 603d 6e92 143e 50ef 043d d2db fdbd
00000380: 888f 16be 62a2 35bd 9453 f7bc 0281 07bd
00000390: 8ce7 e8bd 145a ddbc e7ec 863c 2865 ecbc
000003a0: ee25 ae3d d34a 993c ad9d 5fbc 37d5 aabd
000003b0: 81c2 04be 19eb 9cbd 68b5 ab3d 6550 ec3c
000003c0: 3548 2fbd be5a efbd 9dcb 63be 387f 49be
000003d0: d98b 1cbd d18e 583d 6b68 d3bd 5df0 8cbd
000003e0: e549 1f3c f24e 8cbd fa00 bbbd c6e4 80bd
000003f0: 5533 a13d 0598 75bd 26d6 13bd ac81 f13d

bias f4 [32]
-0.09837131 -0.19603385 0.0062145493 -0.12230566 -0.25735617 -0.39026558 0.09614943 0.027982004
-0.07384828 -0.09579175 -0.244834 -0.22147569 -0.28737196 -0.10196055 -0.028742747 0.16793163
-0.09282109 -0.009169235 -0.20951703 -0.30444065 0.039443947 0.20786086 -0.13416268 0.20357347
0.03377412 0.11327581 0.06594725 0.11396591 0.12001876 0.00033314337 0.14054288 0.07319302
00000000: e676 c9bd 19bd 48be 6ba3 cb3b 647b fabd
00000010: 30c4 83be e4d0 c7be fee9 c43d 843a e53c
00000020: c43d 97bd 772e c4bd c4b5 7abe 86ca 62be
00000030: 6b22 93be b1d0 d0bd e975 ebbc 45f6 2b3e
00000040: fc18 bebd 8f3a 16bc a28b 56be a5df 9bbe
00000050: fa8f 213d 7ad9 543e f161 09be 9075 503e
00000060: bb56 0a3d 26fd e73d 5a0f 873d f666 e93d
00000070: 65cc f53d bfa9 ae39 79ea 0f3e 39e6 953d

weight f4 [32, 32, 5, 5]
0.027707415 0.01032321 0.024769574 0.04303278 0.025535341 -0.0133729195 0.024303747 0.030323034
-0.016007263 -0.010154508 -0.01437469 0.042134315 0.013151629 -0.005400949 0.04440901 0.022990897
-0.004912728 0.007950132 0.0090323975 -0.023061385 0.029260295 0.018961683 -0.005617415 0.02301811
-0.010572818 0.037360188 0.003961198 0.03063122 0.0067409487 0.015111341 -0.016755965 0.033926144
0.0050114645 0.04862798 0.032006003 0.0024645715 0.0442004 0.013851558 0.0130595025 -0.013459199
0.009800968 0.036974702 -0.013631366 -0.03631269 -0.027203947 -0.016887588 -0.02683724 0.026675325
0.047842834 0.039255865 0.009384506 -0.002176081 -0.022063106 -0.011386519 -0.020333452 -0.0043462575
-0.013952195 -0.0037564386 0.02776149 -0.0055717435 -0.0059158844 0.023500374 -0.0010718676 -0.01353994
-0.009488419 -0.0028492478 0.012578719 -0.022993958 0.008905933 0.019062828 -0.01790761 -0.02919049
0.007230189 0.0014118337 0.019805906 -0.035808448 0.014412255 0.0035670619 -0.0009935612 0.019950604
0.01930854 0.038436115 -0.028189126 -0.026492808 0.029163266 0.027753264 0.013379526 0.022724144
-0.011641871 0.03951356 0.037711192 0.040392585 0.04530903 0.038626935 -0.028391574 -0.0084106205
0.008159115 -0.014623247 0.046086095 0.012265761 0.008303439 0.013719851 0.0027738218 0.023418961
0.03188216 0.03422899 0.0053994088 -0.03219141 0.01891572 -0.011578629 0.035877407 0.020317588
0.010616578 -0.009188942 -0.02095588 -0.025204198 -0.0091937985 -0.0030489443 0.035342157 0.02173013
0.034618888 0.041627705 -0.014586872 -0.01574044 -0.027226366 0.0054491637 0.046161488 0.062489536
0.06146871 0.032266 0.033693977 0.044834223 -0.0045705964 0.004315489 -0.0053458433 0.025554432
0.050513 0.024109013 0.009077944 0.018437233 0.023935547 0.00797973 -0.016678013 0.0017930646
-0.016344514 0.018146439 -0.018161656 -0.005759666 -0.004103079 -0.008168678 -0.04785096 -0.0029830907
0.0018192092 0.00994144 0.0066119237 0.020983439 0.0014011519 0.051529653 -0.005641152 0.010029017
-0.0230646 0.03706542 0.030738631 0.008650902 0.0082783485 0.020718502 0.06393657 0.038159177
0.010295799 0.00934095 0.030511603 0.06231959 0.056620818 0.05738255 0.0014394055 0.0056525534
0.042948984 0.004147134 -0.01969036 0.012325564 0.038572036 -0.014578888 0.048011463 0.014795538
0.03951024 0.035840217 0.031279262 0.04714071 0.014123947 0.007929724 0.034236763 0.026915051
-0.0080634095 0.035975512 0.008464754 0.018060187 0.030601768 0.018316472 0.038755406 -0.010791103
-0.016315734 -0.025241895 -0.0006557657 0.008293038 0.010226945 -0.024911433 0.020370947 0.026368227
0.012627394 -0.011082626 -0.011262432 -0.0069314013 0.011110513 0.003991136 -0.007066535 0.039648123
0.076130204 0.074939564 0.07600568 0.028210063 0.05112671 0.02986831 0.016922256 -0.023450965
-0.02632409 0.025002262 0.029441329 0.024021547 0.019693011 -0.036340337 -0.0027692094 0.027595717
0.03447967 0.013317058 -0.0055035176 0.027805569 0.018463513 0.004688065 -0.023395356 -0.01622224
0.057796266 0.05399851 0.05389184 0.043076202 0.0243674 0.0046085566 0.018410893 0.02865422
0.0167033 -0.016547637 -0.0076891906 0.016099572 -0.017295044 -0.010606476 0.019646965 0.0030068734
00000000: a9fa e23c ae22 293c 90e9 ca3c 2443 303d
00000010: 7e2f d13c 171a 5bbc a718 c73c 0368 f83c
00000020: aa21 83bc 185f 26bc d283 6bbc 0895 2c3d
00000030: ee79 573c 72fa b0bb 39e6 353d 6857 bc3c
00000040: f3fa a0bb 4541 023c 9ffc 133c 3beb bcbc
00000050: 49b3 ef3c 8855 9b3c 4b12 b8bb 7a90 bc3c
00000060: 9d39 2dbc ff06 193d f0cc 813b 53ee fa3c
00000070: 2de3 dc3b 8f95 773c ce43 89bc 24f6 0a3d
00000080: 3637 a43b 222e 473d ba18 033d a684 213b
00000090: 7b0b 353d a5f1 623c 86f7 553c f983 5cbc
000000a0: 3d94 203c c972 173d 1856 5fbc 9dbc 14bd
000000b0: d0da debc d757 8abc c6d9 dbbc 3686 da3c
000000c0: d9f6 433d c2ca 203d 79c1 193c 959c 0ebb
000000d0: b0bd b4bc 868e 3abc 5792 a6bc 0d6b 8ebb
000000e0: bf97 64bc 952e 76bb 106c e33c 2c93 b6bb
000000f0: 09da c1bb db83 c03c e97d 8cba a0d6 5dbc
00000100: 5075 1bbc 72ba 3abb f916 4e3c d35d bcbc
00000110: 31ea 113c a629 9c3c fbb2 92bc e520 efbc
00000120: 39eb ec3b 470d b93a ff3f a23c e1ab 12bd
00000130: 6121 6c3c 5ec5 693b 623a 82ba 736f a33c
00000140: f12c 9e3c 306f 1d3d e2ec e6bc 7207 d9bc
00000150: cde7 ee3c d05a e33c cd35 5b3c fc27 ba3c
00000160: 8cbd 3ebc f8d8 213d 0d77 1a3d b272 253d
00000170: f695 393d 4737 1e3d 7295 e8bc b3cc 09bc
00000180: cfad 053c 5896 6fbc c6c4 3c3d 55f6 483c
00000190: 260b 083c 3ac9 603c 02c9 353b 1fd9 bf3c
000001a0: de96 023d b333 0c3d 86ed b03b 24db 03bd
000001b0: 24f5 9a3c 4ab4 3dbc 30f4 123d 1271 a63c
000001c0: 28f1 2d3c 378d 16bc aaab abbc 0979 cebc
000001d0: 96a1 16bc ccd0 47bb f0c2 103d 6303 b23c
000001e0: 89cc 0d3d d081 2a3d c7fd 6ebc 18f2 80bc
000001f0: d409 dfbc e68e b23b d413 3d3d 07f5 7f3d
00000200: 9dc6 7b3d 5a29 043d b202 0a3d 17a4 373d
00000210: f1c4 95bb f268 8d3b 2f2c afbb 8757 d13c
00000220: b8e6 4e3d 4480 c53c a8bb 143c ae09 973c
00000230: 7b14 c43c 6abd 023c 54a0 88bc 4405 eb3a
00000240: eee4 85bc d7a7 943c c1c7 94bc 95bb bcbb
00000250: 1f73 86bb ebd5 05bc 5eff 43bd f57f 43bb
00000260: 8872 ee3a 6ce1 223c d6a8 d83b 76e5 ab3c
00000270: dba6 b73a c210 533d 6ad9 b8bb bf50 243c
00000280: f9f1 bcbc e9d1 173d 95cf fb3c 83bc 0d3c
00000290: e9a1 073c d9b9 a93c 2df1 823d cc4c 1c3d
000002a0: b6af 283c c90a 193c 78f3 f93c d442 7f3d
000002b0: 3beb 673d f709 6b3d 6faa bc3a 0e39 b93b
000002c0: 46eb 2f3d aee4 873b ae4d a1bc 2af1 493c
000002d0: b6fd 1d3d 4adc 6ebc aba7 443d fc68 723c
000002e0: 7dd5 213d 31cd 123d af1e 003d 9e16 413d
000002f0: 2168 673c aceb 013c d93b 0c3d f47c dc3c
00000300: 641c 04bc 0f5b 133d c0af 0a3c f5f2 933c
00000310: 8fb0 fa3c 6d0c 963c fdbd 1e3d 2bcd 30bc
00000320: 93a8 85bc 17c8 cebc b1e7 2bba 86df 073c
00000330: eb8e 273c 1013 ccbc f9e0 a63c 2e02 d83c
00000340: 21e3 4e3c e793 35bc 1086 38bc cf20 e3bb
00000350: de08 363c 13c8 823b 648e e7bb 1266 223d
00000360: 27ea 9b3d ea79 993d dea8 9b3d ca18 e73c
00000370: 3e6a 513d 63ae f43c 8ba0 8a3c 3d1c c0bc
00000380: 9ea5 d7bc 8bd1 cc3c f12e f13c d6c8 c43c
00000390: 3d53 a13c 9bd9 14bd a07b 35bb 6a10 e23c
000003a0: 8e3a 0d3d ca2f 5a3c da56 b4bb 81c8 e33c
000003b0: cb40 973c 579e 993b 9ea7 bfbc 81e4 84bc
000003c0: c7bb 6c3d 8b2d 5d3d b1bd 5c3d ac70 303d
000003d0: 249e c73c 6003 973b 71d2 963c 41bc ea3c
000003e0: 5cd5 883c e98e 87bc 9bf5 fbbb 40e3 833c
000003f0: 56ae 8dbc c9c6 2dbc acf2 a03c f70e 453b

bias f4 [32]
-0.031029413 -0.04147458 -0.039297465 -0.15410642 -0.11754726 -0.0207945 -0.14415576 -0.07476574
-0.07306644 -0.025654191 -0.2221668 -0.008075865 -0.068320654 -0.014994603 -0.044175953 -0.010037983
-0.015434689 0.039025284 -0.06034552 -0.021551821 -0.05084801 -0.02261739 -0.04584884 0.055331644
0.022535866 -0.0881911 -0.048876062 -0.054746427 -0.03580742 0.009699237 -0.08691759 -0.004808571
00000000: 6531 febc 40e1 29bd 61f6 20bd 13ce 1dbe
00000010: 9ebc f0bd 3a59 aabc 919d 13be c81e 99bd
00000020: dca3 95bd bd28 d2bc b27f 63be a250 04bc
00000030: b3eb 8bbd ecab 75bc d8f1 34bd 5a76 24bc
00000040: c7e1 7cbc fad8 1f3d dd2c 77bd 728d b0bc
00000050: 0146 50bd 1b48 b9bc fecb 3bbd 6fa3 623d
00000060: 239d b83c 899d b4bd 4432 48bd ca3d 60bd
00000070: cdaa 12bd 8ce9 1e3c d901 b2bd 3891 9dbb

weight f4 [64, 32, 5, 5]
-0.017529782 -0.010441705 -0.018419044 -0.037430834 -0.031825915 0.035868794 0.0050367354 0.010260342
-0.007213097 0.022343274 -0.022707112 -0.008965043 -0.013193756 0.028965771 -0.020886129 -0.024906535
-0.03479648 -0.028793689 -0.012430136 0.01326459 0.0036866383 0.008846615 -0.017696798 0.034292623
0.009308661 -0.021556482 -0.008925096 -0.017317034 -0.034972645 -0.02427677 0.042846847 0.004277001
0.015157588 -0.0036885235 -0.023572136 0.026238892 -0.0014945618 0.014604083 0.0040813726 -0.01294487
-0.02460353 0.024928372 -0.022576556 -0.014049244 -0.0018865046 0.00358672 -0.016921317 -0.046021115
0.0040430883 -0.029474057 2.246516e-05 -0.032200404 0.009193442 -0.021785205 0.030505111 0.005811116
-0.037125546 0.0040242965 0.020322975 0.017097717 0.0066940906 0.039561983 -0.035333574 0.015984252
0.032961644 -0.04032073 -0.0027896317 -0.0051087 -0.03760843 0.0330233 0.020045293 -0.036183834
0.0063422075 0.02290501 0.025376791 -0.013614489 -0.028176298 -0.021560503 0.04444234 0.009609635
0.013902808 -0.053101834 0.009586877 0.04060166 0.046719495 -0.026821384 -0.019298462 0.053635836
0.024178755 -0.020035094 0.019678978 0.027287038 0.02445267 0.011049958 0.011951963 -0.017499223
-0.02356412 0.017466087 -0.022287613 0.029062284 0.010991715 0.053480096 0.051780492 -0.022649806
-0.040691365 -0.016161356 0.022691995 -0.00017277783 0.024393355 -0.02792886 0.0019568119 0.005267665
0.02910317 -0.014694959 -0.010871184 0.031957157 0.022862393 -0.010193069 0.011296671 0.017453084
0.0016998193 0.039001696 0.03332643 0.033970684 0.024030033 -0.007836202 0.02747218 0.0023736884
0.009016359 -0.02091096 -0.043949388 0.058334615 0.027586563 -0.021176398 0.010791765 -0.02215729
-0.01692275 -0.015565795 -0.007897591 0.020886963 -0.011783878 -0.0059306636 -0.020262534 -0.027679972
-0.015555445 0.032977 0.0402609 -0.026145957 0.025340099 -0.028028043 0.010498917 -0.026013741
0.0038510505 -0.016344607 -0.04179027 0.044057604 0.01676338 -0.025493974 -0.043930564 0.017536202
0.01712889 -0.046719063 0.0025970007 -0.021161962 0.0071461177 0.031405933 -0.011606912 -0.001502251
0.004968858 -0.042495426 -0.04199961 -0.054657113 0.015144957 -0.012872803 0.03816139 0.005892872
-0.043815635 -0.009573854 -0.00095768966 -0.041360997 -0.02373535 -0.039448254 -0.013507218 -0.012689007
0.029291676 0.026628291 -0.046369106 -0.020836117 0.03368693 -0.0120452745 0.010544953 -0.01380851
0.0079661375 0.009378717 0.00044519643 -0.006864079 0.01275924 -0.008607943 -0.013252054 0.021709986
-0.0014405841 -0.017766247 0.030043755 -0.012722911 0.00060345896 -0.011807066 -0.023898788 -0.007741248
0.021799603 -0.029135853 0.010218325 -0.013084809 0.045969717 -0.024005735 0.017284313 0.020754483
-0.023307925 0.02593687 0.022893554 -0.02837042 -0.010642353 0.012509633 -0.0005482447 0.010863002
-0.00884169 -0.01443249 0.0057479893 -0.021387642 0.024550242 -0.02948428 -0.010387756 -0.017842555
0.029319951 0.01911987 0.045938037 -0.018102195 -0.012827838 0.0436415 -0.02736883 0.02352331
-0.043716148 0.0037885502 -0.012163447 -0.018074129 -0.026103023 -0.010355964 -0.011330645 0.020947209
-0.00070785073 0.0008269083 0.016558407 -0.0031509905 -0.002698433 0.030269247 -0.0140162865 -0.020960627
00000000: 9e9a 8fbc af13 2bbc 89e3 96bc 1351 19bd
00000010: e45b 02bd 28eb 123d 330b a53b fe1a 283c
00000020: d85b ecbb 3e09 b73c 4404 babc 1ee2 12bc
00000030: a02a 58bc a049 ed3c 6319 abbc ca08 ccbc
00000040: c186 0ebd bee0 ebbc c5a7 4bbc b953 593c
00000050: 879b 713b 65f1 103c e0f8 90bc 6c76 0c3d
00000060: 5b83 183c 3897 b0bc 913a 12bc 74dc 8dbc
00000070: 7a3f 0fbd 14e0 c6bc 2d80 2f3d 1626 8c3b
00000080: 8857 783c 28bb 71bb 5a1a c1bc f2f2 d63c
00000090: 2ce5 c3ba f745 6f3c 09bd 853b b816 54bc
000000a0: 588d c9bc 9636 cc3c 78f2 b8bc cd2e 66bc
000000b0: 9744 f7ba 2d0f 6b3b 939e 8abc a380 3cbd
000000c0: e27b 843b 9473 f1bc 9073 bc37 92e4 03bd
000000d0: 17a0 163c e376 b2bc dbe5 f93c 2d6b be3b
000000e0: f510 18bd 3fde 833b 5e7c a63c 8310 8c3c
000000f0: 1a5a db3b bf0b 223d f0b9 10bd 68f1 823c
00000100: ca02 073d 5a27 25bd 41d2 36bb e266 a7bb
00000110: 4c0b 1abd 7143 073d 0736 a43c 8035 14bd
00000120: 4bd2 cf3b 4aa3 bb3c fde2 cf3c 4e0f 5fbc
00000130: fbd1 e6bc a79f b0bc 2c09 363d bb71 1d3c
00000140: 9ac8 633c 4f81 59bd 4712 1d3c ed4d 263d
00000150: f15c 3f3d 85b8 dbbc cf17 9ebc 40b1 5b3d
00000160: 8612 c63c a320 a4bc cf35 a13c 1189 df3c
00000170: f750 c83c e20a 353c 2bd2 433c 885a 8fbc
00000180: 8b09 c1bc 0a15 8f3c 8394 b6bc 0714 ee3c
00000190: 9816 343c f20d 5b3d c817 543d 168c b9bc
000001a0: fdab 26bd d264 84bc 90e4 b93c b22b 35b9
000001b0: 93d4 c73c 11cb e4bc db3d 003b 609c ac3b
000001c0: c569 ee3c 20c3 70bc 0d1d 32bc 82e5 023d
000001d0: ea49 bb3c d500 27bc ac15 393c c5f9 8e3c
000001e0: 79cc de3a 3ec0 1f3d 4b81 083d d824 0b3d
000001f0: a2da c43c 6a63 00bc 560d e13c e28f 1b3b
00000200: 5ab9 133c 764d abbc 4604 34bd 47f0 6e3d
00000210: 37fd e13c 207a adbc f1cf 303c 3483 b5bc
00000220: 94a1 8abc ad07 7fbc e664 01bc 231b ab3c
00000230: 2b11 41bc 0356 c2bb 9dfd a5bc 1cc1 e2bc
00000240: 44dc 7ebc e412 073d 9de8 243d 0c30 d6bc
00000250: 0a96 cf3c 119b e5bc a603 2c3c c51a d5bc
00000260: e861 7c3b 20e5 85bc 462c 2bbd bf75 343d
00000270: 5b53 893c bdd8 d0bc 89f0 33bd 15a8 8f3c
00000280: e351 8c3c 7d5c 3fbd 7132 2a3b da5b adbc
00000290: fb29 ea3b 82a3 003d eb2a 3ebc 2ee7 c4ba
000002a0: cdd1 a23b af0f 2ebd c807 2cbd 23e0 5fbd
000002b0: 8e22 783c 73e8 52bc 1e4f 1c3d fe18 c13b
000002c0: 0678 33bd a7db 1cbc 770d 7bba 266a 29bd
000002d0: a370 c2bc 7e94 21bd 614d 5dbc 8ee5 4fbc
000002e0: 19f5 ef3c 9323 da3c 88ed 3dbd 81b0 aabc
000002f0: 4efb 093d 8b59 45bc bdc4 2c3c 173d 62bc
00000300: 6784 023c 31a9 193c 4169 e939 11ec e0bb
00000310: 220c 513c 5408 0dbc 251f 59bc 24d9 b13c
00000320: fbd1 bcba 858a 91bc 521e f63c c273 50bc
00000330: 7231 1e3a 6d72 41bc 64c7 c3bc 4baa fdbb
00000340: 1595 b23c 50ae eebc c36a 273c ab61 56bc
00000350: be4a 3c3d ada7 c4bc d597 8d3c 4e05 aa3c
00000360: 43f0 bebc 8f79 d43c 438b bb3c 1569 e8bc
00000370: 445d 2ebc 34f5 4c3c 14b8 0fba bcfa 313c
00000380: bcdc 10bc 4076 6cbc a159 bc3b 2335 afbc
00000390: 971d c93c 0489 f1bc 6831 2abc 8d2a 92bc
000003a0: 6530 f03c 46a1 9c3c 8629 3c3d 0e4b 94bc
000003b0: da2b 52bc 6ec1 323d 9934 e0bc f5b3 c03c
000003c0: b40f 33bd 5349 783b 3249 47bc 3210 94bc
000003d0: 02d6 d5bc 10ac 29bc 2ba4 39bc 7b99 ab3c
000003e0: 0f8f 39ba e0c4 583a 7fa5 873c d980 4ebb
000003f0: 31d8 30bb 36f7 f73c 91a4 65bc 9fb5 abbc

bias f4 [64]
-0.02495123 -0.035586458 -0.07456937 0.013098634 -0.09096845 -0.02968291 -0.048349306 -0.018418403
-0.036655203 -0.06590525 -0.01717957 -0.06747242 -0.030895378 -0.029559407 -0.052922897 0.0043370845
-0.040196806 -0.021290386 -0.055423636 0.042199127 -0.035786282 -0.02502852 -0.059523076 -0.0121633625
-0.10217761 -0.074802466 -0.053270794 -0.057802223 0.012904201 -0.021368003 -0.002858305 -0.051534083
-0.0072547947 -0.018039797 -0.06018606 0.05067118 -0.050286587 0.03595871 -0.05676558 -0.0014035187
-0.06547635 -0.098244265 -0.02515005 -0.032657284 -0.11495643 -0.017359452 -0.022378637 0.025809517
-0.044805154 -0.09680511 -0.002384981 -0.038815115 0.022108814 -0.0063084885 -0.093424216 -0.0023812037
-0.044822242 -0.01109812 -0.0023203318 0.033215813 0.037592884 0.013172281 -0.019213447 0.020549411
00000000: 8666 ccbc 1bc3 11bd d3b7 98bd a79b 563c
00000010: ab4d babd 9329 f3bc ec09 46bd 31e2 96bc
00000020: c423 16bd 55f9 86bd 2bbc 8cbc fb2e 8abd
00000030: 4e18 fdbc 9226 f2bc aec5 58bd 1a1e 8e3b
00000040: 68a5 24bd 2d69 aebc e503 63bd fed8 2c3d
00000050: a394 12bd 9c08 cdbc 78ce 73bd d748 47bc
00000060: 7f42 d1bd 0932 99bd 7a32 5abd 06c2 6cbd
00000070: 246c 533c f30b afbc 6652 3bbb 6715 53bd
00000080: a1b9 edbb 32c8 93bc a885 76bd 958c 4f3d
00000090: 4ff9 4dbd 7149 133d 0683 68bd 46f6 b7ba
000000a0: 7718 86bd 4a34 c9bd 7a07 cebc a5c3 05bd
000000b0: 476e ebbd 6935 8ebc 6753 b7bc 7b6e d33c
000000c0: 9c85 37bd c241 c6bd 574d 1cbb 99fc 1ebd
000000d0: 8b1d b53c 70b7 cebb 3255 bfbd f80d 1cbb
000000e0: 8797 37bd e4d4 35bc b510 18bb 4e0d 083d
000000f0: fffa 193d 8dd0 573c 8565 9dbc 3d57 a83c

weight f4 [64, 1024]
-0.010117897 0.030140983 0.0058723385 0.033523932 0.032478634 0.012947907 0.024929646 -0.021101376
0.01505706 -0.03900575 0.0032859237 -0.031859156 -0.016542096 -0.025249228 0.027765263 0.013277376
0.0005963081 -0.008376194 -0.022652514 0.02318787 0.024392527 -0.013906813 0.037979048 0.04144864
0.03542527 0.0014384609 0.03970068 0.039075524 0.0383407 0.009951857 0.013923457 -0.012760409
0.011370226 -0.0033261417 -0.031585332 -0.0081631085 -0.00447595 -0.021719052 0.01721423 -0.020263696
0.025368683 -0.00010163312 -0.025844784 0.025454782 0.0019915244 -0.020049993 -0.018325208 0.0108809555
-0.00064806716 0.014244511 0.03978908 0.015716882 -0.008461975 -0.02451665 -0.0019062401 0.019523352
0.037847843 0.037839454 0.017489 -0.0112062385 0.041590698 -0.03474726 -0.026994696 -0.017011818
-0.0019487028 -0.011950573 -0.039424922 0.027716704 0.030024061 -0.027977588 0.0026860125 -0.027451996
0.016216613 -0.026011651 0.027934046 -0.013316739 -0.03134466 0.018864248 0.013417639 -0.0043913485
0.023400431 0.015946625 0.027559087 0.0056126015 -0.025001543 -0.0125695355 0.03672864 0.012975588
-0.04141125 0.0034545164 -0.008081183 -0.005671401 -0.016227009 -0.007860914 -0.017592004 -0.007791081
-0.009114841 0.01837626 -0.025335848 -0.014763777 -0.023151051 0.0096105095 0.009632332 0.0023149452
-0.028922146 -0.022255808 -0.008805273 -0.0034081615 -0.014633331 0.019514792 0.004546585 -0.03270791
0.03517412 -0.04276465 -0.04002204 0.027279658 0.021088142 -0.0062191705 -0.06141873 0.025851583
0.026077319 0.025030354 -0.012132292 0.0019681037 0.038820803 0.03223982 0.02559333 0.025054405
-0.031620275 0.01768417 -0.009176287 -0.019610662 0.013282655 -0.009632448 -0.006287849 0.021395167
0.0115796225 -0.013325622 -0.018448303 -0.02376668 -0.034349833 0.0011560551 -0.010821851 -0.0016965251
0.018802594 -0.01597383 -0.03427489 -0.010694452 -0.009713699 -0.008946422 -0.028039806 0.022355963
-0.007905378 0.0019611213 0.021966308 0.023862794 0.006451422 0.022622334 0.017956942 0.0195182
0.013236526 -0.0005480505 -0.053883765 -0.037373304 0.011537127 -0.023067264 0.019603837 -0.0046941675
-0.028245712 0.003145235 0.0024131793 -0.006440383 -0.0023221187 0.0026806814 0.008575509 -0.011986656
-0.0018765766 -0.013775255 -0.013757524 0.01363597 0.032252442 0.026517194 -0.032023914 0.0067162057
-0.019453827 0.00024199748 -0.0044295257 0.021301229 -0.01967924 -0.0055060172 0.010867283 -0.028015327
-0.015337569 0.0071731163 -0.014530962 0.016388033 -0.013663519 -0.08070379 -0.028709771 0.03268098
0.018287882 0.03145891 -0.040627502 0.024725705 -0.021821069 0.026073692 0.045384597 -0.03502486
-0.005730612 0.02858953 0.0034971552 0.041212257 -0.0026838856 -0.014765187 -0.028191613 -0.0015155908
0.03274589 0.018696222 -0.014558599 0.011182683 -0.024896087 -0.00972038 -0.024112036 -0.03314221
0.0142096635 -0.010934169 0.012060214 -0.021333126 -0.032098345 -0.015637385 -0.03973537 0.022713995
0.0240443 0.020506743 0.015084907 -0.010476472 -0.00032491906 -0.016681073 0.013690615 -0.0014833015
0.024808055 0.009529746 -0.0049284804 0.003279466 0.014140349 -0.0036043958 0.00016026603 0.005748096
-0.012423957 -0.0072054565 0.0020679461 0.032449197 0.0028044574 0.009763848 -0.020078016 0.02179676
00000000: 89c5 25bc 39ea f63c bf6c c03b 6450 093d
00000010: 5108 053d 7523 543c 4239 cc3c cbdc acbc
00000020: e3b1 763c 7ec4 1fbd a758 573b bf7e 02bd
00000030: 4a83 87bc 78d7 cebc fa73 e33c 5a89 593c
00000040: 8f51 1c3a 4e3c 09bc c491 b9bc 7df4 bd3c
00000050: d6d2 c73c 67d9 63bc eb8f 1b3d 0dc6 293d
00000060: 171a 113d bd8a bc3a 2e9d 223d a80d 203d
00000070: 230b 1d3d 1d0d 233c 361f 643c 0911 51bc
00000080: 2f4a 3a3c 66fb 59bb 9f5f 01bd 8fbe 05bc
00000090: fdaa 92bb 27ec b1bc db04 8d3c 0d00 a6bc
000000a0: fcd1 cf3c de23 d5b8 71b8 d3bc 8c86 d03c
000000b0: 3c84 023b e23f a4bc bf1e 96bc 0946 323c
000000c0: 0de3 29ba cf61 693c e0f9 223d b1c0 803c
000000d0: 18a4 0abc 24d7 c8bc ceda f9ba 70ef 9f3c
000000e0: 5706 1b3d 8bfd 1a3d 1745 8f3c 5f9a 37bc
000000f0: 025b 2a3d 2553 0ebd fb23 ddbc 5e5c 8bbc
00000100: 9e6b ffba 56cc 43bc 077c 21bd 240e e33c
00000110: 05f5 f53c 4131 e5bc d007 303b 02e3 e0bc
00000120: b4d8 843c 6316 d5bc f1d5 e43c 742e 5abc
00000130: 4263 00bd 3289 9a3c a8d5 5b3c 4de5 8fbb
00000140: 43b2 bf3c 7fa2 823c 98c3 e13c eae9 b73b
00000150: 09d0 ccbc 74f0 4dbc c570 163d 9097 543c
00000160: d89e 29bd 2b65 623b f066 04bc 29d7 b9bb
00000170: 81ee 84bc 10cb 00bc 1b1d 90bc 534c ffbb
00000180: 6a56 15bc cf89 963c 208d cfbc c5e3 71bc
00000190: 46a7 bdbc 6675 1d3c eed0 1d3c 56b6 173b
000001a0: 23ee ecbc d051 b6bc fe43 10bc 765b 5fbb
000001b0: a4c0 6fbc 7cdd 9f3c 85fb 943b bbf8 05bd
000001c0: bd12 103d fc29 2fbd 27ee 23bd 9779 df3c
000001d0: 0ac1 ac3c 2fca cbbb 3592 7bbd b3c6 d33c
000001e0: 1aa0 d53c 750c cd3c 85c6 46bc 4dfb 003b
000001f0: 9002 1f3d e70d 043d 1aa9 d13c e53e cd3c
00000200: 4384 01bd 64de 903c 2358 16bc 8aa6 a0bc
00000210: 7e9f 593c 6ad1 1dbc 4d0a cebb eb44 af3c
00000220: 75b8 3d3c b653 5abc e520 97bc 57b2 c2bc
00000230: 69b2 0cbd c686 973a 224e 31bc f05d deba
00000240: e607 9a3c 8ddb 82bc d463 0cbd c837 2fbc
00000250: 3526 1fbc 0394 12bc bcb3 e5bc da23 b73c
00000260: 8f85 01bc 2886 003b b0f2 b33c e87b c33c
00000270: 7366 d33b 7952 b93c 701a 933c a2e4 9f3c
00000280: 04de 583c 0cab 0fba 39b5 5cbd c014 19bd
00000290: 3806 3d3c 8ff7 bcbc 3a98 a03c 88d1 99bb
000002a0: 8d63 e7bc 4920 4e3b 6e26 1e3b d909 d3bb
000002b0: b02e 18bb 5fae 2f3b 4b80 0c3c ae63 44bc
000002c0: 76f7 f5ba 9bb1 61bc 3d67 61bc 6769 5f3c
000002d0: 231b 043d 963a d93c 822b 03bd 9e13 dc3b
000002e0: a25d 9fbc b4c0 7d39 8e25 91bb ea7f ae3c
000002f0: 5c36 a1bc d26b b4bb b00c 323c 6680 e5bc
00000300: 6d4a 7bbc 760c eb3b 4613 6ebc 3240 863c
00000310: f4dc 5fbc 0748 a5bd c130 ebbc 7edc 053d
00000320: 78d0 953c 0fdb 003d 0669 26bd 908d ca3c
00000330: 19c2 b2bc 7f98 d53c 33e5 393d 3a76 0fbd
00000340: dcc7 bbbb 9734 ea3c 8730 653b 2fce 283d
00000350: 21e4 2fbb afe9 71bc 19f2 e6bc caa6 c6ba
00000360: 8e20 063d d228 993c 3187 6ebc 9237 373c
00000370: e1f2 cbbc 3b42 1fbc 9b86 c5bc 20c0 07bd
00000380: a6cf 683c 3b25 33bc 3498 453c cfc2 aebc
00000390: 8e79 03bd f919 80bc 8ec1 22bd b312 ba3c
000003a0: 8df8 c43c c2fd a73c b026 773c 82a5 2bbc
000003b0: e659 aab9 bfa6 88bc 9a4e 603c 576b c2ba
000003c0: 433a cb3c a722 1c3c 177f a1bb 4fec 563b
000003d0: ecac 673c ba37 6cbb 160d 2839 865a bc3b
000003e0: da8d 4bbc c01b ecbb 6186 073b 73e9 043d
000003f0: fdca 373b 8cf8 1f3c a77a a4bc 1e8f b23c

bias f4 [64]
-0.0034173753 0.018337753 -0.022136731 -0.0032174597 -0.0043531805 -0.00017017938 0.0008007983 -0.034878407
0.011728205 -0.031779543 0.05162844 0.052827056 0.043069232 0.0033747302 -0.019131072 -0.028644195
-0.02553478 -0.024298547 -0.040420316 -0.007163877 -0.044590104 -0.028390033 0.030998575 0.011450554
-0.034150243 -0.0012919485 -0.051082138 -0.00085063244 -0.026565148 0.048093203 -0.034366496 -0.034294065
-0.028534668 0.026357094 -0.032670304 0.010216007 0.03901414 -0.016764479 0.038728427 0.05195814
0.008873695 0.02840319 0.037459597 0.019063145 0.031145098 -0.03710244 0.0015073094 0.038519617
0.02241524 -0.04942412 0.0134528605 -0.028611625 -0.049018696 -0.0293715 0.035573248 0.029946817
0.0132712405 0.012121982 -0.026806159 -0.0399069 -0.031420887 -0.031788126 -0.026175557 0.0039082067
00000000: 0bf6 5fbb 0e39 963c 1758 b5bc 04dc 52bb
00000010: 20a5 8ebb 2e72 32b9 aaec 513a a9dc 0ebd
00000020: a827 403c 442b 02bd 5878 533d 2f61 583d
00000030: 5d69 303d 942a 5d3b c4b8 9cbc 3ba7 eabc
00000040: 512e d1bc bf0d c7bc c68f 25bd f5be eabb
00000050: 1da4 36bd 3792 e8bc b9f0 fd3c 1b9b 3b3c
00000060: 20e1 0bbd 9956 a9ba 813b 51bd fafc 5eba
00000070: 279f d9bc 61fd 443d e2c3 0cbd ef77 0cbd
00000080: 89c1 e9bc d5ea d73c 4cd1 05bd 0a61 273c
00000090: 4acd 1f3d a955 89bc b3a1 1e3d 0fd2 543d
000000a0: f962 113c cfad e83c 3c6f 193d 502a 9c3c
000000b0: 0124 ff3c baf8 17bd e990 c53a bfc6 1d3d
000000c0: 2aa0 b73c f270 4abd 6369 5c3c ed62 eabc
000000d0: d4c7 48bd 809c f0bc 41b5 113d 0753 f53c
000000e0: 9e6f 593c 479b 463c 9798 dbbc 6b75 23bd
000000f0: 30b3 00bd 4434 02bd 1f6e d6bc 6a10 803b

weight f4 [10, 64]
-0.055850074 -0.19469367 0.083911814 -0.051613923 0.09835382 0.087562256 -0.13498044 0.021698155
-0.18501335 -0.13751157 -0.15963598 -0.026135942 -0.14371338 -0.04017021 0.045542598 0.0042674243
0.1565534 -0.04460392 0.19159165 -0.053051353 0.14878605 0.012634407 0.12759884 -0.15956132
-0.05524966 0.1377412 0.110178806 -0.17939843 0.2303586 -0.13589348 -0.21246356 -0.010187623
0.21271373 -0.20640834 -0.039902903 -0.12406512 0.006856816 -0.17698433 -0.077040784 0.054912515
-0.07670753 -0.1384163 -0.24228005 -0.09782112 0.09601779 0.07718089 0.020955835 -0.1509889
0.049898148 0.16013104 0.117998704 0.25343364 0.048826743 0.2374101 0.03981053 -0.0784913
0.061679687 0.14814739 -0.10004452 0.11340359 0.10540262 0.18518366 0.040069822 -0.22622226
-0.0022853622 0.18741725 -0.30877632 -0.008354494 -0.2686714 -0.18740766 -0.21214986 -0.11495653
-0.1776209 -0.16850637 -0.1135267 0.03056668 0.1703941 -0.03800081 0.10864568 -0.20330329
0.16852544 0.018983668 -0.15513113 0.2598787 -0.06580728 0.17494632 0.24905732 0.22952193
0.13361955 -0.16159356 0.1699887 -0.13584867 -0.1602795 -0.22862226 -0.18269919 0.20928171
-0.17036843 -0.21951205 0.32530504 -0.013664207 -0.047264375 -0.08648868 -0.02316194 0.16883372
0.027923642 -0.12909977 -0.016971786 0.05294624 -0.024305811 -0.14445522 -0.29108506 0.12756516
-0.16413355 0.06980389 -0.24739552 -0.027855622 -0.2097035 -0.03010804 0.026520336 0.06421449
-0.12456234 -0.18585765 0.22345403 -0.02192659 -0.19856566 0.040340856 0.06665447 -0.21384406
-0.101551406 -0.06793428 0.27704215 -0.020457938 0.19449216 0.22847442 0.107865795 0.09314562
0.21043652 0.19066945 -0.1097577 -0.18347253 -0.006284818 0.015617336 0.18346816 -0.028566493
-0.15887512 0.12259122 0.11819449 -0.15454186 0.20840935 -0.13998437 0.02208076 0.05388124
-0.15138997 0.18720953 -0.23973629 0.067133285 0.122126706 -0.15454505 0.017634286 -0.13513763
-0.22865345 -0.046785947 -0.0037853692 -0.1391292 0.16030891 0.17645478 -0.1243392 0.06865559
0.17807128 0.18895528 0.021535283 -0.038493387 0.023108508 -0.056033663 0.14944683 0.16030474
0.021840552 -0.05484668 -0.047671445 0.077506244 0.15377043 0.18571566 -0.15202059 -0.09871014
-0.019910777 -0.10099446 -0.05695956 -0.15755826 0.047411807 0.20097664 0.15978369 0.026349643
0.012607972 -0.012530501 0.14155112 -0.05280671 -0.058440905 -0.04115933 0.17383334 -0.06479938
0.10220334 0.054069698 -0.10824695 -0.059702795 -0.07882522 0.13973838 -0.21913971 0.06809868
0.017604316 0.032149024 -0.09840085 -0.03554913 -0.0012273996 -0.046621554 -0.15597758 -0.07562844
-0.011179583 -0.011409869 0.16860998 -0.10739511 0.096274026 0.16815428 0.10162486 -0.11371303
-0.12890849 0.0013108007 -0.004136991 -0.0854023 0.015510223 -0.049858633 -0.15950419 -0.23500639
-0.14040421 -0.009096431 0.21037933 0.19721429 -0.103417136 0.08349793 -0.032243654 0.11012462
0.04059824 -0.05501487 0.0493059 -0.14648934 -0.06935377 0.10669528 0.06988146 0.14940889
-0.17360647 0.14215554 0.027412547 0.11566347 0.0719765 -0.02428205 0.032990776 0.14240152
00000000: 0cc3 64bd c75d 47be f5d9 ab3d 1f69 53bd
00000010: ba6d c93d d753 b33d 5038 0abe 54c0 b13c
00000020: 2474 3dbe d5cf 0cbe 9d77 23be 0b1b d6bc
00000030: 9a29 13be 8589 24bd e08a 3a3d c0d5 8b3b
00000040: 894f 203e 9ab2 36bd 9a30 443e 604c 59bd
00000050: 5f5b 183e 8b00 4f3c 45a9 023e 0b64 23be
00000060: 784d 62bd 070c 0d3e 6da5 e13d 39b4 37be
00000070: 20e3 6b3e a927 0bbe 0c90 59be fde9 26bc
00000080: a1d1 593e b55c 53be 3a71 23bd db15 febd
00000090: 24af e03b 613b 35be 8fc7 9dbd f2eb 603d
000000a0: d618 9dbd 01bd 0dbe 4318 78be 7056 c8bd
000000b0: faa4 c43d 0411 9e3d 92ab ab3c d69c 1abe
000000c0: 0062 4c3d 64f9 233e 4ea9 f13d 0ec2 813e
000000d0: 8dfe 473d a21b 733e 5e10 233d 0cc0 a0bd
000000e0: d7a3 7c3d f3b3 173e 24e4 ccbd 2440 e83d
000000f0: 54dd d73d c9a0 3d3e 4120 243d cfa6 67be
00000100: 04c6 15bb 4fea 3f3e ee17 9ebe 4ae1 08bc
00000110: 4c8f 89be cbe7 3fbe d03d 59be 546e ebbd
00000120: 41e2 35be ef8c 2cbe b080 e8bd f966 fa3c
00000130: ca7b 2e3e bda6 1bbd a081 de3d bd2e 50be
00000140: ef91 2c3e a383 9b3c b2da 1ebe d20e 853e
00000150: f8c5 86bd 2125 333e e208 7f3e cc07 6b3e
00000160: 90d3 083e c878 25be 8511 2e3e ea1b 0bbe
00000170: 4f20 24be f41b 6abe 7f15 3bbe f24d 563e
00000180: 1075 2ebe c4c7 60be 628e a63e d7df 5fbc
00000190: 4a98 41bd fa20 b1bd 1cbe bdbc bfe2 2c3e
000001a0: 1fc0 e43c bb32 04be 6a08 8bbc 28de 583d
000001b0: fb1c c7bc 12ec 13be 1a09 95be 71a0 023e
000001c0: a012 28be 58f5 8e3d 4055 7dbe 7931 e4bc
000001d0: 84bc 56be 23a5 f6bc 2d41 d93c e382 833d
000001e0: 8a1a ffbd 7851 3ebe 22d1 643e 649f b3bc
000001f0: cc54 4bbe 743c 253d 2482 883d f0f9 5abe
00000200: 2ffa cfbd 2121 8bbd 78d8 8d3e 6897 a7bc
00000210: f428 473e 33f5 693e bee8 dc3d 21c3 be3d
00000220: ac7c 573e da3e 433e a5c8 e0bd 39e0 3bbe
00000230: e0f0 cdbb dbdf 7f3c 14df 3b3e 4704 eabc
00000240: 29b0 22be 1b11 fb3d f40f f23d 3940 1ebe
00000250: 4369 553e 1058 0fbe b6e2 b43c 93b2 5c3d
00000260: f905 1bbe dbb3 3f3e 6e7d 75be 2d7d 893d
00000270: 911d fa3d 0f41 1ebe c775 903c 8561 0abe
00000280: 2124 6abe 9fa2 3fbd f513 78bb e377 0ebe
00000290: 0528 243e 90b0 343e 8da5 febd 4d9b 8c3d
000002a0: 5158 363e 7e7d 413e c36a b03c 3eab 1dbd
000002b0: 0e4e bd3c 8e83 65bd 9708 193e ed26 243e
000002c0: f5ea b23c eaa6 60bd 2243 43bd 98bb 9e3d
000002d0: ff75 1d3e 3f2c 3e3e 49ab 1bbe 8b28 cabd
000002e0: ed1b a3bc 2fd6 cebd 6d4e 69bd f456 21be
000002f0: e232 423d d2cc 4d3e 569e 233e 35db d73c
00000300: ab91 4e3c bb4c 4dbc c7f2 103e d94b 58bd
00000310: bb5f 6fbd b096 28bd 5e01 323e 8ab5 84bd
00000320: fc4f d13d 3078 5d3d 94b0 ddbd eb8a 74bd
00000330: 1e6f a1bd 9417 0f3e 2966 60be 5277 8b3d
00000340: ed36 903c b2ae 033d 6386 c9bd f79b 11bd
00000350: b2e0 a0ba 3ef6 3ebd 96b8 1fbe 15e3 9abd
00000360: 922a 37bc 76f0 3abc 18a8 2c3e f8f1 dbbd
00000370: 512b c53d a330 2c3e b220 d03d 61e2 e8bd
00000380: 9600 04be 2ccf ab3a 998f 87bb 67e7 aebd
00000390: 971e 7e3c 9138 4cbd 1155 23be 84a5 70be
000003a0: 1fc6 0fbe 3209 15bc ae6d 573e 8bf2 493e
000003b0: 5dcc d3bd f600 ab3d ec11 04bd 0489 e13d
000003c0: 574a 263d 4657 61bd fcf4 493d 4d01 16be
000003d0: 5909 8ebd 0e83 da3d 031e 8f3d a5fe 183e
000003e0: e5c5 31be 3991 113e 4790 e03c f8e0 ec3d
000003f0: 6a68 933d 26eb c6bc 5621 073d b4d1 113e

bias f4 [10]
-0.11285622 -0.028013857 -0.10133193 0.06606332 0.032127094 -0.07097624 0.1618486 -0.078951344
-0.027474312 -0.0852317
00000000: 2921 e7bd 517d e5bc 1d87 cfbd 354c 873d
00000010: b397 033d fe5b 91bd a4bb 253e 3eb1 a1bd
00000020: cf11 e1bc f58d aebd
