models/xue_epoch_16.pth (torch, 592503 bytes, 22 tensors)

module.0.weight f4 [32, 3, 5, 5]
00000000: 7e2b ffbc 8012 f4bd 0911 59bd a684 ab3c
00000010: 50a5 943c 4c28 58be 36a4 4fbe 0bbf 60be
00000020: 929d 68be ba33 0dbe ef01 98be 98c8 8bbe
00000030: 5f74 6cbe a6ee 5fbe e652 8abe dbd9 0bbe
00000040: 959b a3be d912 8ebe ef11 57be 5ecc f0bd
00000050: 9382 46be 488c 30be 3f25 96be 5b73 90be
00000060: 0640 dcbd 00a3 6d3d 613a 343d 266e 07bc
00000070: 64e3 95bd ec8b c1bd a6ae 2d3d bbd5 273d
00000080: 12da 8a3d 74ad 563d f74b f93d a39d c13c
00000090: fec7 743b 122b 903b 3f60 0b3e c2de 963c
000000a0: 60e2 32bd 575b 453e 27f3 0d3e 8e2c d73c
000000b0: d001 783b c9a1 153e f105 f43d d74a 07be
000000c0: 42fa b93c 32ad bbb9 66cf 88bc 0df9 0d3d
000000d0: 64c1 aa3d 013c ed3d 49f8 00bd ceac 083e
000000e0: 4db7 3b3e 1af9 7a3e b4c5 143e eefd 2d3e
000000f0: 6a1f 8a3e 85f2 683e 3923 1d3e 68fd 1c3e
00000100: 15ed 173e cdde 863e b178 9a3e 7c38 243e
00000110: 8535 543e 7a73 8f3c f6a9 563e 984d 473e
00000120: f5b1 303d fe77 4b3d a08b 26bd bf71 8c3d
00000130: 59e2 1ebc aa10 333e 1408 113e a198 fc3d
00000140: 6508 313e 2210 2a3e 256c 8b3e fa78 8a3e
00000150: c2cd 3b3e c23a 503d f79e 243d 6850 d13c
00000160: 5e1b 7d3d ef75 8cbd e783 963c 4b62 76bc
00000170: 1017 423d d911 203d 8413 fe3d 11a7 e03c
00000180: 46e0 abbb cc04 7ebd d6ae 4a3d 3cd8 74ba
00000190: dfbd 693d cdb7 59bd e380 ae3b e96b 34bd
000001a0: abd3 1f3d 7d2d 813c 4b80 463d 00da 6bbd
000001b0: f15a 103e 5289 1c3d 8185 95bd d44f 35be
000001c0: 805c 08be 4669 0fbe ec22 efbc 5a03 a8bd
000001d0: a4c4 b9bd cc5d 27bd a63c 01be 33d2 abbd
000001e0: 9f2f 3f3d 29e3 c5bd 279d 0b3c 0d8d aa3d
000001f0: 17cc 13bd 7024 01bd 81eb a73d d856 c8bc
00000200: a1f8 443e fb4f 283e 5e2c 913d 073d ea3c
00000210: 9edc 01bd f73e 853d c029 773d fefa 4bbd
00000220: ba68 2ebe 249a 8dbd 9aef 24be 7e42 08be
00000230: 6879 a2bd f135 09be 4a69 68be ce7e dabd
00000240: 0e0d 05bd 2cc0 debd 2779 dfbd 4c0f 15be
00000250: a420 243d 9eae 1b3d 55a0 073d 3bce 82bc
00000260: 0a1d 9cbd bf7f a43c 324d cb3d 806b 16be
00000270: 3e9c eabd f337 debd 816a 773e f9b5 1a3e
00000280: 069f 05be 1feb a6bd 71b3 143e 7287 a63e
00000290: 2da8 f93d 818d 75bb a49e 06bd b468 2c3e
000002a0: fbb8 a4bd d2d1 66bd 222a 4fbe 0af4 3c3d
000002b0: b756 473d 5a82 b1bd 31be 6ebe 5920 543d
000002c0: bcc0 133d c7c4 40be ad4a 74bc 2eeb de3c
000002d0: 5626 07bd 600c 13be 9388 c0bd e4c6 3e3d
000002e0: 5383 843d 6f39 1a3d fd55 dabc 6421 ae3d
000002f0: 2e2d 623e cba6 da3c a5bb b63d f218 27bc
00000300: 5fb4 c13d be13 0b3e 8ad5 e2bd 9fcf 723d
00000310: 25c9 4a3e 9887 153d 4248 37bd da47 2cbe
00000320: b257 1bbe 2075 163d a9a1 4dbd 553e 27bd
00000330: d2b6 f93c f83a dbbd 84e1 84bd 5db0 0fbd
00000340: 6607 1b3e 117f 4c3e adde cbbd bf2e 9c3d
00000350: 380f f0bc 928f 823e f495 97bb 6fd4 40bc
00000360: 4796 99bc 0c10 1c3e 4c5a 04bd 071d a0bd
00000370: ad03 8c3d c436 84bc bbb7 dd3d ba24 a5bd
00000380: 8c59 dbbd f191 a63b bd3e 46bb 3425 86bc
00000390: d206 e93d a57f 41bc 0a81 b83c 7890 8abe
000003a0: 2b92 b1bd 8fe1 2c3e dd0c 5f3e b96b e7bd
000003b0: 44f7 80be 1f87 79bd 55d4 b43d aa22 2c3e
000003c0: 9883 21bd 640f 31be 57bf c6bd 98e5 2a3e
000003d0: 91b8 813e 2715 c7bd 7000 063d 79b6 dabd
000003e0: 246c b2bd 4d3c 303e 654d 93bd 593c 0dbc
000003f0: fbd7 1b3d 749f 353e 14b5 853e 5aff 98bd
-0.031148668 -0.11917591 -0.05299476 0.020937275 0.018145233 -0.21109122 -0.20277485 -0.21947877
-0.22716358 -0.13789263 -0.29688975 -0.27301478 -0.23091267 -0.21868381 -0.2701637 -0.13657324
-0.31954637 -0.27748755 -0.21002935 -0.1175773 -0.19385748 -0.17241013 -0.29325292 -0.2821301
-0.10754399 0.058016777 0.044000987 -0.0082660075 -0.07318762 -0.09450516 0.042402886 0.040975314
0.06779875 0.05241151 0.12172692 0.023634737 0.003735065 0.0043996656 0.13610934 0.018416766
-0.04367292 0.19273125 0.13862287 0.026266363 0.0037842877 0.14612497 0.11915196 -0.13212143
0.02270234 -0.0003579646 -0.016700458 0.03466134 0.083376676 0.115837105 -0.031486783 0.1334717
0.18331642 0.24509087 0.14528543 0.16991398 0.26977092 0.22748764 0.15345468 0.15331042
0.14836533 0.26341859 0.30170205 0.16037172 0.20723541 0.017511118 0.20963272 0.19463193
0.043138463 0.04967498 -0.0406605 0.06857633 -0.00969752 0.17486826 0.14163238 0.12333799
0.17288359 0.16607717 0.27230945 0.27045423 0.18340209 0.050837286 0.040190663 0.025551036
0.061793678 -0.068584315 0.018373443 -0.015038083 0.047385275 0.03907952 0.12406066 0.027423413
-0.0052452413 -0.062016293 0.049483143 -0.0009340083 0.05706584 -0.0531538 0.005325423 -0.044048224
0.03902022 0.01576876 0.048462193 -0.057580948 0.14097191 0.038216896 -0.073008545 -0.17706233
-0.13316536 -0.14005002 -0.029191457 -0.08203764 -0.09070709 -0.040860936 -0.12620792 -0.08389702
0.046676274 -0.09662468 0.008521355 0.083276846 -0.036083307 -0.03152889 0.08199216 -0.024455473
0.1923547 0.1643676 0.070885405 0.028593553 -0.031704538 0.0650615 0.06034255 -0.04979991
-0.17032138 -0.069141656 -0.16107026 -0.13306615 -0.07933313 -0.13399483 -0.22696415 -0.10668717
-0.032483153 -0.108764976 -0.1091178 -0.14556617 0.04007019 0.038008325 0.03311189 -0.015967479
-0.07622726 0.020080445 0.09926833 -0.14689445 -0.11455582 -0.10850515 0.24161722 0.1510848
-0.13048944 -0.081503145 0.14521576 0.32525212 0.1219028 -0.0037468376 -0.032866135 0.16836816
-0.08043095 -0.056352444 -0.20230916 0.04613117 0.048666682 -0.08667441 -0.2331474 0.05178866
0.036072478 -0.18825065 -0.014910382 0.027211752 -0.032995544 -0.1436019 -0.094010495 0.046576396
0.064703606 0.03765243 -0.02665233 0.085024625 0.22087547 0.026690861 0.08922509 -0.0101988185
0.09458231 0.1358175 -0.110758856 0.059280034 0.19803293 0.036506265 -0.044746645 -0.16824284
-0.15170172 0.036732793 -0.050203 -0.04083093 0.030482683 -0.10704607 -0.06488326 -0.035080303
0.15139541 0.19970347 -0.099545814 0.076261036 -0.029304132 0.2550016 -0.00462603 -0.011769398
-0.018748416 0.15240496 -0.032312676 -0.078180365 0.068366386 -0.016139396 0.108260594 -0.08063646
-0.10710439 0.0050833155 -0.0030249797 -0.016375162 0.11378254 -0.011810218 0.022522468 -0.27063346
-0.086704575 0.16882919 0.2178225 -0.11299843 -0.2518865 -0.060919877 0.088295616 0.16810098
-0.03943214 -0.17291027 -0.09704464 0.16689146 0.25336125 -0.09720831 0.03271526 -0.10679335
-0.087120324 0.17210503 -0.07192496 -0.008620345 0.038047772 0.17736608 0.26114714 -0.074705794

module.0.bias f4 [32]
00000000: 3f8c 913d 7f52 bcbd 9671 6b3d 5e9a db3d
00000010: c6f9 803d 8763 0e3d b6de 84bd 4d00 da3c
00000020: 59d6 a43d 5756 813d 71d8 813d 8ab2 9dbd
00000030: 6c8a bd3c 480a cd3d 9bc5 433d 7d81 93bd
00000040: 5169 d3bd 6a21 81bd b922 f0bc 4f78 9a3d
00000050: 64e0 e13c 9853 2ebd a7e1 da3d d8c0 91bd
00000060: 43d9 bdbd 5747 4f3d fac4 9b3d 53e3 1a3d
00000070: f173 bc39 47ee 82bd 3e3b 5d3d d706 663d
0.07106828 -0.091954224 0.05748137 0.107228026 0.062976405 0.034762885 -0.06487791 0.026611472
0.08048696 0.06315296 0.06340111 -0.07700069 0.023137294 0.100117266 0.047795873 -0.07202432
-0.10322822 -0.06305201 -0.029313432 0.07542478 0.027572818 -0.04256019 0.10687571 -0.0711686
-0.09269955 0.050605144 0.0760593 0.03781445 0.00035944537 -0.06393104 0.054011576 0.056158867

module.1.weight f4 [32]
00000000: f95e 3c3f 357f 5a3f 356a 513f ae1a 913f
00000010: c538 873f c62f 803f 139e 2b3f 94fa 773f
00000020: 0864 ad3f da8c 493f f852 513f d699 7e3f
00000030: d680 633f 25bd 763f 3b8e 803f 9c11 813f
00000040: 7d81 413f 7799 813f 3c6b 493f b96a ca3f
00000050: cd6b 553f 5388 8e3f 0750 413f 8d4d 923f
00000060: 04e3 b73f 8539 803f dd17 4c3f 6232 843f
00000070: 4f66 903f d7be 7c3f fd29 803f d265 943f
0.73582417 0.8535035 0.81802684 1.1336267 1.05642 1.0014579 0.6703808 0.96866727
1.3546152 0.7873055 0.81767225 0.99453485 0.88868463 0.9638236 1.0043405 1.0083499
0.7558821 1.0124959 0.7867925 1.5813819 0.83367616 1.1135353 0.7551274 1.1429917
1.4366155 1.0017554 0.7972391 1.0327876 1.1281222 0.987287 1.0012814 1.1593573

module.1.bias f4 [32]
00000000: c92f 1e3e 8c8f 73be 26b5 70be 16ad f1bd
00000010: 4bf2 12be 477c 68be c41d dd3d cfdf 2ebe
00000020: eff8 f3be 989a 07be e8d0 7ebd 45d6 dcbd
00000030: 383d 893c 6dc9 843b b22b 8dbe f989 2bbd
00000040: 893e 0dbc 5feb 383a 34c6 69be 2761 8fbe
00000050: f7c2 2dbe d229 14be 9d9b 9ebe f480 eebd
00000060: 4a11 c23b 88e9 b3be 25b7 a8be a2ac 96bd
00000070: e59c 09be 3c62 b3bd 58fc 04be 8d67 4cbd
0.15447916 -0.23785228 -0.23506603 -0.11800592 -0.1435024 -0.22703658 0.10796693 -0.17077564
-0.4765086 -0.13242567 -0.062210947 -0.10783056 0.016752824 0.004052332 -0.275724 -0.041879628
-0.008620867 0.0007054116 -0.22829515 -0.2800381 -0.16968904 -0.14469078 -0.309781 -0.116456896
0.005922471 -0.35139108 -0.32952228 -0.07357146 -0.13438757 -0.08758971 -0.12986887 -0.04990344

module.1.running_mean f4 [32]
00000000: aaab 2fbe b572 0a3d 2c31 9e3e 4852 853d
00000010: 70d7 00bd 9d68 a1be cb9b b6be da6c 833d
00000020: 1b11 1cbf c5cc a63e 96e1 a63e 6f1a b9be
00000030: 65c2 b93d b375 fa3d 225f 59bb f13a 92bd
00000040: 7861 b93d fdbb 8cbd 9780 113b 9324 153d
00000050: e87b 77bd 54bd 0dbd 4e96 df3e 15c5 4abc
00000060: c55e 0dbe 6a29 14bf 385e 703e 8dac 883d
00000070: b533 0bbd 49f9 b2bd 6997 763d 72ce 7c3d
-0.17155328 0.0338008 0.3089689 0.065098345 -0.031455457 -0.31525126 -0.35665736 0.06417246
-0.609636 0.32578102 0.32593983 -0.3615298 0.09070281 0.122294806 -0.0033168276 -0.071401484
0.09051794 -0.068717934 0.002220189 0.036411833 -0.0604209 -0.034604385 0.4366936 -0.01237609
-0.13805683 -0.5787569 0.23473442 0.066735364 -0.03398486 -0.087389536 0.06020299 0.06172032

module.1.running_var f4 [32]
00000000: a558 a53e e7c3 453e c23d c13d 42c0 133f
00000010: b0f1 433d e085 d03d a187 033e 9ec2 833d
00000020: 538e 813e 9be0 a03d 7442 5c3e 02b3 f83d
00000030: 2e38 0d3e 9103 b93e cc55 343e 7da3 ad3e
00000040: d2f9 813e c727 4a3e 9d65 3b3d 5869 103f
00000050: b646 d73d 5e7b bc3d 2995 f53d f31e f63d
00000060: 7290 b63e 6966 8d3e 18db 293d b7db 8b3e
00000070: 0af8 903e d1b9 4f3e e94f bf3d e183 2c3f
0.32294193 0.19313012 0.094356075 0.5771524 0.047837913 0.10181785 0.12844707 0.06433605
0.25303897 0.0785534 0.21509725 0.12143518 0.13790962 0.36135533 0.17610854 0.33913794
0.2538591 0.19741736 0.045751203 0.5641074 0.10511534 0.09203218 0.11991341 0.12017622
0.35657078 0.27617195 0.04146871 0.27316067 0.2831424 0.20285727 0.093414135 0.6738873

module.4.weight f4 [32, 32, 5, 5]
00000000: 3f52 9bbd 2d9b 9dbd bf1f aebd 73e8 3cbd
00000010: 536c 96bd 6c6c 1abd 41ed b9bb 1011 b9bc
00000020: 1734 27bd f4eb 28bd 35d8 d73b 14a4 51bd
00000030: 9f8e 13ba 9afc 32bd 34f7 453b a845 f83c
00000040: fc89 c33c 992e 813d 0775 7e3c fb3a ec3c
00000050: 6e99 143d a768 ba3d 8f13 bf3d 6256 cb3d
00000060: 71d4 4a3d cb0e 10bd f710 3bbc aecc 0bbd
00000070: c9e3 813c 0573 8abc a6c7 10bc 97b9 fabc
00000080: 33d9 17bd 8902 2ebd 5e55 853c 0d22 173d
00000090: 96a0 883d c8fe 933d 28da 673d b9d5 063b
000000a0: 58ab b4bd f19a edbc 759b 8abc 6138 e4bc
000000b0: 84cc 3fbd 11bf c1bc 7bdb b3ba 962a c13c
000000c0: 54dc a83d c8a7 2b3d b668 86bd bd81 b3bd
000000d0: 9030 41bd b9a5 1dbd 5e8e e7bc 19d6 5abd
000000e0: 71db 39bd 63d1 d4bc 8d9e 0cbd abe1 21bd
000000f0: 440b 2abd 9206 aebb bc75 afb9 4022 2dbd
00000100: f9a5 613b 6a59 e6bd a326 9ebd a107 82bb
00000110: d732 80bc ffcb dcbc 7ab4 19bc 60dc 073d
00000120: 7fd8 1d3d dd5e 463b 7b54 8b3c 4f5a c6bd
00000130: d25b 6bbd d357 c439 4c6b 25bc 2ae3 b53b
00000140: 7fcc 95bc 0445 573c 43bb f53c aa14 0bbd
00000150: 38c0 c63c ec5e adbd e3b9 2bbd a8ae 1a3d
00000160: 6150 30bd ec48 10bd 6fc9 8ebd 92c2 7cbd
00000170: bd8f 89bd e2a9 babd a1e2 47bd 581d d7bd
00000180: c292 c8bd 40fe 5abd d56d a7bd fbbb 63bd
00000190: 2f49 41bc 0dcb 30bd 9843 7abd 7c26 2bbd
000001a0: 37b0 4fbd 17da 733d 5338 653c a929 1c3c
000001b0: aa35 ddbb 58fe 3b3d 31cb 513d 60dc 16bd
000001c0: a1e7 c1bc 9bee 45bc 6153 353d 3bb6 323c
000001d0: 26fb c13d edca afbc 9f83 92bd 8254 f5bc
000001e0: c9b1 bbbd 1b7a ecbd a6bf a5bd de31 21bd
000001f0: 840b 2a3d d31b 80bd 215b 6fbd 6e86 273b
00000200: f8c6 8bbd 4963 81bd c94e d0bd 7af3 0abd
00000210: d68d 92bb a99c 44bd 0448 e5bd 307c 81bc
00000220: 94e1 973d b001 103e dc1a 9d3c 1904 58bc
00000230: d686 283e 7e0a 9c3e 4d5e 933e 5dd0 623e
00000240: 8913 f33d bdb1 d7bc 4f46 833c 7adc 383c
00000250: 1a70 5dbd 36ae 37bd 0de5 223d a46b 4f3d
00000260: 4469 2f3d 4374 8f3c b1e3 ac3c 0899 4b3c
00000270: 658b 213d 2355 3d3d 0731 0f3d 2d7d 3f3c
00000280: ebce b13c 2253 0dbd 91b4 703c 6508 7fbc
00000290: 9d3a ad3c 221e ca3c 679c a93d ea4d 993c
000002a0: 8031 323d 79ae 343d 45c9 b23c d740 22bd
000002b0: fadf d13a 5039 35bd f13f f83c 9dd7 1ebc
000002c0: a531 81bc b19e bf3c 2d83 27bc 5d1b 91bb
000002d0: 3cd5 d4bc f160 c0bc f803 66bc 02d2 043d
000002e0: 01be 71bd 64d6 3c3c 1895 463d 547d f03d
000002f0: 2293 313d 4d4d bf3c 97b7 573c 6b23 0cbd
00000300: b9cf 4fbd 2c21 e93c 60ef ba3c 8eef 5abd
00000310: 6c2c 0cbd 4320 c4bd f12a a7bd 7eb7 88bd
00000320: c074 4fbd f8ea dfbb 4086 82bd d2f6 76bc
00000330: ec03 86bd 07b2 9b3a d5ad 3c3d fe2c e6bc
00000340: dd92 3ebc 448e 46bd a27d 1bbd dbb9 97bc
00000350: 9317 85bc f095 44bd d4ce 1cbd 88e0 f6bc
00000360: 57a9 c9bc d0e6 f5bc 36cc 6fbd 4591 eebd
00000370: a095 b53d 4e4d f13d b6ce c83d 8c2e 053e
00000380: 3445 973d f0d7 a9bc 9011 31bd b8f9 06bd
00000390: 7835 0e3a 14b5 f83a 2e08 5dbc e5ae 2cbd
000003a0: 76ea 6fbc 879d 3abd efd6 683c f1d3 003d
000003b0: 00b8 223c fecc 053d 2af6 bebb 8780 51bc
000003c0: 0e18 74bb 088b 62bd 77ef 09bd c034 13bd
000003d0: fece fdbc e1fb e3bc 697d d13b 2311 0dbd
000003e0: e014 3c3c f862 df3b df00 9dbc f74d 87bd
000003f0: 6d5e 38bd 43c2 cbbc 097b a33c fa44 e0bc
-0.075840466 -0.07695613 -0.08502149 -0.04612012 -0.0734488 -0.037701055 -0.005674035 -0.022591144
-0.04082116 -0.041240647 0.006587053 -0.051181868 -0.0005628857 -0.04369793 0.003020716 0.030306652
0.023869507 0.06307716 0.015530831 0.028836718 0.036279134 0.09101992 0.093299024 0.099285856
0.049519006 -0.035170358 -0.011417619 -0.034130745 0.015855687 -0.016900549 -0.008836662 -0.030606074
-0.03707237 -0.042482886 0.016276058 0.036897708 0.06671254 0.0722633 0.056604534 0.0020574166
-0.08821744 -0.029004546 -0.01691983 -0.027858915 -0.0468259 -0.023650678 -0.0013722026 0.023579877
0.08245149 0.041908056 -0.06562941 -0.0876498 -0.047165453 -0.038488124 -0.028266128 -0.053426836
-0.04537529 -0.02597875 -0.034330893 -0.039521854 -0.04151465 -0.005310842 -0.0003346632 -0.04226899
0.0034431203 -0.11247523 -0.07722213 -0.0039681946 -0.015649242 -0.026952742 -0.009381408 0.03316915
0.038536545 0.0030268945 0.017008057 -0.09685194 -0.057460614 0.00037449467 -0.010096382 0.0055507617
-0.018285988 0.013139013 0.02999652 -0.033955254 0.024261579 -0.084653705 -0.041925322 0.03776422
-0.043045405 -0.035225794 -0.06972014 -0.061708994 -0.06716869 -0.09114434 -0.048800115 -0.10503644
-0.09793617 -0.053465128 -0.08175246 -0.055599194 -0.0117972335 -0.043162394 -0.06109962 -0.04178475
-0.05070516 0.05953416 0.0139904795 0.009531417 -0.006750782 0.045896858 0.05121917 -0.03683126
-0.02367002 -0.012080814 0.04426897 0.010907705 0.09471731 -0.021459067 -0.07154011 -0.029947523
-0.09164769 -0.11546727 -0.08093195 -0.039354198 0.04151489 -0.06255307 -0.058436517 0.0025562304
-0.0682506 -0.06317765 -0.10171277 -0.033923604 -0.0044724746 -0.048000965 -0.111953765 -0.015806288
0.074160725 0.14063144 0.019177847 -0.013184571 0.16457686 0.30476755 0.28782883 0.22149797
0.118689604 -0.02632987 0.016024737 0.011283034 -0.054061987 -0.044843875 0.03976922 0.050639763
0.042825 0.017511493 0.021104665 0.012426622 0.039439578 0.04622377 0.034958865 0.011687559
0.021705111 -0.03450311 0.014691488 -0.015565966 0.021146113 0.024672572 0.082817845 0.01871391
0.043504238 0.044111703 0.021824488 -0.039612617 0.0016012185 -0.04424411 0.030303927 -0.009694961
-0.015770743 0.0233911 -0.010224146 -0.004428311 -0.025980584 -0.023483725 -0.014039032 0.03242684
-0.059019092 0.011525724 0.04848203 0.117426544 0.043353207 0.02335229 0.01316633 -0.034213465
-0.05073521 0.0284582 0.022819221 -0.053451113 -0.03422205 -0.09576466 -0.08162487 -0.06675623
-0.05064845 -0.0068334304 -0.063732624 -0.015073495 -0.06543717 0.0011878618 0.046064217 -0.028097626
-0.011631695 -0.04847552 -0.03796161 -0.01852124 -0.016246593 -0.047994554 -0.038283184 -0.030136362
-0.02461688 -0.030017287 -0.05854436 -0.11648802 0.08866429 0.11782323 0.09805052 0.13006037
0.07386246 -0.02073285 -0.04322964 -0.032952994 0.00054248376 0.0018974864 -0.01349072 -0.04215898
-0.014643302 -0.045560386 0.0142114 0.031452123 0.009931564 0.0326662 -0.005827685 -0.012786991
-0.0037245783 -0.05530837 -0.033675637 -0.03593898 -0.03098249 -0.027830066 0.006393124 -0.03444017
0.011479586 0.006817218 -0.019165454 -0.066066675 -0.045011926 -0.024872905 0.019956129 -0.02737664

module.4.bias f4 [32]
00000000: 06f6 07bd 6f67 16bb 406b 843c d07d e8bb
00000010: 9094 b3bc 85fd dc3c 8174 b63c 34f1 b6bc
00000020: 8f85 a53c 5e8c 103d db87 febc 171e 293b
00000030: d0f2 6abc cdfb aebc 9234 03bd 0961 173c
00000040: c15e cb3c a197 98bc 92e3 dcba a423 d7bc
00000050: 17ee c53c 6281 fabc 7f82 903b 4d5b 323c
00000060: 92a0 c539 e629 d93c adfd d03c 5ed9 f7bc
00000070: 910f 6e3b 7f41 f8bc e14b 6f39 dd86 803b
-0.03319361 -0.0022949835 0.016164422 -0.007095076 -0.021921426 0.026976356 0.02227235 -0.022331811
0.020205287 0.035290115 -0.03107064 0.0025805288 -0.014340118 -0.021360302 -0.032032557 0.009239444
0.024825456 -0.01862699 -0.0016852489 -0.026262112 0.024161382 -0.030579273 0.0044100876 0.010886026
0.00037694402 0.026509237 0.025511587 -0.030255016 0.0036325196 -0.030304668 0.00022821083 0.003922327

module.5.weight f4 [32]
00000000: 883b 323f 5dbd 4b3f 8640 723f 3908 683f
00000010: dc80 4f3f 34d8 833f 3066 583f 7146 853f
00000020: 2947 863f e0b6 7e3f 39c0 8b3f bfe2 833f
00000030: 7d91 6b3f 4490 a53f 0ad6 7f3f 6d66 8a3f
00000040: b589 733f 9b2e 693f c5ac 7a3f e34b 863f
00000050: d412 653f 23c9 413f cab5 873f ce7f 623f
00000060: 4a85 583f 96ec 803f c6b7 5a3f d2d5 7a3f
00000070: 0354 893f 6c96 823f 1b7e 7c3f bc40 6e3f
0.6962209 0.7958582 0.94629705 0.90637547 0.81056 1.0300355 0.84530926 1.0412122
1.0490466 0.99497795 1.0918037 1.0303572 0.9201887 1.2934651 0.9993597 1.0812508
0.95132 0.9108674 0.97919875 1.0491909 0.89481854 0.75697535 1.0602353 0.88476264
0.8457838 1.00722 0.85436666 0.97982514 1.0728763 1.0202155 0.9862992 0.93067527

module.5.bias f4 [32]
00000000: c95f 39be 2ce9 23be 2314 d8be 781c cdbe
00000010: 213a c5bd 9703 a1be f125 67be 226e adbe
00000020: c8fb 99be 8a2a c0be b340 1ebf 9b42 c1be
00000030: f28b e0be ba54 f0be 48e3 dbbe 2cb6 a4be
00000040: a6bc d8be 9760 aebe e947 87be 61cd e2be
00000050: 7477 afbe 2f90 04be a76a d7be 13b5 d4be
00000060: a5c8 b3be b6ac 73be 5e61 67be daec b0be
00000070: 07fd 0abf ba06 e6be 700b 60be dd95 babe
-0.18102945 -0.16006917 -0.42202863 -0.40060782 -0.09630228 -0.3144805 -0.22573067 -0.33873087
-0.30074906 -0.37532455 -0.61817473 -0.37746128 -0.4385677 -0.4693964 -0.4294684 -0.32170236
-0.42331427 -0.34058067 -0.2642205 -0.44297317 -0.34270823 -0.12945627 -0.42073557 -0.415444
-0.35114017 -0.23796353 -0.22595736 -0.34555703 -0.5429234 -0.44927007 -0.21879363 -0.36442462

module.5.running_mean f4 [32]
00000000: ed93 23bc 9d52 2fbf ece9 06c0 2dee 7a3f
00000010: 67cf d1bf 28c8 28bf 8e95 8abe 2791 3dc0
00000020: 5882 1dc0 770b 1bc0 9525 1dc0 d9bc 71c0
00000030: 1d24 99bf 7fad 60c0 b908 08c0 c699 76c0
00000040: 9dbb 1cc0 7427 a1bf 26c4 3ec0 c8a2 08bf
00000050: 567d b6bf 4abd e23e 3ce7 8fc0 773f cdbf
00000060: 6764 41c0 ecd2 2cbf 5b1b 83bf ea07 efbf
00000070: 7cdc 06c0 b918 3bc0 23ab 17c0 9a2a d5bf
-0.009983999 -0.6848543 -2.1080275 0.9801968 -1.6391419 -0.65930414 -0.27067226 -2.9619844
-2.4610806 -2.4225748 -2.4554188 -3.7771513 -1.1964146 -3.5105894 -2.1255324 -3.8531356
-2.448951 -1.2590165 -2.980722 -0.53373384 -1.4257 0.4428504 -4.496977 -1.6034993
-3.021753 -0.6750934 -1.0242723 -1.867429 -2.1072073 -2.923384 -2.3698204 -1.6653626

module.5.running_var f4 [32]
00000000: 9521 9040 2545 a740 7234 bb40 42f1 b640
00000010: c90b bd40 0025 a240 aab6 e940 f44c f540
00000020: 4042 f440 35f7 0441 b2e8 da40 8dde c640
00000030: cabf 8540 1775 4c41 1187 8a40 2556 1941
00000040: 7377 a340 7add a740 cd04 a640 33bf f540
00000050: d0a6 d040 f780 9640 871b 0841 dd17 9140
00000060: 49d0 da40 e3a9 8240 fa46 7240 b8d6 cc40
00000070: 026c d040 9a40 ba40 2cdb b640 8378 9f40
4.5040994 5.2271905 5.850152 5.7169504 5.9076886 5.0670166 7.303548 7.6656437
7.633087 8.310353 6.840905 6.214667 4.1796618 12.778586 4.3289876 9.583531
5.108331 5.2457857 5.188086 7.6795897 6.520363 4.703243 8.506721 4.534163
6.8379254 4.083238 3.785582 6.401211 6.5131845 5.820386 5.7142544 4.983461

module.8.weight f4 [64, 32, 5, 5]
00000000: 40b5 fcba 8028 43bb 3aa5 74bd 6aa5 5bbd
00000010: b879 84bd 49ea a03c 68ea 36bc 390e 9cba
00000020: 0133 e7bc dbdd debc cac0 863d b3af 873b
00000030: 3c54 293c eb12 1cbc bee0 623d 3eba 973d
00000040: 5586 cbbb c32d a9bd 8e37 ccbc 7128 9e3c
00000050: 6abe ba3d a657 ba3c ebf1 b93c 4fdd 963d
00000060: 7a46 993d c361 873c 9eca 99ba d18f 943d
00000070: 334d 853b 554c acbc 9541 223d f870 953a
00000080: 8f86 a2bb 02c3 cbbc cf71 1abc da3c 203d
00000090: e7a5 7c3d f202 eb3d 988c 663d 60ff a63d
000000a0: 39cc 853d d4f8 b73b 1627 8c3d 32e7 de3c
000000b0: 09ee 6b3d 573d b93c bb6e 013d 5d65 af3c
000000c0: 7b71 6f3c 8754 fc3c 888a c43c 6b08 5f3d
000000d0: eeb8 8b3d 6485 623d 607c 6f3b 9d20 91bc
000000e0: 61ba d2ba f10a 293d f109 393d 645a 953c
000000f0: 7020 803c 6e0a f9bc 8be2 9fbc 3061 d03c
00000100: 8ac9 bebc c1ba 483d 4caa 653c 9363 71bd
00000110: 8f07 11bd 385b 263c 06a9 1b3d d431 c73c
00000120: 031a e93c fc50 8abc d90e a0bc 670e 42bd
00000130: acdd 4b3d 73e1 e63c 3d30 eabc 9e6c 34bd
00000140: 4564 f2bc 241b 9bbc e37a 78bd 4cd5 383a
00000150: 16aa a53b 4d13 00bd e60b 51bd 8757 803c
00000160: 42c1 25bd b9a4 49bd 1610 dfbd e8d2 1e3b
00000170: ad0f c13c b047 e33a d2d7 09bd 781d dcbd
00000180: 43e8 8cbd 1681 8f3d 7814 b93d 57f5 d7bc
00000190: 6242 c7bd dc0d 3abd 9310 9b3c d871 16bc
000001a0: 19a7 10bd 1ffc 2dbd ebcb fdbc 260c 5d3d
000001b0: 4062 013d e6f5 b3bb 368d 493d 32bb 4bbd
000001c0: 918b 45bd b720 b03c 16ae 613d 2e2f 423d
000001d0: 3fa1 4b3c 1a3b 59bd e123 0bbd 4ffb 24bd
000001e0: 1c50 6f3d 1ac1 1f3d d1e7 4abd 698d 1fbd
000001f0: 18da 20bd b5fc c0bc 271f 00bd 3315 9cbd
00000200: 9b0d 8fbd 47c6 4dbc 63b9 8d3c 4197 9e3d
00000210: 6e25 6cbd d8a9 a5bc 7586 ec3b c690 78bd
00000220: 8a74 573d 80a4 00bd 19d4 f5bb 8d11 31bc
00000230: 01e1 f7bc 00ce 273b 75b8 0f3d 58ab 3a3b
00000240: 7ea0 22bd 4999 79bd 065d 89bb 3a2a e73c
00000250: cb3f 5d3c ef8b 63bc f806 0b3d f036 ae3d
00000260: 5f51 613d 074b 4f3d efaa 703c 53b8 c43c
00000270: fe1b 98bb 92a8 b5bb 7cbf 4f3b c892 333c
00000280: f9c8 753d 6d50 483d 0e1b e13c 9488 3d3d
00000290: d25f 23bb 75fa 49bd 2c1e 513c d089 833c
000002a0: 351f 74bc 9cfc 0fbd 6758 9d3b da61 1fbd
000002b0: c74d fbbc b998 4bbd 9cd7 5bbd cbcc 6abd
000002c0: aa57 8a3a 73a6 433d 6b90 02bd 27fe cdbc
000002d0: d3c0 87bd 53f4 923c 2025 3a3d e4f0 e13c
000002e0: ff87 d9bc f5ca cebb 85d0 2a3c 01b4 533d
000002f0: e74d 863d f656 3d3c 595d c6bc 09a8 843a
00000300: 5c1b 703c 2e61 0ebc 8086 3dbc b892 7b3d
00000310: 5392 5d3d ae83 a9bd 1537 97bd 2f3d a9bc
00000320: 6e28 253d 2bd6 c4bc 9294 8cbc 1405 66bd
00000330: a954 eabd ec3c a53d baee b13d be95 0f3c
00000340: 65fb bdbd 6a6d f2bd 2530 753d a5a2 843d
00000350: 727b 79bd e964 2dbe c62d 40be 6f41 043e
00000360: f90d a13d cd6b 4bbc 03f2 27be 019b 28be
00000370: 67f4 8d3d 09f6 213d f56a d03c a47c cabd
00000380: abcd 373c 420f 363d afe6 313d 2a40 af3c
00000390: f736 10bb 7a66 803c 52bf 96bc 5bd0 053d
000003a0: 855a dc3c b8b5 923c fde2 433c 33b5 cbbc
000003b0: be99 53bc c0f1 bc3b d97b 103c 5b5c 053c
000003c0: a41a ee3c 67d6 97bc 7f07 2dbd 1abb 453c
000003d0: f81a e73d f080 913c f2ea 60bd 2db2 a2bd
000003e0: e46f 75bc 745f 763d 1d6b b73d f724 d03c
000003f0: 0353 cd3d 98b2 d03c 1b52 06bc 5c66 033d
-0.0019280091 -0.0029778779 -0.059727885 -0.053624548 -0.064685285 0.019642966 -0.011164285 -0.0011906094
-0.028222563 -0.027205398 0.0657974 0.004140818 0.010335024 -0.009525995 0.055390112 0.0740857
-0.006211082 -0.082606815 -0.024928834 0.019306393 0.0911835 0.022746872 0.022698363 0.0736643
0.074841455 0.016526109 -0.0011733358 0.07253993 0.0040680408 -0.021032492 0.039613325 0.0011401465
-0.0049598883 -0.02487326 -0.009426548 0.039120533 0.061681654 0.11475171 0.056286424 0.08154178
0.06533093 0.0056143794 0.068433926 0.027209852 0.057600055 0.022612257 0.03159974 0.021410638
0.014614458 0.030802025 0.023991838 0.054451387 0.06822382 0.055302992 0.003654264 -0.017715747
-0.0016077274 0.0412702 0.045175496 0.018231578 0.015640467 -0.030400481 -0.019517204 0.025436968
-0.02328946 0.049006227 0.014017653 -0.058932852 -0.0354076 0.010153584 0.03800299 0.024315752
0.028454786 -0.01688432 -0.01953833 -0.047377016 0.04977195 0.028183674 -0.028587455 -0.044048898
-0.029588828 -0.01893384 -0.06066407 0.00070508267 0.005055676 -0.031268407 -0.051036738 0.015666736
-0.040467508 -0.049229357 -0.1089174 0.0024234597 0.023567045 0.001734009 -0.033653088 -0.10747808
-0.06880238 0.07007043 0.09037107 -0.026362104 -0.097294584 -0.045423374 0.018928802 -0.009182416
-0.035315607 -0.04247677 -0.030981025 0.053966664 0.03158784 -0.00549196 0.049206935 -0.04973907
-0.048228804 0.021499975 0.055097662 0.047408275 0.012428581 -0.05303488 -0.033969764 -0.04027873
0.058426008 0.039002515 -0.049537484 -0.03895322 -0.03927049 -0.023558 -0.03127971 -0.07621231
-0.06985017 -0.01255948 0.017300313 0.07743693 -0.057652883 -0.02022259 0.007218177 -0.06068494
0.052601375 -0.03140688 -0.0075020907 -0.010807407 -0.030258657 0.0025604963 0.03508802 0.0028483476
-0.03970384 -0.0609372 -0.0041919975 0.028218377 0.013503979 -0.013888343 0.033942193 0.08506572
0.055009242 0.05060866 0.014689191 0.024013674 -0.004642009 -0.005543777 0.0031699827 0.010960288
0.060006116 0.048904825 0.027478721 0.04627283 -0.002492894 -0.04931112 0.012763541 0.016056925
-0.014900018 -0.035153016 0.004801798 -0.038911678 -0.030676736 -0.049706195 -0.053672418 -0.057324212
0.001055469 0.04776616 -0.03187601 -0.025145603 -0.06628575 0.017938768 0.04544556 0.027580686
-0.026554106 -0.0063108155 0.0104256915 0.051685337 0.065578274 0.011556378 -0.024214434 0.0010120879
0.0146549605 -0.008690162 -0.011567712 0.06141922 0.054094624 -0.08277069 -0.07383553 -0.020659057
0.04032176 -0.024027904 -0.017160688 -0.056157187 -0.11441929 0.080682606 0.086881116 0.008763729
-0.09276465 -0.11837275 0.059860367 0.064763345 -0.060908742 -0.16933025 -0.18767461 0.12915586
0.07863993 -0.012415838 -0.16400914 -0.1646538 0.06931382 0.039541278 0.025441626 -0.098870546
0.011218469 0.044448145 0.043432888 0.0213929 -0.0022005418 0.015673865 -0.018401776 0.032669406
0.026898632 0.017908916 0.011955974 -0.024866676 -0.012915073 0.0057661235 0.00881859 0.008139695
0.029065438 -0.018534852 -0.042243477 0.012068534 0.11284441 0.017761678 -0.05491156 -0.079441406
-0.01498029 0.060149625 0.08955977 0.025408251 0.10025599 0.025475785 -0.008198286 0.03208004

module.8.bias f4 [64]
00000000: b02b be3c c469 61bc aa00 313c 2c5d aabc
00000010: 92f0 edba dcb8 15bc eeaf 9e3c 1ee6 02bd
00000020: 9b80 f83c 2c19 f9bc 16bc 06bd df81 313c
00000030: 8300 6f3a 1fa8 36b7 5e93 c239 be49 ff3c
00000040: 6edc 9bbc 3ceb e7bc 31ad d4bc 6d57 053d
00000050: 3659 7f3c ff07 92bc 662f dbbc 1346 d2bc
00000060: 946f e2ba 094c ebba 3610 f03c 0f54 41ba
00000070: 967a 0ebd fa07 0bbd 4b71 e4bc 4abd febc
00000080: a159 063d 7fae 5d3c 18f0 d13b a0b1 9abc
00000090: c6e1 75bc 89cf 063d 341d 85bb 3a2a ccbc
000000a0: 2c8d 82bc 71f9 edbc 6a07 103b 8c01 10bd
000000b0: da8b f0bc b4e9 ebbc 0574 2fbc 46be 233c
000000c0: 8ebc bcbc d929 00bd 2bd8 0dbd 24b8 b83b
000000d0: d7a5 a1b9 be16 1fbc 33d6 2dbc 394d dbbc
000000e0: a0ca 33bb cde3 3a3b 35fe e1bb ab81 67bc
000000f0: 3c97 dcbb 18da 09bd d555 4fbb fade b8bc
0.023214191 -0.013758127 0.010803381 -0.020796381 -0.001815336 -0.009138312 0.019371 -0.031957738
0.030334761 -0.03040751 -0.032894216 0.010834186 0.0009117203 -1.0887189e-05 0.0003711236 0.031163093
-0.019026008 -0.02831041 -0.02596149 0.03255408 0.015585234 -0.017826078 -0.026756 -0.02566818
-0.0017275685 -0.0017951737 0.029304605 -0.00073748914 -0.034784876 -0.033943154 -0.027886054 -0.03109612
0.03280032 0.013530373 0.0064067952 -0.018883526 -0.015007442 0.032912765 -0.004062319 -0.024922479
-0.015936457 -0.029049607 0.0021977075 -0.035157725 -0.029363561 -0.028797962 -0.010708814 0.009994095
-0.023039129 -0.03128991 -0.034629982 0.0056371856 -0.00030831873 -0.009710012 -0.010610151 -0.026770221
-0.0027434006 0.0028517128 -0.006896759 -0.014130036 -0.0067318957 -0.033655256 -0.0031636853 -0.022567261

module.9.weight f4 [64]
00000000: e323 463f 2af5 353f 7b63 2a3f eff6 423f
00000010: 0236 493f bdfb 2b3f e730 1d3f a01a 583f
00000020: dd13 413f 1104 2a3f dd75 443f c3ab 1d3f
00000030: f852 323f f408 213f 1080 333f 6eb6 053f
00000040: 7929 433f 9a0f 333f 184d 303f 8222 3c3f
00000050: 8072 433f 9b87 3f3f 5113 2f3f 1b11 303f
00000060: 0939 143f eef6 303f b714 4e3f 0782 2a3f
00000070: 0359 3b3f 049e 103f ace0 573f f11d 4e3f
00000080: 4efe 303f 6308 353f 549d 323f 3bcf 3d3f
00000090: 012c 1e3f 7fe3 1c3f 80ee 583f a3ce 093f
000000a0: f449 253f e9d0 3e3f 6288 213f 3b11 2a3f
000000b0: ad04 543f 8e1e 3e3f 2bdc 273f 5c52 213f
000000c0: fab9 3b3f f84f 3e3f b4fc 293f d4c5 413f
000000d0: 582f 0b3f f584 593f 7db3 253f 8f43 363f
000000e0: fa68 423f 57e5 2f3f 5c3f 1b3f 4aeb 343f
000000f0: 2403 3b3f ca52 3c3f 4f3b 563f daf0 333f
0.7739851 0.71077216 0.66558045 0.7615804 0.78598034 0.67181 0.61402744 0.84415627
0.75420934 0.66412455 0.76742345 0.6159021 0.6965785 0.62904286 0.7011728 0.5223149
0.7623516 0.6994568 0.68867636 0.73490155 0.7634659 0.7481629 0.6838885 0.687761
0.5789953 0.69126785 0.8050036 0.66604656 0.73182696 0.5649111 0.843272 0.80514437
0.6913804 0.7071592 0.69771314 0.74144334 0.61785895 0.6128463 0.8473892 0.5383093
0.6456597 0.7453752 0.6309873 0.6643254 0.82819635 0.7426537 0.65570325 0.63016295
0.7333065 0.7434077 0.6640122 0.75692487 0.54369116 0.849685 0.64727 0.71196836
0.7594143 0.6870932 0.60643554 0.7067152 0.7305167 0.73563826 0.8368425 0.70289385

module.9.bias f4 [64]
00000000: ddb4 27bf 58d2 12bf 3db8 00bf e495 43bf
00000010: a9d2 41bf c93b 2fbf 5685 02bf cafc 75bf
00000020: 2505 2ebf a58c 0fbf 311d 1ebf 4ccf 1cbf
00000030: bdec ffbe d426 fcbe f3ff 22bf aa97 eebe
00000040: fce4 16bf 70c1 06bf 84bc f5be 453c 3fbf
00000050: 9d6e 3dbf 1bd2 1ebf 54d9 08bf be71 17bf
00000060: 0601 03bf 5f8f 1bbf d170 14bf c5cb 33bf
00000070: d912 30bf 4016 01bf 414c 58bf 79a4 21bf
00000080: b9bb 14bf d161 13bf 8c56 02bf 5c43 11bf
00000090: d161 d9be 45ef f9be 0e23 30bf 8b2a fbbe
000000a0: 743d 21bf 1a52 1cbf 4ca5 01bf 851a 12bf
000000b0: b801 38bf 61d2 18bf 7f2e 1dbf ca4f 10bf
000000c0: ec4d 03bf 3ba4 0bbf b650 30bf 096f 22bf
000000d0: e664 f3be b6b8 2fbf 3c71 0cbf 7ec7 0ebf
000000e0: 1674 17bf a47e 11bf 34bd f8be 7e9f 1abf
000000f0: 227a 0abf ced4 10bf 6fd6 34bf fd0e 1cbf
-0.6551035 -0.5735221 -0.50281125 -0.7640059 -0.75712067 -0.684506 -0.50984704 -0.9608885
-0.679766 -0.5607398 -0.6176329 -0.6125381 -0.49985304 -0.49248374 -0.636718 -0.46600085
-0.5894315 -0.5263891 -0.47995389 -0.7470134 -0.7399691 -0.62039346 -0.53456616 -0.5915793
-0.51173437 -0.6076564 -0.57984644 -0.702328 -0.6877876 -0.50424576 -0.84491354 -0.6314159
-0.5809894 -0.5757113 -0.5091331 -0.5674341 -0.4245744 -0.4881536 -0.6880349 -0.49055895
-0.62984395 -0.6106278 -0.5064285 -0.57071716 -0.7187762 -0.5969601 -0.6139907 -0.5637175
-0.51290774 -0.5454747 -0.68873155 -0.63450676 -0.47537917 -0.6864122 -0.5486028 -0.5577315
-0.5916151 -0.56833863 -0.4858185 -0.60399616 -0.5409261 -0.56574714 -0.706397 -0.6096037

module.9.running_mean f4 [64]
00000000: b0d8 a4bf c88c 06c0 6ad7 bcbf ee7e 34be
00000010: e353 17c0 0cf4 6bbe 30fa 96bf fb71 92bf
00000020: 1386 0dbf f3bf d7bf d767 febf d502 0fbf
00000030: 646f f6bf cb8f 873e afcc 11c0 97a2 63bf
00000040: b2f0 03c0 8678 1ac0 4610 b8bf c3c2 eebe
00000050: 96d8 6bbf 6ee0 03c0 99e2 57be b823 98bf
00000060: 8286 96bd d19d 5dbf 44a0 03c0 62dd 75bf
00000070: 8577 8cbf cd3b 77bf 0a3f 60bf fca3 16c0
00000080: b5f2 79be 4035 66bf 036c 04c0 c07b 10c0
00000090: ef93 9cbf 7f82 b5bf 8436 55c0 4a88 81bf
000000a0: 6c3d d9be a685 36c0 d1db babf a148 9ebf
000000b0: c08f 39c0 6eec 06c0 ec55 41bf 6060 fabf
000000c0: 24e1 8abf 2393 c4bf e157 39bf d301 57bf
000000d0: b0ab 1c3f cc5b 3bc0 1850 9dbf 17b3 a7bf
000000e0: d809 1bc0 b380 b6bf 3d54 1abf 7a4b 43bf
000000f0: be55 babf d2c6 b2bf 4260 32bf 4adc f0bf
-1.2878628 -2.1023426 -1.4753239 -0.17626545 -2.364495 -0.23042315 -1.1795101 -1.1441034
-0.55282706 -1.6855453 -1.987544 -0.55863696 -1.9252744 0.26476893 -2.278118 -0.8891997
-2.0615659 -2.4136062 -1.4379966 -0.46632966 -0.9212736 -2.060573 -0.21082534 -1.18859
-0.07349874 -0.86568934 -2.0566568 -0.9604093 -1.0973974 -0.96575624 -0.8759619 -2.3537588
-0.24408992 -0.89925003 -2.0690925 -2.257553 -1.2232646 -1.4180449 -3.3314524 -1.0119717
-0.42429674 -2.8519073 -1.4598333 -1.2365915 -2.8993988 -2.1081805 -0.7552173 -1.9560661
-1.0849957 -1.5357403 -0.7239972 -0.8398716 0.61199474 -2.9274778 -1.2290068 -1.3101529
-2.4224758 -1.4258026 -0.6028479 -0.76287043 -1.4557416 -1.3966925 -0.6967813 -1.8817227

module.9.running_var f4 [64]
00000000: ed9e da3f 814a 9e3f 121f 913f 6aa4 de3f
00000010: 06d3 c03f 337e 8c3f c2d6 8f3f 6930 e03f
00000020: d87d e63f c3de 7a3f dcec a13f 887b 603f
00000030: e94a c13f 703e 973f 5c3a 983f 3379 903f
00000040: 55ea b93f c00c 8f3f 4df9 703f 02e4 893f
00000050: 0150 c23f 7192 d13f 46b2 913f 3b08 953f
00000060: 25d0 4a3f b410 733f 4a2a f23f 0e31 a33f
00000070: ad4d c53f e9e7 5b3f ce86 e13f 001c dc3f
00000080: ceeb a93f 0eae 813f 9d67 8d3f 5d5d b33f
00000090: a6c7 833f 8035 b13f 7d88 fa3f 984a 5f3f
000000a0: 8992 903f ba72 bd3f 45dd 683f e32a ac3f
000000b0: 8b8e bd3f a546 b43f 0d42 b23f 6754 873f
000000c0: d040 613f c49c be3f 7d63 9d3f 7b5c 9f3f
000000d0: a92a 543f e65d e73f a884 673f 3703 9d3f
000000e0: a112 8e3f 0f52 bc3f 6322 a83f 98fd 923f
000000f0: e28f 993f b63b b53f 7597 dd3f 6c16 d23f
1.707975 1.2366487 1.1337607 1.7393925 1.5064399 1.0976013 1.1237414 1.7514774
1.8007154 0.9799616 1.2650409 0.87688494 1.5100986 1.181593 1.189281 1.1286987
1.4524637 1.1175766 0.941304 1.0772707 1.5180665 1.6372815 1.138253 1.1643137
0.79223853 0.9494736 1.8919156 1.2749345 1.541433 0.8590074 1.7619264 1.7196045
1.3275087 1.0131242 1.1047245 1.4012867 1.0295303 1.3844452 1.9572903 0.87223196
1.1294719 1.4800637 0.9096263 1.3450588 1.4809126 1.4084059 1.3926407 1.0572633
0.8798952 1.4891591 1.2295986 1.2450098 0.82877594 1.807553 0.9043679 1.2266606
1.1099435 1.4712542 1.3135494 1.1483641 1.1997035 1.4158847 1.7311846 1.6413093

module.13.weight f4 [64, 1024]
00000000: e013 34bb 8632 8f3d ab14 593d e2eb f4bc
00000010: a2ef 46bd 36b8 b5bc 45af 6b3d a72f 203a
00000020: 8ab5 ffba a8ce cd3b e09d 273b 58f1 823d
00000030: 4951 4dbb b6bf 51ba 9f88 c73c 391b 873b
00000040: 7ec1 ea3c 8f3c 9c3c 1751 ef3c 2291 ac3c
00000050: 0f1c 17bd 67c7 573d 5ccd 0cbd 71d2 9c3b
00000060: 962e 493c ede6 853d 849e 2b3d 08c3 9abc
00000070: 98c1 283d adc1 663d 8f5a 273d 0184 24bd
00000080: f533 16bd 2f72 6cbc a8d2 94bd f47e c33c
00000090: 2f36 be3a 41b4 75bd b9de bbbd 427e 6c3d
000000a0: 5af8 383d 4b08 a6bd 005b d8bd a1ad 1e3d
000000b0: 2c20 063d dee2 e0bc 5243 6dbd 4930 fd3c
000000c0: 9534 b1bd 9f74 9dbc 57e0 983c 63aa 173b
000000d0: f6d8 39bc 361d af3c 13e8 543d 702d 633d
000000e0: bf74 32bd b5ea fa3b 9dff 933d 4935 6dbc
000000f0: 722e afbd 4053 a7bb ca5a 71ba 019f eabb
00000100: b742 c33d cdd5 34bc 43a4 1dbc b241 6e3c
00000110: b100 a43d a4e2 bfbb 2070 11bd 8283 dbbc
00000120: e0ec e23c ff6e d13c 5488 94ba 42a3 373c
00000130: db48 2f3d 884f e23b 46cf 04bb abe9 673d
00000140: 04ef 073d 17c1 c5bd 0bfb c6bd a791 5abd
00000150: 6a89 8d3c fb1d 0ebd 4699 1dbe 957d 67bd
00000160: d3b7 3c3c 452a b2bc 8a42 ffbd c4e6 c6bd
00000170: af85 24bd 3aac 13bd 8fbc 30bd a785 293b
00000180: add1 c7bc fca4 7fbd a170 c43c 5606 5abd
00000190: 6d3a 7b3d 1413 31bd 1eb4 d8bb 7351 ce3b
000001a0: a86f f83c e571 ba3c ac6b f03d 21e3 0d3d
000001b0: 077f c6bc e546 293d 30cd a63c e749 273d
000001c0: 7bc1 563c ee0a 4d3d 9423 d53d 3c77 f0bc
000001d0: 9cd8 90bc 3993 e03c 488e bebc 6f96 35bc
000001e0: ab68 82bc ed44 80bc b262 23bd 1540 01bd
000001f0: d035 a43c 917f ee3b daac 653d 4e7f 9d3c
00000200: e33f 5b3c 9a4d 03bb 101a bc3c 5ebf 45bd
00000210: f952 cf3a 1bea d1bc 1db6 9b3c 1d65 66bd
00000220: cb6b 05bd 29d2 253d cb65 1a3d 7fdb 15bb
00000230: 4128 a5bb 13c8 263d 7b63 0a3d bd65 343c
00000240: 3566 86bc 786d 2ebd 0105 a03d 12a2 543d
00000250: 50de fb3c 94e2 9dba d0de ad3d e88c ed3d
00000260: 34e9 ff3c 5dce 20bd 1e80 803c e413 763d
00000270: a79a 9c3c 65f8 973c 90a9 1c3c eaf3 563d
00000280: 4283 4b3d 961d 243d 743a 8abc 0510 14bd
00000290: 4481 88bd 1931 b4bd a5a3 4c3d a8ae 593c
000002a0: f091 d5bc 8a7f e4bc 5048 163e c12a 893c
000002b0: 561d 9a3b 2cbf 923b c966 c03d ec80 343d
000002c0: 55be d7bc c432 02bd 8900 d0bd 1fa2 f7bc
000002d0: 2488 48bd 978d 7ebd 4702 123d 30ba c93c
000002e0: ff1d 023c 44dc 18bd b6f0 10bd aa68 663b
000002f0: 8113 8e3b 17e3 f6bc 88a0 32bc 0eaf bf3c
00000300: db91 42bd 0dad dfbc 636f 053d 389a 2f3d
00000310: 8857 f4bc 1b9e c3bd babb 31bd 38e6 70bc
00000320: 4a0f 32bd 3574 c0bd 12f0 d6bc f066 6abd
00000330: c815 753d 0991 7c3d 7cc5 903d 4623 5dbc
00000340: 23fb 3b3c b10a 0abd 87c8 163d a52d 7bbc
00000350: ec71 ae3b c415 ccbc 3d2b e73c bf26 003d
00000360: e7bc aabc 9da7 0e3d 0230 04bc 3786 473d
00000370: 6115 a73c bcb0 49bc e05a b1bc 925f 263d
00000380: 4d22 463d 2c69 a93c 4c35 b6bb 126e ed3c
00000390: 4a16 c3bb 241c ebbc 1db2 7abd d1ae 0bbd
000003a0: ecf0 86bd 4d7d 19be 9012 f33b 7eed 70bd
000003b0: 1107 443c 3a37 b2bd a6a8 3fbb a15e 323d
000003c0: a270 1d3c 6844 3b3c 6500 29bd c053 73bc
000003d0: acb2 913c f5de 98bd 9db8 6abd 17fb f2bc
000003e0: 0df5 d73c d549 31bd ec2d 333b f847 683d
000003f0: 6062 ab3c da5e 5fbd 5b08 04bd 9494 f73b
-0.0027477667 0.069920585 0.052998226 -0.029897634 -0.048568375 -0.022182565 0.057540197 0.00061106164
-0.0019509059 0.006280739 0.0025576279 0.06393689 -0.0031328967 -0.00080012844 0.024357138 0.0041231182
0.028656717 0.019071845 0.029213471 0.021065298 -0.036891993 0.0526804 -0.034375533 0.0047858288
0.012279173 0.06538186 0.04189922 -0.018891826 0.04120025 0.056337047 0.040857848 -0.04016495
-0.036670644 -0.01443152 -0.07266742 0.023864247 0.0014511998 -0.059986357 -0.0917334 0.057737596
0.04515872 -0.081070505 -0.10564232 0.038739804 0.032745525 -0.027451929 -0.05792553 0.030906813
-0.08652607 -0.019220648 0.018661661 0.002314233 -0.011343231 0.021376234 0.051979136 0.055463254
-0.04356837 0.007657374 0.07226489 -0.014478036 -0.085537806 -0.0051063597 -0.0009206949 -0.007160068
0.09534209 -0.011037302 -0.009621683 0.01454203 0.080079444 -0.005855875 -0.03550732 -0.026796106
0.027700841 0.025565622 -0.0011332133 0.011208357 0.04279409 0.0069064535 -0.0020265146 0.056619328
0.033186927 -0.096559696 -0.097158514 -0.05336156 0.017277438 -0.03469656 -0.153905 -0.05651625
0.0115184365 -0.021748671 -0.12463863 -0.09711984 -0.040166553 -0.03605292 -0.043148573 0.0025867017
-0.024391973 -0.0624132 0.023979487 -0.0532287 0.061335016 -0.043231085 -0.0066132685 0.0062963306
0.03032668 0.022759387 0.11739287 0.034640435 -0.024230493 0.041327376 0.020361513 0.040841963
0.013107653 0.05005925 0.104071766 -0.02935373 -0.017681412 0.027413951 -0.023261204 -0.011083229
-0.01591905 -0.015657866 -0.039889045 -0.031555254 0.020045191 0.0072783907 0.056073047 0.019225743
0.013381931 -0.0020035268 0.022961646 -0.048278205 0.0015817574 -0.025624325 0.019007737 -0.056248773
-0.032573503 0.040483627 0.037694734 -0.0022866426 -0.005040199 0.04071815 0.03378628 0.011010584
-0.016406158 -0.042584866 0.078134544 0.051912375 0.030745655 -0.0012045675 0.08489764 0.11599141
0.03123913 -0.039259303 0.015686091 0.060077563 0.019116713 0.01855106 0.009561911 0.05247871
0.049685724 0.040067278 -0.016873576 -0.03614809 -0.066652805 -0.08798427 0.04996075 0.01328627
-0.026070565 -0.027892847 0.14676023 0.01674402 0.004703204 0.004478356 0.09394605 0.044068262
-0.026335875 -0.031786695 -0.10156352 -0.030228673 -0.04895796 -0.06214675 0.035646703 0.024624914
0.007941722 -0.037319437 -0.03538581 0.00351576 0.004335821 -0.030137582 -0.010902531 0.023398902
-0.04750238 -0.027304197 0.03257693 0.042871684 -0.029826894 -0.095516406 -0.04339192 -0.014703326
-0.043471612 -0.09397165 -0.026237521 -0.057227075 0.059835225 0.061661754 0.07068917 -0.013497179
0.01147345 -0.033701602 0.03681233 -0.015330707 0.005323639 -0.024912722 0.02821886 0.03128695
-0.020842029 0.034827817 -0.008068087 0.04871198 0.020395936 -0.012310203 -0.021649778 0.040618487
0.048372556 0.020680033 -0.0055605527 0.02898315 -0.005953585 -0.028699942 -0.06120502 -0.034102265
-0.06588921 -0.14989205 0.0074179843 -0.05882024 0.011964575 -0.0870194 -0.002924481 0.043547276
0.009609373 0.011429884 -0.041260142 -0.0148515105 0.017785393 -0.07464401 -0.057304967 -0.029660745
0.026361967 -0.043283302 0.0027340604 0.05670926 0.020920932 -0.054533817 -0.03223453 0.0075555537

module.13.bias f4 [64]
00000000: 8319 1e3c dc1c e03d 9ea9 a03d 948b 103d
00000010: 2517 553d 7fe8 c13c 16a9 943c 370b a4bc
00000020: 3806 6e3c d05a 0a3d 5343 0fbd b923 7fbc
00000030: 4107 ad3d 4595 113c 8320 c5bb 42f6 6e3d
00000040: c9f8 b5bc 1535 6b3d ef56 423d 1f79 babc
00000050: cc0e ea3d c261 ed3a 9e24 463b edda 2a3d
00000060: db86 8ebc ba04 233d 8c71 ad3d 4c2d 00bd
00000070: 4e94 963d ebd9 d7bc 8036 ba3c e8ab 37bc
00000080: ee52 ba3d bc47 da3c 6520 e7ba e83e 1c3d
00000090: 41fe 4c3c 3517 00bc 5a14 4ebc 953c 733d
000000a0: 496a e93d 1f30 613c ca93 3e3d 09f1 c93d
000000b0: feaa 1c3c caa5 11bc 78dc 053c 27e9 8b3d
000000c0: 1962 653d b23d c53a 2a4e ae3b 32a1 e9bc
000000d0: d6c8 063d 2ee3 dd3c 7d4a 443d 060b ffbc
000000e0: 62e6 823d dfff 0dbd a693 d73b 68fe 453d
000000f0: 0a93 09bd b9de 733d abf9 a23d 54ae 873c
0.009649637 0.109430045 0.07844852 0.035289362 0.052024025 0.023670433 0.018147033 -0.020024879
0.01452785 0.03377801 -0.034976315 -0.015572482 0.08448649 0.008885686 -0.0060158386 0.05834032
-0.022213357 0.05742367 0.047446188 -0.022762833 0.114286035 0.0018110799 0.0030234228 0.04171269
-0.017398288 0.03979943 0.08468923 -0.0312932 0.073525056 -0.026349029 0.022731066 -0.011210419
0.09097849 0.026645534 -0.0017633556 0.03814593 0.012511791 -0.007818033 -0.012578094 0.059383947
0.113972254 0.013744383 0.04652766 0.09860427 0.009562252 -0.008889625 0.00817024 0.0683158
0.056001756 0.0015048294 0.0053193765 -0.028519247 0.032906376 0.027085867 0.0479226 -0.031133186
0.06391598 -0.034667846 0.0065788804 0.048338324 -0.033587493 0.059538577 0.07957777 0.016562618

module.16.weight f4 [10, 64]
00000000: 1565 653c 2cfb 6a3e d7b8 8c3e a1ff 59be
00000010: 1f3e a83e c943 863e b1e6 883e 6f7d c13d
00000020: f8fa 093d c6e4 9bbe 8cc0 343d 4e3a 733d
00000030: 31e4 45be 9104 3bbe 014e ab3e 4a89 29be
00000040: 4531 f83d f178 6c3e e942 7bbe a886 763d
00000050: 61dc 8bbe 0c38 babd 0c94 22bd 9ea5 2fbe
00000060: 932e 61bd 7611 91be 55c9 a5be 4dba d1bd
00000070: 2e65 b63e e508 823d e4c6 2f3b 8a03 c5bc
00000080: ee62 953e d8de 48be bc17 b03d 6ffd 863e
00000090: e4d7 e93e 6a2e 62bc 8ce4 ca3d 1857 a13e
000000a0: dcb2 f0bb 49a3 cb3d 1474 7a3e 0b75 8d3e
000000b0: 7ae0 a33e 77d3 aabd 8a88 a53e a24a 72be
000000c0: 40d0 033e 720d d1bc eca8 82bc f025 08bd
000000d0: df2f a1bc d346 1c3e c8f9 7fbe 29b5 58bd
000000e0: ac72 c5be 2c06 223d e785 093d a0e1 89be
000000f0: 1f17 e8bd ebf2 083a 7ee7 b03e 1b1a a5be
00000100: 5358 a7bd 28aa 6e3e f46d 91be 219f 96be
00000110: 59f2 15be fad3 ccbe 3bb4 353e d0a3 9e3d
00000120: ad73 003c df56 69be da50 853d cffa 3e3d
00000130: dfda c9be df32 b1be 7a25 25be a2d6 dc3e
00000140: 0f72 153d 57c2 c7be 3d3c 76be 56c5 f43d
00000150: e72c a3be f274 c53d 30f9 c8bd 63b3 bf3e
00000160: 8b47 8c3d 6077 94be 98d9 a3be 88a9 83bd
00000170: e707 dc3e 5826 713d 8302 073f 0eac bbbe
00000180: be44 d03e 2c9d b4be 21af 9f3d 54e7 b93e
00000190: b0e7 88bd 14a4 58bd 2b4b 8d3d 266c ca3e
000001a0: 5b9a b7be 614c 6dbd 8e40 d6be eb81 30bd
000001b0: 498b 97be 5a1f c63d 8711 de3e 4b69 36be
000001c0: 9e94 27be 6325 f73d ee15 e5bd 48f5 93bc
000001d0: c87f e7bb b59d 7c3e a220 57be 0868 023d
000001e0: b40e b3be c426 0fbd 7f73 e13d 2c7e bb3e
000001f0: b988 283c 9b1b e63e 5457 95be 95a5 973e
00000200: fc65 b83e 5fa9 58be 7816 6d3e f5d4 bb3e
00000210: aa4e a8bd d038 863e b500 99bd 7f68 1dbd
00000220: 6375 f4bd ec2a ac3e f6b3 45bd 884d 513d
00000230: 7333 b5bd 8754 fc3b 6e71 a83e aba2 863e
00000240: d87f 983d d3cf 8f3e 10ab 22bd 5988 013e
00000250: 8da1 e73b af7e c73d 48a3 66bd c5dd 9bbd
00000260: edbd 60bd db80 8e3e 1a7e 49bd 1fa1 6d3c
00000270: 7109 6abe d3d6 ae38 5079 b93d ef05 fe3e
00000280: b7fc 85be 860b 52be 078c aa3c abc8 58be
00000290: 3c3e e63e c217 873d c9f6 d83d 1b40 163d
000002a0: 6d5a 60bc 57de a83d 145e 383e a151 03be
000002b0: 4d0c c73e 0a69 df3c 2d14 1e3e 5a4c 303e
000002c0: d7dc e03b 74c4 bbbc 967b 893d 4609 4c3d
000002d0: ac3a c43d 926a 513e 4ebb e53d c73f a83d
000002e0: ad0f 4a3e c8d1 d13d a78e 793d cca9 b6bd
000002f0: 1f72 75ba 5c9d 89be c7c0 353e 8323 8fbe
00000300: 8a85 893e 6e94 67bd da85 01be 787d 673e
00000310: 1ad5 40be 81e0 503c 9679 9bbd ca49 a83c
00000320: 4162 8ebd 6484 e23d 68b5 edbd ed1e 023e
00000330: bab4 95bd d060 71bd 1751 b6bd ba2c 13be
00000340: d9ac 2abd a33f f13c 18ea ba3e 389b b83d
00000350: cc9f 7c3e dc25 de3d 236d f4bc 8ac6 d7bc
00000360: aa96 a5bd 28b0 643e 0770 be3e 7bc7 e9bd
00000370: 5c55 89be fc67 6a3d fbaf 74be f227 143d
00000380: 5cc8 5cbe 73cc ef3d 9c32 5bbd 8f2a 0abe
00000390: 9c56 b63c 3ba9 873d d369 38bd 9c22 7ebe
000003a0: 47d4 af3e 5f47 223d 0195 b2bb f30b 68be
000003b0: 5205 843c 922c fb3c 8ce4 cabd bb7c 023d
000003c0: f2b6 33bd 7d1f 223d d90d b23d 36e2 9dbd
000003d0: e016 8e3d 00e6 2ebd 3bc4 b13e 978f b03d
000003e0: 50d4 033e 8f8b 0b3d 75c4 ecbc 2e8d f93d
000003f0: bac9 f93c b7a4 40be f7c9 bd3e aa54 993e
0.014001151 0.22947377 0.27484772 -0.21288921 0.32859895 0.2622359 0.26738504 0.09447753
0.033686608 -0.30447978 0.04412894 0.059381776 -0.1932533 -0.1826346 0.3345795 -0.16556278
0.121187724 0.2309301 -0.24537243 0.060187012 -0.27316573 -0.09092721 -0.03969197 -0.17153022
-0.054976057 -0.28333634 -0.32380167 -0.10240612 0.3562407 0.06349353 0.002682143 -0.02404954
0.2917704 -0.19616258 0.08598277 0.2636523 0.45672524 -0.013805011 0.09906873 0.3151176
-0.0073455404 0.099432535 0.24458343 0.2762836 0.320072 -0.08341115 0.32330734 -0.23661283
0.1287241 -0.025519107 -0.015949689 -0.033239305 -0.019676147 0.15261392 -0.24997628 -0.052907143
-0.3856405 0.039556667 0.033574965 -0.2692995 -0.11332535 0.0005224186 0.34551615 -0.3224648
-0.081711434 0.23307097 -0.284042 -0.2941828 -0.1464323 -0.40005475 0.17744534 0.077460885
0.007840079 -0.22787045 0.06509562 0.04662591 -0.39424798 -0.34609124 -0.16127577 0.43132502
0.036485728 -0.39015457 -0.24046417 0.11951701 -0.31870195 0.09641446 -0.09813154 0.3744155
0.06849583 -0.28997326 -0.32001948 -0.0642882 0.4297478 0.058874458 0.5273821 -0.36654705
0.40677446 -0.35276163 0.07797075 0.36309302 -0.06684816 -0.052890852 0.06899103 0.39535636
-0.3585995 -0.05793417 -0.41846126 -0.04309265 -0.29598454 0.096739486 0.43372747 -0.17813604
-0.16365287 0.12067678 -0.111858234 -0.018061295 -0.0070647933 0.24669535 -0.21008542 0.031837493
-0.34972155 -0.03494908 0.11008357 0.366197 0.0102865035 0.44942936 -0.2916819 0.29618517
0.36015308 -0.2115836 0.23153102 0.3668591 -0.08218129 0.2621522 -0.07470838 -0.038429733
-0.11936452 0.33626497 -0.048267327 0.05109933 -0.08847704 0.007700506 0.3289904 0.2629598
0.07446259 0.28088245 -0.03971392 0.12649669 0.007068819 0.0974096 -0.05630806 -0.076106586
-0.054868627 0.27832684 -0.049192525 0.014503746 -0.22855164 8.336981e-05 0.09056342 0.49613902
-0.2616937 -0.20512208 0.020818723 -0.21170299 0.44969356 0.06596328 0.105939455 0.03668223
-0.013693434 0.08245533 0.18004638 -0.12824108 0.38876572 0.027271766 0.15437384 0.17216626
0.0068622637 -0.022920825 0.06713025 0.04981353 0.09581503 0.2045081 0.11217366 0.082152896
0.19732542 0.10245091 0.06092706 -0.08919105 -0.00093630137 -0.26877868 0.1774932 -0.2795678
0.26859695 -0.056538038 -0.12648717 0.22606456 -0.18831292 0.012748838 -0.0759155 0.020542998
-0.06952334 0.11060408 -0.11606866 0.1270711 -0.073098615 -0.05893022 -0.089021854 -0.1437253
-0.041668747 0.02944929 0.36506724 0.090139806 0.24670333 0.10847065 -0.029837197 -0.026339788
-0.080853775 0.22332823 0.37194845 -0.11415001 -0.26822937 0.057228073 -0.23895256 0.036170907
-0.21560806 0.117089175 -0.05351506 -0.13492797 0.022258095 0.06624075 -0.045022797 -0.2481789
0.34341642 0.039618846 -0.0054498916 -0.22660808 0.016115818 0.030660901 -0.09906873 0.031857233
-0.043875642 0.03958081 0.086940475 -0.07709162 0.06937957 -0.042699814 0.34720024 0.086211376
0.1287396 0.03406864 -0.028902272 0.12185131 0.030491699 -0.18812834 0.3706815 0.29947406

module.16.bias f4 [10]
00000000: a3cf 80be 0334 cbbe 2b21 f9bd 33fe 2c3f
00000010: 0db7 1abd 923c ba3d bc59 643c eece 243d
00000020: 37e3 40be e0c1 d8ba
-0.25158414 -0.3968812 -0.121645294 0.6757538 -0.037772227 0.09093584 0.01393741 0.040236406
-0.18836676 -0.0016537271
