models/xue_epoch_11.pth (torch, 592503 bytes, 22 tensors)

module.0.weight f4 [32, 3, 5, 5]
00000000: 0e91 14bd 88e5 f9bd be3b 61bd 3ba5 933c
00000010: 7b41 fb3b a341 56be 27ff 4abe 98e2 5dbe
00000020: fd12 68be 931d 15be 5b80 96be 6685 88be
00000030: b288 68be e0e0 5ebe 823d 8ebe d4ce 08be
00000040: ad03 a1be f846 8cbe 1912 57be 6528 00be
00000050: 9138 4abe 310a 34be ff5a 97be 5140 92be
00000060: 84e1 f3bd 3842 613d f8b0 253d d47a 3ebc
00000070: 2e54 9bbd 4fc8 d5bd 2c89 3e3d eea8 363d
00000080: 8fe7 8c3d 8194 583d bd42 eb3d 79bd eb3c
00000090: 6cfc 113c 1390 c93b 8b49 0c3e 2f31 443c
000000a0: e6d5 1bbd 3dc4 493e d236 103e 1140 dd3c
000000b0: 947a acba b069 173e b54c f23d e735 07be
000000c0: 326d c23c 914a bfbb 3f52 82bc adff 033d
000000d0: e32e a53d 11ee ea3d 166a 1fbd eee7 0c3e
000000e0: 6210 3c3e 0726 783e 8786 123e 81ad 253e
000000f0: ab93 8b3e 70bb 683e bc35 193e 9cc4 193e
00000100: 34ec 0e3e 5638 883e acc4 993e 399e 203e
00000110: 0de3 503e 13b0 293c d836 573e 24b3 423e
00000120: d074 213d 03e6 443d 17aa 40bd e3b9 963d
00000130: 60b2 03bb eb18 3c3e 16cb 153e c99a 013e
00000140: fa90 343e 96e4 303e 9ea7 8e3e 8c42 8c3e
00000150: e621 3d3e c2e5 5f3d ad8f 513d 5500 1a3d
00000160: 03c7 8f3d 88c9 83bd 4700 be3c 00c1 91bb
00000170: f14c 723d b335 443d ad68 043e ed45 063d
00000180: efda 063b 33d7 67bd 7250 593d dfd8 823a
00000190: 5df9 723d a281 45bd 065e 243c f23d 30bd
000001a0: b400 253d b721 7f3c 1cbb 513d c3cc 67bd
000001b0: ffa8 0e3e 37b3 133d 43eb 93bd 84b7 2dbe
000001c0: bac8 00be ef5f 0bbe c14f e8bc baf2 a6bd
000001d0: 4d5d adbd f937 0dbd 03b2 fbbd 22b9 abbd
000001e0: 15e5 423d 3e33 c0bd d454 0f3c 655f a63d
000001f0: 96d2 20bd 4aea 08bd 74bc ac3d 8fdf b3bc
00000200: 4cef 433e 6f3f 283e 290a 8b3d c404 fc3c
00000210: 69f9 f9bc fd74 813d e124 6e3d 50b0 4abd
00000220: cb6b 25be 73a7 74bd 503d 1fbe 1af6 05be
00000230: 9ee9 9fbd bc8c 01be c441 60be d3e0 d0bd
00000240: 406c ffbc 18f2 dbbd a697 d8bd ee5f 14be
00000250: 4f0f 1c3d 97e5 0e3d 2e07 de3c c4f5 c0bc
00000260: 950c abbd 8f4d 6d3c d894 c83d 2c99 19be
00000270: 7932 ecbd 6009 dfbd d39d 743e c928 1f3e
00000280: 6e4c 07be a0cf a4bd 29e7 113e f45f a43e
00000290: 575d 003e adb8 dd3a 371a e0bc ad4d 2e3e
000002a0: 582d a0bd 8e64 49bd daff 46be 1866 543d
000002b0: 61cb 553d 0edc a3bd fffa 66be d995 393d
000002c0: 724e f33c 752a 47be fa69 9abc bb96 e23c
000002d0: e234 16bd 626b 13be 669c c0bd 5c79 343d
000002e0: 2ed8 8c3d 8098 0a3d 385b debc 0fee a53d
000002f0: 8947 5c3e 372f e33c 5fed b83d 2f0d 0dbc
00000300: 8355 bd3d c56a 093e 1220 ddbd 50b3 7a3d
00000310: 4354 4b3e 21b7 0e3d dca7 30bd 8765 2abe
00000320: d5f2 24be f93f e13c 7c09 75bd 92f8 43bd
00000330: d5cc f13c 6f36 e8bd 4ec6 88bd 5fd2 12bd
00000340: accd 183e e59a 513e 5053 dabd e097 993d
00000350: ba5f 03bd e6e7 803e ce55 f7ba 023a 5abc
00000360: 6f27 8dbc 9963 1c3e 2a68 febc c506 98bd
00000370: d621 8e3d 8462 69bc c8f1 e13d 39d2 9bbd
00000380: bcad d4bd 0e3f 01ba b2e8 2fbc 4e25 c5bc
00000390: 0c9d dd3d 0723 64bc 7209 b43c 6d41 8cbe
000003a0: 1649 bbbd 0386 283e 70d7 5e3e e72c e0bd
000003b0: 311d 80be 8a21 7ebd 041c ae3d 04ce 2b3e
000003c0: 3168 13bd 8ffa 2ebe 467e c7bd 3d96 273e
000003d0: 7c6e 813e 662c b9bd 473c 183d 7b7e d4bd
000003e0: c7d4 acbd 5cd9 353e b338 a7bd 8649 9dbc
000003f0: f644 e43c 69a1 2c3e 23e0 823e 830e a2bd
-0.036271147 -0.12201983 -0.054988615 0.018023124 0.007667718 -0.20923476 -0.19823895 -0.2166847
-0.22663493 -0.14562063 -0.29394802 -0.26664275 -0.22708395 -0.2176547 -0.27781302 -0.13360149
-0.31448117 -0.27397895 -0.21002997 -0.1251541 -0.19748141 -0.17582013 -0.29561612 -0.28564695
-0.11908248 0.05499479 0.040451974 -0.011625964 -0.075844154 -0.104385965 0.046517536 0.044594698
0.06880104 0.052876 0.11487339 0.028776871 0.00891028 0.006151208 0.1369993 0.011974617
-0.038045786 0.19703765 0.14083412 0.027008088 -0.001315909 0.1478641 0.11831037 -0.13204156
0.023733709 -0.0058377464 -0.015908359 0.032226253 0.080655836 0.11471189 -0.03891953 0.13760349
0.18365625 0.24233256 0.1430913 0.16179468 0.272611 0.22727752 0.14961904 0.15016407
0.13957292 0.2660548 0.3003286 0.15685357 0.20399113 0.010356921 0.21017015 0.19013649
0.03941804 0.04807092 -0.04703721 0.07359674 -0.0020095333 0.1836888 0.14628252 0.12656702
0.17633429 0.17274699 0.27862257 0.2739452 0.18469962 0.054662473 0.05116241 0.037597973
0.0702038 -0.064349234 0.023193492 -0.004448056 0.05915541 0.047902774 0.12930556 0.03278153
0.0020577272 -0.056601714 0.053055234 0.0009982846 0.059319843 -0.04821933 0.010032183 -0.043027826
0.040283874 0.015572003 0.051203832 -0.05659176 0.13931654 0.036059584 -0.07222607 -0.16964537
-0.12576571 -0.13610815 -0.028358342 -0.08151765 -0.08465061 -0.034477208 -0.122898124 -0.08384921
0.04758175 -0.09384774 0.008748252 0.08123664 -0.03926333 -0.03342656 0.08434382 -0.021957187
0.19134253 0.16430448 0.06789047 0.030763991 -0.030514436 0.06321142 0.05814064 -0.04948455
-0.16154401 -0.059730005 -0.15550733 -0.13082162 -0.07808231 -0.12651342 -0.21900088 -0.10199132
-0.031179547 -0.10739535 -0.105758 -0.1448972 0.038100537 0.034886923 0.027103033 -0.02355469
-0.08352009 0.014483823 0.09794015 -0.14999837 -0.115330644 -0.1089046 0.2388833 0.15542902
-0.1321275 -0.08047414 0.14248337 0.32104456 0.12535606 0.0016916 -0.02735625 0.17021818
-0.07821149 -0.049168162 -0.19433537 0.051855177 0.05219591 -0.080009565 -0.22556685 0.04530892
0.029700492 -0.1944979 -0.018849362 0.027659765 -0.036671527 -0.14396432 -0.09404831 0.04406105
0.068771705 0.03383684 -0.027143106 0.08102047 0.21511663 0.027732475 0.0902965 -0.0086091
0.09244826 0.13419636 -0.107971326 0.061206162 0.19856362 0.034842614 -0.043128833 -0.16640292
-0.16108258 0.027496325 -0.059823498 -0.047844477 0.029516617 -0.113385074 -0.066784486 -0.035845157
0.14922208 0.20469244 -0.10660422 0.07499671 -0.032073714 0.25176924 -0.0018870176 -0.013319494
-0.017230717 0.15272368 -0.031055529 -0.07423166 0.069400474 -0.014244679 0.11032444 -0.07608456
-0.103847 -0.00049303554 -0.010736631 -0.02406564 0.1082097 -0.013924367 0.02197716 -0.27393666
-0.091447994 0.16457371 0.2176187 -0.109460644 -0.2502227 -0.062043704 0.08501437 0.16777807
-0.035988037 -0.17087768 -0.097408816 0.16365905 0.25279605 -0.090416715 0.03716686 -0.10375687
-0.084390216 0.17758697 -0.081651114 -0.019200098 0.027864914 0.16858448 0.25561628 -0.07912924

module.0.bias f4 [32]
00000000: 408c 913d 8252 bcbd 2171 6b3d 8f9a db3d
00000010: ebf8 803d 8c64 0e3d b3de 84bd e7fd d93c
00000020: 9ed6 a43d 7456 813d 7dd8 813d 64b2 9dbd
00000030: bd8f bd3c 100a cd3d a1c2 433d 6c81 93bd
00000040: 8569 d3bd 3d21 81bd 6221 f0bc 0078 9a3d
00000050: 53e1 e13c c553 2ebd a9e1 da3d 0fc1 91bd
00000060: 73d8 bdbd 5b47 4f3d 1cc5 9b3d cbe2 1a3d
00000070: b3e3 bb39 50ee 82bd 523b 5d3d 8007 663d
0.07106829 -0.091954246 0.057480935 0.10722839 0.06297477 0.034763858 -0.06487789 0.026610328
0.080487475 0.06315318 0.0634012 -0.07700041 0.023139829 0.10011685 0.047793034 -0.0720242
-0.10322861 -0.06305168 -0.029312793 0.075424194 0.027573263 -0.042560358 0.106875725 -0.07116901
-0.092698 0.05060516 0.07605955 0.037813943 0.0003583707 -0.06393111 0.05401165 0.056159496

module.1.weight f4 [32]
00000000: 9541 403f b457 583f d06b 4e3f b42e 933f
00000010: 438a 843f 2f8e 803f 5af3 2a3f 301b 783f
00000020: ee5c ac3f d9e3 443f 56ab 4f3f 6bed 7c3f
00000030: 062b 603f df15 793f 2235 7f3f 61b8 803f
00000040: 1155 453f f7be 813f 192a 4a3f 25a1 c93f
00000050: 1879 553f d604 903f 3681 3f3f 63be 913f
00000060: 5a1f b43f 0502 7e3f 8666 453f e18d 833f
00000070: 08a4 8f3f caff 7a3f 3739 833f f3e0 973f
0.7510007 0.84508824 0.8063326 1.1498628 1.0354694 1.0043391 0.66777575 0.96916485
1.346586 0.7691017 0.8112081 0.9879977 0.8756565 0.97299 0.9969045 1.0056268
0.77082926 1.0136403 0.78970486 1.5752302 0.833879 1.1251476 0.74806535 1.1386226
1.4072068 0.9922183 0.77109563 1.0277673 1.1221933 0.98046553 1.0251836 1.1865524

module.1.bias f4 [32]
00000000: bbff 2c3e e8cc 7cbe c3f8 68be b9d6 05be
00000010: f9ec 44be 77e7 63be b4ef cf3d eaac 28be
00000020: 2842 f0be 159f 11be 3368 9cbd a6c0 f4bd
00000030: 411b 17bc 4959 6ebb 3363 96be 2a1a 90bd
00000040: 85aa 81bc 038d 053b 90b3 76be 6ea2 a8be
00000050: 044c 60be efe8 34be 3722 9abe c6de 1cbe
00000060: acfb 73bd 2257 b4be 5e3f b2be 74b9 debd
00000070: e5fc 2bbe 588d debd 18f0 1abe ecf8 afbd
0.16894428 -0.2468754 -0.22751145 -0.13070191 -0.19231023 -0.22256266 0.101531416 -0.16472211
-0.46925473 -0.14220841 -0.07637062 -0.11950807 -0.009222806 -0.0036369136 -0.29372558 -0.070362404
-0.01582838 0.002037824 -0.24091935 -0.32936424 -0.21903998 -0.17666982 -0.3010423 -0.15319356
-0.059566185 -0.35222727 -0.3481397 -0.10875216 -0.1679569 -0.10866803 -0.15130651 -0.085924

module.1.running_mean f4 [32]
00000000: a12f 42be daa8 0a3e 68f5 8b3e 5e41 da3c
00000010: 233d c9bd 1092 b7be a0d0 b9be efa6 183e
00000020: b5c5 0bbf 8ed7 e13e aa8b 933e 73a7 d9be
00000030: 597d 503d 5de7 d23d db7b 37bd 3754 c6bd
00000040: 7ce8 0a3d cf78 04be 6c2a e5bc e8d1 aabc
00000050: e4e1 74bc 0e6d 08bd fa5d ed3e faf7 7dbd
00000060: bb34 e4bd e560 03bf 20d2 893e d6be 093d
00000070: 875b 43bc 76b3 fdbd 102d 50bc 7ad1 603d
-0.18963481 0.13540974 0.27335668 0.026642498 -0.09826114 -0.35853624 -0.3629198 0.1490743
-0.5459855 0.44109768 0.28817493 -0.42510566 0.05090079 0.10298035 -0.044795852 -0.096840315
0.03391312 -0.1293671 -0.02797433 -0.020852044 -0.014946435 -0.033307128 0.4636076 -0.062004067
-0.1114287 -0.51319724 0.26918125 0.03362926 -0.011923677 -0.12387745 -0.012706056 0.054887272

module.1.running_var f4 [32]
00000000: 46e4 9a3e 23fa 423e 3700 b33d e8c6 0a3f
00000010: 3a40 5e3d 6939 e13d faad 013e 2e2c 8c3d
00000020: 0253 5d3e 482b dc3d 9478 523e d72d 063e
00000030: 994d 073e b88a ad3e 9c98 293e 6f53 a53e
00000040: fb48 6f3e 3085 433e b87b 323d defc 0b3f
00000050: 5020 d33d 3839 bd3d d216 043e 9e5d 003e
00000060: 9502 b23e 90f7 753e 0192 413d 06d7 863e
00000070: cbc6 8a3e 4b9b 493e 3636 c03d 0869 253f
0.30252284 0.19040732 0.08740275 0.54209757 0.05426047 0.10997278 0.12664023 0.06844364
0.21613696 0.10750443 0.2055381 0.13103424 0.13213195 0.33894897 0.16562122 0.32290217
0.23367684 0.19093776 0.04357502 0.5468272 0.103088975 0.09239429 0.1289933 0.12535712
0.34767595 0.24020219 0.04725838 0.26335925 0.27104792 0.19688146 0.0938534 0.6461339

module.4.weight f4 [32, 32, 5, 5]
00000000: 1c12 97bd b67a 9abd d547 abbd cc30 30bd
00000010: 21a1 90bd 2a08 07bd 443c 43bb df6d a2bc
00000020: 0eb1 16bd 78b4 19bd b74b 1e3c 3a2f 4cbd
00000030: c580 593a fcbe 27bd 51ea ad3b 97d3 fe3c
00000040: b849 be3c 703f 7a3d b223 793c f2ac f23c
00000050: e2a5 1a3d 7ef3 ba3d 1e8a bd3d c5a8 cc3d
00000060: b900 4e3d 11ab 19bd 9bdf 47bc 16d0 07bd
00000070: 7538 8d3c 5d2d 66bc 1bc1 f4bb 6a10 e7bc
00000080: 46e0 0cbd d98c 21bd 8421 a13c b076 163d
00000090: 9c15 883d e2e1 943d 9b11 6b3d ed4f 283b
000000a0: 7494 bbbd 5d63 fbbc 207a 7cbc 5e32 c1bc
000000b0: f299 23bd a706 d3bc ea39 53bb 3360 c33c
000000c0: 4e2b ad3d 3905 3f3d b45c 82bd 3c54 b4bd
000000d0: afca 36bd 7c06 15bd c5e7 d2bc 773c 63bd
000000e0: 7bec 43bd ef9e d3bc 67e2 11bd c539 24bd
000000f0: a7d4 37bd bd03 d9bb fd19 a6ba f223 27bd
00000100: a962 bf3b 5a56 e4bd 38b5 9bbd d85e 58bb
00000110: 58f8 4bbc 61ed c8bc eb3d d3bb 3c27 0a3d
00000120: 3222 243d 24ab 903b 4609 773c 1a2e c3bd
00000130: cbb5 6cbd 3eda a33b 6cb4 0cbc 6b0d 813b
00000140: d98e 87bc 068a 723c da26 023d 558f 0abd
00000150: bc3e ba3c 63af afbd b7e5 21bd 4750 1b3d
00000160: b18b 33bd 078a 14bd 4ec4 95bd f8b8 77bd
00000170: 19bf 80bd 0487 b6bd 6d6a 3bbd 9226 ddbd
00000180: 7200 c9bd 1b7d 44bd a988 a3bd 4dc2 55bd
00000190: 82cd c8bb 4ec0 3bbd 9c91 70bd feb0 37bd
000001a0: bf2e 41bd ec38 5b3d cbaf 303c 9b0e 283c
000001b0: 69cc 07bc fd1e 493d a059 383d 07a3 23bd
000001c0: 9714 c0bc c9a1 6dbc a030 413d c906 1e3c
000001d0: 9c1a b23d 69d7 e2bc eabb 94bd 0be3 0cbd
000001e0: eda8 b5bd c9d4 efbd ac56 a1bd 360f 25bd
000001f0: ecdb 363d fbb3 82bd 12b5 81bd 98b0 f0ba
00000200: 5537 8fbd 8d0d 84bd 6f32 cfbd 085a 15bd
00000210: 7f97 ecbb 1403 44bd 18c3 e2bd 33fc 3ebc
00000220: 6026 973d 0820 0f3e 1766 c03c 346f bdbb
00000230: 3800 293e 4fbd 993e 9377 913e 78f6 653e
00000240: e73b 013e 6b9b e9bc 7e9e 433c 51c6 053c
00000250: c4bc 57bd 4fae 2abd b63d 293d 6b7d 503d
00000260: 3f7f 333d 3a96 953c c88d 9f3c 5883 593c
00000270: c33a 1b3d 428e 353d c779 0a3d 750d 213c
00000280: 8c65 953c 99be 1cbd 8793 383c efc8 9abc
00000290: 3556 843c 7432 bd3c 358a a33d c581 733c
000002a0: 2eff 193d 0da2 143d 3364 b63c 4fc8 23bd
000002b0: e76d ce3a fb7a 36bd bce2 e03c 5d4b b8bb
000002c0: b6aa 72bc f6a6 c73c 83b1 49bc fa0b d9ba
000002d0: 9ede ccbc 874c d4bc 783a 7dbc 26e5 fc3c
000002e0: 36e7 65bd 6cf6 633c 217b 583d 2745 fe3d
000002f0: 985e 493d 7f9b 233d b838 8e3c 2a7b 11bd
00000300: 3239 4ebd f76e f13c 2a6b d23c 0702 63bd
00000310: a6f6 1abd 6109 c9bd 98a4 afbd e78f 93bd
00000320: 5fcf 57bd a9cc 17bc a6a6 8cbd ab00 a5bc
00000330: 6f86 8bbd efc8 fdba 8406 2f3d b253 0ebd
00000340: 5f9b 89bc 2309 56bd 683c 1bbd 5f9f bdbc
00000350: c17d c9bc f588 5abd 746d 36bd 6d53 07bd
00000360: 0269 f6bc 8a75 17bd ebc6 86bd 5d93 fabd
00000370: 9f24 ab3d f07a e63d 9315 ba3d 74dd fc3d
00000380: 3e8f 8e3d fb08 aebc f4d9 36bd 6748 fcbc
00000390: eca7 813b e3ab 633b d37b 58bc 7b9e 2bbd
000003a0: ffd0 4dbc 2b71 2cbd 2154 803c d35f e73c
000003b0: 02cb 153c dd3c 033d 99fc cabb f127 5abc
000003c0: 5e67 e1bb 13dd 6fbd de84 04bd c969 14bd
000003d0: 0f38 eebc 0054 e3bc 733c c63b 08a0 04bd
000003e0: fac5 553c 45b6 023c 4e73 92bc abab 84bd
000003f0: 9d21 36bd 0967 cabc 2987 b63c 1463 e9bc
-0.07376501 -0.075429365 -0.0836331 -0.043015286 -0.07061983 -0.03296677 -0.002979056 -0.019827781
-0.036789946 -0.037525624 0.0096616065 -0.049849726 0.0008297081 -0.04095362 0.0053074737 0.031106753
0.023228511 0.061095655 0.015206264 0.029623482 0.037755854 0.09128474 0.092548594 0.09993128
0.050293658 -0.037516657 -0.012199308 -0.03315743 0.017238835 -0.014048901 -0.007469309 -0.028206069
-0.03439357 -0.039440963 0.019669302 0.036734283 0.06644747 0.07269646 0.057389837 0.0025682405
-0.091591746 -0.030687029 -0.015409976 -0.023583587 -0.039941736 -0.025760008 -0.0032230564 0.023849582
0.08455525 0.04663584 -0.06365338 -0.08805129 -0.044626888 -0.036383137 -0.025745282 -0.055477586
-0.047832947 -0.025832621 -0.035616305 -0.040094156 -0.044880535 -0.00662276 -0.001267254 -0.040805764
0.0058406186 -0.11149283 -0.07602924 -0.0033015516 -0.0124493465 -0.024527254 -0.00644659 0.033728823
0.040071674 0.004414933 0.015077895 -0.095302776 -0.05779056 0.0050003817 -0.008587938 0.003938367
-0.016547607 0.014803415 0.031775333 -0.0338281 0.022734992 -0.08578374 -0.039525714 0.037918355
-0.043834392 -0.036264446 -0.07312833 -0.060479134 -0.06286449 -0.08912471 -0.045755792 -0.10798372
-0.09814538 -0.047970872 -0.0798505 -0.052187253 -0.006128014 -0.045837693 -0.058732614 -0.044846527
-0.04716372 0.05352108 0.0107841 0.010257388 -0.008288481 0.04910182 0.045007348 -0.039950397
-0.023447318 -0.014503905 0.047165513 0.009645172 0.086964816 -0.027690606 -0.07262404 -0.034396213
-0.08870111 -0.117105074 -0.078778595 -0.04029771 0.044643328 -0.06381985 -0.063333645 -0.0018363176
-0.069929756 -0.06447897 -0.10117041 -0.036462814 -0.007220208 -0.047854498 -0.110723674 -0.011656809
0.07380366 0.13977063 0.02348618 -0.0057810787 0.1650399 0.30027243 0.2841154 0.22457302
0.12620507 -0.028516492 0.011939643 0.008164958 -0.052670255 -0.04167014 0.041318618 0.050900858
0.043822523 0.01826011 0.019476786 0.013275944 0.037897836 0.04432512 0.033807542 0.009829869
0.018236898 -0.038267706 0.011265642 -0.01889464 0.016154388 0.023095347 0.07985345 0.014862482
0.037596874 0.036287356 0.022264576 -0.03998595 0.0015749306 -0.044550877 0.027451865 -0.0056242184
-0.0148112085 0.024371605 -0.0123103885 -0.0016559355 -0.025008496 -0.025915397 -0.015455835 0.030870985
-0.056128703 0.013913732 0.0528518 0.124155335 0.049162477 0.039943215 0.01736103 -0.03551785
-0.050347514 0.029471857 0.025685865 -0.055421855 -0.03783288 -0.09816242 -0.08576316 -0.072051816
-0.052688 -0.009265103 -0.06867723 -0.02014192 -0.068127505 -0.0019362251 0.042730823 -0.034747787
-0.01679772 -0.052254807 -0.037899405 -0.023147283 -0.024596097 -0.05335327 -0.044537976 -0.033038545
-0.030079369 -0.03697733 -0.06580909 -0.122351386 0.08356594 0.11253917 0.09086146 0.12346926
0.06960915 -0.021244517 -0.04464145 -0.030796243 0.0039567854 0.0034739904 -0.013213116 -0.041899186
-0.012562036 -0.042100113 0.015665116 0.028243935 0.009142639 0.032040466 -0.006194663 -0.013315187
-0.0068787774 -0.058560442 -0.032353275 -0.036233697 -0.029079465 -0.027750015 0.0060496866 -0.03237918
0.01304769 0.007978027 -0.017877247 -0.064780556 -0.04446565 -0.024707334 0.022281246 -0.028489627

module.4.bias f4 [32]
00000000: 06f6 07bd 5e67 16bb 406b 843c d17d e8bb
00000010: 9094 b3bc 85fd dc3c 8174 b63c 34f1 b6bc
00000020: 8f85 a53c 5e8c 103d db87 febc fc1d 293b
00000030: d0f2 6abc cdfb aebc 9234 03bd 0961 173c
00000040: c15e cb3c a197 98bc f7e3 dcba a423 d7bc
00000050: 17ee c53c 6281 fabc 7f82 903b 495b 323c
00000060: 8a9b c539 e629 d93c adfd d03c 5ed9 f7bc
00000070: 8e0f 6e3b 7d41 f8bc 194b 6f39 f686 803b
-0.03319361 -0.0022949795 0.016164422 -0.0070950766 -0.021921426 0.026976356 0.02227235 -0.022331811
0.020205287 0.035290115 -0.03107064 0.0025805226 -0.014340118 -0.021360302 -0.032032557 0.009239444
0.024825456 -0.01862699 -0.0016852607 -0.026262112 0.024161382 -0.030579273 0.0044100876 0.010886022
0.00037690654 0.026509237 0.025511587 -0.030255016 0.003632519 -0.030304665 0.00022820792 0.0039223386

module.5.weight f4 [32]
00000000: 113f 353f 7281 4c3f 5cbd 713f ba05 693f
00000010: ff31 503f b7fa 823f 6a59 553f d754 843f
00000020: 3427 893f 1a1b 7a3f 810e 8b3f a39b 823f
00000030: 96ce 6a3f 5a40 a53f 83cc 7b3f 1131 8b3f
00000040: f659 6c3f accd 693f 50b6 793f 6d77 833f
00000050: 24ec 663f b032 413f af6f 873f 9993 603f
00000060: f3b8 5f3f a99b 833f 772c 5f3f 152e 793f
00000070: 14a1 893f 8485 853f 3ab1 803f 5a32 743f
0.70799357 0.7988502 0.94429564 0.91024363 0.8132629 1.0232762 0.8333956 1.0338391
1.0715089 0.97697604 1.0863801 1.0203747 0.91721475 1.2910264 0.98358935 1.0874349
0.9232477 0.91329455 0.9754381 1.0270821 0.9020407 0.7546797 1.0580958 0.87725216
0.87391585 1.0281879 0.8717722 0.9733594 1.0752282 1.0431371 1.0054085 0.9538933

module.5.bias f4 [32]
00000000: a370 47be 8e8a 39be 372f d6be 38b8 cabe
00000010: 96eb cdbd 2901 9cbe 7c5b 77be fe87 a7be
00000020: bee7 98be 87a1 bdbe 93ce 1cbf c51b c1be
00000030: 9c1c dbbe 1266 eabe 5341 d5be a088 99be
00000040: 37e2 dbbe db2f b1be a4c3 89be 99d9 e9be
00000050: b3b4 abbe 710f 1bbe a51c d1be e927 c9be
00000060: c893 b3be c992 62be 6443 72be dff3 aebe
00000070: 038c 06bf e23e ddbe 4018 64be fd20 c2be
-0.19476561 -0.1811926 -0.41832897 -0.39593673 -0.100547 -0.30469635 -0.24155992 -0.3272094
-0.29864305 -0.37037298 -0.6125271 -0.377165 -0.42795265 -0.45780998 -0.416514 -0.2998705
-0.42946026 -0.34606823 -0.26907074 -0.45673826 -0.335363 -0.15142609 -0.40842167 -0.39288262
-0.35073686 -0.22126307 -0.2365852 -0.34170434 -0.5255739 -0.43212038 -0.22274876 -0.37915793

module.5.running_mean f4 [32]
00000000: 8050 1ebd d275 ddbe 2e4b fdbf 50e5 993f
00000010: eee5 debf 44fe cfbe d0e7 fcbe 6523 47c0
00000020: 0d7a 11c0 63a6 0ac0 e05b 0ec0 87f2 75c0
00000030: 3af8 9dbf f0ce 4fc0 f3ee e5bf 75fa 72c0
00000040: 5345 18c0 c5df 8fbf b960 44c0 f4db 4b3c
00000050: 82d2 9dbf aef9 b93e 4966 85c0 7492 a1bf
00000060: 2b68 27c0 b024 20bf 1790 6cbf ea3e 09c0
00000070: 2bd7 1ac0 97fa 3fc0 2a89 f2bf afca 97bf
-0.03865099 -0.43253952 -1.9788568 1.2023106 -1.7413919 -0.40623677 -0.4939561 -3.1115353
-2.2730744 -2.1664054 -2.2243576 -3.8429277 -1.2341378 -3.2470055 -1.7963547 -3.7965367
-2.3792312 -1.1240164 -3.0684035 0.012442578 -1.2329867 0.36323303 -4.168736 -1.2622819
-2.615733 -0.6255598 -0.92407364 -2.144465 -2.4193828 -2.9996698 -1.8948109 -1.1858729

module.5.running_var f4 [32]
00000000: 3088 8e40 757b 9d40 5ffe b940 60ec ab40
00000010: 13dc c740 8cad a640 917a ec40 2831 fc40
00000020: 5361 ef40 0e05 0a41 6df7 d540 bcd0 db40
00000030: ea86 9540 682c 4a41 512a 9640 ec4d 1741
00000040: be64 a540 6b0b a740 6fcb aa40 3606 0141
00000050: 3985 d640 9e49 9f40 098b 0241 7260 8e40
00000060: d9f5 d340 a263 9340 12d0 6b40 8b4a d340
00000070: 5d6d d440 85e9 bf40 f49f b040 54ca 9240
4.4541245 4.9213204 5.812301 5.3726044 6.2456145 5.208685 7.3899617 7.8810005
7.4806304 8.626234 6.6864533 6.8692303 4.672719 12.635841 4.6926656 9.456524
5.1685476 5.220144 5.337333 8.064016 6.7037625 4.9777365 8.158944 4.449273
6.6237607 4.605912 3.6845746 6.6028495 6.63835 5.997256 5.5195255 4.5871983

module.8.weight f4 [64, 32, 5, 5]
00000000: dbc4 5dbb aa69 87bb af40 5fbd 2a72 48bd
00000010: 9bd3 81bd 8549 943c fb89 2cbc f030 b53b
00000020: 4186 b9bc 6f3b c9bc 97ce 853d b826 eb3a
00000030: ac6e 793c 505b d9bb 8c85 663d 3fe6 963d
00000040: 2d03 a6bb 7b5d 9cbd 2501 a5bc fb0a b43c
00000050: f401 b83d fd85 b83c 440a ed3c 26be 983d
00000060: 975e 993d 1cef 7e3c 80c9 bfba ae54 963d
00000070: 788b de3b 818c 88bc 06da 0f3d 11fa 3bbb
00000080: 9ffa fabb 3a69 9cbc 6c6f 19bc 5197 273d
00000090: 9d80 7c3d 4aaa e53d bee2 6b3d e700 a23d
000000a0: 0e87 7e3d 2556 8c3b 8d40 853d 21a7 f83c
000000b0: e042 703d 8d83 b03c e78c 0a3d 7128 a13c
000000c0: ecfc 9a3c 918e 023d 11b1 da3c bcaa 6e3d
000000d0: 56ac 923d 42c0 6a3d d3a7 b23b 8322 64bc
000000e0: ad3a e13a f715 1b3d fb41 383d b542 933c
000000f0: 8321 a43c c1bd d8bc a69f 93bc 55f6 c43c
00000100: 93cb b5bc e5fd 383d c206 3a3c 4e62 74bd
00000110: 4289 1cbd cb44 2b3c d71f fe3c e41a 863c
00000120: 4e00 c63c 8a5d a0bc 41f4 99bc 2714 26bd
00000130: 79db 4d3d 6725 ea3c 6698 d3bc 4019 24bd
00000140: ed93 ecbc 1335 74bc 073e 58bd ee17 af3b
00000150: f155 a43b 0fa7 08bd 9141 5abd 79f1 b03c
00000160: 3fe8 2dbd d720 40bd 2397 dbbd 8d9d 493b
00000170: 7b66 043d 39fd 923b 9370 eebc 82f8 d4bd
00000180: 2b4e 96bd 985d 8b3d 40a5 b93d 46f9 d4bc
00000190: 59c6 c5bd 7344 4cbd da2a 923c 187a cebb
000001a0: 01d3 05bd 2995 40bd c10e 1fbd 32e8 5e3d
000001b0: ff12 0a3d db83 5cba 5d6a 483d 7760 5abd
000001c0: 0249 3ebd 9227 c93c a019 813d 2806 2a3d
000001d0: 2f38 133c f04b 4dbd f2cc f2bc 526d f9bc
000001e0: 264c 513d 3aa9 123d 3705 43bd de74 17bd
000001f0: ac0b 1dbd 8df9 80bc 8d48 0abd eddd 98bd
00000200: bbd1 8abd 87b4 97bc aefc e33c 0666 a13d
00000210: 3bc1 6bbd 0743 9ebc ecb7 4d3b 5486 5dbd
00000220: d36a 5a3d 730a 03bd faeb fbbb bc8e 2dbc
00000230: d5c6 02bd 9a86 90bb 21e2 0f3d 63b2 7a3a
00000240: ee51 27bd aa03 77bd 8c3d 6bbb f62b f63c
00000250: 2745 7f3c 03dd 81bc 1565 f93c 1549 a33d
00000260: a568 593d 8157 593d 2277 8c3c c2c2 bd3c
00000270: 42cb f1bb ab60 1abc 4def 29ba ba8f 1f3c
00000280: 81b5 753d 0ffb 433d 9716 cd3c ff28 393d
00000290: f646 b6ba 8118 4cbd 5009 2e3c a643 913c
000002a0: 8678 41bc b4e2 08bd cecb 0c3b 5e2f 20bd
000002b0: cbe3 f8bc 6cae 3dbd 71e5 56bd b430 53bd
000002c0: 93b2 d53b f14d 4f3d e6a3 ebbc de37 b6bc
000002d0: dbd4 7cbd b133 b63c b4b1 3f3d cdca f03c
000002e0: d435 babc ad24 cdba fb45 843c 1e8e 5b3d
000002f0: 6d39 863d 64c0 6e3c 5275 b7bc 5aa1 7b3b
00000300: 19f0 a33c b902 dbbb e335 d7bb 38ee 823d
00000310: 0b88 5e3d ee4a a6bd bbbe 9fbd d251 a9bc
00000320: 34fd 1e3d 7e05 ddbc 925e a6bc a6b8 45bd
00000330: a1ae e1bd ac2e c43d 0bd5 c63d ffd9 a83b
00000340: c770 bebd 4e4f f2bd 320c 903d dbc2 a13d
00000350: b2fa 60bd c4c4 27be d5c5 41be 60df 053e
00000360: 89d3 ab3d 793f 14bc b0ca 1fbe dfc3 24be
00000370: 6338 a23d 6c7c 453d 7e92 d43c 1b6d cdbd
00000380: 1148 0d3c 8f74 3c3d b00f 2d3d 40ea 993c
00000390: b9eb c43a 3697 893c e210 90bc 613f 133d
000003a0: b3f2 da3c ef93 a13c 8d31 5f3c 6df6 c4bc
000003b0: 0735 82bb f726 643c aad2 953c 27fb cf3b
000003c0: 6ae3 103d d078 c3bb 5d32 e6bc d578 e53c
000003d0: bf78 f93d a5aa b43c 3436 38bd eba2 91bd
000003e0: c43d 84bb abbe 813d 2c9b b83d 5f7f d93c
000003f0: 462f c83d cdcb e83c 9c60 d6bb a4b4 143d
-0.0033839259 -0.004132469 -0.054505046 -0.048937 -0.06339189 0.018101463 -0.010530944 0.0055295154
-0.022647025 -0.024564473 0.065335445 0.0017940616 0.01522414 -0.0066331998 0.056279704 0.07368135
-0.0050662966 -0.076350175 -0.020142147 0.021977892 0.089847475 0.022524828 0.02893556 0.07458143
0.07488745 0.015559938 -0.0014632195 0.0734037 0.0067915283 -0.01666856 0.035120033 -0.0028682987
-0.007659271 -0.019093145 -0.009364944 0.04091579 0.061646093 0.11214121 0.057589285 0.07910328
0.062140517 0.00428273 0.06506453 0.03035313 0.058657527 0.021547103 0.03382578 0.019672604
0.01891943 0.031874243 0.02669576 0.058268294 0.07161777 0.057312258 0.005452135 -0.013924244
0.0017183624 0.037862744 0.0449848 0.017976144 0.02003551 -0.02645767 -0.018020462 0.024043242
-0.022191798 0.045164008 0.01135415 -0.059664063 -0.038216837 0.010453413 0.031021042 0.016370244
0.024170067 -0.019575853 -0.018793227 -0.040546563 0.050258134 0.028582288 -0.025829505 -0.040063143
-0.02887913 -0.014905232 -0.05279353 0.005343429 0.005015128 -0.033362444 -0.053285185 0.021599518
-0.042457815 -0.04690632 -0.107221864 0.0030764074 0.032324295 0.004485753 -0.029106414 -0.103989616
-0.07339128 0.06804961 0.09064722 -0.02599777 -0.096569724 -0.049869966 0.017842699 -0.006301176
-0.032671932 -0.04701725 -0.03883243 0.054420657 0.033709522 -0.0008411982 0.04892956 -0.053314652
-0.046456344 0.024555001 0.06303716 0.041509777 0.008985563 -0.050121248 -0.029638741 -0.030447636
0.05109801 0.03580592 -0.047612395 -0.036976688 -0.03834121 -0.015743995 -0.033760596 -0.07464204
-0.06778284 -0.0185187 0.027830448 0.078807876 -0.057557326 -0.01931907 0.0031390144 -0.054083183
0.05332453 -0.031992387 -0.0076880427 -0.010593113 -0.031927902 -0.004410577 0.035127763 0.0009563325
-0.04084962 -0.06030623 -0.003589484 0.03005026 0.015580452 -0.015852457 0.030443707 0.07972924
0.053078312 0.053061966 0.01714665 0.023164157 -0.0073789665 -0.0094224615 -0.0006482497 0.009738857
0.05998755 0.04784685 0.025035186 0.045205113 -0.0013906646 -0.049828056 0.010622337 0.017732453
-0.01180852 -0.033419326 0.0021483782 -0.039107673 -0.030382058 -0.04630892 -0.052464906 -0.05156012
0.006521532 0.05061144 -0.028764676 -0.022243436 -0.061726432 0.022241445 0.04680033 0.029393578
-0.022730745 -0.0015651189 0.01614665 0.05360233 0.06553922 0.014572237 -0.02239481 0.0038395734
0.020011948 -0.006683674 -0.006567703 0.06393093 0.05432896 -0.081197605 -0.07800051 -0.020668898
0.038815692 -0.026980158 -0.020308767 -0.048271798 -0.11019636 0.095792145 0.097086035 0.0051529403
-0.09298854 -0.118315324 0.07033576 0.07898494 -0.05492658 -0.16383654 -0.18923123 0.13073492
0.083899565 -0.009048336 -0.15604663 -0.16090344 0.07920911 0.04821436 0.02594876 -0.10030576
0.008623139 0.046009596 0.04225129 0.018788457 0.0015023864 0.016795736 -0.017586175 0.035949115
0.026727056 0.01972386 0.013622654 -0.024043286 -0.0039736065 0.013925306 0.018288929 0.0063470784
0.03537313 -0.0059653297 -0.028100187 0.028011719 0.121812336 0.022054026 -0.044973567 -0.07111152
-0.0040356833 0.06335195 0.09013972 0.026549993 0.09774642 0.028417492 -0.0065422785 0.036305085

module.8.bias f4 [64]
00000000: b02b be3c c469 61bc aa00 313c 2c5d aabc
00000010: acf0 edba dcb8 15bc eeaf 9e3c 1ee6 02bd
00000020: 9b80 f83c 2c19 f9bc 16bc 06bd df81 313c
00000030: 9400 6f3a e886 36b7 9593 c239 be49 ff3c
00000040: 6edc 9bbc 3ceb e7bc 31ad d4bc 6d57 053d
00000050: 3659 7f3c ff07 92bc 662f dbbc 1346 d2bc
00000060: a36f e2ba 164c ebba 3610 f03c 3454 41ba
00000070: 967a 0ebd fa07 0bbd 4b71 e4bc 4abd febc
00000080: a159 063d 7fae 5d3c 18f0 d13b a0b1 9abc
00000090: c6e1 75bc 89cf 063d 341d 85bb 3a2a ccbc
000000a0: 2c8d 82bc 71f9 edbc 6a07 103b 8c01 10bd
000000b0: da8b f0bc b4e9 ebbc 0574 2fbc 46be 233c
000000c0: 8ebc bcbc d929 00bd 2bd8 0dbd 24b8 b83b
000000d0: 80a6 a1b9 be16 1fbc 33d6 2dbc 394d dbbc
000000e0: 9dca 33bb cde3 3a3b 35fe e1bb ab81 67bc
000000f0: 3c97 dcbb 18da 09bd dd55 4fbb fade b8bc
0.023214191 -0.013758127 0.010803381 -0.020796381 -0.0018153391 -0.009138312 0.019371 -0.031957738
0.030334761 -0.03040751 -0.032894216 0.010834186 0.00091172126 -1.0879456e-05 0.0003711252 0.031163093
-0.019026008 -0.02831041 -0.02596149 0.03255408 0.015585234 -0.017826078 -0.026756 -0.02566818
-0.0017275702 -0.0017951753 0.029304605 -0.0007374913 -0.034784876 -0.033943154 -0.027886054 -0.03109612
0.03280032 0.013530373 0.0064067952 -0.018883526 -0.015007442 0.032912765 -0.004062319 -0.024922479
-0.015936457 -0.029049607 0.0021977075 -0.035157725 -0.029363561 -0.028797962 -0.010708814 0.009994095
-0.023039129 -0.03128991 -0.034629982 0.0056371856 -0.00030832365 -0.009710012 -0.010610151 -0.026770221
-0.0027434 0.0028517128 -0.006896759 -0.014130036 -0.0067318957 -0.033655256 -0.0031636872 -0.022567261

module.9.weight f4 [64]
00000000: cdc9 3f3f 1bca 313f 76f7 263f 3bee 3e3f
00000010: 732b 413f 10f2 273f 0e24 1d3f f6ac 503f
00000020: 109c 3b3f ca7c 243f f98e 403f 8cbe 123f
00000030: 9ce0 2f3f 1053 1a3f e33c 313f 5523 013f
00000040: 9fb9 3b3f 8327 303f 8540 293f 14ea 2e3f
00000050: 74c5 393f c199 313f 6ed6 283f 50c4 273f
00000060: f5e2 0e3f 6b9b 2b3f bcce 463f 3f07 2b3f
00000070: 6aed 353f 10bb 103f ac69 4e3f ad67 483f
00000080: df36 273f f735 323f c11e 2f3f 59da 393f
00000090: 15ca 1b3f e8c1 1a3f 6f59 543f 9da0 013f
000000a0: 1190 203f f935 3b3f 958d 1d3f 2d1d 243f
000000b0: 6c65 4c3f 04f4 3a3f 21dd 203f c60a 203f
000000c0: ee77 353f 789a 363f 5d9e 233f afc7 3d3f
000000d0: 6a76 003f f086 553f a136 233f 5e8d 2f3f
000000e0: 4f51 3f3f 15c3 303f f2ea 133f 60b6 313f
000000f0: f313 393f 56a9 383f 3194 4c3f adcf 313f
0.749173 0.69449013 0.65221345 0.7458226 0.75456923 0.65603733 0.6138314 0.8151392
0.7328501 0.64252913 0.7521816 0.57322 0.687021 0.60282993 0.6923353 0.5044454
0.7333011 0.6881029 0.66114074 0.68325925 0.72566915 0.69375235 0.65952194 0.65533924
0.5581506 0.67034024 0.776592 0.6680793 0.7106539 0.56535435 0.8062999 0.78283197
0.653181 0.69613594 0.684063 0.725988 0.6085523 0.6045213 0.82948965 0.506357
0.6271983 0.7312923 0.6154416 0.6410702 0.7984226 0.7302859 0.62837416 0.6251644
0.70886123 0.7132945 0.6391352 0.7413282 0.50180686 0.83409023 0.6375523 0.68575084
0.7473344 0.6904767 0.57780373 0.6941891 0.72296065 0.72133386 0.7991362 0.69457513

module.9.bias f4 [64]
00000000: f2a1 28bf 7d6a 10bf 184b ffbe 355d 41bf
00000010: 6abf 3dbf 6cc4 2fbf 6b2c 01bf 97d4 71bf
00000020: d818 2ebf 4e96 0ebf c043 1dbf 4737 1abf
00000030: b348 fdbe bac6 00bf cca0 20bf aca0 f1be
00000040: 941a 17bf 9165 05bf f6cb fbbe 16f0 3dbf
00000050: 94e3 3dbf 39a5 23bf b7ed 09bf e5a2 19bf
00000060: 0b61 02bf 4ef0 1bbf c095 12bf 1019 2ebf
00000070: b53a 32bf 5db7 ffbe 40ca 57bf 7b61 1ebf
00000080: d67f 17bf d212 11bf 8cbe 01bf 5e76 12bf
00000090: 0da8 dabe b1db fabe 065d 31bf 9044 00bf
000000a0: b32d 21bf b466 1abf d6b2 01bf 91b1 10bf
000000b0: b75f 38bf 08d3 15bf a131 1cbf b1ea 0cbf
000000c0: ef73 01bf 121f 0dbf 8c06 2fbf b521 21bf
000000d0: faed fcbe 08fa 2cbf e5e1 0bbf 10ca 10bf
000000e0: abb8 14bf 4582 0cbf 501c fdbe f8ec 19bf
000000f0: 7e49 08bf 624a 10bf 4f7a 36bf ccf9 17bf
-0.6587211 -0.5641249 -0.4986198 -0.7553285 -0.741202 -0.6865909 -0.504584 -0.9446501
-0.6800666 -0.55698097 -0.61431503 -0.60240597 -0.49469528 -0.5030323 -0.62745357 -0.47192895
-0.5902493 -0.52108103 -0.49179047 -0.7419447 -0.7417538 -0.63923985 -0.5387835 -0.6001418
-0.50929326 -0.6091355 -0.5725975 -0.6800699 -0.6962083 -0.49944583 -0.84292984 -0.61867493
-0.5917944 -0.5666934 -0.50681376 -0.57211864 -0.42706338 -0.48995736 -0.6928257 -0.5010462
-0.62960356 -0.6031296 -0.50663507 -0.56520945 -0.7202105 -0.58525133 -0.6101323 -0.5504561
-0.50567526 -0.55125535 -0.68369365 -0.6294206 -0.49400312 -0.6756902 -0.5464156 -0.5655832
-0.5809428 -0.54886276 -0.49435663 -0.6012721 -0.5323714 -0.563635 -0.7128038 -0.59365535

module.9.running_mean f4 [64]
00000000: 50ef 8cbf 90db 0bc0 dfb9 d5bf 9a3f 1abc
00000010: 2e3f 2ac0 48b3 c9bc d38e 92bf 7ba4 87bf
00000020: 1908 88be c1ef e6bf c9cc 0bc0 8c8c 08bf
00000030: fc90 dabf 7ba8 d53e 98c1 12c0 2521 7bbf
00000040: 42e9 0ac0 cdae 20c0 cdda cabf f1d9 94be
00000050: 25f5 7abf 0073 05c0 c53a 94be aa79 a9bf
00000060: b259 13bd bbe4 68bf 7801 f6bf b24a 3bbf
00000070: f53b 7abf b63d 74bf 57f0 18bf 3d41 0ec0
00000080: 2c97 4cbd 40b6 46bf 3019 00c0 d2f3 18c0
00000090: bf8c a0bf e0db aabf 59e6 55c0 9d85 7abf
000000a0: fa01 5dbe dd9d 3dc0 6e0e bbbf 310e 9bbf
000000b0: bda1 3dc0 b649 e1bf 0532 acbe 22ce 01c0
000000c0: 3e4f 95bf b55b bfbf 2d62 c1be 4cf8 62bf
000000d0: 4f10 403f 7068 40c0 1132 a3bf fb78 c2bf
000000e0: 1ba1 1cc0 512a b7bf 0058 f0be 6608 2fbf
000000f0: 9cf4 b0bf f5c2 a8bf e87e 5abf 4d70 f5bf
-1.1010532 -2.185276 -1.6697348 -0.009414578 -2.6601062 -0.02462162 -1.1449836 -1.059707
-0.26568678 -1.8041917 -2.184374 -0.5333946 -1.7075496 0.41730103 -2.293066 -0.9809745
-2.170487 -2.510669 -1.5848023 -0.29072526 -0.9803031 -2.085144 -0.28951088 -1.3240254
-0.035974212 -0.90974015 -1.9219198 -0.7316085 -0.9774774 -0.95406663 -0.5974173 -2.2227318
-0.049948856 -0.7762184 -2.0015373 -2.3898816 -1.2542952 -1.334835 -3.3421843 -0.9786013
-0.21582785 -2.9627602 -1.4613779 -1.2113706 -2.9629967 -1.760062 -0.33631912 -2.0282063
-1.1664808 -1.4949862 -0.37770215 -0.8866012 0.75024885 -3.0063744 -1.2749654 -1.519317
-2.447333 -1.4309789 -0.4694214 -0.6837219 -1.3824649 -1.3184496 -0.85349894 -1.9174896

module.9.running_var f4 [64]
00000000: 9e2c eb3f b727 b43f c4b3 af3f 78ad e33f
00000010: a9b5 df3f 196a 973f 937a a53f d540 f73f
00000020: 0af5 f53f 5660 8f3f 761f bc3f 412c 7d3f
00000030: ede6 c23f dbb3 9c3f 9e2e a93f 9bf1 a43f
00000040: b953 dc3f 12dd a03f 9773 923f e7d9 973f
00000050: a103 d33f c323 f83f a537 a73f d21d ab3f
00000060: 1848 633f e5f7 913f 6aae 0040 7c83 a33f
00000070: 62ca e13f 6458 753f 03c7 fb3f 89ea e93f
00000080: a324 bd3f 942d 963f 093e 9f3f 9bf6 c83f
00000090: 7d51 9a3f f346 ca3f 1967 0940 135e 7a3f
000000a0: 354d a03f f111 ca3f 057b 833f c62e b93f
000000b0: a814 d53f bbc3 d83f c9b9 c93f 9180 8d3f
000000c0: 631a 8a3f 2907 de3f af7d b43f b126 b43f
000000d0: 4abc 7d3f d9a4 ff3f d2ca 833f e91a b83f
000000e0: 99d6 a33f 1532 d23f a3be bc3f c832 a33f
000000f0: 3c42 ae3f 5c05 d13f 8e57 0940 f1bb de3f
1.8372991 1.407462 1.3726735 1.7787313 1.7477313 1.1829253 1.2928032 1.931666
1.9215405 1.1201274 1.4697101 0.9889565 1.5226723 1.2242388 1.3217351 1.2886232
1.721305 1.2567465 1.1441525 1.1863374 1.6485482 1.9385914 1.3063856 1.3368475
0.8878188 1.1403776 2.0106454 1.2774501 1.7639887 0.95838 1.9670109 1.82747
1.4776806 1.1732659 1.2440807 1.5700258 1.2056118 1.5802902 2.1469176 0.97799796
1.2523562 1.5786725 1.0271918 1.4467399 1.6646929 1.6934732 1.5759822 1.105486
1.0789303 1.7345935 1.4100856 1.4074308 0.9911543 1.9972183 1.0296271 1.4383212
1.2799865 1.6421534 1.4745678 1.2749872 1.3613963 1.632976 2.145969 1.7401105

module.13.weight f4 [64, 1024]
00000000: 8d65 c7bb b5a2 813d 32a4 453d b2f8 f6bc
00000010: 8b76 44bd 7680 bdbc c2b6 573d 5b41 9a3b
00000020: 2b8c 323b c993 623c c1d5 8f3a e887 803d
00000030: ed6c ed3a 50ea e2ba f66d ab3c be80 413b
00000040: f2ca f23c b22b 6b3c b71f c83c 65bc a83c
00000050: e655 27bd a532 113d afda 4cbd de4d 223b
00000060: 4f92 533c f384 783d a126 093d af20 afbc
00000070: 449a 203d bc94 873d d56c 1b3d 2bbe 2abd
00000080: f8e8 ffbc a8f1 25bc bf29 8abd cfb4 d53c
00000090: 4db4 553b 3bf3 76bd 118b babd 8e23 643d
000000a0: dfba 333d ff28 acbd 79f3 ddbd 313b 203d
000000b0: 5a92 f23c 015f dabc 856c 71bd a117 043d
000000c0: 4024 b6bd a495 97bc aa7c 983c 09ed c73b
000000d0: 9e04 3ebc 04da e13c 08a3 573d f750 573d
000000e0: b352 2abd 8d99 453c ece4 993d a67a 93bc
000000f0: 6369 abbd 44fe f5bb c003 31bb ac0a 1abc
00000100: 50e7 c13d a641 19bc 6a22 18bc 40f1 253c
00000110: c952 9c3d 4288 9fbb bd83 08bd a8f6 fabc
00000120: 2918 e93c 1b3a b83c d638 4aba 2da5 a93b
00000130: 2a24 263d 35f0 c13b 552f 64bb 58d2 693d
00000140: f259 1b3d c304 c3bd 4cb2 ccbd 7aa3 59bd
00000150: 63a4 d63c a972 fcbc 8a52 23be d8c7 6fbd
00000160: 0006 9b3c 1e54 a4bc 4b58 fcbd 9c6a cabd
00000170: e3f8 1fbd d93f 16bd 4ee1 34bd 36e6 ad3b
00000180: 818d c7bc 619b 7abd 7df7 e63c 3d1b 52bd
00000190: db20 763d 5486 29bd 9c4b bbbb 7927 e83b
000001a0: c18f f53c bef6 bc3c 9f73 fa3d aae6 1b3d
000001b0: 6561 aabc 3e72 313d 79bc b53c 054e 273d
000001c0: 9adf 7f3c 8faf 533d 8856 dd3d a490 cabc
000001d0: 7725 95bc fc9b de3c 3120 d8bc 0f75 49bc
000001e0: 6e2f 80bc 8407 59bc 9ce1 2fbd 6a2a d3bc
000001f0: e764 a33c 5e78 ce3b 1e91 613d 36ac ac3c
00000200: f57b 693c 10e9 62bb 84dc af3c 98d5 40bd
00000210: 9e57 e3ba 0d04 e5bc c5d8 a53c 616f 47bd
00000220: 66bc f6bc b8cd 3a3d 50bd 123d d28b b23a
00000230: ac52 0cbb f584 2d3d eb30 ba3c 2688 123c
00000240: c114 a0bc 8ad6 3abd cfdf 9a3d 1fef 533d
00000250: c7d5 d73c a1aa e1bb 3bc0 aa3d c9fc f13d
00000260: b700 ee3c 6ed4 3abd 193f 1f3c db72 5f3d
00000270: b594 963c 4768 973c bd98 133c 319d 583d
00000280: c5cb 4d3d aabd 253d baaf 8ebc 96dd 12bd
00000290: 29c6 86bd 01c8 b6bd 51c6 323d 67ae 293c
000002a0: 5411 cdbc 385e 01bd 5ce6 0e3e a0fc 983c
000002b0: d954 1b3c 17ea 043c a4d0 c93d ed16 203d
000002c0: 63f4 d1bc e7a5 e4bc a7d2 c7bd 0af6 e4bc
000002d0: d858 55bd dc31 83bd 714b 1f3d 5fc2 c33c
000002e0: cbf8 fe3b 97e1 11bd bcd4 0cbd b0a1 9f3b
000002f0: 0394 793b 48f1 fdbc 4166 30bc 4c55 cf3c
00000300: 12db 40bd 5ee7 eebc 2844 023d a1c8 273d
00000310: d809 c9bc be69 b7bd 28e8 23bd 6801 c2bb
00000320: a03f 25bd 5215 b9bd 35b1 cfbc 08f5 63bd
00000330: 8a3a 723d 23ff 7a3d 5b9e 8e3d b499 8cbc
00000340: 0fd5 173c 3bf7 e4bc aca8 293d cec5 72bc
00000350: 032d ba3b da33 b8bc dc3a f43c c540 093d
00000360: 0e93 68bc 0ffb 0c3d fff3 1bbc 027c 4a3d
00000370: b56d b63c 9155 19bc 03fb 6ebc 7e7a 2f3d
00000380: 188a 303d a0a9 7c3c 57ff b9bb c1dd 013d
00000390: 75f5 a0bb efc4 e8bc 06ea 7bbd aeb0 08bd
000003a0: ced5 78bd 903f 0fbe 2625 a63b 37b2 6ebd
000003b0: 0ff9 3f3c 9420 adbd 70b3 d637 c962 3b3d
000003c0: 4f93 193c 2c79 473c eced 2ebd 108b 88bc
000003d0: e71e 953c de57 94bd 6893 68bd 4796 f9bc
000003e0: 1a0b e03c 8e84 25bd d477 ba3b eaa2 6d3d
000003f0: 798d ad3c 83fd 59bd ab5c 04bd f84c 1c3c
-0.006085104 0.06329862 0.048252292 -0.030147884 -0.047964614 -0.023132544 0.052664526 0.004707498
0.002724419 0.01382918 0.0010973738 0.06275922 0.0018114127 -0.0017312262 0.020926457 0.00295262
0.029637787 0.0143536795 0.024429185 0.020597646 -0.040853404 0.03544869 -0.05001324 0.002476565
0.012913301 0.060673665 0.033484105 -0.02137789 0.03920962 0.06620166 0.037945587 -0.041685265
-0.031239018 -0.010128416 -0.06746244 0.026087193 0.0032608688 -0.060290556 -0.09108556 0.05569797
0.043879386 -0.08406257 -0.10837454 0.03911895 0.029610801 -0.02665663 -0.058941383 0.032249097
-0.08893633 -0.018503971 0.018614132 0.006101255 -0.0115977805 0.027569778 0.052645713 0.05256745
-0.041582774 0.012060535 0.075143665 -0.01800282 -0.0836971 -0.0075071175 -0.0027010292 -0.009401958
0.094679475 -0.009354031 -0.009285549 0.010128319 0.076329775 -0.004868538 -0.03332876 -0.030635193
0.028453903 0.022488644 -0.00077141577 0.005177161 0.040561832 0.0059185275 -0.003481825 0.057085365
0.037927575 -0.095223926 -0.09994945 -0.05313442 0.026201433 -0.030816393 -0.15949455 -0.058540195
0.01892376 -0.020059641 -0.12321528 -0.098836154 -0.039055716 -0.036681984 -0.04416018 0.0053069843
-0.024359467 -0.061183337 0.028194183 -0.051295508 0.060089927 -0.04138787 -0.0057158004 0.0070847836
0.029975774 0.023066875 0.12229084 0.038061775 -0.020798394 0.04332184 0.022184597 0.04084589
0.015617276 0.051681098 0.1080752 -0.024727173 -0.018206341 0.027173989 -0.026382538 -0.012295975
-0.015647616 -0.013246421 -0.042939767 -0.02577706 0.019945575 0.00630097 0.055070035 0.02107821
0.014250745 -0.003462378 0.021467455 -0.0470787 -0.0017344838 -0.027956033 0.020244965 -0.048690204
-0.030119132 0.045606345 0.035825074 0.0013621992 -0.002141158 0.042363126 0.022728404 0.008943593
-0.019541146 -0.045614757 0.07562219 0.051741716 0.026347054 -0.0068867956 0.08337446 0.11815793
0.029053075 -0.045612745 0.0097196335 0.054552894 0.018381456 0.01848234 0.009008584 0.052884284
0.050243158 0.04046408 -0.017417777 -0.035855852 -0.06580765 -0.089248665 0.04364616 0.010356522
-0.025032677 -0.031583995 0.13955063 0.018675148 0.0094806785 0.008112452 0.09854248 0.039084364
-0.025629228 -0.02791114 -0.097569756 -0.027949352 -0.05208668 -0.06405994 0.038890306 0.023896394
0.0077811233 -0.03561553 -0.034382567 0.0048715696 0.0038082607 -0.03099884 -0.010766567 0.025309227
-0.04708392 -0.029163059 0.03180328 0.04096282 -0.024540827 -0.089557156 -0.040016323 -0.005920578
-0.04034388 -0.0903727 -0.025353054 -0.055653602 0.05913786 0.061278474 0.06963798 -0.017163135
0.009267106 -0.02794992 0.041420624 -0.014817668 0.0056816353 -0.022485662 0.029813223 0.033509035
-0.014195217 0.034419116 -0.009518622 0.04943467 0.02226911 -0.0093587795 -0.014586213 0.042841427
0.043100446 0.015421301 -0.005676191 0.03170562 -0.0049120733 -0.028414218 -0.06150248 -0.03337162
-0.060750775 -0.13989091 0.0050703464 -0.058275428 0.011717095 -0.084534794 2.5594345e-05 0.045748506
0.0093735 0.012174886 -0.04270737 -0.016667873 0.018203212 -0.07243322 -0.056781203 -0.030467166
0.027349044 -0.040409617 0.005690554 0.058016695 0.021185623 -0.053220283 -0.032314938 0.009539835

module.13.bias f4 [64]
00000000: a159 523c 578a d43d dd29 9a3d 3911 0b3d
00000010: f1b1 573d 3ee3 c43c c5bd 643c 73ff a4bc
00000020: 0e1d 6e3c 45ff 0b3d b434 0fbd d909 95bc
00000030: 59ca a93d 47b9 063c 39cc 16bc 1597 713d
00000040: 0f6a b4bc 40a1 573d e1c6 343d 1f79 babc
00000050: f0fe ed3d c261 ed3a 9f5e f33a 8ef6 183d
00000060: 6ce3 8dbc 0982 213d 1c5e a43d 40d0 ffbc
00000070: b11b 953d 64d8 d8bc 458d c83c 878b 66bc
00000080: 415e b73d f7ef a83c d716 daba e9ff 153d
00000090: a754 353c 279c 00bc 5a14 4ebc 38e4 653d
000000a0: 930f d83d 4c7f 603c 7e5a 313d 7861 bc3d
000000b0: fbbc 233c 4c61 1bbc 406e 013c 1037 893d
000000c0: a940 553d 785d ca3a c72e ac3b addb eabc
000000d0: ecb0 e53c be9c b83c fb93 4a3d 0c55 fcbc
000000e0: efcd 683d 8544 0ebd 79b4 d73b 2d91 273d
000000f0: 49e2 0abd f8aa 613d 8eb4 993d 8ccb 853c
0.012838752 0.10377949 0.07527516 0.03395197 0.052659933 0.024034139 0.01396126 -0.020141339
0.014533294 0.03417899 -0.03496237 -0.018193172 0.08290548 0.0082228845 -0.009203964 0.058981974
-0.022023229 0.052644014 0.04413498 -0.022762833 0.11620891 0.0018110799 0.0018567628 0.037344508
-0.017320357 0.03943065 0.080257624 -0.031227231 0.07280672 -0.02647037 0.024481425 -0.014071352
0.089535244 0.020622237 -0.0016638887 0.036621008 0.011067546 -0.00784973 -0.012578094 0.05612585
0.105498455 0.013702225 0.04329919 0.09198278 0.009993787 -0.009483647 0.007899821 0.066999555
0.052063618 0.0015439233 0.0052545997 -0.028669203 0.028038464 0.022535678 0.04945753 -0.030802272
0.05683702 -0.034733314 0.0065827933 0.040909935 -0.03390721 0.05509469 0.07505141 0.01633241

module.16.weight f4 [10, 64]
00000000: f4e7 ad3c 667d 683e 88dc 803e b7ba 4dbe
00000010: 9a2d a23e 8034 893e 79de 793e bc6e c13d
00000020: 4718 0a3d e53f 98be 4fac 343d b4e6 723d
00000030: 1c4c 45be 840e 1ebe 2bc4 963e 4643 17be
00000040: bf42 f83d 7035 6a3e 3fe2 78be a886 763d
00000050: 5384 87be 0c38 babd 12fb 22bd 9519 29be
00000060: 9538 61bd 5cf2 8dbe 35f1 a1be e8af d1bd
00000070: 684b ad3e 7dea 813d 58c1 843c 35d4 1dbc
00000080: cbe0 943e 7170 3fbe 8d20 b03d 4557 893e
00000090: 6735 e73e 61b1 61bc 8ce4 ca3d 32ca a13e
000000a0: 2d80 69bc c4a4 cb3d 8ca2 773e c418 8d3e
000000b0: af52 b23e ac8c aabd fb08 8e3e bf05 75be
000000c0: dce0 043e c6ed d6bc ac97 81bc 7b26 08bd
000000d0: 4a09 93bc ca10 053e 11c8 7ebe e45e 58bd
000000e0: 476d bebe 7106 223d 908b 093d a060 84be
000000f0: 2d33 e8bd 81eb babc 5a2f b63e 597d 9cbe
00000100: 98fb 9cbd 452b 623e 7cd2 88be 6d44 92be
00000110: 0604 16be 4982 c4be f1f1 f73d c5bc 9e3d
00000120: c676 003c 1ba7 64be 1053 853d ec99 403d
00000130: 2b22 c4be b6ae 9fbe 3b3b 15be 685a da3e
00000140: dc66 153d 27fd bfbe 6df3 6bbe 56c5 f43d
00000150: 7e0f a0be f274 c53d 30d1 c8bd 21ca b73e
00000160: c04a 8c3d 4a8b 92be e9f6 9ebe eabc 83bd
00000170: edc9 d03e 9331 713d 3c50 073f 1111 babe
00000180: 750b c73e 31f4 b2be 20df 9f3d c6f4 b63e
00000190: 3e07 81bd 47a3 58bd 2b4b 8d3d cc6f c63e
000001a0: ae5d b2be 044d 6dbd e2f3 d0be e8cd 3ebd
000001b0: f5d5 90be f22f c63d 876c e03e 1cb2 33be
000001c0: c055 1ebe 55df f63d 6706 e5bd 0e21 93bc
000001d0: a9e1 dabb 5141 823e 33a4 5cbe 9e72 023d
000001e0: 4a21 b2be 8a28 0fbd 4165 e13d ca2c b43e
000001f0: 7734 273c fb73 e53e 8827 90be 8ada 863e
00000200: 848b bc3e 1d08 4abe db79 7c3e 06b9 b83e
00000210: da51 afbd 82c5 793e 8c1b 82bd e68d 1dbd
00000220: 2a63 f4bd aa5d a83e e7b3 45bd 349c 513d
00000230: 18ea 91bd e63e cc3b 495e a53e 36c3 8d3e
00000240: 0186 983d eb6b 843e 5a06 11bd 5988 013e
00000250: 6ec0 dc3c af7e c73d 4c39 66bd c0b7 8bbd
00000260: 2bbc 60bd b241 8d3e fa87 09bd 08d7 6d3c
00000270: b2a9 67be baaf e138 1343 953d 7331 f63e
00000280: b07d 83be 29e2 47be bb9f aa3c a607 57be
00000290: da9f cc3e 57f9 863d c9f6 d83d 8b28 173d
000002a0: e202 85bb 46dd a83d c7e4 143e c392 fcbd
000002b0: 421b b93e 1151 df3c 780d 093e acce 3b3e
000002c0: 589c a53b a30c bcbc 952d 893d c720 4b3d
000002d0: c593 c43d 3f30 3f3e 6ccf f93d 144a a83d
000002e0: ea81 3f3e c6d1 d13d c89a 793d d326 afbd
000002f0: 179c 73ba 057d 88be 6bc6 1d3e 370b 8fbe
00000300: 7e25 5a3e 0abd a6bd fd9d 05be 6602 6c3e
00000310: 9f21 46be 2175 89ba c9c0 a1bd 23e5 a83c
00000320: 167a 8ebd 24fc c33d 65b5 edbd 1520 003e
00000330: 2164 9cbd 1937 97bd a258 a9bd a48b 1dbe
00000340: d286 2abd abc0 bc3c aa4e ae3e 389b b83d
00000350: e8d2 693e dc25 de3d d8bb f2bc e07f 07bd
00000360: 7c9a a5bd 3c5c 683e 33c9 b83e f9ae e9bd
00000370: 50ae 88be e1d3 6a3d 688e 67be 4513 343d
00000380: ee3a 5bbe 82da c43d ee2f 5bbd b375 02be
00000390: ef5d db3c f2aa 873d d369 38bd b96e 77be
000003a0: c643 a73e 404c 223d 845f 80ba d2cf 62be
000003b0: e03d 433c 4107 fb3c 711a c6bd cda9 053d
000003c0: 6f64 19bd 81ec 223d 9e34 b23d 3cc5 9dbd
000003d0: 4dff 8d3d abeb 11bd 3f94 b03e eea2 b03d
000003e0: 4683 133e 3ba3 0b3d 031f edbc e15e f73d
000003f0: c150 f93c d771 35be 7f26 af3e ab63 923e
0.021228768 0.22704086 0.25168252 -0.20090757 0.31675416 0.26797867 0.24401273 0.09444949
0.03371456 -0.29736248 0.04410964 0.059302047 -0.19267315 -0.15435225 0.2944654 -0.14771757
0.12122106 0.22871947 -0.24305056 0.060187012 -0.26468143 -0.09092721 -0.03979022 -0.16513665
-0.0549856 -0.27723968 -0.3162934 -0.102386296 0.33846593 0.06343553 0.016205475 -0.009633114
0.29077753 -0.18695237 0.085999586 0.26824394 0.4515793 -0.013775201 0.09906873 0.31599575
-0.014251751 0.09943536 0.241831 0.27557957 0.34828708 -0.08327612 0.27741227 -0.23927973
0.12976402 -0.026236426 -0.015819393 -0.033239823 -0.017948765 0.12994686 -0.24881007 -0.05282487
-0.37192747 0.039556924 0.033580363 -0.2585497 -0.11337886 -0.022817375 0.35583 -0.30564383
-0.07665175 0.22086819 -0.26723087 -0.2856783 -0.14649972 -0.3838065 0.121066935 0.07750849
0.007840818 -0.2232937 0.065099835 0.04702179 -0.38307318 -0.3118798 -0.14573376 0.426471
0.036475047 -0.37497827 -0.23042078 0.11951701 -0.3126182 0.09641446 -0.09805524 0.358964
0.06850195 -0.28621894 -0.31047752 -0.06432517 0.40779057 0.05888517 0.528568 -0.36341146
0.3887593 -0.34951928 0.078062296 0.35733622 -0.063002095 -0.05289009 0.06899103 0.3875717
-0.34837097 -0.057934776 -0.40811068 -0.046583086 -0.28288236 0.096771136 0.438328 -0.17548412
-0.15462399 0.12054316 -0.11182862 -0.017960098 -0.006679733 0.25440457 -0.21547012 0.03184759
-0.34791023 -0.03495077 0.11005641 0.3519042 0.01020538 0.4481505 -0.2815516 0.26338607
0.36825192 -0.19729657 0.24655859 0.36078662 -0.08560534 0.2439175 -0.063529104 -0.038465403
-0.119329765 0.3288396 -0.04826727 0.051174358 -0.07124728 0.006233084 0.32298496 0.27687997
0.07447434 0.25863585 -0.035406448 0.12649669 0.026947226 0.0974096 -0.056206986 -0.06822157
-0.05486695 0.27589184 -0.033576943 0.0145165995 -0.22623327 0.00010761568 0.07288184 0.48084602
-0.2568183 -0.19519867 0.020828119 -0.20999011 0.39965707 0.065905266 0.105939455 0.0369039
-0.0040591815 0.082453296 0.14540397 -0.1233268 0.3615361 0.027260335 0.13384044 0.18340558
0.005054038 -0.022955244 0.06698147 0.049591806 0.09598497 0.18670748 0.12197766 0.08217254
0.18701902 0.10245089 0.060938627 -0.08552327 -0.00092929736 -0.26657882 0.15407722 -0.27938244
0.21303365 -0.08141525 -0.13048549 0.2304779 -0.19348763 -0.0010487178 -0.07898099 0.020617073
-0.0695688 0.095695764 -0.11606864 0.12512238 -0.076362856 -0.07383556 -0.082688585 -0.153853
-0.04163248 0.02304109 0.3404439 0.090139806 0.2283436 0.10847065 -0.029630587 -0.033080935
-0.08086106 0.22691435 0.36091003 -0.114103265 -0.2669549 0.05733097 -0.22612917 0.04396369
-0.21409199 0.096119896 -0.053512506 -0.12740211 0.02677819 0.06624402 -0.045022797 -0.24163331
0.32668895 0.0396235 -0.0009794091 -0.2214959 0.011916608 0.030643107 -0.09673012 0.032632638
-0.037449297 0.03977633 0.08701442 -0.07703635 0.069334604 -0.03562514 0.34488103 0.08624826
0.14405546 0.034091216 -0.028945452 0.120786436 0.030434014 -0.17719208 0.34209058 0.28591666

module.16.bias f4 [10]
00000000: 7c3c 8dbe 509e bfbe 0273 d9bd 3715 223f
00000010: 3764 c5bc 777e b03d 5b6c 653c 0f76 193d
00000020: 672c 3dbe 88b0 8d3c
-0.27585208 -0.3742547 -0.10617639 0.6331362 -0.024095638 0.08617871 0.014002885 0.037466105
-0.1847397 0.01729609
