models/xue_epoch_24.pth (torch, 592503 bytes, 22 tensors)

module.0.weight f4 [32, 3, 5, 5]
-0.033110164 -0.11999322 -0.04971739 0.024464259 0.026031818 -0.21585442 -0.20619577 -0.21786958
-0.22463456 -0.13027135 -0.30036885 -0.27623048 -0.2291455 -0.2140152 -0.2614644 -0.14271143
-0.3257315 -0.27852547 -0.20874009 -0.11352846 -0.19629651 -0.1743599 -0.2926132 -0.2810247
-0.10245209 0.056510106 0.045371443 -0.002848156 -0.0684116 -0.08601044 0.03750296 0.039510265
0.07178125 0.05647462 0.1298887 0.02006351 0.0025491752 0.008734536 0.14236185 0.027311815
-0.049598403 0.18891396 0.14013791 0.028810402 0.007512967 0.14098138 0.116309635 -0.13263349
0.02113861 0.00072323816 -0.02289708 0.03252805 0.08547619 0.11658552 -0.028171357 0.12651724
0.18129884 0.24851853 0.14799613 0.17553374 0.26641008 0.22803691 0.1592565 0.16007745
0.1566897 0.25856873 0.30047572 0.16389912 0.2106499 0.021042954 0.20524046 0.19370602
0.043969765 0.048326604 -0.040250156 0.072070025 -0.011174039 0.17066637 0.14118092 0.1257408
0.17465894 0.16516055 0.27014524 0.2698334 0.18390352 0.048494205 0.033620104 0.017517999
0.056115102 -0.071947776 0.02183729 -0.016748078 0.043738842 0.038205672 0.12641528 0.028856821
-0.0065555563 -0.062950805 0.05124392 0.0028117155 0.06189993 -0.05216406 0.004308281 -0.04100873
0.04377247 0.020942787 0.050846253 -0.056354135 0.14425904 0.041640136 -0.070306994 -0.1794342
-0.13722888 -0.14103684 -0.028623536 -0.074092604 -0.0889072 -0.040892914 -0.12305075 -0.07779054
0.05261214 -0.09382474 0.011913821 0.08979951 -0.027575763 -0.025891747 0.08216978 -0.027306503
0.19393179 0.16692924 0.076132916 0.029161135 -0.03337364 0.06664845 0.06201804 -0.047855712
-0.1753509 -0.07662068 -0.16402622 -0.13345703 -0.07225751 -0.13420352 -0.22944666 -0.10465151
-0.026343161 -0.102221094 -0.10598267 -0.14202246 0.04809338 0.04895697 0.037324954 -0.0076281335
-0.06672298 0.02889699 0.10830718 -0.14436889 -0.11195333 -0.10520099 0.24673434 0.15257072
-0.12723339 -0.07887291 0.14949082 0.3272797 0.12160053 -0.003428256 -0.03152566 0.17180309
-0.080853716 -0.057457987 -0.20665446 0.04585067 0.051782526 -0.08836202 -0.2346924 0.054887
0.040569045 -0.1832323 -0.010353141 0.03303942 -0.031348146 -0.14434399 -0.094527364 0.04840028
0.064303264 0.042223353 -0.025259638 0.0879442 0.2220507 0.026543278 0.09281288 -0.007819977
0.098580725 0.13628562 -0.109917745 0.058255363 0.19929379 0.04038918 -0.045434073 -0.16740233
-0.14696606 0.041364048 -0.044631843 -0.03616145 0.033894144 -0.10412818 -0.06608512 -0.036642637
0.15159906 0.19583166 -0.094663456 0.07567798 -0.02987959 0.25196543 -0.009264613 -0.0089353835
-0.019647777 0.15186295 -0.03649519 -0.080998264 0.06613302 -0.018001704 0.10820305 -0.08460859
-0.10844121 0.0008804589 -0.003577921 -0.015308343 0.11252882 -0.015571274 0.019008573 -0.27134293
-0.084618315 0.16936916 0.21513715 -0.11713643 -0.25563502 -0.060860556 0.08868688 0.16512005
-0.044220768 -0.17913419 -0.09957435 0.16712715 0.2516431 -0.10191303 0.028026909 -0.109570086
-0.08860408 0.16854411 -0.07311975 -0.007636027 0.03985128 0.1772809 0.25990164 -0.07537131
00000000: 869e 07bd 01bf f5bd 76a4 4bbd 4569 c83c
00000010: ae40 d53c f108 5dbe fc24 53be 3419 5fbe
00000020: 9a06 66be da65 05be f2c9 99be 156e 8dbe
00000030: 1ea5 6abe cd26 5bbe a9de 85be f222 12be
00000040: 47c6 a6be e49a 8ebe f6bf 55be 9c81 e8bd
00000050: f401 49be 678b 32be 66d1 95be 78e2 8fbe
00000060: 67d2 d1bd 2477 673d 68d7 393d 21a8 3abb
00000070: 621b 8cbd 3e26 b0bd b49c 193d 84d5 213d
00000080: 0c02 933d ee51 673d 8b01 053e 3b5c a43c
00000090: 1010 273b 4d1b 0f3c 4ec7 113e 07bd df3c
000000a0: b227 4bbd a972 413e 5080 0f3e cb03 ec3c
000000b0: 562f f63b 6c5d 103e bf33 ee3d 13d1 07be
000000c0: e12a ad3c b197 3d3a a892 bbbc 223c 053d
000000d0: 240e af3d 64c4 ee3d 9ec7 e6bc bc8d 013e
000000e0: 67a6 393e a47b 7e3e 4c8c 173e 1ebf 333e
000000f0: e766 883e 8282 693e 2314 233e 58eb 233e
00000100: 4473 203e 1f63 843e f4d7 993e 2cd5 273e
00000110: 9bb4 573e 4662 ac3c 8e2a 523e df5a 463e
00000120: a419 343d 1ef2 453d 59dd 24bd 7399 933d
00000130: 5113 37bc 2ac3 2e3e bb91 103e 32c2 003e
00000140: cbd9 323e d91f 293e 7a50 8a3e 9a27 8a3e
00000150: 3451 3c3e dca1 463d 3cb5 093d e881 8f3c
00000160: f3d8 653d 5b59 93bd 1ee4 b23c 4433 89bc
00000170: 8027 333d 8d7d 1c3d 0273 013e 2465 ec3c
00000180: fecf d6bb 5aec 80bd 25e5 513d c244 383b
00000190: c88a 7d3d fba9 55bd 7b2c 8d3b c5f8 27bd
000001a0: c34a 333d 3590 ab3c 2944 503d 98d3 66bd
000001b0: a4b8 133e d98e 2a3d 1dfd 8fbd 99bd 37be
000001c0: ba85 0cbe f66b 10be e87b eabc ddbd 97bd
000001d0: fa14 b6bd 547f 27bd 0802 fcbd a650 9fbd
000001e0: d47f 573d 2f27 c0bd 3032 433c cee8 b73d
000001f0: 91e6 e1bc ee1a d4bc a148 a83d e3b1 dfbc
00000200: 0e96 463e 80ef 2a3e 93eb 9b3d 55e3 ee3c
00000210: ccb2 08bd fc7e 883d a106 7e3d 5a04 44bd
00000220: 308f 33be 4eeb 9cbd 7df6 27be f6a8 08be
00000230: bffb 93bd a66c 09be 11f4 6abe 8853 d6bd
00000240: 9dcd d7bc 4b59 d1bd 710d d9bd 566e 11be
00000250: 90fd 443d 1b87 483d 0de2 183d 6cf5 f9bb
00000260: 0fa6 88bd 61b9 ec3c 28d0 dd3d 70d5 13be
00000270: ca47 e5bd 9e73 d7bd eda7 7c3e 803b 1c3e
00000280: 7849 02be 1f88 a1bd 1f14 193e 3491 a73e
00000290: b309 f93d 97ac 60bb 0d21 01bd 26ed 2f3e
000002a0: a296 a5bd 1159 6bbd 3a9d 53be eacd 3b3d
000002b0: ea19 543d 26f7 b4bd 3453 70be 31d1 603d
000002c0: ba2b 263d 40a1 3bbe 39a0 29bc 5854 073d
000002d0: ea66 00bd e9ce 13be 9097 c1bd 5f3f 463d
000002e0: 6eb1 833d 65f2 2c3d 4ded cebc 171c b43d
000002f0: 4261 633e 4a71 d93c ae14 be3d 5c1f 00bc
00000300: b1e4 c93d 758e 0b3e 8e1c e1bd 2d9d 6e3d
00000310: ac13 4c3e 206f 253d 1419 3abd 846b 2bbe
00000320: 457e 16be 596d 293d e1cf 36bd 071e 14bd
00000330: 96d4 0a3d 2841 d5bd a357 87bd 9716 16bd
00000340: c93c 1b3e 1888 483e eade c1bd 0ffd 9a3d
00000350: 0bc6 f4bc 9d01 813e 9aca 17bc b765 12bc
00000360: 60f4 a0bc f681 1b3e fb7b 15bd 6be2 a5bd
00000370: c070 873d 4f78 93bc 9099 dd3d 4547 adbd
00000380: 6d16 debd 99ce 663a 8e7b 6abb d8cf 7abc
00000390: 8375 e63d a81e 7fbc deb7 9b3c 76ed 8abe
000003a0: 5e4c adbd 1c6f 2d3e ea4c 5c3e 3ae5 efbd
000003b0: 98e2 82be eb48 79bd 78a1 b53d 3b15 293e
000003c0: d620 35bd f46e 37be a3ed cbbd 6123 2b3e
000003d0: 5dd7 803e c7b7 d0bd b098 e53c 4866 e0bd
000003e0: 0e76 b5bd d496 2c3e cfbf 95bd a337 fabb
000003f0: 193b 233d 2089 353e d411 853e 465c 9abd

module.0.bias f4 [32]
0.071068406 -0.09195478 0.057480484 0.10722811 0.06297416 0.034762315 -0.06487742 0.02661172
0.080486104 0.063153505 0.06340095 -0.077000804 0.023138804 0.10011823 0.04779632 -0.07202628
-0.1032284 -0.06305237 -0.02931347 0.07542757 0.027573261 -0.042561162 0.106875464 -0.07116908
-0.09269877 0.05060504 0.07605955 0.037810422 0.00035874915 -0.06393123 0.05401097 0.056159545
00000000: 508c 913d ca52 bcbd a870 6b3d 699a db3d
00000010: 99f8 803d ee62 0e3d 74de 84bd d200 da3c
00000020: e6d5 a43d a056 813d 5bd8 813d 99b2 9dbd
00000030: 978d bd3c c90a cd3d 13c6 433d 8482 93bd
00000040: 6969 d3bd 9a21 81bd cd22 f0bc c579 9a3d
00000050: 52e1 e13c 9d54 2ebd 86e1 da3d 18c1 91bd
00000060: dad8 bdbd 3b47 4f3d 1cc5 9b3d 1adf 1a3d
00000070: 7f16 bc39 60ee 82bd 9b3a 5d3d 8d07 663d

module.1.weight f4 [32]
0.7332728 0.86600685 0.82827836 1.1207566 1.062148 0.9869627 0.6718168 0.96867067
1.3540788 0.79329413 0.81924033 0.99356025 0.9086259 0.9613972 1.0118666 1.007832
0.74919015 1.0109599 0.78148663 1.573812 0.8132074 1.110118 0.76228195 1.1502728
1.4568611 1.0038927 0.81327057 1.0339487 1.1303382 0.9999393 0.98314 1.1548483
00000000: c4b7 3b3f a0b2 5d3f 0d0a 543f f474 8f3f
00000010: 77f4 873f 96a9 7c3f 30fc 2b3f cdfa 773f
00000020: 7452 ad3f 5315 4b3f bcb9 513f f759 7e3f
00000030: b59b 683f 201e 763f d884 813f a400 813f
00000040: edca 3f3f 2267 813f 820f 483f ac72 c93f
00000050: 5c2e 503f 5918 8e3f e924 433f 243c 933f
00000060: 6d7a ba3f 8e7f 803f 8032 503f 6e58 843f
00000070: ecae 903f 06fc 7f3f 10af 7b3f 12d2 933f

module.1.bias f4 [32]
0.13963164 -0.22707273 -0.24348266 -0.11941282 -0.117731944 -0.22438265 0.10088398 -0.17674871
-0.4846541 -0.12036727 -0.05724548 -0.1091995 0.034420226 0.0014651925 -0.26297235 -0.036014948
0.0014282211 0.00736222 -0.22179824 -0.26745185 -0.15291072 -0.11584197 -0.3107288 -0.10431403
0.01883505 -0.36003226 -0.32091847 -0.066510506 -0.11956318 -0.075844444 -0.11921647 -0.040084414
00000000: 99fb 0e3e c185 68be 8553 79be b58e f4bd
00000010: 721d f1bd 91c4 65be 439c ce3d 9dfd 34be
00000020: 9524 f8be 1e83 f6bd 3d7a 6abd fda3 dfbd
00000030: 39fc 0c3d b40b c03a 50a4 86be 6984 13bd
00000040: 2633 bb3a c73e f13b 141f 63be 73ef 88be
00000050: a194 1cbe 8e3e edbd d817 9fbe 98a2 d5bd
00000060: f64b 9a3c 2656 b8be 6d4f a4be a936 88bd
00000070: 8add f4bd 5554 9bbd c427 f4bd 8e2f 24bd

module.1.running_mean f4 [32]
-0.1159525 0.05709427 0.3377444 -0.0008384047 -0.010441188 -0.3349505 -0.30305392 0.041200247
-0.5846911 0.33546728 0.28648767 -0.3474012 0.07720856 0.08543073 0.044757534 -0.10028505
0.037220694 -0.12366044 0.009460188 0.0065376605 -0.03701652 -0.04412681 0.45384437 -0.02771483
-0.14359197 -0.5754409 0.22421134 0.058906972 0.0155880395 -0.068087794 0.037141442 0.042793583
00000000: 8178 edbd aedb 693d d6ec ac3e 63c8 5bba
00000010: 8411 2bbc a27e abbe e229 9bbe 97c1 283d
00000020: 51ae 15bf 5ec2 ab3e 83ae 923e 92de b1be
00000030: 861f 9e3d 4ef6 ae3d ad53 373d 4062 cdbd
00000040: ba74 183d af41 fdbd e8fe 1a3c df39 d63b
00000050: a29e 17bd 50be 34bd 4a5e e83e 360a e3bc
00000060: c609 13be 1850 13bf a897 653e 7048 713d
00000070: fa64 7f3c 9d71 8bbd a021 183d 5348 2f3d

module.1.running_var f4 [32]
0.33620957 0.19339852 0.09651945 0.5576214 0.044340447 0.10540137 0.12288239 0.062376663
0.24074534 0.07557987 0.20698287 0.116954096 0.13717923 0.35659426 0.16825654 0.32291928
0.23781037 0.19432722 0.043393582 0.5485895 0.10153284 0.088118404 0.1239044 0.12040577
0.35233575 0.28212604 0.037613954 0.27290156 0.27887347 0.20047405 0.09258324 0.6370758
00000000: a923 ac3e 430a 463e fdab c53d 47c0 0e3f
00000010: 549e 353d acdc d73d c3a9 fb3d ac7e 7f3d
00000020: f285 763e 9ec9 9a3d 51f3 533e a185 ef3d
00000030: b678 0c3e 8693 b63e 714b 2c3e ad55 a53e
00000040: 9084 733e b7fd 463e 78bd 313d 5d70 0c3f
00000050: 73f0 cf3d 6c77 b43d 97c1 fd3d 4d97 f63d
00000060: 5a65 b43e d372 903e 1711 1a3d c1b9 8b3e
00000070: 81c8 8e3e 1249 4d3e 489c bd3d 6617 233f

module.4.weight f4 [32, 32, 5, 5]
-0.07794251 -0.07787628 -0.086019 -0.047967713 -0.074042834 -0.039178796 -0.0064132526 -0.023668058
-0.042668927 -0.04269131 0.0069792876 -0.049683593 0.00089913403 -0.04408396 0.0031466284 0.03304105
0.027813818 0.06822542 0.01972264 0.03257326 0.03677503 0.09318995 0.09671223 0.101950705
0.051329356 -0.03445881 -0.010204052 -0.032970995 0.015866581 -0.019057557 -0.00783859 -0.030358268
-0.037351944 -0.041571453 0.016210668 0.039000697 0.068132214 0.074101835 0.058806844 0.0026186223
-0.08538593 -0.025807053 -0.015889274 -0.028733853 -0.048311267 -0.022939267 -0.0004836259 0.023197457
0.080931 0.04062364 -0.06483095 -0.08772638 -0.047887653 -0.0412978 -0.03397714 -0.051523697
-0.044723414 -0.024350187 -0.034616165 -0.040137798 -0.039055444 -0.0032380936 0.0011941601 -0.042942427
0.0032143816 -0.1153618 -0.08046956 -0.006416115 -0.017640164 -0.028615156 -0.011954136 0.03176009
0.038627367 0.00273879 0.01700043 -0.096795075 -0.05554346 -5.9200822e-05 -0.0131756915 0.0033753256
-0.019363776 0.012875297 0.028737644 -0.033847928 0.024847036 -0.08542247 -0.04179489 0.035969064
-0.042581476 -0.03403536 -0.070775926 -0.061499417 -0.070385374 -0.092138946 -0.047385942 -0.1062747
-0.09702269 -0.055902835 -0.08363445 -0.054736327 -0.012928187 -0.040478162 -0.0611786 -0.043444213
-0.054709364 0.063164935 0.014184016 0.012548633 -0.007892498 0.040633522 0.05388532 -0.03065923
-0.01985986 -0.008632047 0.048133235 0.009681575 0.099046715 -0.019920329 -0.06696272 -0.027399879
-0.09544689 -0.11455679 -0.08098302 -0.041739784 0.03756772 -0.064626016 -0.059286326 0.0018394431
-0.06976912 -0.064980984 -0.106318586 -0.035795406 -0.0041331537 -0.04939975 -0.11519062 -0.020167042
0.07429012 0.14249815 0.016735613 -0.019167962 0.1625977 0.30727592 0.2908291 0.21956351
0.1127841 -0.023304366 0.021487245 0.01667456 -0.052971456 -0.046254504 0.03993086 0.052528918
0.0442359 0.018854337 0.02096833 0.012227427 0.041107908 0.047534246 0.036149785 0.0098891705
0.025502607 -0.029853724 0.017322756 -0.012367406 0.023896465 0.024911217 0.08407013 0.019094257
0.044690896 0.044950806 0.022919057 -0.03670594 0.0038008362 -0.043114305 0.031278584 -0.0104322415
-0.013723779 0.025684254 -0.009653931 -0.005826517 -0.027292566 -0.022922214 -0.010882889 0.03209283
-0.06255741 0.0067949183 0.04735913 0.111657426 0.033802032 0.013243853 0.013855663 -0.034057472
-0.052651282 0.029466432 0.0240952 -0.051346872 -0.030849297 -0.090940215 -0.07737446 -0.064009175
-0.052000348 -0.0065579247 -0.062143315 -0.015366317 -0.06666692 -0.0022188101 0.04593435 -0.028159058
-0.013526267 -0.04919282 -0.038974617 -0.014922191 -0.011600988 -0.044148818 -0.034354903 -0.030765574
-0.021992628 -0.025380967 -0.055624466 -0.11522814 0.09145769 0.12160042 0.10147816 0.13131058
0.07372639 -0.020073242 -0.042495638 -0.032016262 0.0019695174 0.001303747 -0.01054239 -0.041714564
-0.014361957 -0.044225786 0.015069618 0.035870582 0.012081649 0.03422223 -0.00282588 -0.010433278
-0.001528884 -0.054401245 -0.034420706 -0.035793044 -0.03013089 -0.02917342 0.0055636256 -0.036214113
0.008776389 0.005962713 -0.015195646 -0.06288441 -0.041517247 -0.021842912 0.021394126 -0.025681546
00000000: 53a0 9fbd 997d 9fbd bb2a b0bd cb79 44bd
00000010: c5a3 97bd f279 20bd 4326 d2bb 84e3 c1bc
00000020: 9dc5 2ebd 15dd 2ebd 82b2 e43b 0681 4bbd
00000030: ddb3 6b3a 6291 34bd aa37 4e3b 0d56 073d
00000040: ced9 e33c c5b9 8b3d 6091 a13c 8a6b 053d
00000050: 6aa1 163d 5fda be3d 1011 c63d 88cb d03d
00000060: bb3e 523d ae24 0dbd e52e 27bc 980c 07bd
00000070: a2fa 813c 981e 9cbc 6e6d 00bc e7b1 f8bc
00000080: 5afe 18bd d446 2abd 3ccc 843c 32bf 1f3d
00000090: e788 8b3d b4c2 973d 72df 703d 319d 2b3b
000000a0: d2de aebd 5069 d3bc 392a 82bc 4263 ebbc
000000b0: 09e2 45bd 21eb bbbc 2b8f fdb9 9808 be3c
000000c0: 27bf a53d f964 263d 17c6 84bd e3a9 b3bd
000000d0: d825 44bd e227 29bd 9d2b 0bbd 830a 53bd
000000e0: e62f 37bd 0b7a c7bc aec9 0dbd 8867 24bd
000000f0: 9af8 1fbd 3236 54bb 5d85 9c3a 66e4 2fbd
00000100: 60a8 523b cf42 ecbd 3acd a4bd 463e d2bb
00000110: 1b82 90bc 556a eabc 48db 43bc de16 023d
00000120: bb37 1e3d 457d 333b 7c44 8b3c 7f3c c6bd
00000130: 8a81 63bd 664e 78b8 dbde 57bc 9134 5d3b
00000140: c8a0 9ebc e9f2 523c 356b eb3c 20a4 0abd
00000150: 038c cb3c faf1 aebd 1e31 2bbd 4c54 133d
00000160: ea69 2ebd a968 0bbd f8f2 90bd d0e6 7bbd
00000170: 3526 90bd 58b3 bcbd c317 42bd 8da6 d9bd
00000180: d5b3 c6bd 5ffa 64bd 8a48 abbd 3333 60bd
00000190: bfd0 53bc 6ecc 25bd 6996 7abd 8ff2 31bd
000001a0: ed16 60bd 9e5c 813d 1364 683c c898 4d3c
000001b0: 894f 01bc 566f 263d dab6 5c3d 1129 fbbc
000001c0: 25b1 a2bc 6e6d 0dbc 5b27 453d 789f 1e3c
000001d0: 01d9 ca3d f52f a3bc c023 89bd b675 e0bc
000001e0: a979 c3bd c09c eabd 6dda a5bd 56f7 2abd
000001f0: 9ce0 193d a55a 84bd 38d6 72bd 7819 f13a
00000200: 1de3 8ebd c014 85bd 8fbd d9bd 349e 12bd
00000210: 686f 87bb 6457 4abd 0fe9 ebbd 5a35 a5bc
00000220: 6b25 983d 09eb 113e 2019 893c 2106 9dbc
00000230: 0380 263e 4553 9d3e 8de7 943e 42d5 603e
00000240: 5afb e63d cce8 bebc 0506 b03c 1699 883c
00000250: 99f8 58bd 5d75 3dbd 8b8e 233d 9028 573d
00000260: b430 353d 6974 9a3c c6c5 ab3c 8c55 483c
00000270: c460 283d 45b3 423d cc11 143d 3006 223c
00000280: d8ea d03c cc8f f4bc 74e8 8d3c a9a0 4abc
00000290: 85c2 c33c 9c12 cc3c f62c ac3d 8f6b 9c3c
000002a0: cd0d 373d 561e 383d bfc0 bb3c f858 16bd
000002b0: 7317 793b a098 30bd f91d 003d feeb 2abc
000002c0: b3d9 60bc c967 d23c 852b 1ebc 5eec bebb
000002d0: a994 dfbc 5ec7 bbbc 254e 32bc c573 033d
000002e0: 191e 80bd e8a7 de3b a6fb 413d a6ac e43d
000002f0: 0074 0a3d bffc 583c dd02 633c d97f 0bbd
00000300: dfa8 57bd 9663 f13c 4c63 c53c 1951 52bd
00000310: aab7 fcbc dd3e babd 8076 9ebd 3e17 83bd
00000320: 51fe 54bd dce3 d6bb fd89 7ebd 01c3 7bbc
00000330: ab88 88bd 7569 11bb a825 3c3d d3ad e6bc
00000340: 479d 5dbc 697e 49bd d9a3 1fbd 357c 74bc
00000350: 1212 3ebc 64d5 34bd bab7 0cbd 1608 fcbc
00000360: e229 b4bc bfeb cfbc 7bd6 63bd bbfc ebbd
00000370: 2b4e bb3d a409 f93d c8d3 cf3d 4876 063e
00000380: ddfd 963d a470 a4bc e80f 2ebd 7c23 03bd
00000390: 0513 013b 7de2 aa3a fdb9 2cbc e4dc 2abd
000003a0: 6a4e 6bbc 1926 35bd 8fe6 763c 08ed 123d
000003b0: 1cf2 453c 9c2c 0c3d 6632 39bb 57f0 2abc
000003c0: d664 c8ba d7d3 5ebd bafc 0cbd ba9b 12bd
000003d0: 0ed5 f6bc 19fd eebc 134f b63b 4055 14bd
000003e0: d8ca 0f3c dd62 c33b 29f7 78bc 8bc9 80bd
000003f0: fd0d 2abd e8ef b2bc bc42 af3c 1b62 d2bc

module.4.bias f4 [32]
-0.03319361 -0.0022949863 0.016164422 -0.007095076 -0.021921426 0.026976356 0.02227235 -0.022331811
0.020205287 0.035290115 -0.03107064 0.0025805295 -0.014340118 -0.021360302 -0.032032557 0.009239444
0.024825456 -0.01862699 -0.001685259 -0.026262112 0.024161382 -0.030579273 0.0044100876 0.010886026
0.00037695092 0.026509237 0.025511606 -0.030255016 0.003632536 -0.030304668 0.00022820999 0.003922327
00000000: 06f6 07bd 7b67 16bb 406b 843c d07d e8bb
00000010: 9094 b3bc 85fd dc3c 8174 b63c 34f1 b6bc
00000020: 8f85 a53c 5e8c 103d db87 febc 1a1e 293b
00000030: d0f2 6abc cdfb aebc 9234 03bd 0961 173c
00000040: c15e cb3c a197 98bc e9e3 dcba a423 d7bc
00000050: 17ee c53c 6281 fabc 7f82 903b 4d5b 323c
00000060: 7fa1 c539 e629 d93c b7fd d03c 5ed9 f7bc
00000070: d70f 6e3b 7f41 f8bc a74b 6f39 dd86 803b

module.5.weight f4 [32]
0.6732616 0.7827456 0.94974416 0.9162426 0.81067955 1.0196482 0.8234141 1.050491
1.0371269 1.003938 1.0858763 1.0406682 0.92222494 1.2995967 1.0074984 1.0900522
0.9477591 0.9084937 0.97972137 1.0407546 0.8948539 0.74720454 1.0667422 0.87785465
0.82829463 1.0060925 0.83812016 0.98648185 1.086596 1.0171181 0.9764404 0.91994697
00000000: df5a 2c3f 0462 483f 6f22 733f e08e 6a3f
00000010: b288 4f3f d583 823f 44cb 523f 7d76 863f
00000020: 93c0 843f 0a81 803f fffd 8a3f 9e34 853f
00000030: ef16 6c3f 2f59 a63f b5f5 803f d586 8b3f
00000040: 57a0 723f 0b93 683f 05cf 7a3f 7237 853f
00000050: 2515 653f cc48 3f3f 028b 883f 15bb 603f
00000060: 1e0b 543f a4c7 803f 0b8f 563f 138a 7c3f
00000070: 9415 8b3f ed30 823f 00f8 793f a581 6b3f

module.5.bias f4 [32]
-0.18138158 -0.16233166 -0.4269569 -0.39554632 -0.08918088 -0.333443 -0.22572815 -0.35115376
-0.29973984 -0.38793537 -0.63731134 -0.36987582 -0.44881603 -0.4902749 -0.44234586 -0.321548
-0.45004442 -0.33766842 -0.26017007 -0.45154437 -0.34293053 -0.12510306 -0.42969757 -0.44008908
-0.3244051 -0.24943419 -0.22849542 -0.34556198 -0.5447595 -0.45502827 -0.22192775 -0.35642022
00000000: 18bc 39be 453a 26be 189a dabe 0c85 cabe
00000010: 77a4 b6bd 0ab9 aabe 4825 67be 6dca b3be
00000020: 8077 99be 779f c6be d626 23bf 5d60 bdbe
00000030: 37cb e5be 5005 fbbe 287b e2be f1a1 a4be
00000040: 396c e6be e0e2 acbe 0335 85be d330 e7be
00000050: 9794 afbe 041b 00be 5201 dcbe 5b53 e1be
00000060: 6d18 a6be ad6b 7fbe b4fa 69be 80ed b0be
00000070: 5c75 0bbf 77f9 e8be 0741 63be b67c b6be

module.5.running_mean f4 [32]
0.09408813 -0.6596574 -2.1727066 0.9445537 -1.7868059 -0.6509122 -0.29630825 -2.938514
-2.4347548 -2.484547 -2.4939957 -3.7361684 -1.116823 -3.3069 -1.8870009 -3.8952067
-2.567942 -1.3368449 -2.8712099 -0.8333675 -1.3444182 0.5172208 -4.4811645 -1.5272725
-3.137904 -0.8565413 -0.97423524 -1.9296948 -2.0636063 -2.6814384 -2.2276926 -1.8322957
00000000: 47b1 c03d 4fdf 28bf a00d 0bc0 45ce 713f
00000010: 0eb6 e4bf 2fa2 26bf b7b5 97be 9d10 3cc0
00000020: 06d3 1bc0 d102 1fc0 a09d 1fc0 621d 6fc0
00000030: 0ef4 8ebf 40a4 53c0 3f89 f1bf 114b 79c0
00000040: 2959 24c0 bc1d abbf e7c1 37c0 9357 55bf
00000050: e515 acbf 9568 043f b365 8fc0 aa7d c3bf
00000060: 6bd3 48c0 4a46 5bbf 7b67 79bf 3d00 f7bf
00000070: 2012 04c0 b09c 2bc0 8492 0ec0 aa88 eabf

module.5.running_var f4 [32]
4.305741 5.0817885 5.848869 5.5836153 5.8002214 5.134537 7.3037558 7.464376
7.7218933 8.128676 7.025657 6.253751 4.2994375 12.188897 4.234328 9.285128
5.048833 5.2792645 5.2411366 7.250481 6.0632753 4.617688 8.518359 4.5811715
6.906531 4.27947 3.7481399 5.9643364 6.1814804 5.939368 5.6866503 4.7738905
00000000: a1c8 8940 039e a240 ef29 bb40 faac b240
00000010: 6a9b b940 214e a440 5eb8 e940 2bdc ee40
00000020: c019 f740 0f0f 0241 2fd2 e040 ba1e c840
00000030: fe94 8940 b905 4341 9d7f 8740 e28f 1441
00000040: 0a90 a140 bcef a840 64b7 a740 f103 e840
00000050: 5a06 c240 1ac4 9340 334b 0841 f598 9240
00000060: 4d02 dd40 6bf1 8840 86e1 6f40 d8db be40
00000070: b0ce c540 4d0f be40 0af9 b540 b6c3 9840

module.8.weight f4 [64, 32, 5, 5]
-0.00044689383 -0.0016198013 -0.0617452 -0.054657325 -0.06437689 0.018515691 -0.014836491 -0.0064004175
-0.028611558 -0.024502503 0.06189916 -0.00021694976 0.0057000634 -0.0130909085 0.05295184 0.07343578
-0.0058727884 -0.084463604 -0.024388937 0.02051531 0.0983963 0.022996016 0.021286536 0.0747116
0.07424046 0.016811427 -0.0012298771 0.0739223 0.0040599057 -0.021857463 0.042291377 0.0014405294
-0.0036437195 -0.028304739 -0.009391432 0.041735332 0.0618421 0.117105834 0.05615729 0.083361186
0.06770651 0.006617226 0.07220022 0.0280821 0.056974262 0.022172386 0.031079939 0.020335529
0.0123891495 0.030870462 0.027780006 0.05778083 0.07333449 0.06131859 0.0073393895 -0.01795249
-0.0006274447 0.043907173 0.04860677 0.018218273 0.017352147 -0.031788092 -0.020645903 0.027547574
-0.023060251 0.05295128 0.01620592 -0.056860585 -0.033058643 0.012108014 0.041948475 0.029054489
0.029995184 -0.016545296 -0.020800855 -0.048937123 0.0485964 0.028575711 -0.027947687 -0.04434575
-0.029715406 -0.025499709 -0.06844184 -0.003870093 0.005986652 -0.029186292 -0.05181067 0.0058567645
-0.044335913 -0.051748894 -0.10990023 0.0026981775 0.025747426 -0.0011510479 -0.038732048 -0.103271976
-0.063405655 0.07787701 0.09664043 -0.022416415 -0.102214195 -0.04562002 0.017781842 -0.010183191
-0.033817697 -0.046237376 -0.029834043 0.054135717 0.032112166 -0.0010000115 0.04172457 -0.052927814
-0.055920463 0.019621445 0.054226145 0.043497026 0.012762024 -0.054472852 -0.036996733 -0.03971744
0.060145516 0.03950792 -0.048741132 -0.04129243 -0.03257112 -0.024292823 -0.029467411 -0.074568905
-0.06303106 -0.011063178 0.016569054 0.0789212 -0.053711116 -0.011916156 0.010739022 -0.059598424
0.051345356 -0.03180949 -0.0036087912 -0.010700716 -0.028750876 0.010785146 0.032611355 0.008129542
-0.037978336 -0.061892733 -0.0035289866 0.023835255 0.01602225 -0.010352182 0.03219121 0.08410076
0.05372255 0.05170655 0.012990771 0.021823948 -0.0041052513 -0.0031009268 0.0072334213 0.013120187
0.057359613 0.04701652 0.024851985 0.04672478 -0.008136208 -0.04308893 0.01536067 0.019713534
-0.010252147 -0.03241318 0.00758066 -0.040065218 -0.035056964 -0.05242141 -0.05895943 -0.059115034
-0.00097403664 0.04892291 -0.029070083 -0.024620052 -0.06794172 0.018148297 0.049198054 0.032321054
-0.024511365 -0.0081104785 0.0077238237 0.053197287 0.06981169 0.012048691 -0.0202492 0.0028219896
0.014277884 -0.006231538 -0.012155067 0.06309601 0.056893174 -0.08317449 -0.071696 -0.018122604
0.043617163 -0.020988435 -0.012179045 -0.054425135 -0.11147211 0.07724013 0.08466651 0.008548027
-0.08850851 -0.11618591 0.05421889 0.06190911 -0.06546494 -0.17055182 -0.18618666 0.12421365
0.073410794 -0.015415733 -0.16966525 -0.16701137 0.06853983 0.034619406 0.027200535 -0.10116843
0.013176677 0.045591276 0.042839654 0.019308724 -0.001884865 0.017204417 -0.017758518 0.029534781
0.026596706 0.018120794 0.01217212 -0.024849342 -0.016836554 0.0055220444 0.00733174 0.0077018463
0.028414842 -0.02623419 -0.046009097 0.0073426124 0.10990628 0.015081244 -0.058671266 -0.08163615
-0.014773672 0.06302668 0.089453705 0.024722962 0.09992915 0.025345568 -0.010897039 0.028112773
00000000: 134d eab9 834f d4ba 89e8 7cbd 5ce0 5fbd
00000010: 08d8 83bd 38ae 973c c114 73bc 98ba d1bb
00000020: c962 eabc 79b9 c8bc f989 7d3d 027d 63b9
00000030: 99c7 ba3b 407b 56bc 07e4 583d 8065 963d
00000040: 8570 c0bb 41fb acbd 4fcb c7bc b90f a83c
00000050: 0084 c93d 2462 bc3c 1a61 ae3c 6502 993d
00000060: 620b 983d 1eb8 893c d433 a1ba 9364 973d
00000070: f508 853b 6c0e b3bc b939 2d3d 25d0 bc3a
00000080: 78cb 6ebb 57df e7bc 85de 19bc abf2 2a3d
00000090: 244e 7d3d 2fd5 ef3d 3005 663d 45b9 aa3d
000000a0: b6a9 8a3d 51d5 d83b b5dd 933d 6f0c e63c
000000b0: d85d 693d dda2 b53c 5b9b fe3c b296 a63c
000000c0: dcfb 4a3c 0de4 fc3c e592 e33c 97ab 6c3d
000000d0: 6530 963d 3429 7b3d 437f f03b 1a11 93bc
000000e0: 1a7b 24ba 02d8 333d e417 473d 7d3e 953c
000000f0: 1726 8e3c 3b34 02bd 9921 a9bc 73ab e13c
00000100: dae8 bcbc 71e3 583d 47c2 843c a5e6 68bd
00000110: 8068 07bd b160 463c 2ad2 2b3d ae03 ee3c
00000120: 76b8 f53c 008a 87bc 8e66 aabc 4b72 48bd
00000130: 050d 473d 9c17 ea3c 8cf2 e4bc e4a3 35bd
00000140: b96d f3bc c4e4 d0bc 3c2b 8cbd 63a1 7dbb
00000150: ad2b c43b 1718 efbc 6d37 54bd 1aea bf3b
00000160: 9399 35bd a6f6 53bd 5f13 e1bd e8d3 303b
00000170: 44ec d23c c2de 96ba 7fa5 1ebd 4280 d3bd
00000180: d3da 81bd fb7d 9f3d 6beb c53d a1a2 b7bc
00000190: ad55 d1bd 0fdc 3abd 3aab 913c 66d7 26bc
000001a0: 6d84 0abd 6763 3dbd 8666 f4bc 6abd 5d3d
000001b0: 0c88 033d d112 83ba 62e7 2a3d d6ca 58bd
000001c0: db0c 65bd 27bd a03c 3c1c 5e3d f029 323d
000001d0: cf17 513c ed1e 5fbd e389 17bd c1ae 22bd
000001e0: 255b 763d 0fd3 213d c8a4 47bd 4022 29bd
000001f0: 4b69 05bd be01 c7bc a465 f1bc 95b7 98bd
00000200: 6e16 81bd 5542 35bc d3bb 873c 70a1 a13d
00000210: 3000 5cbd fb3b 43bc b9f2 2f3c 7a1d 74bd
00000220: 824f 523d ab4a 02bd 7881 6cbb 0e52 2fbc
00000230: f586 ebbc 2eb4 303c 7c93 053d c531 053c
00000240: 2c8f 1bbd 3c83 7dbd 9246 67bb 2742 c33c
00000250: 1841 833c 339c 29bc eeda 033d 053d ac3d
00000260: 2d0c 5c3d 3fca 533d 3ed7 543c 23c8 b23c
00000270: 5885 86bb eb38 4bbb 5606 ed3b 0ef6 563c
00000280: eaf1 6a3d 6594 403d 6496 cb3c 7c62 3f3d
00000290: bb4d 05bc 057e 30bd 52ab 7b3c 477e a13c
000002a0: 9ff8 27bc afc3 04bd 2f67 f83b 6d1b 24bd
000002b0: e497 0fbd d5b7 56bd 717f 71bd 9b22 72bd
000002c0: 7e56 7fba 6463 483d 6224 eebc feaf c9bc
000002d0: 0725 8bbd bdab 943c e683 493d 1563 043d
000002e0: 0fcc c8bc d0e1 04bc 2118 fd3b 66e5 593d
000002f0: 6ef9 8e3d df67 453c a6e1 a5bc 21f1 383b
00000300: c9ed 693c ee31 ccbb 0c26 47bc 7b38 813d
00000310: d108 693d 6357 aabd 5ad5 92bd db75 94bc
00000320: e9a7 323d f0ef abbc 9e8a 47bc e4ec 5ebd
00000330: 7d4b e4bd 1330 9e3d a365 ad3d 060d 0c3c
00000340: f343 b5bd e1f2 edbd a014 5e3d 6894 7d3d
00000350: 7c12 86bd 23a5 2ebe b7a7 3ebe ba63 fe3d
00000360: 6658 963d 4592 7cbc babc 2dbe 0705 2bbe
00000370: 9c5e 8c3d 14cd 0d3d a8d3 de3c 6531 cfbd
00000380: fde2 573c ebbd 3a3d a278 2f3d 542d 9e3c
00000390: 930d f7ba 47f0 8c3c 507a 91bc edf2 f13c
000003a0: 56e1 d93c 0f72 943c 926d 473c d990 cbbc
000003b0: d0ec 89bc 44f2 b43b 183f f03b c55f fc3b
000003c0: 3ec6 e83c 16e9 d6bc 0974 3cbd 4c9a f03b
000003d0: 8b16 e13d 5217 773c 4851 70bd db30 a7bd
000003e0: 460d 72bc 2214 813d 8133 b73d cf87 ca3c
000003f0: a7a7 cc3d 82a1 cf3c 7f89 32bc c24c e63c

module.8.bias f4 [64]
0.023214191 -0.013758127 0.010803381 -0.020796381 -0.0018153298 -0.009138312 0.019371 -0.031957738
0.030334761 -0.03040751 -0.032894216 0.010834186 0.00091171864 -1.0889831e-05 0.00037111776 0.031163093
-0.019026008 -0.02831041 -0.02596149 0.03255408 0.015585234 -0.017826078 -0.026756 -0.02566818
-0.0017275678 -0.0017951633 0.029304605 -0.00073748315 -0.034784876 -0.033943154 -0.027886054 -0.03109612
0.03280032 0.013530373 0.0064067952 -0.018883526 -0.015007442 0.032912765 -0.004062319 -0.024922479
-0.015936457 -0.029049607 0.0021977075 -0.035157725 -0.029363561 -0.028797962 -0.010708814 0.009994095
-0.023039129 -0.03128991 -0.034629982 0.0056371856 -0.00030832292 -0.009710012 -0.010610151 -0.026770221
-0.0027434016 0.0028517128 -0.006896759 -0.014130036 -0.0067318957 -0.033655256 -0.003163681 -0.022567261
00000000: b02b be3c c469 61bc aa00 313c 2c5d aabc
00000010: 5cf0 edba dcb8 15bc eeaf 9e3c 1ee6 02bd
00000020: 9b80 f83c 2c19 f9bc 16bc 06bd df81 313c
00000030: 6700 6f3a 78b3 36b7 9592 c239 be49 ff3c
00000040: 6edc 9bbc 3ceb e7bc 31ad d4bc 6d57 053d
00000050: 3659 7f3c ff07 92bc 662f dbbc 1346 d2bc
00000060: 8e6f e2ba af4b ebba 3610 f03c a853 41ba
00000070: 967a 0ebd fa07 0bbd 4b71 e4bc 4abd febc
00000080: a159 063d 7fae 5d3c 18f0 d13b a0b1 9abc
00000090: c6e1 75bc 89cf 063d 341d 85bb 3a2a ccbc
000000a0: 2c8d 82bc 71f9 edbc 6a07 103b 8c01 10bd
000000b0: da8b f0bc b4e9 ebbc 0574 2fbc 46be 233c
000000c0: 8ebc bcbc d929 00bd 2bd8 0dbd 24b8 b83b
000000d0: 67a6 a1b9 be16 1fbc 33d6 2dbc 394d dbbc
000000e0: a4ca 33bb cde3 3a3b 35fe e1bb ab81 67bc
000000f0: 3c97 dcbb 18da 09bd c255 4fbb fade b8bc

module.9.weight f4 [64]
0.79102135 0.7184197 0.685371 0.77221406 0.7974908 0.6766588 0.62222075 0.86797774
0.7729839 0.6797308 0.7800783 0.65412635 0.7187771 0.6299145 0.7116282 0.5181196
0.77934486 0.70344824 0.6965192 0.75899434 0.7829845 0.76179695 0.69236666 0.69349205
0.588883 0.7016276 0.8316314 0.68357676 0.72653943 0.5685663 0.8600399 0.8249427
0.7085526 0.7192607 0.71052027 0.744908 0.62541455 0.6290236 0.864397 0.55538946
0.6568514 0.7535787 0.6379067 0.67928725 0.8646206 0.76413184 0.6631697 0.6451242
0.7535751 0.7569528 0.69163424 0.76856583 0.55006856 0.8681568 0.6562821 0.72144353
0.774528 0.7027902 0.61885285 0.7306947 0.72681546 0.7553853 0.83524895 0.7248994
00000000: 6080 4a3f 5aea 373f 7974 2f3f d2af 453f
00000010: 5b28 4c3f 8339 2d3f dc49 1f3f ca33 5e3f
00000020: 46e2 453f d602 2e3f 36b3 473f d374 273f
00000030: c701 383f 1442 213f 442d 363f 7ca3 043f
00000040: 2583 473f 2f15 343f 154f 323f 744d 423f
00000050: ac71 483f 2005 433f f13e 313f b288 313f
00000060: 09c1 163f de9d 333f cce5 543f e3fe 2e3f
00000070: 7dfe 393f 908d 113f 932b 5c3f 722f 533f
00000080: b463 353f 7821 383f a8e4 353f 4ab2 3e3f
00000090: 2b1b 203f b107 213f 1f49 5d3f 012e 0e3f
000000a0: 6a27 283f 89ea 403f da4d 233f c5e5 2d3f
000000b0: c757 5d3f 259e 433f 7dc5 293f dc26 253f
000000c0: 4cea 403f a9c7 413f f10e 313f bbc0 443f
000000d0: 4bd1 0c3f 863f 5e3f 1b02 283f 86b0 383f
000000e0: 7847 463f 0fea 333f 246d 1e3f cf0e 3b3f
000000f0: 9410 3a3f ee60 413f e0d2 553f 0293 393f

module.9.bias f4 [64]
-0.65643775 -0.5836231 -0.5030579 -0.77452004 -0.7714198 -0.6870234 -0.5084393 -0.97527874
-0.67870146 -0.55931234 -0.6273169 -0.61994076 -0.5008548 -0.49250448 -0.6421656 -0.47259215
-0.59313345 -0.5338139 -0.48338234 -0.7661897 -0.7414817 -0.63048446 -0.53353155 -0.59931993
-0.5233103 -0.61479104 -0.57531023 -0.71178365 -0.70111734 -0.50754213 -0.8558581 -0.63994616
-0.58236426 -0.5828441 -0.5126844 -0.5724444 -0.4296173 -0.4893141 -0.68752235 -0.48419046
-0.63006777 -0.62123185 -0.5121277 -0.5762557 -0.7097588 -0.60888755 -0.63136053 -0.5669298
-0.5096055 -0.54591715 -0.68729997 -0.64094895 -0.48010752 -0.6919269 -0.54889673 -0.5591307
-0.5959277 -0.5704254 -0.48588952 -0.60372746 -0.56457764 -0.56277514 -0.72056854 -0.6200606
00000000: 4e0c 28bf 5368 15bf 67c8 00bf f246 46bf
00000010: c57b 45bf c4e0 2fbf 1429 02bf deab 79bf
00000020: 61bf 2dbf 182f 0fbf d797 20bf 70b4 1ebf
00000030: 0538 00bf 8c29 fcbe f764 24bf 99f7 f1be
00000040: 98d7 17bf 07a8 08bf e47d f7be 0225 44bf
00000050: bfd1 3dbf 6e67 21bf 8695 08bf 086d 19bf
00000060: aaf7 05bf f262 1dbf 8847 13bf 7437 36bf
00000070: 6d7c 33bf 48ee 01bf 8419 5bbf 83d3 23bf
00000080: d315 15bf 4535 15bf 493f 03bf b78b 12bf
00000090: ccf6 dbbe 6187 fabe 7701 30bf d0e7 f7be
000000a0: 1f4c 21bf 0d09 1fbf cd1a 03bf 7e85 13bf
000000b0: c1b2 35bf 0ee0 1bbf d8a0 21bf 5022 11bf
000000c0: 8275 02bf 3ac1 0bbf e4f2 2fbf 3b15 24bf
000000d0: a7d0 f5be 1f22 31bf 7f84 0cbf 3123 0fbf
000000e0: b88e 18bf 6607 12bf 83c6 f8be e28d 1abf
000000f0: 2988 10bf 0812 10bf 2e77 38bf 4bbc 1ebf

module.9.running_mean f4 [64]
-1.2642449 -2.015937 -1.3092492 -0.18143614 -2.3715863 -0.17410761 -1.2177489 -1.1581485
-0.6288618 -1.6327386 -1.8555688 -0.5748223 -1.8537856 0.15938044 -2.1914701 -0.8457833
-2.0583618 -2.359591 -1.4958005 -0.5487676 -0.87522954 -2.0373077 -0.26502144 -1.1884738
-0.09431348 -0.823195 -2.1007028 -0.95304495 -1.2590675 -0.8860983 -0.81219274 -2.2623363
-0.23037031 -0.8951032 -1.9450414 -2.241964 -1.1499826 -1.3340068 -3.2261894 -0.97807354
-0.49399245 -2.7662017 -1.3626899 -1.1766574 -2.7127414 -2.095704 -0.86834085 -1.8283378
-0.9978913 -1.5455736 -0.7826145 -0.7451457 0.45790207 -2.8155391 -1.2458037 -1.2295667
-2.2598991 -1.420615 -0.72222537 -0.7059038 -1.4291335 -1.3163838 -0.7391529 -1.9017271
00000000: c7d2 a1bf 1d05 01c0 7a95 a7bf 65ca 39be
00000010: 12c8 17c0 4449 32be 32df 9bbf 363e 94bf
00000020: 16fd 20bf 94fd d0bf 4783 edbf 8e27 13bf
00000030: d948 edbf a034 233e 0c41 0cc0 4185 58bf
00000040: 33bc 03c0 8a03 17c0 6476 bfbf 097c 0cbf
00000050: 0b0f 60bf 4063 02c0 e4b0 87be e91f 98bf
00000060: 6d27 c1bd e8bc 52bf ea71 06c0 c1fa 73bf
00000070: 2029 a1bf 57d7 62bf ddeb 4fbf 1eca 10c0
00000080: 32e6 6bbe 7c25 65bf 1ef7 f8bf 577c 0fc0
00000090: a132 93bf bcc0 aabf e379 4ec0 0763 7abf
000000a0: 94ec fcbe 7309 31c0 9f6c aebf b69c 96bf
000000b0: 8e9d 2dc0 0420 06c0 964b 5ebf f906 eabf
000000c0: ce75 7fbf 5bd5 c5bf 6d59 48bf dec1 3ebf
000000d0: 2472 ea3e cb31 34c0 7f76 9fbf 7162 9dbf
000000e0: 30a2 10c0 b6d6 b5bf c3e3 38bf 1db6 34bf
000000f0: d9ed b6bf 447f a8bf 2039 3dbf cb6b f3bf

module.9.running_var f4 [64]
1.6566212 1.053181 1.0924388 1.6238631 1.4171915 0.98728615 1.0591092 1.6364908
1.7143623 0.933809 1.2047518 0.8073488 1.3953308 1.1530703 1.0648782 1.054555
1.4172655 1.0270022 0.94659364 1.0234252 1.4304938 1.5316762 1.0216753 1.1009552
0.7604757 0.87430096 1.9225746 1.184967 1.4547154 0.7946438 1.6002862 1.5609547
1.2072729 0.9468463 1.0255133 1.2930332 0.94723785 1.3204597 1.7610848 0.83158827
1.0427946 1.3154181 0.83691525 1.3235797 1.2732769 1.2483326 1.2834493 0.97528255
0.790365 1.3462862 1.1189942 1.1555415 0.7669908 1.6674111 0.86688524 1.159003
0.9895182 1.4348525 1.2577164 1.0738605 1.1484238 1.223567 1.6270097 1.5595133
00000000: 2a0c d43f a3ce 863f 09d5 8b3f bfda cf3f
00000010: 8866 b53f c9be 7c3f e490 873f 8878 d13f
00000020: 3970 db3f 1b0e 6f3f 4f35 9a3f 69ae 4e3f
00000030: 339a b23f cf97 933f ee4d 883f a9fb 863f
00000040: f568 b53f cf74 833f f653 723f 99ff 823f
00000050: 6c1a b73f f70d c43f 42c6 823f 1aec 8c3f
00000060: 89ae 423f 30d2 5f3f ed16 f63f 00ad 973f
00000070: 1d34 ba3f c76d 4b3f 2ed6 cc3f 5dcd c73f
00000080: eb87 9a3f 8564 723f 0544 833f 1d82 a53f
00000090: 2e7e 723f d304 a93f 3a6b e13f f8e2 543f
000000a0: 4b7a 853f 9f5f a83f 1440 563f 0f6b a93f
000000b0: bdfa a23f 5dc9 9f3f 1148 a43f 1eac 793f
000000c0: 5c55 4a3f 1b53 ac3f 343b 8f3f c9e8 933f
000000d0: 8259 443f ba6d d53f 31ec 5d3f 365a 943f
000000e0: 1151 7d3f 3fa9 b73f dafc a03f 4374 893f
000000f0: 8dff 923f d89d 9c3f db41 d03f 229e c73f

module.13.weight f4 [64, 1024]
0.0013828336 0.07639728 0.058601934 -0.027379973 -0.048542656 -0.019852545 0.057062186 0.0004367363
-0.00022485171 0.0034361167 0.00017509802 0.06611329 -0.0033944922 -0.0020370053 0.026186064 0.005578394
0.029841777 0.018688833 0.027152885 0.021641722 -0.027736468 0.06380018 -0.030489506 0.004206439
0.017635567 0.07617073 0.050739188 -0.018055433 0.045210496 0.05298608 0.039214592 -0.0391479
-0.041053418 -0.018567352 -0.077082306 0.0188622 0.0012971481 -0.058645688 -0.08997496 0.06135277
0.045020994 -0.08072885 -0.102308266 0.039891664 0.0340688 -0.026185857 -0.057394974 0.033169936
-0.08653445 -0.01773955 0.019175323 0.0016953226 -0.010448595 0.020922814 0.044496022 0.05415586
-0.045941938 0.005135231 0.065264046 -0.013311135 -0.08575879 -0.0060865018 -0.0020030602 -0.006322524
0.09862582 -0.01096202 -0.010731105 0.014367103 0.08179852 -0.008335496 -0.03804972 -0.026297955
0.029052354 0.029773945 0.0030456565 0.0144224595 0.04279719 0.00805128 -0.0018881486 0.0556954
0.03155475 -0.098866075 -0.096342474 -0.051727455 0.014015188 -0.038685445 -0.15100814 -0.055101715
0.0059033306 -0.024846988 -0.1223347 -0.09522828 -0.041962143 -0.03677352 -0.0424712 0.0032713676
-0.024745166 -0.05967901 0.02609983 -0.05178146 0.05857817 -0.04517998 -0.0070254835 0.0045829406
0.03013807 0.027784467 0.120603345 0.03491775 -0.02489421 0.048039604 0.019369181 0.036493715
0.009307142 0.04548693 0.100210115 -0.027996656 -0.018089967 0.022677107 -0.022001581 -0.01292625
-0.016301382 -0.017400784 -0.042346064 -0.03211718 0.01782737 0.005634111 0.056136955 0.019288046
0.013869923 -0.005173585 0.020812957 -0.051371038 -0.00028873884 -0.029074876 0.01926818 -0.061075937
-0.03462358 0.034101687 0.030024888 -0.00770999 -0.0067039477 0.0405875 0.034532584 0.013857509
-0.018966027 -0.04434046 0.07882713 0.052083675 0.03535663 0.0004406802 0.081307195 0.11292085
0.03625419 -0.027353803 0.019270372 0.058371015 0.019985888 0.020372638 0.009578051 0.050009746
0.04580668 0.036823746 -0.016896816 -0.03813869 -0.066296846 -0.08703635 0.055553515 0.02011382
-0.02486801 -0.025618834 0.1512572 0.0140442625 0.0029040528 0.004604683 0.087347224 0.038680963
-0.026921432 -0.032765206 -0.106574714 -0.032443754 -0.051908772 -0.06262186 0.033237293 0.026560135
0.008747563 -0.038938507 -0.037722047 0.00484589 0.004708304 -0.032104176 -0.011779634 0.023130197
-0.04682373 -0.024354981 0.03192548 0.045658115 -0.031648993 -0.099761195 -0.047532275 -0.018467184
-0.045602888 -0.09769306 -0.024812777 -0.06595948 0.05843484 0.06372753 0.07406392 -0.017136192
0.011338171 -0.033777013 0.037767023 -0.012668436 0.0066466113 -0.029685691 0.026750067 0.03582843
-0.021988649 0.035918295 -0.0077436864 0.048822086 0.019611027 -0.012042637 -0.024237886 0.042613406
0.048533875 0.023240115 -0.0016811789 0.029291319 -0.005132682 -0.027611831 -0.05935353 -0.033523872
-0.06839392 -0.15238135 0.008349297 -0.055705827 0.010617164 -0.08962479 -0.004309457 0.03929536
0.010124589 0.011274033 -0.04192081 -0.014508257 0.017925464 -0.07668084 -0.057296585 -0.030143315
0.026318014 -0.042334672 0.0004945115 0.055804376 0.021200161 -0.054399636 -0.030792287 0.008726607
00000000: 3240 b53a 2d76 9c3d 9508 703d f74b e0bc
00000010: aad4 46bd cea1 a2bc 0aba 693d c1f9 e439
00000020: 2cc6 6bb9 7930 613b 849a 3739 6866 873d
00000030: 2176 5ebb 477f 05bb 2884 d63c f6ca b63b
00000040: be76 f43c 5319 993c ba6f de3c fb49 b13c
00000050: 9737 e3bc aba9 823d 21c5 f9bc 2bd6 893b
00000060: 7778 903c 66ff 9b3d e5d3 4f3d fde8 93bc
00000070: a42e 393d ef07 593d 7b9f 203d 8c59 20bd
00000080: a127 28bd 8f1a 98bc 54dd 9dbd e784 9a3c
00000090: 1105 aa3a 7636 70bd cb44 b8bd 0b4d 7b3d
000000a0: ef67 383d 2b55 a5bd ff86 d1bd 7165 233d
000000b0: ba8b 0b3d b983 d6bc fe16 6bbd 33dd 073d
000000c0: f938 b1bd 8852 91bc 9115 9d3c 9635 de3a
000000d0: 9530 2bbc 5266 ab3c 7641 363d 89d2 5d3d
000000e0: 9d2d 3cbd 7145 a83b 28a9 853d f216 5abc
000000f0: 4ea2 afbd 4771 c7bb c645 03bb 2d2d cfbb
00000100: 55fc c93d 0b9a 33bc 84d1 2fbc ff63 6b3c
00000110: fc85 a73d 9b91 08bc 06da 1bbd cf6e d7bc
00000120: 34ff ed3c 7de8 f33c a399 473b 2e4c 6c3c
00000130: 1b4c 2f3d 84e9 033c c17b f7ba dc20 643d
00000140: 8e3f 013d 4c7a cabd 344f c5bd 2be0 53bd
00000150: f69f 653c a174 1ebd e1a1 1abe 56b2 61bd
00000160: ba70 c13b e98b cbbc 9d8a fabd 0b07 c3bd
00000170: 7fe0 2bbd d59f 16bd 48f6 2dbd 7164 563b
00000180: 60b6 cabc fa71 74bd 50cf d53c cc18 54bd
00000190: aaef 6f3d a50e 39bd 0736 e6bb 7e2c 963b
000001a0: 1de4 f63c 409c e33c e3fe f63d ea05 0f3d
000001b0: f1ee cbbc 2dc5 443d 1eac 9e3c 6f7a 153d
000001c0: fc7c 183c 8150 3a3d f63a cd3d 3e59 e5bc
000001d0: 6931 94bc 57c5 b93c a93c b4bc 9fc8 53bc
000001e0: 7a8a 85bc 178c 8ebc 1173 2dbd 4e8d 03bd
000001f0: b40a 923c 599e b83b ddef 653d f701 9e3c
00000200: ac3e 633c 2d87 a9bb ef7f aa3c 706a 52bd
00000210: df61 97b9 6f2e eebc 4dd8 9d3c c32a 7abd
00000220: 74d1 0dbd 36ae 0b3d c1f6 f53c 15a4 fcbb
00000230: caac dbbb 143f 263d 0a72 0d3d 9b0a 633c
00000240: a45e 9bbc 589e 35bd 1e70 a13d b155 553d
00000250: 1dd2 103d 180b e739 6384 a63d 0c43 e73d
00000260: 467f 143d 1515 e0bc e6dc 9d3c 7216 6f3d
00000270: 72b9 a33c 85e4 a63c 42ed 1c3c 05d7 4c3d
00000280: c99f 3b3d 7fd4 163d 316b 8abc 5137 1cbd
00000290: a4c6 87bd 1d40 b2bd 158c 633d bdc5 a43c
000002a0: ffb7 cbbc 97de d1bc 2be3 1a3e e819 663c
000002b0: ec51 3e3b e1e2 963b 1ae3 b23d ee6f 1e3d
000002c0: 568a dcbc cf34 06bd d843 dabd bee3 04bd
000002d0: 4b9e 54bd e43f 80bd d423 083d a494 d93c
000002e0: f051 0f3c fc7d 1fbd 6f82 1abd 46ca 9e3b
000002f0: 1e48 9a3b ab7f 03bd 5eff 40bc 8a7b bd3c
00000300: 3dca 3fbd 1984 c7bc 4bc4 023d 0104 3b3d
00000310: 60a2 01bd 994f ccbd 34b1 42bd 7e48 97bc
00000320: 18ca 3abd 4d13 c8bd 2a44 cbbc c415 87bd
00000330: 5f59 6f3d 9483 823d d3ae 973d 3361 8cbc
00000340: bcc3 393c c459 0abd 98b1 1a3d 468f 4fbc
00000350: d1cb d93b 682f f3bc f522 db3c d5c0 123d
00000360: 8a21 b4bc 101f 133d c0be fdbb abf9 473d
00000370: 4ea7 a03c 7b4e 45bc 888e c6bc 658b 2e3d
00000380: 75cb 463d 0e62 be3c 015b dcba 59f4 ef3c
00000390: 0f30 a8bb 3532 e2bc b01c 73bd 5450 09bd
000003a0: 1d12 8cbd db09 1cbe 7dcb 083c cb2b 64bd
000003b0: 9df3 2d3c 348d b7bd 5836 8dbb 2cf4 203d
000003c0: 9be1 253c b9b6 383c 28b5 2bbd 0ab4 6dbc
000003d0: 6cd8 923c d80a 9dbd d3af 6abd 1def f6bc
000003e0: e098 d73c 1f67 2dbd 1ba2 013a 2193 643d
000003f0: f6ab ad3c 27d2 5ebd 1b40 fcbc 0bfa 0e3c

module.13.bias f4 [64]
0.008776755 0.11658854 0.08588569 0.03266816 0.051681012 0.02384746 0.01706233 -0.020595126
0.014622549 0.03419424 -0.034967076 -0.01024514 0.08665833 0.0111652 -0.0030736756 0.06329363
-0.022252234 0.058076322 0.051032368 -0.022762833 0.115202285 0.0018110799 0.0029260213 0.04429451
-0.017319623 0.039350174 0.085055076 -0.03140061 0.074099205 -0.026213137 0.021641606 -0.011528854
0.09382734 0.03168751 -0.0016881443 0.039643716 0.008394568 -0.0077951774 -0.01257835 0.061254874
0.11242058 0.0137409875 0.04520518 0.105236195 0.008107433 -0.008506621 0.0101760775 0.067287475
0.059793234 0.0014028159 0.0056478027 -0.02832981 0.03777822 0.025520202 0.050902743 -0.03129314
0.067654386 -0.034694258 0.0065450966 0.04887966 -0.033438247 0.061773535 0.081134655 0.017450916
00000000: 61cc 0f3c f9c5 ee3d d6e4 af3d 0ccf 053d
00000010: 78af 533d c05b c33c 4dc6 8b3c 1cb7 a8bc
00000020: 6a93 6f3c 420f 0c3d a339 0fbd 3bdb 27bc
00000030: ec79 b13d 3eee 363c b86f 49bb 17a0 813d
00000040: 514a b6bc 70e1 6d3d 5107 513d 1f79 babc
00000050: 2def eb3d c261 ed3a 7ec2 3f3b 296e 353d
00000060: e2e1 8dbc a62d 213d 5b31 ae3d ed9d 00bd
00000070: 53c1 973d efbc d6bc bd49 b13c 85e3 3cbc
00000080: 8c28 c03d c3ca 013d b944 ddba 7361 223d
00000090: 5f89 093c b06e ffbb 6c15 4ebc 64e6 7a3d
000000a0: c33c e63d e121 613c 1129 393d 1386 d73d
000000b0: 0ad5 043c 5b5f 0bbc 90b9 263c 04ce 893d
000000c0: c0e9 743d b1de b73a 3411 b93b eb13 e8bc
000000d0: 56bd 1a3d be0f d13c 657f 503d 3c2d 00bd
000000e0: 628e 8a3d 911b 0ebd 4078 d63b 0a36 483d
000000f0: 8bf6 08bd 3f06 7d3d ed29 a63d 39f5 8e3c

module.16.weight f4 [10, 64]
0.018307444 0.24180344 0.30101046 -0.21956778 0.33424917 0.28547147 0.28545147 0.09442399
0.03372991 -0.3064749 0.044128817 0.058105268 -0.18874514 -0.20884165 0.33082652 -0.18429756
0.1212243 0.24019341 -0.24847068 0.060187012 -0.2812633 -0.09092721 -0.0397343 -0.17948277
-0.054977555 -0.29650357 -0.32741174 -0.10240557 0.36796847 0.063487574 0.00021374738 -0.042070847
0.29234713 -0.21022946 0.085982226 0.28333595 0.46168792 -0.013831737 0.0990687 0.32506004
0.00230898 0.09943223 0.26794514 0.2793143 0.35651076 -0.083382115 0.32742926 -0.23593223
0.11670362 -0.024783136 -0.016055852 -0.033396535 -0.020275148 0.16354378 -0.25545034 -0.05291089
-0.39471802 0.039552983 0.033571683 -0.28277826 -0.11335977 0.007566551 0.35950884 -0.33551413
-0.08740708 0.2513457 -0.2950212 -0.30460802 -0.14896706 -0.4100492 0.2077116 0.077426635
0.007845005 -0.22462328 0.06509547 0.04504169 -0.4014376 -0.36708552 -0.17456415 0.44660807
0.036479775 -0.39652592 -0.24503483 0.11951701 -0.32387897 0.09641446 -0.098046 0.39664373
0.0685114 -0.29279447 -0.32398525 -0.06425953 0.42282304 0.058924984 0.523895 -0.36681107
0.41658136 -0.36164492 0.07795037 0.36604893 -0.07385705 -0.052885894 0.06899103 0.41137385
-0.3690476 -0.05793423 -0.42710072 -0.057952937 -0.30070505 0.09666998 0.44063094 -0.18037269
-0.17056435 0.12074339 -0.111887306 -0.01810426 -0.00736109 0.2527367 -0.21022733 0.03180265
-0.347685 -0.034951333 0.110084556 0.38707855 0.01033911 0.46888572 -0.3026526 0.31350952
0.3760995 -0.22542374 0.23109211 0.37984192 -0.08606437 0.2647099 -0.08902596 -0.03834378
-0.11938737 0.34291622 -0.048267417 0.051043175 -0.09707938 -0.0093821 0.3397805 0.2639333
0.07447811 0.28685012 -0.042410437 0.12649669 0.0015888958 0.0974096 -0.05600069 -0.08006836
-0.05486602 0.28966326 -0.04934468 0.014500912 -0.22100516 5.4962748e-05 0.11325387 0.51852274
-0.2624652 -0.20711468 0.020806955 -0.21722347 0.4896218 0.06598826 0.105939455 0.033873096
-0.024763461 0.082458645 0.1699599 -0.11181262 0.39403602 0.027174683 0.19052015 0.17996015
0.008198702 -0.02303852 0.06723869 0.049981732 0.09535767 0.21540628 0.120045364 0.08209993
0.20249313 0.10245292 0.060930096 -0.08492258 -0.00094441575 -0.26814258 0.17196657 -0.28117517
0.26261777 -0.045010384 -0.12405152 0.21868306 -0.18777883 0.0017267086 -0.08162867 0.020426465
-0.069525234 0.10374417 -0.116068766 0.13361758 -0.0701276 -0.052948035 -0.102495044 -0.14923921
-0.041665506 0.024804996 0.37082753 0.090139806 0.24589837 0.10847065 -0.029847687 -0.027678892
-0.080840155 0.24139331 0.38555574 -0.114156164 -0.26798758 0.057249673 -0.2426934 0.04380646
-0.22208263 0.12479316 -0.053521376 -0.14127247 0.011829633 0.06623755 -0.045022797 -0.25295052
0.34474984 0.03961757 -0.0061197127 -0.22844306 -0.005296978 0.030768787 -0.10090553 0.039855007
-0.04601581 0.03945696 0.08702324 -0.07707887 0.06735734 -0.046490107 0.3388657 0.0862226
0.12714134 0.03403922 -0.028888369 0.12577435 0.030512417 -0.19708757 0.38347438 0.3156473
00000000: 7ef9 953c 529b 773e 0b1e 9a3e 60d6 60be
00000010: b522 ab3e 5129 923e b226 923e 5d61 c13d
00000020: 6028 0a3d 47ea 9cbe 6bc0 343d caff 6d3d
00000030: 6846 41be 96da 55be 1862 a93e 80b8 3cbe
00000040: 7244 f83d 43f5 753e 196f 7ebe a886 763d
00000050: be01 90be 0c38 babd 6fc0 22bd 55ca 37be
00000060: 2530 61bd 51cf 97be 83a2 a7be 03ba d1bd
00000070: 5d66 bc3e c605 823d 6021 6039 7b52 2cbd
00000080: 86ae 953e 6446 57be 7317 b03d 6911 913e
00000090: 5c62 ec3e 839e 62bc 88e4 ca3d 456e a63e
000000a0: 4252 173b 20a3 cb3d 1b30 893e 4902 8f3e
000000b0: 9488 b63e 3ec4 aabd cfa4 a73e 3898 71be
000000c0: 4f02 ef3d 0106 cbbc 9087 83bc ceca 08bd
000000d0: 1118 a6bc 0578 273e 63ca 82be 17b9 58bd
000000e0: 7b18 cabe 4f02 223d 7682 093d 50c8 90be
000000f0: 2b29 e8bd d5f0 f73b 8b11 b83e 82c8 abbe
00000100: 7c02 b3bd 62b0 803e 050d 97be 95f5 9bbe
00000110: d28a 18be f8f1 d1be 5ab2 543e db91 9e3d
00000120: 5688 003c a503 66be c650 853d a37d 383d
00000130: 3b89 cdbe a2f2 bbbe f2c0 32be d0a9 e43e
00000140: d16b 153d 7205 cbbe 69ea 7abe 56c5 f43d
00000150: 77d3 a5be f274 c53d 57cc c8bd e314 cb3e
00000160: b44f 8c3d 28e9 95be 65e1 a5be 809a 83bd
00000170: 437c d83e 535b 713d fc1d 063f a9ce bbbe
00000180: 274a d53e 8629 b9be 72a4 9f3d c46a bb3e
00000190: 5d42 97bd e19e 58bd 2b4b 8d3d 989f d23e
000001a0: cff3 bcbe 714c 6dbd f2ac dabe 0f60 6dbd
000001b0: 03f6 99be e9fa c53d 619a e13e 9eb3 38be
000001c0: 6ca8 2ebe 4f48 f73d 2c25 e5bd 634f 94bc
000001d0: 4c35 f1bb b466 813e d545 57be 7f43 023d
000001e0: c503 b2be 2129 0fbd 0374 e13d 292f c63e
000001f0: 5f65 293c ca11 f03e 48f5 9abe 5284 a03e
00000200: 1d90 c03e 7bd5 66be 69a3 6c3e a47a c23e
00000210: 8442 b0bd 0e88 873e 3e53 b6bd 5e0e 1dbd
00000220: 5e81 f4bd b792 af3e 0eb4 45bd a612 513d
00000230: 8ed1 c6bd 61b7 19bc b6f7 ad3e 4422 873e
00000240: fb87 983d 05de 923e 91b6 2dbd 5988 013e
00000250: 7f42 d03a af7e c73d fb60 65bd e1fa a3bd
00000260: 31bb 60bd be4e 943e a61d 4abd 3c95 6d3c
00000270: 2d4f 62be cd87 6638 a5f1 e73d e8bd 043f
00000280: d761 86be df15 54be 5973 aa3c d46f 5ebe
00000290: b5af fa3e da24 873d c9f6 d83d 84be 0a3d
000002a0: bedc cabc 14e0 a83d f809 2e3e 04fe e4bd
000002b0: 17bf c93e 719d de3c b717 433e 7947 383e
000002c0: d953 063c 47bb bcbc 70b4 893d a5b9 4c3d
000002d0: e24a c33d 7793 5c3e 58da f53d 0224 a83d
000002e0: 5c5a 4f3e d6d2 d13d d691 793d e4eb adbd
000002f0: ab92 77ba fc49 89be 0118 303e 31f6 8fbe
00000300: d675 863e cf5c 38bd b90e febd 74ee 5f3e
00000310: 1849 40be ba52 e23a ef2c a7bd 6755 a73c
00000320: 3f63 8ebd d377 d43d 76b5 edbd 0cd3 083e
00000330: 0f9f 8fbd 0ae0 58bd ece8 d1bd 2ad2 18be
00000340: 73a9 2abd d933 cb3c 1bdd bd3e 389b b83d
00000350: c8cc 7b3e dc25 de3d 2383 f4bc d8be e2bc
00000360: 868f a5bd cf2f 773e 9067 c53e b5ca e9bd
00000370: ab35 89be a27e 6a3d 9e84 78be 676e 333d
00000380: a169 63be 8e93 ff3d 3b39 5bbd bba9 10be
00000390: 14d1 413c 8da7 873d d369 38bd bb82 81be
000003a0: 0d83 b03e 0846 223d df87 c8bb faec 69be
000003b0: 4692 adbb d30e fc3c 8fa7 cebd 013f 233d
000003c0: 137b 3cbd 9f9d 213d 3e39 b23d 87db 9dbd
000003d0: a5f2 893d 696c 3ebd ce7f ad3e 7995 b03d
000003e0: 5731 023e b66c 0b3d 4da7 ecbc feca 003e
000003f0: 2df5 f93c 53d1 49be c156 c43e 869c a13e

module.16.bias f4 [10]
-0.23766395 -0.41597605 -0.12398638 0.7009926 -0.047489814 0.09171591 0.011544431 0.039940577
-0.18498075 -0.01113695
00000000: 2e5e 73be d0fa d4be 92ec fdbd 4074 333f
00000010: ae84 42bd 8dd5 bb3d da24 3d3c bb98 233d
00000020: 986b 3dbe c177 36bc
