models/xue_29.pth (torch, 587967 bytes, 10 tensors)

weight f4 [32, 3, 5, 5]
0	0xbe03c082	-0.12866405
1	0x3db73b74	0.08946887
2	0x3dc2daab	0.09514364
3	0x3ca0372e	0.019557562
4	0x3d497acd	0.049189378
5	0x3b6f7954	0.0036540823
6	0xbc359dd7	-0.011084995
7	0x3d683c5c	0.05669819
8	0xbda381ea	-0.079837635
9	0x3d7257d5	0.059165794
10	0xbdba5f80	-0.091002464
11	0xbe14f669	-0.14547123
12	0xbe90f218	-0.28309703
13	0xbdb2353a	-0.087015584
14	0xbd6b0254	-0.057375267
15	0xbc90476c	-0.017612182
16	0x3bb8a7fd	0.00563526
17	0xbe269c2b	-0.16270511
18	0xbd619e35	-0.05508252
19	0x3c940ffb	0.018074026
20	0xbd42e0b9	-0.047577593
21	0x3d80d1ad	0.062899925
22	0x3e055f9e	0.13024756
23	0x3d27df27	0.0409843
24	0x3dd05c10	0.101738095
25	0xbd285ae3	-0.0411023
26	0x3da81991	0.082080014
27	0x3e135207	0.1438676
28	0xbbffc8fb	-0.007805941
29	0xbdf1ffc0	-0.118163586
30	0x3d63becf	0.05560189
31	0x3d4b63b2	0.049655624
32	0x3e4b50c4	0.19855028
33	0x3c1cf29e	0.009579329
34	0xbda09d92	-0.07842554
35	0xbd1d2986	-0.038369678
36	0xbdeb86e0	-0.11500335
37	0xbe2bb553	-0.16768388
38	0xbdd60105	-0.10449413
39	0xbd6cd5ae	-0.05782097
40	0x3df9939f	0.121863596
41	0xbd28c93e	-0.041207545
42	0xbc724145	-0.014786069
43	0xbc360232	-0.011108922
44	0x3e13253a	0.1436967
45	0x3d3b78b0	0.045769393
46	0x3c7fd621	0.015615017
47	0x3d5deb06	0.054179214
48	0xbc76d0bd	-0.0150644155
49	0xbdf506a9	-0.11964161
50	0x3b6c8ee0	0.0036095902
51	0x3dcc6a46	0.099812075
52	0x3e5529c1	0.20816709
53	0x3ce2d56a	0.027689654
54	0xbdbf5a2d	-0.093433715
55	0x3dd6399c	0.10460207
56	0x3e002855	0.12515385
57	0x3dd1af33	0.10238495
58	0x3e4814ac	0.19539136
59	0x3d9730e8	0.07382375
60	0xbd60cea9	-0.054884586
61	0xbdeb4060	-0.11486888
62	0x3d527b8e	0.051387362
63	0x3dded0de	0.10879682
64	0x3c808f65	0.015693376
65	0x3e004eea	0.12530103
66	0xbddbf657	-0.10740345
67	0xbdf48c15	-0.11940781
68	0xbd4790c7	-0.048722055
69	0x3deb23c5	0.11481432
70	0x3c4fe8d0	0.012689784
71	0xbd5f6c89	-0.054546867
72	0xbce1b4ac	-0.027551971
73	0xbe109db6	-0.14122662
74	0x3d3cf3dd	0.046131004
75	0x3d748e84	0.059706226
76	0xbcee67cd	-0.02910223
77	0xbd812f25	-0.0630782
78	0xbbe7b80e	-0.0070715016
79	0xbe2235c5	-0.15840824
80	0xbd0cfc27	-0.03442016
81	0x3dc7a49c	0.097481936
82	0x3dc7b8bd	0.09752033
83	0xbd154eaa	-0.036451973
84	0xbcc9940d	-0.024606729
85	0x3dfbca58	0.122944534
86	0x3dba4a01	0.090961464
87	0x3db530a8	0.08847171
88	0xbd264370	-0.040591657
89	0xbe23ca83	-0.15995221
90	0xbe1266ad	-0.1429698
91	0xbe43f85d	-0.19137712
92	0xbd972384	-0.07379821
93	0xbdc48d66	-0.09597282
94	0xbd60ce6c	-0.05488436
95	0xbbd1fafd	-0.006408094
96	0xbda34304	-0.079717666
97	0x3d74f1eb	0.059801023
98	0x3d9aaf46	0.07552962
99	0x3e3be2f7	0.18348299
100	0x3e1ee36a	0.15516439
101	0x3e2be1d4	0.16785365
102	0x3dd14b49	0.10219438
103	0xbd5f100b	-0.05445866
104	0xbdb95935	-0.09050218
105	0x3de8fd4e	0.11376439
106	0x3e06da11	0.13169123
107	0x3e498b6c	0.19682091
108	0x3c333326	0.010937488
109	0x3d3aaa13	0.04557235
110	0x3e1141fc	0.14185327
111	0x3d4a6393	0.049411368
112	0xbde0a445	-0.10968832
113	0x3da49ec6	0.08038096
114	0x3d800371	0.062506564
115	0xbd3433ff	-0.0439949
116	0xbe31ee99	-0.17376174
117	0xbe277328	-0.16352522
118	0xbe2c98e7	-0.16855203
119	0xbe0bf103	-0.13666157
120	0x3db8515a	0.089998916
121	0xbe0ec1bf	-0.13941096
122	0xbc1e64e0	-0.009667605
123	0x3dd1ef78	0.10250753
124	0x3e09a9c8	0.13443673
125	0x3e075c52	0.13218811
126	0x3e299a26	0.16562709
127	0x3d91d25c	0.07120201
128	0x3c8114bb	0.015756955
129	0xbc453e9d	-0.012038854
130	0xbd67e07e	-0.056610577
131	0x3df7989c	0.12089655
132	0x3c982f98	0.018577382
133	0x3d6064e8	0.05478373
134	0x3ddd5c88	0.108086646
135	0xbd83fff8	-0.064453065
136	0x3dc389f1	0.095477946
137	0xbdd503e1	-0.104011305
138	0x3d0dff9d	0.0346676
139	0xbe0dab42	-0.13834861
140	0xbdb1c198	-0.08679503
141	0xbda39f1f	-0.07989334
142	0xbe04b40b	-0.12959306
143	0xbd8025f0	-0.06257236
144	0xbd9aef6c	-0.07565197
145	0x3d6480aa	0.055786766
146	0xbdf52ba8	-0.119712174
147	0xbd69c7b5	-0.05707522
148	0x3c34dde1	0.011039228
149	0x3db42468	0.087960064
150	0x3d049a69	0.03237382
151	0x3e226371	0.15858246
152	0xbdfeb3ec	-0.12436661
153	0xbe567432	-0.20942762
154	0xbda1d94e	-0.07902776
155	0x3cc19bbd	0.023633832
156	0x3e882630	0.26591635
157	0x3c02c25d	0.00798091
158	0xbd0f2c8c	-0.034954593
159	0xbdd1a530	-0.10236585
160	0x3cdf7f05	0.027282247
161	0x3e8ba18d	0.2727169
162	0x3cf95e55	0.030440489
163	0xbe531142	-0.20612052
164	0xbe82e068	-0.25561833
165	0x3e435092	0.19073704
166	0x3e325897	0.17416607
167	0xbd05802d	-0.03259294
168	0x3c64e2a2	0.013970049
169	0xbe722a6e	-0.23648998
170	0x3cb31d0e	0.02186444
171	0x3d4e4a77	0.050363984
172	0xbbe85b62	-0.007090972
173	0x3d370111	0.04467875
174	0xbda9333d	-0.08261726
175	0x3e1bfcb2	0.15233114
176	0x3ddd4617	0.10804384
177	0xbc502aaa	-0.012705484
178	0xbda0034c	-0.07813129
179	0x39b797c9	0.0003501757
180	0x3e606716	0.21914324
181	0x3e1b11b9	0.1514348
182	0xbdc52361	-0.096258886
183	0xbe75a897	-0.23990093
184	0xbd8f6ac0	-0.07002783
185	0x3ccbac16	0.02486233
186	0x3e910f88	0.28332162
187	0x3dac2776	0.08405964
188	0xbe8cdd0b	-0.27512392
189	0xbdb14114	-0.08654991
190	0x3e378bfe	0.17924497
191	0x3cf57f2e	0.02996787
192	0x3d85743e	0.06516312
193	0xbe4e2199	-0.20130004
194	0xbe66c30e	-0.22535345
195	0x3daf545d	0.08561013
196	0x3e17775f	0.1479163
197	0xbd03f21c	-0.032213315
198	0xbd8554c2	-0.06510307
199	0xbe0d0f0b	-0.1377527
200	0x3df6c4a8	0.12049228
201	0x3d16e017	0.036834802
202	0xbdc4eac8	-0.096150935
203	0xbe38fbd6	-0.18064818
204	0x3d8be0b8	0.06829971
205	0x3e2b0b3d	0.16703506
206	0x3e3ee849	0.18643297
207	0xbdf4bd2d	-0.11950145
208	0xbe899d0a	-0.26877624
209	0xbe268702	-0.16262439
210	0x3e44b36f	0.19209073
211	0x3e795010	0.24346948
212	0xbdf7f769	-0.121077366
213	0xbe26554c	-0.16243476
214	0xbd9f63a5	-0.077826776
215	0x3e242247	0.16028701
216	0x3c293220	0.010326892
217	0x3db180f0	0.08667171
218	0xbcf88e4d	-0.030341292
219	0xbe5b779a	-0.21432343
220	0x3d226aec	0.03965275
221	0x3e1fd106	0.1560708
222	0x3d1a1168	0.037614256
223	0xbdfbf7c5	-0.12303118
224	0xbe18a557	-0.14906822
225	0xbd09301b	-0.033493143
226	0xbcd7516a	-0.026283938
227	0xbd17c5f6	-0.037054025
228	0xbe081034	-0.13287431
229	0xbcf6c589	-0.030123489
230	0x3c9bd67d	0.019023174
231	0xbd50fbe5	-0.051021475
232	0x3dc97ec1	0.098386295
233	0x3cfe6b7b	0.03105711
234	0xbc4becab	-0.012446563
235	0xbdb7c44a	-0.08972986
236	0xbe312175	-0.17297919
237	0xbdd55619	-0.104168124
238	0x3dd642bb	0.104619466
239	0x3d2f3d68	0.04278317
240	0xbd67b622	-0.05657018
241	0xbe2a1452	-0.16609314
242	0xbe9b28ef	-0.30304667
243	0xbe88788e	-0.26654476
244	0xbd92f8d6	-0.07176368
245	0x3db39458	0.08768529
246	0xbdb2ba94	-0.08726993
247	0xbd1693fc	-0.036762223
248	0x3c8bb239	0.017052757
249	0xbd7073a5	-0.058704037
250	0xbdc32c25	-0.09529904
251	0xbd54936d	-0.05189841
252	0x3db269e0	0.087116
253	0xbdac3333	-0.08408203
254	0xbd581a0f	-0.052759226
255	0x3e00244a	0.12513843

bias f4 [32]
0	0xbe05c818	-0.13064611
1	0xbe7d23cf	-0.24720691
2	0xbcd0a57e	-0.025469538
3	0xbe1cd900	-0.15317154
4	0xbe777d20	-0.24168825
5	0xbed05c40	-0.4069538
6	0x3dbee51a	0.093210414
7	0xbbfb8f9f	-0.007677033
8	0xbd963834	-0.07334939
9	0xbe23dd09	-0.16002287
10	0xbe92510f	-0.28577468
11	0xbe845662	-0.25847155
12	0xbeb0c5cc	-0.34525907
13	0xbe07064d	-0.13185997
14	0xbd972ffc	-0.07382199
15	0x3e242a5f	0.16031788
16	0xbe016898	-0.12637556
17	0xbd306e22	-0.04307378
18	0xbe9fc440	-0.31204414
19	0xbea15837	-0.31512615
20	0x3cd8e9cb	0.026478669
21	0x3e669676	0.22518334
22	0xbe1ff3af	-0.15620302
23	0x3e07562a	0.13216463
24	0x3c70c6f7	0.014695874
25	0x3dfc7722	0.1232741
26	0x3d817699	0.06321449
27	0x3ddca7b0	0.10774171
28	0x3e1e1da1	0.1544099
29	0xbc53d1a5	-0.012928401
30	0x3e04274e	0.12905619
31	0x3da1c252	0.07898392

weight f4 [32, 32, 5, 5]
0	0x3cfa8cd9	0.03058474
1	0x3ba17304	0.004927041
2	0x3cd7c778	0.026340231
3	0x3d4f7dc1	0.050657038
4	0x3d14e565	0.03635158
5	0xbc110fbd	-0.00885385
6	0x3d1ac827	0.037788536
7	0x3d1ac047	0.037781026
8	0xbc4b9a36	-0.0124269035
9	0xba18c0ed	-0.0005827088
10	0xbc71f9f2	-0.014769064
11	0x3d1deec5	0.038557786
12	0x3c924708	0.017856136
13	0x3ab4050e	0.0013734417
14	0x3d3ad1e2	0.045610316
15	0x3cc09268	0.023507312
16	0xbc86593c	-0.016399972
17	0xbbdfbf98	-0.0068282597
18	0xbc1a9635	-0.009435226
19	0xbcfb9646	-0.030711304
20	0x3caa6d6e	0.020804133
21	0x3c879744	0.016551621
22	0x3b39c81e	0.002834804
23	0x3d1b89fe	0.037973396
24	0xbb95e50c	-0.0045744237
25	0x3cf4fde0	0.029906213
26	0x3ba69544	0.005083712
27	0x3cb9fe56	0.022704285
28	0x3c42ee91	0.011897699
29	0x3cc01636	0.023448091
30	0xbc0345a2	-0.008012207
31	0x3d24bec3	0.040220987
32	0x3cd63723	0.026149338
33	0x3d6cff67	0.05786076
34	0x3d1e01e1	0.03857601
35	0x3be9867c	0.0071266275
36	0x3d1e8ebb	0.038710337
37	0x3c13f966	0.009031629
38	0x3c7b8d36	0.0153534915
39	0xb976056a	-0.00023462405
40	0xbc2ceb04	-0.010554079
41	0x3cabc9f2	0.020970318
42	0xbcff0c49	-0.031133788
43	0xbd57f230	-0.052721202
44	0xbd177c4a	-0.036983766
45	0xbcfa38f4	-0.030544735
46	0xbd1e1898	-0.038597673
47	0x3cfcdb31	0.030866237
48	0x3d76e687	0.06027844
49	0x3d42eb60	0.047587752
50	0x3c8361b3	0.016037798
51	0x3b0fbf2e	0.002193402
52	0xbcab3ee2	-0.020904008
53	0xbc1c6d2f	-0.009547516
54	0xbc2ade00	-0.0104289055
55	0x3c131afa	0.0089786
56	0xbd0a8cee	-0.033825807
57	0xbc0466bb	-0.0080811335
58	0x3c9e406b	0.019317826
59	0x3b9642f0	0.0045856163
60	0xbcb3a468	-0.021928981
61	0x3cade99e	0.021229561
62	0xbd0c8c58	-0.03431353
63	0xbd0a15ec	-0.033712313
64	0xbc8f93ac	-0.01752647
65	0xbce395dd	-0.027781421
66	0x3c2f3fca	0.010696361
67	0xbd200e71	-0.039076272
68	0xbb893ef9	-0.004188415
69	0x3cafdec7	0.021468533
70	0xbc39a754	-0.011331398
71	0xbcf34ccf	-0.029699711
72	0xbb906ee0	-0.0044077486
73	0xbcbb9edb	-0.022902897
74	0x3c85b434	0.01632128
75	0xbcd50248	-0.026002064
76	0x3c87ce23	0.016577786
77	0x3c9b5b56	0.01896445
78	0x3c7070eb	0.014675359
79	0x3cf5a873	0.02998755
80	0x3ca75d01	0.02043009
81	0x3d3df650	0.04637748
82	0xbc8ee335	-0.017442325
83	0xbca48ff5	-0.020088175
84	0x3c709ce6	0.014685845
85	0x3d2e2601	0.042516712
86	0x3cad2e09	0.021140115
87	0x3d1453fd	0.03621291
88	0x3c02ebeb	0.007990818
89	0x3d575d2d	0.052579094
90	0x3d353a87	0.04424527
91	0x3d4c293f	0.049844023
92	0x3d671d77	0.056424584
93	0x3d3b8fd0	0.045791447
94	0xbd1b3d21	-0.037900094
95	0xbc662ca9	-0.014048734
96	0x3c42bf31	0.011886404
97	0xbb6fb678	-0.0036577266
98	0x3d5f7e18	0.05456361
99	0x3c7975c5	0.015225832
100	0x3b0951a8	0.0020953212
101	0x3c71b1b6	0.014751842
102	0x3c4d8d37	0.012545875
103	0x3cfba5cd	0.030718708
104	0x3d21b363	0.039477717
105	0x3d1ee1b1	0.038789455
106	0xba723e8d	-0.0009240888
107	0xbcfa5be6	-0.030561399
108	0x3cecaa60	0.028889835
109	0x3b39299a	0.0028253556
110	0x3ce59fe8	0.02803035
111	0x3c7d9042	0.015476288
112	0x3c4ee841	0.012628616
113	0xbc179bf9	-0.009253495
114	0xbcd272ef	-0.02568957
115	0xbd0da44f	-0.034580525
116	0xbbdb94dc	-0.006701095
117	0xbba300cf	-0.0049744616
118	0x3d22bd05	0.039731044
119	0x3d07c0fd	0.033143032
120	0x3d233401	0.039844517
121	0x3d3c378e	0.04595142
122	0xbcba23f8	-0.02272223
123	0xbc47828f	-0.012177124
124	0xbcbc29d2	-0.02296916
125	0x3b889f26	0.0041693626
126	0x3d420265	0.047365565
127	0x3d885032	0.06655921
128	0x3da43355	0.08017603
129	0x3d4c78db	0.049919944
130	0x3d146d88	0.03623727
131	0x3d67c02d	0.056579757
132	0x3b175d1c	0.002309627
133	0x3c6124a4	0.013741646
134	0xb7806a40	-1.5308266e-05
135	0x3cba2a2c	0.022725187
136	0x3d48f9ba	0.049066283
137	0x3c1548b6	0.009111574
138	0xbb330e97	-0.0027321929
139	0x3c30ad63	0.010783526
140	0x3c14c182	0.009079339
141	0xbb3a4e5f	-0.002842806
142	0xbd065c96	-0.03280314
143	0xbb8f9273	-0.004381472
144	0xbcc32c93	-0.023824966
145	0x3cb068ff	0.021534441
146	0xbc799cff	-0.015235185
147	0xbc50f2a1	-0.01275316
148	0xbbd73dac	-0.006568631
149	0xbc095b1a	-0.008383537
150	0xbd6db671	-0.058035318
151	0xbd070eb9	-0.032973025
152	0xbc339989	-0.010961899
153	0x3b20d94a	0.0024543577
154	0x39342421	0.00017179597
155	0x3b0a8ddc	0.0021141684
156	0xbc504863	-0.012712571
157	0x3d1d1f99	0.038360212
158	0xbc0cc1e8	-0.008591153
159	0xbb032c87	-0.0020015554
160	0xbd16c54b	-0.036809247
161	0x3cdf5790	0.027263433
162	0x3cd34f6b	0.025794705
163	0x3cd6ffd0	0.026245028
164	0x3c4b3c14	0.01240446
165	0x3cb7bbda	0.022428442
166	0x3d987f42	0.074461475
167	0x3d1c6f93	0.038192343
168	0x3c908235	0.017640213
169	0x3c57b8d2	0.013166623
170	0x3c774c64	0.015093897
171	0x3d876110	0.0661031
172	0x3d81e488	0.06342417
173	0x3d96faac	0.073720306
174	0x3c87d5e9	0.016581492
175	0xbc8b0607	-0.016970647
176	0x3ca5b050	0.020225674
177	0xbd30f9c4	-0.043206945
178	0xbd2681d3	-0.040651154
179	0xbcb81993	-0.022473132
180	0x3c500509	0.012696513
181	0xbd1df993	-0.03856809
182	0x3d0ce7d1	0.034400765
183	0xbc0be2f6	-0.008537998
184	0x3d26bd89	0.0407081
185	0x3d2c1043	0.042007696
186	0x3d3c30ab	0.04594485
187	0x3d3b9f22	0.045806058
188	0x3b471283	0.0030376024
189	0xbc962461	-0.018327894
190	0x3d03348f	0.032032546
191	0x3cedfa29	0.02904995
192	0xbccf7dc0	-0.025328517
193	0x3c972fb1	0.018455358
194	0x3c2e1299	0.010624551
195	0xbc449e48	-0.012000628
196	0xbb45a463	-0.0030157797
197	0xbc7941a2	-0.015213402
198	0x3d53cf78	0.05171153
199	0xbbaec76c	-0.0053338315
200	0xbd107a9e	-0.035273187
201	0xbd09830d	-0.033572245
202	0xbacf1c68	-0.0015801312
203	0xb7a2947f	-1.9381054e-05
204	0xbbe16c9b	-0.006879402
205	0xbcb660ae	-0.022262897
206	0x3bb23e08	0.0054395236
207	0x3a240a0e	0.0006257602
208	0x3c7e8829	0.015535393
209	0x3c27e8fd	0.01024842
210	0xbd08031a	-0.033206083
211	0x3c033681	0.0080086
212	0x3ccf6003	0.025314337
213	0x3cccba3c	0.024991147
214	0x3b0c696e	0.0021425146
215	0x3d1fdb2f	0.03902739
216	0x3daf885f	0.085709326
217	0x3db83ef4	0.08996382
218	0x3dabf2bc	0.08395907
219	0x3d1cf425	0.038318772
220	0x3d75d013	0.06001289
221	0x3d00e838	0.03147146
222	0xbaaec252	-0.0013333058
223	0xbd493bcc	-0.049129292
224	0xbd1e1cb4	-0.038601592
225	0x3cdd8ae0	0.02704376
226	0x3cbee461	0.023302259
227	0x3c97b782	0.01852012
228	0x3bbb85c6	0.005722734
229	0xbd243a0e	-0.040094428
230	0xbb243c65	-0.0025060412
231	0x3c6682bd	0.014069256
232	0x3cab4c6a	0.02091046
233	0x3c40742d	0.011746448
234	0xbccd1261	-0.025033178
235	0x3cd84de2	0.026404325
236	0x3b4e4f6e	0.003148045
237	0xbc22daf4	-0.009939898
238	0xbd0f6556	-0.03500875
239	0xbd0701cc	-0.032960698
240	0x3d53ae08	0.05167964
241	0x3d6e5030	0.05818194
242	0x3d28a16f	0.04116958
243	0x3cf16a54	0.029469647
244	0xbb034ba1	-0.0020034092
245	0xbab639f3	-0.0013902768
246	0xbb0ea3b9	-0.0021765067
247	0x3a00cdb0	0.00049134623
248	0x3bc4df6b	0.006008079
249	0xbcd7458a	-0.026278276
250	0xbc535ad4	-0.012900073
251	0x3ceba6a3	0.028765982
252	0xbc4c76dd	-0.012479511
253	0xbbd524e3	-0.0065046414
254	0x3cb92b2c	0.022603594
255	0x3bec21d3	0.0072061806

bias f4 [32]
0	0x3ca20a6a	0.019780356
1	0xbd97cdc1	-0.07412291
2	0xbdce0c47	-0.100609355
3	0xbe86572e	-0.26238388
4	0xbe3af520	-0.1825757
5	0xbdb2337b	-0.08701225
6	0xbe2a7a76	-0.16648278
7	0xbde52506	-0.11188702
8	0xbde5ecda	-0.112268165
9	0xbc9f9b61	-0.01948327
10	0xbeb2f58b	-0.3495296
11	0x3b66d800	0.003522396
12	0xbdfaa92a	-0.12239297
13	0xbced50e4	-0.028969236
14	0xbd96057d	-0.073252656
15	0xbda18956	-0.07887523
16	0xbd94c2f1	-0.072637446
17	0xbccacbfb	-0.024755469
18	0xbdead60b	-0.11466607
19	0xbd18b1de	-0.037279002
20	0xbdb4dd5e	-0.08831285
21	0xbd567b28	-0.052363545
22	0xbdcc9b39	-0.09990544
23	0x3d11783c	0.035515055
24	0x3c7806f4	0.0151383765
25	0xbe230d8d	-0.15923138
26	0xbdc815f3	-0.097698115
27	0xbdba68b8	-0.09102005
28	0xbdbe8120	-0.093019724
29	0x3b616e48	0.0034398008
30	0xbe4cb750	-0.19991803
31	0xbd49e1d8	-0.049287647

weight f4 [64, 32, 5, 5]
0	0xbacdc67e	-0.0015699414
1	0xbb865376	-0.004099305
2	0xbce987ff	-0.02850723
3	0xbd700fa9	-0.058608685
4	0xbd33957c	-0.04384373
5	0x3d0b6b91	0.03403813
6	0x3c82a3c0	0.015947223
7	0x3b5ab798	0.003337359
8	0xbccf66c2	-0.025317553
9	0x3ca734c7	0.020410908
10	0xbd173589	-0.03691629
11	0x3bce56c8	0.006296966
12	0xbc431368	-0.011906482
13	0x3d18ba2d	0.037286926
14	0xbb738696	-0.0037159077
15	0xbc1d2427	-0.009591139
16	0xbd1dce68	-0.038526922
17	0xbce53d12	-0.027983222
18	0xbb543034	-0.0032377364
19	0x3cfe8210	0.031067878
20	0xbb394e9f	-0.0028275622
21	0x3c76bff3	0.015060413
22	0x3c4ede29	0.012626209
23	0x3d137ea2	0.03600944
24	0x3b82314e	0.0039731627
25	0xbd3406b7	-0.043951716
26	0xbd04aa06	-0.03238871
27	0xbc82aaf0	-0.01595065
28	0xbcbe0c6b	-0.02319928
29	0xbce508c4	-0.027958281
30	0x3d50fdf0	0.051023424
31	0x3b150101	0.0022736194
32	0xbaab85a1	-0.0013086089
33	0xbbbdde03	-0.005794288
34	0xbcc89fff	-0.024490355
35	0x3ce42a23	0.027852124
36	0xba82f46d	-0.0009991057
37	0x3c649ca6	0.0139533635
38	0x3c3b6bf4	0.011439312
39	0xbcc59d13	-0.02412275
40	0xbc9b682c	-0.018970571
41	0x3c5853db	0.013203586
42	0xbd2b8555	-0.041875202
43	0xbd0b8b89	-0.034068618
44	0xbc2eb226	-0.010662591
45	0x3c2ce485	0.01055253
46	0xbc6971cb	-0.014248322
47	0xbd7befcd	-0.06150799
48	0xbc46a853	-0.012125093
49	0xbc09b362	-0.008404585
50	0xbbe89cd7	-0.007098775
51	0xbd1749e5	-0.036935706
52	0xba2e8516	-0.00066574046
53	0xbccaf247	-0.02477373
54	0x3d278bd7	0.040904846
55	0x3ce67d53	0.028135931
56	0xbd4adec2	-0.049528845
57	0x3bcb6c75	0.0062079974
58	0x3cd1ca0d	0.02560904
59	0x3c7e21bf	0.015510975
60	0x3caa52bc	0.020791404
61	0x3d6bd63d	0.05757736
62	0xbd2d5870	-0.04232067
63	0x3cb69020	0.022285521
64	0x3d036581	0.032079224
65	0xbd6a2345	-0.057162542
66	0x3b45d732	0.003018808
67	0x3aa9c256	0.0012951593
68	0xbd5003d4	-0.0507849
69	0x3cd77b16	0.02630381
70	0x3cb14dc5	0.021643529
71	0xbd0618ea	-0.032738604
72	0x3c775ea8	0.015098251
73	0x3c8f5db0	0.017500728
74	0x3d020fc0	0.0317533
75	0xbd2b373f	-0.041800734
76	0xbce66445	-0.028123984
77	0xbd36e050	-0.044647515
78	0x3d62b8fd	0.0553522
79	0xbbbbc9a3	-0.005730824
80	0x3bd41143	0.0064717843
81	0xbd508b85	-0.050914306
82	0x3bb34408	0.0054707564
83	0x3d8bdd32	0.06829299
84	0x3d92cc71	0.071679
85	0xbd519ade	-0.051173083
86	0xbd547050	-0.051864922
87	0x3d573c1f	0.05254757
88	0x3d0e9103	0.034806263
89	0xbcda09cc	-0.026616
90	0x3c8732a4	0.01650364
91	0x3cdaa47f	0.026689766
92	0x3c2e7160	0.010647148
93	0x3cd0a38b	0.025468608
94	0x3c86ca68	0.016453937
95	0x38d4dc7a	0.00010150015
96	0x3c5f3993	0.013624567
97	0x3cb6910f	0.022285966
98	0xbcba56bd	-0.022746438
99	0x3d1780a4	0.036987916
100	0x3d1f80b1	0.03894109
101	0x3d8c8d28	0.06862861
102	0x3da407ae	0.08009277
103	0xbd2966ed	-0.041357923
104	0xbd3719de	-0.044702403
105	0xba6f7980	-0.00091352314
106	0x3d07c9cc	0.033151433
107	0x3c20bca1	0.009810598
108	0x3cd60e0f	0.02612975
109	0xbc6061d5	-0.0136952
110	0x3c3ad545	0.0114033865
111	0x3c060ac7	0.00818128
112	0x3c9a6b7c	0.01885008
113	0x3b348227	0.0027543397
114	0x3c24a5a3	0.0100492565
115	0x3cf6f236	0.030144792
116	0x3cf3a492	0.02974156
117	0xbc0be881	-0.00853932
118	0x3c673ea2	0.014114054
119	0x3ce42354	0.027848877
120	0xbc6e6dd1	-0.014552549
121	0x3d30b1b2	0.043138213
122	0x3d077b39	0.0330765
123	0x3cee6909	0.029102819
124	0x3b117e3e	0.002220049
125	0xbba197f9	-0.0049314466
126	0x3d585360	0.052813888
127	0x3c4daada	0.012552941
128	0xbbfe6ea9	-0.0077646566
129	0xbcce3a30	-0.02517423
130	0xbd68e2f2	-0.056857057
131	0x3dc4ac23	0.09603145
132	0x3d3638eb	0.044487875
133	0xbd06eb47	-0.03293922
134	0x3bdd91b3	0.0067617535
135	0xbd1a6e6c	-0.037702963
136	0x3b94a504	0.004536273
137	0xbc411922	-0.011785777
138	0xbc9a987f	-0.018871544
139	0x3c053b5c	0.008131828
140	0xbcad4c97	-0.021154685
141	0x3b586ac3	0.003302262
142	0xbc8ac649	-0.016940253
143	0xbd5257b0	-0.051353157
144	0xbc81b3fc	-0.015832894
145	0x3cfc3f2d	0.030791843
146	0x3d519a37	0.05117246
147	0xbcdda775	-0.027057389
148	0x3cdbf2ec	0.026849233
149	0xbd0123d9	-0.031528328
150	0xbc3aa3ca	-0.011391589
151	0xbd4090fb	-0.047013264
152	0xbbf90d2f	-0.0076004486
153	0x3c5645c2	0.013078155
154	0xbd376088	-0.044769794
155	0x3c74d560	0.014943451
156	0xbb8939de	-0.0041878065
157	0x3c107846	0.008817738
158	0xbd12a35b	-0.03580032
159	0x3c9be672	0.019030783
160	0xbbc9a8fc	-0.0061541777
161	0xbd836d74	-0.06417361
162	0x3baaaaa6	0.005208331
163	0xbcf97c09	-0.030454652
164	0x3cbac2d8	0.022797987
165	0x3d0ce8d9	0.03440175
166	0xbbe5b9d8	-0.0070106797
167	0xbc520ce3	-0.012820455
168	0x3cc5e876	0.024158698
169	0xbca69c39	-0.020338165
170	0xbd38d033	-0.04512043
171	0xbd432cc5	-0.047650117
172	0x3cb744c2	0.022371653
173	0xbc39a3b8	-0.0113305375
174	0x3d2c9272	0.04213185
175	0xbc863202	-0.016381267
176	0xbd6bf6bd	-0.057608355
177	0x3c6f65bb	0.014611657
178	0x3cf1eaf7	0.029530985
179	0xbcd8dd17	-0.026472611
180	0xbd197107	-0.037461307
181	0xbd1a1474	-0.037617162
182	0x3c4a7348	0.012356587
183	0xbd0689b3	-0.032846164
184	0x3c3a14ac	0.011357468
185	0x3bb43d78	0.0055004917
186	0xbd25611e	-0.04037582
187	0x3c18b9c8	0.009321637
188	0x3d1e718c	0.038682505
189	0xbbe46af3	-0.006970757
190	0x3c04935e	0.008091776
191	0xbbd45a6a	-0.0064805048
192	0x3cbd97c3	0.023143655
193	0x3c77898b	0.015108476
194	0xbbf083e0	-0.0073399395
195	0x3c2a6217	0.010399363
196	0x3d37b26b	0.044847887
197	0xbbe19835	-0.0068845996
198	0xbd0e0f86	-0.034682773
199	0xbc4a576c	-0.012349945
200	0x3c10e2c6	0.0088431295
201	0xbb139188	-0.0022517163
202	0x3ce541f3	0.027985549
203	0xbc91cff5	-0.017799357
204	0xbc409649	-0.011754581
205	0xbcf9d6e2	-0.030497972
206	0xbc33b20d	-0.010967744
207	0xbbb97399	-0.0056595323
208	0x3cbc323c	0.022973172
209	0xbc6955e8	-0.014241673
210	0x3b04b22f	0.0020247807
211	0xbb7b9d8d	-0.0038393468
212	0x3d938f38	0.07205051
213	0xbd1ee2ef	-0.03879064
214	0x3cad65de	0.021166738
215	0x3cf5b4fb	0.029993525
216	0xbcafb307	-0.021447672
217	0x3d062bce	0.03275662
218	0x3c61500e	0.013751997
219	0xbc525511	-0.012837664
220	0xbd2aea93	-0.041727614
221	0x3c9f80bd	0.019470567
222	0x3b603918	0.0034213718
223	0x3ced8d41	0.02899802
224	0xbc307f2e	-0.0107725095
225	0x3b760f2c	0.0037545664
226	0xbb8c4a8b	-0.004281347
227	0xbca3f952	-0.020016346
228	0x3c6fa761	0.014627309
229	0xbd0589c1	-0.032602075
230	0xbb943bb2	-0.004523718
231	0xbce79d6e	-0.02827331
232	0x3d282712	0.041052885
233	0x3a132f6c	0.00056146714
234	0x3d471081	0.048599724
235	0xbc647c3d	-0.013945636
236	0xbc822dcf	-0.015890984
237	0x3d40d259	0.047075603
238	0xbd412fb7	-0.047164645
239	0x3cb62d1e	0.02223831
240	0xbd771e32	-0.06033153
241	0xbba8a70f	-0.005146868
242	0xbd186724	-0.037207738
243	0xbd09f834	-0.03368397
244	0xbd4b6d15	-0.049664576
245	0xbcc2c8c0	-0.023777366
246	0xbcb40f14	-0.021979846
247	0x3cc034e7	0.023462726
248	0xbc547ef7	-0.012969724
249	0xbca64691	-0.02029732
250	0x3c75e394	0.015007872
251	0x3c5fbad3	0.013655382
252	0xbcb9d0d2	-0.022682581
253	0x3ceab2a9	0.028649645
254	0xbd177277	-0.036974397
255	0x3a3a00c9	0.0007095454

bias f4 [64]
0	0xbd6aac61	-0.0572933
1	0xbd7fb532	-0.06242866
2	0xbdf151c2	-0.11783172
3	0xbd3439bf	-0.044000383
4	0xbe0d3d0e	-0.13792822
5	0xbd824454	-0.06360689
6	0xbd76dcfe	-0.06026935
7	0xbd5ebf20	-0.05438149
8	0xbd84e1ee	-0.06488405
9	0xbdbf1837	-0.093307905
10	0xbd4b1332	-0.049578853
11	0xbdd9fd37	-0.10644
12	0xbd69cc5b	-0.057079654
13	0xbd452dc2	-0.04813934
14	0xbda78688	-0.08179957
15	0xbcaef47d	-0.021356815
16	0xbd882ab3	-0.06648769
17	0xbd360d88	-0.0444465
18	0xbd7755b9	-0.060384486
19	0x3cc3f38a	0.02391984
20	0xbd926f75	-0.07150165
21	0xbd173208	-0.036912948
22	0xbdbfceca	-0.09365614
23	0xbc7ebc63	-0.015547845
24	0xbe1b114d	-0.15143318
25	0xbe019c6f	-0.12657331
26	0xbda4129f	-0.08011364
27	0xbdbb1792	-0.09135355
28	0xb9cf36fc	-0.00039523083
29	0xbd3d8232	-0.046266742
30	0xbcdc57c9	-0.026897328
31	0xbdc72f13	-0.097257756
32	0xbcee77ab	-0.029109797
33	0xbd356081	-0.044281486
34	0xbddebc75	-0.10875789
35	0x3d4e3659	0.0503448
36	0xbda00fa6	-0.07815485
37	0x3cc1e3fa	0.023668278
38	0xbde08b31	-0.10964049
39	0xbd2fd5a4	-0.042928353
40	0xbdb42b2d	-0.087972976
41	0xbe10174d	-0.14071389
42	0xbd4f9528	-0.050679356
43	0xbda434e4	-0.080179006
44	0xbe462910	-0.19351602
45	0xbd860cae	-0.06545387
46	0xbd5d16e4	-0.05397691
47	0x3a22a071	0.0006203717
48	0xbd81301b	-0.063080035
49	0xbe1f685a	-0.1556715
50	0xbc7441b4	-0.014908243
51	0xbda20f89	-0.07913119
52	0x3c1edff3	0.009696948
53	0xbd169ad4	-0.03676875
54	0xbe121944	-0.1426745
55	0xbd04d666	-0.03243103
56	0xbda1bdd9	-0.07897539
57	0xbd2d9d37	-0.04238626
58	0x3ba02f48	0.004888449
59	0x3cc0381b	0.023464253
60	0x3cc3069c	0.023806863
61	0xbbf1bc9a	-0.0073772194
62	0xbd6efb97	-0.058345404
63	0xbba9d735	-0.0051831254

weight f4 [64, 1024]
0	0xbc8303bd	-0.015992993
1	0x3d31c304	0.043398872
2	0xbac2ef30	-0.0014872309
3	0x3d0b6e05	0.03404047
4	0x3d1cf59d	0.038320173
5	0x3c46ba5c	0.0121293925
6	0x3cd98cd4	0.02655641
7	0xbcb36df5	-0.021903018
8	0x3c703075	0.014659991
9	0xbd397b73	-0.045283746
10	0x3c1d58b3	0.009603667
11	0xbd56c7b4	-0.052436545
12	0xbd22f81f	-0.039787408
13	0xbd0a5aca	-0.03377799
14	0x3cb63c41	0.022245528
15	0xbbe670ff	-0.007032513
16	0xbc47f828	-0.012205161
17	0x3ab9c396	0.0014172669
18	0xbcf8e538	-0.030382738
19	0x3d034f50	0.03205806
20	0x3d21a20f	0.03946119
21	0xbcfd8b96	-0.030950349
22	0x3d2f1036	0.04274007
23	0x3d287f36	0.041136943
24	0x3d0e9702	0.03481198
25	0x3bbe62f1	0.0058101346
26	0x3ce3d3c6	0.027810942
27	0x3d526555	0.05136617
28	0x3d261501	0.040547375
29	0x3cb15ee5	0.021651695
30	0x3d107cf2	0.035275407
31	0xbc2e5c15	-0.010642071
32	0x3c11ac99	0.008891248
33	0xba289531	-0.00064309227
34	0xbd227ad7	-0.03966793
35	0xbc878574	-0.016543128
36	0x3cbdd55a	0.023173023
37	0xbc981d5b	-0.018568685
38	0x3c2d39dc	0.010572877
39	0xbd0bd5b1	-0.03413934
40	0x3ca20ff9	0.019783007
41	0x3c876d30	0.016531557
42	0xbce8a4ae	-0.028398838
43	0x3d3a9bd0	0.04555875
44	0xbba8f6c1	-0.0051563685
45	0xbc7e4905	-0.015520339
46	0xbc6584bf	-0.0140087
47	0x3ba70a48	0.005097661
48	0x3c595e3a	0.013267094
49	0x3bc231fa	0.005926368
50	0x3d4799dd	0.04873072
51	0x3c81161c	0.015757613
52	0xbbc3f0e4	-0.005979644
53	0xbd029d8b	-0.031888526
54	0x3bbe851d	0.005814208
55	0x3c994ede	0.018714365
56	0x3d8390f5	0.06424133
57	0x3d45b4cb	0.04826812
58	0x3d2aeab7	0.041727748
59	0xbc6f71b2	-0.014614509
60	0x3d5d9962	0.054101355
61	0xbd2b99fd	-0.0418949
62	0xbd147b7c	-0.036250576
63	0xbc993cb0	-0.018705696
64	0x3abbc39b	0.0014325263
65	0xbca64935	-0.02029858
66	0xbd81e97b	-0.06343361
67	0x3ce67c22	0.028135363
68	0x3ce4dd29	0.027937489
69	0xbc26b92c	-0.010175984
70	0x3bf12d6d	0.0073601515
71	0xbd1ad7d9	-0.037803505
72	0xbb069f84	-0.0020541856
73	0xbd01e430	-0.031711757
74	0x3d42c875	0.047554452
75	0xbbb38beb	-0.005479326
76	0xbd1c1caf	-0.038113292
77	0x3c3ded3c	0.011592206
78	0x3c30671c	0.010766771
79	0x3baf98a7	0.0053587737
80	0x3cf05123	0.029335564
81	0x3c83ccd8	0.016088888
82	0x3cfb9082	0.030708555
83	0x3bec229e	0.007206275
84	0xbc904632	-0.017611597
85	0xbd103e9e	-0.035215966
86	0x3d7e9603	0.06215478
87	0xbbad6208	-0.0052912273
88	0xbd2d461b	-0.042303186
89	0xbc055afc	-0.008139368
90	0xbc90e673	-0.017688012
91	0xbc01955b	-0.007909144
92	0xbbc67c08	-0.006057266
93	0xbb25c042	-0.0025291597
94	0xbc459d77	-0.012061468
95	0xbca3b982	-0.019985918
96	0xbc0b6817	-0.008508704
97	0x3c9ffb59	0.019529032
98	0xbca9e0e2	-0.020737115
99	0xbcc959d0	-0.024578959
100	0xbc02c400	-0.0079813
101	0x3c721e5a	0.014777744
102	0x3b1f7838	0.002433313
103	0x3acf38ab	0.0015809735
104	0xbd170250	-0.03686744
105	0xbc1c8f23	-0.009555611
106	0xbb86e2ee	-0.0041164076
107	0x3c91cc6b	0.01779767
108	0xbca27ed5	-0.019835869
109	0xbb8dd818	-0.004328739
110	0xbc16b1bf	-0.009197651
111	0xbd2bfb87	-0.041987922
112	0x3d48809c	0.048950776
113	0xbd70be49	-0.05877522
114	0xbd4d7a2b	-0.050165337
115	0x3d0ebdd3	0.034849
116	0x3c8f0144	0.017456658
117	0x3cc277a1	0.023738684
118	0xbd693d77	-0.056943383
119	0x3d1aab00	0.037760735
120	0x3cb2d683	0.021830803
121	0x3c806b53	0.015676176
122	0xbc7baf3e	-0.015361605
123	0x3c2624a1	0.010140569
124	0x3d5a9fea	0.053375162
125	0x3c97ee9c	0.018546395
126	0x3ceb016f	0.028687207
127	0x3cda5d99	0.026655959
128	0xbd40aa35	-0.047037322
129	0x3ae987db	0.0017816977
130	0xbc0ac00c	-0.008468639
131	0xbcb44ca0	-0.022009194
132	0x3ce25022	0.0276261
133	0xbc7ed28c	-0.015553128
134	0xbcfbb1a2	-0.03072435
135	0x3c6a71f8	0.014309399
136	0x3c974b3f	0.018468497
137	0xbc14de89	-0.00908626
138	0xbc59358c	-0.0132573955
139	0xbd0af362	-0.033923514
140	0xbd26b87b	-0.040703278
141	0x395188f6	0.00019982815
142	0xbcad84eb	-0.021181544
143	0xbbb6d701	-0.0055798297
144	0x3ca67b3e	0.020322438
145	0xbc9f4053	-0.019439852
146	0xbd049c7e	-0.032375805
147	0xbc8d62fb	-0.017259112
148	0x3a5cc1ee	0.0008421232
149	0xbd156e33	-0.036482047
150	0xbd10fe3a	-0.0353987
151	0x3cbb3bf0	0.022855729
152	0xbc10a503	-0.008828404
153	0xbbacee61	-0.0052774404
154	0x3c5027aa	0.012704769
155	0x3cc49543	0.023996955
156	0x3c7e51cf	0.015522434
157	0x3cfaa64d	0.030596877
158	0xbb09a5fa	-0.002100347
159	0x3c5d5107	0.013508088
160	0x3c82e242	0.015977029
161	0x39fa65f0	0.00047759665
162	0xbd3eb4ad	-0.046559025
163	0xbd6b6788	-0.057471782
164	0x3ca34ca9	0.019934015
165	0xbc8be0a8	-0.017074898
166	0x3c2b1d61	0.010444016
167	0xbca6aeea	-0.020347077
168	0xbd19a081	-0.037506584
169	0x3cdb0c1a	0.026739169
170	0xbbba9d32	-0.0056950087
171	0xbc9682ad	-0.018372858
172	0xbc3bdad6	-0.011465749
173	0xbc042847	-0.0080662435
174	0xba71defe	-0.0009226649
175	0xbba93e45	-0.005164894
176	0xb9d177f0	-0.00039952947
177	0xbc69d1f6	-0.01427125
178	0xbc824986	-0.0159042
179	0x3c9a5d60	0.018843353
180	0x3d2c243f	0.042026754
181	0x3d124ad5	0.035715897
182	0xbd0fe6e4	-0.035132304
183	0xbc0a843a	-0.008454377
184	0xbc9fbfde	-0.01950067
185	0xbb439d6e	-0.0029848474
186	0x3c89b178	0.016808257
187	0x3d0b373e	0.03398823
188	0xbc02b358	-0.007977329
189	0x3b88fc65	0.0041804784
190	0x3c3b42cd	0.011429501
191	0xbd2d097c	-0.042245373
192	0xbb6c6a32	-0.003607404
193	0x3c086525	0.008324896
194	0x3c08554b	0.008321117
195	0x3c438ded	0.011935693
196	0x3c078483	0.008271339
197	0xbdc8f94c	-0.098131746
198	0xbcb12c5a	-0.021627594
199	0x3d21aeea	0.03947345
200	0x3c9f65e7	0.01945777
201	0x3d2648ec	0.040596887
202	0xbd25078b	-0.040290397
203	0x3c8d4351	0.017244013
204	0xbc6d5423	-0.014485392
205	0xbb824d1d	-0.003976478
206	0x3d2a3bae	0.04156082
207	0xbd1db91a	-0.038506605
208	0xbc0f9a3f	-0.0087648025
209	0x3d251c03	0.040309917
210	0x3c04f72a	0.008115569
211	0x3d6531d2	0.055955715
212	0x3b54fe71	0.0032500292
213	0xbd0915a4	-0.033467904
214	0xbd170321	-0.03686822
215	0xbbd970a1	-0.006635741
216	0x3d21e4d5	0.03952487
217	0xba04254e	-0.0005040959
218	0xbc283fbf	-0.0102691045
219	0x3bf6db21	0.0075334464
220	0xbd09f225	-0.033678193
221	0xbb6c86b0	-0.0036091022
222	0xbc8d2b51	-0.017232569
223	0xbccb05de	-0.024783071
224	0x3c2b5534	0.010457326
225	0x3b5bbf98	0.0033530947
226	0x3cb21330	0.021737665
227	0xbc2a7960	-0.010404915
228	0xbcf6a217	-0.030106587
229	0x3bfacae8	0.007653583
230	0xbd346526	-0.044041775
231	0x3ceec25c	0.029145412
232	0x3cc02235	0.023453811
233	0x3c617cc9	0.013762661
234	0x3d251b70	0.04030937
235	0x3c4dfb9c	0.012572195
236	0x3c0e0031	0.008667038
237	0xbc814e36	-0.015784364
238	0x3c2e4a46	0.010637825
239	0x3c196457	0.009362302
240	0x3cdf903f	0.027290462
241	0x3b09fcf8	0.0021055322
242	0xbbf01ff2	-0.007328027
243	0x3bb515e4	0.005526291
244	0x3cfbed8d	0.030752921
245	0xbbd24637	-0.0064170617
246	0xb9ef37e6	-0.0004562728
247	0xbc05a831	-0.008157776
248	0xbcd57c34	-0.026060201
249	0xbc7da25a	-0.015480602
250	0xbca5a152	-0.020218525
251	0x3d310fa4	0.043227807
252	0xbbb5cd5d	-0.005548163
253	0x3bc71b23	0.006076233
254	0xbc41ffce	-0.011840774
255	0x3c98b45a	0.018640686

bias f4 [64]
0	0x3b9cd0af	0.004785619
1	0x3c77b851	0.015119628
2	0xbca07eb7	-0.019591672
3	0xba4a87cb	-0.0007725923
4	0xbabbae7d	-0.0014318969
5	0x3c0eb170	0.008709297
6	0x3b5898e0	0.0033050105
7	0xbd0de13f	-0.03463864
8	0x3c907509	0.017633932
9	0xbd225546	-0.039632104
10	0x3d66c2cf	0.056338128
11	0x3d6d6118	0.057953924
12	0x3d1c2e9a	0.03813038
13	0x3c4677cb	0.012113522
14	0xbcd54117	-0.026032014
15	0xbcd60ac2	-0.026128177
16	0xbcfe05fa	-0.03100871
17	0xbcfefd30	-0.031126589
18	0xbd23c670	-0.039984167
19	0xbc676401	-0.014122964
20	0xbd5639c1	-0.052301172
21	0xbcf17d35	-0.029478649
22	0x3d25a7a1	0.040443067
23	0xbb6fc578	-0.0036586206
24	0xbd260f5c	-0.04054199
25	0x3affd700	0.0019519031
26	0xbd887ae9	-0.06664068
27	0x3b1165cc	0.002218592
28	0xbc9ca548	-0.019121781
29	0x3d6b9e3d	0.057523955
30	0xbd243223	-0.040086877
31	0xbd5bab02	-0.053629883
32	0xbcd7f84b	-0.026363513
33	0x3cd35baa	0.025800545
34	0xbd3b6da6	-0.045758866
35	0x3bf7df58	0.0075644664
36	0x3d388bce	0.045055203
37	0xbc8e9d09	-0.017408865
38	0x3d25e625	0.040502686
39	0x3d66e618	0.05637178
40	0x3c8326ec	0.01600977
41	0x3d00e8f8	0.031472176
42	0x3d3b136f	0.04567283
43	0x3cac7dc9	0.021056073
44	0x3d24e623	0.040258538
45	0xbd0371a5	-0.0320908
46	0x3c2909d0	0.010317281
47	0x3d33a23e	0.043855898
48	0x3ccc2aef	0.024922816
49	0xbd5a7dfa	-0.053342797
50	0x3cac3ff4	0.021026589
51	0xbc9f9b33	-0.019483184
52	0xbd59f8bf	-0.05321574
53	0xbd02bfe8	-0.031921297
54	0x3d218982	0.03943778
55	0x3d13b09a	0.036057092
56	0x3c8f95ca	0.01752748
57	0x3cb21c7c	0.021742098
58	0xbced24e2	-0.028948251
59	0xbd2ce105	-0.042206783
60	0xbcdd6f42	-0.02703059
61	0xbd0b0e5b	-0.033949237
62	0xbd0cf8c7	-0.03441694
63	0x3c1bdd26	0.009513175

weight f4 [10, 64]
0	0xbdbee790	-0.09321511
1	0xbe7aedd8	-0.24504793
2	0x3dedefc2	0.11617996
3	0xbd354e4b	-0.04426412
4	0x3e189e67	0.14904176
5	0x3db267e4	0.08711222
6	0xbe25eb19	-0.16202964
7	0x3cd367f7	0.02580641
8	0xbe810f0c	-0.25206792
9	0xbe3e029a	-0.1855568
10	0xbe6b53b5	-0.2298115
11	0xbd0a1faf	-0.033721622
12	0xbe3d2d10	-0.18474221
13	0xbd834f87	-0.06411653
14	0x3daa1c15	0.083061375
15	0xbc15b7c3	-0.0091380505
16	0x3e4e12ea	0.20124403
17	0xbd9935e4	-0.07480982
18	0x3e8174d9	0.2528446
19	0xbd7c5d29	-0.061612282
20	0x3e4a0ed9	0.19732226
21	0xbc25c9d2	-0.0101189185
22	0x3e186563	0.14882426
23	0xbe4ef30a	-0.202099
24	0xbd8ae86b	-0.067826115
25	0x3e3d42e7	0.18482552
26	0x3e1896aa	0.14901224
27	0xbe611d97	-0.21983944
28	0x3e98fb81	0.29879382
29	0xbe54260c	-0.20717639
30	0xbe8907af	-0.26763675
31	0x3ce17e37	0.027526004
32	0x3e935473	0.28775367
33	0xbe802704	-0.25029767
34	0xbd1dbae2	-0.038508303
35	0xbe215da6	-0.1575838
36	0x3caa8054	0.020813145
37	0xbe55c82e	-0.20877144
38	0xbdf0cb78	-0.117575586
39	0x3d567138	0.052354068
40	0xbdc35175	-0.09537021
41	0xbe40e707	-0.1883813
42	0xbeba5531	-0.3639312
43	0xbe1361a7	-0.1439272
44	0x3dfa015e	0.12207292
45	0x3de5f3be	0.11228131
46	0xbb26c4a6	-0.0025446801
47	0xbe4449f7	-0.1916884
48	0x3db0388a	0.08604534
49	0x3e47d927	0.19516431
50	0x3e211ef6	0.15734467
51	0x3ea2ae76	0.31773728
52	0x3d8e0c12	0.06935896
53	0x3eaad1b8	0.33363128
54	0x3d4e108b	0.050308745
55	0xbddefbe0	-0.10887885
56	0x3d4dc048	0.0502322
57	0x3e1912a8	0.14948523
58	0xbe0fd654	-0.14046603
59	0x3e0f8a5d	0.14017625
60	0x3e075650	0.1321652
61	0x3e591a0f	0.21201347
62	0x3d90d29b	0.0707142
63	0xbe9e71c6	-0.30946177
64	0x3c3ac442	0.011399331
65	0x3e83559a	0.25651246
66	0xbecdec1c	-0.402192
67	0x3c1533c4	0.00910658
68	0xbeb605b4	-0.35551226
69	0xbe5c0a35	-0.21488269
70	0xbe8f611c	-0.28003776
71	0xbe3fb242	-0.18720344
72	0xbe56b246	-0.20966443
73	0xbe4f4d71	-0.20244385
74	0xbe04d239	-0.12970819
75	0x3d1b2912	0.037880965
76	0x3e62c00b	0.22143571
77	0xbd03d99f	-0.03218996
78	0x3de86be3	0.11348703
79	0xbe88d3ca	-0.26724082
80	0x3e3f9f7a	0.18713179
81	0x3b450824	0.0030064667
82	0xbe5457e2	-0.2073665
83	0x3eb005c7	0.34379408
84	0xbdaef6ec	-0.0854319
85	0x3e5737e4	0.21017414
86	0x3ea054a5	0.3131458
87	0x3ea30d28	0.31845975
88	0x3e3a2e1a	0.18181649
89	0xbe694a33	-0.22782211
90	0x3e43806d	0.1909196
91	0xbe2d8137	-0.16943823
92	0xbe5ec2e0	-0.21754026
93	0xbe97527a	-0.29555112
94	0xbe8044d5	-0.25052515
95	0x3e742c0b	0.23844926
96	0xbe6d1323	-0.23151831
97	0xbe80c6a3	-0.25151548
98	0x3eccfb01	0.4003525
99	0xbc94269d	-0.018084818
100	0xbd99110a	-0.07473953
101	0xbdc4eeef	-0.096158855
102	0xbcf45da3	-0.029829806
103	0x3e4ba172	0.19885805
104	0x3d1c2162	0.038117774
105	0xbe23724d	-0.15961571
106	0x3aeaa420	0.0017901696
107	0x3dd1cee9	0.10244543
108	0xbd70b593	-0.058766913
109	0xbe460853	-0.19339113
110	0xbec5f5d9	-0.3866413
111	0x3e0db62c	0.13839024
112	0xbe401045	-0.18756206
113	0x3d99c38f	0.07508003
114	0xbe9ff92e	-0.31244797
115	0xbc42d34e	-0.011891199
116	0xbe87e35d	-0.26540652
117	0xbd001858	-0.031273216
118	0x3ccaf11b	0.024773171
119	0x3d8db96d	0.06920133
120	0xbe357969	-0.17722096
121	0xbe726530	-0.23671412
122	0x3e81f52d	0.25382367
123	0xbd72e856	-0.059303604
124	0xbe8174bf	-0.25284383
125	0x3d5dc23c	0.054140314
126	0x3d482560	0.04886377
127	0xbe95fb28	-0.2929318
128	0xbdf1c8c7	-0.11805873
129	0xbdbb9691	-0.09159578
130	0x3eacdc45	0.33761802
131	0xbce09e3a	-0.027419198
132	0x3e7d89c0	0.24759579
133	0x3e956916	0.29181737
134	0x3deccfad	0.115630485
135	0x3dbedf50	0.09319937
136	0x3e906e74	0.2820927
137	0x3e5a9121	0.21344425
138	0xbde29292	-0.11063112
139	0xbe8631e8	-0.2620995
140	0xbc88f60f	-0.016718892
141	0x3d3ccd63	0.04609431
142	0x3e69dd22	0.22838262
143	0xbd36dca3	-0.04464401
144	0xbe58001e	-0.21093795
145	0x3e24a334	0.16077882
146	0x3e0700b9	0.1318387
147	0xbe335ef4	-0.1751669
148	0x3e854dbd	0.26035872
149	0xbe227e97	-0.15868603
150	0x3c397601	0.011319638
151	0x3dc2ee36	0.095180914
152	0xbe5e2643	-0.21694283
153	0x3e7f109a	0.24908677
154	0xbe976fdb	-0.29577526
155	0x3dd40438	0.10352367
156	0x3e25230d	0.16126652
157	0xbe3eb9ee	-0.18625614
158	0x3c0fabc7	0.008768982
159	0xbe4c4e6b	-0.19951789
160	0xbe93cdba	-0.28867894
161	0xbd6e1ef2	-0.05813498
162	0x3c0c4c70	0.008563146
163	0xbe3b5f3e	-0.18298051
164	0x3e469354	0.19392139
165	0x3e86f0aa	0.26355487
166	0xbe0d7009	-0.1381227
167	0x3d88cade	0.06679319
168	0x3e656ea4	0.22405487
169	0x3e7c07da	0.2461237
170	0x3d2ecd38	0.04267618
171	0xbd981af5	-0.07427017
172	0x3c830125	0.015991757
173	0xbdbf764d	-0.09348736
174	0x3e3cf2f3	0.18452053
175	0x3e336ff2	0.17523172
176	0x3c3612aa	0.011112848
177	0xbd889b93	-0.066702984
178	0xbd45e77c	-0.048316464
179	0x3db7a7ea	0.08967574
180	0x3e32ce29	0.17461456
181	0x3e6b2cd8	0.22966325
182	0xbe450666	-0.19240722
183	0xbe0e528c	-0.13898677
184	0xbc1ba38b	-0.009499441
185	0xbe11cdad	-0.14238615
186	0xbd496b39	-0.04917452
187	0xbe313c61	-0.17308189
188	0x3d5fdd6b	0.05465452
189	0x3e840a5b	0.2578915
190	0x3e465fae	0.19372436
191	0x3c96b342	0.018396024
192	0x3ceff738	0.029292688
193	0xbcc899a7	-0.02448733
194	0x3e5c8d2d	0.2153823
195	0xbda823f4	-0.082099825
196	0xbda3459a	-0.0797226
197	0xbd21fefa	-0.039549805
198	0x3e6d7780	0.23190117
199	0xbdbab9e6	-0.091174886
200	0x3dfa1324	0.12210682
201	0x3d9cea7f	0.07661914
202	0xbe129622	-0.14315084
203	0xbdc26f1a	-0.09493847
204	0xbe0fb7f7	-0.14035021
205	0x3e53a185	0.20667084
206	0xbe89a4cf	-0.2688355
207	0x3dcf205e	0.101135954
208	0x3d5b9509	0.053608928
209	0x3d10ce53	0.035353016
210	0xbddeebbc	-0.108848065
211	0xbd76966a	-0.06020204
212	0x3a2eb8aa	0.00066650903
213	0xbd8f6445	-0.07001547
214	0xbe4c18ff	-0.1993141
215	0xbdb4cefa	-0.0882854
216	0xbc0e408f	-0.008682384
217	0xbca0dbb2	-0.019636009
218	0x3e718e92	0.23589543
219	0xbe064949	-0.13113894
220	0x3e0748ec	0.13211411
221	0x3e772693	0.24135809
222	0x3df84f99	0.12124557
223	0xbe0140bc	-0.1262235
224	0xbe23f40f	-0.1601107
225	0xbad17ae3	-0.0015982058
226	0x3d000644	0.031255975
227	0xbdbac258	-0.091190994
228	0x3b5ab21e	0.0033370326
229	0xbd8ca9f3	-0.06868353
230	0xbe577f74	-0.21044713
231	0xbe9d9ba9	-0.30782822
232	0xbe2e0260	-0.16993093
233	0xbafb6e46	-0.0019182644
234	0x3e87cce7	0.26523516
235	0x3e87e690	0.26543093
236	0xbe0dbccc	-0.13841552
237	0x3da064e8	0.07831746
238	0xbd0bbd25	-0.03411593
239	0x3e177eb0	0.14794421
240	0x3d7922bf	0.060824152
241	0xbd9522cd	-0.07282028
242	0x3d0783a8	0.03308454
243	0xbe3e2442	-0.18568519
244	0xbdd3a12c	-0.103334755
245	0x3deaffa2	0.11474539
246	0x3d914156	0.0709254
247	0x3e48c8e2	0.1960788
248	0xbe60a20d	-0.21936817
249	0x3e4ceac2	0.20011428
250	0x3d6fe4ec	0.058567926
251	0x3e3bcbdb	0.18339483
252	0x3da9397e	0.08262919
253	0xbcb8c812	-0.022556338
254	0x3d7cb33e	0.061694376
255	0x3e5175ea	0.20455137

bias f4 [10]
0	0xbde65d92	-0.11248316
1	0xbd4ea348	-0.050448686
2	0xbdd120fa	-0.10211368
3	0x3da0bfae	0.0784906
4	0x3d76bbf1	0.06023783
5	0xbdb8bfdc	-0.09020969
6	0x3e31cd08	0.1736337
7	0xbdbe2f5c	-0.09286377
8	0xbd0809a4	-0.03321232
9	0xbd9b4b05	-0.07582668
