models/xue_18.pth (torch, 587967 bytes, 10 tensors)

weight f4 [32, 3, 5, 5]
00000000: af83 d8bd 2d54 a23d 9722 953d 8777 de3c
00000010: 4ce5 783d 48bd 193c 37ef 91bc f6de 2f3d
00000020: 3a5a 98bd c674 903d 17d7 adbd 7af7 dcbd
00000030: e6d0 6cbe 060c 95bd 5de3 85bd 19d7 07bd
00000040: 0cc2 093c 4dea 12be 9ff9 6ebd db67 3ebc
00000050: 6067 20bd 9321 5f3d 9789 e13d 051d 253d
00000060: 9c5f d03d cf84 ccbc 3a4a 833d 5b13 ec3d
00000070: 853d 57ba 1c3d d4bd 6bed 3e3d d47b d73c
00000080: 3529 2a3e a28f 973a f4d5 9cbd c160 3bbd
00000090: acf6 bbbd e16e 07be d12d d7bd 4149 9ebd
000000a0: 01ae d43d 5cd3 27bd 3bf6 2b3b b0d2 80bc
000000b0: 1627 e83d 3ae9 763d 77cf 733c 112d 3a3d
000000c0: 9e22 51bb f828 e0bd eecb f63c d4e9 bb3d
000000d0: 653d 403e de36 273d 2821 96bd f6a6 c93d
000000e0: dc6c cd3d 6b65 813d f373 393e c312 963d
000000f0: e805 81bd c985 c7bd 959d 963d 2b3f cc3d
00000100: 1b9f 84bb 501d e43d 9d36 d5bd 26e1 d1bd
00000110: 4a6c 4fbd d3f2 ba3d 0f85 013d 960f 3cbd
00000120: e83b d5bc f865 f3bd f9b2 893d 57cf 933d
00000130: 3069 0abd 1b45 5fbd ee77 343c 1802 1bbe
00000140: 2980 dcbc cb5d 903d cbbb ae3d af07 d4bc
00000150: 03f8 c2bc 138b f73d 3a9d 9a3d 15cb b43d
00000160: 68e6 0bbd e15a 1fbe 6559 01be 663b 29be
00000170: 46ee 4ebd 7aee 9ebd 08b8 62bd ece4 2cbc
00000180: a9fc 9dbd af2c 6a3d e796 763d cf6c 1c3e
00000190: 5067 143e becd 0f3e 4c5e b63d 9602 56bd
000001a0: 651d c0bd 34cd d33d 379b ad3d 5735 273e
000001b0: 5f9b 133b 7b3b fb3c ab9e 073e 0cb4 cf3c
000001c0: 2cfe f6bd a5f6 9e3d 87a2 703d 9cf2 e3bc
000001d0: 2fbe 16be 1f2a 11be a88e 16be 3b32 09be
000001e0: 1346 b33d bdcf 07be 5c02 25bc f5a3 bc3d
000001f0: b92e df3d 8f3a 0d3e 3d2d 1e3e cf95 933d
00000200: 07c1 e23c 50e9 f7bb 5a64 4bbd 174d bc3d
00000210: 8894 78b9 12f5 613d bce3 d03d 90b4 75bd
00000220: 4ec3 a73d 37d7 dabd d496 1e3d f77d 09be
00000230: a373 72bd 18ae 3dbd 3917 d6bd e30e 16bd
00000240: ca14 83bd f2d4 873d 26ae d4bd d66d 4cbd
00000250: 9b16 2b3c fc26 9b3d 7b88 403d 0849 223e
00000260: cc3a d8bd b69d 4cbe e1b1 a0bd 2044 9a3c
00000270: d6fe 613e feaf 923b e532 1fbc 7ce4 d4bd
00000280: e658 833c 10cd 6d3e 2bbe 0b3d fb65 23be
00000290: 5d09 6cbe 4e85 313e 8f82 163e 1379 2fbd
000002a0: c422 e53c 74e4 60be 762b 283d cd70 5e3d
000002b0: bdfe b8bb 4cfb 3f3d e690 97bd 5901 203e
000002c0: 7022 c73d b5d2 50ba ae2c 9fbd 9002 4bbc
000002d0: 6fd4 513e 90bd cc3d 8eaa dabd 62d3 66be
000002e0: ccbe abbd 4547 403c 16f7 793e d215 b03d
000002f0: 1588 72be b132 90bd 552e 243e 999a 973b
00000300: 099f 5c3d f44b 47be 27d6 5fbe 45cb c83d
00000310: cdfe 193e 957a 04bd 2103 86bd 872f 09be
00000320: 8e19 023e 1102 a43c 7266 b0bd 2347 34be
00000330: 01ff 7d3d 656d 233e 0316 0b3e 9789 fabd
00000340: 3b31 79be ef83 28be 3f99 403e e40a 583e
00000350: bb8e dcbd 79e1 e8bd d569 53bd 80b6 163e
00000360: e14b 2cbc 3a18 ad3d f8c5 88bc 0aa8 4dbe
00000370: 078a 4d3d 84e8 1a3e 3974 153d 0b28 febd
00000380: 74d5 14be 17ba 2bbd 9a67 f0bc 5b80 12bd
00000390: 8563 fabd 8265 f2bc 7e88 963c 463d 03bd
000003a0: 1ab8 ba3d dadc ad3c f0e1 34bc 7f2f b0bd
000003b0: 4ad1 0fbe 281e a9bd 5e86 b33d 1acf 113d
000003c0: b4be 58bd 81e0 0abe a49a 7ebe dc89 62be
000003d0: 9a1d 47bd 201b 793d 50bb cbbd 8b54 6ebd
000003e0: 7146 413c ac3a 84bd 6e1c bfbd 99b5 74bd
000003f0: 5e27 a33d 5258 90bd d713 2dbd e86b fd3d
-0.10571992 0.079262115 0.07281988 0.027156604 0.06076555 0.009383507 -0.017814262 0.04293724
-0.07439084 0.07053523 -0.08488291 -0.1078939 -0.23126563 -0.07277684 -0.06537507 -0.033164117
0.008408081 -0.14347191 -0.058343526 -0.011621441 -0.039161086 0.05447538 0.11012571 0.04031088
0.10174486 -0.024965672 0.06410642 0.11527129 -0.0008210766 -0.10363218 0.04661314 0.026304163
0.16617282 0.0011563192 -0.07657996 -0.04574657 -0.09177908 -0.1322589 -0.10506786 -0.07728816
0.10384751 -0.040973052 0.0026239294 -0.015725464 0.1133558 0.060281016 0.014881006 0.045453135
-0.0031911503 -0.10945314 0.030126538 0.091754586 0.1877342 0.04082381 -0.07330543 0.098462984
0.10030529 0.06318172 0.18110637 0.07327797 -0.06299955 -0.09742314 0.07354275 0.09972986
-0.004047287 0.111384034 -0.10410807 -0.10248022 -0.050640382 0.09128346 0.031621035 -0.0459133
-0.026029542 -0.11884683 0.067235895 0.07217281 -0.03379172 -0.054509263 0.011014922 -0.15137517
-0.02691658 0.070491396 0.085319124 -0.02588257 -0.023799902 0.12087073 0.0754952 0.08827797
-0.03415528 -0.15562011 -0.12631758 -0.16526565 -0.050520204 -0.077603295 -0.055351287 -0.010552626
-0.07714207 0.05717152 0.060202505 0.15275882 0.14492536 0.14043328 0.089047045 -0.05224856
-0.093806066 0.10341874 0.084768705 0.16328941 0.0022523028 0.030668011 0.13244121 0.025354408
-0.12060198 0.077618875 0.05874875 -0.027825646 -0.14720987 -0.14176224 -0.14702857 -0.13398068
0.087536 -0.1326284 -0.010071363 0.0921096 0.108975835 0.1379187 0.15446945 0.07206308
0.027679933 -0.007565655 -0.04965625 0.09194391 -0.00023706455 0.055165358 0.10199687 -0.05998665
0.08191548 -0.1068558 0.03871806 -0.13426958 -0.05919231 -0.046308607 -0.10453648 -0.03663529
-0.064004496 0.06632413 -0.10384779 -0.049909435 0.010442401 0.07575795 0.047005158 0.15848172
-0.105580896 -0.19982037 -0.07846428 0.018831313 0.22069868 0.0044765463 -0.009716724 -0.103951424
0.016033601 0.23222756 0.034116905 -0.15956871 -0.23050447 0.17336008 0.14698242 -0.042840075
0.02797068 -0.21962148 0.041057073 0.054306794 -0.0056456015 0.046870515 -0.07400684 0.15625514
0.09723365 -0.0007965968 -0.07772194 -0.012390748 0.20491193 0.09997094 -0.10677062 -0.22541574
-0.08386001 0.011735742 0.24410662 0.08597912 -0.23684724 -0.070409186 0.160333 0.004626584
0.053862605 -0.19462568 -0.21859036 0.098043956 0.15038605 -0.032343466 -0.065435655 -0.13397036
0.12705061 0.020020517 -0.0861329 -0.17605262 0.06201077 0.159597 0.13582616 -0.122332744
-0.24335186 -0.16456579 0.18808459 0.21097904 -0.10769411 -0.113711305 -0.0516146 0.14718056
-0.010516138 0.084518865 -0.016695961 -0.20083633 0.05018046 0.1512776 0.03648779 -0.12409981
-0.14534551 -0.041925516 -0.029346276 -0.03576694 -0.12226013 -0.029589418 0.018375631 -0.032040857
0.09117146 0.021223474 -0.011040196 -0.08602809 -0.14044681 -0.08257705 0.08765863 0.035597898
-0.052916244 -0.13562204 -0.24863678 -0.22122902 -0.048612215 0.060816884 -0.099478364 -0.058186095
0.01179658 -0.06456503 -0.093315944 -0.059743498 0.07966493 -0.07048096 -0.04225525 0.12374097

bias f4 [32]
00000000: 842e debd 2ce8 5cbe 59f4 afba 31dc 0abe
00000010: 8e76 7fbe 0333 c7be 9b3c ce3d 90f1 3b3c
00000020: 1485 a0bd 980b e8bd 88a5 86be 8bc6 6cbe
00000030: f7d2 9fbe 7ef4 f0bd 245b 3bbd 355c 283e
00000040: 0159 dbbd e459 cdbc 7094 80be 3dde 9abe
00000050: 48b9 0d3d 5a91 5d3e 0eed 13be e67e 2d3e
00000060: ce2e d73c fe9b e73d 1aab 813d 377a f53d
00000070: 4761 063e c4bb ca3b fa99 113e 0cb9 913d
-0.10848716 -0.21572942 -0.0013424262 -0.13560559 -0.24947569 -0.38906106 0.10070153 0.011471167
-0.07837883 -0.11330336 -0.26298165 -0.23122613 -0.3121564 -0.11765383 -0.045741215 0.16441424
-0.107103355 -0.025067277 -0.2511325 -0.3024768 0.034600526 0.21637478 -0.14445898 0.16942939
0.026267435 0.1130905 0.06331463 0.11986201 0.13123046 0.006186934 0.14218894 0.07115373

weight f4 [32, 32, 5, 5]
00000000: 1dbe ef3c daed 223c 5642 d63c d242 3b3d
00000010: 3f71 f53c e3fc 34bc 5e1b f83c c92d 0f3d
00000020: a351 56bc 4f4a 01bc 5211 77bc 113b 263d
00000030: c9c3 693c 2504 6bbb 1598 3c3d 4d6f ba3c
00000040: fb7f 01bc 37b8 763b 7a89 6a3b 3dda cebc
00000050: 5fcd dd3c 24a6 933c 7e8e edba 6967 da3c
00000060: 8efd 17bc 63d6 123d a7cd 993b f4f1 f43c
00000070: ad2b 143c 8fcc 913c bf7f 67bc f4cc 173d
00000080: 883f 303c 15fd 4c3d ce20 f93c 9040 d63b
00000090: 20e9 323d e558 633c 217e 6b3c 8d8c 10bc
000000a0: ab8b b63b 5939 033d 9cdd 8bbc 2d91 2ebd
000000b0: e49a 00bd 0c03 b4bc 4f94 06bd 1db4 d73c
000000c0: c5a5 433d 814c 253d 4dfa 583c 5c60 e1b8
000000d0: 3f2c 9fbc 9fca 0bbc 55ce 94bc 926b f6ba
000000e0: 547f 78bc 4fae a3bb b10f c93c b7b7 0abc
000000f0: 3707 21bc bdbe b83c 5a11 41bc 9454 b8bc
00000100: f18b 76bc 0be3 56bc 574e 473c 0491 f9bc
00000110: 0007 473a 0434 933c 91c9 b6bc 3017 eebc
00000120: b7fd 21ba d2ef 30bc 722a a83c 011d 05bd
00000130: 5aba 823c ff4d e13b 1c14 283b ef87 bb3c
00000140: e4be 993c 09d0 233d 11c5 debc 7eff dabc
00000150: b60e c73c baaf 053d f18c 703c 5a93 d63c
00000160: baf0 8bbb d3d1 3b3d 30d7 1f3d 5694 2f3d
00000170: e222 443d 3565 253d 1320 00bd 077f 0dbc
00000180: ac6f 223c 9e90 3cbc a5ff 493d a01e 6d3c
00000190: f627 0a3c 57a2 853c a163 d13b 79e7 d83c
000001a0: 1371 0f3d a98d 143d d2e9 783b 1a79 04bd
000001b0: b5b7 c23c 0d84 85bb f118 0c3d 0ade ac3c
000001c0: 6eab 703c 57d2 b1bb d1d3 a5bc d63f d6bc
000001d0: 9709 eebb 7173 b1ba 4284 213d 0bde dc3c
000001e0: e2c7 153d 5fbc 313d 3d63 93bc 76d8 74bc
000001f0: 3dd2 ddbc fd27 e03b a104 4b3d cc80 863d
00000200: fac4 8e3d d43b 203d a449 143d aef2 503d
00000210: 2efa 9fb9 47b9 0c3c 7eac 31bb 9aef e63c
00000220: 817e 5c3d dda2 be3c d545 1c3c 72c5 9d3c
00000230: 0deb aa3c 2af5 ba3b 21ce a3bc 4aee a93a
00000240: b9c1 93bc 96c9 9d3c d0f5 86bc 04de f6bb
00000250: 3522 91bb 2ae7 05bc a655 55bd 5837 4ebc
00000260: fbf5 59bb bcfa ca3b 2203 883b 6b42 7e3c
00000270: 1698 38bb 1acd 403d e344 fabb d9ad f53b
00000280: ba8a d5bc a0f5 0d3d 0da5 f03c a397 793c
00000290: c35a 493c 4a61 c23c 7f19 8d3d c654 1a3d
000002a0: 6d02 6b3c 5484 403c ad78 db3c 1936 833d
000002b0: 8f25 683d 8838 843d 8c72 103c 004a 78bb
000002c0: 5fc8 083d da92 1abc 007c e1bc 2cf0 ab3b
000002d0: 13d3 ec3c d9d4 b8bc aaaf 363d 58c6 203c
000002e0: 7b72 133d 8af7 0a3d e9a2 0b3d 8f56 433d
000002f0: 208c 133c 9a40 a5ba 0bbf 0a3d 9a32 e43c
00000300: 0894 28bc f49d 093d 1e5d 093c 9325 323c
00000310: 894f a03c 5962 1c3c b30f 213d db33 5cbc
00000320: ebf0 c9bc 9207 f6bc e55b 68bb 8cc1 af3b
00000330: e9c6 aa3b bf3e e0bc ec83 723c 3041 923c
00000340: 5b03 4e3c d4e6 acbb 14a1 90bc f5d1 8abb
00000350: 41df 823c ac33 463c 297b 72bb e591 1f3d
00000360: 0e4e a83d 5e95 a43d beba a63d 4607 073d
00000370: aa02 603d f7c6 073d 0018 653c b6ac f3bc
00000380: 9262 f1bc 65e9 a53c b517 bc3c c2b7 933c
00000390: 9330 3c3c 5faa 27bd e223 dbbb 3ec0 af3c
000003a0: eda9 e83c 40c4 0c3c c6df 37bc ec35 cd3c
000003b0: e195 793c 27d1 5f3a e437 eabc ffb6 c6bc
000003c0: faf6 613d 20e2 6e3d 134b 4e3d 9201 243d
000003d0: 7ef1 873c 9560 a03a 3138 643c ab8d 9a3c
000003e0: 883b 8f3c 3e2b a7bc f110 21bc a5b6 943c
000003f0: 664a 80bc bd7b 07bc eae5 b03c b6a8 8a39
0.029265458 0.009944404 0.026154678 0.04571802 0.029961227 -0.011046621 0.030286487 0.034955774
-0.013080987 -0.007891252 -0.015079813 0.040583674 0.01426787 -0.0035860625 0.046043474 0.02275815
-0.007904048 0.0037646422 0.0035787509 -0.025250548 0.027075468 0.018023558 -0.0018124131 0.026660638
-0.009276761 0.035848986 0.004693705 0.029900528 0.009043616 0.017797736 -0.014129578 0.037060693
0.0107573345 0.050046045 0.03041115 0.006538458 0.043679357 0.013876175 0.014373333 -0.008822572
0.005570849 0.032037113 -0.017073445 -0.04261892 -0.031397715 -0.02197411 -0.03285628 0.026331002
0.047765512 0.040356163 0.01324327 -0.000107467844 -0.019430278 -0.008532195 -0.018164793 -0.0018800369
-0.015167076 -0.0049951444 0.024543615 -0.008466653 -0.00982838 0.022551889 -0.011783922 -0.022501267
-0.015048013 -0.013115655 0.012164674 -0.030464657 0.00075922906 0.017969139 -0.022312911 -0.029063791
-0.0006179469 -0.010799365 0.020528052 -0.032498363 0.015958 0.006875753 0.0025646752 0.022891967
0.018767782 0.03999332 -0.027193578 -0.026733156 0.024299007 0.03263829 0.014682041 0.02619331
-0.00427064 0.0458544 0.03902358 0.042866074 0.04788483 0.04037972 -0.03128059 -0.008636243
0.00991432 -0.011509089 0.049316067 0.014472634 0.008432379 0.016312761 0.0063900505 0.026477562
0.035019945 0.03626791 0.0037981165 -0.032342054 0.023769239 -0.0040745796 0.034203473 0.02110197
0.0146893095 -0.005426686 -0.020242603 -0.026153486 -0.007264327 -0.0013538433 0.03943277 0.026961347
0.036567576 0.043392535 -0.017991656 -0.014944186 -0.027077788 0.0068407045 0.04956496 0.06567535
0.06971164 0.039119557 0.03620304 0.051012687 -0.00030513242 0.008589095 -0.002711087 0.028190423
0.05383158 0.023271019 0.009538134 0.019259188 0.020864034 0.0057054954 -0.01999575 0.0012964692
-0.01803671 0.019261163 -0.016474634 -0.0075337905 -0.0044291266 -0.00817279 -0.052083634 -0.012586437
-0.0033258188 0.0061944406 0.004150764 0.015518765 -0.0028166822 0.0470706 -0.0076376065 0.007497531
-0.026067127 0.034658074 0.029375577 0.015233907 0.012289706 0.023728032 0.068896286 0.037678503
0.01434384 0.0117502995 0.026790941 0.06406803 0.056676444 0.06456095 0.008816373 -0.0037885904
0.033394214 -0.009434426 -0.027524948 0.0052471366 0.028909242 -0.022562431 0.04460112 0.009812914
0.03599785 0.033927478 0.03409091 0.04768997 0.009005576 -0.0012607754 0.0338736 0.02785616
-0.0102892 0.0335979 0.008384017 0.010873216 0.019569175 0.009544932 0.039321613 -0.013440098
-0.024651011 -0.030032907 -0.0035455164 0.0053636488 0.0052117 -0.02737367 0.01480196 0.01785335
0.012574042 -0.0052765403 -0.017654933 -0.0042364546 0.015975596 0.0120972805 -0.0036999679 0.038957495
0.08218013 0.08036302 0.08141087 0.03296592 0.05469004 0.033148732 0.013982773 -0.02974544
-0.029465947 0.020252893 0.022960523 0.018031958 0.01148619 -0.040933963 -0.006687627 0.021453973
0.02840134 0.0085917115 -0.011222785 0.025050126 0.015233488 0.0008537941 -0.028591104 -0.024257181
0.055167176 0.05832112 0.050364565 0.04004056 0.016594645 0.0012235815 0.013929413 0.01886638
0.017484441 -0.020406362 -0.009830699 0.018153498 -0.015660476 -0.008269248 0.021594007 0.0002644711

bias f4 [32]
00000000: d28e 1bbc 8bf6 45bd 99e7 78bd df8c 4ebe
00000010: bd3d 11be a84b 4abd f7bf 21be edc3 bbbd
00000020: 5053 b6bd 8f3b 9bbc 0669 8dbe fc7b 193b
00000030: 8836 b5bd d701 1ebc 339b 71bd 30c2 0dbd
00000040: c738 1abd dcfd a33c 3d3a acbd ebd9 b8bc
00000050: 99e7 7dbd 34c7 f2bc 5da1 8ebd 46a6 403d
00000060: 4db0 1e3c d0b8 ebbd 2ac2 84bd 8c03 8abd
00000070: 8eb7 67bd 0378 243c 8ad3 00be 3691 a5bc
-0.0094945 -0.048330825 -0.060767744 -0.20170926 -0.14183708 -0.049388558 -0.15795885 -0.09168229
-0.08902609 -0.018949298 -0.2761919 0.0023419848 -0.08848292 -0.009643993 -0.0589859 -0.03460902
-0.037651803 0.02001851 -0.084095456 -0.022564849 -0.061988447 -0.029636003 -0.06964371 0.04703357
0.009685588 -0.115098596 -0.06482346 -0.06738958 -0.056571536 0.010038379 -0.12580696 -0.020210844

weight f4 [64, 32, 5, 5]
00000000: 1855 21bc 4f04 97bb 77f4 a3bc e246 3ebd
00000010: 4db0 08bd f46c 1c3d 4f82 f53b 1ae4 943b
00000020: e02f 4abc 6b74 b83c 7496 c0bc 7039 20bb
00000030: b2e9 37bc cacc 013d 65d3 6cbc e57c 94bc
00000040: f94c 0fbd 7ce7 edbc ffc3 0dbc 7604 b03c
00000050: 96b5 1eba efc1 073c fada 54bc 499a 193d
00000060: 6ab8 ab3b 177f e2bc c81b 85bc bfcc 8dbc
00000070: d843 04bd f3b4 cfbc ed89 303d 402f 363a
00000080: 2ba0 273c abdc c8bb 7702 c6bc ec94 d33c
00000090: d2f0 1abb b62b 353c 9848 403b c2f9 75bc
000000a0: 51ad c8bc ac6e ac3c 74a3 eebc a697 9ebc
000000b0: dcb8 2dbb b361 803b c0eb 8cbc aa30 55bd
000000c0: d5d0 c8ba 4558 cdbc c82a 273a 5ecb 14bd
000000d0: 76d5 ba3b 6dad a2bc d048 0e3d dfc2 ef3b
000000e0: 6d4a 32bd e46f 18ba b678 b03c 46a1 ab3c
000000f0: c409 3f3c a2e8 2c3d 9fcf 1bbd e728 823c
00000100: caac 063d 790a 3dbd 2da7 8cbb 850b dbbb
00000110: 3823 2fbd 94a6 f33c 131b a33c a993 17bd
00000120: 1933 d43b 8505 a13c bebd dc3c 050d b0bc
00000130: 423e 06bd 111a ccbc d8a9 3e3d 948e e13b
00000140: eead 453c 4a46 69bd a162 483c 0160 4c3d
00000150: 98a4 5e3d 845f 13bd d042 f2bc 792d 623d
00000160: 378f 023d 8e93 91bc 04f1 783c 5b61 c63c
00000170: 1a85 c33c 9510 853c 1f73 383c 07fd 81bc
00000180: dfc1 87bc 850e c53c bb95 93bc 17aa 013d
00000190: cc86 8a3c 0b67 7e3d 2f55 843d d6bc e4bc
000001a0: 33fe 3ebd dd38 40bc 9cdb e73c f4bb 083b
000001b0: 4974 b13c 2989 debc 8bd8 513b 08ce 953b
000001c0: 04a6 043d 4e3d 18bc 2e62 12bb 64ed 073d
000001d0: 2aa1 c93c df2c f3bb 205b 443c df38 ba3c
000001e0: e314 d7bb 3f5f 0a3d 33b8 033d 8bf5 fd3c
000001f0: 1369 853c fd0c c7bb 2c1e 163d 1f6e 953b
00000200: a6fd 8d3b 2288 bcbc a2d9 43bd 5638 963d
00000210: b78b 063d 3810 bbbc 3797 2e3c 924a e3bc
00000220: feee 33bc 7e5e 60bc 4d74 5bbc df26 4a3c
00000230: c91c 4ebc 708a 80ba b288 81bc 202b 0abd
00000240: c1d3 73bc 74d3 043d e690 353d 5ac9 eabc
00000250: 39ee ba3c 2ada eabc 1ee1 e13b c1fb 0bbd
00000260: 12fb 60b9 4d4f 03bc fad2 1bbd 2ca4 123d
00000270: 5eb6 323c c33d 9bbc 068c 4bbd 012b 893c
00000280: f306 5d3c 577f 62bd f25d 5fba ce0e b6bc
00000290: 6744 963c a100 fe3c ae7b 84bc 9e75 98bb
000002a0: 7b47 023c 4fa3 24bd 4329 3bbd 1253 5abd
000002b0: 6c03 823c cddc c9bb 76fc 303d 7c5e eaba
000002c0: 6a29 4ebd df5b 6cbb c959 f33b cee0 1cbd
000002d0: 361a edbc 5f47 24bd 6d0a 12bc 748e a5bc
000002e0: 2c27 b33c be06 a13c 3834 3bbd 804c 5bbc
000002f0: ee36 0a3d 2fa3 34bc 90b8 3f3c 0006 25bc
00000300: 8dff 113c 428c 173c c8aa 173a 23b3 75bb
00000310: ccd4 9e3c 7afe 26bc 5ebf 96bc 4b52 643c
00000320: eeda 1c3a 8786 83bc 5940 e43c a80e 73bc
00000330: 4b33 32bb f8b2 72bc 1e7c afbc 1953 d8bb
00000340: fb53 b63c 1d28 d4bc aed4 593c e5cd 5fbc
00000350: 6482 553d b67e febc d931 a33c f00a c23c
00000360: 7b29 c1bc c06d f03c 6a11 b23c 877f e2bc
00000370: c6c3 90bc ff9e 603c 53fb 053b b2d6 823c
00000380: ce39 21bc bd57 d1bb a1db 553b be21 a4bc
00000390: 0099 8d3c b8ad 03bd a5e1 4bbc dba2 d5bc
000003a0: dde2 eb3c c8e6 393c 0f6b 4a3d 8364 cebc
000003b0: 3b65 adbc 0f58 393d d536 05bd 6dc1 f63c
000003c0: 1fae 5fbd 764a d2bb 320c 9abc 8e64 e8bc
000003d0: 7948 e7bc a0d3 84bc ec65 8abc 83f9 a03c
000003e0: 59e2 e2bb 2abc 303b d217 7a3c 9c8a 103b
000003f0: 31ee 8cbc d846 c73c 4578 bbbc ed0b 5cbc
-0.009846948 -0.004608668 -0.02001403 -0.046454318 -0.03337126 0.038189843 0.0074923406 0.0045437934
-0.012340516 0.02251645 -0.023509242 -0.0024448298 -0.011225151 0.031689443 -0.014454697 -0.01812596
-0.034985516 -0.029041044 -0.008652686 0.021486502 -0.000605428 0.008285983 -0.012991661 0.037500653
0.0052404897 -0.027648492 -0.016248599 -0.017309545 -0.032291263 -0.025354838 0.043100286 0.000694979
0.010231058 -0.0061298213 -0.024171097 0.025827847 -0.0023642075 0.011057785 0.0029340144 -0.01501316
-0.024496706 0.021048866 -0.029130675 -0.019359421 -0.002650789 0.0039178967 -0.017202258 -0.052048363
-0.0015321026 -0.025066504 0.00063769193 -0.03632676 0.005701716 -0.019858086 0.03473741 0.0073169316
-0.04352801 -0.0005815013 0.021541934 0.020950925 0.011660043 0.042214043 -0.0380398 0.015888644
0.03287963 -0.046152566 -0.00429239 -0.006684723 -0.042758197 0.029742517 0.01991037 -0.037006054
0.006475818 0.019655952 0.026945945 -0.021490583 -0.032774217 -0.024914773 0.046548694 0.0068834517
0.012065394 -0.0569518 0.012230546 0.049896244 0.054356188 -0.035979763 -0.029572874 0.055219147
0.03187486 -0.017770555 0.015194181 0.024216345 0.023867179 0.016243258 0.011257916 -0.015867723
-0.016571937 0.024054775 -0.018015733 0.03165635 0.01690998 0.06210999 0.0646156 -0.027922075
-0.046629142 -0.011732307 0.02830296 0.0020863982 0.021661894 -0.027165012 0.0032019939 0.00457168
0.032384887 -0.00929196 -0.0022336352 0.033185378 0.024612982 -0.0074211205 0.0119846165 0.022732196
-0.006563769 0.03378224 0.032158088 0.031000873 0.016285455 -0.0060745464 0.036649868 0.0045602466
0.0043332158 -0.023014132 -0.047814973 0.07334964 0.032848086 -0.022834882 0.01065617 -0.027745519
-0.010982273 -0.013694404 -0.0133944275 0.012338369 -0.012580105 -0.0009806883 -0.015812252 -0.033732533
-0.014882029 0.03242822 0.04432764 -0.028660465 0.022818672 -0.028668482 0.006893291 -0.034175638
-0.00021455836 -0.008014512 -0.038043 0.035801098 0.010907738 -0.018950349 -0.049694084 0.016744139
0.013490426 -0.055297222 -0.0008520774 -0.022223856 0.018343164 0.03100616 -0.016172256 -0.004652693
0.007951613 -0.040194806 -0.045693647 -0.05330188 0.015870772 -0.0061603547 0.043209516 -0.0017880942
-0.050332464 -0.0036065502 0.0074264747 -0.038300328 -0.028943162 -0.040107127 -0.0089136185 -0.020209529
0.021869265 0.019656535 -0.045704097 -0.013384938 0.03374379 -0.011025234 0.011701718 -0.010072231
0.008911026 0.009249749 0.0005785641 -0.0037490807 0.019388579 -0.010192508 -0.018401798 0.013935636
0.0005983551 -0.016055359 0.027862715 -0.014835037 -0.0027191218 -0.014813177 -0.021421488 -0.006601703
0.022256842 -0.025898034 0.013295336 -0.013659929 0.052126303 -0.03106628 0.01992123 0.023686856
-0.02357935 0.029349208 0.02173682 -0.0276487 -0.017671477 0.013709783 0.002044399 0.015971515
-0.009840442 -0.006388633 0.003263213 -0.02003562 0.01728487 -0.032148093 -0.012443935 -0.026078632
0.0287947 0.011346526 0.049418505 -0.025194412 -0.021166435 0.045249995 -0.032522995 0.03012153
-0.054609414 -0.006417568 -0.018804643 -0.02836826 -0.0282328 -0.016214192 -0.016894303 0.019650226
-0.0069239554 0.0026967623 0.015264468 0.0022055274 -0.017203422 0.024325773 -0.022884497 -0.013430578

bias f4 [64]
00000000: 9f07 13bd 91e3 2dbd 9815 c0bd 3703 ebbb
00000010: 5ed5 dbbd 17b3 2dbd 30bb 60bd ad71 ffbc
00000020: cf1f 34bd ca43 95bd 18a0 02bd 732a a8bd
00000030: 6387 1fbd 303c 13bd 77cd 82bd a426 c2bb
00000040: 88e4 42bd e379 07bd 5f90 5ebd eebb 153d
00000050: e282 3fbd eeda f5bc ad6a 91bd 0507 46bc
00000060: 3318 f3bd 0afa bebd 3284 82bd 6b53 8ebd
00000070: b40e da3b 676c 05bd a4cc 46bc a36e 88bd
00000080: abcb 6bbc 7d86 ccbc 85cb 9fbd 27ee 473d
00000090: aa4c 75bd 3c96 083d 2334 a1bd b830 62bc
000000a0: 7ba4 99bd 97c5 f2bd 1ce0 f8bc 8d3b 4abd
000000b0: 957e 10be 4334 0bbd 3f77 02bd 6983 973c
000000c0: e600 42bd de75 f4bd cfeb 95bb 33d1 54bd
000000d0: bb77 a63c 82e2 a0bc d6de ecbd fe22 12bc
000000e0: 4ca3 6bbd 39da b9bc d913 533a 81d6 043d
000000f0: 2233 123d cace da3b 5600 16bd 0c3a 623c
-0.03589594 -0.042453352 -0.09379119 -0.007172014 -0.10734056 -0.04240712 -0.054866016 -0.031182135
-0.043975648 -0.0728832 -0.03189096 -0.082112215 -0.038947474 -0.03594607 -0.063868456 -0.0059250165
-0.047581226 -0.033075225 -0.0543369 0.036556177 -0.04675568 -0.03001162 -0.07100425 -0.0120866345
-0.1186985 -0.09325035 -0.063728705 -0.069495045 0.006654585 -0.032574084 -0.012133751 -0.06661727
-0.01439182 -0.024966473 -0.0780249 0.048811104 -0.059887566 0.0333464 -0.078712724 -0.013805561
-0.07502075 -0.118540935 -0.030380301 -0.0493732 -0.14110787 -0.033985388 -0.031852003 0.018495278
-0.047364138 -0.11936544 -0.0045752297 -0.05195732 0.020320764 -0.019639257 -0.1156594 -0.008919476
-0.05752878 -0.022687064 0.0008051969 0.03243113 0.035693295 0.006677483 -0.036621414 0.013807785

weight f4 [64, 1024]
00000000: a2b2 38bc b904 093d 6618 5a3a 7a04 0c3d
00000010: 5642 123d 11e4 843c dc72 d63c 3b05 b7bc
00000020: ed62 3d3c 5fb0 28bd c738 bc3b 66bb 1abd
00000030: 3b3a cebc 77a5 e7bc fc95 da3c 11f5 8d3b
00000040: 5734 00bb 9550 b6bb b83a d2bc c3f9 ff3c
00000050: cff8 ee3c 8a24 b6bc ac8a 253d 9137 263d
00000060: d7d5 103d 5324 1f3b cf35 0d3d 8a75 2b3d
00000070: 460c 2f3d af88 843c 12d1 ad3c dab7 35bc
00000080: 9cfa 3d3c 1274 a9bb 32d7 0ebd 46ab 44bc
00000090: f248 f73b 77df 9dbc 601b 6e3c 7f11 bdbc
000000a0: 1305 e53c 9f0f b13b 321e dbbc 9868 043d
000000b0: f196 bdba 46da b0bc 2edb 99bc b5aa 373c
000000c0: 6dc5 9d3b ba7b 443c b36c 333d c7f7 7f3c
000000d0: ca2a 4fbb bbb7 d9bc 840c 333a 84ad 903c
000000e0: ddf9 3f3d 9476 1f3d ae9e e13c 7eba 7ebc
000000f0: 7db8 303d 18ea 1cbd 2617 edbc 4de5 8ebc
00000100: 463b 20bb c969 88bc 80b8 4cbd dc47 f43c
00000110: 3094 063d 6b7a c4bc 30d0 f43b 2064 f0bc
00000120: 087f 353c f7fc ecbc 8630 053d ed29 11bc
00000130: 102c 12bd fb5c 823c b32d 2e3c 12dd 6bbb
00000140: 9184 d33c a4a9 5f3c bb68 dc3c ce77 c33b
00000150: b879 c7bc dd21 b7bc 71d8 3a3d 7a1d ac3b
00000160: 7a7e 2abd 74b9 6abb 721f 4dbc 53d4 d4bb
00000170: 390d 73bc b7d3 9abb c08f 8ebc 38ce 32bc
00000180: 9b35 03bc 4a5a af3c 26bc e3bc 461d 81bc
00000190: 4f17 7dbc 17d3 733c 6b00 283c 33bf 813b
000001a0: 23bc 02bd f579 85bc 4460 38bc 9246 7b3b
000001b0: 1ff5 9bbc b2a6 2f3c 9392 8fba 771b 1abd
000001c0: 12e7 273d f614 3bbd ab22 3abd 6940 ee3c
000001d0: 21ac bf3c 2274 b63b 6b29 78bd 801c ea3c
000001e0: c12c d43c 44c6 d33c 0e0a 86bc 52e6 e43a
000001f0: 5c46 273d f949 dd3c 742f d53c e6f8 dd3c
00000200: acea 15bd 2cff 4c3c 26b2 2abc 801c c2bc
00000210: 428f 963c 0e68 77bc e8ba 72bc 8d39 983c
00000220: 20b4 6b3c 17dd 6bbc b547 94bc a0ec efbc
00000230: 9978 13bd aae1 b1b9 ab3c 6bbc 26d7 7cbb
00000240: 5497 923c 0a08 86bc d69f 01bd 61dc 44bc
00000250: dca1 dcbb babc 88bc e9b9 e6bc 1b47 be3c
00000260: bda2 babb ea5a 8e3a 46d6 a33c b5f8 bc3c
00000270: a3df 1f3c 14cc e33c 72fa 4a3c 9fa0 8f3c
00000280: 3725 583c 1056 42bb 6484 65bd c780 3fbd
00000290: 4603 693c e70e 9abc 88bf 913c b0fe 4ebc
000002a0: d265 0bbd d798 153c 471e 40bb 3079 4fbc
000002b0: af4b a7bb cdd8 c03a 2b0e 8d3b a423 45bc
000002c0: e4f6 f83a 9e8f 69bc 8100 71bc 597b 7c3c
000002d0: 1191 143d f1f2 ee3c 2779 09bd 6401 373a
000002e0: 042a 9abc ab21 633b 8ae9 bb3b d630 d23c
000002f0: 0e2d 8abc 7c95 9bbb a973 513c 5ea3 03bd
00000300: 0bd0 29bc 9b11 133c ce42 acbb 8e45 8d3c
00000310: 8f6e f4bb ab70 b1bd c06c bbbc d3ac 0b3d
00000320: 25d5 863c a7e7 0d3d 0458 26bd 909a b43c
00000330: 40ee 9fbc fcee 9a3c 98cd 3e3d 331d 1bbd
00000340: 3ebb c3bb d5c0 ff3c 2365 833b 8b27 463d
00000350: bae6 76bb 1278 97bc c57b debc 0ac1 4ebb
00000360: eaa5 083d 4163 633c 9d27 3bbc d3b6 653c
00000370: 3893 f3bc acaa 07bc 3741 c2bc 3762 04bd
00000380: ae6f 693c 108d 01bc 97ae 7d3c 9306 9fbc
00000390: 9455 ffbc 9540 29bc 397a 12bd 4766 da3c
000003a0: 9610 b13c e92a 923c 0b97 e63c 45fc cdba
000003b0: e35e 3f3b e9a0 84bc 3e50 443c 56f7 323a
000003c0: 6343 cf3c 0d3e 963b b674 f6bb 1cf6 893b
000003d0: a08e 8c3c fa40 12bc a6b9 f03a 4e56 173b
000003e0: 916f 89bc 7b20 2dbc 7e85 68bb 6bbe 1a3d
000003f0: d589 19bb 1fa1 a53b 761a 70bc 7c0a ad3c
-0.011273058 0.03345177 0.00083196757 0.034183957 0.035707794 0.016222032 0.026177816 -0.022341361
0.01155923 -0.041183826 0.005744073 -0.037776373 -0.02517425 -0.028277142 0.026682846 0.0043321927
-0.0019562447 -0.0055638053 -0.025662765 0.031247025 0.029171376 -0.02223422 0.04041545 0.040580336
0.035360184 0.0024283126 0.034475144 0.04186014 0.042736314 0.016178457 0.021217857 -0.011091197
0.011595394 -0.0051713074 -0.034873195 -0.012003725 0.0075465376 -0.019271595 0.014532894 -0.023079632
0.027956521 0.0054034735 -0.026747797 0.03232631 -0.001446454 -0.021588456 -0.01878127 0.011210133
0.0048147948 0.011992389 0.043804836 0.01562304 -0.0031611198 -0.026576867 0.0006830173 0.017660864
0.046869148 0.038931444 0.027541485 -0.015547393 0.04314469 -0.038309187 -0.028941702 -0.017443324
-0.0024449392 -0.016652005 -0.04998064 0.029819421 0.032856166 -0.023984155 0.007471107 -0.029344618
0.01107765 -0.028929217 0.03251698 -0.008860094 -0.035686553 0.015913477 0.010631013 -0.0035989922
0.025820049 0.013651285 0.026905408 0.0059652096 -0.024350032 -0.022355014 0.04561657 0.0052525373
-0.041624524 -0.0035816105 -0.012519704 -0.0064950376 -0.0148346955 -0.0047249454 -0.01740253 -0.010913424
-0.008008386 0.021405358 -0.027799677 -0.015761029 -0.015447452 0.014881871 0.010254006 0.0039595603
-0.031917702 -0.016293505 -0.01125342 0.0038341624 -0.019037781 0.010720896 -0.0010953717 -0.03762385
0.04099185 -0.045674287 -0.04544322 0.029083448 0.023397507 0.0055680433 -0.060586374 0.028578043
0.025900247 0.025851376 -0.016362216 0.001746366 0.040838584 0.027012812 0.026023604 0.027096223
-0.036600754 0.01251201 -0.01041845 -0.02369523 0.018378858 -0.015100492 -0.01481507 0.01858213
0.014386207 -0.014395974 -0.018100599 -0.029287636 -0.036003683 -0.00033928204 -0.014357726 -0.0038580387
0.017894424 -0.016361255 -0.031646572 -0.012015433 -0.0067331623 -0.016691554 -0.02816482 0.023227265
-0.0056956694 0.0010860835 0.019999634 0.023067812 0.009757909 0.027807273 0.012388812 0.017532645
0.013192466 -0.0029653348 -0.05603446 -0.04675367 0.014221972 -0.018805934 0.017791525 -0.012633964
-0.03403265 0.009130678 -0.0029314922 -0.012663171 -0.0051054577 0.0014713049 0.0043046675 -0.012032423
0.0018994478 -0.014255432 -0.014709593 0.015410268 0.03627116 0.029168578 -0.033562806 0.0006981103
-0.018818863 0.003465752 0.005734627 0.025658052 -0.016867187 -0.0047480445 0.012783923 -0.03213822
-0.010364543 0.008976365 -0.005256987 0.01724508 -0.0074594687 -0.08664068 -0.022879004 0.034100365
0.016459057 0.03464475 -0.040611282 0.022046357 -0.019522786 0.018912785 0.04658279 -0.037869643
-0.0059732487 0.03121988 0.004009859 0.048377555 -0.0037674145 -0.018489871 -0.027158627 -0.0031548166
0.033361353 0.013878644 -0.011423019 0.0140206395 -0.029733285 -0.008280437 -0.023712737 -0.032320227
0.014247818 -0.007907167 0.01548352 -0.019412315 -0.031168737 -0.010330339 -0.03576109 0.026660098
0.021614354 0.017842727 0.028148195 -0.0015715441 0.0029200844 -0.01619001 0.011982022 0.0006827017
0.025300687 0.0045850337 -0.0075212372 0.0042102467 0.017157853 -0.008926624 0.0018365874 0.0023092213
-0.016776832 -0.010566826 -0.0035479958 0.037779253 -0.0023428102 0.0050546075 -0.014654746 0.021123163

bias f4 [64]
00000000: b431 92b8 7d1a 963c 6d28 bebc 0247 baba
00000010: 8ad7 54bb 87b4 183b 6148 8a3a 997e 0cbd
00000020: bcc0 553c 565a 11bd 30fd 5e3d e385 663d
00000030: 7cf6 2b3d e535 bb3b 6052 b0bc 8a4d e2bc
00000040: ba7d e6bc 6586 e6bc c910 28bd c6d6 25bc
00000050: e7c3 45bd 24fc eabc 30d5 113d 528a 973b
00000060: df5e 14bd e3a5 adb9 bace 6dbd fa46 d43a
00000070: 3f3d c8bc 815a 533d 98f6 15bd 3562 28bd
00000080: c3bf dbbc 3958 db3c 027f 1fbd 2090 1c3c
00000090: d770 283d 1d80 8ebc 3902 263d fcc3 603d
000000a0: 95a0 3d3c f48d f03c 2e3a 273d c487 a43c
000000b0: 6544 113d 6806 0cbd 8c55 923b 6c33 243d
000000c0: 8756 c13c a53e 50bd 085b 8c3c c16a ccbc
000000d0: 4c56 50bd 2381 ffbc be3a 1b3d 4281 053d
000000e0: 07e8 7b3c 0487 803c 8a1a e8bc 9bf9 2bbd
000000f0: e492 f8bc 06a9 0dbd 61d0 f7bc 5c92 aa3b
-6.9710804e-05 0.018323177 -0.023212636 -0.0014211836 -0.0032477104 0.0023300962 0.0010550135 -0.03430042
0.01304644 -0.03548654 0.054440677 0.056280028 0.041983113 0.005713212 -0.021523654 -0.027624864
-0.028136123 -0.028140256 -0.041031633 -0.010122007 -0.04828253 -0.028684683 0.035603702 0.0046246434
-0.03622329 -0.00033120727 -0.058058478 0.0016195469 -0.024443267 0.051599983 -0.036612123 -0.041109283
-0.026824838 0.026775466 -0.038939483 0.009555846 0.041123237 -0.017395074 0.040529463 0.054874405
0.01157393 0.029364564 0.04082697 0.02008427 0.035465617 -0.034185797 0.0044657644 0.040088102
0.02360083 -0.050840992 0.01713325 -0.024953248 -0.05086355 -0.031189507 0.037897818 0.032593973
0.015375144 0.01568938 -0.028332967 -0.04198609 -0.03034348 -0.03458502 -0.03025073 0.0052054357

weight f4 [10, 64]
00000000: d3e2 90bd 9f37 55be 4d6f b93d 935b 44bd
00000010: 4ccb e83d 69fd b53d 4852 14be 9837 c73c
00000020: 3602 55be 3225 20be 3ec6 43be e9a7 eabc
00000030: f1ea 1fbe 057e 3abd 99c8 8d3d d69c f6ba
00000040: ca42 2c3e e52a 77bd 1736 5c3e c8d7 79bd
00000050: c681 2e3e 1247 d63a e702 0c3e 852a 31be
00000060: bc03 7ebd 4a8a 1d3e 2465 f23d 17fc 3fbe
00000070: b192 803e 9112 29be 2327 6abe 2c69 b03b
00000080: c8f3 713e 5df7 63be ccb1 15bd 9dd9 0abe
00000090: 17b6 1a3c 3d64 3bbe 1e39 aebd 80f2 6c3d
000000a0: eef1 9dbd 97ce 1bbe 05c1 8fbe 2c8c e9bd
000000b0: df9c d23d cc07 b53d 688e 673c 0a1a 23be
000000c0: 2071 7c3d 35d2 303e c328 033e 8c98 903e
000000d0: 78c8 523d dcd8 883e b54c 1c3d b0c9 b5bd
000000e0: d105 683d bee1 103e 3e35 edbd 7114 f13d
000000f0: ee93 e33d 4f2a 493e f9f5 4f3d 498c 83be
00000100: 94b3 c73b e713 563e fa22 afbe 6b96 23bb
00000110: fd02 97be a42e 47be c1df 75be 1a27 0fbe
00000120: 7fef 3dbe b5a7 37be cb2b f7bd 2973 063d
00000130: 7dae 413e 88c7 ffbc 41c2 d63d 15d3 64be
00000140: 544d 2f3e c3df 733c 22e6 2fbe 28a0 913e
00000150: dff6 96bd 4514 413e 8afa 893e c7ed 843e
00000160: 52a0 183e f1ec 3abe 7ee5 383e 8642 1bbe
00000170: 0260 39be 4e52 7bbe 7e48 56be e62f 5d3e
00000180: 2ccd 3fbe ccb7 69be 427b b33e 44ff 87bc
00000190: 7aa7 65bd 58d8 b9bd 332a e3bc 5204 323e
000001a0: bc0a fc3c 37a4 0fbe 07d1 0cbc 0482 963d
000001b0: a7c9 1abd 1a54 23be 50ee a5be 0c7d 043e
000001c0: def1 2fbe 8067 903d a235 87be 3e79 afbc
000001d0: a0f1 67be 9f7b f6bc bdce e13c 4596 793d
000001e0: 6310 13be cacf 4bbe 51e8 6d3e 29ec 02bd
000001f0: 02f1 5bbe b160 3e3d 938f 7d3d 018f 76be
00000200: 813d e5bd 97e8 9dbd 4a57 9c3e 4435 e9bc
00000210: 7d67 5f3e ddae 813e 3d36 ec3d e5f0 c43d
00000220: 3486 733e 9ce3 523e 9da8 ddbd 9269 5bbe
00000230: 478a 33bc a6a8 ce3c 3e8d 473e 59c5 09bd
00000240: 61ae 32be 7a9c 103e 70e7 fd3d 6ff5 23be
00000250: 44e7 693e 7643 17be 1962 8b3c 826e 933d
00000260: 2a65 36be 1dc5 593e 98d7 84be d34d 9b3d
00000270: 4254 113e 4d4e 2fbe 0599 923c de3f 24be
00000280: ceb3 79be e932 63bd 3e08 363b 5a0b 1fbe
00000290: a1b6 333e ab03 533e 5777 06be 799f 8a3d
000002a0: 8181 453e ed26 523e 6172 d23c 13c2 59bd
000002b0: 8118 bf3c 1987 8cbd eb1c 2a3e 34db 283e
000002c0: 3f9c 903c de7d 69bd 3b35 3abd c602 a73d
000002d0: 29a0 263e eb96 4e3e 3339 2cbe d8cb eabd
000002e0: 360f 12bc df7d f1bd b08d 5abd 5685 23be
000002f0: 18c0 503d 0f66 683e 7084 2b3e 5147 a33c
00000300: aca1 bd3c bc51 8fbc b1a7 2f3e 45d4 82bd
00000310: 1fe3 92bd d6bc 23bd cf58 483e 8504 9fbd
00000320: f9b1 e23d d37a 823d 5ab8 f5bd a4f8 89bd
00000330: 106f cfbd 0b35 2c3e c4b2 78be 71db 9b3d
00000340: 6576 1f3d 1e6c 0c3d 6f5d d8bd 326e 1ebd
00000350: 8829 d8bb 6f17 57bd b51c 2fbe e7d7 9bbd
00000360: d2c4 21bc 302b 90bc 98b0 483e bb69 f4bd
00000370: 83b5 e83d b2a1 473e 9be3 db3d a4a9 f8bd
00000380: b776 13be ccaa d4bb 1032 303c 0173 b1bd
00000390: c2af e53b 1c5a 6abd 0f2d 36be bf43 87be
000003a0: 7126 1abe 78eb 0bbc 5362 6f3e 8d2b 613e
000003b0: 8664 f5bd a16c 9e3d dfad 1bbd f204 013e
000003c0: 54ac 2f3d e58a 72bd cc42 1c3d c00b 2dbe
000003d0: 2bf3 abbd a9f5 d83d 924d 903d d1b0 2c3e
000003e0: 0292 45be 7fdc 2b3e b692 3f3d 369f 163e
000003f0: 1164 a03d 3141 99bc 71d9 323d 792c 2c3e
-0.07074513 -0.20821999 0.09054432 -0.047938894 0.11366901 0.08886225 -0.14484513 0.024318501
-0.20801625 -0.15639189 -0.19118592 -0.028644519 -0.15616967 -0.045530338 0.069230266 -0.0018815051
0.16822353 -0.06034364 0.21505009 -0.0609968 0.17041692 0.0016348085 0.13672982 -0.17301376
-0.06201528 0.15384784 0.11835697 -0.18748508 0.25111917 -0.16510989 -0.22866492 0.005383631
0.23628151 -0.2226233 -0.036546513 -0.13559575 0.009442828 -0.18299957 -0.08506988 0.057848454
-0.0771216 -0.15215527 -0.2807695 -0.11403689 0.10283827 0.08839378 0.014133073 -0.15927902
0.061631322 0.17267688 0.12808518 0.28241384 0.051460713 0.2672795 0.03815909 -0.088763595
0.056646172 0.14148614 -0.11582421 0.11771477 0.111122 0.19645046 0.050771687 -0.25692967
0.0060944054 0.2090603 -0.34206372 -0.0024961482 -0.29494467 -0.19451386 -0.24011137 -0.1397976
-0.18548392 -0.17935069 -0.120689 0.03282467 0.18914218 -0.031223074 0.1048627 -0.22346146
0.17119342 0.014884892 -0.17177632 0.28442502 -0.07371306 0.18855388 0.2694896 0.2596266
0.14904907 -0.18254448 0.18056294 -0.15162095 -0.1810303 -0.24543115 -0.20926091 0.21600303
-0.1873061 -0.22824019 0.35054976 -0.016601212 -0.05606792 -0.090744674 -0.027730083 0.1738446
0.030766837 -0.14027487 -0.008594758 0.07349017 -0.037789967 -0.15950051 -0.3240838 0.12938327
-0.17182109 0.07050991 -0.26408106 -0.021420117 -0.22650766 -0.030088244 0.0275644 0.060934324
-0.1436172 -0.19903484 0.23233153 -0.0319635 -0.21478656 0.04647893 0.0619045 -0.24077989
-0.111933716 -0.077103786 0.30535346 -0.028467782 0.21816821 0.25328723 0.11533783 0.096162595
0.23781663 0.20594639 -0.10823176 -0.2142699 -0.010958261 0.025226902 0.19487473 -0.03363547
-0.17449333 0.14122191 0.12397659 -0.16011594 0.22842127 -0.14771828 0.01701455 0.07198812
-0.17812029 0.21266599 -0.25945735 0.07583203 0.14192298 -0.17119713 0.017895231 -0.16039988
-0.24384996 -0.055468474 0.0027775909 -0.15531674 0.17550136 0.20606868 -0.13131462 0.06768698
0.19287683 0.20522662 0.025689306 -0.0531636 0.023327114 -0.06861705 0.16612594 0.1648987
0.017652629 -0.057004802 -0.04546092 0.08154826 0.16272034 0.20174758 -0.16818695 -0.11464661
-0.008914759 -0.11791586 -0.05335778 -0.15968832 0.050964445 0.22695182 0.1674974 0.019931467
0.02314838 -0.017495029 0.17153813 -0.063881435 -0.07172226 -0.03997501 0.19565128 -0.07764534
0.11069102 0.06371083 -0.11998053 -0.067368776 -0.10128605 0.1681711 -0.24286944 0.076102145
0.03893127 0.034282796 -0.10564696 -0.03867931 -0.006596748 -0.052512582 -0.17100795 -0.076095395
-0.009873586 -0.017598718 0.19598615 -0.11934229 0.113627456 0.19495276 0.10736772 -0.121417314
-0.14400755 -0.006490087 0.010754123 -0.086645134 0.0070094774 -0.05721484 -0.17790626 -0.26418874
-0.15053727 -0.008540027 0.23377351 0.2198927 -0.11982064 0.07735563 -0.038007613 0.12599543
0.042888954 -0.05921449 0.03814964 -0.16899014 -0.0839599 0.10593731 0.07046045 0.16864325
-0.19293979 0.16783331 0.046770774 0.14709172 0.07831586 -0.018707843 0.0436644 0.1681384

bias f4 [10]
00000000: 1c34 e7bd c2fe 19bd 26de d4bd 0c07 8a3d
00000010: 5db8 353d 4cef 9fbd 8e49 2e3e 8326 afbd
00000020: 007c ecbc eb87 a3bd
-0.11289236 -0.03759647 -0.10393934 0.06739625 0.044365276 -0.07809314 0.17020246 -0.085522674
-0.028867722 -0.07984909
