models/xue_6.pth (torch, 587967 bytes, 10 tensors)

weight f4 [32, 3, 5, 5]
000000 2b d3 9e bd 94 bd 86 3d e6 b3 2a 3d 76 43 06 3d
       -0.07755121 0.06579128 0.04167547 0.03277918
000010 33 59 99 3d 4e 5d dd 3c 1d a7 80 bc 79 ba c7 3c
       0.074877165 0.02702203 -0.015704686 0.02438091
000020 04 ea 9e bd 3e 5c 8c 3d aa 91 53 bd 53 a0 25 bd
       -0.07759479 0.06853531 -0.051652588 -0.0404361
000030 49 79 1f be 55 00 1f bd 01 ac 7b bd c0 6b 3f bd
       -0.1557361 -0.038818676 -0.061443333 -0.046733618
000040 fd b4 f3 3c 79 9e cd bd 1c e8 36 bd 59 61 31 bd
       0.029749388 -0.10039992 -0.04465495 -0.04330573
000050 d3 0f 1d bd 9f 61 43 3d 85 97 c5 3d bb c5 26 3d
       -0.03834517 0.04770052 0.09648041 0.040715914
000060 ff 70 b8 3d b3 bc 84 bc 71 ba f6 3c 1b 46 82 3d
       0.09005927 -0.01620326 0.030118199 0.06361028
000070 85 8a 07 bc fc e5 be bd 6f 93 1f 3d 42 84 ba 3a
       -0.008272772 -0.0932121 0.038958963 0.001423009
000080 3d ee ee 3d e8 8f d4 bc 47 0c bc bd 4c 95 0d bd
       0.11666534 -0.025947526 -0.09182029 -0.03456621
000090 2b 63 3a bd 24 e1 ac bd d2 bc c3 bd ee 6a b5 bd
       -0.04550473 -0.0844138 -0.09557499 -0.08858286
0000a0 85 6b a6 3d 42 22 d7 bc 6f ba 11 3d a8 54 30 bc
       0.081259765 -0.026261453 0.035578188 -0.010762371
0000b0 be dc 9f 3d 52 3a 81 3d 21 84 51 3c ae e8 13 3d
       0.07805775 0.06309952 0.01278785 0.036110573
0000c0 eb 45 85 3b bc 75 e5 bd ee 89 41 3d 38 2c 8d 3d
       0.0040671728 -0.11204097 0.04725068 0.068932
0000d0 9a ff 15 3e ad 67 2d 3d a8 31 53 bd 34 70 c0 3d
       0.14648286 0.0423352 -0.051561028 0.09396401
0000e0 8e 88 9e 3d 75 a4 3b 3c 6c bc 1a 3e 7b 77 76 3d
       0.077408895 0.011452784 0.1511094 0.06017254
0000f0 e1 82 4f bd a9 01 5f bd 25 d2 e4 3d 63 16 d4 3d
       -0.050661925 -0.054444943 0.111728944 0.103558324
000100 9c 27 38 bc c4 df c5 3d 35 16 ac bd 27 cc 8b bd
       -0.011239912 0.096618205 -0.08402673 -0.06826048
000110 72 2d 23 bd 4e 82 8d 3d aa 25 41 3d f9 ba 05 bd
       -0.039838262 0.06909619 0.04715506 -0.032649014
000120 65 72 af bc da 95 c3 bd 2a 99 ab 3d 2e 01 a8 3d
       -0.021416852 -0.09550066 0.08378823 0.0820335
000130 3a eb 20 bd 38 8e 46 bd 48 31 ea 3c 1b b9 ec bd
       -0.03928683 -0.048475474 0.028587952 -0.115587436
000140 4a 04 e2 bc 59 d8 18 3d 59 38 85 3d a1 06 b9 bc
       -0.027589936 0.0373157 0.06504888 -0.022586169
000150 a0 9b 2c bc fa 69 e2 3d db 91 81 3d 69 7c d1 3d
       -0.010535151 0.1105537 0.06326648 0.102288075
000160 2e b0 7d bc 09 fd 02 be 4c 48 d3 bd c6 d6 ea bd
       -0.015483899 -0.12791838 -0.10316524 -0.11466746
000170 4a 9b 05 3a 69 85 38 bd 68 8d 47 bd 35 9f 8c ba
       0.0005096687 -0.045049105 -0.04871884 -0.00107286
000180 77 98 68 bd ba fa 63 3d 04 a9 ea 3c 75 5c bd 3d
       -0.056786027 0.055659033 0.028645046 0.092461504
000190 b4 d6 f2 3d ea 7d cf 3d 7d 6d 86 3d 06 dd 7f bd
       0.118573576 0.10131438 0.06563852 -0.062466644
0001a0 9e 26 b0 bd 38 9c 95 3d 0f 8c d2 3c 95 49 f5 3d
       -0.08601116 0.07305187 0.02570155 0.11976925
0001b0 a0 e9 bb bc 47 81 46 3c a5 2f d7 3d dd 89 8e 3a
       -0.02293855 0.012115783 0.10507134 0.0010874827
0001c0 45 c3 ee bd 33 47 a0 3d cc dd 83 3d 17 4b 67 bc
       -0.116583385 0.0782608 0.06438789 -0.014117024
0001d0 92 ed cd bd 4e b2 ba bd c1 67 f3 bd 03 38 09 be
       -0.100550786 -0.0911604 -0.11885024 -0.13400273
0001e0 34 f4 c0 3d cc bc e1 bd 51 43 09 bc 4e 6a 7e 3d
       0.09421578 -0.11022338 -0.008377866 0.0621131
0001f0 b2 a1 47 3d 36 ea 0a 3e d3 81 0f 3e cb ff 93 3d
       0.04873819 0.13565907 0.14014368 0.07226523
000200 1b c3 1a 3d 0f 5f 5f 3c dd 20 5e bd 2e ed 6d 3d
       0.037783723 0.013633504 -0.05423056 0.05808752
000210 1b eb b6 bc 73 bc 3c 3d a1 a9 c2 3d c1 04 83 bd
       -0.022328904 0.046078157 0.095050104 -0.06397391
000220 1d 29 99 3d da b5 b8 bd 69 dc 4b 3d 42 4b f7 bd
       0.07478545 -0.090190604 0.049770746 -0.12074901
000230 1c f9 f8 bc 22 5c bb 3b 78 4e 54 bd e1 fa 60 bb
       -0.030392222 0.00571777 -0.051832646 -0.0034329223
000240 76 6a 68 bd 85 23 bb 3d 1f 85 91 bd 27 37 21 bd
       -0.056742154 0.09137634 -0.07105469 -0.039359238
000250 c6 9a b5 bb 79 40 fe 3c 09 41 6b 3d ab 59 08 3e
       -0.005542132 0.031036602 0.05743507 0.13315456
000260 02 c2 87 bd 75 f3 15 be 7b 97 9a bd 32 65 00 bb
       -0.06628801 -0.14643653 -0.07548424 -0.0019591567
000270 90 f4 0c 3e 61 d4 98 3c 68 3f 99 3d 7e 12 8d bd
       0.13765168 0.018655958 0.07482797 -0.06888293
000280 49 92 d6 bc e9 fd 18 3e e3 64 56 3d 0c 54 38 bd
       -0.026192801 0.14940609 0.052342307 -0.04500203
000290 02 c1 15 be 9c b7 0d 3e df dc 95 3d aa 9f 6a bd
       -0.14624408 0.13839573 0.073175184 -0.057281174
0002a0 32 88 b4 3d 2c cb 25 be 9f a8 23 3d da a5 6d 3c
       0.0881504 -0.16190785 0.03995573 0.014504874
0002b0 f5 3e 8e bc e4 43 94 3d 12 3b 21 bd 11 0d 12 3e
       -0.017364005 0.072395116 -0.039362974 0.14262797
0002c0 5f b9 59 3d ad c6 01 3d 27 19 ca bc ea bf 4e bc
       0.0531553 0.031683613 -0.024670197 -0.012618998
0002d0 3e f5 26 3e de 30 87 3a 62 64 d1 bd 34 89 15 be
       0.1630449 0.0010314246 -0.102242246 -0.1460312
0002e0 d6 20 5f bd 94 ed 1a bd b9 5e 20 3e 4f 04 d0 3d
       -0.054474674 -0.03782423 0.15661134 0.10157072
0002f0 69 a3 fe bd c5 6c 3b 3c 77 f2 f4 3d 92 7f 93 bd
       -0.12433512 0.011439507 0.11960309 -0.072020665
000300 6b 14 1b 3d 4b 50 0d be 34 69 2b be 60 80 b2 3d
       0.03786127 -0.1380016 -0.1673935 0.08715892
000310 11 78 d6 3d 4d f0 46 bd ab a0 3d bd fa 23 de bd
       0.104721196 -0.048569012 -0.046295803 -0.10846706
000320 83 5f d5 3d 23 11 e8 bc 13 e0 58 bd 0c de fb bd
       0.10418608 -0.028328484 -0.05294807 -0.122982115
000330 46 c5 80 3d 74 86 e8 3d bf ea 1d 3d c6 55 e4 bd
       0.06287627 0.1135377 0.03855395 -0.111491725
000340 a0 c7 24 be 66 d6 07 be 1f ce 0c 3e 14 46 04 3e
       -0.16091776 -0.1326538 0.13750504 0.12917358
000350 a0 9e ae bd 38 cf cc 38 e8 7c 04 3d 88 ed c9 3d
       -0.08526349 9.7660755e-05 0.032345682 0.098597586
000360 df 0d b5 bd 45 fc 8c 3d 48 9e 0d 3d b5 31 1d be
       -0.08840536 0.06884054 0.034574777 -0.15350993
000370 01 55 c4 3c 65 68 c1 3d 68 ad 4b 3c 6e 47 ee bd
       0.023966314 0.0944374 0.01243148 -0.11634718
000380 27 bd 05 be 79 b9 ed bc e3 a0 e3 bc 5f 82 f3 bc
       -0.13060437 -0.029019104 -0.027786678 -0.029725252
000390 b2 2c ba bd 3a 0f 60 bc 5d e1 b1 3c 67 be db bc
       -0.09090556 -0.013675505 0.021713907 -0.02682419
0003a0 84 c2 8b 3d 0e e1 5a 3c c9 a1 d2 bc 8f 76 8d bd
       0.0682421 0.013359321 -0.02571191 -0.06907379
0003b0 d0 3a df bd 2b cb 84 bd fc a7 a7 3d 94 02 02 3c
       -0.108998895 -0.06484064 0.08186337 0.007935185
0003c0 50 86 18 bc 42 a5 a0 bd 9b 39 2e be f2 c1 13 be
       -0.009309366 -0.078440204 -0.17014162 -0.14429453
0003d0 a2 09 9b bc d7 5f 65 3d 8d 46 d0 bd 0d 99 91 bd
       -0.018925492 0.055999603 -0.101697065 -0.0710927
0003e0 a0 c8 bc 3c c4 55 84 bd 84 fe a1 bd 95 af 93 bd
       0.023044884 -0.06461671 -0.07909873 -0.07211224
0003f0 db 54 8a 3d 95 11 3f bd 42 8b ff bc 1c 98 d6 3d
       0.06754466 -0.046647627 -0.031194333 0.10478231

bias f4 [32]
000000 92 32 a8 bd 8e cf 20 be 8d 50 16 3d 0a 21 e9 bd
       -0.082127705 -0.15704176 0.036697913 -0.11383255
000010 ff 7b 80 be 4a 97 a4 be 25 9e 8f 3d e0 ba 49 3d
       -0.25094602 -0.32146674 0.070125856 0.049250484
000020 0f 7d 6e bd 43 24 34 bd 39 fd 5a be ff d3 47 be
       -0.058224734 -0.043979894 -0.2138566 -0.19514464
000030 9e b3 79 be fc 83 bb bd 83 67 6d 3a 46 45 16 3e
       -0.24384925 -0.091560334 0.0009056257 0.14674863
000040 67 2d 52 bd 36 9c 55 bb 06 22 07 be 88 95 8b be
       -0.05131283 -0.003259433 -0.13196573 -0.2726252
000050 d1 62 8a 3c ce 4e 0e 3e 56 3b d4 bd 36 4e 50 3e
       0.016892822 0.13897249 -0.1036288 0.20342335
000060 0d 47 84 3d 76 04 f0 3d c8 af 4e 3d 13 f4 90 3d
       0.06458864 0.11719601 0.050460607 0.070778035
000070 43 2e b6 3d c0 8b 12 bc ea 37 09 3e 38 a9 2f 3d
       0.088955425 -0.008944452 0.13400236 0.04288599

weight f4 [32, 32, 5, 5]
000000 6f 68 cd 3c 14 71 ff 3b d0 35 a9 3c 5e b4 19 3d
       0.025074212 0.0077954624 0.020655543 0.037525527
000010 12 08 8a 3c a8 d5 88 bc 3e 5e 8f 3c fa c1 b8 3c
       0.016849551 -0.016703442 0.017500993 0.022553433
000020 39 e2 b5 bc d1 ef 80 bc 6c a1 60 bc cd 07 27 3d
       -0.022202598 -0.015739353 -0.013710361 0.040778924
000030 09 72 0a 3c 8f aa 36 bc 10 8a 1e 3d 52 e1 a9 3c
       0.00845004 -0.011149063 0.038705885 0.020737324
000040 d4 47 06 bb 14 65 2f 3c e6 fc 8a 3c 97 8b 9d bc
       -0.002048959 0.010705251 0.016966294 -0.0192316
000050 c5 57 ff 3c 3d 31 9e 3c f5 93 30 bc 85 8f 8f 3c
       0.031169781 0.019310588 -0.010777463 0.01752449
000060 66 f9 54 bc 39 c2 0a 3d 8c ba 90 39 bb 8b e1 3c
       -0.012998914 0.03387663 0.0002760481 0.027532449
000070 35 d8 57 3b 56 59 26 3c be d4 a5 bc 2b 87 f6 3c
       0.0032935266 0.010153135 -0.020243045 0.03009375
000080 3f 24 83 bb e3 2d 25 3d 51 34 cb 3c ae 21 45 bb
       -0.0040021236 0.040326964 0.02480522 -0.003007989
000090 6d 6d 2c 3d dc ec 0d 3c 48 7c 08 3c 21 ad a7 bc
       0.042096544 0.008662429 0.008330412 -0.020468296
0000a0 c9 0f 20 3c 94 c9 14 3d 48 33 54 bc 06 e6 04 bd
       0.0097693885 0.036325052 -0.0129516795 -0.03244593
0000b0 ce cb d2 bc d1 23 2d bc e8 e4 b7 bc 32 bc e3 3c
       -0.025731947 -0.010567621 -0.022448018 0.0277997
0000c0 8f b4 38 3d dc fb 07 3d d3 13 18 3c c1 8c 8d 3b
       0.04509407 0.033199176 0.00928207 0.0043197577
0000d0 ec 58 b5 bc 61 54 45 bc bf 02 91 bc 30 dd 11 ba
       -0.022137128 -0.012044043 -0.017701505 -0.00055642705
0000e0 cc 73 1b bc cd ef a4 3a b5 a2 06 3d 36 42 4a 3b
       -0.009488057 0.0012583673 0.032870013 0.0030862219
0000f0 c7 66 cb 3b f1 a5 d4 3c c9 1a 56 3c 66 26 be bb
       0.0062073204 0.025958033 0.0130679095 -0.0058029173
000100 36 c3 e2 ba 9f eb 7d 3c b4 5f 0a 3c 8a b9 34 bc
       -0.0017300609 0.015498071 0.008445669 -0.011030564
000110 84 71 74 3c 4a 35 89 3c f0 1b 25 3b 0b 4a f1 bc
       0.014919642 0.016749043 0.0025193654 -0.029454252
000120 57 e3 86 3c 04 b7 6d 3c 51 12 7d 3c 3a 96 10 bd
       0.016465826 0.014508966 0.0154462615 -0.035299517
000130 fc c2 78 3c 6a 42 93 3b e1 71 a4 b9 41 25 a6 3c
       0.015183207 0.004494001 -0.00031365364 0.020281436
000140 5c 90 a2 3c fb 09 0c 3d 67 c3 06 bd a4 6e fc bc
       0.019844227 0.034189206 -0.032901194 -0.030814476
000150 72 b9 ea 3c 35 3c b1 3c fc ce 10 3c 4f 84 97 3c
       0.02865288 0.021635154 0.008838411 0.018495707
000160 d9 04 95 bc 68 06 fe 3c 23 3b 09 3d 24 ec 0f 3d
       -0.018190788 0.031008914 0.033503663 0.03513731
000170 9a 66 25 3d 9a d3 0c 3d 75 5e fe bc 25 1f 21 bc
       0.04038105 0.034381486 -0.0310509 -0.009834086
000180 4c b9 cb 3b 29 4e 9a bc 71 5b 1c 3d 3f 83 d9 3b
       0.0062171575 -0.018836098 0.038173143 0.00663796
000190 4d 8b 33 3c be 3c 2c 3c b4 51 a1 bb c0 23 86 3c
       0.010958505 0.010512529 -0.00492307 0.016374469
0001a0 79 14 da 3c 81 49 01 3d 0d c0 8b 3b 55 a2 02 bd
       0.02662109 0.03156424 0.0042648376 -0.031893093
0001b0 a2 57 62 3c b2 7f a6 bc e2 fa 09 3d 20 19 8c 3c
       0.013814839 -0.020324562 0.033686526 0.017101824
0001c0 36 d9 e4 3b 6d e3 63 bc 22 3c ae bc 1d 88 c4 bc
       0.0069839014 -0.013909203 -0.021268908 -0.023990685
0001d0 3a c6 47 bc 13 eb d8 bb f9 6f e0 3c 5c 25 71 3c
       -0.012193257 -0.00661982 0.027397143 0.01471838
0001e0 1e 0a 0a 3d f9 3c 21 3d d7 c8 fa bb 7c 5a 67 bc
       0.033701055 0.03936479 -0.0076533365 -0.014120694
0001f0 ba 32 e6 bc 32 56 39 bb 5d c7 10 3d 67 51 43 3d
       -0.02810036 -0.0028280136 0.035346378 0.047685053
000200 68 32 33 3d 11 6c 94 3c 67 91 d7 3c 13 c2 09 3d
       0.043749243 0.018117936 0.02631445 0.03363235
000210 31 39 8c bc e6 38 f1 bb f1 28 47 bc 9a 9b 86 3c
       -0.017117115 -0.007361519 -0.012155757 0.016431618
000220 70 a1 28 3d c1 29 98 3c fc 62 98 3b c6 3e 86 3c
       0.041169584 0.018574597 0.0046504717 0.016387355
000230 da ac c0 3c 4c b2 ef 3b 63 62 75 bc ca 21 c7 3a
       0.023519922 0.007314956 -0.0149770705 0.0015192565
000240 68 e0 77 bc 88 e8 93 3c 7c 64 b0 bc dd 55 c3 bb
       -0.015129186 0.018055215 -0.02153229 -0.0059611634
000250 82 3b ab bb 45 26 15 bc ab 76 22 bd e7 7e cc 3b
       -0.0052255997 -0.009103362 -0.03966395 0.006240714
000260 d4 dd 16 3c cc 57 7c 3c 3c 74 3a 3c c0 e7 db 3c
       0.009208161 0.015401792 0.0113802515 0.026843905
000270 72 4b d5 3a 9f bb 47 3d 9e f4 01 bc 1e 86 28 3c
       0.0016273095 0.048762914 -0.007931856 0.010285882
000280 a6 8d b5 bc c1 5a 17 3d f6 a5 de 3c 4f 3d aa 39
       -0.02216227 0.036951784 0.027178746 0.00032470605
000290 8c a9 0c b9 f6 93 36 3c 2e 51 5a 3d b5 08 d5 3c
       -0.00013414602 0.011143675 0.053300075 0.026005128
0002a0 01 58 85 3a 45 55 3f 3a 50 27 01 3d 6f 6f 6c 3d
       0.0010173322 0.0007298778 0.031531632 0.05772346
0002b0 49 8f 45 3d 57 db 36 3d 17 90 16 bc 1b da 6b 3c
       0.04823235 0.044642773 -0.009189627 0.014395262
0002c0 c3 28 44 3d d2 5d 13 3c f6 39 63 bc b0 23 93 3c
       0.047890436 0.0089945365 -0.013868799 0.017961353
0002d0 ed d6 35 3d b6 4f 1c bc 88 51 51 3d 95 18 8f 3c
       0.044394422 -0.009540489 0.051103145 0.017467776
0002e0 f8 a5 2f 3d 82 73 0d 3d 56 28 e5 3c 5f f6 13 3d
       0.04288289 0.034533985 0.027973335 0.03612363
0002f0 6f 7c 0e 3c 41 4e 11 3c 32 b7 ec 3c f3 31 bb 3c
       0.0086966595 0.008868755 0.028895948 0.022850966
000300 f3 d3 3f bc 69 61 00 3d f2 80 41 3c 05 b6 a0 3c
       -0.0117082475 0.031342898 0.011810528 0.019618044
000310 74 25 0b 3d 14 25 94 3c e6 12 02 3d 53 5d 92 bc
       0.033971265 0.018084086 0.031756304 -0.017866766
000320 ed e3 c6 bb f1 66 74 bc 5a 5b c8 3b 70 ca 58 3c
       -0.0060696513 -0.014917121 0.0061144056 0.013231859
000330 da 8b a3 3c 2a bd a4 bc 8c 64 db 3c a9 d5 10 3d
       0.019964147 -0.020109732 0.026781343 0.035360012
000340 30 f8 80 3c 86 d0 42 bc ac ee 1f bc 17 2a 4b bc
       0.015743345 -0.011890536 -0.009761494 -0.012400172
000350 c9 5f 9e 3b 61 f7 1c bb a9 9a d4 bb 48 6d 2b 3d
       0.004833196 -0.002395116 -0.0064881635 0.041852266
000360 14 5f 85 3d 87 d7 82 3d 7c f7 83 3d ec 3d 99 3c
       0.06512275 0.06388765 0.06443688 0.018706284
000370 ae 5f 3e 3d 20 a2 a1 3c 01 aa 57 3c a2 a1 a8 bc
       0.046477966 0.019730628 0.013163091 -0.020584885
000380 a8 fb e3 bc ca 35 06 3d ac bd ef 3c ad 2c cf 3c
       -0.02782996 0.03276614 0.029265247 0.025289858
000390 5a 94 d8 3c 55 be ef bc a7 ff 88 3a 07 b5 e9 3c
       0.026437927 -0.029265562 0.0010452167 0.028528703
0003a0 b9 7f 10 3d 3e be a3 3c 7e 23 e0 3a 29 97 bc 3c
       0.035278056 0.019988175 0.0017100421 0.023021298
0003b0 dc 6a 91 3c 09 2f 1b 3b 55 5a 92 bc 08 37 d7 bb
       0.01775115 0.0023679158 -0.01786534 -0.0065678395
0003c0 db 04 50 3d ba 65 49 3d d2 5f 41 3d d4 33 1a 3d
       0.05078588 0.04916928 0.047210522 0.037647083
0003d0 c4 fd f2 3c bc fa d8 39 55 4b 9a 3c 92 11 0b 3d
       0.02966202 0.00041385542 0.01883475 0.033952303
0003e0 03 c0 3a 3c ee 5b 70 bc 1d 55 d2 3b 31 97 c3 3c
       0.011398318 -0.014670355 0.0064188377 0.023875805
0003f0 2c 0b 28 bc a4 df c7 bb 04 8e d1 3c 06 d7 1e 3c
       -0.01025657 -0.006099658 0.025580414 0.00969482

bias f4 [32]
000000 45 e0 4c bd b4 63 02 bd 6d c7 94 bc d3 1a a4 bd
       -0.050018568 -0.031833366 -0.0181615 -0.08012929
000010 81 72 87 bd db 70 17 3d f6 fd df bd b2 7a 3f bd
       -0.06613637 0.03697286 -0.10937111 -0.04674787
000020 d2 0e 56 bd be f7 34 bd 4e eb f5 bd b0 5b 7f bc
       -0.052260228 -0.044181578 -0.120077714 -0.015585825
000030 be e1 22 bd 3c ff ff bc ec c4 ba bc d5 36 8e 3c
       -0.039766066 -0.031249635 -0.022798978 0.01736013
000040 9c 20 a3 ba 9d 97 23 3d 49 6c 39 bc 74 b9 d8 bc
       -0.0012445631 0.03993951 -0.011317321 -0.026455618
000050 3f 86 b6 bc cf a0 8f bc 87 ce 10 bc 78 0c 52 3d
       -0.02228081 -0.017532734 -0.008838302 0.051281422
000060 5b fe 0c 3d 3f 71 54 bd bd 75 9c bc ef 57 df bc
       0.03442226 -0.051865812 -0.01909911 -0.02726361
000070 98 f1 4b bc a8 0d be ba 44 85 ee bc 0a 28 8b 3c
       -0.012447737 -0.001449992 -0.02911628 0.016986866

weight f4 [64, 32, 5, 5]
000000 70 0a b6 bc 3b fd 5c bc 58 c8 4d bc f9 f9 ad bc
       -0.022221774 -0.013488109 -0.012559973 -0.02123736
000010 0d c5 b6 bc ca 81 09 3d 3a 77 04 3b f2 29 ab 3c
       -0.022310758 0.033571042 0.0020212666 0.020894025
000020 06 22 c2 3a 1b fe af 3c e3 9e cd bc 97 32 7a bc
       0.0014811165 0.021483472 -0.025100177 -0.015270851
000030 26 5e 47 bc c7 87 e5 3c c1 be 01 bd aa 45 00 bd
       -0.012168443 0.028018845 -0.031676058 -0.031316437
000040 88 a4 0a bd 78 25 cc bc c8 30 8d bc c1 95 a4 3b
       -0.033848315 -0.02492021 -0.017235175 0.005022735
000050 c6 7d 50 3c 66 42 72 3c a9 1d 71 bc 50 9a f4 3c
       0.012725299 0.014786338 -0.014716544 0.029858738
000060 21 bc 79 3c 67 6d b1 bc af 2a b2 b9 e0 bd 8a bc
       0.015242607 -0.021658612 -0.00033982607 -0.016936243
000070 78 07 15 bd 9d fa cb bc e2 b4 0a 3d a4 52 d5 3b
       -0.036384076 -0.024899775 0.03386391 0.0065100957
000080 47 b1 8f 3c 6e 2f 43 bb 48 14 cd bc 72 6f c8 3c
       0.017540587 -0.002978291 -0.025034085 0.024467204
000090 d8 cf 47 3a 49 51 95 3c 76 85 ba 3b 02 c0 75 bc
       0.00076222187 0.018227236 0.0056921793 -0.0149993915
0000a0 42 e9 c4 bc a8 9a e9 3c 8c bf 8e bc 92 94 4e bc
       -0.024037007 0.028516129 -0.017425321 -0.012608664
0000b0 94 fa 02 bb 52 09 94 3b 4e f5 46 bc bc 7a 12 bd
       -0.0019985782 0.0045177126 -0.012143446 -0.03576158
0000c0 eb b9 44 3c a6 08 02 bd 86 c0 9c 3b 00 a5 d8 bc
       0.012007217 -0.03174653 0.004783693 -0.026445866
0000d0 e3 d8 78 3c 1f 41 a4 bc f1 b5 e3 3c 4c 27 be 3b
       0.015188429 -0.020050583 0.027796717 0.0058030244
0000e0 90 f4 fe bc d4 99 23 3c b3 37 b1 3c f0 15 48 3c
       -0.031122476 0.009985406 0.021633005 0.012212262
0000f0 59 b1 10 b9 09 76 14 3d 5c 47 e9 bc e7 60 8f 3c
       -0.00013798977 0.03624538 -0.02847641 0.017502261
000100 19 ca fe 3c d9 87 f8 bc 1b a2 ae 3b f5 94 9f 3b
       0.031102227 -0.030338215 0.005329383 0.004870052
000110 0d b1 fd bc d5 cd 03 3d d1 00 d9 3c c5 4c 02 bd
       -0.030968213 0.03217872 0.026489647 -0.031811494
000120 3a 7f 15 3c 8f 25 bf 3c 6f 2a ba 3c 89 c8 98 bc
       0.009124571 0.023333339 0.022725312 -0.01865031
000130 24 74 ee bc 07 5a a4 bc e4 d8 15 3d d7 42 04 bb
       -0.029108115 -0.02006246 0.036583796 -0.0020181441
000140 91 73 4a 3c 56 41 1c bd 51 ae e1 3b f8 c1 be 3c
       0.012356655 -0.038148247 0.006887235 0.02328585
000150 dc a2 cc 3c a2 ac c6 bc b5 9b 95 bc 97 de 27 3d
       0.024980001 -0.02425224 -0.018262723 0.040983763
000160 cd 81 01 3c 93 a9 d9 bc 78 4c a7 3c db 0d d1 3c
       0.007904482 -0.026570117 0.020422205 0.025519302
000170 ea 03 cb 3c e4 34 df 3b 71 b2 30 3c bc 23 3f bc
       0.02478214 0.006811725 0.010784731 -0.011666235
000180 7c 81 92 bc 3a 53 b9 3c 6d 2d e3 bc 07 64 e8 3c
       -0.017884009 0.022622693 -0.027731622 0.02836801
000190 21 ff 2c 3c 15 69 33 3d 7e ee 2a 3d dc c5 97 bc
       0.010558874 0.043801386 0.04173135 -0.018526964
0001a0 e3 95 11 bd d9 81 40 bc cd f5 9f 3c 8a 6a e5 3b
       -0.035543334 -0.011749708 0.019526387 0.007001226
0001b0 e7 5e f4 3c d5 62 04 bd 49 0a b5 3b 9c 1c 00 3c
       0.02983041 -0.032320816 0.0055249077 0.007819321
0001c0 6d a2 d4 3c d6 53 d3 bc 12 ab f0 bc b1 02 fc 3c
       0.025956357 -0.025796812 -0.029378448 0.030763002
0001d0 bd 08 c6 3c 5c 01 77 bc ea b2 f6 3b 7b 44 17 3c
       0.024174089 -0.015076008 0.0075286524 0.009232636
0001e0 49 6c 11 3c 4a 6b 2f 3d 91 64 f6 3c 19 23 08 3d
       0.008875915 0.04282693 0.03007725 0.033236597
0001f0 cb 99 f3 3c ea ae 0f 3c 90 0a d6 3c 9f 00 1e 3c
       0.02973642 0.00876973 0.026128083 0.009643703
000200 ed e3 8d 3c f2 92 28 bc 72 ec 08 bd 9c 61 34 3d
       0.017320598 -0.010288941 -0.033428617 0.0440384
000210 b5 eb f5 3c 3b b5 85 bc 66 c9 55 3c 6c 4c 20 bc
       0.03001962 -0.016321769 0.013048505 -0.009783845
000220 f2 57 91 bc 3a 1a d9 bb b8 bb 8e bb 76 a4 9f 3c
       -0.01774213 -0.006625441 -0.004355874 0.0194876
000230 88 e7 e9 bb 70 c5 f6 b8 75 6d 90 bc b9 eb 90 bc
       -0.0071381964 -0.0001176697 -0.017630318 -0.017690526
000240 ef 8a a6 bc 5c b6 0b 3d bd e0 1f 3d 45 1a eb bc
       -0.02032992 0.03410946 0.039032687 -0.02869905
000250 3c 2c e8 3c c6 43 fb bc 98 0b 7f 3c 8b 19 a0 bc
       0.028341405 -0.030671965 0.015566729 -0.01954343
000260 3e 69 cf 3b 2e 91 1c bc 5d b5 0c bd eb ca c9 3c
       0.0063296845 -0.009556098 -0.03435265 0.024632892
000270 51 5a 59 3c 49 ac d3 bc e1 9e f6 bc 65 c5 94 3c
       0.013266162 -0.025838988 -0.030105056 0.018160531
000280 82 f5 1e 3c 70 42 27 bd 88 dc ec ba 4a a7 a7 bc
       0.009702088 -0.040834844 -0.0018071095 -0.020465512
000290 c6 db 35 bc dc 11 51 3c b2 f2 64 bc 0c b6 49 39
       -0.011099761 0.012760606 -0.013973879 0.00019236672
0002a0 39 a1 22 3c 46 4b 12 bd c4 d2 04 bd 20 84 23 bd
       0.009926134 -0.035716318 -0.032427564 -0.039920926
0002b0 80 93 ed 3c 4a 9b a6 bc fd c3 cb 3c f8 ff 52 3c
       0.029000998 -0.02033772 0.024873728 0.0128784105
0002c0 cf 22 fa bc 50 df 56 bc ec 1e f6 39 66 80 21 bd
       -0.030534176 -0.013114765 0.00046943815 -0.03942909
0002d0 03 0a ef bc de 30 20 bd 9c 5e 32 bc 75 7f b4 bb
       -0.029179579 -0.039109103 -0.010886814 -0.005508358
0002e0 eb 2e 06 3d 55 65 08 3d d7 7c 21 bd b5 4c a0 bc
       0.03275959 0.033299763 -0.039425697 -0.019567827
0002f0 7f 5d 18 3d 6a 3b a5 bc 5c fb 4a 3b b7 86 ac bc
       0.03719854 -0.020169932 0.0030972576 -0.02106033
000300 f3 58 22 3c 45 78 96 3c a7 51 bf 3b cf 03 ad bb
       0.009908902 0.018367896 0.005838591 -0.005279995
000310 7d d7 8a 3c 12 1b 62 3b 79 f5 7c bb e4 2f c0 3c
       0.016948456 0.0034500998 -0.0038598462 0.023460336
000320 9d 2c e7 ba f7 2b b1 bc ab ba fa 3c 23 a6 27 bc
       -0.0017637197 -0.02162741 0.030606588 -0.010232481
000330 05 7d df 3b a6 00 86 bc af 59 e8 bc 5c 64 f1 bb
       0.0068203234 -0.016357731 -0.028363077 -0.0073667
000340 42 d7 d4 3c 34 c5 e9 bc 98 a5 5e ba 8d 8b 77 bc
       0.02598155 -0.028536417 -0.00084933033 -0.015108955
000350 d9 f6 05 3d db f6 a3 bc d1 38 7b 3c 08 1a d4 3b
       0.032706115 -0.02001517 0.01533337 0.0064728297
000360 fa db c5 bc 72 aa d4 3c 8d 8a d9 3c 0e 4b ba bc
       -0.024152745 0.02596018 0.026555324 -0.022740867
000370 6b 23 18 bc 82 c5 92 3c 0d 9f a4 3b cd e7 6f 3c
       -0.009285788 0.017916445 0.005023843 0.014642668
000380 b5 44 a7 bb 5c e6 92 bc 52 7c f2 3b aa a5 86 bc
       -0.005104626 -0.01793211 0.007400074 -0.016436417
000390 2a 4d e6 3c 35 8d 00 bd 7a 05 bc ba 97 87 42 bb
       0.028112967 -0.031384666 -0.0014344894 -0.0029682869
0003a0 f8 6e 12 3d 32 a9 ba 3c 99 95 0f 3d 5d 71 72 bc
       0.03575036 0.022785757 0.035054777 -0.014797536
0003b0 61 cc 22 bc bd fd 1d 3d 2f 35 f0 bc 95 79 da 3b
       -0.009936423 0.03857206 -0.029322235 0.0066673257
0003c0 48 dd 1b bd de bf 37 3c 94 c3 e3 bb 43 eb 81 bc
       -0.038052827 0.011215178 -0.006950805 -0.015859252
0003d0 97 fb 0a bd b0 ff e4 ba 4e 90 95 bb bf dd f7 3c
       -0.03393134 -0.001747122 -0.0045643216 0.030257104
0003e0 92 51 9e 3b 7a 5e f5 ba ab 1c 8e 3c ce e8 88 3a
       0.0048315013 -0.0018720173 0.017347654 0.0010445358
0003f0 2e 6f 83 3c ab cc 08 3d 79 a8 1b bc 13 57 6b bc
       0.016044226 0.03339831 -0.009500616 -0.014364022

bias f4 [64]
000000 29 85 05 bc 81 6f d4 bc 9c 0f 40 bd 01 e6 09 3d
       -0.008149424 -0.025932075 -0.046889886 0.033666614
000010 8b 8e 84 bd f3 ce 34 3b 97 84 d4 bc ff 2d 71 3a
       -0.064725004 0.0027589172 -0.02594213 0.00092002744
000020 7d ca e8 bc c7 eb 55 bd 45 bb 2e 3c 02 04 1f bd
       -0.028416866 -0.052226808 0.010664766 -0.03882218
000030 23 24 5b bc 61 01 b2 bc 45 42 06 bd 5d 71 8d 3c
       -0.013375315 -0.021729173 -0.032778043 0.01726597
000040 b3 b8 d8 bc 8f be 36 3b fd 29 5a bd 7d 58 49 3d
       -0.026455259 0.0027884578 -0.0532627 0.049156655
000050 7e 4f 97 bc 83 bf 7d bc 1a e6 2c bd d6 8f 8e bc
       -0.018470522 -0.0154875545 -0.04221163 -0.01740257
000060 53 3b 97 bd ee 07 43 bd ab 46 e6 bc e5 93 1d bd
       -0.07384362 -0.047614984 -0.028109869 -0.03847112
000070 a0 c1 d6 3c d7 40 80 bb d4 55 c5 3c 20 7a d9 bc
       0.026215374 -0.0039139795 0.024088778 -0.026547492
000080 c2 5e 6d bb c1 df 2e bc ad 6e 0e bd 47 bd 61 3d
       -0.003621981 -0.010673464 -0.034773517 0.05511215
000090 c4 1b 0c bd c5 60 24 3d 91 7a 5f bc 97 8c 43 3c
       -0.034206167 0.04013135 -0.013640062 0.011935375
0000a0 a4 a5 37 bd e8 9e 7d bd 6d ad 9b bc 85 a7 22 bc
       -0.0448357 -0.061919123 -0.019003594 -0.009927635
0000b0 49 10 94 bd cb ed 04 3c 42 e2 6e 3b 1e 76 20 3d
       -0.07229669 0.008113335 0.0036450778 0.039175145
0000c0 78 3f 0a bd fa 21 66 bd ac e6 74 bb ca 74 b5 bc
       -0.033751935 -0.056184746 -0.0037368936 -0.022150416
0000d0 14 d1 86 3c 07 0b 06 3c e0 f3 47 bd 08 da 0f bb
       0.016457118 0.00818134 -0.04881656 -0.0021950025
0000e0 01 53 2e bc d8 ac a4 3b 23 5e ae 3b 10 fb 07 3d
       -0.010639907 0.0050254874 0.0053212806 0.033198416
0000f0 27 ed 06 3d ab 26 8d 3c 67 b7 14 3c fa aa c0 3c
       0.03294101 0.017230352 0.00907693 0.023519028

weight f4 [64, 1024]
000000 85 b6 6d bc e5 ee e9 3c 08 98 53 3c 88 36 d8 3c
       -0.014508848 0.028556297 0.012914665 0.02639319
000010 21 bf a1 3c a0 44 77 3c 62 94 ce 3c f0 7c cc bc
       0.019744458 0.015092045 0.025217239 -0.024961919
000020 82 3c 67 3c 63 8e 17 bd a9 6a 64 bb a6 1b fc bc
       0.014113547 -0.037001025 -0.0034853613 -0.030774903
000030 14 c9 2a bc 39 1b d0 bc 4e d7 c4 3c a3 7d a2 3c
       -0.010423917 -0.025403606 0.024028447 0.019835299
000040 21 05 35 3b 42 e0 1c bc 03 13 94 bc 43 41 ef 3b
       0.0027621465 -0.009574952 -0.018075472 0.007301481
000050 88 28 a5 3c 87 1c 25 bc 43 52 dc 3c ad 5c e3 3c
       0.020160928 -0.010077602 0.026894694 0.027754152
000060 24 6b 17 3d a3 ec 63 3a 65 e6 fe 3c d4 c9 06 3d
       0.03696741 0.00086946244 0.03111572 0.032907322
000070 f6 b8 fb 3c 2d a9 45 3b e5 c7 aa 3b 6d 4a 6f bc
       0.030727845 0.003016065 0.0052118176 -0.014605147
000080 2a 3b 88 3c cf 54 da 3b b2 f6 62 bc 43 17 e1 ba
       0.016629774 0.006662942 -0.013852762 -0.001717307
000090 4b b0 1b bc 40 10 ad bc 98 c5 92 3c 41 7e 98 bc
       -0.009502481 -0.021125913 0.017916486 -0.01861489
0000a0 8f 51 a5 3c 58 5c 05 b8 2a a2 b0 bc d6 87 a5 3c
       0.020180492 -3.1795673e-05 -0.0215617 0.020206373
0000b0 c2 93 aa 3b 76 ae a3 bc df d4 5c bc 19 85 28 3c
       0.0052056024 -0.01998065 -0.013478487 0.010285639
0000c0 77 b2 41 bc e6 d5 8c 3c e8 50 f8 3c 8a 72 5d 3c
       -0.0118223345 0.017191838 0.030312017 0.013516078
0000d0 34 50 c6 bc 25 ec a7 bc f3 77 61 bc 34 7b 6e 3c
       -0.024208166 -0.020498345 -0.013761508 0.014555741
0000e0 8b 85 cb 3c 4f 4a 2d 3d b7 5f 0a 3c 0f 64 04 bc
       0.024843952 0.042307194 0.008445672 -0.008080496
0000f0 07 3f 2a 3d 08 1e e4 bc 88 3d a2 bc 2c e3 96 bc
       0.041564014 -0.027846351 -0.019804731 -0.01841887
000100 26 a9 ad ba c6 77 32 bc 32 a1 e2 bc 9b b3 c2 3c
       -0.0013249263 -0.010892814 -0.027664755 0.023767283
000110 7c 86 e0 3c 48 33 e1 bc c6 d6 f0 bb 32 47 f1 bc
       0.027407877 -0.027490273 -0.0073498217 -0.029452894
000120 d4 51 7e 3c a0 17 f7 bc b4 82 88 3c 91 03 5f bc
       0.015522439 -0.030162632 0.016663887 -0.01361169
000130 6c 4f fd bc 47 19 82 3c b6 7b 95 3c b1 e5 fa bb
       -0.03092166 0.015881194 0.018247467 -0.007656776
000140 67 bd b0 3c 75 f2 89 3c 13 cb ca 3c d2 86 03 3b
       0.02157469 0.016839245 0.024755036 0.0020069373
000150 31 26 b5 bc 3b 9d 55 3c 11 a9 00 3d 3d db ad 3c
       -0.022112938 0.013037975 0.031411234 0.021222705
000160 fa d8 14 bd cc 39 9e 3c 74 d5 1c bc 03 7d 43 bb
       -0.036339737 0.01931467 -0.009572376 -0.0029829151
000170 c0 4e 5a bc 87 9d 4e bc ef 24 72 bc 88 19 0e bc
       -0.0133244395 -0.0126108 -0.0147793135 -0.008673079
000180 42 52 04 3b bc 03 d5 3c d5 ff a3 bb 5e 4a 11 bc
       0.002019063 0.026002757 -0.005004863 -0.008867828
000190 a3 44 c7 bc 1e af a0 3c 4c f3 c7 3c 9a 6b ca 3b
       -0.02432472 0.019614752 0.024408005 0.006177378
0001a0 32 ee c2 bc 66 ae de bc 98 c9 86 3b 05 7c 0d bc
       -0.023795221 -0.027182769 0.0041133873 -0.008635526
0001b0 77 ea cd bb 5a 10 9d 3c 4e 5d a2 3b 17 9a e7 bc
       -0.006284054 0.019172836 0.0049549704 -0.028271718
0001c0 30 40 ac 3c cf 71 20 bd 7e b4 a7 bc c2 a2 cd 3c
       0.0210267 -0.039171036 -0.020471808 0.025102023
0001d0 2b c3 45 3c cb 42 83 bc 10 0b 2a bd c1 4b 00 3d
       0.012070457 -0.01602306 -0.041514456 0.031322245
0001e0 93 c9 93 3c e6 d2 a2 3c a9 4d 33 ba 35 17 37 3c
       0.018040454 0.019875955 -0.00068398804 0.011174967
0001f0 c2 2c a5 3c 08 3b ee 3c 2b b8 e0 3c c8 03 ca 3c
       0.020162944 0.029080883 0.027431568 0.024660006
000200 0e ef c0 bc 6c 03 c4 3c f3 62 b2 39 43 19 18 bc
       -0.02355149 0.023927413 0.0003402453 -0.009283367
000210 dc 27 89 3b c6 1a 03 39 0a 9e 63 3c 37 17 d5 3c
       0.00418566 0.00012503107 0.01389266 0.026012046
000220 ef c8 f1 3b be 8c 4f bc 50 e7 45 bc b0 d5 87 bc
       0.0073786895 -0.012667833 -0.012079075 -0.016581386
000230 14 d3 db bc 71 5b 85 3a 9a e8 07 bc 54 83 49 3b
       -0.026834048 0.0010174346 -0.008295203 0.0030748444
000240 10 7a a6 3c 20 a0 40 bc f5 b1 09 bd be 47 f9 bb
       0.020321876 -0.011756927 -0.03361698 -0.0076074293
000250 c2 53 84 bc ac 0b 05 3c 52 e0 aa bc 26 7c b3 3c
       -0.01615322 0.008120459 -0.020858917 0.021909785
000260 1a 9c 85 bc ef 05 88 3b 07 2c ae 3c 9c 6a da 3c
       -0.016309787 0.004151098 0.021261228 0.026662163
000270 85 d0 04 3c b9 1e b9 3c f6 13 c4 3c 18 a3 4c 3c
       0.008106356 0.022597658 0.0239353 0.012490056
000280 e3 46 36 3c 3d ae 8f 3b 67 c3 0e bd 5d e2 06 bd
       0.011125299 0.0043847845 -0.03485432 -0.03293072
000290 c3 cb e3 3b a2 72 0c bd d3 e5 33 3c 2d 45 ce 3b
       0.0069517805 -0.03428901 0.010980087 0.0062948675
0002a0 9a b0 e5 bc 76 d8 f3 3a d3 43 4e 3c f8 8b 37 3b
       -0.028038312 0.0018603939 0.012589413 0.0028007012
0002b0 77 af 75 bb 97 27 b1 3b a0 77 3f 3c 5e 72 9a bc
       -0.0037488618 0.005406331 0.011686236 -0.018853363
0002c0 80 02 92 bb 12 3b 41 bc 6f b8 47 bc 0c 4a a9 3b
       -0.0044558644 -0.011793869 -0.0121899685 0.005166298
0002d0 7b c5 07 3d 28 e7 e0 3c 23 f8 ee bc 14 90 40 3c
       0.033147316 0.027453974 -0.029171055 0.011753101
0002e0 5f be a1 bc b1 f1 54 bb c8 a9 4a bc 08 72 b4 3c
       -0.019744096 -0.0032492692 -0.012369581 0.02202703
0002f0 e9 79 95 bc cb b5 37 bc 78 9e 2c 3b 30 98 ab bc
       -0.018246608 -0.011212776 0.0026339572 -0.020946592
000300 4f 09 ac bc e1 f3 75 3c df 96 b6 bc ed ab 41 3c
       -0.021000532 0.015011759 -0.022288738 0.011820775
000310 25 75 4a bc 97 c6 48 bd ee b1 a7 bc da d5 19 3d
       -0.012357031 -0.049017515 -0.020470586 0.03755746
000320 91 60 04 3d 49 43 d4 3c 22 19 ab bc 82 17 05 3d
       0.032318655 0.02591099 -0.020886008 0.032493122
000330 3c e1 85 bc 3b fc cc 3c a2 c4 30 3d 5c dd 98 bc
       -0.016342752 0.025022617 0.043156274 -0.01866024
000340 9d e0 f1 bb 7b 95 c8 3c 6a 43 e0 3b 9b e2 c4 3c
       -0.0073815123 0.02448534 0.006843974 0.024033835
000350 ce 2c ce 3a 9d da 15 bc 07 07 d2 bc 18 5c db bb
       0.0015729906 -0.00914636 -0.025638117 -0.006694328
000360 00 3d f6 3c 30 6d cb 3c da a0 4b bc 60 3f 1f 3c
       0.030058384 0.024832338 -0.012428487 0.0097197
000370 7c 6f 88 bc 56 32 70 bb 99 2a cc bc b1 3c 01 bd
       -0.016654722 -0.0036651096 -0.024922656 -0.03155202
000380 89 98 53 3c 80 0d 56 bc d9 cb 45 3c 36 2c 95 bc
       0.012914785 -0.013064742 0.012072527 -0.018209558
000390 3c 00 be bc 87 7d f9 bb ec 96 22 bd 10 26 94 3c
       -0.023193471 -0.007613841 -0.03969471 0.018084556
0003a0 b1 41 06 3d 48 8c bf 3c 34 d0 73 3a 22 12 c5 bc
       0.032777492 0.023382321 0.0009300739 -0.024056498
0003b0 8d 64 80 3a 2b ec 57 bc 5d a4 a6 3c 95 19 8f bb
       0.0009795591 -0.013178865 0.020342046 -0.0043670633
0003c0 73 03 b3 3c 13 3c 43 3c 17 e5 13 bb 01 b0 2c bb
       0.02185223 0.011916178 -0.0022566968 -0.0026350024
0003d0 9a 58 7f 3c 72 c7 d0 3b 5c ab 45 3a 58 15 de 3b
       0.015585089 0.006371432 0.0007540488 0.0067774467
0003e0 5a 24 08 bc 9f 29 d9 bb f2 ca 42 3c aa 04 f5 3c
       -0.008309448 -0.006627276 0.011889206 0.02990945
0003f0 fe f2 97 3b bc 56 6f 3c 7d 3a cc bc 2d ea bb 3c
       0.004637121 0.014608081 -0.024930233 0.022938812

bias f4 [64]
000000 d8 57 f9 bb d5 2c 8d 3c 27 7d 8c bc 71 24 f4 bb
       -0.0076093487 0.017233292 -0.017149521 -0.007450633
000010 6b e4 cd bb 04 11 c2 bb 16 d9 3e ba c7 10 08 bd
       -0.006283333 -0.0059224386 -0.0007280273 -0.033219125
000020 1d 34 16 3c 98 ee cb bc 49 2a 33 3d 0b ea 2a 3d
       0.009167698 -0.024894044 0.0437415 0.041727107
000030 7f 13 24 3d 45 56 bc 3a c0 3d 64 bc 03 ad e6 bc
       0.040057655 0.0014368972 -0.013930738 -0.02815867
000040 03 0a be bc 8b 3f 5e bc bc fb 15 bd 21 af c4 bb
       -0.023198133 -0.0135649545 -0.036617026 -0.0060023223
000050 9d ca f5 bc 01 23 00 bd 80 11 a3 3c c5 be ae 3c
       -0.03000384 -0.031283382 0.019905806 0.0213312
000060 76 cc 0b bd 6a 48 85 bb e1 a5 0a bd fb 13 70 bb
       -0.034130536 -0.0040674703 -0.0338496 -0.0036633003
000070 fd 58 cd bc 0c 4a 1f 3d 85 23 da bc 73 45 a6 bc
       -0.025066847 0.038888976 -0.026628265 -0.020296788
000080 44 5e f2 bc 58 6c c4 3c 19 96 7f bc d6 1a 09 3c
       -0.029585965 0.023977444 -0.015599751 0.008368215
000090 6c 1a 10 3d 76 ee 6e bc c5 82 0b 3d 63 9e 28 3d
       0.035181448 -0.014583221 0.03406026 0.041166674
0000a0 fc 88 d1 3b 44 83 01 3d 2b ff ed 3c 2d 43 67 3c
       0.0063945036 0.031619325 0.029052338 0.014115137
0000b0 47 28 b4 3c e4 11 23 bd 75 f1 67 bb dd b5 1d 3d
       0.021991862 -0.039811984 -0.0035391722 0.038503516
0000c0 61 d1 be 3c 97 0c 3c bd 22 77 87 3b b9 43 0f bd
       0.023293199 -0.045910444 0.004134075 -0.034976695
0000d0 32 27 34 bd ae 70 bc bc 8e d4 fb 3c 43 56 c8 3c
       -0.043982692 -0.023002949 0.030741002 0.024455195
0000e0 53 f2 76 3b a7 fc bc 3b f8 c5 bd bc 5d bf 17 bd
       0.0037681058 0.005767423 -0.023165688 -0.037047733
0000f0 e2 ac 00 bd e6 4d dc bc c6 4f 5b bc 90 89 1b 3b
       -0.031414874 -0.026892614 -0.013385719 0.0023733117

weight f4 [10, 64]
000000 18 bc 14 bd 83 26 1e be 4a 18 5f 3d 74 c2 6f bd
       -0.036312193 -0.15444379 0.054466523 -0.058535054
000010 50 bb 80 3d 4b 52 97 3d d8 f8 ed bd 6d 16 05 3c
       0.06285727 0.07388743 -0.11619729 0.0081230225
000020 b8 54 17 be 55 88 e1 bd d8 49 f2 bd a7 d8 91 bc
       -0.14778411 -0.110123314 -0.11830491 -0.017803503
000030 5b 9e b3 bd 03 9c 71 bc 6e 76 8e bb b0 33 e0 bb
       -0.08770438 -0.014746669 -0.004347614 -0.006842099
000040 4a 50 02 3e 8c 2f ac 3b fa f0 1b 3e fc 45 39 bc
       0.1272594 0.0052546915 0.15228644 -0.0113081895
000050 fc 28 d3 3d 59 e5 5d 3d a3 be f0 3d 35 a9 db bd
       0.103105515 0.0541738 0.11755111 -0.10725633
000060 00 16 aa bc 70 d6 c6 3d 2a ec c4 3d 64 ae 3b be
       -0.020762444 0.097088695 0.09615357 -0.18328243
000070 59 de 24 3e 6f 32 cd bd c8 29 4b be 0b 52 0e bd
       0.16100444 -0.10019385 -0.19840157 -0.03474621
000080 54 bf 25 3e d5 dd 17 be d0 d0 45 bd 19 de ab bd
       0.16186267 -0.14830716 -0.048294842 -0.08391971
000090 c5 e2 20 bc 43 e6 14 be 4e e4 82 bd 65 5f 86 3d
       -0.009819691 -0.14540963 -0.06391202 0.06561164
0000a0 20 da c2 bd c7 b3 1c be d1 f9 2c be 19 21 87 bd
       -0.0951426 -0.15302955 -0.16892172 -0.0659811
0000b0 be 0c 87 3d 47 e1 92 3d 57 97 19 3c 14 d3 19 be
       0.06594227 0.071718745 0.009374461 -0.15021926
0000c0 57 2d 69 3c ef 41 09 3e fd 59 ca 3d d9 0b 45 3e
       0.014232001 0.13404058 0.09880445 0.19242801
0000d0 6f 15 34 3d 5e 5e 46 3e 75 de 34 3d 87 b1 90 bd
       0.043965753 0.19371936 0.044157464 -0.07065111
0000e0 9b 42 a8 3d 29 84 10 3e 3c 1a 61 bd 4b 63 d6 3d
       0.08215829 0.14112915 -0.05495666 0.104681574
0000f0 99 32 9f 3d 13 0a 2f 3e 86 14 a8 ba db b5 3d be
       0.077733226 0.17093687 -0.0012823499 -0.18526404
000100 4a d0 3f 3c 68 cd 33 3e 8b c4 81 be b4 5d 49 b9
       0.011707375 0.17558825 -0.25345263 -0.00019203761
000110 1d 3e 4e be 94 05 3e be 7b 69 3c be 76 99 a7 bd
       -0.20140882 -0.18556815 -0.18399613 -0.08183567
000120 dc 3a 34 be 57 e5 12 be ec 51 96 bd f1 0a c9 3c
       -0.17600578 -0.14345299 -0.07339844 0.02454135
000130 83 ea 04 3e 02 7a c2 bc fe f4 c6 3d 73 e2 21 be
       0.12980084 -0.023739818 0.09714697 -0.1580904
000140 52 93 0c 3e 4f a8 b8 3c a3 2e f6 bd 16 6b 5a 3e
       0.13728073 0.022541193 -0.12020614 0.21329913
000150 dd 0f 82 bb 95 61 ed 3d a7 a4 5c 3e c6 1c 2c 3e
       -0.003969176 0.11590878 0.21547185 0.16807851
000160 e6 5e b5 3d c5 2d ea bd fe 05 1d 3e 41 46 b4 bd
       0.08855991 -0.11434511 0.15334317 -0.08802462
000170 aa 1c bf bd cf 59 5d be d8 2f 19 be 47 14 3b 3e
       -0.09331639 -0.2161629 -0.14959657 0.18269454
000180 23 4a 09 be 88 dd 3c be c6 a6 8c 3e 85 f5 ca bc
       -0.13407187 -0.18443882 0.27470988 -0.024775276
000190 aa 83 2b bd bd 0e 83 bd d0 ea a0 b9 d1 fb 1a 3e
       -0.04187361 -0.063992955 -0.00030692527 0.15135123
0001a0 30 b1 d6 3c 89 38 c5 bd b5 cf b8 bc a8 84 a4 3c
       0.026207536 -0.09629924 -0.02255998 0.020082787
0001b0 7c a6 43 bc d3 2c bf bd 34 53 6a be 19 a9 f4 3d
       -0.011941548 -0.093347214 -0.22883302 0.11946315
0001c0 5f 44 fa bd 1d 3f 95 3d c5 87 3e be b9 16 d9 bc
       -0.12220072 0.072874285 -0.1860648 -0.026500093
0001d0 d1 06 2c be b8 4b 91 bc 5f 7f 09 3d 8c 4b 85 3d
       -0.16799475 -0.0177363 0.033568736 0.0650855
0001e0 6e 36 e5 bd a2 8f 1b be 69 23 40 3e 18 5b 82 bc
       -0.11192022 -0.1519151 0.18763508 -0.015912578
0001f0 db ab 2e be 78 d3 11 3d 38 a9 92 3d 16 33 4e be
       -0.17057745 0.035602063 0.07161182 -0.20136675
000200 b2 19 a7 bd ba bd 84 bd ef 2a 5d 3e fa 0a b5 bc
       -0.08159198 -0.064815 0.21598409 -0.02209996
000210 d9 96 0e 3e da 31 3f 3e e4 b6 4f 3d c6 2b 77 3d
       0.13924731 0.1867136 0.050711527 0.06034448
000220 85 63 2d 3e b0 6c 1a 3e b7 71 ce bd 59 52 07 be
       0.16932495 0.15080523 -0.10080283 -0.13215007
000230 1e f6 e7 3b 24 4f fb 3c 17 b7 0f 3e 83 d6 b7 bc
       0.0070789 0.030677386 0.14034687 -0.022441154
000240 ca bd cc bd 8a ab e8 3d b2 6d e3 3d da c7 f6 bd
       -0.09997137 0.113608435 0.11104907 -0.120498374
000250 34 cc 17 3e ba 9f c3 bd 86 5d 27 3d 7d 5a 28 3d
       0.14823991 -0.0955195 0.040860675 0.04110192
000260 70 36 f3 bd 42 f5 11 3e 96 22 2d be 13 f1 35 3d
       -0.118756175 0.14253715 -0.16907725 0.04441936
000270 13 88 ce 3d 5c 73 e6 bd a4 51 dc 3b 9f ed c8 bd
       0.10084548 -0.11252472 0.0067235995 -0.098109476
000280 1c 15 35 be 03 f2 56 bd 34 eb d1 ba 7e a8 db bd
       -0.17683834 -0.052476894 -0.001601553 -0.10725497
000290 fc 7d f1 3d 2b 27 eb 3d fb 46 ab bd 85 12 85 3d
       0.11791608 0.1148208 -0.08363148 0.06497673
0002a0 e7 5f 0a 3e ff 17 20 3e 1c cf f4 3a 91 a8 6b bd
       0.13513146 0.15634154 0.0018677446 -0.057533804
0002b0 f9 17 88 3c 9b 59 91 bd 0e 09 04 3e f9 c6 04 3e
       0.016612994 -0.07097169 0.12894079 0.12966527
0002c0 51 83 64 bc f2 0a 13 bd 48 8f 88 bd 48 94 69 3d
       -0.013947324 -0.03589911 -0.06667954 0.057026178
0002d0 49 4b fc 3d 8b 9f 16 3e 07 17 03 be ad da 8b bd
       0.12319047 0.14709298 -0.12801753 -0.068288185
0002e0 84 9b 3c bc cf 37 a0 bd 33 e5 0b bd ca 54 07 be
       -0.011511687 -0.07823145 -0.03415413 -0.13215938
0002f0 bf ca 33 3d 1a 5b 2d 3e d9 e4 10 3e cf 75 3e 3d
       0.043894526 0.16929284 0.14149798 0.04649907
000300 af f5 3c bc 43 66 9b bc 9d c7 08 3e 65 2b 35 bd
       -0.011533185 -0.01896966 0.13357396 -0.044230837
000310 0e c8 42 bd f8 ca be bc 7c b8 1e 3e 70 65 10 bd
       -0.04755407 -0.023290142 0.15500063 -0.03525299
000320 0a b2 d7 3d 7b 50 2d 3d 82 44 eb bd af da 82 bd
       0.10532005 0.04231308 -0.11487676 -0.06389367
000330 44 cb 71 bd f8 ea cb 3d b1 26 2a be 72 09 70 3d
       -0.05903174 0.09956926 -0.16616322 0.058602758
000340 82 0e 52 bb 6b ff 53 3c 29 37 b4 bd 6d 94 9e bd
       -0.0032052104 0.012939314 -0.087995835 -0.07743154
000350 9c 32 c4 3a ce d3 4f bd 75 06 08 be f2 0b ad bd
       0.0014968696 -0.050739102 -0.13283713 -0.08449544
000360 10 81 ce bc 7b 26 1a 3a 1b a7 d1 3d dc 28 9b bd
       -0.025208026 0.0005880368 0.10236951 -0.07576153
000370 17 42 80 3d 94 0e 0e 3e 5b 43 db 3d e4 57 99 bd
       0.06262606 0.13872749 0.107062064 -0.07487467
000380 85 00 f9 bd e8 aa e9 3a ba 97 98 bc 94 ae d4 bd
       -0.12158302 0.0017827423 -0.018627036 -0.10384861
000390 1f 05 03 3d 8a fc 41 bd 7b 16 14 be e6 56 3d be
       0.031987306 -0.04735998 -0.144617 -0.1849018
0003a0 81 b0 d3 bd 60 b3 09 3c 4b f2 2f 3e b5 10 36 3e
       -0.103364 0.008404583 0.17182271 0.1777981
0003b0 bb b9 7d bd 37 d0 b1 3d 20 79 67 ba e9 d1 d9 3d
       -0.061944705 0.08682292 -0.000883 0.1063574
0003c0 85 00 3d 3d 19 5e 5b bd 7d e7 6d 3d 1d cc e4 bd
       0.046143074 -0.053556535 0.058082093 -0.11171744
0003d0 7a ec 4d bd b4 a5 ca 3d 70 94 47 3d 39 d5 ff 3d
       -0.05027435 0.098948866 0.048725545 0.12491841
0003e0 d2 6e 24 be cc 0b cc 3d 36 54 ef 3b cf 67 9b 3d
       -0.160579 0.099631876 0.00730374 0.07588159
0003f0 1d 1b 85 3d 14 b1 2f bd 04 c0 1e 3d 75 89 f6 3d
       0.06499312 -0.042893484 0.03875734 0.120379366

bias f4 [10]
000000 4a 97 d8 bd 24 fe 6b bc 98 fb b6 bd 8f 3e 92 3d
       -0.10575731 -0.014403854 -0.089347064 0.07140838
000010 01 1a 4e bb 64 a0 40 bd 5c c5 07 3e dd e9 94 bd
       -0.0031448605 -0.04702796 0.1325888 -0.072711684
000020 e2 93 ff bc cd 7e ae bd
       -0.031198446 -0.08520279
