models/xue_19.pth (torch, 587967 bytes, 10 tensors)

weight f4 [32, 3, 5, 5]
-0.10800309 0.08037265 0.0744195 0.025828607 0.058872066 0.008969416 -0.016736792 0.043997597
-0.07491827 0.06947159 -0.08563072 -0.11126154 -0.23684658 -0.07459752 -0.064669326 -0.03171083
0.008136884 -0.14607969 -0.058532335 -0.008811822 -0.039830305 0.055747334 0.11195468 0.040465664
0.10182002 -0.02625675 0.066309504 0.117856234 -0.001662147 -0.1054076 0.04776156 0.029202236
0.16926566 0.0021796308 -0.07651756 -0.04516616 -0.093715705 -0.13604686 -0.10524974 -0.075371504
0.10548526 -0.0410657 0.00028067478 -0.01565549 0.1162589 0.05886805 0.015290049 0.04623029
-0.0041124215 -0.110356 0.027943715 0.09301192 0.18966557 0.03937631 -0.07588716 0.09932472
0.10315014 0.06682385 0.1825363 0.07321714 -0.062430043 -0.09903341 0.070838824 0.10016108
-0.0024201728 0.11255975 -0.10463683 -0.10484389 -0.05092188 0.093325846 0.029449398 -0.04666484
-0.026295282 -0.12095455 0.06498821 0.07045015 -0.033605073 -0.055491462 0.008685056 -0.15301168
-0.027727691 0.073325686 0.086681426 -0.027176911 -0.024392802 0.12115683 0.0770085 0.08808068
-0.035172105 -0.15642796 -0.12804456 -0.16786389 -0.052958313 -0.079513356 -0.05499842 -0.010436102
-0.07723805 0.057787187 0.062041722 0.15667978 0.14580083 0.14291853 0.09016699 -0.0526649
-0.09391603 0.10465145 0.08957514 0.1666063 0.0031115424 0.032093294 0.13357328 0.02768547
-0.119958855 0.07775627 0.059088267 -0.029367704 -0.14983018 -0.14423953 -0.14900318 -0.1336792
0.08753934 -0.13313997 -0.009766338 0.093639135 0.11251323 0.13722217 0.15532333 0.0717466
0.02594424 -0.008627995 -0.050068356 0.0951188 0.0018560027 0.05504856 0.102647595 -0.060279425
0.08323626 -0.10685718 0.038208812 -0.13449763 -0.06186457 -0.049479093 -0.107218236 -0.039105676
-0.064472444 0.06481077 -0.10541508 -0.050517138 0.0106652435 0.077849805 0.045051593 0.15862408
-0.10749791 -0.20123723 -0.07799278 0.018821497 0.22512597 0.004411678 -0.012673937 -0.10368637
0.017457632 0.23653217 0.03344015 -0.16472211 -0.23319444 0.17475899 0.14980036 -0.041585885
0.026396798 -0.22109337 0.038487434 0.053412225 -0.005847916 0.046386745 -0.07477875 0.15590656
0.098832145 -0.0016449955 -0.07804268 -0.010647127 0.20628133 0.10542577 -0.105847396 -0.22735152
-0.08257917 0.013620617 0.24869306 0.0856103 -0.24144067 -0.07250767 0.1620974 0.007663336
0.05536555 -0.19555692 -0.21923336 0.09638873 0.14996581 -0.03212439 -0.06537683 -0.1340787
0.12699561 0.022227932 -0.08716053 -0.17707615 0.06296712 0.1607564 0.14119913 -0.122459956
-0.2467112 -0.16468333 0.1894558 0.21495497 -0.10930357 -0.11950867 -0.054973334 0.14878997
-0.0078007868 0.08520396 -0.018281752 -0.20223886 0.04903323 0.15160823 0.036712036 -0.12409605
-0.14557166 -0.040758006 -0.029045243 -0.035805978 -0.12323745 -0.029542608 0.018686334 -0.033674736
0.09205318 0.02202889 -0.010864877 -0.08634666 -0.14347808 -0.08423982 0.0888745 0.03666133
-0.05393689 -0.13909324 -0.2539626 -0.22580726 -0.050829254 0.06316151 -0.09874968 -0.05626104
0.012259543 -0.06399704 -0.093073964 -0.05903681 0.08031891 -0.0718834 -0.043094125 0.12445615
00000000: b930 ddbd 6a9a a43d 4069 983d 8496 d33c
00000010: d623 713d 75f4 123c 991b 89bc d336 343d
00000020: c06e 99bd 1f47 8e3d 295f afbd 17dd e3bd
00000030: e987 72be 96c6 98bd 5a71 84bd 37e3 01bd
00000040: 9150 053c ea95 15be 9abf 6fbd 765f 10bc
00000050: 1a25 23bd 5157 643d 7f48 e53d 53bf 253d
00000060: 0487 d03d 6518 d7bc 47cd 873d 9c5e f13d
00000070: 66dc d9ba f1df d7bd a0a1 433d 8739 ef3c
00000080: fa53 2d3e 23d8 0e3b 3db5 9cbd 2700 39bd
00000090: 05ee bfbd de4f 0bbe 2d8d d7bd 605c 9abd
000000a0: a808 d83d 8234 28bd 8827 9339 f13f 80bc
000000b0: 2519 ee3d a01f 713d 1d83 7a3c f95b 3d3d
000000c0: 7ec1 86bb 5402 e2bd 38ea e43c 097d be3d
000000d0: b137 423e 0e49 213d ba6a 9bbd c26a cb3d
000000e0: 6140 d33d f1da 883d ccea 3a3e def2 953d
000000f0: a5b6 7fbd 07d2 cabd f213 913d 4121 cd3d
00000100: c39b 1ebb ba85 e63d d64b d6bd 65b8 d6bd
00000110: 7693 50bd 9f21 bf3d dd3f f13c a223 3fbd
00000120: 3469 d7bc 05b7 f7bd 8a18 853d 2b48 903d
00000130: 79a5 09bd 044b 63bd c44b 0e3c 18af 1cbe
00000140: 2f25 e3bc c72b 963d 0886 b13d 1da2 debc
00000150: 6ad3 c7bc 1221 f83d a2b6 9d3d a563 b43d
00000160: a010 10bd a72e 20be 1d1e 03be 83e4 2bbe
00000170: d1ea 58bd e6d7 a2bd 0646 61bd 2ffc 2abc
00000180: fc2e 9ebd 42b2 6c3d 761f 7e3d aa70 203e
00000190: d04c 153e 3c59 123e 79a9 b83d 26b7 57bd
000001a0: 0c57 c0bd 8053 d63d 2c73 b73d d89a 2a3e
000001b0: 05eb 4b3b 4274 033d 6fc7 083e a4cc e23c
000001c0: fdac f5bd ae3e 9f3d 8a06 723d 8a94 f0bc
000001d0: 156d 19be 87b3 13be 4a94 18be 33e3 08be
000001e0: d347 b33d d855 08be fe02 20bc e0c5 bf3d
000001f0: 566d e63d f883 0c3e 140d 1f3e e2ef 923d
00000200: 0489 d43c 6f5c 0dbc 7a14 4dbd a5cd c23d
00000210: 1e45 f33a 997a 613d e738 d23d 8fe7 76bd
00000220: c677 aa3d f0d7 dabd d880 1c3d bfb9 09be
00000230: b465 7dbd 97aa 4abd 3c95 dbbd 462d 20bd
00000240: 210a 84bd 82bb 843d dde3 d7bd 0feb 4ebd
00000250: 46bd 2e3c b86f 9f3d 0588 383d 5a6e 223e
00000260: dd27 dcbd 2211 4ebe aeba 9fbd 8a2f 9a3c
00000270: 6c87 663e d68f 903b 58a6 4fbc 8559 d4bd
00000280: 4f03 8f3c 7d35 723e 8af8 083d eaac 28be
00000290: 86ca 6ebe 05f4 323e 4465 193e f655 2abd
000002a0: 193e d83c 4d66 62be 00a5 1d3d c7c6 5a3d
000002b0: e09f bfbb 0700 3e3d 9a25 99bd f8a5 1f3e
000002c0: 8268 ca3d e49c d7ba d7d4 9fbd 4a71 2ebc
000002d0: 6a3b 533e 77e9 d73d 85c6 d8bd d6ce 68be
000002e0: 451f a9bd 0229 5f3c 65a9 7e3e 7454 af3d
000002f0: 393c 77be e77e 94bd dcfc 253e b91c fb3b
00000300: fdc6 623d 1340 48be b67e 60be 7467 c53d
00000310: a390 193e dd94 03bd 4ae4 85bd ed4b 09be
00000320: 230b 023e 5a17 b63c 3881 b2bd 7353 35be
00000330: e8f4 803d 539d 243e 8196 103e 49cc fabd
00000340: dca1 7cbe bfa2 28be b400 423e 281d 5c3e
00000350: 8dda dfbd f6c0 f4bd b82b 61bd 665c 183e
00000360: be9d ffbb 6a7f ae3d 9dc3 95bc b417 4fbe
00000370: 11d7 483d 303f 1b3e 5c5f 163d 1226 febd
00000380: bd10 15be def1 26bd 4af0 edbc 4aa9 12bd
00000390: eb63 fcbd 5703 f2bc 1514 993c 85ee 09bd
000003a0: 6186 bc3d ee75 b43c 9902 32bc 85d6 b0bd
000003b0: ebeb 12be ed85 acbd d503 b63d 312a 163d
000003c0: eeec 5cbd 756e 0ebe 6307 82be 053a 67be
000003d0: 5632 50bd d25a 813d 463d cabd fa71 66bd
000003e0: 40dc 483c e110 83bd 909d bebd 95d0 71bd
000003f0: 3e7e a43d 9b37 93bd 7783 30bd dee2 fe3d

bias f4 [32]
-0.11101307 -0.21947414 -0.0028034062 -0.13816418 -0.24853748 -0.38897288 0.10038887 0.008441827
-0.077913806 -0.116483234 -0.2663782 -0.232816 -0.3168559 -0.120206475 -0.049189508 0.1634821
-0.10953004 -0.028372698 -0.25777903 -0.302736 0.03318099 0.21732986 -0.14559692 0.16303661
0.0257344 0.114305384 0.06280941 0.1193597 0.1332873 0.0048053255 0.141991 0.071109205
00000000: d25a e3bd d4bd 60be 5ab9 37bb e97a 0dbe
00000010: 9c80 7ebe 7427 c7be ae98 cd3d 974f 0a3c
00000020: 4691 9fbd c38e eebd b962 88be 5167 6ebe
00000030: f03a a2be d02e f6bd f07a 49bd da67 273e
00000040: 4951 e0bd dc6d e8bc 9dfb 83be 3700 9bbe
00000050: cae8 073d b88b 5e3e 5c17 15be 12f3 263e
00000060: f3d0 d23c f118 ea3d 38a2 803d dc72 f43d
00000070: 777c 083e fe75 9d3b 1766 113e b4a1 913d

weight f4 [32, 32, 5, 5]
0.029258335 0.009666759 0.026408475 0.04633657 0.030890321 -0.010895661 0.03119571 0.035449777
-0.012904216 -0.0075188675 -0.015103571 0.040269855 0.014531926 -0.0030527206 0.046112504 0.022749491
-0.008733096 0.0026080252 0.0024639799 -0.025689913 0.026837545 0.017999427 -0.0011530162 0.027500136
-0.008779387 0.034944255 0.004745689 0.029951788 0.009514407 0.01844262 -0.013984638 0.03752287
0.011768437 0.050294578 0.030135326 0.007133679 0.043655284 0.013682774 0.0145921735 -0.007954207
0.0043941946 0.031031033 -0.018177759 -0.04380019 -0.03200992 -0.022699857 -0.033897206 0.0266304
0.048236497 0.04077254 0.013495753 0.0003459589 -0.018586885 -0.008098112 -0.017283907 -0.001181853
-0.015572254 -0.004870747 0.024348656 -0.0084900735 -0.010542768 0.022257702 -0.0139858 -0.023779977
-0.015855068 -0.014808809 0.011247485 -0.031492244 -0.00012669133 0.017512083 -0.021995211 -0.029934704
-0.0021261787 -0.01209463 0.020316506 -0.031657897 0.016520396 0.008050495 0.003690031 0.023794577
0.018679306 0.04026406 -0.026954241 -0.026805086 0.023178907 0.033778653 0.01509334 0.026893888
-0.0029143677 0.04679842 0.03949758 0.043304913 0.048466574 0.04085017 -0.031764958 -0.0086961
0.010460054 -0.010727588 0.049992815 0.014935005 0.008362223 0.016638283 0.0070940866 0.02683741
0.035285912 0.036158957 0.0032028793 -0.03228953 0.024527328 -0.0034433717 0.033187676 0.020681178
0.015008569 -0.0053101773 -0.020220252 -0.026328744 -0.006658785 -0.0010627508 0.040191766 0.028027657
0.03700822 0.043909293 -0.01834063 -0.014379484 -0.02684066 0.0066616386 0.049962886 0.06561712
0.07095397 0.04017759 0.03623642 0.051910482 3.2527227e-05 0.008953782 -0.002669175 0.028083429
0.053989228 0.022486078 0.008973146 0.0188528 0.019921781 0.0048155645 -0.02097379 0.00089443725
-0.0185871 0.019462848 -0.016550042 -0.008016721 -0.00453173 -0.008320869 -0.052494492 -0.014393455
-0.0044550346 0.0056396346 0.0039946362 0.014915358 -0.0036437807 0.0459863 -0.008076983 0.0069817905
-0.026518123 0.033858903 0.029030839 0.016604401 0.0126445955 0.024092758 0.06945478 0.037628457
0.0151001215 0.011990077 0.02577811 0.06424793 0.05675262 0.06588101 0.009930355 -0.0059103137
0.031574305 -0.012653002 -0.028915416 0.003729701 0.026583381 -0.024471564 0.043802924 0.0079519525
0.03546266 0.034036174 0.035043687 0.047569364 0.008267475 -0.0026495573 0.033701997 0.027903924
-0.011285295 0.032384254 0.008537363 0.009215736 0.017396837 0.007972009 0.039786495 -0.0136059765
-0.025789984 -0.030744696 -0.0038806957 0.0048334785 0.004292066 -0.027662583 0.013547214 0.015926534
0.012728343 -0.0038997352 -0.019022 -0.003949036 0.016738992 0.013509136 -0.0030145447 0.038705897
0.08288615 0.081513174 0.082057625 0.03376199 0.055268537 0.033311564 0.013034125 -0.031046337
-0.030494513 0.020553214 0.021819867 0.016658498 0.0096743 -0.041079897 -0.006618797 0.020152753
0.026627975 0.0080261845 -0.012592895 0.024566045 0.014082709 -0.00040453608 -0.029985184 -0.025443126
0.054435864 0.05881763 0.049367364 0.03869857 0.01530096 0.00033584147 0.012908756 0.016821573
0.016922936 -0.020850709 -0.009589513 0.019057449 -0.015039642 -0.0077982186 0.02213082 0.0003401349
00000000: 2daf ef3c 5361 1e3c 9656 d83c 6acb 3d3d
00000010: b30d fd3c b783 32bc 258e ff3c c933 113d
00000020: 346c 53bc d560 f6bb f874 77bc 01f2 243d
00000030: 5117 6e3c 2710 48bb 77e0 3c3d 245d ba3c
00000040: 4215 0fbc 67eb 2a3b b97a 213b a773 d2bc
00000050: 69da db3c 8973 933c ce20 97ba f747 e13c
00000060: 6bd7 0fbc b521 0f3d ba81 9b3b 745d f53c
00000070: 51e2 1b3c fa14 973c d31f 65bc 95b1 193d
00000080: 67d0 403c b001 4e3d 5cde f63c a3c1 e93b
00000090: e2cf 323d b72d 603c 0314 6f3c 5d52 02bc
000000a0: 2dfd 8f3b cb34 fe3c 86e9 94bc d467 33bd
000000b0: d51c 03bd 0df5 b9bc ccd7 0abd ff27 da3c
000000c0: a293 453d 1b01 273d 4a1d 5d3c d161 b539
000000d0: 8643 98bc f2ad 04bc fb96 8dbc 68e8 9aba
000000e0: c422 7fbc ca9a 9fbb d576 c73c f319 0bbc
000000f0: 93bb 2cbc c955 b63c b224 65bc 3ace c2bc
00000100: 7de2 81bc a6a0 72bc 5f47 383c 03fe 00bd
00000110: 72d8 04b9 8075 8f3c 4d2f b4bc a039 f5bc
00000120: 5c57 0bbb 8e28 46bc cd6e a63c b6ab 01bd
00000130: c855 873c 39e6 033c 72d4 713b d8ec c23c
00000140: 5805 993c edeb 243d 24cf dcbc 5796 dbbc
00000150: b1e1 bd3c 7c5b 0a3d 0e4a 773c 9250 dc3c
00000160: fafe 3ebb b3af 3f3d 37c8 213d 7e60 313d
00000170: e384 463d 8252 273d f91b 02bd 167a 0ebc
00000180: a560 2b3c c4c2 2fbc 44c5 4c3d f4b1 743c
00000190: b501 093c 024d 883c 8375 e83b 21da db3c
000001a0: f687 103d 6a1b 143d 66e7 513b 0742 04bd
000001b0: 89ed c83c 31aa 61bb cdef 073d 936b a93c
000001c0: 80e6 753c ff00 aebb f1a4 a5bc 61af d7bc
000001d0: f031 dabb 004c 8bba 1fa0 243d 429a e53c
000001e0: ee95 173d 3bda 333d 173f 96bc ed97 6bbc
000001f0: f2e0 dbbc e049 da3b e2a5 4c3d 4562 863d
00000200: 5150 913d 4291 243d a46c 143d 16a0 543d
00000210: d86d 0838 e2b2 123c 53ed 2ebb 380f e63c
00000220: cf23 5d3d b934 b83c 1a04 133c 3071 9a3c
00000230: 0133 a33c e2cb 9d3b 3ad1 abbc ab78 6a3a
00000240: f943 98bc 8d70 9f3c f493 87bc 9158 03bc
00000250: e87e 94bb 4154 08bc 7704 57bd 87d2 6bbc
00000260: 8afb 91bb afcc b83b 70e5 823b 8c5f 743c
00000270: 7fcc 6ebb 215c 3c3d 5255 04bc 81c7 e43b
00000280: 893c d9bc a2af 0a3d 15d2 ed3c f405 883c
00000290: 472b 4f3c 2d5e c53c 4f3e 8e3d 4c20 1a3d
000002a0: 8066 773c 0772 443c 9d2c d33c 6b94 833d
000002b0: 6f75 683d 9fec 863d edb2 223c 4eab c1bb
000002c0: 0f54 013d 894e 4fbc 06e0 ecbc 006e 743b
000002d0: 64c5 d93c 9778 c8bc b26a 333d e848 023c
000002e0: 4b41 113d 8469 0b3d f889 0f3d 18d8 423d
000002f0: 4e74 073c 32a4 2dbb 1b0b 0a3d c596 e43c
00000300: f5e5 38bc 5aa5 043d 4ce0 0b3c 99fd 163c
00000310: d083 8e3c 079d 023c 2af7 223d 9aeb 5ebc
00000320: 8445 d3bc 4ddc fbbc 4553 7ebb 2862 9e3b
00000330: 76a4 8c3b a49c e2bc 22f5 5d3c 5d78 823c
00000340: 8a8a 503c b392 7fbb 06d4 9bbc ea66 81bb
00000350: 3620 893c 6c55 5d3c ab8f 45bb 138a 1e3d
00000360: 37c0 a93d 61f0 a63d d40d a83d 034a 0a3d
00000370: 4361 623d b571 083d 158d 553c e354 febc
00000380: a1cf f9bc 375f a83c 94bf b23c 6777 883c
00000390: f580 1e3c 6543 28bd 7ee2 d8bb 6317 a53c
000003a0: e922 da3c 4280 033c 6e52 4ebc bb3e c93c
000003b0: 2abb 663c ea17 d4b9 7da3 f5bc 1a6e d0bc
000003c0: 24f8 5e3d c1ea 703d 6f35 4a3d 6482 1e3d
000003d0: e1b0 7a3c e113 b039 3f7f 533c 65cd 893c
000003e0: f8a1 8a3c 1bcf aabc 551d 1dbc 5e1e 9c3c
000003f0: d568 76bc 3388 ffbb b24b b53c 2254 b239

bias f4 [32]
-0.0054803137 -0.049918793 -0.06454073 -0.20921607 -0.1457426 -0.053551815 -0.15991911 -0.094157234
-0.09186405 -0.018501338 -0.2846247 0.003878311 -0.0917019 -0.010404789 -0.061327796 -0.039240737
-0.04195936 0.015222241 -0.088259935 -0.022843128 -0.06439789 -0.031820193 -0.074059375 0.04567783
0.008416662 -0.11948204 -0.06763713 -0.0692643 -0.06066411 0.009865 -0.13368417 -0.023154408
00000000: 3494 b3bb a677 4cbd ee2d 84bd bd3c 56be
00000010: 8c3d 15be 2659 5bbd d6c1 23be 82d5 c0bd
00000020: 3823 bcbd 1e90 97bc 54ba 91be 432b 7e3b
00000030: 35ce bbbd d978 2abc db32 7bbd e5ba 20bd
00000040: 94dd 2bbd b566 793c a0c1 b4bd 8321 bbbc
00000050: 0ae3 83bd e455 02bd 71ac 97bd ad18 3b3d
00000060: 0ae6 093c 00b3 f4bd 5685 8abd 71da 8dbd
00000070: ee7a 78bd cfa0 213c 81e4 08be 50ae bdbc

weight f4 [64, 32, 5, 5]
-0.009339319 -0.004363069 -0.020588214 -0.048520915 -0.034211382 0.037934944 0.007826904 0.004159126
-0.013044951 0.022254085 -0.024178239 -0.0012431773 -0.011214739 0.03156362 -0.013292123 -0.016841661
-0.035067476 -0.02852427 -0.0076049278 0.02328219 -0.00078987697 0.00845176 -0.011288617 0.038066395
0.004643884 -0.028765839 -0.017849749 -0.016614022 -0.03118476 -0.025615621 0.043381326 0.0003253253
0.008946869 -0.0065716985 -0.024217134 0.025803626 -0.0022794646 0.010763297 0.0031815653 -0.015539534
-0.024059338 0.020563304 -0.030462027 -0.020701608 -0.0029845207 0.004310417 -0.016791271 -0.053323545
-0.002757605 -0.0241076 0.00051434734 -0.03642803 0.005853955 -0.018909803 0.036000434 0.008322433
-0.044408094 -0.0012260032 0.02171767 0.020551527 0.012416329 0.043274753 -0.037819266 0.016750487
0.032895327 -0.04743259 -0.004190207 -0.0062476173 -0.043402366 0.029087653 0.01986139 -0.037042756
0.0066422657 0.018645693 0.027365912 -0.023020566 -0.03316355 -0.026335504 0.046840798 0.005642113
0.0126948375 -0.0568764 0.0124028595 0.052358076 0.05576447 -0.03706644 -0.031476222 0.05474992
0.03267894 -0.017487127 0.015209585 0.02467431 0.024228573 0.01835194 0.011294073 -0.01573005
-0.014579858 0.02431786 -0.018092219 0.0322621 0.017884566 0.06265025 0.066642575 -0.030353084
-0.048283532 -0.0106541375 0.029021848 0.0033827354 0.021557089 -0.026232492 0.00352003 0.004288849
0.032310233 -0.00881674 -0.0013380932 0.034150757 0.025564801 -0.006876536 0.012298338 0.023903104
-0.007684602 0.033203363 0.032741394 0.030659376 0.014923329 -0.005846918 0.03846932 0.0051109046
0.0027364881 -0.0233627 -0.049631685 0.07584624 0.034192562 -0.023594914 0.010200529 -0.02891886
-0.010040816 -0.012999242 -0.014443446 0.010548752 -0.013299292 -9.2351955e-05 -0.015688486 -0.035392202
-0.015122485 0.033151653 0.045531757 -0.0281302 0.023122014 -0.028726779 0.0052827625 -0.035464235
-0.00048488902 -0.0052475994 -0.038544755 0.033869904 0.009669046 -0.016839221 -0.049657084 0.015592065
0.011560751 -0.056707967 -0.0015456048 -0.0214104 0.020744162 0.03110096 -0.015564655 -0.0036250942
0.008540171 -0.039077792 -0.04586659 -0.053076755 0.015775379 -0.0051563443 0.043234814 -0.0032534713
-0.051450416 -0.001702517 0.009348533 -0.037065305 -0.029932575 -0.039743915 -0.0070970114 -0.021312563
0.020507663 0.018477311 -0.04499464 -0.011454647 0.033716444 -0.010979633 0.01199243 -0.009584806
0.009534497 0.00891281 0.00055595615 -0.0021481244 0.02211998 -0.009161749 -0.019485729 0.011833968
0.001129086 -0.015520742 0.027980935 -0.015062161 -0.003493954 -0.016330149 -0.020561773 -0.006577586
0.022486722 -0.025949785 0.013364022 -0.013446585 0.053609952 -0.031761307 0.020416835 0.024093078
-0.023304647 0.03108089 0.021484049 -0.027267598 -0.019658914 0.013479538 0.0019286358 0.016981218
-0.010402499 -0.0047866916 0.0022051816 -0.019910775 0.015855797 -0.033312622 -0.013000644 -0.027982945
0.028826049 0.009410565 0.04986177 -0.025975363 -0.02214871 0.04540192 -0.034185234 0.031046709
-0.055779546 -0.007309185 -0.020079013 -0.03066114 -0.028549325 -0.017207272 -0.017992286 0.020008687
-0.008404632 0.002395002 0.014944926 0.0036613205 -0.020559272 0.024115177 -0.025041156 -0.011735434
00000000: f103 19bc 13f8 8ebb 9da8 a8bc debd 46bd
00000010: 3c21 0cbd ac61 1b3d 6a3c 003c 4749 883b
00000020: 7dba 55bc 334e b63c 7111 c6bc 1cf2 a2ba
00000030: 06be 37bc db48 013d 34c7 59bc 86f7 89bc
00000040: eaa2 0fbd bbab e9bc c232 f9bb 4bba be3c
00000050: bf0f 4fba 4079 0a3c e4f3 38bc 82eb 1b3d
00000060: b92b 983b 56a6 ebbc a339 92bc 211a 88bc
00000070: 2f77 ffbc dad7 d1bc 9eb0 313d 6c90 aa39
00000080: e395 123c 6757 d7bb 0363 c6bc 2062 d33c
00000090: 1263 15bb 8a58 303c cf81 503b 8899 7ebc
000000a0: 1718 c5bc 6074 a83c 808b f9bc 6b96 a9bc
000000b0: f397 43bb 663e 8d3b d98d 89bc ca69 5abd
000000c0: efb8 34bb 4d7d c5bc 44d5 063a 8f35 15bd
000000d0: 89d2 bf3b bbe8 9abc 3175 133d d05a 083c
000000e0: 43e5 35bd d7b1 a0ba 41e9 b13c ad5b a83c
000000f0: dc6d 4b3c de40 313d 60e8 1abd 5138 893c
00000100: 40bd 063d ad48 42bd 014e 89bb d0b8 ccbb
00000110: aec6 31bd 3b49 ee3c 5bb4 a23c 25ba 17bd
00000120: 5da7 d93b dabe 983c 7a2e e03c a095 bcbc
00000130: 81d6 07bd 8ebd d7bc 23dc 3f3d 79e1 b83b
00000140: 02fe 4f3c 3af7 68bd 5d35 4b3c 6c75 563d
00000150: 4969 643d fbd2 17bd 36ed 00bd 7441 603d
00000160: 5ada 053d 2a41 8fbc a031 793c c721 ca3c
00000170: 007b c63c cf56 963c c70a 393c 4edc 80bc
00000180: 5be0 6ebc 4036 c73c 2236 94bc 4425 043d
00000190: a782 923c c64e 803d e77b 883d 08a7 f8bc
000001a0: f4c4 45bd b18e 2ebc 3abf ed3c e2b0 5d3b
000001b0: 7e98 b03c 86e5 d6bc 4eb0 663b 7989 8c3b
000001c0: bc57 043d 1674 10bc f562 afba aae1 0b3d
000001d0: 466d d13c 9154 e1bb f87e 493c 71d0 c33c
000001e0: 1dcf fbbb 4000 083d d71b 063d 5f29 fb3c
000001f0: fb80 743c 8197 bfbb 0192 1d3d 6079 a73b
00000200: a756 333b 2263 bfbc 984a 4bbd 4655 9b3d
00000210: 800d 0c3d 1f4a c1bc 1f20 273c 3fe7 ecbc
00000220: 3c82 24bc c6fa 54bc 34a4 6cbc acd4 2c3c
00000230: 46e5 59bc 14ad c1b8 2485 80bc 6af7 10bd
00000240: 4dc4 77bc 07ca 073d 827f 3a3d 4e71 e6bc
00000250: 616a bd3c 6c54 ebbc 061b ad3b f242 11bd
00000260: b438 feb9 0ef4 abbb 1be1 1dbd 2bbb 0a3d
00000270: eb6a 1e3c 68f2 89bc 3a65 4bbd dc75 7f3c
00000280: 4e69 3d3c 9d46 68bd e495 caba dd64 afbc
00000290: a9ef a93c 71c7 fe3c e502 7fbc fd92 6dbb
000002a0: 13ec 0b3c 0910 20bd 9bde 3bbd 0367 59bd
000002b0: 5e3b 813c 8df6 a8bb fd16 313d 3138 55bb
000002c0: acbd 52bd fe26 dfba 972a 193c cad1 17bd
000002d0: 2935 f5bc 84ca 22bd 0c8e e8bb af97 aebc
000002e0: b0ff a73c bb5d 973c 4d4c 38bd 46ac 3bbc
000002f0: 411a 0a3d ebe3 33bc e67b 443c 9709 1dbc
00000300: 9436 1c3c 0907 123c 96bd 113a 8cc7 0cbb
00000310: f634 b53c 291b 16bc 89a0 9fbc 42e3 413c
00000320: d7fd 933a b64a 7ebc 4638 e53c 48c7 76bc
00000330: d2fa 64bb cec6 85bc 2a71 a8bc ca88 d7bb
00000340: 1336 b83c a594 d4bc c5f4 5a3c 114f 5cbc
00000350: 1c96 5b3d 2518 02bd 3541 a73c d95e c53c
00000360: 63e9 bebc 5a9d fe3c 51ff af3c 4c60 dfbc
00000370: bb0b a1bc 48d9 5c3c 47ca fc3a 321c 8b3c
00000380: 3e6f 2abc aed9 9cbb cf84 103b ec1b a3bc
00000390: 04e4 813c d172 08bd a700 55bc 7d3c e5bc
000003a0: 9b24 ec3c c52e 1a3c db3b 4c3d 49ca d4bc
000003b0: 3671 b5bc 5df7 393d d105 0cbd ab55 fe3c
000003c0: 1879 64bd e381 efbb be7c a4bc 122d fbbc
000003d0: 46e0 e9bc 44f6 8cbc 8f64 93bc 42e9 a33c
000003e0: 95b3 09bc 77f5 1c3b 90db 743c c4f2 6f3b
000003f0: eb6b a8bc 318d c53c 1c23 cdbc fa45 40bc

bias f4 [64]
-0.03797149 -0.043908566 -0.09668989 -0.011040184 -0.11040815 -0.044353187 -0.055850442 -0.033591516
-0.04557057 -0.07458579 -0.034072947 -0.08457443 -0.040476598 -0.037186224 -0.06565791 -0.007819664
-0.04898505 -0.03483659 -0.054318447 0.035439428 -0.04893044 -0.030616954 -0.07301533 -0.012059233
-0.12174287 -0.096740305 -0.06514035 -0.07144792 0.0058730766 -0.034316875 -0.01363614 -0.06952203
-0.015920086 -0.026375758 -0.08121174 0.048930597 -0.061524536 0.032820646 -0.08225862 -0.016114177
-0.07664626 -0.12145582 -0.0318314 -0.05251722 -0.1462663 -0.036876082 -0.033771202 0.017156323
-0.048213158 -0.12334472 -0.004863837 -0.054596372 0.01947509 -0.02192365 -0.118943445 -0.010972261
-0.059747644 -0.024816738 0.0016234401 0.03178189 0.03476206 0.0055347127 -0.03926463 0.012258486
00000000: fe87 1bbd 78d9 33bd 5905 c6bd e3e1 34bc
00000010: ab1d e2bd b0ab 35bd 6fc3 64bd 4297 09bd
00000020: 35a8 3abd 6fc0 98bd 1390 0bbd 5c35 adbd
00000030: caca 25bd 9550 18bd a877 86bd 0c1e 00bc
00000040: 8ca4 48bd d0b0 0ebd 057d 5ebd ef28 113d
00000050: 496b 48bd 68d0 fabc 1089 95bd 1794 45bc
00000060: 5354 f9bd c81f c6bd 4e68 85bd 4953 92bd
00000070: f072 c03b da8f 0cbd 1e6a 5fbc 9161 8ebd
00000080: d76a 82bc f911 d8bc 5752 a6bd 736b 483d
00000090: 2701 7cbd f16e 063d 3577 a8bd e101 84bc
000000a0: b7f8 9cbd d4bd f8bd a461 02bd 4c1c 57bd
000000b0: d5c6 15be 600b 17bd ac53 0abd 6b8b 8c3c
000000c0: 297b 45bd 289c fcbd d260 9fbb 72a0 5fbd
000000d0: 398a 9f3c 3a99 b3bc 9f98 f3bd 00c5 33bc
000000e0: f2b9 74bd 794c cbbc 9cc9 d43a ba2d 023d
000000f0: a962 0e3d 895c b53b f3d3 20bd d1d7 483c

weight f4 [64, 1024]
-0.011573225 0.03449451 0.0002863978 0.034247555 0.03631197 0.016476644 0.026572235 -0.022588773
0.011153941 -0.04162577 0.006036498 -0.038894117 -0.026678665 -0.02908334 0.026332812 0.0029418694
-0.0029205857 -0.0051957746 -0.02638383 0.032210883 0.029817145 -0.0235341 0.040854916 0.040324014
0.03549848 0.0028024523 0.033259887 0.042756155 0.04326326 0.01714992 0.02251531 -0.0109364325
0.011606029 -0.0051146615 -0.035328962 -0.012462475 0.00958598 -0.018927911 0.01436449 -0.023602197
0.027454378 0.0066752923 -0.026657289 0.03365095 -0.0022498644 -0.021339761 -0.018229632 0.0108954655
0.0058030477 0.011512774 0.044624753 0.015659807 -0.0027596126 -0.026723536 0.0012775229 0.017558448
0.048299655 0.039303757 0.029138466 -0.01587989 0.043960225 -0.038893413 -0.0291256 -0.017426522
-0.002292507 -0.0172236 -0.051819675 0.029928861 0.032970555 -0.022719398 0.0075386427 -0.030343989
0.009995637 -0.029753257 0.033562712 -0.008239487 -0.036113314 0.015374605 0.010223161 -0.0031775562
0.02622164 0.0132960025 0.026939834 0.006212356 -0.024018709 -0.023838405 0.04748687 0.0038952979
-0.041650336 -0.0043828664 -0.013409428 -0.0066629034 -0.014255103 -0.004123025 -0.017264511 -0.01188923
-0.0074672713 0.021671923 -0.02777226 -0.016183753 -0.013996602 0.015656078 0.009797238 0.004236161
-0.032450777 -0.015201425 -0.01101202 0.0055243447 -0.01947157 0.0088770725 -0.0021084181 -0.038442355
0.041743048 -0.046644162 -0.046129767 0.029474344 0.023079341 0.0075340583 -0.060289945 0.029434312
0.025841657 0.0254271 -0.01648415 0.0022800677 0.041464627 0.026227057 0.0264004 0.027319157
-0.037718754 0.011144596 -0.010292027 -0.02382025 0.019132677 -0.015689084 -0.016412733 0.018034792
0.015039936 -0.0141367 -0.01769578 -0.029968075 -0.03621851 -0.00081007346 -0.015010888 -0.0041058394
0.017803764 -0.016461337 -0.031180656 -0.012444749 -0.0062919157 -0.018436203 -0.02835223 0.023381468
-0.005556161 0.00073067035 0.019454256 0.022972267 0.010433426 0.028717872 0.011046474 0.016918603
0.013218852 -0.0024458684 -0.055575028 -0.048207283 0.014414627 -0.01810375 0.016888313 -0.013643318
-0.034695327 0.010561918 -0.003871183 -0.013912074 -0.0055327397 0.0009891506 0.0035444037 -0.011883677
0.0022441347 -0.01421759 -0.014770909 0.015784154 0.03712098 0.029505424 -0.03366882 -0.00027884138
-0.018745357 0.0033486264 0.0073049315 0.026993942 -0.016027847 -0.004163939 0.012839403 -0.03272585
-0.009711101 0.009243931 -0.003719518 0.01720393 -0.005998357 -0.087923825 -0.021992521 0.03463599
0.016682936 0.03531356 -0.040688965 0.021743532 -0.018701676 0.016827382 0.046464022 -0.03809882
-0.0061130566 0.03188553 0.004438225 0.049377218 -0.0033528847 -0.019412566 -0.02699987 -0.0038018061
0.03369195 0.0125460215 -0.011006008 0.014283552 -0.030562803 -0.007864533 -0.023362609 -0.03176949
0.014308919 -0.0070406706 0.016326774 -0.01854658 -0.030878108 -0.008767995 -0.035634812 0.027270835
0.021473361 0.017315723 0.03006455 -0.0001061683 0.0038062776 -0.016090803 0.011671224 0.0012045022
0.02542348 0.003878449 -0.0079031 0.004491314 0.01819302 -0.009432995 0.002006248 0.0014108665
-0.017552802 -0.011218663 -0.0047948174 0.038717844 -0.003131663 0.0047836797 -0.013794234 0.020763896
00000000: a09d 3dbc 1e4a 0d3d a927 9639 2a47 0c3d
00000010: dcbb 143d 07fa 863c 04ae d93c 170c b9bc
00000020: 05bf 363c c97f 2abd d1cd c53b 704f 1fbd
00000030: 378d dabc 2f40 eebc e9b7 d73c 61cc 403b
00000040: 4c67 3fbb 5141 aabb e722 d8bc 8fef 033d
00000050: 1643 f43c 96ca c0bc 7c57 273d cb2a 253d
00000060: db66 113d 59a9 373b 853b 083d 1421 2f3d
00000070: d134 313d fd7d 8c3c 0772 b83c b92e 33bc
00000080: 3727 3e3c e498 a7bb 1ab5 10bd 692f 4cbc
00000090: 840e 1d3c b50e 9bbc 0a59 6b3c 6559 c1bc
000000a0: 01e8 e03c 69bc da3b 6360 dabc 94d5 093d
000000b0: 7672 13bb b9d0 aebc 4f56 95bc e582 323c
000000c0: 7e27 be3b 13a0 3c3c 72c8 363d ff48 803c
000000d0: 9eda 34bb 51eb dabc 8e72 a73a bcd6 8f3c
000000e0: dcd5 453d fafc 203d cbb3 ee3c 8b16 82bc
000000f0: a30f 343d b34e 1fbd cf98 eebc 11c2 8ebc
00000100: e33d 16bb 8218 8dbc de40 54bd 5f2d f53c
00000110: 220c 073d 081e babc b806 f73b f593 f8bc
00000120: bec4 233c 1abd f3bc 0e79 093d eafe 06bc
00000130: 8eeb 13bd c4e5 7b3c 0c7f 273c 8c3e 50bb
00000140: c4ce d63c 7ad7 593c edb0 dc3c 0591 cb3b
00000150: e2c2 c4bc c248 c3bc 9881 423d 4148 7f3b
00000160: 8b99 2abd 269e 8fbb 38b3 5bbc 7c54 dabb
00000170: 3c8e 69bc 711a 87bb 4e6e 8dbc 0ccb 42bc
00000180: 03b0 f4bb 5189 b13c a782 e3bc ca93 84bc
00000190: 0152 65bc 2d41 803c 9884 203c 7ecf 8a3b
000001a0: 1beb 04bd 660f 79bc c26b 34bc 9005 b53b
000001b0: d882 9fbc 2471 113c 632d 0abb bb75 1dbd
000001c0: c2fa 2a3d f30d 3fbd 91f2 3cbd 2e74 f13c
000001d0: e310 bd3c 43e0 f63b 97f2 76bd 3a20 f13c
000001e0: e2b1 d33c 7e4c d03c c509 87bc 306d 153b
000001f0: d0d6 293d 20da d63c a745 d83c 6dcc df3c
00000200: fb7e 1abd d397 363c e49f 28bc af22 c3bc
00000210: 22bc 9c3c 6586 80bc ff73 86bc b3bd 933c
00000220: 106a 763c 9e9d 67bc bef6 90bc 9c7f f5bc
00000230: dc59 14bd 1c5b 54ba 3af0 75bc 478a 86bb
00000240: 33d9 913c edd9 86bc 936e ffbc 0fe5 4bbc
00000250: 6a2c cebb 8507 97bc f042 e8bc 7e8a bf3c
00000260: 7510 b6bb 758a 3f3a 885e 9f3c 5630 bc3c
00000270: f6f0 2a3c be41 eb3c 45fc 343c e298 8a3c
00000280: e293 583c dd4a 20bb a4a2 63bd 0075 45bd
00000290: 542b 6c3c 514e 94bc 5c59 8a3c 3988 5fbc
000002a0: b01c 0ebd e50b 2d3c acb3 7dbb 78ef 63bc
000002b0: fc4b b5bb 63a6 813a 3a49 683b c1b3 42bc
000002c0: 5512 133b e5f0 68bc af01 72bc c54d 813c
000002d0: 2b0c 183d 5cb5 f13c 51e8 09bd 7531 92b9
000002e0: dd8f 99bc a174 5b3b 355e ef3b 6622 dd3c
000002f0: d54c 83bc a771 88bb 5c5c 523c 8a0b 06bd
00000300: 4f1b 1fbc db73 173c 28c3 73bb 42ef 8c3c
00000310: de8d c4bb 6811 b4bd a929 b4bc 78de 0d3d
00000320: a7aa 883c f4a4 103d 79a9 26bd 7e1f b23c
00000330: 4234 99bc 94d9 893c 0f51 3e3d 820d 1cbd
00000340: 0950 c8bb 679a 023d 886e 913b c43f 4a3d
00000350: 12bc 5bbb 1a07 9fbc d52e ddbc b927 79bb
00000360: 9200 0a3d d48d 4d3c 8b52 34bc 8f05 6a3c
00000370: d85e fabc 3eda 00bc f162 bfbc ba20 02bd
00000380: f56f 6a3c 6db5 e6bb babf 853c ffee 97bc
00000390: 16f4 fcbc a3a7 0fbc cff5 11bd 1667 df3c
000003a0: e7e8 af3c b4d9 8d3c ee49 f63c aca6 deb8
000003b0: be72 793b dcd0 83bc a938 3f3c 63e0 9d3a
000003c0: e744 d03c 942d 7e3b 017c 01bc df2b 933b
000003d0: 8709 953c d98c 1abc 427b 033b d3ec b83a
000003e0: e5ca 8fbc 7cce 37bc d81d 9dbb 9a96 1e3d
000003f0: 963c 4dbb 6ac0 9c3b 3601 62bc 0c19 aa3c

bias f4 [64]
0.0005391799 0.018135255 -0.023061171 -0.001261672 -0.00303107 0.0028326323 0.0012157353 -0.03425199
0.013368944 -0.036093745 0.05480985 0.05662074 0.041602254 0.0063758465 -0.022030167 -0.027404396
-0.028544934 -0.02864554 -0.04104446 -0.010572939 -0.048775986 -0.028810883 0.03623725 0.003567374
-0.03678302 -8.878438e-05 -0.059001602 0.0018651764 -0.02378962 0.052203067 -0.03699013 -0.042432584
-0.026595905 0.026704228 -0.039804503 0.00932557 0.041470334 -0.017421449 0.040711496 0.05517257
0.012026967 0.029551702 0.041338705 0.02011392 0.03608921 -0.03376305 0.0050736284 0.04040515
0.02380529 -0.051009074 0.01777552 -0.024384668 -0.051150315 -0.031326037 0.038255364 0.03303288
0.015647423 0.01642486 -0.028466227 -0.042089067 -0.03001407 -0.03473668 -0.030820295 0.0055121304
00000000: c057 0d3a 6390 943c c8ea bcbc b05e a5ba
00000010: eba4 46bb afa3 393b 4f59 9f3a d14b 0cbd
00000020: 6a09 5b3c 09d7 13bd 4b80 603d 26eb 673d
00000030: 2067 2a3d 7aec d03b 9c78 b4bc 2f7f e0bc
00000040: 11d7 e9bc 0daa eabc 3c1e 28bd 1f3a 2dbc
00000050: 54c9 47bd cd04 ecbc 836d 143d 9bca 693b
00000060: cba9 16bd c031 bab8 aaab 71bd ef78 f43a
00000070: 73e2 c2bc e2d2 553d f682 17bd cacd 2dbd
00000080: a8df d9bc d3c2 da3c 0c0a 23bd 47ca 183c
00000090: ccdc 293d 6db7 8ebc 19c1 263d a2fc 613d
000000a0: c10c 453c 6916 f23c c652 293d f3c5 a43c
000000b0: 48d2 133d 204b 0abd ae40 a63b df7f 253d
000000c0: 5003 c33c e4ee 50bd f89d 913c 5bc2 c7bc
000000d0: fe82 51bd bb4f 00bd a8b1 1c3d 7c4d 073d
000000e0: 062f 803c 6e8d 863c 0132 e9bc 9665 2cbd
000000f0: 11e0 f5bc 0d48 0ebd d87a fcbc 1a9f b43b

weight f4 [10, 64]
-0.073493205 -0.21093038 0.09278586 -0.047008 0.11688866 0.08885415 -0.14641152 0.024337852
-0.21220064 -0.15993424 -0.19638503 -0.029113267 -0.15843244 -0.046422057 0.07216429 -0.0029529354
0.1707129 -0.062141247 0.21930136 -0.061710555 0.17330919 0.00026372678 0.13825375 -0.17552805
-0.06243898 0.15668283 0.120451376 -0.1900702 0.255406 -0.16995977 -0.23245631 0.0078042173
0.24084243 -0.2252441 -0.036146887 -0.13777977 0.010446615 -0.18477398 -0.08744859 0.058019526
-0.07821721 -0.15506558 -0.28809246 -0.11676065 0.10437144 0.09041976 0.01273447 -0.16127035
0.063554175 0.17508233 0.13039932 0.28677782 0.052049465 0.2737461 0.038701937 -0.09051746
0.055870827 0.14124937 -0.11804674 0.11954699 0.11269781 0.19815914 0.05239911 -0.26226407
0.0074498625 0.21344204 -0.34816366 -0.0010616373 -0.29962984 -0.19622546 -0.24489899 -0.14408538
-0.18746753 -0.18134266 -0.121352255 0.032708906 0.19212696 -0.030129762 0.10468276 -0.22729
0.17154421 0.013932643 -0.17490017 0.2891254 -0.073844396 0.19011116 0.27362064 0.26495966
0.15158002 -0.18638317 0.18177365 -0.15317139 -0.18430494 -0.24964999 -0.21366931 0.21733353
-0.19080707 -0.22994006 0.3555143 -0.017658964 -0.05792045 -0.09061562 -0.027981011 0.17520186
0.03192234 -0.14203967 -0.007335659 0.07652895 -0.040220607 -0.162138 -0.32996902 0.12972553
-0.17282028 0.07107706 -0.26740882 -0.0200429 -0.22961745 -0.029845698 0.027374191 0.06093851
-0.14759725 -0.20232609 0.23357934 -0.034717873 -0.21783184 0.047644157 0.06104458 -0.24628007
-0.11348188 -0.07836056 0.3092317 -0.029342825 0.2210765 0.25753644 0.11565331 0.09578029
0.24282935 0.20706877 -0.10851465 -0.21972676 -0.011472196 0.027809918 0.19748074 -0.034345698
-0.17747669 0.14400846 0.12430949 -0.16078283 0.23090124 -0.14844207 0.016485712 0.075243086
-0.1832387 0.21686451 -0.26232374 0.07812919 0.14518057 -0.17336538 0.017251303 -0.16459642
-0.24737982 -0.056998305 0.0044495077 -0.15824296 0.17758636 0.21222171 -0.13239098 0.06792203
0.19603968 0.20847362 0.026692025 -0.056428906 0.022729887 -0.07139948 0.16844362 0.16530566
0.016901944 -0.05727324 -0.04480864 0.08213506 0.16386259 0.20443775 -0.17049697 -0.11683227
-0.008163511 -0.120701894 -0.051844995 -0.16001014 0.051267352 0.23098175 0.16966449 0.01909996
0.024461998 -0.018303992 0.1768919 -0.06612986 -0.07298131 -0.039576296 0.19976987 -0.07936884
0.11204069 0.06560104 -0.12293076 -0.06985549 -0.105860434 0.17289881 -0.24630682 0.077785924
0.042099938 0.034598872 -0.10650727 -0.040370706 -0.006529106 -0.05475661 -0.17443874 -0.0765271
-0.009659036 -0.01829703 0.20111562 -0.12136062 0.11592878 0.20000255 0.1088471 -0.121561095
-0.14610137 -0.0073788613 0.013567333 -0.08757692 0.0059332526 -0.058969837 -0.18139586 -0.26930177
-0.15267068 -0.008074113 0.23722622 0.2247018 -0.1221625 0.07673044 -0.03821601 0.12893258
0.043980714 -0.06032078 0.036223393 -0.17231901 -0.08643326 0.10619081 0.070139766 0.17200539
-0.19601037 0.1721612 0.049224533 0.15206179 0.0793584 -0.018405575 0.04649334 0.17250326
00000000: 9b83 96bd 22fe 57be 8306 be3d 768b 40bd
00000010: 5263 ef3d 2af9 b53d e7ec 15be 2d60 c73c
00000020: 204b 59be cdc5 23be 2819 49be f27e eebc
00000030: 1d3c 22be 0e25 3ebd dfca 933d 0986 41bb
00000040: 5dcf 2e3e d287 7ebd 8990 603e 35c4 7cbd
00000050: f777 313e cf44 8a39 6492 0d3e a0bd 33be
00000060: 04c0 7fbd 7771 203e 36af f63d c3a1 42be
00000070: 93c4 823e ef09 2ebe 0709 6ebe 85ba ff3b
00000080: 669f 763e 64a6 66be c20e 14bd 2416 0dbe
00000090: 4728 2b3c 6435 3dbe 3f18 b3bd e2a5 6d3d
000000a0: 5830 a0bd 83c9 1ebe db80 93be 3520 efbd
000000b0: b2c0 d53d ff2d b93d 3da4 503c 0e24 25be
000000c0: b128 823d c848 333e 6687 053e 8bd4 923e
000000d0: d231 553d 7328 8c3e ec85 1e3d 3861 b9bd
000000e0: cfd8 643d ada3 103e 7dc2 f1bd 0dd5 f43d
000000f0: 1cce e63d 3bea 4a3e 73a0 563d 7a47 86be
00000100: fa1d f43b 8d90 5a3e 8242 b2be a326 8bba
00000110: 1569 99be 54ef 48be cdc6 7abe 1e8b 13be
00000120: 7df7 3fbe e4b1 39be 8887 f8bd c6f9 053d
00000130: eebc 443e b1d2 f6bc ea63 d63d b6be 68be
00000140: 49a9 2f3e be45 643c 0819 33be 3f08 943e
00000150: bb3b 97bd 80ac 423e 0118 8c3e cba8 873e
00000160: cb37 1b3e 3bdb 3ebe df22 3a3e f6d8 1cbe
00000170: 6fba 3cbe 3fa4 7fbe 21cc 5abe ae8c 5e3e
00000180: ee62 43be 6875 6bbe f805 b63e 88a9 90bc
00000190: fe3d 6dbd af94 b9bd 6f38 e5bc 1e68 333e
000001a0: 00c1 023d d972 11be f85f f0bb 36bb 9c3d
000001b0: 5dbe 24bd 8107 26be b3f1 a8be c5d6 043e
000001c0: cdf7 30be da90 913d cfe9 88be 0231 a4bc
000001d0: d620 6bbe f77e f4bc d73f e03c a99a 793d
000001e0: bc23 17be 922e 4fbe 6c2f 6f3e 5434 0ebd
000001f0: 4f0f 5fbe 8526 433d e209 7a3d d830 7cbe
00000200: 3069 e8bd 807b a0bd 9e53 9e3e 5d60 f0bc
00000210: e161 623e d1db 833e a5db ec3d 7528 c43d
00000220: 42a8 783e d609 543e ee3c debd 0d00 61be
00000230: e1f5 3bbc a0d1 e33c 6438 4a3e 13ae 0cbd
00000240: 73bc 35be f476 133e f995 fe3d 41a4 24be
00000250: 6071 6c3e 3301 18be 0b0d 873c 0c19 9a3d
00000260: eda2 3bbe bb11 5e3e 4c4f 86be 3202 a03d
00000270: 37aa 143e b286 31be 9b52 8d3c f78b 28be
00000280: 2351 7dbe 0e77 69bd 2dcd 913b 710a 22be
00000290: 33d9 353e a650 593e 8091 07be b51a 8b3d
000002a0: a0be 483e 1c7a 553e 3ca9 da3c ff21 67bd
000002b0: 0734 ba3c e439 92bd 7c7c 2c3e e345 293e
000002c0: f275 8a3c 5897 6abd 4489 37bd 6d36 a83d
000002d0: 98cb 273e 2158 513e c296 2ebe c245 efbd
000002e0: 3fc0 05bc 8e32 f7bd 6b5b 54bd b3d9 23be
000002f0: b7fd 513d 7b86 6c3e 87bc 2d3e 8577 9c3c
00000300: 8764 c83c 41f2 95bc 2623 353e 186f 87bd
00000310: 3a77 95bd c11a 22bd 7990 4c3e 218c a2bd
00000320: 9775 e53d d759 863d 1fc3 fbbd 6510 8fbd
00000330: 5bcd d8bd 630c 313e db37 7cbe 3a4e 9f3d
00000340: fc70 2c3d 8cb7 0d3d 7c20 dabd c15b 25bd
00000350: 1cf2 d5bb 7848 60bd 12a0 32be 3dba 9cbd
00000360: ef40 1ebc a7e3 95bc 41f1 4d3e eb8b f8bd
00000370: 116c ed3d 78cd 4c3e 3aeb de3d 06f5 f8bd
00000380: 999b 15be 60ca f1bb 8549 5e3c 875b b3bd
00000390: bb6b c23b 5b8a 71bd d6bf 39be ece1 89be
000003a0: b455 1cbe 4949 04bc 6eeb 723e 3b18 663e
000003b0: 5530 fabd d924 9d3d 6488 1cbd e706 043e
000003c0: 1f25 343d ec12 77bd fb5e 143d 6574 30be
000003d0: ec03 b1bd 917a d93d 70a5 8f3d 2e22 303e
000003e0: f1b6 48be 074b 303e aa9f 493d 16b6 1b3e
000003f0: a886 a23d 4ac7 96bc cd6f 3e3d b2a4 303e

bias f4 [10]
-0.11272854 -0.03925569 -0.10406906 0.06838696 0.04616917 -0.07955939 0.17095414 -0.08650251
-0.02914719 -0.0790446
00000000: 39de e6bd 93ca 20bd 2922 d5bd 760e 8c3d
00000010: e21b 3d3d 09f0 a2bd 9a0e 2f3e 3a28 b1bd
00000020: 16c6 eebc 23e2 a1bd
