models/xue_28.pth (torch, 587967 bytes, 10 tensors)

weight f4 [32, 3, 5, 5]
0	0xbe01a29b	-0.12659685
1	0x3db5f5f0	0.088847995
2	0x3dbe26e3	0.09284761
3	0x3c9ecdb2	0.019385193
4	0x3d4927e5	0.049110312
5	0x3b8e30a6	0.0043392954
6	0xbc35314d	-0.0110591175
7	0x3d6250c1	0.055252794
8	0xbda34a70	-0.07973182
9	0x3d75130b	0.059832614
10	0xbdb9e777	-0.090773515
11	0xbe11595e	-0.14194247
12	0xbe8edd21	-0.27903083
13	0xbdb0b47d	-0.086281754
14	0xbd6d7f7d	-0.05798291
15	0xbc9cab87	-0.01912476
16	0x3bbc7d42	0.0057522366
17	0xbe2540ed	-0.16138048
18	0xbd62fef0	-0.05541891
19	0x3c7f27fa	0.015573496
20	0xbd40d132	-0.047074504
21	0x3d7f36ab	0.062307995
22	0x3e03849a	0.12843552
23	0x3d28684b	0.041115087
24	0x3dcff637	0.10154384
25	0xbd214133	-0.03936882
26	0x3da5db0c	0.080984205
27	0x3e10af4d	0.14129372
28	0xbbfa71c9	-0.007642959
29	0xbdf0adba	-0.11751886
30	0x3d61cb66	0.055125616
31	0x3d460473	0.048344087
32	0x3e485d79	0.19566907
33	0x3c0e1c9a	0.008673811
34	0xbda069f9	-0.07832713
35	0xbd20397c	-0.03911732
36	0xbde68a8e	-0.11256896
37	0xbe28b91e	-0.16476867
38	0xbdd6af5b	-0.10482665
39	0xbd728890	-0.059212267
40	0x3df695e9	0.12040312
41	0xbd2837d8	-0.04106888
42	0xbc5b7b76	-0.013396135
43	0xbc3b0671	-0.01141511
44	0x3e10a637	0.14125906
45	0x3d4070d0	0.046982586
46	0x3c828089	0.015930431
47	0x3d5b50c6	0.05354383
48	0xbc6055c2	-0.013692321
49	0xbdf34475	-0.118782915
50	0x3bc7dd0e	0.00609935
51	0x3dcbb34a	0.09946306
52	0x3e5341d5	0.20630582
53	0x3ce765c4	0.028246768
54	0xbdbdaa07	-0.09260946
55	0x3dd55ed6	0.10418479
56	0x3dfcaf01	0.12338067
57	0x3dca1bd8	0.09868592
58	0x3e4673ba	0.19380084
59	0x3d967093	0.073456906
60	0xbd6530c9	-0.05595473
61	0xbde7e8e2	-0.11323716
62	0x3d58b48e	0.052906565
63	0x3ddc6451	0.10761321
64	0x3c66ecf1	0.014094577
65	0x3dfdc070	0.1239022
66	0xbddbb5e2	-0.10728051
67	0xbdf23b83	-0.11827757
68	0xbd486836	-0.04892751
69	0x3de715b3	0.11283436
70	0x3c671488	0.014104016
71	0xbd5b8d8e	-0.053601794
72	0xbce00aa8	-0.027348831
73	0xbe0e4e9c	-0.13897175
74	0x3d4401f6	0.047853433
75	0x3d78701b	0.060653787
76	0xbcf16d2f	-0.029471008
77	0xbd7fcd41	-0.062451605
78	0xbbbe4c25	-0.005807417
79	0xbe21e2b2	-0.15809134
80	0xbd0a6b3c	-0.033793673
81	0x3dc32b2b	0.09529718
82	0x3dc57fb8	0.09643501
83	0xbd137abe	-0.036005728
84	0xbccc77ad	-0.02495941
85	0x3dfb89c0	0.12282133
86	0x3db78519	0.08960933
87	0x3db45209	0.088047095
88	0xbd25142c	-0.04030244
89	0xbe236437	-0.15956198
90	0xbe10c6c7	-0.14138328
91	0xbe41bacb	-0.18918912
92	0xbd9441bb	-0.072390996
93	0xbdc1c325	-0.09461049
94	0xbd6054e0	-0.054768443
95	0xbbdc30ae	-0.0067196703
96	0xbda25045	-0.079254664
97	0x3d73e138	0.059540957
98	0x3d9809ae	0.07423721
99	0x3e399799	0.18124236
100	0x3e1e3f45	0.15453823
101	0x3e299f70	0.16564727
102	0x3dcedb30	0.101004004
103	0xbd5e820a	-0.054323234
104	0xbdb9d671	-0.090741046
105	0x3de7bf5b	0.11315795
106	0x3e02f45a	0.12788525
107	0x3e469abc	0.19394964
108	0x3c249d6e	0.0100473
109	0x3d353e60	0.04424894
110	0x3e10a7c4	0.14126498
111	0x3d41e7f4	0.04734035
112	0xbde357fc	-0.11100766
113	0x3da43d21	0.08019472
114	0x3d7fd63c	0.06246017
115	0xbd2c6c2a	-0.04209534
116	0xbe2f8695	-0.17141183
117	0xbe261136	-0.16217503
118	0xbe2a9b4b	-0.16660802
119	0xbe0b52ec	-0.13605851
120	0x3db8935a	0.0901248
121	0xbe0dc66d	-0.13845225
122	0xbc1e7f58	-0.009673916
123	0x3dd08529	0.10181648
124	0x3e07f25b	0.13276045
125	0x3e07efa8	0.13275015
126	0x3e286d94	0.1644805
127	0x3d914f86	0.07095246
128	0x3c865326	0.01639707
129	0xbc4265a0	-0.01186505
130	0xbd646ff8	-0.055770844
131	0x3df2b6d5	0.11851279
132	0x3c8bce8c	0.017066263
133	0x3d600c62	0.05469931
134	0x3ddc74ae	0.107644424
135	0xbd82f7e0	-0.06394935
136	0x3dc0df85	0.09417633
137	0xbdd61386	-0.104529426
138	0x3d0ff1da	0.035142757
139	0xbe0ce5c5	-0.13759525
140	0xbdabc43b	-0.08387037
141	0xbd9d4f06	-0.07681088
142	0xbe02ce1b	-0.12773935
143	0xbd76bf76	-0.060241185
144	0xbd9822de	-0.074285254
145	0x3d69cf14	0.05708225
146	0xbdf1829e	-0.117924914
147	0xbd66ebed	-0.05637734
148	0x3c347fed	0.011016828
149	0x3db2b99c	0.087268084
150	0x3d0727c9	0.032996926
151	0x3e21d7c3	0.15804963
152	0xbdfc2699	-0.123120494
153	0xbe563ded	-0.2092206
154	0xbda17a25	-0.07884625
155	0x3cbc61e4	0.022995897
156	0x3e8641b0	0.2622199
157	0x3bfe48d2	0.0077601457
158	0xbd05be47	-0.032652166
159	0xbdcf9469	-0.10135729
160	0x3cd95f07	0.02653457
161	0x3e89faf1	0.26949266
162	0x3cf9030d	0.030396963
163	0xbe4f53fa	-0.20246878
164	0xbe81a3ce	-0.25320286
165	0x3e420eb3	0.1895092
166	0x3e304242	0.17212775
167	0xbd086a57	-0.03330454
168	0x3c7cb66e	0.015424354
169	0xbe70355c	-0.23457855
170	0x3cc08c43	0.023504382
171	0x3d4e4c29	0.0503656
172	0xbbf0c97f	-0.007348239
173	0x3d36c9d8	0.044626087
174	0xbda79dcb	-0.081843935
175	0x3e1c539d	0.15266271
176	0x3ddb3376	0.10703175
177	0xbc3f2c17	-0.011668227
178	0xbda0cad7	-0.07851189
179	0xba18cef1	-0.00058291765
180	0x3e5f53ae	0.21809265
181	0x3e16f5cb	0.147422
182	0xbdc68197	-0.09692686
183	0xbe7459b6	-0.23862347
184	0xbd8ff9d2	-0.07030071
185	0x3cc71e8a	0.024306554
186	0x3e8faf18	0.28063273
187	0x3dac3f48	0.084105074
188	0xbe8b6908	-0.2722857
189	0xbdae5bbf	-0.08513593
190	0x3e366991	0.17813708
191	0x3ce8fdfa	0.028441418
192	0x3d843c12	0.0645677
193	0xbe4d4a23	-0.20047812
194	0xbe65d1b9	-0.22443284
195	0x3db205e2	0.08692528
196	0x3e17a241	0.14807989
197	0xbd0431bb	-0.03227399
198	0xbd8523bd	-0.06500957
199	0xbe0c7106	-0.1371499
200	0x3df90603	0.1215935
201	0x3d120ce5	0.03565683
202	0xbdc33a1a	-0.09532566
203	0xbe38c755	-0.18044789
204	0x3d8b567a	0.068036035
205	0x3e2accb4	0.1667965
206	0x3e3afe58	0.18261087
207	0xbdf4e145	-0.11957029
208	0xbe8860a6	-0.26636237
209	0xbe25be2c	-0.16185826
210	0x3e450aa7	0.19242345
211	0x3e770be8	0.24125636
212	0xbdf5efaf	-0.12008607
213	0xbe224aad	-0.15848799
214	0xbd9b09bb	-0.07570215
215	0x3e239a3f	0.15976809
216	0x3c13fe52	0.009032803
217	0x3db1d012	0.086822644
218	0xbcec59d1	-0.028851422
219	0xbe5a143b	-0.2129678
220	0x3d274907	0.04084113
221	0x3e1f282c	0.15542668
222	0x3d185385	0.037189025
223	0xbdfc9bf8	-0.12334436
224	0xbe184071	-0.14868332
225	0xbd0d2318	-0.034457296
226	0xbcddf6d8	-0.027095243
227	0xbd18ad4e	-0.03727465
228	0xbe06ec6e	-0.13176128
229	0xbcf31075	-0.029670933
230	0x3c9992ff	0.018746851
231	0xbd4ddd13	-0.05025966
232	0x3dc72ac5	0.097249545
233	0x3cf453f0	0.02982518
234	0xbc4cedff	-0.012507915
235	0xbdb7c852	-0.08973755
236	0xbe2e9459	-0.17048778
237	0xbdd19b44	-0.10234693
238	0x3dd220e9	0.10260183
239	0x3d2c4c22	0.042064793
240	0xbd6ab267	-0.057299044
241	0xbe27c457	-0.16383491
242	0xbe98aa09	-0.29817227
243	0xbe866401	-0.26248172
244	0xbd8eaa55	-0.06966082
245	0x3dada8bf	0.084794514
246	0xbdb5ab77	-0.08870595
247	0xbd1cd6fa	-0.038290955
248	0x3c8a0cb6	0.016851764
249	0xbd72d1b0	-0.059282005
250	0xbdc349e5	-0.09535579
251	0xbd5962d4	-0.053072765
252	0x3db0995f	0.08623003
253	0xbda9552b	-0.082681976
254	0xbd52e4ce	-0.051487736
255	0x3dffffaf	0.1249994

bias f4 [32]
0	0xbe044d8d	-0.12920208
1	0xbe7a31b0	-0.24433017
2	0xbcbfb056	-0.023399513
3	0xbe1b2f45	-0.1515475
4	0xbe77a2dc	-0.2418322
5	0xbecf24a8	-0.40457654
6	0x3dc1430c	0.09436616
7	0xbbe3329f	-0.0069335247
8	0xbd953671	-0.072857745
9	0xbe1efe4e	-0.15526697
10	0xbe914a11	-0.2837682
11	0xbe82d7ee	-0.25555366
12	0xbeaf908f	-0.34289977
13	0xbe06733e	-0.13129899
14	0xbd939fb2	-0.07208194
15	0x3e24f237	0.16108023
16	0xbe000b13	-0.12504224
17	0xbd2f07f7	-0.042732205
18	0xbe9d2368	-0.30691075
19	0xbea0a0c2	-0.31372648
20	0x3ce0b88e	0.027431753
21	0x3e653138	0.22382057
22	0xbe1e81e2	-0.15479234
23	0x3e09663f	0.1341791
24	0x3c818ad8	0.015813276
25	0x3dfad34c	0.12247333
26	0x3d8032e8	0.062597096
27	0x3ddde526	0.10834722
28	0x3e1bfa26	0.15232143
29	0xbc3a1a06	-0.0113587435
30	0x3e05ab46	0.13053617
31	0x3d9f9326	0.07791738

weight f4 [32, 32, 5, 5]
0	0x3cfa0be0	0.03052324
1	0x3bb152aa	0.0054114657
2	0x3cd78adb	0.026311329
3	0x3d4fbf56	0.05071958
4	0x3d15a652	0.03653557
5	0xbc0ef531	-0.00872545
6	0x3d1a3cc9	0.037655625
7	0x3d1aaae9	0.03776065
8	0xbc492408	-0.012276657
9	0xba924c61	-0.0011161679
10	0xbc7251f6	-0.014790049
11	0x3d1eebcd	0.038799096
12	0x3c8ef31d	0.01744991
13	0x3a991184	0.0011678194
14	0x3d3bc768	0.045844465
15	0x3cbd0f3d	0.023078555
16	0xbc81ac37	-0.015829189
17	0xbbd48137	-0.00648513
18	0xbc0437b3	-0.00806992
19	0xbcf5aad8	-0.029988691
20	0x3cb051b7	0.02152334
21	0x3c878836	0.016544443
22	0x3b2556f9	0.0025228842
23	0x3d16a445	0.036777753
24	0xbba93667	-0.005163956
25	0x3cfa4362	0.030549709
26	0x3bac2422	0.005253331
27	0x3cc2fd78	0.023802504
28	0x3c447657	0.011991105
29	0x3cbcb66c	0.023036204
30	0xbc0bc4aa	-0.008530775
31	0x3d244060	0.040100455
32	0x3ccae9a3	0.02476961
33	0x3d6946c2	0.056952246
34	0x3d195ec1	0.03744388
35	0x3bf68d63	0.007524179
36	0x3d21b126	0.039475583
37	0x3c1f9280	0.009739518
38	0x3c812df2	0.015768979
39	0xba2f1a16	-0.00066796073
40	0xbc1c23fb	-0.009530063
41	0x3cb0b687	0.02157141
42	0xbcf5e56c	-0.030016623
43	0xbd546d9d	-0.051862348
44	0xbd14bedf	-0.03631484
45	0xbcf9899f	-0.03046113
46	0xbd1f448b	-0.038883727
47	0x3cf98469	0.030458646
48	0x3d70e0ba	0.058808066
49	0x3d3cb1f4	0.046068147
50	0x3c827605	0.015925417
51	0x3ae5023d	0.001747198
52	0xbca5c123	-0.020233696
53	0xbc17c40e	-0.009263052
54	0xbc2dae15	-0.010600586
55	0x3c07fa07	0.008299357
56	0xbd03fd6a	-0.032224096
57	0xbc07b5ce	-0.008283092
58	0x3ca42b66	0.020040225
59	0x3b710c9c	0.0036781197
60	0xbcab079f	-0.020877657
61	0x3cabbff9	0.020965563
62	0xbd072010	-0.03298956
63	0xbd05b055	-0.032638866
64	0xbc8c309e	-0.017113026
65	0xbcdcdb98	-0.02696018
66	0x3c2f3546	0.010693854
67	0xbd1bfbbb	-0.038081866
68	0xbb72fc2d	-0.0037076578
69	0x3ca78341	0.020448329
70	0xbc417733	-0.011808204
71	0xbcef5e07	-0.02921964
72	0xbb9e5ea9	-0.0048330617
73	0xbcb61f85	-0.022231827
74	0x3c83f482	0.016107801
75	0xbcdb02b7	-0.026734693
76	0x3c88d1c4	0.016701587
77	0x3c91fae0	0.017819822
78	0x3c60228b	0.013680111
79	0x3cf279ea	0.029599149
80	0x3ca41ea3	0.02003414
81	0x3d3c5c4b	0.045986455
82	0xbc98f1c9	-0.01866998
83	0xbcab4f11	-0.020911725
84	0x3c7a32c0	0.015270889
85	0x3d2b7eed	0.041869093
86	0x3ca7496d	0.020420754
87	0x3d0ff391	0.035144392
88	0x3be8f73e	0.0071095517
89	0x3d555be8	0.0520896
90	0x3d32a33d	0.043612707
91	0x3d47c9a1	0.048776273
92	0x3d628969	0.055306826
93	0x3d3b810d	0.04577737
94	0xbd16e27d	-0.03683709
95	0xbc5bf774	-0.013425697
96	0x3c4879d6	0.012236079
97	0xbb8eb2f7	-0.0043548304
98	0x3d5d4133	0.054017257
99	0x3c7533cd	0.014965964
100	0x3b20aa7a	0.0024515674
101	0x3c723950	0.014784172
102	0x3c45d301	0.012074233
103	0x3cf9ed94	0.030508794
104	0x3d1ee81d	0.03879558
105	0x3d1bc6cd	0.038031388
106	0xba508e18	-0.0007955744
107	0xbcfd1a13	-0.030896222
108	0x3ceb4bce	0.02872267
109	0x3afcc57a	0.0019284927
110	0x3ce8c256	0.02841298
111	0x3c7f4a99	0.01558175
112	0x3c552ef7	0.013011686
113	0xbc09f484	-0.0084201135
114	0xbcc933d7	-0.024560852
115	0xbd0a0368	-0.033694655
116	0xbbd32116	-0.006443153
117	0xbb953f87	-0.004554692
118	0x3d21cec6	0.039503835
119	0x3d05a5a4	0.03262867
120	0x3d214d3f	0.03938031
121	0x3d3a190d	0.045434047
122	0xbcba32c9	-0.022729294
123	0xbc3dee0f	-0.011592402
124	0xbcbcc11d	-0.023041302
125	0x3b8c357c	0.004278837
126	0x3d428281	0.04748774
127	0x3d87cdd2	0.06631054
128	0x3da32af6	0.079671785
129	0x3d496c2b	0.049175423
130	0x3d13e8f2	0.036110826
131	0x3d6533f3	0.055957746
132	0x3b0df02e	0.002165805
133	0x3c5eb8e6	0.013593888
134	0xb89a3bec	-7.3544536e-05
135	0x3cbee3f0	0.023302048
136	0x3d4bbdae	0.04974144
137	0x3c2dc83b	0.010606821
138	0xba8be4da	-0.0010673061
139	0x3c40a76c	0.0117586665
140	0x3c215f30	0.009849355
141	0xbb1ee712	-0.0024246615
142	0xbd01e6c1	-0.031714205
143	0xbb73e7c0	-0.0037216991
144	0xbcc0e268	-0.023545459
145	0x3cb1323f	0.021630405
146	0xbc7b3701	-0.015332938
147	0xbc481456	-0.01221188
148	0xbbcf4e60	-0.0063264817
149	0xbc0b4831	-0.0085010985
150	0xbd6b955c	-0.057515487
151	0xbcffbf45	-0.031219134
152	0xbc2a40f2	-0.010391461
153	0x3b20e5f9	0.0024551137
154	0x39b87b37	0.00035187017
155	0x3b6ce186	0.0036145165
156	0xbc41d3cb	-0.011830281
157	0x3d1fad39	0.038983557
158	0xbc0df6a0	-0.008664757
159	0xba8a02e7	-0.001052943
160	0xbd12ea19	-0.035867784
161	0x3ce3e7f1	0.02782056
162	0x3cd89190	0.026436597
163	0x3cd1c280	0.02560544
164	0x3c4cdbe3	0.012503597
165	0x3cba6e75	0.022757748
166	0x3d97ddb1	0.07415331
167	0x3d1e0a84	0.038584247
168	0x3c90144a	0.0175878
169	0x3c5855fc	0.013204094
170	0x3c860f1a	0.016364623
171	0x3d870b6b	0.06593975
172	0x3d80b91b	0.06285306
173	0x3d95ba5e	0.07310937
174	0x3c81b6dc	0.015834264
175	0xbc87d03f	-0.016578792
176	0x3cae8023	0.021301335
177	0xbd259765	-0.040427584
178	0xbd23bb25	-0.039973397
179	0xbca4d923	-0.02012307
180	0x3c6855b5	0.01418059
181	0xbd1ad5a2	-0.037801392
182	0x3d1290e2	0.035782702
183	0xbbfe9c02	-0.0077700624
184	0x3d1fe0ad	0.039032627
185	0x3d272db1	0.04081506
186	0x3d37287e	0.04471635
187	0x3d3c8da7	0.046033528
188	0x3b3878bb	0.0028148133
189	0xbc867347	-0.01641239
190	0x3d023de7	0.031797316
191	0x3cecaa05	0.028889665
192	0xbcc679d0	-0.024228007
193	0x3c9e5ddb	0.019331863
194	0x3c2f2c29	0.010691681
195	0xbc275013	-0.010211962
196	0xbb082c85	-0.0020778489
197	0xbc50777f	-0.012723803
198	0x3d4fc7bb	0.050727587
199	0xbbce766d	-0.0063007385
200	0xbd105c5a	-0.035244323
201	0xbd0b7902	-0.03405095
202	0xbaf56869	-0.0018723133
203	0x39e99c90	0.0004455787
204	0xbbc193b2	-0.005907499
205	0xbcbd1d71	-0.023085328
206	0x3bbb0350	0.005707182
207	0x3ac575da	0.001506503
208	0x3c769d48	0.015052147
209	0x3c148127	0.009063995
210	0xbd0127cf	-0.031532105
211	0x3bdad283	0.006677927
212	0x3cc4fa7e	0.024045225
213	0x3cc4dae3	0.024030155
214	0x3b03a99e	0.0020090113
215	0x3d207f66	0.039183997
216	0x3dafaed9	0.085782714
217	0x3db73199	0.08945007
218	0x3daad4c0	0.0834136
219	0x3d1b3012	0.03788764
220	0x3d74cf92	0.059768267
221	0x3d024606	0.03180506
222	0xb92047ad	-0.0001528549
223	0xbd40ce5d	-0.047071803
224	0xbd1935ab	-0.037404697
225	0x3cd318bd	0.025768632
226	0x3cb99db4	0.022658207
227	0x3c96d974	0.018414237
228	0x3baf0d7f	0.005342185
229	0xbd25c5fc	-0.040472016
230	0xbb46e572	-0.0030349162
231	0x3c735371	0.014851437
232	0x3cb25f97	0.021774096
233	0x3c3a0a48	0.01135499
234	0xbcc8b3de	-0.02449983
235	0x3cd8fba5	0.026487181
236	0x3b6e5bdd	0.0036370673
237	0xbc01c316	-0.007920047
238	0xbd0f0e88	-0.034925967
239	0xbd0700da	-0.032959796
240	0x3d55ed7b	0.052228432
241	0x3d6e245b	0.05814014
242	0x3d2dcdbc	0.04243253
243	0x3cefcf31	0.029273601
244	0xba0b41ae	-0.0005312216
245	0xbac40b22	-0.0014956931
246	0xba715b70	-0.00092070457
247	0x3af4819d	0.001865435
248	0x3bf85ed0	0.007579662
249	0xbcd14727	-0.025546623
250	0xbc54683c	-0.012964305
251	0x3cdd9fd3	0.02705375
252	0xbc4b6191	-0.012413398
253	0xbbd4a2cd	-0.006489134
254	0x3cbbdd55	0.022932688
255	0x3bbde758	0.0057954006

bias f4 [32]
0	0x3c92a47d	0.0179007
1	0xbd92c8a7	-0.07167178
2	0xbdc691d3	-0.096957825
3	0xbe848b81	-0.25887683
4	0xbe37380d	-0.17892475
5	0xbdad0895	-0.084489025
6	0xbe2a040b	-0.16603105
7	0xbde18aec	-0.11012825
8	0xbde1db34	-0.11028138
9	0xbc995d78	-0.018721327
10	0xbeb08423	-0.34475812
11	0x3b90b3ae	0.0044159507
12	0xbdf448b9	-0.11927933
13	0xbcd80313	-0.026368653
14	0xbd93246d	-0.07184682
15	0xbd99edf0	-0.07516086
16	0xbd90a9eb	-0.07063659
17	0xbcb0f757	-0.021602316
18	0xbde854b7	-0.11344283
19	0xbd0fa5de	-0.035070293
20	0xbdb0b951	-0.08629096
21	0xbd4da70c	-0.050208136
22	0xbdca1a9c	-0.098683566
23	0x3d14d95d	0.036340106
24	0x3c5e303c	0.013561305
25	0xbe1f181e	-0.15536544
26	0xbdc2040d	-0.09473429
27	0xbdb51e6a	-0.08843692
28	0xbdb93d0e	-0.090448484
29	0x3ba545b9	0.005043712
30	0xbe46a698	-0.19399488
31	0xbd404156	-0.04693731

weight f4 [64, 32, 5, 5]
0	0xbb15595e	-0.0022788863
1	0xbb42e13a	-0.0029736296
2	0xbcde64d4	-0.027147688
3	0xbd6f5c58	-0.058437675
4	0xbd2c7c88	-0.04211095
5	0x3d0e45d2	0.034734555
6	0x3c780f69	0.015140393
7	0x3b5fed76	0.0034168637
8	0xbcc57190	-0.024102002
9	0x3ca32027	0.019912792
10	0xbd0f447a	-0.034977414
11	0x3bc01eaf	0.005863033
12	0xbc45502d	-0.012043041
13	0x3d14b90a	0.03630928
14	0xbb8f46d8	-0.004372459
15	0xbc29e23e	-0.010368882
16	0xbd1f1f74	-0.038848355
17	0xbce966a7	-0.028491331
18	0xbb40d4df	-0.0029423756
19	0x3cf61f3c	0.03004419
20	0xbb4fd84a	-0.0031714612
21	0x3c6253b7	0.0138139045
22	0x3c297fbb	0.010345395
23	0x3d15c125	0.03656115
24	0x3b794557	0.0038035715
25	0xbd2c491f	-0.04206192
26	0xbcfdec40	-0.030996442
27	0xbc7a84cf	-0.015290453
28	0xbcc4e1c7	-0.02403344
29	0xbce520f9	-0.027969824
30	0x3d4bcf35	0.049758155
31	0x3b08a626	0.0020850985
32	0xb9abc2d3	-0.00032760817
33	0xbbbaee0f	-0.0057046483
34	0xbcc5b159	-0.024132418
35	0x3ce03039	0.027366744
36	0xba96145d	-0.001145016
37	0x3c53766a	0.01290665
38	0x3c2d4bd4	0.010577161
39	0xbcb7691e	-0.022388991
40	0xbca1d953	-0.019756949
41	0x3c67107d	0.014103052
42	0xbd2862f0	-0.04110998
43	0xbd0547aa	-0.032539047
44	0xbc18f76c	-0.009336334
45	0x3c2c698c	0.010523211
46	0xbc70983b	-0.014684732
47	0xbd7cecb9	-0.061749194
48	0xbc3e0a82	-0.011599185
49	0xbc290c45	-0.010317867
50	0xbbb7a61d	-0.005604519
51	0xbd17c681	-0.037054542
52	0x39cf7a46	0.00039573218
53	0xbcc47dd5	-0.023985783
54	0x3d24874b	0.040168088
55	0x3cd086cb	0.0254549
56	0xbd4766f9	-0.048682187
57	0x3baba5b4	0.005238259
58	0x3ccff8ce	0.025387194
59	0x3c871532	0.016489599
60	0x3ca04c8a	0.019567747
61	0x3d620b33	0.05518646
62	0xbd2c3af7	-0.04204842
63	0x3cb37d1e	0.021910246
64	0x3d01936a	0.031634726
65	0xbd63d370	-0.055621564
66	0x3b56086e	0.0032658833
67	0x3acd75e6	0.0015675395
68	0xbd4b488d	-0.049629737
69	0x3cd8c753	0.026462233
70	0x3cab9198	0.020943448
71	0xbd0a6a8c	-0.033793017
72	0x3c60671a	0.013696456
73	0x3c847888	0.016170755
74	0x3cfb9411	0.030710252
75	0xbd2662a7	-0.040621426
76	0xbcf39224	-0.029732771
77	0xbd2ed25a	-0.042681076
78	0x3d5d0d1e	0.053967588
79	0xbb7b772e	-0.0038370597
80	0x3bffbd08	0.0078045167
81	0xbd5431a3	-0.05180515
82	0x3bd466fd	0.0064820037
83	0x3d893e0d	0.06701288
84	0x3d914df7	0.07094949
85	0xbd49474f	-0.04914027
86	0xbd4d49d4	-0.050119236
87	0x3d55b8b0	0.052178085
88	0x3d0c3e25	0.034238953
89	0xbccf7df3	-0.025328612
90	0x3c857e15	0.016295472
91	0x3cd2722d	0.025689209
92	0x3c40fd1c	0.011779096
93	0x3ccd85db	0.025088241
94	0x3c88a9d5	0.016682545
95	0xba955308	-0.0011392543
96	0x3c3c0e3d	0.011478004
97	0x3cc04cbe	0.023474094
98	0xbcaf1fe5	-0.021377513
99	0x3d162fdf	0.036666747
100	0x3d13dcc5	0.036099214
101	0x3d8bd914	0.06828514
102	0x3da1cff8	0.07900995
103	0xbd275434	-0.040851787
104	0xbd3d7bad	-0.046260525
105	0xbb0a90bd	-0.00211434
106	0x3d098a43	0.033579122
107	0x3c1d85e9	0.009614446
108	0x3cd1c6e5	0.025607536
109	0xbc6f4c96	-0.014605662
110	0x3c2e908c	0.01065458
111	0x3bf66000	0.0075187683
112	0x3cacbc7d	0.021085972
113	0x3af0f8d9	0.0018384709
114	0x3c138508	0.009003885
115	0x3cfabfbc	0.030609004
116	0x3cec5af5	0.028851965
117	0xbc0aa822	-0.008462938
118	0x3c5bacc2	0.013407888
119	0x3ce050e5	0.027382324
120	0xbc6394c3	-0.013890448
121	0x3d2aafd4	0.04167159
122	0x3d09aaf3	0.033610296
123	0x3cf3a8b6	0.029743534
124	0x3b66a5f0	0.0035194121
125	0xbba8e9cf	-0.0051548253
126	0x3d52bba7	0.05144849
127	0x3c4d0cbe	0.012515245
128	0xbbed9bbc	-0.007251231
129	0xbcd08f41	-0.025458934
130	0xbd69cbd3	-0.057079148
131	0x3dc03448	0.09384972
132	0x3d33a71e	0.043860547
133	0xbd018e2c	-0.031629726
134	0x3bd90ae5	0.006623613
135	0xbd1773ed	-0.03697579
136	0x3b1ee58b	0.0024245705
137	0xbc3026c7	-0.010751433
138	0xbc92eb94	-0.017934598
139	0x3bf3e9a2	0.0074436227
140	0xbca54d5e	-0.020178493
141	0x3b3dcd7e	0.0028961594
142	0xbc83c90a	-0.016087074
143	0xbd4ae4c2	-0.049534567
144	0xbc8668fd	-0.016407484
145	0x3cfd2db6	0.030905586
146	0x3d4bead1	0.049784485
147	0xbcdea66b	-0.027178964
148	0x3cda58d6	0.026653688
149	0xbcff2910	-0.03114751
150	0xbc24eeb8	-0.010066681
151	0xbd3be886	-0.04587605
152	0xbbce8491	-0.0063024242
153	0x3c3dd2ed	0.011585933
154	0xbd31d4dc	-0.04341589
155	0x3c78488b	0.015154014
156	0xbb376fdf	-0.0027990264
157	0x3bc36023	0.005962388
158	0xbd1de7fc	-0.038551316
159	0x3c92f954	0.017941155
160	0xbb8337bf	-0.004004448
161	0xbd806d90	-0.062708974
162	0x3b945d2a	0.0045277076
163	0xbcec6b86	-0.028859865
164	0x3cc0e248	0.0235454
165	0x3d0b3059	0.033981655
166	0xbc10fe70	-0.008849725
167	0xbc3ce2cb	-0.011528681
168	0x3cb39029	0.021919327
169	0xbcbd4743	-0.02310527
170	0xbd3acb86	-0.04560425
171	0xbd467b51	-0.048457447
172	0x3cae4934	0.02127514
173	0xbc1d343e	-0.009594975
174	0x3d306443	0.043064367
175	0xbc7c6e88	-0.015407212
176	0xbd6f8141	-0.058472876
177	0x3c57993d	0.013159093
178	0x3ce1a754	0.027545609
179	0xbce21143	-0.027596122
180	0xbd189fa3	-0.037261616
181	0xbd1a03ba	-0.03760121
182	0x3c354351	0.011063413
183	0xbcfcb4d9	-0.030847954
184	0x3c562ad1	0.013071732
185	0x3bc6da03	0.0060684695
186	0xbd25943f	-0.04042458
187	0x3bf2e871	0.007412963
188	0x3d1ce903	0.038308155
189	0xbbeb7425	-0.0071854764
190	0x3c115f05	0.008872752
191	0xbbee6708	-0.007275466
192	0x3ca8c3ea	0.020601232
193	0x3c607752	0.013700323
194	0xbbc61b10	-0.0060457066
195	0x3c1651ad	0.009174746
196	0x3d2de107	0.04245093
197	0xbbe1b827	-0.0068884077
198	0xbd032c28	-0.032024533
199	0xbc1182d2	-0.008881288
200	0x3bff93ab	0.007799586
201	0xbb743fca	-0.0037269467
202	0x3ce33ec9	0.0277399
203	0xbc8beacd	-0.017079735
204	0xbc33b25f	-0.01096782
205	0xbcec6b5d	-0.028859789
206	0xbc4756ad	-0.012166661
207	0xbbd3635f	-0.006451055
208	0x3cc26717	0.023730798
209	0xbc827d14	-0.015928783
210	0x3b775e03	0.0037745244
211	0xbba7b5e7	-0.00511812
212	0x3d8f62f9	0.070012994
213	0xbd1aca53	-0.037790608
214	0x3ca7f59c	0.020502858
215	0x3cf0f960	0.029415786
216	0xbcb19dfc	-0.021681778
217	0x3d059157	0.03260931
218	0x3c7dfb4e	0.01550181
219	0xbc6fd311	-0.0146377245
220	0xbd2269a7	-0.03965154
221	0x3c947067	0.018120004
222	0x3b3fa33c	0.0029241582
223	0x3ce7e7c4	0.028308757
224	0xbc30f1e7	-0.0107998615
225	0x3b16ff53	0.0023040369
226	0xbb8e33fb	-0.0043396926
227	0xbc9c8bc4	-0.019109614
228	0x3c62838a	0.013825307
229	0xbd069255	-0.032854397
230	0xbbe0891c	-0.006852282
231	0xbced79b3	-0.028988695
232	0x3d25cdef	0.040479597
233	0x3a501485	0.0007937628
234	0x3d4ca8be	0.049965613
235	0xbc8acfd1	-0.016944798
236	0xbc8aa137	-0.016922576
237	0x3d44350c	0.047902152
238	0xbd3ef6da	-0.046622135
239	0x3cc4ec4a	0.024038453
240	0xbd771d8e	-0.06033092
241	0xbbe72ae6	-0.0070546744
242	0xbd10f3d1	-0.03538877
243	0xbd10d00d	-0.035354663
244	0xbd3c0f53	-0.04591305
245	0xbcb7b9d9	-0.022427486
246	0xbcb3d08e	-0.021950033
247	0x3cc7006f	0.024292199
248	0xbc50bd3b	-0.012740429
249	0xbc8b4441	-0.01700032
250	0x3c82cb77	0.01596616
251	0x3c534b40	0.012896359
252	0xbcbc3799	-0.02297573
253	0x3ce2646c	0.027635776
254	0xbd1416d7	-0.036154594
255	0xbaaec50e	-0.0013333873

bias f4 [64]
0	0xbd638a8f	-0.05555206
1	0xbd7773c4	-0.060413137
2	0xbded5259	-0.11587972
3	0xbd292b67	-0.041301157
4	0xbe0aa100	-0.13537979
5	0xbd7c7e87	-0.061644103
6	0xbd768d2f	-0.060193237
7	0xbd57a8fa	-0.052651383
8	0xbd806b76	-0.062704965
9	0xbdbb376c	-0.0914143
10	0xbd451c91	-0.048122946
11	0xbdd613b2	-0.10452975
12	0xbd62ab87	-0.055339362
13	0xbd413be9	-0.047176275
14	0xbda4962c	-0.080364555
15	0xbca6ab8c	-0.020345472
16	0xbd83dbed	-0.06438432
17	0xbd330a7a	-0.043711163
18	0xbd7442f6	-0.05963417
19	0x3ccc9648	0.024974003
20	0xbd8db46d	-0.06919179
21	0xbd15098b	-0.036386054
22	0xbdbb50a8	-0.09146243
23	0xbc74788a	-0.014921317
24	0xbe17cb5c	-0.14823669
25	0xbdfdae4e	-0.123867616
26	0xbda08bf9	-0.07839198
27	0xbdb7341b	-0.08945485
28	0x3960c384	0.0002143514
29	0xbd3ad21e	-0.04561054
30	0xbcd4b544	-0.02596534
31	0xbdc1bcfc	-0.09459874
32	0xbce5bb86	-0.02804352
33	0xbd2c541e	-0.042072408
34	0xbdd96251	-0.106144555
35	0x3d4e440a	0.050357856
36	0xbd9c90dc	-0.07644817
37	0x3cca1a98	0.024670884
38	0xbddbf01d	-0.10739157
39	0xbd251184	-0.040299907
40	0xbdb2ebaf	-0.08736359
41	0xbe0e55dc	-0.1389994
42	0xbd481074	-0.048843816
43	0xbd9f1def	-0.07769381
44	0xbe41ded5	-0.1893266
45	0xbd802dbf	-0.062587254
46	0xbd555eab	-0.052092236
47	0x3b1ac9e8	0.002361888
48	0xbd7a5231	-0.06111354
49	0xbe1c9816	-0.15292391
50	0xbc584224	-0.013199363
51	0xbd9d58d3	-0.076829575
52	0x3c2e6679	0.010644549
53	0xbd13892e	-0.036019497
54	0xbe103711	-0.14083506
55	0xbcfc39a5	-0.030789206
56	0xbd9deaa0	-0.07710767
57	0xbd2713de	-0.04079043
58	0x3ba21509	0.0049463552
59	0x3cc63395	0.024194518
60	0x3ccb6bf1	0.024831744
61	0xbbc08866	-0.005875635
62	0xbd68f42b	-0.05687348
63	0xbb5dece9	-0.0033863133

weight f4 [64, 1024]
0	0xbc7e6693	-0.015527385
1	0x3d2f2fec	0.04277031
2	0xbac9d9d5	-0.0015400002
3	0x3d0bdec0	0.034147978
4	0x3d1cea7a	0.03830955
5	0x3c4fcc8b	0.012683044
6	0x3cdca05c	0.026931934
7	0xbcb51060	-0.022102535
8	0x3c6485df	0.013947933
9	0xbd388334	-0.045047
10	0x3c1579d8	0.009123288
11	0xbd50ef56	-0.0510095
12	0xbd1e4be7	-0.038646605
13	0xbd081940	-0.033227205
14	0x3cba6421	0.022752823
15	0xbbce74c0	-0.006300539
16	0xbc404a04	-0.011736397
17	0x3942927c	0.00018555851
18	0xbcf5ce04	-0.030005462
19	0x3d060c47	0.032726552
20	0x3d1dba5f	0.038507815
21	0xbcf90922	-0.030399863
22	0x3d2f0e3d	0.042738188
23	0x3d27a9bc	0.040933356
24	0x3d105f5b	0.035247188
25	0x3bbfb3f2	0.0058503086
26	0x3ce35207	0.027749075
27	0x3d4e4a9b	0.050364118
28	0x3d292120	0.041291356
29	0x3cb1a975	0.021687249
30	0x3d0aaf66	0.03385868
31	0xbc27cae4	-0.010241244
32	0x3c19d544	0.009389225
33	0xbabb5f44	-0.0014295359
34	0xbd213adb	-0.03936277
35	0xbc860b7a	-0.016362894
36	0x3cb56139	0.022141086
37	0xbc942f9f	-0.018089114
38	0x3c3ee9ca	0.011652419
39	0xbd05f2a2	-0.032702096
40	0x3ca95d24	0.020674296
41	0x3c84c8be	0.016209003
42	0xbce63898	-0.028103158
43	0x3d3638f0	0.044487894
44	0xbbb35399	-0.005472612
45	0xbc842a55	-0.016133467
46	0xbc6c82a4	-0.014435444
47	0x3bb32135	0.005466605
48	0x3c50526f	0.012714966
49	0x3bd5418d	0.0065080584
50	0x3d46e0b9	0.048554156
51	0x3c81b0d1	0.015831383
52	0xbbae8538	-0.0053259395
53	0xbcfdfe34	-0.031005003
54	0x3bb9b321	0.005667106
55	0x3c976112	0.018478904
56	0x3d803747	0.06260543
57	0x3d408e09	0.047010455
58	0x3d26ffa9	0.04077116
59	0xbc77b581	-0.0151189575
60	0x3d594f4f	0.05305415
61	0xbd2a9027	-0.04164138
62	0xbd0fc0e2	-0.035096057
63	0xbc97de5c	-0.018538646
64	0x3a86f11c	0.0010295245
65	0xbca615c3	-0.020274049
66	0xbd7fd787	-0.062461402
67	0x3ce7d938	0.02830182
68	0x3cec2a81	0.028828861
69	0xbc395cc3	-0.01131362
70	0x3be90f40	0.0071124136
71	0xbd190550	-0.037358582
72	0xbab46b88	-0.0013764957
73	0xbd022bad	-0.031779934
74	0x3d3d0c8f	0.046154555
75	0xbbc59d72	-0.006030732
76	0xbd1baccf	-0.0380066
77	0x3c3cff4a	0.011535475
78	0x3c270d70	0.010196075
79	0x3b9453c9	0.0045265895
80	0x3ced9af0	0.029004544
81	0x3c79720f	0.015224948
82	0x3cf78f4b	0.030219695
83	0x3bed6045	0.0072441422
84	0xbc970c30	-0.018438429
85	0xbd0cb842	-0.03435541
86	0x3d7966d9	0.0608891
87	0xbb932074	-0.0044899527
88	0xbd2c26c1	-0.042029146
89	0xbc0279a2	-0.00796357
90	0xbc8fd28e	-0.017556455
91	0xbbf9279a	-0.007603598
92	0xbbe1c047	-0.0068893763
93	0xbb1f1f16	-0.0024280003
94	0xbc4f22eb	-0.012642602
95	0xbc9f01e4	-0.019410081
96	0xbc01ac3b	-0.007914598
97	0x3ca4242c	0.02003678
98	0xbcb03ccb	-0.021513363
99	0xbcbe9486	-0.02326418
100	0xbc053124	-0.008129392
101	0x3c7a4eb4	0.015277553
102	0x3b3c2d7e	0.002871364
103	0x3b0c820d	0.002143982
104	0xbd16962a	-0.0367643
105	0xbc232452	-0.00995739
106	0xbba0f578	-0.0049120747
107	0x3c8a550d	0.016886258
108	0xbca2ac6a	-0.019857604
109	0xbb5b1a96	-0.0033432595
110	0xbc0c0293	-0.008545536
111	0xbd2c88f5	-0.0421228
112	0x3d444822	0.047920354
113	0xbd6c1393	-0.057635855
114	0xbd4b83ea	-0.04968635
115	0x3d0daa75	0.03458639
116	0x3c9325fa	0.017962445
117	0x3cb5d9d5	0.022198597
118	0xbd69cbda	-0.057079174
119	0x3d1853e1	0.03718937
120	0x3cb87d37	0.022520645
121	0x3c8967a9	0.016773062
122	0xbc778f19	-0.015109801
123	0x3c1a6fc1	0.009426058
124	0x3d54615f	0.051850673
125	0x3c9ceb75	0.019155243
126	0x3cea2b58	0.028585121
127	0x3cdccd97	0.026953502
128	0xbd3e2792	-0.046424456
129	0x3b0af5d2	0.002120365
130	0xbc0d165b	-0.008611287
131	0xbcb6217c	-0.022232763
132	0x3cd96fa2	0.026542488
133	0xbc81b4fd	-0.015833372
134	0xbcf28399	-0.029603766
135	0x3c709a64	0.014685247
136	0x3c962f5f	0.018333135
137	0xbc1df97c	-0.009642001
138	0xbc5ecfcc	-0.013599347
139	0xbd08ed3c	-0.03342937
140	0xbd23c922	-0.039986737
141	0xb99fdddc	-0.0003049214
142	0xbca9e447	-0.020738734
143	0xbbaaeb2f	-0.0052160244
144	0x3ca27e80	0.01983571
145	0xbc9c4ca4	-0.019079514
146	0xbd01a139	-0.031647895
147	0xbc898a06	-0.016789448
148	0x39db440d	0.00041821637
149	0xbd0d0cc1	-0.03443599
150	0xbd0d7f73	-0.034545373
151	0x3cbf6440	0.023363233
152	0xbc0794f2	-0.008275257
153	0xbb9dac28	-0.0048117824
154	0x3c59b334	0.013287354
155	0x3cc1d476	0.02366088
156	0x3c743a9c	0.014906552
157	0x3cfc0e3e	0.03076851
158	0xba67b1ac	-0.0008838426
159	0x3c5dc46f	0.013535603
160	0x3c80777e	0.015681978
161	0x3a273694	0.0006378677
162	0xbd4126ec	-0.04715626
163	0xbd696369	-0.05697957
164	0x3c9b7764	0.018977828
165	0xbc8c3ab9	-0.017117845
166	0x3c2e42d2	0.010636048
167	0xbca14cac	-0.01968988
168	0xbd1a308e	-0.03764396
169	0x3ccee6bb	0.025256505
170	0xbbc5e9ed	-0.006039849
171	0xbc96a115	-0.018387357
172	0xbc3190c7	-0.01083774
173	0xbbe5658d	-0.007000631
174	0xba32c195	-0.0006819007
175	0xbbcf989a	-0.00633533
176	0x39f554d1	0.00046793235
177	0xbc6da8f8	-0.014505617
178	0xbc82ae3a	-0.015952218
179	0x3c981bd7	0.018567963
180	0x3d2ba738	0.04190752
181	0x3d0d01b1	0.03442544
182	0xbd0f43d3	-0.03497679
183	0xbbf41ed1	-0.0074499627
184	0xbc9e176d	-0.01929828
185	0xbb0fec05	-0.0021960747
186	0x3c86ab29	0.016439037
187	0x3d0add96	0.033902727
188	0xbc0d65c7	-0.008630223
189	0x3b649b18	0.0034882482
190	0x3c3a8402	0.011384012
191	0xbd282397	-0.041049566
192	0xbb8aae48	-0.0042322017
193	0x3c09c4e1	0.008408756
194	0x3bee6063	0.007274674
195	0x3c4d142c	0.012517016
196	0x3be106f4	0.006867284
197	0xbdc74269	-0.097294636
198	0xbcad8535	-0.021181682
199	0x3d1f6b30	0.03892058
200	0x3c9cbd0b	0.019133111
201	0x3d248dde	0.040174358
202	0xbd269712	-0.040671416
203	0x3c905dc7	0.017622842
204	0xbc6ee86c	-0.014581781
205	0xbb0ec4e0	-0.0021784827
206	0x3d2d8bfc	0.042369828
207	0xbd1d7863	-0.038444888
208	0xbc0a2a21	-0.008432896
209	0x3d21a9ab	0.03946845
210	0x3c036bd4	0.008021314
211	0x3d63073b	0.055426817
212	0x3b2546fe	0.0025219317
213	0xbd0402c2	-0.032229193
214	0xbd11f96e	-0.035638265
215	0xbbd7d66b	-0.00658684
216	0x3d1ed8cf	0.038780984
217	0x38e69b28	0.00010996155
218	0xbc236378	-0.009972446
219	0x3c0df9a6	0.008665478
220	0xbd0a535b	-0.0337709
221	0xbb749dc9	-0.0037325493
222	0xbc91710b	-0.017754098
223	0xbcd1ca2b	-0.025609097
224	0x3c372245	0.011177604
225	0x3b1405f9	0.0022586568
226	0x3cb17a6f	0.021664826
227	0xbc2f5093	-0.010700363
228	0xbcf4d799	-0.029887961
229	0x3bcab26e	0.0061858213
230	0xbd2fc33c	-0.0429108
231	0x3cf00b0d	0.029302144
232	0x3cbda647	0.023150576
233	0x3c629ea7	0.013831771
234	0x3d23e7c3	0.040015947
235	0x3c3fac9f	0.011698871
236	0x3c0ddd17	0.008658669
237	0xbc7fa08b	-0.015602241
238	0x3c2e85fd	0.0106520625
239	0x3c0cb273	0.0085874675
240	0x3cdcdfad	0.026962126
241	0x3b007cb5	0.0019605581
242	0xbc002375	-0.007820954
243	0x3bb5aae4	0.0055440534
244	0x3cf15b9c	0.029462628
245	0xbbe1d7ed	-0.0068921954
246	0xb9616682	-0.00021495859
247	0xbbe6a4fe	-0.0070387116
248	0xbccf2871	-0.025287839
249	0xbc7804af	-0.015137835
250	0xbc9b86e9	-0.018985229
251	0x3d2fffba	0.04296849
252	0xbbb6eeac	-0.005582651
253	0x3bc05819	0.005869877
254	0xbc3b4bc8	-0.011431642
255	0x3c98557c	0.01859545

bias f4 [64]
0	0x3b929b1e	0.004474058
1	0x3c7bd3cd	0.015370321
2	0xbca36183	-0.019943958
3	0xba51a9d7	-0.00079980254
4	0xbac02b04	-0.0014661257
5	0x3c05780f	0.0081463
6	0x3b474be8	0.0030410234
7	0xbd0d2ebe	-0.034468405
8	0x3c8c9026	0.01715858
9	0xbd217e02	-0.03942681
10	0x3d66988c	0.056297824
11	0x3d6d1ae3	0.05788697
12	0x3d1d25bb	0.03836606
13	0x3c3ec930	0.0116446465
14	0xbcd21ae2	-0.025647584
15	0xbcd62fc3	-0.026145821
16	0xbcfcf0a1	-0.03087646
17	0xbcfda767	-0.030963613
18	0xbd23e33b	-0.040011626
19	0xbc63b0b2	-0.013897108
20	0xbd54ca07	-0.05195048
21	0xbcf16431	-0.02946672
22	0x3d245f6a	0.040130056
23	0xbb503f65	-0.0031776067
24	0xbd256d05	-0.040387172
25	0x3af0ecc6	0.0018381111
26	0xbd87198c	-0.065966696
27	0x3b17d6c2	0.0023168777
28	0xbc9e9786	-0.019359361
29	0x3d697ece	0.057005696
30	0xbd22f907	-0.039788272
31	0xbd57af1b	-0.052657228
32	0xbcd63dd2	-0.026152525
33	0x3cd38de3	0.025824493
34	0xbd39735b	-0.045276027
35	0x3bfbde9e	0.00768645
36	0x3d372211	0.044710223
37	0xbc8ea220	-0.017411292
38	0x3d26a0bc	0.040680632
39	0x3d66d3a9	0.0563542
40	0x3c80c733	0.015719986
41	0x3d0046a1	0.031317357
42	0x3d38eb2a	0.045146145
43	0x3ca9e74e	0.020740177
44	0x3d23edf8	0.040021867
45	0xbd039115	-0.032120783
46	0x3c238018	0.00997927
47	0x3d321b7f	0.043483254
48	0x3ccb9325	0.024850437
49	0xbd5914e8	-0.052998453
50	0x3cab10dc	0.020882063
51	0xbca2d6f6	-0.019877892
52	0xbd58f170	-0.052964628
53	0xbd02a8fd	-0.03189944
54	0x3d215f9a	0.039397813
55	0x3d1288d5	0.035775024
56	0x3c8edbd6	0.01743881
57	0x3caeec6a	0.021352965
58	0xbcecfd2b	-0.028929314
59	0xbd2ce0c5	-0.042206544
60	0xbcdf20f4	-0.027237393
61	0xbd0b81b0	-0.034059227
62	0xbd0bb030	-0.034103572
63	0x3c14dd85	0.0090860175

weight f4 [10, 64]
0	0xbdbbb466	-0.09165268
1	0xbe7717dd	-0.24130197
2	0x3de96038	0.113953054
3	0xbd3430f3	-0.043991994
4	0x3e15e56c	0.14638299
5	0x3db2acad	0.087243415
6	0xbe24cbee	-0.16093418
7	0x3cd5a850	0.026081234
8	0xbe7e8569	-0.2485558
9	0xbe3bc8b5	-0.18338282
10	0xbe6884e4	-0.22706944
11	0xbd05fa2d	-0.03270929
12	0xbe3a6d68	-0.18205798
13	0xbd7c392b	-0.061577957
14	0x3da9aeac	0.08285269
15	0xbc103238	-0.008801036
16	0x3e4aae02	0.19792941
17	0xbd970c52	-0.07375397
18	0x3e8038fd	0.2504348
19	0xbd7f1231	-0.062273208
20	0x3e4812e7	0.1953846
21	0xbc15b909	-0.009138354
22	0x3e17b58d	0.1481535
23	0xbe4ccc91	-0.19999911
24	0xbd893b86	-0.06700806
25	0x3e3a7a2e	0.1821067
26	0x3e15007e	0.14550969
27	0xbe5d83c4	-0.21632296
28	0x3e96fd88	0.29490304
29	0xbe510879	-0.20413388
30	0xbe873799	-0.26409605
31	0x3cd3b81d	0.025844628
32	0x3e9139fe	0.28364557
33	0xbe7d35d8	-0.24727571
34	0xbd1cd43d	-0.038288344
35	0xbe1f7069	-0.15570225
36	0x3ca60367	0.020265294
37	0xbe53273b	-0.20620434
38	0xbdea9449	-0.114540644
39	0x3d5942e7	0.05304232
40	0xbdbf3b90	-0.093375325
41	0xbe3d1819	-0.18466224
42	0xbeb69e6b	-0.35667738
43	0xbe10d335	-0.14143069
44	0x3df6e131	0.120546706
45	0x3de1b2aa	0.110204056
46	0xba72ec6c	-0.0009266797
47	0xbe4072c0	-0.18793774
48	0x3dab77bd	0.08372448
49	0x3e45bf11	0.19311167
50	0x3e1e0aa6	0.1543375
51	0x3ea17866	0.3153717
52	0x3d89f956	0.0673701
53	0x3ea7d08c	0.32776296
54	0x3d482dc6	0.048871778
55	0xbddb86a8	-0.10719043
56	0x3d4ef68d	0.050528098
57	0x3e17af48	0.14812958
58	0xbe0d9257	-0.13825355
59	0x3e0d31b5	0.13788493
60	0x3e04ffe1	0.12988235
61	0x3e5744a1	0.21022274
62	0x3d8ccb11	0.06874669
63	0xbe9c424c	-0.3051933
64	0x3c3a0440	0.011353552
65	0x3e811ebd	0.25218764
66	0xbecb38b8	-0.3969171
67	0x3c0abdbf	0.008468091
68	0xbeb2da2c	-0.34932077
69	0xbe59a2fc	-0.2125358
70	0xbe8db499	-0.27676848
71	0xbe3ac2bc	-0.18238348
72	0xbe5439d9	-0.20725192
73	0xbe4ce4b0	-0.20009112
74	0xbe03d1d5	-0.12873013
75	0x3d1749f6	0.03693577
76	0x3e5f508a	0.21808067
77	0xbd0155db	-0.03157602
78	0x3de5a0ef	0.11212336
79	0xbe869563	-0.26285848
80	0x3e3d49ee	0.18485233
81	0x3b8549dc	0.0040676426
82	0xbe50ba8a	-0.20383659
83	0x3eace229	0.33766297
84	0xbdaa5b6c	-0.083182186
85	0x3e54b83a	0.20773402
86	0x3e9e3b0d	0.30904427
87	0x3ea05176	0.3131215
88	0x3e36d63d	0.17855163
89	0xbe64fcc4	-0.22362047
90	0x3e42e447	0.19032393
91	0xbe2ba18b	-0.16760843
92	0xbe5b42bc	-0.21412176
93	0xbe950a28	-0.2910931
94	0xbe7ce6f2	-0.24697474
95	0x3e71aeb5	0.23601802
96	0xbe68724c	-0.22699851
97	0xbe7f4a23	-0.24930625
98	0x3ecad435	0.39615026
99	0xbc990825	-0.018680641
100	0xbd950598	-0.072764575
101	0xbdc332a9	-0.09531147
102	0xbcf32887	-0.02968241
103	0x3e48ad47	0.1959735
104	0x3d19d1ca	0.037553586
105	0xbe21ae08	-0.15789044
106	0x3a9a7f1a	0.0011787147
107	0x3dcd31ae	0.10019241
108	0xbd69d879	-0.05709121
109	0xbe42aa90	-0.19010377
110	0xbec32678	-0.38115287
111	0x3e0c5a34	0.13706285
112	0xbe3de6bd	-0.18545051
113	0x3d99814a	0.07495363
114	0xbe9d5f7e	-0.30736917
115	0xbc45e923	-0.01207951
116	0xbe85b0c0	-0.26111412
117	0xbcfbac8f	-0.03072193
118	0x3ccab732	0.024745557
119	0x3d8b6286	0.06805901
120	0xbe32dcdd	-0.17467065
121	0xbe6ec2e5	-0.23316534
122	0x3e809a05	0.25117508
123	0xbd6a8927	-0.057259705
124	0xbe7f3559	-0.24922694
125	0x3d5cc0ca	0.053894795
126	0x3d4ebd73	0.05047364
127	0xbe93cf6a	-0.28869182
128	0xbdf0b2ba	-0.117528394
129	0xbdb8d223	-0.090244554
130	0x3eab4b5c	0.33455932
131	0xbce6ef1a	-0.028190184
132	0x3e7ab5e1	0.24483444
133	0x3e93e777	0.2888753
134	0x3debd0a8	0.115144074
135	0x3dbe5840	0.09294176
136	0x3e8e946a	0.27847606
137	0x3e5941d6	0.2121652
138	0xbde25d27	-0.11052924
139	0xbe845114	-0.25843108
140	0xbc8439e6	-0.01614089
141	0x3d38c5df	0.04511058
142	0x3e663f6d	0.22485133
143	0xbd32df55	-0.043670017
144	0xbe54c505	-0.20778282
145	0x3e2394e5	0.15974768
146	0x3e05f5be	0.13082024
147	0xbe3150f4	-0.17316037
148	0x3e83a8ae	0.2571463
149	0xbe217742	-0.1576815
150	0x3c41f13a	0.011837298
151	0x3dc0df51	0.09417594
152	0xbe5c1326	-0.2149168
153	0x3e7cfc67	0.24705659
154	0xbe95a28f	-0.29225585
155	0x3dcf2165	0.101137914
156	0x3e245353	0.1604741
157	0xbe3d3d94	-0.18480521
158	0x3c1b8984	0.0094932355
159	0xbe49a088	-0.19690144
160	0xbe9175db	-0.2841023
161	0xbd711be7	-0.0588645
162	0x3c0d6b79	0.0086315805
163	0xbe3912dd	-0.18073602
164	0x3e44edea	0.19231382
165	0x3e84e8b9	0.25958803
166	0xbe0d0690	-0.13772035
167	0x3d8a0330	0.06738889
168	0x3e62e693	0.2215827
169	0x3e77ccf3	0.24199276
170	0x3d2779d7	0.04088768
171	0xbd96d643	-0.07365086
172	0x3c867410	0.016412765
173	0xbdbc3dab	-0.0919145
174	0x3e3b7db7	0.18309675
175	0x3e31f19f	0.17377327
176	0x3c3cb751	0.011518315
177	0xbd86b6fe	-0.06577872
178	0xbd4175d3	-0.047231507
179	0x3db5f19f	0.08883976
180	0x3e318061	0.17334129
181	0x3e694fce	0.2278435
182	0xbe42d05b	-0.19024794
183	0xbe0c35bd	-0.13692375
184	0xbc180f1f	-0.009280949
185	0xbe1000d8	-0.14062822
186	0xbd46a61e	-0.048498265
187	0xbe2f639f	-0.17127846
188	0x3d5ebe4b	0.054380696
189	0x3e8314a7	0.25601694
190	0x3e43ec75	0.1913317
191	0x3c928176	0.017883997
192	0x3cec7e4d	0.028868819
193	0xbcc3cd4a	-0.0239016
194	0x3e593e45	0.2121516
195	0xbda5e87a	-0.08100982
196	0xbda1e62c	-0.0790523
197	0xbd22146d	-0.03957026
198	0x3e6b0534	0.22951204
199	0xbdba4475	-0.090950884
200	0x3df7fabc	0.12108371
201	0x3d9b1743	0.07572796
202	0xbe116c88	-0.14201558
203	0xbdbe13ac	-0.09281096
204	0xbe0d374b	-0.13790624
205	0x3e513fbd	0.2043447
206	0xbe88eb7c	-0.2674216
207	0x3dc993b3	0.098426245
208	0x3d5ac29d	0.053408254
209	0x3d12c329	0.03583065
210	0xbdde595c	-0.10856888
211	0xbd6ec514	-0.058293417
212	0x39115413	0.00013859598
213	0xbd8c65bf	-0.06855344
214	0xbe4a2bed	-0.19743319
215	0xbdb10786	-0.08644013
216	0xbc0b16c7	-0.008489317
217	0xbca1fb28	-0.019773081
218	0x3e6f8db6	0.23393902
219	0xbe064976	-0.1311396
220	0x3e0629d4	0.13101894
221	0x3e7374c0	0.23775005
222	0x3df6a45a	0.12043066
223	0xbe003bbc	-0.12522787
224	0xbe230201	-0.15918733
225	0xbb365d31	-0.0027826543
226	0x3cf8699a	0.030323792
227	0xbdbb3e05	-0.09142689
228	0x3b5d58f4	0.0033774944
229	0xbd8b7aa2	-0.068105
230	0xbe55055e	-0.20802829
231	0xbe9c3805	-0.3051149
232	0xbe2cfd0d	-0.16893406
233	0xbb383d65	-0.0028112766
234	0x3e866a0f	0.2625279
235	0x3e863df3	0.26219139
236	0xbe0c6c17	-0.13713108
237	0x3da014b1	0.078164466
238	0xbd0ea247	-0.03482273
239	0x3e160b3d	0.14652725
240	0x3d719f50	0.058989823
241	0xbd924903	-0.07142832
242	0x3d0521b8	0.03250286
243	0xbe3d89ad	-0.1850955
244	0xbdd0aeee	-0.10189615
245	0x3de91aa8	0.113820374
246	0x3d919757	0.07108944
247	0x3e46eeca	0.19427028
248	0xbe5e47a3	-0.21707015
249	0x3e4b03cd	0.19825669
250	0x3d6c5d77	0.057706323
251	0x3e396588	0.18105137
252	0x3da96829	0.0827182
253	0xbcb2c758	-0.02182357
254	0x3d794063	0.06085242
255	0x3e4e9479	0.20173825

bias f4 [10]
0	0xbde5f848	-0.112289965
1	0xbd4c051f	-0.04980957
2	0xbdd1a0df	-0.10235762
3	0x3d9e8c09	0.07741553
4	0x3d71f952	0.05907566
5	0xbdb71af1	-0.089406855
6	0x3e319f90	0.17346025
7	0xbdbd25a1	-0.09235693
8	0xbd064453	-0.032780003
9	0xbd9b20e2	-0.07574631
