models/xue_3.pth (torch, 587967 bytes, 10 tensors)

weight f4 [32, 3, 5, 5]
0	0xbd952af4	-0.07283583
1	0x3d8529a0	0.0650208
2	0x3d1694fb	0.036763173
3	0x3cfc1619	0.030772256
4	0x3d9baca8	0.07601291
5	0x3d19a579	0.037511323
6	0xbbe8de52	-0.007106581
7	0x3ce7604c	0.02824416
8	0xbd97dcde	-0.07415174
9	0x3d93ee9c	0.072232455
10	0xbd0165b5	-0.031591136
11	0xbc8bdec9	-0.017074006
12	0xbe08632f	-0.13319086
13	0xbcad9b55	-0.021192232
14	0xbd40786e	-0.04698985
15	0xbd1af20d	-0.037828494
16	0x3d29e7ad	0.04148071
17	0xbdb4e44b	-0.08832606
18	0xbd0b1d24	-0.033963338
19	0xbd0d0986	-0.03443291
20	0xbd10eaec	-0.03538029
21	0x3d4c6a3a	0.049905993
22	0x3dc46b0a	0.095907286
23	0x3d3359bc	0.04378675
24	0x3dc4b248	0.09604317
25	0xbcc2d2ee	-0.02378222
26	0x3c887003	0.016654974
27	0x3d3b5910	0.045739233
28	0xbca5bd97	-0.020232005
29	0xbdcb32c3	-0.099217914
30	0x3d0ff956	0.035149895
31	0xbb9a584c	-0.004710233
32	0x3dd72577	0.10505193
33	0xbd0ee1ae	-0.034883194
34	0xbdc72402	-0.09723665
35	0xbcd9d76b	-0.026591977
36	0xbd0b3d60	-0.03399408
37	0xbd98f487	-0.07468515
38	0xbdb61f6d	-0.08892713
39	0xbda99eb5	-0.08282224
40	0x3da76cbe	0.08175038
41	0xbcb0c2bf	-0.021577237
42	0x3d24ea60	0.04026258
43	0xbbd125ca	-0.0063826786
44	0x3da6f0e2	0.081514135
45	0x3d7d4a1a	0.061838247
46	0x3c4c983f	0.01248747
47	0x3d08dd68	0.033414274
48	0x3bd61f59	0.0065344987
49	0xbdd99b2d	-0.106253006
50	0x3d2f4e74	0.042799428
51	0x3d70702d	0.05870073
52	0x3e085a47	0.13315688
53	0x3d100047	0.035156514
54	0xbd557f46	-0.05212333
55	0x3dbad026	0.091217324
56	0x3d9336d5	0.07188193
57	0x3a606ac9	0.0008560834
58	0x3e12944c	0.14314383
59	0x3d68f4b2	0.056873985
60	0xbd306703	-0.04306699
61	0xbd36e972	-0.044656225
62	0x3df4a59b	0.11945649
63	0x3dded39a	0.108802035
64	0xbba7fa48	-0.0051262714
65	0x3dc80524	0.097666055
66	0xbda3a930	-0.07991254
67	0xbd83297f	-0.06404399
68	0xbd0f1d01	-0.03493977
69	0x3d9841c3	0.07434418
70	0x3d3eabb3	0.046550464
71	0xbd057bc5	-0.03258874
72	0xbcbca252	-0.02302662
73	0xbdba9631	-0.09110678
74	0x3dbceb8d	0.09224615
75	0x3d8f947f	0.07010745
76	0xbd413777	-0.047172036
77	0xbd4997fb	-0.049217205
78	0x3d0b336a	0.03398458
79	0xbdd277c5	-0.102767505
80	0xbd15ef3c	-0.036605105
81	0x3ce9ba4a	0.028531212
82	0x3d758877	0.059944596
83	0xbcbd0fe8	-0.023078874
84	0xbba3b5b3	-0.0049960255
85	0x3dd8fd20	0.10595155
86	0x3d807f47	0.06274276
87	0x3ddbe076	0.10736172
88	0xbbffdb22	-0.007808105
89	0xbdeb16c4	-0.114789516
90	0xbdc5cfe5	-0.09658793
91	0xbdcf1195	-0.101107754
92	0x3c886814	0.01665119
93	0xbce7b34f	-0.028283743
94	0xbcfdf72a	-0.031001646
95	0x3a4ff450	0.0007932829
96	0xbd596624	-0.053075925
97	0x3d6b77d2	0.057487316
98	0x3cef1073	0.029182648
99	0x3dbdbfbc	0.09265086
100	0x3dbf1884	0.09330848
101	0x3da3881a	0.07984944
102	0x3d565d4b	0.052335065
103	0xbd8d601a	-0.069030955
104	0xbdb059e1	-0.08610893
105	0x3d56336d	0.052295137
106	0x3bc9a9a3	0.0061542555
107	0x3dd6f07b	0.10495087
108	0xbd0da851	-0.034584347
109	0x3b967aa9	0.004592259
110	0x3dbca4f0	0.09211147
111	0xbbacdf72	-0.00527566
112	0xbded5c1d	-0.11589835
113	0x3da19f57	0.0789172
114	0x3d8bd1ef	0.06827151
115	0xbc679165	-0.014133786
116	0xbdb9f104	-0.09079173
117	0xbd9ced35	-0.07662431
118	0xbdd6e258	-0.104923904
119	0xbdf70990	-0.12062371
120	0x3dbc59d7	0.09196823
121	0xbdddfbac	-0.10839018
122	0xbbe6ddce	-0.007045484
123	0x3d7d298d	0.061807204
124	0x3d412234	0.04715176
125	0x3df5133d	0.1196656
126	0x3e0351bf	0.12824152
127	0x3d8a9099	0.06765861
128	0x3d1c131b	0.038104158
129	0x3ca1db4c	0.01975789
130	0xbd85db56	-0.06535976
131	0x3d45f4f9	0.048329327
132	0xbce7574a	-0.028239865
133	0x3d2a2849	0.041542325
134	0x3dc1125a	0.094273284
135	0xbd8ebda9	-0.069697686
136	0x3d98e8e8	0.07466298
137	0xbdabcc7d	-0.083886124
138	0x3d634d14	0.05549343
139	0xbde46fd9	-0.11154146
140	0xbce56494	-0.028002061
141	0x3c83a0a1	0.016067805
142	0xbd15265b	-0.03641353
143	0x3c4885bc	0.012238916
144	0xbd25a944	-0.040444627
145	0x3db81780	0.08988857
146	0xbd8eea86	-0.069783255
147	0xbd1ac028	-0.03778091
148	0xbb82c771	-0.0039910604
149	0x3d056e57	0.03257593
150	0x3d15518b	0.03645472
151	0x3df1fb86	0.118155524
152	0xbd55924e	-0.05214148
153	0xbdf0455e	-0.11731981
154	0xbd5241d9	-0.05133233
155	0xbd0b3305	-0.033984203
156	0x3dd928ff	0.106035225
157	0x3cc396be	0.02387559
158	0x3dd9f9cd	0.10643349
159	0xbd1bac69	-0.03800622
160	0xbd5712b8	-0.052508086
161	0x3dfdbe3b	0.12389799
162	0x3d713201	0.058885578
163	0xbbfd4265	-0.007728862
164	0xbdd154d9	-0.102212615
165	0x3de2211a	0.1104147
166	0x3d4207bb	0.047370654
167	0xbd81908f	-0.063264005
168	0x3ddd0355	0.10791651
169	0xbe0126be	-0.12612435
170	0x3c5b5722	0.013387473
171	0xbc2c5e18	-0.010520481
172	0xbcce01c8	-0.025147334
173	0x3dadc74c	0.084852785
174	0xbc2c15d4	-0.010503251
175	0x3dec6b75	0.11543933
176	0x3d0d98c7	0.034569528
177	0x3d387020	0.045028806
178	0x3bb1e1a5	0.0054285103
179	0x3c46bb30	0.01212959
180	0x3e00c713	0.12575941
181	0xbd087b8b	-0.033320945
182	0xbdc7bcc1	-0.09752799
183	0xbde83bf6	-0.11339562
184	0xbcb8f0fd	-0.02257585
185	0xbd8826ac	-0.06648001
186	0x3e06a40e	0.1314852
187	0x3de20c85	0.11037544
188	0xbdab50be	-0.0836501
189	0x3d70017a	0.05859516
190	0x3db82b44	0.08992627
191	0xbdc6d620	-0.0970881
192	0x3d0b5e83	0.03402568
193	0xbded94e4	-0.11600664
194	0xbe056962	-0.13028482
195	0x3d71ebca	0.059062757
196	0x3da42e00	0.08016586
197	0xbd63acdf	-0.055584785
198	0xbd09a681	-0.033606056
199	0xbda456c6	-0.08024363
200	0x3d9e4e8b	0.07729825
201	0xbd350c40	-0.044201136
202	0xbd19b7eb	-0.037528913
203	0xbdbd6cb8	-0.09249252
204	0x3db4947a	0.08817382
205	0x3d9d6192	0.07684626
206	0x3be3d618	0.006953012
207	0xbdd70e9f	-0.105008356
208	0xbe03b3db	-0.12861578
209	0xbdcec09b	-0.1009533
210	0x3de24203	0.11047747
211	0x3ddc632d	0.10761104
212	0xbd974e6a	-0.07388003
213	0x3d2a19ed	0.04152863
214	0x3da52bb2	0.08064975
215	0x3d8b4917	0.0680105
216	0xbde65e61	-0.1124847
217	0x3d85fe53	0.06542649
218	0x3d62153c	0.055196032
219	0xbdf0cdf9	-0.11758036
220	0xbbd8f9d0	-0.006621577
221	0x3d8d0003	0.06884768
222	0x3b85a47f	0.0040784474
223	0xbdd9bc70	-0.10631645
224	0xbdd612cb	-0.10452803
225	0xbcba77ad	-0.022762144
226	0xbcb5acb9	-0.022177087
227	0xbca91ffc	-0.020645134
228	0xbda99437	-0.08280223
229	0xbc23b329	-0.009991446
230	0x3c86c945	0.016453395
231	0xbd00e4ee	-0.031468324
232	0x3d79f830	0.061027706
233	0x3b7c1568	0.0038464908
234	0xbd1e2238	-0.038606852
235	0xbd8c5364	-0.06851843
236	0xbdd27c61	-0.1027763
237	0xbd73f57e	-0.05956029
238	0x3da021ef	0.07818972
239	0xbb211aa5	-0.0024582532
240	0x3bc51023	0.0060138865
241	0xbd5fef89	-0.054671798
242	0xbe10f40a	-0.14155594
243	0xbdfb0c66	-0.12258224
244	0xbbd2f168	-0.0064374693
245	0x3d7a7e1c	0.061155424
246	0xbdbefd05	-0.093256034
247	0xbd792b89	-0.060832534
248	0x3cfe8023	0.03106696
249	0xbd719b0d	-0.05898576
250	0xbda755f9	-0.08170695
251	0xbda067f7	-0.0783233
252	0x3d812642	0.06306125
253	0xbd4d99c5	-0.050195474
254	0xbd1d1cdb	-0.038357597
255	0x3dab4509	0.08362777

bias f4 [32]
0	0xbd7e9d9b	-0.062162023
1	0xbe0cb837	-0.13742147
2	0x3d6c9495	0.057758886
3	0xbdfd771b	-0.12376233
4	0xbe75a71c	-0.23989528
5	0xbe773096	-0.24139628
6	0x3d08d5d0	0.033407032
7	0x3d7f7ea6	0.06237664
8	0xbd56be40	-0.05242753
9	0x3be0e34e	0.0068630343
10	0xbe3e88b6	-0.18606839
11	0xbe17c0b8	-0.1481961
12	0xbe408467	-0.18800507
13	0xbdc29c0a	-0.09502418
14	0x3d0c535a	0.034259178
15	0x3e0592eb	0.13044326
16	0xbcbbc07a	-0.022918928
17	0xbcc884d0	-0.024477392
18	0xbdc41d64	-0.09575918
19	0xbe623a3e	-0.2209253
20	0xbce7e12e	-0.028305616
21	0x3d58e85b	0.052955966
22	0xbd993b85	-0.074820556
23	0x3e41ad1d	0.18913694
24	0x3d93fa07	0.07225423
25	0x3dd4ab23	0.10384204
26	0x3cc4574c	0.023967408
27	0x3d46504e	0.04841643
28	0x3d29d2da	0.04146085
29	0xbd08c688	-0.03339246
30	0x3e018d89	0.12651648
31	0xbac907d3	-0.0015337415

weight f4 [32, 32, 5, 5]
0	0x3cc4a7a1	0.024005713
1	0x3bd62d72	0.006536179
2	0x3c889bf4	0.016675927
3	0x3d0baac6	0.03409841
4	0x3c4e5ade	0.012594907
5	0xbc9505eb	-0.018191298
6	0x3c673610	0.014112011
7	0x3c902df6	0.01760004
8	0xbcd2b658	-0.025721714
9	0xbc982a6d	-0.018574918
10	0xbc73690c	-0.014856588
11	0x3d1b404e	0.037903123
12	0x3b9a254f	0.0047041546
13	0xbc5ec40b	-0.013596545
14	0x3d0ffd3b	0.03515361
15	0x3caee5b7	0.021349771
16	0xba27b61a	-0.00063976797
17	0x3c46ebd2	0.012141185
18	0x3ca8a4ad	0.020586336
19	0xbc8c14fa	-0.017099846
20	0x3d00e578	0.03146884
21	0x3ca22624	0.019793577
22	0xbc554ba1	-0.01301852
23	0x3c8880b3	0.016662931
24	0xbc5e62c4	-0.013573352
25	0x3cf98736	0.030459981
26	0xbad53483	-0.001626626
27	0x3cbd0ec9	0.02307834
28	0xba5cb3cd	-0.00084191264
29	0x3bcccc9e	0.006249978
30	0xbcb135ba	-0.021632064
31	0x3cddf2a7	0.027093245
32	0xbc2f2139	-0.010689073
33	0x3d0c875a	0.03430877
34	0x3caa9f17	0.020827813
35	0xbb8554b4	-0.0040689353
36	0x3d29d450	0.041462243
37	0x3b9a0d59	0.004701298
38	0x3bcebc52	0.0063090706
39	0xbcbdd22a	-0.023171503
40	0x3c00ee81	0.007869364
41	0x3d146ef9	0.036238644
42	0xbc57aeae	-0.0131642055
43	0xbcf95a5c	-0.030438595
44	0xbcc42bd1	-0.023946675
45	0xbc368cbf	-0.011141955
46	0xbcb6029a	-0.022218037
47	0x3ce2b0d9	0.027672218
48	0x3d3a1e91	0.045439307
49	0x3cff4a2a	0.031163294
50	0x3c5a1b01	0.013312102
51	0x3c212b40	0.009836972
52	0xbcc299c0	-0.023754954
53	0xbc0508c0	-0.008119762
54	0xbc5b72a2	-0.01339403
55	0x3b2ff963	0.0026851527
56	0xbbccb451	-0.0062470813
57	0xbab3e38b	-0.0013724429
58	0x3d17caa9	0.037058506
59	0x3bd651f8	0.006540533
60	0x3c214575	0.00984322
61	0x3cea0f61	0.028571786
62	0x3c556224	0.013023887
63	0x3addbe47	0.0016917669
64	0x3b557705	0.0032572162
65	0x3c920708	0.017825618
66	0x3be61852	0.007021942
67	0xbc497696	-0.0122963395
68	0x3caf7d2c	0.021421991
69	0x3c9edfbf	0.0193938
70	0x3c1c2499	0.00953021
71	0xbcd74239	-0.026276695
72	0x3c967543	0.018366462
73	0x3cb91c0c	0.022596382
74	0x3c9964f2	0.018724892
75	0xbd12fb09	-0.035883937
76	0x3c62dfb3	0.013847279
77	0x3b7fa1fb	0.003900646
78	0xbad1a144	-0.0015993495
79	0x3ca36020	0.019943297
80	0x3c894d07	0.016760362
81	0x3cf90a74	0.030400492
82	0xbd1224ae	-0.03567951
83	0xbd0b3d9d	-0.033994306
84	0x3cd5c901	0.026096823
85	0x3ca0b9ef	0.01961991
86	0x3be2af04	0.006917836
87	0x3c93e065	0.018051336
88	0xbca50f5f	-0.020148931
89	0x3ce8a566	0.02839918
90	0x3cefae87	0.029258026
91	0x3cf5cb60	0.030004203
92	0x3d13ac45	0.03605296
93	0x3cf6775a	0.030086208
94	0xbd0c22fd	-0.034213055
95	0xbc536796	-0.012903115
96	0x3b13a263	0.002252721
97	0xbcb72a89	-0.02235915
98	0x3d086b8b	0.033305686
99	0x3ad46aaa	0.0016206105
100	0x3c47ae1f	0.01218751
101	0x3c1a84a1	0.009431035
102	0xbbe802e4	-0.0070804227
103	0x3c721146	0.014774626
104	0x3cd5ab49	0.026082652
105	0x3d030edd	0.031996597
106	0x3bcf3a44	0.0063240845
107	0xbce68e87	-0.028144134
108	0x3c7a35ba	0.0152715985
109	0xbca0e4cb	-0.019640347
110	0x3ce377a4	0.02776701
111	0x3c4b1178	0.012394302
112	0x3b10195e	0.0021987776
113	0xbca88148	-0.020569459
114	0xbcd3d029	-0.025856094
115	0xbcd998a3	-0.02656204
116	0xbc845fdc	-0.01615899
117	0xbc2b4795	-0.010454078
118	0x3cb0d3e9	0.021585422
119	0x3c11fe18	0.008910678
120	0x3d0cc78d	0.034369994
121	0x3d18d773	0.037314843
122	0xbbffb8d2	-0.0078040147
123	0xbc5ee741	-0.01360494
124	0xbcc75910	-0.02433446
125	0xbb543954	-0.0032382803
126	0x3d03115d	0.03199898
127	0x3d244682	0.040106304
128	0x3d1bebcf	0.03806668
129	0x3c58ea23	0.013239416
130	0x3cd44dd9	0.025916027
131	0x3d00f4ee	0.031483583
132	0xbcadb082	-0.02120233
133	0xbc17fcba	-0.009276563
134	0xbc5e77ca	-0.013578365
135	0x3c590c11	0.013247506
136	0x3d1c631b	0.03818045
137	0x3c827551	0.015925081
138	0x3b28cd33	0.0025757074
139	0x3c670add	0.014101711
140	0x3cac47fe	0.021030422
141	0x3ba81e62	0.005130575
142	0xbc91c339	-0.017793285
143	0xba4fe782	-0.00079309207
144	0xbc9add7e	-0.018904444
145	0x3c9dd40a	0.019266147
146	0xbcb213b3	-0.021737909
147	0xbc055f40	-0.008140385
148	0xbbbe81a5	-0.0058137947
149	0xbc1f45fc	-0.009721275
150	0xbd13b3d1	-0.03606016
151	0x3c0e360f	0.008679881
152	0x3c3c6de1	0.011500807
153	0x3c99d219	0.01877694
154	0x3c861197	0.01636581
155	0x3cde78c7	0.0271572
156	0xbb08654d	-0.0020812333
157	0x3d33ed32	0.04392738
158	0xbc2ff9ea	-0.0107407365
159	0x3c0fa78e	0.0087679755
160	0xbcb30721	-0.021853985
161	0x3d0ad096	0.03389033
162	0x3cc50c0f	0.024053602
163	0xbaaa0076	-0.0012970108
164	0xbacdd8c4	-0.001570486
165	0x3b8ac621	0.0042350446
166	0x3d361b4f	0.044459637
167	0x3c896712	0.01677278
168	0xbb78264f	-0.003786463
169	0xbb499ab7	-0.0030762383
170	0x3cc8a713	0.02449373
171	0x3d4d21d0	0.050081074
172	0x3d1fc1fb	0.039003354
173	0x3d110b1c	0.035410985
174	0xbc9cfcbf	-0.019163487
175	0x3c63c872	0.01390277
176	0x3d3ed1b0	0.046586692
177	0x3c341e01	0.010993482
178	0xbc4bea40	-0.012445986
179	0x3ca79f8f	0.020461826
180	0x3d310344	0.043216005
181	0xbc1e2eb5	-0.0096546905
182	0x3d524219	0.051332567
183	0x3c73b16d	0.014873845
184	0x3d38947c	0.04506348
185	0x3cedc458	0.029024288
186	0x3cb9331a	0.022607375
187	0x3cdd75f5	0.027033785
188	0xba8befdf	-0.0010676346
189	0x3b859b68	0.0040773638
190	0x3cd1addc	0.025595598
191	0x3cac9099	0.021065043
192	0xbc76d991	-0.01506652
193	0x3cdff73d	0.027339572
194	0x3c32e7ce	0.010919524
195	0x3c8aab8d	0.016927505
196	0x3cf4601c	0.029830985
197	0x3c7cbf90	0.015426531
198	0x3ced7617	0.028986974
199	0xbc8af863	-0.016964143
200	0xbaec03c5	-0.0018006495
201	0xbc47b354	-0.012188751
202	0x3beb07c3	0.007172556
203	0x3c80ae1b	0.01570802
204	0x3cc42151	0.023941668
205	0xbc8aa13d	-0.016922588
206	0x3cf653a8	0.030069187
207	0x3d20c9be	0.039254896
208	0x3ca6dc1b	0.020368626
209	0xbc0157d9	-0.00789448
210	0xbc598264	-0.013275716
211	0xbc83bbff	-0.016080854
212	0xb91ee4f2	-0.00015153343
213	0xbbd668b5	-0.006543244
214	0xbc1fe20d	-0.009758485
215	0x3d22b7ce	0.03972607
216	0x3d6ad5af	0.05733269
217	0x3d605fb4	0.05477877
218	0x3d64e6ce	0.055884175
219	0x3c271fcb	0.010200451
220	0x3d44390d	0.04790597
221	0x3c8b66c3	0.017016774
222	0x3c122b17	0.008921406
223	0xbcad9e94	-0.02119378
224	0xbcdebd4f	-0.027189879
225	0x3d03fc7e	0.032223217
226	0x3cc97b93	0.024595058
227	0x3ccdf9fc	0.025143616
228	0x3ce5c4b0	0.02804789
229	0xbcdf8e20	-0.02728945
230	0x3a977411	0.0011554976
231	0x3cd1c4fe	0.025606629
232	0x3d1a010e	0.037598662
233	0x3cb7aaad	0.022420252
234	0x3b8b204d	0.004245794
235	0x3ca9fc04	0.020750053
236	0x3c852e1f	0.016257344
237	0x3b279e6f	0.0025576612
238	0xbc9b0111	-0.018921407
239	0xbba91f92	-0.005161234
240	0x3d3b8781	0.045783523
241	0x3d3aa92c	0.04557149
242	0x3d2fb097	0.04289302
243	0x3cf8eb32	0.030385587
244	0x3cccbf5f	0.024993597
245	0xbabe836c	-0.0014535016
246	0x3c907ff9	0.017639147
247	0x3d0e56d1	0.034750763
248	0x3c1c0979	0.009523743
249	0xbc814de9	-0.01578422
250	0x3c2ae556	0.0104306545
251	0x3cc96069	0.024582105
252	0xbc2ba1ec	-0.010475617
253	0xbbbbc885	-0.005730691
254	0x3cda0e0f	0.026618032
255	0x3c48d8ab	0.012258689

bias f4 [32]
0	0xbd2860c4	-0.041107908
1	0xbcbacc7f	-0.02280259
2	0xbc496db3	-0.012294221
3	0xbd7dbff7	-0.06195065
4	0xbcf1edbd	-0.029532308
5	0x3d2fccab	0.042919796
6	0xbdbaa10d	-0.09112749
7	0xbd17921c	-0.037004575
8	0xbd183c92	-0.03716714
9	0xbd1d184e	-0.038353257
10	0xbd8aa153	-0.067690514
11	0xbcc96b45	-0.024587283
12	0xbd0e8710	-0.034796774
13	0xbcb3f5a7	-0.021967722
14	0xbcbfaf05	-0.023398886
15	0x3c6df132	0.0145228375
16	0xba339710	-0.0006850818
17	0x3d07110f	0.032975253
18	0x3c9090d2	0.01764718
19	0xbcd9c7fb	-0.026584616
20	0xbbd6d4b4	-0.006556118
21	0xbc837f92	-0.016052041
22	0xbb9a8800	-0.0047159195
23	0x3cdce764	0.026965804
24	0x3d2059c9	0.039148126
25	0xbd256d94	-0.040387705
26	0x3bbec444	0.0058217365
27	0xbb9728f0	-0.0046130344
28	0xbc7cdbd7	-0.015433273
29	0xba861efe	-0.0010232625
30	0xbaaf3718	-0.001336786
31	0x3cb4b882	0.022060636

weight f4 [64, 32, 5, 5]
0	0xbc9d98ea	-0.019237954
1	0xbc8bbc57	-0.01705758
2	0xbc621dd4	-0.013801057
3	0xbc9a5aa9	-0.018842058
4	0xbca9904e	-0.020698693
5	0x3d0d9314	0.034564093
6	0x3ad7b1a1	0.0016456136
7	0x3cd0276e	0.025409427
8	0x3b42f31a	0.002974695
9	0x3caf87da	0.021427084
10	0xbcc258a2	-0.023723904
11	0xbc6d8faf	-0.014499589
12	0xbc45f7d5	-0.012083014
13	0x3cc602cc	0.024171256
14	0xbd101714	-0.03517826
15	0xbceb067c	-0.028689615
16	0xbcfcc90e	-0.03085759
17	0xbcb17221	-0.021660866
18	0xbc83cbec	-0.016088448
19	0x3b975144	0.004617842
20	0x3c58f09d	0.01324096
21	0x3c657198	0.014004134
22	0xbc762125	-0.015022551
23	0x3cf8157b	0.03028368
24	0x3c828500	0.01593256
25	0xbce1db75	-0.027570466
26	0x3aac05a8	0.0013124244
27	0xbc59ab96	-0.013285538
28	0xbd1649a4	-0.036691323
29	0xbcbad12c	-0.022804819
30	0x3cd4e912	0.025990043
31	0x3bfe4fae	0.0077609634
32	0x3c8dc64d	0.017306471
33	0xbbba9a00	-0.0056946278
34	0xbcc87a32	-0.02447233
35	0x3cb6f91b	0.02233558
36	0x3b4349c8	0.0029798616
37	0x3c7d6c94	0.015467782
38	0x3b5c16d0	0.0033582933
39	0xbc73308a	-0.014843116
40	0xbccc54c0	-0.024942756
41	0x3ce76d1e	0.028250273
42	0xbca23be2	-0.019803945
43	0xbc554611	-0.013017193
44	0xba36a0a0	-0.0006966684
45	0x3b9a5c5a	0.004710716
46	0xbc29aff4	-0.010356892
47	0xbd07297b	-0.032998543
48	0x3c7d922f	0.015476747
49	0xbce93a8a	-0.028470296
50	0x3c0771c8	0.008266874
51	0xbcd8e306	-0.02647544
52	0x3c5da9f8	0.013529293
53	0xbcab9c14	-0.020948447
54	0x3cda6490	0.02665928
55	0x3bf30e3d	0.007417469
56	0xbcff1f38	-0.031142816
57	0x3c2c0a9b	0.010500575
58	0x3cba910d	0.022774244
59	0x3c54873c	0.0129716955
60	0x39d84365	0.00041248943
61	0x3d1347cd	0.035957146
62	0xbce82486	-0.028337728
63	0x3c8f2f9b	0.017478755
64	0x3d00da58	0.03145823
65	0xbcd75e3d	-0.026290054
66	0x3c1c842d	0.009552998
67	0x3bdb2022	0.00668718
68	0xbd00f9a1	-0.031488065
69	0x3cf6508b	0.030067703
70	0x3ce7c63f	0.028292773
71	0xbcfe1456	-0.031015556
72	0x3c27ae83	0.010234478
73	0x3cb073c3	0.021539574
74	0x3c96c66b	0.01840516
75	0xbd0daa56	-0.034586273
76	0xbd1a48e1	-0.03766716
77	0xbcae40c1	-0.021271111
78	0x3d08a0a4	0.033356324
79	0xbb94229a	-0.0045207264
80	0x3befd806	0.007319453
81	0xbd0021bc	-0.03128217
82	0x3bc2b973	0.0059425174
83	0x3c8905dc	0.016726427
84	0x3c9ff5ae	0.019526329
85	0xbd00b5e2	-0.031423457
86	0xbc9e43ca	-0.019319434
87	0x3d0988ef	0.033577856
88	0x3bacc98f	0.005273051
89	0xbcaf3ea2	-0.02139217
90	0x3c4c2098	0.012458943
91	0x3cb15c56	0.021650475
92	0x3cb1edaf	0.021719782
93	0x3bfad9a4	0.0076553393
94	0x3c8cf46d	0.017206395
95	0xbc3f098a	-0.011659989
96	0xbc4feb8e	-0.012690438
97	0x3cb28907	0.021793855
98	0xbd094edd	-0.033522476
99	0x3cf3f392	0.02977923
100	0x3c5b1f87	0.013374216
101	0x3d1f4e38	0.038892955
102	0x3d1eccad	0.038769413
103	0xbc934753	-0.017978346
104	0xbd0c5b01	-0.034266476
105	0xbc0a9cf1	-0.008460269
106	0x3c57a01a	0.01316073
107	0x3bec7292	0.0072158063
108	0x3cefc0a1	0.029266657
109	0xbd073ee1	-0.03301895
110	0x3c08920b	0.008335601
111	0x3b88b56d	0.0041720183
112	0x3ce81900	0.028332233
113	0xbcdddeee	-0.02708384
114	0xbd0234d1	-0.03178865
115	0x3d02da66	0.031946562
116	0x3cba6a72	0.022755835
117	0xbc46520f	-0.012104525
118	0x3c13f0cf	0.009029581
119	0x3c0f4108	0.008743532
120	0x3bf1320e	0.0073607033
121	0x3d1c59ca	0.038171567
122	0x3cdfd4ea	0.027323205
123	0x3d04fa48	0.03246525
124	0x3d0161a4	0.031587258
125	0x3cc2e31b	0.023789933
126	0x3ce93603	0.028468138
127	0x3b408d93	0.002938126
128	0x3c7eac55	0.015544017
129	0xbc02cbc6	-0.007983154
130	0xbcc5da61	-0.024151983
131	0x3d11e240	0.03561616
132	0x3cc4d447	0.024027003
133	0xbc41c1b6	-0.011825969
134	0x3c71a3bc	0.01474851
135	0xbb218219	-0.0024644195
136	0xbcd03c76	-0.025419455
137	0xbba63677	-0.0050724107
138	0xbaed35c0	-0.0018097684
139	0x3c37c636	0.011216691
140	0x399dfa8c	0.00030132046
141	0xbb154f11	-0.0022782723
142	0xbc298079	-0.010345572
143	0xbc8aec16	-0.016958278
144	0xbcea9966	-0.0286376
145	0x3d0ac047	0.033874776
146	0x3d0bb970	0.034112394
147	0xbcc39514	-0.023874797
148	0x3d0908ff	0.033455845
149	0xbd051328	-0.032488972
150	0x3c2901fe	0.010315416
151	0xbcefb1bb	-0.029259553
152	0x3ba7fca7	0.005126554
153	0xbb267a2e	-0.0025402415
154	0xbd015d7f	-0.031583305
155	0x3c6ad5cb	0.014333199
156	0x3c1f94e4	0.009740088
157	0xbc86b833	-0.016445255
158	0xbcdd4839	-0.027011978
159	0x3c8b3c98	0.016996667
160	0x3c078f0a	0.008273849
161	0xbd124c26	-0.035717152
162	0xbb884f05	-0.0041598105
163	0xbce4e5bf	-0.027941583
164	0xbc65f7c7	-0.0140361255
165	0x3ad99ee9	0.0016603145
166	0xbc86fc3a	-0.016477693
167	0xbb4c2cb2	-0.003115457
168	0x3c2cfefd	0.010558841
169	0xbcf300ec	-0.029663526
170	0xbd130556	-0.03589376
171	0xbd123977	-0.035699334
172	0x3d02c3a6	0.031924866
173	0xbcbc05ca	-0.02295198
174	0x3ca207a1	0.019779028
175	0x3c33a06f	0.010963543
176	0xbcdf8bac	-0.02728828
177	0xbc4546a5	-0.012040769
178	0x3ae5fc78	0.0017546555
179	0xbd1550b2	-0.03645391
180	0xbd07a78d	-0.033118773
181	0xbd18e893	-0.037331175
182	0xbc0dded5	-0.008659084
183	0xbb82dc9e	-0.003993585
184	0x3d0e0592	0.03467328
185	0x3d060241	0.032716993
186	0xbd15d41d	-0.03657924
187	0xbca919fe	-0.020642277
188	0x3d140278	0.036135167
189	0xbcb0182f	-0.021495907
190	0xbabc0127	-0.0014343605
191	0xbcc6e285	-0.024277935
192	0x3c0748d7	0.0082571125
193	0x3caa649c	0.020799927
194	0x3c1d83d5	0.009613951
195	0xbbc7b682	-0.0060947547
196	0x3c94c079	0.018158184
197	0x3bce3a70	0.0062935874
198	0x39c6cf81	0.00037920105
199	0x3cd1b9ea	0.025601346
200	0xbba157c8	-0.0049237944
201	0xbcdf518e	-0.027260568
202	0x3cff8bd3	0.031194603
203	0xbbe9c8a5	-0.0071345144
204	0x3c029d78	0.007972114
205	0xbca8338d	-0.020532394
206	0xbce83a4d	-0.028348112
207	0xbb3fa0e2	-0.002924018
208	0x3cc40f66	0.023933124
209	0xbcf3f938	-0.029781923
210	0xbb6dc268	-0.0036279205
211	0xbc5b24ee	-0.013375504
212	0x3cf7bd4c	0.030241631
213	0xbcc1e930	-0.023670763
214	0x3c91a9b9	0.017781125
215	0x3ad2d0c7	0.0016083949
216	0xbcce059e	-0.025149163
217	0x3ccfa9f4	0.025349595
218	0x3ce72345	0.02821506
219	0xbc8e328a	-0.017358083
220	0xbc42e391	-0.011895076
221	0x3c9a6229	0.018845635
222	0x3bb2f479	0.0054612723
223	0x3c773f58	0.015090786
224	0xbb8f83cf	-0.0043797265
225	0xbcadde41	-0.021224143
226	0x3c0ef8d7	0.00872632
227	0xbc4ef562	-0.012631746
228	0x3ccaed9c	0.024771504
229	0xbd00610b	-0.031342547
230	0x3985009d	0.00025368194
231	0x3b098ab0	0.0020987205
232	0x3d0db420	0.03459561
233	0x3c839945	0.016064296
234	0x3d070020	0.032959104
235	0xbc654cf1	-0.013995395
236	0xbc232d3e	-0.009959517
237	0x3d08ce25	0.03339972
238	0xbcfbc636	-0.030734163
239	0x3bea2df9	0.0071465936
240	0xbd0e858f	-0.03479534
241	0x3c36ceca	0.011157701
242	0xbbb97cac	-0.005660614
243	0xbc32182e	-0.010870023
244	0xbd0d35c7	-0.034475114
245	0x3aca81b7	0.0015450035
246	0xbbccd413	-0.006250867
247	0x3cfb1d89	0.030653732
248	0x3bdeca52	0.006799021
249	0xb9da6115	-0.00041652532
250	0x3c0ff84d	0.008787227
251	0x3c0b49bb	0.008501465
252	0x3c0d7969	0.0086349035
253	0x3cbb3c33	0.022855854
254	0xbc46b313	-0.012127656
255	0xbc95d8d2	-0.018291865

bias f4 [64]
0	0xbb2bafdd	-0.0026197352
1	0xbd02538d	-0.03181796
2	0xbd1f4c6d	-0.038891245
3	0x3cf0ad0e	0.029379394
4	0xbd435184	-0.04768516
5	0x3ca389ad	0.01996311
6	0xbc4dc711	-0.012559668
7	0x3bfaba75	0.007651622
8	0xbcc4c771	-0.024020882
9	0xbd1af7fc	-0.037834153
10	0x3c9770f8	0.018486485
11	0xbc9664fc	-0.0183587
12	0xbbf49409	-0.007463936
13	0xbc399de1	-0.011329145
14	0xbcca591b	-0.024700692
15	0x3ca8fc5f	0.020628152
16	0xbc97e94b	-0.01854386
17	0x3c746a53	0.014917928
18	0xbd459f4d	-0.048247624
19	0x3d452a2a	0.048135914
20	0xbb8c00ec	-0.004272571
21	0xbc8f7156	-0.017510097
22	0xbd075519	-0.03304014
23	0xbcab45d1	-0.020907314
24	0xbd5fc10a	-0.054627456
25	0xbd020b2a	-0.031748928
26	0xbc9b6e62	-0.018973533
27	0xbd198c42	-0.037487276
28	0x3cf3820d	0.029725099
29	0xbb2643f3	-0.002537009
30	0x3d0f61a1	0.035005216
31	0xbc4d2312	-0.012520568
32	0xbb1669cf	-0.002295125
33	0xbbcedbcf	-0.0063128243
34	0xbce33766	-0.027736377
35	0x3d4afb64	0.04955615
36	0xbcbe63b3	-0.0232409
37	0x3d0aedcb	0.033918183
38	0xbb59e579	-0.0033248349
39	0x3c6993d1	0.014256434
40	0xbd12466a	-0.035711683
41	0xbd4217ed	-0.0473861
42	0xbc98bf49	-0.0186459
43	0xbb0c83b4	-0.0021440806
44	0xbd4b8ce3	-0.049694907
45	0x3c3fda53	0.011709767
46	0x3cc85637	0.024455173
47	0x3d10ebd8	0.035381168
48	0xbcd5fac1	-0.026120545
49	0xbd0f1b14	-0.034937933
50	0xbc0ed366	-0.0087173935
51	0xbc869709	-0.016429441
52	0x3c762a73	0.015024769
53	0x3cb26706	0.021777641
54	0xbcf9f9f3	-0.030514693
55	0xbbbe98ce	-0.0058165556
56	0x3caad670	0.020854205
57	0x3c40d63f	0.01176983
58	0x3bc40804	0.005982401
59	0x3d13c787	0.036078956
60	0x3cd12102	0.025528435
61	0x3c9bfe0e	0.019042041
62	0x3caa91c6	0.020821463
63	0x3ccb4959	0.024815248

weight f4 [64, 1024]
0	0xbc57f895	-0.013181825
1	0x3cc7ebc8	0.024404421
2	0x3c33e4de	0.010979859
3	0x3cdd006d	0.026977742
4	0x3c9099c4	0.017651446
5	0x3c855373	0.016275143
6	0x3cc73283	0.024316078
7	0xbcc5ab0e	-0.024129417
8	0x3c6c49bb	0.014421876
9	0xbcefa219	-0.029252099
10	0xbc0fd481	-0.008778692
11	0xbcd80d49	-0.026373522
12	0xbc53567b	-0.0128990365
13	0xbcb726f6	-0.022357445
14	0x3cb1be49	0.02169718
15	0x3c86fd67	0.016478254
16	0x3a40a045	0.0007348101
17	0xbc502fe6	-0.012706732
18	0xbc90d865	-0.01768131
19	0xb9b8fb56	-0.00035282475
20	0x3caff68f	0.021479873
21	0xbc4eff6f	-0.012634142
22	0x3cacde25	0.02110202
23	0x3c8fdc54	0.017561115
24	0x3cf53483	0.029932266
25	0xbb0b70dd	-0.0021276989
26	0x3ca195a9	0.019724684
27	0x3cb8faaf	0.022580473
28	0x3cfa7193	0.030571735
29	0x3ad6cfd6	0.0016388844
30	0x393109a6	0.0001688363
31	0xbc6e061d	-0.014527825
32	0x3c996af5	0.018727759
33	0x3c426973	0.011865961
34	0xbbb92f26	-0.0056513725
35	0x39d54ea6	0.00040685124
36	0xbbef63e2	-0.007305608
37	0xbc8c1c7f	-0.017103432
38	0x3c9da301	0.019242765
39	0xbca25d22	-0.0198198
40	0x3c969442	0.018381242
41	0x3bc3ba45	0.005973133
42	0xbca2a5cb	-0.019854447
43	0x3ca4f55c	0.020136528
44	0x3bb24d90	0.005441375
45	0xbcc039c0	-0.023465037
46	0xbc72f35a	-0.014828527
47	0x3c26d0e0	0.010181636
48	0xbc480bbc	-0.012209829
49	0x3c96fe9f	0.01843196
50	0x3cd534b8	0.026026115
51	0x3c6e7442	0.014554085
52	0xbce788b7	-0.028263433
53	0xbc932d60	-0.017965972
54	0xbc9af61e	-0.018916186
55	0x3c586440	0.013207495
56	0x3ca42282	0.020035986
57	0x3d15ce29	0.036573563
58	0x3b9d97a4	0.0048093367
59	0xbc1d9e07	-0.009620196
60	0x3d110480	0.035404682
61	0xbcf7a14e	-0.030228283
62	0xbcaaa99f	-0.020832835
63	0xbcb50b4d	-0.022100115
64	0xba59b48e	-0.0008304798
65	0xbc1d5151	-0.009601907
66	0xbcb4e14d	-0.022080088
67	0x3cc78d2e	0.024359312
68	0x3cdd6504	0.027025707
69	0xbce71b1a	-0.028211165
70	0x3b79d497	0.0038121098
71	0xbd008013	-0.03137214
72	0x3c788668	0.015168764
73	0xbcde5eca	-0.027144808
74	0x3c857f55	0.016296068
75	0xbbd0eec6	-0.0063761203
76	0xbd04c392	-0.032413073
77	0x3c3ec2fb	0.011643167
78	0x3c8a6edd	0.016898567
79	0xbc2307ab	-0.009950559
80	0x3c958cbc	0.018255584
81	0x3c957f65	0.018249223
82	0x3caea381	0.0213182
83	0x395b18b2	0.00020894667
84	0xbca58104	-0.020203121
85	0x3ca2244e	0.019792702
86	0x3d0092a5	0.03138985
87	0x3cbd92b3	0.02314124
88	0xbcf2b52a	-0.029627401
89	0x3cc15371	0.023599358
90	0xbc842e45	-0.016135344
91	0xb983be6c	-0.00025128142
92	0xbc35131c	-0.011051919
93	0xbc9fd7cf	-0.019512085
94	0xbc9d4983	-0.019200092
95	0xbc3ad4c6	-0.011403268
96	0x3c0fa923	0.008768353
97	0x3cee5128	0.029091433
98	0x3ba4e8db	0.0050326413
99	0xbbb5a99a	-0.0055438997
100	0xbca3a08a	-0.019974012
101	0x3cc9cd54	0.02463404
102	0x3ccc3e29	0.024931984
103	0x3b95ec24	0.0045752693
104	0xbcadd31e	-0.021218833
105	0xbced1edf	-0.028945385
106	0x3ac762a7	0.0015211896
107	0xbc4abc07	-0.012373931
108	0xbb36d001	-0.0027894976
109	0x3c89683c	0.016773336
110	0x3a5600dc	0.000816358
111	0xbcd3fb5f	-0.025876699
112	0x3c964147	0.018341674
113	0xbd1bb5e6	-0.03801527
114	0xbc90a6b1	-0.01765761
115	0x3cbe8aa8	0.023259476
116	0x3c3a7a89	0.011381754
117	0xbc4021e6	-0.011726832
118	0xbce07b8f	-0.027402667
119	0x3ce562cc	0.028001212
120	0x3c446761	0.011987538
121	0x3c8bc3bc	0.017061107
122	0xbb194c93	-0.002339159
123	0x3c868558	0.016421005
124	0x3c26e539	0.010186487
125	0x3cc6de8c	0.02427604
126	0x3cf39c7d	0.029737705
127	0x3ccfddb8	0.025374278
128	0xbcafe4e0	-0.02147144
129	0x3cf31010	0.029670745
130	0x3bab2699	0.005223107
131	0xbc215890	-0.009847775
132	0xb8e5594c	-0.00010936204
133	0x3abf68bb	0.0014603356
134	0x3ca7ee69	0.020499425
135	0x3cc605da	0.024172712
136	0x3ad20cad	0.0016025506
137	0xbc836bda	-0.016042639
138	0xbc55ae01	-0.013041974
139	0xbcabd63d	-0.02097618
140	0xbcdf225c	-0.027238064
141	0xbb7c51f3	-0.0038500994
142	0xbc833b2c	-0.016019426
143	0xba38aba0	-0.0007044617
144	0x3c9d5179	0.019203888
145	0xbc47f700	-0.0122048855
146	0xbd0babcd	-0.03409939
147	0xbba71ff1	-0.0051002433
148	0xbc9490a9	-0.018135386
149	0x3c8bf609	0.017085092
150	0xbc4ec2b2	-0.012619661
151	0x3cbc4161	0.022980394
152	0xbc9af64f	-0.018916277
153	0x3ad2d726	0.0016085848
154	0x3c769962	0.015051218
155	0x3cf933e7	0.030420257
156	0x3bb521e8	0.0055277236
157	0x3cadd600	0.021220207
158	0x3cd2aa0f	0.025715856
159	0x3c301b43	0.010748687
160	0x3c573da0	0.013137251
161	0x3ad824db	0.0016490476
162	0xbcfa3e02	-0.030547146
163	0xbd0c2f53	-0.03422482
164	0x3c1d1ae3	0.00958893
165	0xbd188873	-0.037239503
166	0x3c3b9dd0	0.0114512
167	0x3b9f4fe7	0.00486182
168	0xbccf1bb3	-0.025281763
169	0x3b745a05	0.00372851
170	0x3ccf87c7	0.025333298
171	0x3c030f41	0.007999242
172	0xbbfecdcb	-0.0077759973
173	0x3b965e8b	0.004588907
174	0x3c17219b	0.009224321
175	0xbcd42033	-0.02589426
176	0xbb2fae2b	-0.0026806693
177	0xbc209387	-0.009800798
178	0xbc2fd97e	-0.0107330065
179	0xb9a20f2a	-0.00030910346
180	0x3d0979ac	0.0335633
181	0x3ced7726	0.028987478
182	0xbccb5862	-0.024822418
183	0x3c4b72bd	0.012417492
184	0xbcc6bcde	-0.02425998
185	0xbc0aa616	-0.00846245
186	0xbc8d15cc	-0.017222308
187	0x3c93a2b3	0.018021917
188	0xbca140c2	-0.0196842
189	0xbca61546	-0.020273816
190	0xbbbc37b2	-0.005743944
191	0xbcc466eb	-0.023974856
192	0xbcc5d04d	-0.024147177
193	0x3c8b47f6	0.017002087
194	0xbcaab7dd	-0.020839626
195	0x3c508211	0.012726323
196	0xbc904aa3	-0.017613715
197	0xbd0d4339	-0.034487937
198	0xbc3d4a2e	-0.01155333
199	0x3d12fd4e	0.0358861
200	0x3cfd7620	0.030940115
201	0x3c86858f	0.016421108
202	0xbc9c548e	-0.019083288
203	0x3cdc8932	0.026920889
204	0xbc92cec5	-0.017920861
205	0x3c4ddaff	0.01256442
206	0x3d09e6e2	0.033667453
207	0xbc8983d0	-0.016786486
208	0xbbaede90	-0.00533659
209	0x3c57b161	0.013164849
210	0x3c32b983	0.010908487
211	0x3c925484	0.017862566
212	0x3b574c85	0.0032852006
213	0xbc862af9	-0.016377913
214	0xbcd93fe9	-0.026519733
215	0xbc066f6b	-0.008205275
216	0x3d03a475	0.03213926
217	0x3cb1c1f3	0.021698928
218	0xbc81f253	-0.01586262
219	0x3bd2b0e2	0.0064297775
220	0xbc000e36	-0.007815888
221	0x3b6abc25	0.003581771
222	0xbcce18b7	-0.02515827
223	0xbd01d2ea	-0.031695284
224	0x3c239d0e	0.009986175
225	0xbc6d4a51	-0.01448305
226	0x3c0ed072	0.008716689
227	0xbc950699	-0.018191623
228	0xbcd9aebb	-0.026572576
229	0x3ae3affa	0.0017371171
230	0xbd23be82	-0.039976604
231	0x3c9ad1b0	0.018898815
232	0x3d0f3258	0.03496012
233	0x3cbb54ab	0.022867521
234	0xbacbf3c3	-0.0015560318
235	0xbcd48b0b	-0.025945207
236	0xbb073623	-0.0020631633
237	0xbc595048	-0.013263769
238	0x3c96f905	0.018429289
239	0xbc230253	-0.009949285
240	0x3c9cb7af	0.019130556
241	0x3bc66b7d	0.006055294
242	0xbba4a5d6	-0.005024652
243	0xbbf843a0	-0.007576421
244	0x3ca350fe	0.019936081
245	0x3c5fcfb2	0.013660358
246	0xbb0fe966	-0.0021959185
247	0x3c056a10	0.008142963
248	0xbbbc367d	-0.0057438
249	0xbbc9d1fc	-0.0061590653
250	0x3c31b666	0.01084671
251	0x3cece27c	0.02891659
252	0xb88b8dae	-6.6544264e-05
253	0x3c09764d	0.0083900215
254	0xbcec8ad2	-0.028874788
255	0x3cb0c41d	0.02157789

bias f4 [64]
0	0xbc8bfa21	-0.017087044
1	0x3c27ed1d	0.010249403
2	0xbc41802f	-0.0118103465
3	0xbc31f259	-0.010861003
4	0xbbded447	-0.006800208
5	0xbbe2d31e	-0.00692214
6	0xbb554f70	-0.003254857
7	0xbce5cdfe	-0.028052326
8	0x3ba0db92	0.0049089873
9	0xbcaab15f	-0.02083653
10	0x3d00286f	0.03128856
11	0x3d10cd01	0.035351757
12	0x3d0cd969	0.034387026
13	0xbc2379cf	-0.009977772
14	0xbacaf0b8	-0.0015483117
15	0xbce14a16	-0.027501147
16	0xbc7fda95	-0.015616079
17	0xbbc48a66	-0.0059979437
18	0xbce71ec7	-0.028212918
19	0xbc14d7a9	-0.0090846205
20	0xbc96d0f0	-0.018410176
21	0xbcfa27df	-0.03053659
22	0x3c7b06b6	0.015321424
23	0x3cbe68e1	0.02324337
24	0xbcfc69fe	-0.03081226
25	0xbb8b6098	-0.004253458
26	0xbcb81a5c	-0.022473507
27	0xbbc36bb5	-0.0059637674
28	0xbcd20f36	-0.025642019
29	0x3ce24aea	0.027623612
30	0xbcc25ea4	-0.023726769
31	0xbb61a287	-0.003442915
32	0xbcc593e7	-0.024118377
33	0x3c826c60	0.015920818
34	0xbbc6ed30	-0.0060707554
35	0x3beb2984	0.00717658
36	0x3d0ab328	0.033862263
37	0xbca040fe	-0.01956224
38	0x3ce86c9a	0.028372098
39	0x3d1fa857	0.0389789
40	0x3bcb1369	0.006197382
41	0x3d04ceb5	0.032423694
42	0x3c7b7188	0.015346892
43	0x3c085fe8	0.008323647
44	0x3cb54f11	0.022132428
45	0xbd2b8da0	-0.04188311
46	0xbc14d7e0	-0.009084672
47	0x3d143621	0.036184434
48	0x3cbe9a2f	0.02326688
49	0xbd27b341	-0.040942434
50	0xbb87d032	-0.004144692
51	0xbd00cc70	-0.031444967
52	0xbd1861b8	-0.037202567
53	0xbc843a11	-0.01614097
54	0x3cc7b06e	0.02437612
55	0x3c8dbec8	0.017302886
56	0x39cc6032	0.00038981583
57	0x3a7236f2	0.0009239755
58	0xbcc55a17	-0.02409081
59	0xbd1298aa	-0.035790123
60	0xbcfdcaa7	-0.030980421
61	0xbccea0fb	-0.025223246
62	0xba855ea7	-0.0010175303
63	0xb991a80c	-0.0002778176

weight f4 [10, 64]
0	0xbcb0daf4	-0.02158878
1	0xbdf1722a	-0.11789353
2	0x3cd66016	0.026168864
3	0xbd8b97b1	-0.06816042
4	0x3d58480b	0.05280308
5	0x3d444e2e	0.04792612
6	0xbdebf8aa	-0.11522038
7	0x3be385e6	0.006943452
8	0xbe0bce20	-0.13652849
9	0xbdb96568	-0.09052545
10	0xbdbd197e	-0.09233378
11	0xbb89bc34	-0.0042033438
12	0xbd873edc	-0.06603786
13	0x3acb7aa6	0.0015524223
14	0xbcd02b0a	-0.025411148
15	0xbb588979	-0.0033040924
16	0x3de107e6	0.10987835
17	0x3cb613ff	0.022226332
18	0x3e0fa0cc	0.14026183
19	0xbc43e791	-0.011957065
20	0x3dce0e21	0.100612886
21	0x3d694bdd	0.056957114
22	0x3ddc1a41	0.10747195
23	0xbda3bda1	-0.07995153
24	0xbc2f3290	-0.010693207
25	0x3d9f6dbe	0.077846035
26	0x3dca26e7	0.09870701
27	0xbe2839d2	-0.16428307
28	0x3e00abad	0.12565489
29	0xbdb81e42	-0.08990146
30	0xbe2f4ce6	-0.17119178
31	0xbcbd5aa3	-0.023114508
32	0x3e17f552	0.14839676
33	0xbde44dc4	-0.11147645
34	0xbd2a7ae4	-0.041621104
35	0xbd551788	-0.052024394
36	0xbc2fdfa3	-0.0107344715
37	0xbde89110	-0.113557935
38	0xbce64132	-0.02810726
39	0x3d8d0f42	0.06887676
40	0xbdd85732	-0.10563506
41	0xbe2096a9	-0.15682472
42	0xbe0ad0b5	-0.13556178
43	0xbd85ad8a	-0.065272406
44	0x3d4095d6	0.047017895
45	0x3d9df9cb	0.0771366
46	0x3c8814c4	0.016611464
47	0xbe1256ab	-0.14290874
48	0xb9c69ff7	-0.00037884686
49	0x3df7b42b	0.12094911
50	0x3db52dfd	0.08846662
51	0x3e221219	0.15827216
52	0x3d4f2336	0.05057069
53	0x3e1e70c0	0.15472698
54	0x3d3dab1d	0.046305764
55	0xbd9863b8	-0.07440895
56	0x3dc23cdd	0.09484265
57	0x3e053639	0.13008966
58	0xbd0fed3b	-0.03513835
59	0x3dcf8a19	0.10133762
60	0x3d570544	0.052495256
61	0x3e1ec06e	0.15503094
62	0xbc8be365	-0.017076204
63	0xbe2d8bca	-0.16947857
64	0xbc143653	-0.009046155
65	0x3e0defaa	0.13860956
66	0xbe491681	-0.19637491
67	0x3b243a29	0.002505908
68	0xbe2f895c	-0.17142242
69	0xbe204a93	-0.15653448
70	0xbe21f87d	-0.15817447
71	0xbda347be	-0.07972668
72	0xbe1d306a	-0.153505
73	0xbdef5aad	-0.11687217
74	0xbd9ef67b	-0.07761856
75	0x3cc79d84	0.024367101
76	0x3de3b1ac	0.111178726
77	0xbd231ab2	-0.03982038
78	0x3db0d1b3	0.08633747
79	0xbe130ee9	-0.14361157
80	0x3e116d31	0.1420181
81	0x3cd9ec54	0.026601948
82	0xbdc2c2cd	-0.095098116
83	0x3e47ebc1	0.19523527
84	0xbbf3597b	-0.0074264384
85	0x3ddbcfa5	0.107329644
86	0x3e453153	0.19257097
87	0x3e07cb45	0.13261135
88	0x3dc8285c	0.09773323
89	0xbdb32976	-0.087481424
90	0x3e0c199f	0.13681649
91	0xbdb850e6	-0.08999805
92	0xbdb290d3	-0.08719029
93	0xbe417280	-0.18891335
94	0xbe0ddc05	-0.13853462
95	0x3e2be01a	0.16784707
96	0xbde0bf31	-0.10973967
97	0xbe2b65f9	-0.16738118
98	0x3e5d2403	0.21595769
99	0xbce34a10	-0.027745277
100	0xbd08521b	-0.033281427
101	0xbda33d2a	-0.079706505
102	0xbc83ade2	-0.016074125
103	0x3e0a5848	0.13510239
104	0x3c724e47	0.014789171
105	0xbdc8a179	-0.097964235
106	0xbcd3aab9	-0.025838243
107	0x3cdaa2da	0.026688982
108	0xbc1d53c7	-0.009602494
109	0xbda80244	-0.08203557
110	0xbe4ea7ee	-0.20181248
111	0x3ddaac2b	0.1067737
112	0xbde7d621	-0.11320139
113	0x3d9014e4	0.070352346
114	0xbe175018	-0.14776647
115	0xbc525d0d	-0.012839568
116	0xbe10bebf	-0.14135264
117	0xbb182c60	-0.002321981
118	0x3cf39597	0.029734416
119	0x3d5b3a48	0.05352238
120	0xbdba2e0a	-0.090908125
121	0xbe04c92f	-0.1296737
122	0x3e1f57a0	0.1556077
123	0x3a3b17de	0.00071370404
124	0xbe1c446d	-0.15260477
125	0x3d1b351c	0.037892446
126	0x3d89bb0a	0.06725128
127	0xbe36ca3d	-0.17850585
128	0xbd9458c8	-0.07243496
129	0xbd909527	-0.070596986
130	0x3e4cc2cf	0.19996189
131	0xbcf419af	-0.029797403
132	0x3e015233	0.12629013
133	0x3e3b02c6	0.18262777
134	0x3cb00e10	0.02149108
135	0x3d495830	0.049156368
136	0x3e22b3d6	0.15888914
137	0x3e141c01	0.14463808
138	0xbdbf6977	-0.09346288
139	0xbe04b7b2	-0.12960699
140	0xb9e0966f	-0.0004283669
141	0x3d344bd9	0.044017646
142	0x3e014e5d	0.1262755
143	0xbc962d54	-0.018332161
144	0xbdbf6bb5	-0.09346715
145	0x3e00525c	0.12531418
146	0x3de01196	0.10940854
147	0xbdfa3d41	-0.122187145
148	0x3e0df7ef	0.1386411
149	0xbd980131	-0.07422102
150	0x3d37d512	0.044880934
151	0x3d0f3a70	0.03496784
152	0xbdd82c1c	-0.10555288
153	0x3e07eea0	0.13274622
154	0xbe1707f9	-0.14749135
155	0x3cfeae27	0.031088902
156	0x3db93649	0.09043557
157	0xbdd5908d	-0.104279615
158	0x3bfe9091	0.0077686985
159	0xbdb641f0	-0.08899295
160	0xbe1bbaa8	-0.15207922
161	0xbd7872cd	-0.060656358
162	0x3badf80a	0.0053091096
163	0xbdc57b98	-0.09642714
164	0x3dd1297f	0.10212993
165	0x3dd29a62	0.102833524
166	0xbd829294	-0.06375614
167	0x3d723e78	0.059141606
168	0x3df990f9	0.121858545
169	0x3e1a460c	0.15065783
170	0x3c10edb1	0.008845733
171	0xbd59ad34	-0.053143695
172	0x3c63bb19	0.013899588
173	0xbd9b99d1	-0.075976975
174	0x3dfba581	0.12287427
175	0x3dedc6df	0.11610197
176	0xbceed435	-0.029153923
177	0xbcf5e2d8	-0.030015394
178	0xbdb52e18	-0.08846682
179	0x3d6dd02f	0.058059867
180	0x3ded10ff	0.115755074
181	0x3e139680	0.1441288
182	0xbe02ccc8	-0.1277343
183	0xbd8c49f9	-0.06850047
184	0xbbec8367	-0.007217813
185	0xbda7603d	-0.08172653
186	0xbcfbbad1	-0.03072873
187	0xbe08573b	-0.13314526
188	0x3d39a18c	0.04532008
189	0x3e2a017a	0.16602126
190	0x3e08cd37	0.13359533
191	0x3d322323	0.04349054
192	0xbc862dfa	-0.016379345
193	0xbc8f4c4e	-0.01749244
194	0x3e077887	0.13229571
195	0xbd115300	-0.035479546
196	0xbd67a13b	-0.056550246
197	0xbcf297f6	-0.029613476
198	0x3e19a2bd	0.15003486
199	0xbc91fd8e	-0.0178211
200	0x3dc77e92	0.09740938
201	0x3cfc312e	0.03078517
202	0xbe002f85	-0.12518127
203	0xbd79fa23	-0.061029565
204	0xbd643e4d	-0.055723477
205	0x3db20adc	0.086934775
206	0xbe14317d	-0.14472003
207	0x3d7cecef	0.061749395
208	0x3a454b1e	0.0007526147
209	0x3c156ffc	0.009120937
210	0xbdbd0172	-0.09228791
211	0xbdaa63d8	-0.08319825
212	0xbbbf9716	-0.0058468683
213	0xbd57656d	-0.05258696
214	0xbe00c56e	-0.12575313
215	0xbdb0437d	-0.08606622
216	0xbcff3780	-0.031154394
217	0xbabebdca	-0.0014552411
218	0x3dce2701	0.10066033
219	0xbd771a9f	-0.060328122
220	0x3d826fc4	0.06368974
221	0x3e0b0ce3	0.13579135
222	0x3df2baca	0.118520334
223	0xbd5dcc05	-0.054149646
224	0xbdf5235e	-0.119696364
225	0xbb9027ad	-0.004399261
226	0xbbaa7039	-0.0052013663
227	0xbded0644	-0.11573461
228	0x3cce841e	0.025209483
229	0xbd5bfd25	-0.053708214
230	0xbe0dd511	-0.1385081
231	0xbe2e99a3	-0.17050795
232	0xbdc65e1d	-0.096859194
233	0x3c5939eb	0.013258438
234	0x3e1eb01c	0.15496868
235	0x3e24a256	0.16077551
236	0xbd26c0f7	-0.04071137
237	0x3dba367e	0.09092425
238	0x3c2b1f43	0.010444465
239	0x3dda9ecf	0.106748216
240	0x3d3a1e82	0.04543925
241	0xbd115442	-0.035480745
242	0x3d6e63ef	0.058200773
243	0xbde6b7a8	-0.112654984
244	0xbd45d090	-0.048294604
245	0x3db6db34	0.089285284
246	0x3d238cb2	0.0399291
247	0x3e028417	0.12745701
248	0xbe23feac	-0.16015118
249	0x3da0554f	0.07828771
250	0x3c6e906f	0.014560803
251	0x3d8c83e1	0.068610914
252	0x3d7d78d4	0.06188281
253	0xbd5e6676	-0.054296933
254	0x3d44f005	0.048080463
255	0x3dec6784	0.115431815

bias f4 [10]
0	0xbd8dd697	-0.069256954
1	0xbbc09422	-0.005877034
2	0xbda45426	-0.080238625
3	0x3d498f1f	0.049208757
4	0xbd2db6f9	-0.042410824
5	0xbc6ae1a7	-0.014336026
6	0x3df4ccb0	0.119531035
7	0xbd829deb	-0.06377777
8	0xbd70753c	-0.058705553
9	0xbda1a85b	-0.078934394
