models/xue_4.pth (torch, 587967 bytes, 10 tensors)

weight f4 [32, 3, 5, 5]
000000 bb 7c 96 bd 39 d4 85 3d 5c 64 19 3d 06 4f 01 3d
       -0.07348009 0.06534619 0.037449226 0.031569503
000010 4b 1a 9c 3d e0 7f 0d 3d b1 59 1d bc 83 fd d5 3c
       0.076222025 0.03454578 -0.009603904 0.02612186
000020 60 18 9b bd b3 2c 91 3d 2b 81 18 bd f6 d7 bd bc
       -0.075730085 0.07088604 -0.03723256 -0.023174267
000030 14 11 0f be ff 3c dc bc 0f ff 53 bd a1 3b 28 bd
       -0.13971359 -0.026884554 -0.051756915 -0.04107249
000040 92 2c 1c 3d 17 2b bc bd 0a 20 1a bd da 6e 1d bd
       0.038128443 -0.09187906 -0.03762821 -0.038435794
000050 88 cb 12 bd da 82 4b 3d c6 91 c4 3d 15 56 30 3d
       -0.035838634 0.049685337 0.095981166 0.043050844
000060 98 21 c0 3d a5 c2 aa bc 2d f9 a9 3c 4b cf 4d 3d
       0.093814075 -0.020844767 0.0207487 0.050246518
000070 a5 9b 88 bc 2a 0b c7 bd 1e 25 15 3d de 64 34 bb
       -0.01667578 -0.09718926 0.03641235 -0.0027525942
000080 3e 63 dc 3d d6 63 06 bd 58 a3 c4 bd ac 5d ed bc
       0.107611164 -0.032810055 -0.09601468 -0.02897533
000090 0b e5 16 bd 4c 00 9f bd f0 a6 bb bd 5d aa ae bd
       -0.036839526 -0.077637285 -0.091627 -0.08528588
0000a0 16 b9 a4 3d f8 29 c0 bc 43 97 1c 3d 89 c2 10 bc
       0.08043115 -0.023457512 0.038230192 -0.008835443
0000b0 cd ef a0 3d 12 7d 7d 3d 2c 81 47 3c c8 b4 07 3d
       0.07858238 0.061886854 0.012176793 0.03313139
0000c0 36 36 a2 3b 58 cf df bd 48 9d 3a 3d c2 86 80 3d
       0.00495031 -0.109282196 0.04556015 0.06275703
0000d0 5a ab 0c 3e ea 61 1c 3d f3 b2 50 bd ab 75 be 3d
       0.1373724 0.038179316 -0.05095191 0.09299787
0000e0 fd db 98 3d fc ea 8a 3b 9e 6a 15 3e 67 11 6f 3d
       0.074638344 0.004239438 0.14591452 0.058366206
0000f0 45 26 36 bd 5d 93 3c bd f8 06 f2 3d c8 51 dc 3d
       -0.04447009 -0.046038974 0.118177354 0.10757786
000100 e8 b1 d8 bb 44 e9 c6 3d b0 3b a5 bd 48 03 85 bd
       -0.006613005 0.09712461 -0.08068025 -0.064947665
000110 03 a1 15 bd ca 71 93 3d 20 fa 41 3d 74 5c 03 bd
       -0.036530506 0.07199438 0.04735768 -0.032070592
000120 df 9f b9 bc cf 16 bd bd 19 27 b7 3d ce 9c 97 3d
       -0.02265924 -0.09232866 0.08943004 0.07402955
000130 e3 fd 36 bd e5 f5 47 bd 71 ee 05 3d 89 1f d9 bd
       -0.04467572 -0.048818488 0.0326981 -0.10601718
000140 aa 9c 09 bd 2d 4a 00 3d ac 63 7d 3d 2c 81 b7 bc
       -0.033596672 0.03132074 0.061862633 -0.022400461
000150 00 32 bd bb e1 25 dc 3d c5 60 81 3d 65 54 d9 3d
       -0.0057737827 0.10749412 0.063172854 0.106118
000160 ba 30 28 bc 83 19 f2 bd 3d bd ca bd d2 d0 d6 bd
       -0.010265524 -0.11821272 -0.098993756 -0.10489048
000170 40 3d 3d 3c 95 11 0c bd 41 77 15 bd e0 d0 d4 39
       0.011550248 -0.034196455 -0.036490683 0.00040591415
000180 74 8a 58 bd 94 47 6c 3d af ad eb 3c 3e be bd 3d
       -0.052866414 0.05768545 0.028769342 0.092648014
000190 67 96 ce 3d 78 69 b0 3d d9 8b 66 3d e5 12 89 bd
       0.10087281 0.086138666 0.056285713 -0.06693057
0001a0 d9 86 af bd 0d fb 6e 3d 71 c7 3f 3c 7d 0c e0 3d
       -0.08570642 0.05834489 0.011705265 0.10939882
0001b0 f6 7d fc bc 31 72 f6 3b 52 80 c3 3d d0 af 7e bb
       -0.030821782 0.007520937 0.095459595 -0.0038862117
0001c0 c0 c1 ee bd fa cb 9f 3d c9 9d 89 3d 39 aa 77 bc
       -0.11658049 0.07802577 0.06719548 -0.015116268
0001d0 0f c7 c0 bd c4 d5 a7 bd 90 7f e2 bd 9c 67 00 be
       -0.094129674 -0.081950694 -0.11059487 -0.12539524
0001e0 9d 12 bd 3d 12 ae dd bd fb ad ef bb b8 17 7a 3d
       0.09232066 -0.10824217 -0.0073144413 0.061057776
0001f0 07 b3 40 3d 91 c8 ff 3d f8 4b 07 3e 8d 9d 8e 3d
       0.047045734 0.12489427 0.13212574 0.06963644
000200 4b 4b 1f 3d dc c7 9a 3c ec 2e 7d bd 60 3d 52 3d
       0.038890164 0.018894129 -0.061812326 0.051328063
000210 89 7d d4 bc 77 6f 33 3d ac fb c3 3d e7 43 8b bd
       -0.025938766 0.043807473 0.09569487 -0.06800061
000220 49 f9 98 3d 80 67 af bd d6 3b 5c 3d 67 c7 e8 bd
       0.07469422 -0.08564663 0.053768 -0.11366158
000230 43 3b ee bc 8b 29 57 3c 53 77 29 bd c0 03 db 3b
       -0.029080993 0.013132463 -0.041373562 0.0066837966
000240 75 d0 3a bd 0a ae b9 3d d4 15 8d bd 05 a9 19 bd
       -0.045608956 0.090663984 -0.06888929 -0.037514705
000250 de d8 99 bb 4c 07 03 3d 20 e6 2e 3d 94 04 fa 3d
       -0.004695042 0.03198938 0.042699933 0.122079045
000260 1c 5b 67 bd ed 16 01 be 34 b3 70 bd 92 d1 c5 bc
       -0.056483373 -0.12606402 -0.05876465 -0.024147782
000270 df 85 eb 3d 92 d5 b7 3c 50 09 c8 3d b8 01 3f bd
       0.11500143 0.022440705 0.09767401 -0.0466325
000280 0a 6c 37 bd 67 25 06 3e ed 04 6b 3d fd a5 90 bc
       -0.04478077 0.13100205 0.057377744 -0.017657274
000290 24 e1 e9 bd 8a 80 f3 3d 43 2c 5e 3d 47 1e 7d bd
       -0.11419895 0.11889751 0.05424143 -0.061796453
0002a0 40 2f d1 3d 49 d6 0b be 51 cd b2 3c dd 6b 62 bb
       0.1021409 -0.13655962 0.021826418 -0.0034549155
0002b0 81 55 bc bc b2 92 a5 3d 71 e0 9a bc 73 de fd 3d
       -0.02298999 0.080846205 -0.01890585 0.123959444
0002c0 6f 14 24 3d e4 a0 29 3d c8 23 44 bb 70 51 a4 3b
       0.04005855 0.041413203 -0.0029928554 0.005014591
0002d0 ec b0 0c 3e 5a 7b be bc 07 fe c9 bd 8a 2b fa bd
       0.13739365 -0.023252178 -0.09862905 -0.12215336
0002e0 d9 97 ff bc 3a 06 6e bd e0 da 0d 3e 19 86 dd 3d
       -0.031200336 -0.058111407 0.13853025 0.10816593
0002f0 c8 72 c1 bd 5f c5 3b 3d 44 53 ca 3d 7c 12 b9 bd
       -0.09445721 0.045842525 0.09879163 -0.09036729
000300 31 24 0f 3d b9 3c fa bd b8 42 10 be c6 a5 8a 3d
       0.034946624 -0.12218613 -0.14087951 0.067699
000310 9e 4d b2 3d 4b a4 5b bd 31 6c 19 bd 8c b4 b4 bd
       0.087062106 -0.05362348 -0.037456695 -0.08823499
000320 8e 95 ad 3d a4 78 25 bd ec 47 2e bd 34 50 d0 bd
       0.08475791 -0.040398255 -0.04254906 -0.101715475
000330 64 2b a4 3d 3b c9 b2 3d 5b 24 7a 3c 69 33 dc bd
       0.080160886 0.08729788 0.015267457 -0.10751993
000340 f8 54 0d be 98 df e1 bd b9 19 f0 3d 3d 70 e6 3d
       -0.13801944 -0.11028975 0.11723656 0.112518765
000350 79 70 9f bd c1 f2 f2 3c b5 91 88 3d 2c a1 9b 3d
       -0.07785124 0.02965677 0.066684164 0.075991005
000360 b9 65 db bd 06 a4 85 3d 4e 30 47 3d 3e ca 03 be
       -0.107127614 0.065254256 0.04863005 -0.12870118
000370 68 73 cc 3a de 74 99 3d a7 c7 af 3b fb dd e1 bd
       0.0015598359 0.07492994 0.0053643766 -0.110286675
000380 b8 1b e7 bd 0f 20 c2 bc 9a b8 c5 bc a4 e6 cd bc
       -0.11284584 -0.023696927 -0.024135876 -0.025134392
000390 c1 61 ae bd 81 dc 31 bc 01 4b a0 3c 6c 76 ea bc
       -0.08514739 -0.010855795 0.019567015 -0.028620921
0003a0 5f 91 80 3d 12 07 01 3c 96 e6 09 bd b9 6f 8a bd
       0.06277727 0.007875221 -0.03366717 -0.06759591
0003b0 28 fc d4 bd 9b 16 7b bd 69 1d a4 3d df 79 61 3a
       -0.103996575 -0.061300855 0.08013422 0.0008601229
0003c0 75 01 11 3b 70 a8 80 bd c9 aa 1a be 17 5a 03 be
       0.0022126113 -0.06282127 -0.15104212 -0.12827335
0003d0 51 5e 2e bc ab 98 77 3d dd 93 c4 bd 7c c0 84 bd
       -0.010642604 0.06044833 -0.09598515 -0.06482026
0003e0 61 3e f0 3c ed 4e 78 bd 1d 4e a3 bd 77 bc 9c bd
       0.02932662 -0.060622144 -0.07973883 -0.07653134
0003f0 9a a9 80 3d 37 f7 48 bd 46 dd 13 bd 76 99 bc 3d
       0.06282349 -0.049063887 -0.036099695 0.09208958

bias f4 [32]
000000 57 52 8e bd ec df 12 be d9 07 5e 3d ce c0 f6 bd
       -0.06949299 -0.14343232 0.054206703 -0.12048493
000010 19 0f 7d be d0 f3 89 be bb 59 3f 3d 07 07 6a 3d
       -0.2471279 -0.26943827 0.046716433 0.057135608
000020 c6 10 6c bd 8a 16 28 bc 47 54 4b be 15 84 28 be
       -0.057633184 -0.01025928 -0.19856368 -0.16456635
000030 3e d0 56 be 61 37 c3 bd cc d2 c6 3c 56 4c 0d 3e
       -0.20977876 -0.09532047 0.024270438 0.13798651
000040 ac dc 0f bd bf 97 9f bc ab b4 de bd 4e cd 73 be
       -0.03512256 -0.019481538 -0.108743034 -0.23808786
000050 94 0c 77 bc e2 51 a4 3d b8 e1 ac bd 3f f5 49 3e
       -0.015078682 0.080234304 -0.0844149 0.1972246
000060 4e 72 90 3d 1d 91 d9 3d 9d a6 03 3d bf db 6a 3d
       0.07053052 0.10623381 0.032141317 0.057338472
000070 fc 30 65 3d bc 59 d4 bc 98 0a 06 3e e2 e7 48 3c
       0.05595492 -0.025921695 0.13089979 0.012262316

weight f4 [32, 32, 5, 5]
000000 8d 30 c7 3c c1 be e8 3b 8b ff 95 3c 3a d1 10 3d
       0.024315143 0.0071028178 0.018310329 0.035355784
000010 f7 81 63 3c e1 38 92 bc 54 ad 76 3c 32 1f 9e 3c
       0.0138859665 -0.017849388 0.015055973 0.019301984
000020 0c 29 c9 bc 60 5c 92 bc e7 2b 6f bc 25 7e 1e 3d
       -0.024555705 -0.017866313 -0.0145978695 0.03869452
000030 43 79 c5 3b f7 53 53 bc 7c 94 13 3d b0 60 ac 3c
       0.0060264184 -0.012898437 0.036030278 0.021042198
000040 30 ef 90 ba ad 7a 42 3c 64 f8 a0 3c 83 8f 92 bc
       -0.0011057612 0.0118700685 0.019649692 -0.017890697
000050 e2 48 01 3d c0 a9 a2 3c 8c cb 42 bc 25 bb 8d 3c
       0.031563647 0.019856334 -0.01188935 0.017301152
000060 d7 45 5d bc ef c2 02 3d 47 3c 2f ba a6 58 ce 3c
       -0.013505421 0.031924184 -0.0006684702 0.025188755
000070 5d ad 9b 3a f2 24 03 3c 52 18 ae bc 59 4d e5 3c
       0.0011877228 0.008004414 -0.021251831 0.027990984
000080 9f f7 09 bc cd 4d 15 3d dc 77 b4 3c d9 59 7f bb
       -0.008420854 0.03645115 0.02202981 -0.0038963465
000090 d3 87 2a 3d c4 7e ca 3b c5 c0 ea 3b f8 d6 b6 bc
       0.04163344 0.0061796624 0.007164093 -0.022319302
0000a0 c1 40 0c 3c 15 1f 14 3d 97 0e 54 bc 77 10 fc bc
       0.00856036 0.036162455 -0.012942932 -0.03076957
0000b0 2a 18 c9 bc 3e 7f 29 bc 40 98 b4 bc f7 e4 e6 3c
       -0.024547655 -0.010345278 -0.022045255 0.02818535
0000c0 2b 6c 3c 3d 39 ef 02 3d ff 74 3b 3c c0 42 fd 3b
       0.046001595 0.03196642 0.011441468 0.0077289045
0000d0 bd 24 bd bc 7c 1a 0f bc a2 7b 6f bc 96 5a ae 3a
       -0.023088807 -0.008734342 -0.014616879 0.0013302143
0000e0 c7 e1 f7 bb 9d a0 31 b9 f7 19 16 3d a1 fc bf 3b
       -0.0075647566 -0.00016939869 0.036645856 0.005858973
0000f0 aa 61 0e 3c 33 f5 dd 3c cb 74 5a 3c b1 6d d5 39
       0.008690277 0.02709446 0.01333351 0.00040708252
000100 33 59 f6 3a d4 36 94 3c 67 1b e4 3b 16 4a 42 bc
       0.0018794894 0.01809255 0.0069612744 -0.011858484
000110 5c b0 a9 3c d8 d4 9b 3c 84 13 09 3c 0f 83 e3 bc
       0.020713978 0.01902239 0.008366469 -0.027772455
000120 fd 42 8b 3c a6 e8 aa 3c 4c 73 92 3c ba e8 11 bd
       0.016999716 0.020862889 0.017877243 -0.035622336
000130 49 b4 69 3c cb 3d 84 3b 48 77 90 ba 3e 53 a3 3c
       0.014264175 0.0040356866 -0.0011021877 0.019937154
000140 8e 20 92 3c 58 fa 00 3d b3 80 0f bd 69 c3 07 bd
       0.017837789 0.031488746 -0.035034847 -0.033145342
000150 cd a2 da 3c 81 b1 a5 3c e9 bf f5 3b 0a 7b 94 3c
       0.026688958 0.020226242 0.007499684 0.018125076
000160 97 ed 9f bc b9 6a ee 3c 95 48 fd 3c b8 57 03 3d
       -0.019522471 0.029103624 0.030918399 0.032066077
000170 8c 00 1a 3d 2d e4 00 3d c5 9b 08 bd 30 a6 3a bc
       0.037598178 0.031467605 -0.03335168 -0.011392161
000180 ae 59 8c 3b 9a 9e a8 bc 51 6b 10 3d fb 17 5e 3b
       0.0042831516 -0.02058344 0.035258595 0.0033888805
000190 c9 f8 39 3c 75 87 16 3c 67 5b e4 bb ca 80 72 3c
       0.011350819 0.009187569 -0.006968904 0.0148012135
0001a0 74 c3 d1 3c 5a 71 03 3d ed 2d bf 3b c8 db ed bc
       0.025605895 0.032090522 0.005834332 -0.029035464
0001b0 6a 59 77 3c 21 7a a2 bc 60 b1 f6 3c 23 88 6d 3c
       0.015097002 -0.019833626 0.030113876 0.01449779
0001c0 ad cc 94 3b c8 a0 90 bc 95 ff c4 bc 86 fa cb bc
       0.004541001 -0.017654791 -0.024047652 -0.024899732
0001d0 8a 9e 6a bc 32 f1 0b bc 70 af c5 3c 39 8d 36 3c
       -0.014320025 -0.008541392 0.024131507 0.011142069
0001e0 9a af 0e 3d 4c f9 1d 3d a3 ff ed bb 75 a0 5c bc
       0.034835435 0.038567826 -0.0072631403 -0.01346599
0001f0 a0 a6 cf bc ee b6 6a bb 40 e1 05 3d ec b4 2d 3d
       -0.025348008 -0.00358146 0.03268552 0.04240887
000200 f8 ad 21 3d d6 ed 66 3c 45 b2 d1 3c 29 15 02 3d
       0.03947255 0.01409479 0.0255977 0.03175846
000210 a9 50 a4 bc 2f c0 13 bc da fd 61 bc d9 2b 63 3c
       -0.020057993 -0.009017988 -0.013793433 0.013865435
000220 3f 3c 1f 3d 42 97 8b 3c c7 f8 6c 3b 3a 84 70 3c
       0.038875815 0.017039899 0.0036159025 0.014679963
000230 10 e3 b2 3c 88 ea bc 3b 98 87 86 bc 8b 8c 2c 3a
       0.021836787 0.005765263 -0.016422078 0.0006582222
000240 20 d8 8f bc 83 6d 9a 3c d5 49 b4 bc 6e 92 f3 bb
       -0.017559111 0.018851047 -0.022007862 -0.0074332273
000250 5c 4d ab bb 69 22 1f bc 4e 79 17 bd d8 68 00 3c
       -0.005227728 -0.009712794 -0.03698092 0.007837497
000260 e7 27 2f 3c 71 fa 90 3c fc 4d 6b 3c e1 c7 de 3c
       0.010690666 0.017697545 0.014361855 0.027194919
000270 7e cd 86 ba 8f 24 3a 3d f2 b7 1e bc 9a 6c 14 3c
       -0.001028463 0.04544502 -0.009687411 0.009059096
000280 ba 98 b1 bc 64 06 0f 3d 67 1a cc 3c 7b d5 4d ba
       -0.021679271 0.034918204 0.024914933 -0.00078519405
000290 be 2d c1 ba f4 f6 df 3b b1 70 43 3d dd b8 a1 3c
       -0.0014738364 0.006834859 0.047714893 0.01974147
0002a0 26 b8 10 bb cd a0 16 bb b1 c3 e1 3c 36 9f 5a 3d
       -0.0022082417 -0.0022984028 0.027559133 0.05337449
0002b0 0a e1 2d 3d af 39 1f 3d 68 92 82 bc 67 0d 64 3c
       0.042450942 0.03887337 -0.015938953 0.013919211
0002c0 18 cf 3f 3d 8c 37 24 3c fe 87 5a bc ef a2 9e 3c
       0.04682836 0.010023009 -0.013338087 0.019364802
0002d0 61 e4 34 3d c1 13 13 bc 42 b5 53 3d 97 84 83 3c
       0.04416311 -0.008976878 0.051686533 0.016054435
0002e0 9b 34 38 3d 6c 50 00 3d 46 39 ce 3c 84 60 fc 3c
       0.044972043 0.031326696 0.025173794 0.030807741
0002f0 d5 53 2a 3b 8d 28 c8 3b 5f 4a da 3c f3 31 b3 3c
       0.002598991 0.0061083497 0.026646791 0.021874404
000300 2e 41 5b bc 51 e3 ec 3c ef 24 41 3c fd c1 91 3c
       -0.013382239 0.028916987 0.011788591 0.017792696
000310 48 34 00 3d 05 f5 86 3c 7b 13 f4 3c 4d 24 8d bc
       0.03129986 0.016474256 0.029794445 -0.017229224
000320 33 40 83 bb 9e ec 63 bc 3d 6e cc 3b d1 00 69 3c
       -0.004005456 -0.013911394 0.0062387274 0.014221386
000330 05 4a b3 3c 24 95 91 bc cd f3 ee 3c ee 63 1d 3d
       0.021885881 -0.017771311 0.029168988 0.03842538
000340 e4 ea 9c 3c 46 ad 16 bc 30 2f 40 bc e2 35 6f bc
       0.019154973 -0.009196585 -0.01173 -0.014600249
000350 f7 2b 14 3b 05 27 88 bb ec b2 04 bc bb 98 2a 3d
       0.0022609213 -0.004155042 -0.008099299 0.04164956
000360 cd 32 78 3d 8c 22 70 3d bf 62 76 3d 9e 77 66 3c
       0.060595322 0.058626696 0.060152765 0.014066605
000370 ae 51 43 3d a3 02 92 3c 8d 1f 27 3c 2d ec a8 bc
       0.047685318 0.017823523 0.010200393 -0.02062043
000380 62 73 dd bc ed 06 05 3d e7 97 d6 3c c2 d7 cc 3c
       -0.027032558 0.032477308 0.02619548 0.025005225
000390 0f 32 dd 3c 94 d3 e8 bc 18 b7 b0 3a 7a 11 dc 3c
       0.027001409 -0.0284212 0.00134823 0.026863802
0003a0 09 4b 17 3d 46 dd ad 3c 20 b2 59 3b 46 18 af 3c
       0.036936793 0.021223675 0.0033217743 0.02137388
0003b0 7d 74 8d 3c 61 38 40 3b 0b 78 98 bc 80 f6 b2 bb
       0.01726746 0.002933048 -0.018611928 -0.005461514
0003c0 d4 28 42 3d 29 7d 43 3d 18 e9 39 3d 41 ac 07 3d
       0.047402218 0.047726784 0.04538831 0.03312326
0003d0 50 81 dd 3c ba d0 d8 ba 8a 81 94 3c c8 26 10 3d
       0.0270392 -0.0016541698 0.018128175 0.035193235
0003e0 f1 a7 24 3c 56 52 7c bc c2 da 11 3c 61 b4 c4 3c
       0.010049806 -0.01540049 0.008902254 0.024011793
0003f0 d9 ac 2f bc 97 8b c8 bb 25 c8 d4 3c 2f 53 3d 3c
       -0.010722362 -0.006120156 0.025974343 0.011555477

bias f4 [32]
000000 ce 71 3d bd aa e3 d6 bc 5b 3c 80 bc 40 05 88 bd
       -0.04625111 -0.026231606 -0.01565378 -0.06641626
000010 f0 40 2a bd 0d fd 2e 3d ae bc c9 bd 73 5a 26 bd
       -0.041565835 0.042721797 -0.09850441 -0.040613603
000020 a8 ae 2c bd f1 5a 23 bd de 77 ae bd 7a 88 b4 bc
       -0.042158753 -0.03988165 -0.085189566 -0.022037733
000030 e2 93 16 bd 54 33 d1 bc 3c 52 cc bc 92 ec 8b 3c
       -0.036762126 -0.02553717 -0.024941556 0.017080579
000040 00 29 d6 38 8a 13 1d 3d a6 b1 05 3c 6e 3c d6 bc
       0.00010211952 0.038348712 0.0081600305 -0.026151862
000050 a6 c5 47 bc 1f 6a 92 bc eb ff 8e bb 16 fb 15 3d
       -0.012193119 -0.017872868 -0.004364004 0.036616407
000060 cc 7c 15 3d 84 03 30 bd 7e cf 35 bb 1c 68 47 bc
       0.03649597 -0.042972103 -0.0027742083 -0.012170818
000070 e3 50 61 bc 4e 36 ae b9 d5 1c 1e bc 0f 38 b6 3c
       -0.013752195 -0.00033228326 -0.009650429 0.022243528

weight f4 [64, 32, 5, 5]
000000 76 d4 a3 bc bb 7b 78 bc 83 7d 51 bc 03 e3 9b bc
       -0.01999877 -0.015166218 -0.012786272 -0.019029146
000010 3b aa a9 bc 1b 5a 0d 3d ca 73 ee 3a 32 b9 c6 3c
       -0.020711055 0.03450976 0.0018192467 0.02425823
000020 32 83 3b 3b ab 8e b1 3c 19 9e c6 bc c6 c7 75 bc
       0.0028612134 0.021674475 -0.024245309 -0.015001243
000030 66 85 47 bc 49 ae d2 3c e8 09 0c bd 14 b6 f6 bc
       -0.012177801 0.025717871 -0.034189135 -0.030116118
000040 e5 1e 02 bd 37 7a b4 bc c9 b9 82 bc 91 7e 8f 3b
       -0.031767745 -0.022030933 -0.01595773 0.0043791016
000050 7f 38 58 3c c4 80 76 3c 9b 16 5f bc 3b 8c fc 3c
       0.0131970635 0.015045349 -0.013616229 0.030828586
000060 d4 b6 81 3c 71 64 d4 bc 9a 17 1f 3a bb de 71 bc
       0.01583425 -0.0259268 0.00060688856 -0.014762576
000070 58 2b 17 bd 03 3f c0 bc 65 2c e4 3c 3b d3 e5 3b
       -0.03690657 -0.023467546 0.0278532 0.007013706
000080 5b dd 8e 3c 5f 53 91 bb 4f f3 c7 bc 6e 3b b7 3c
       0.017439535 -0.0044349874 -0.02440801 0.022367205
000090 4e 07 09 3b 47 a1 88 3c a2 9d 96 3b 8d 3f 72 bc
       0.0020908895 0.016678466 0.004596428 -0.0147856595
0000a0 ca a7 cc bc 0c db ea 3c 0e 10 96 bc 7b 5f 4b bc
       -0.024982352 0.028668903 -0.018318202 -0.012412901
0000b0 34 6e 97 ba d5 32 87 3b 48 ab 31 bc 17 ec 09 bd
       -0.0011553229 0.0041259327 -0.010844059 -0.03367242
0000c0 19 5e 6a 3c 23 36 f6 bc 59 42 e5 3b eb 9a d6 bc
       0.014304661 -0.030055111 0.0069964346 -0.026196918
0000d0 25 21 6d 3c 61 4f a8 bc 58 1a dc 3c 35 e1 e3 3b
       0.014473234 -0.020545663 0.02686803 0.006954337
0000e0 76 42 fb bc 63 c4 30 3c ff ba b5 3c a1 72 4b 3c
       -0.03067134 0.01078901 0.022183893 0.012417466
0000f0 7a 2a 14 38 7a ad 13 3d 91 9b e7 bc f6 15 8d 3c
       3.532551e-05 0.036054112 -0.028272422 0.017222386
000100 fb ae ff 3c 01 e3 df bc e6 4e 0c 3c 83 df d0 3b
       0.031211367 -0.027329924 0.008563733 0.006374301
000110 d8 75 00 bd fe 38 fb 3c ba db e4 3c 2d 90 fd bc
       -0.031362385 0.030666824 0.027936805 -0.030952537
000120 32 ca 20 3c 60 e5 b3 3c 73 fb a1 3c 92 cf ec bc
       0.009813832 0.02195996 0.01977322 -0.028907571
000130 28 a1 0d bd 3f 5f a7 bc f9 b8 0c 3d 0a 04 69 bb
       -0.03457752 -0.020431159 0.03435609 -0.0035555386
000140 a1 58 07 3c 96 ee 09 bd c0 2b cb 3b 7b 64 96 3c
       0.008260877 -0.0336748 0.0062002838 0.01835846
000150 c5 59 a9 3c 03 76 f5 bc 8a 3f 9c bc 8f 3a 14 3d
       0.020672688 -0.029963499 -0.019073267 0.03618866
000160 6d c0 b4 3b 44 ab c2 bc aa 7e 6d 3c ed 63 bd 3c
       0.005516103 -0.023763306 0.014495531 0.023118937
000170 87 3b bf 3c 2e 56 dc 3b e4 f2 68 3c a4 b8 33 bc
       0.023343815 0.0067241406 0.014218066 -0.010969315
000180 c8 55 5c bc ef ad bb 3c 20 67 02 bd 1b 0d ee 3c
       -0.013448186 0.022910086 -0.03183663 0.029058984
000190 66 6e 4d 3c 95 1e 25 3d f9 29 23 3d f8 7d 90 bc
       0.012538528 0.04031237 0.03983495 -0.017638192
0001a0 b7 40 0c bd b9 c1 1e bc 98 a8 70 3c dc a9 eb 3b
       -0.034241404 -0.009689742 0.014688633 0.0071918797
0001b0 34 c8 f1 3c 97 cf 06 bd 39 af f2 3b c5 77 ac 3b
       0.02951441 -0.032912817 0.007406142 0.005263301
0001c0 28 43 e1 3c 9a b2 df bc 51 e7 02 bd 1f fc 00 3d
       0.027497843 -0.027306844 -0.03195888 0.03149044
0001d0 b1 80 be 3c 6c 38 54 bc 31 49 09 3c 8b 2d 0c 3c
       0.023254724 -0.012952905 0.008379267 0.00855578
0001e0 5d b0 09 3c ac 57 25 3d 14 c3 ec 3c 74 cb 07 3d
       0.008403865 0.040366814 0.028901614 0.033153012
0001f0 d2 a5 fe 3c 3a aa 99 3c 47 5a ec 3c f7 fb bd 3b
       0.031084929 0.018757928 0.028851641 0.005797859
000200 0d 2c 87 3c 23 7f 0b bc fb 5e d6 bc a6 04 22 3d
       0.016500497 -0.0085141985 -0.026168337 0.039555214
000210 1e 88 d9 3c 86 83 5f bc c8 64 5f 3c 26 6a 7d bb
       0.026554164 -0.0136421975 0.013634868 -0.0038668006
000220 7b 2b b5 bc 60 99 a5 bb 5d f3 51 bb b5 83 5f 3c
       -0.02211546 -0.005053684 -0.0032035925 0.013642241
000230 9e ae dd ba 02 03 73 ba 36 09 53 bc d0 8d 8e bc
       -0.0016913002 -0.00092701626 -0.012880614 -0.017401606
000240 78 77 d4 bc a4 6f 09 3d fb b2 11 3d 36 e0 d6 bc
       -0.025935873 0.033553734 0.03557108 -0.026229959
000250 94 ad 00 3d 05 2e 04 bd 35 82 4d 3c 00 a4 d0 bc
       0.031415537 -0.03227045 0.012543251 -0.025468826
000260 f7 97 bc 3b bb ba 9b bb 1a 50 04 bd d5 d4 94 3c
       0.0057554203 -0.0047524846 -0.032302953 0.018167892
000270 f6 8a 30 3c d2 16 a0 bc 49 61 e4 bc 51 0c 8f 3c
       0.010775318 -0.019542132 -0.02787842 0.017461928
000280 18 f2 0a 3c fe f1 1b bd d9 da 85 bb 02 ab cc bc
       0.008480571 -0.03807258 -0.0040849266 -0.024983887
000290 00 22 4d bc 62 f7 91 3b 1d 31 81 bc 48 97 96 ba
       -0.012520313 0.004454539 -0.01577049 -0.0011489177
0002a0 61 b2 3c 3c 40 49 00 bd 3f 74 0e bd 64 14 13 bd
       0.011517138 -0.031319857 -0.03477883 -0.035908118
0002b0 4f 06 07 3d 74 07 ae bc ea ba ae 3c 1a 21 38 3c
       0.032965 -0.021243788 0.021329362 0.011238361
0002c0 1e ef e7 bc 65 cc 4b bc 01 53 b8 3a b9 c3 19 bd
       -0.028312262 -0.012438868 0.0014062823 -0.03754017
0002d0 d6 27 04 bd 3e e6 1a bd f0 11 0d bc 15 d0 87 bb
       -0.032264553 -0.037817232 -0.008610234 -0.0041446784
0002e0 c1 78 0a 3d e1 11 05 3d 75 c1 18 bd 74 bb a1 bc
       0.033806566 0.032487754 -0.03729387 -0.019742705
0002f0 9e 9e 16 3d 79 c8 af bc ac 98 b8 b9 2f 00 bc bc
       0.036772363 -0.021457897 -0.00035208964 -0.022949306
000300 ad 19 1b 3c 79 52 a5 3c 1d 60 05 3c 54 e5 c7 bb
       0.009466571 0.020180928 0.008140591 -0.006100336
000310 ef f4 94 3c e8 f9 c5 3b 91 98 75 ba da f7 c7 3c
       0.0181832 0.006041754 -0.00093687425 0.024410177
000320 83 92 77 bb 71 73 d1 bc 52 4b ff 3c 00 09 00 bc
       -0.0037776537 -0.025567742 0.031163845 -0.007814646
000330 4e ad 01 3c 53 44 9c bc 77 85 ec bc 45 19 94 bb
       0.007914854 -0.019075548 -0.028872235 -0.004519614
000340 47 7c cb 3c d7 79 ed bc d9 65 51 bb 2a 50 6e bc
       0.024839533 -0.028988762 -0.0031951575 -0.01454548
000350 9d 1c f8 3c c6 f5 b6 bc 31 37 8d 3c 04 95 19 3b
       0.030287081 -0.02233399 0.017238231 0.0023434767
000360 5d f1 cc bc 36 57 d5 3c 78 5b e8 3c c4 ef 9b bc
       -0.025017435 0.026042562 0.028363928 -0.019035228
000370 6e d6 37 bc 8d ad 9b 3c 85 e2 cf 3b 0f 63 81 3c
       -0.011220558 0.019003654 0.006344142 0.015794305
000380 36 16 8d bb f9 a5 aa bc 41 b8 f0 3b c4 8b 5d bc
       -0.0043056263 -0.020831095 0.0073461835 -0.013522092
000390 01 b1 d8 3c db fe fd bc cc 7b cd ba a4 d8 9c b9
       0.02645159 -0.031005314 -0.0015677153 -0.00029916049
0003a0 e3 78 11 3d 2f 9d 9a 3c d6 d8 09 3d 84 a5 82 bc
       0.035515677 0.01887378 0.033654056 -0.015948065
0003b0 ba e8 2d bc 95 e6 10 3d 89 f6 f8 bc 04 d2 b6 3b
       -0.010614568 0.03537615 -0.030390995 0.005579235
0003c0 5e 48 17 bd f9 c4 39 3c 55 95 ae bb 7e 57 51 bc
       -0.03693425 0.011338466 -0.0053278604 -0.012777207
0003d0 31 ec 10 bd b4 0c 8d 39 55 86 9f bb 38 87 00 3d
       -0.0353815 0.0002690308 -0.0048683085 0.031378955
0003e0 e0 4c cc 3b 85 f6 df ba e5 5e 2f 3c dc 4b e2 3b
       0.00623475 -0.0017087018 0.010703777 0.006906016
0003f0 34 ea 3c 3c c2 2a dd 3c a5 3f 32 bc 8f 48 97 bc
       0.011530448 0.026997928 -0.010879432 -0.018467216

bias f4 [64]
000000 47 da 9e bb 98 8b fb bc d6 61 2d bd 67 a5 fe 3c
       -0.004847798 -0.030706212 -0.04232963 0.03108473
000010 cf 3b 5e bd 93 2b 5c 3c ff 4f 8d bc 6d 61 c9 3b
       -0.054256257 0.013438123 -0.01725006 0.0061456473
000020 4f 12 d3 bc 8e 07 31 bd 60 2d 92 3c e7 3a e9 bc
       -0.025765566 -0.043220095 0.017843902 -0.02847047
000030 7f 86 2d bc 98 0c 7d bc 78 4a e4 bc 58 ae 9e 3c
       -0.010591148 -0.015444897 -0.02786754 0.019370243
000040 df 04 b0 bc 65 72 38 3c 73 a5 50 bd 62 2d 46 3d
       -0.021486698 0.0112577425 -0.050939035 0.048383124
000050 30 fc 2f bc fb f5 83 bc 63 6e 12 bd b0 8b aa bc
       -0.0107412785 -0.016108504 -0.035749804 -0.020818561
000060 d7 dc 7e bd 13 b7 1f bd 95 5f c0 bc 2b f3 1b bd
       -0.062222328 -0.038992953 -0.023483077 -0.0380737
000070 13 3c e4 3c f0 5a 67 bb 18 44 03 3d 1a 8e 86 bc
       0.027860677 -0.0035302006 0.03204736 -0.016425181
000080 b0 24 3e bb ef 67 08 bc 06 dd fc bc de 03 57 3d
       -0.0029013567 -0.008325561 -0.030867111 0.052493922
000090 ce 11 df bc 76 3d 13 3d 61 bf a8 bb c0 4d 45 3c
       -0.02723017 0.035947286 -0.0051497673 0.012042463
0000a0 65 e1 1e bd 8c a5 57 bd b5 ae 9a bc 84 10 c7 bb
       -0.03878917 -0.052648112 -0.018882135 -0.006074967
0000b0 14 81 6a bd c6 a2 28 3c 63 8e 8e 3c ad 7f 19 3d
       -0.057252005 0.010292714 0.01740188 0.037475277
0000c0 9a ed ec bc 59 b3 30 bd 62 82 fb bb e4 8b 94 bc
       -0.028921891 -0.04313979 -0.007675455 -0.018133111
0000d0 e1 39 5c 3c ab d9 7c 3c a6 60 17 bd 5f d2 7c bb
       0.013441534 0.015432755 -0.036957406 -0.003857754
0000e0 b5 93 0c 3c 55 80 04 3c 01 4b b3 3b 7f bb 0f 3d
       0.008580138 0.008087237 0.0054715876 0.03509092
0000f0 b8 e9 f0 3c e8 ea 88 3c 9e 52 7c 3c 1f de c1 3c
       0.02940832 0.016713575 0.015400557 0.023665486

weight f4 [64, 1024]
000000 7e a7 64 bc 8d e2 d3 3c e0 22 39 3c 8f bd d5 3c
       -0.013955949 0.025864864 0.011299819 0.026091365
000010 82 2d 95 3c 50 fb 81 3c 67 fc c6 3c ba 3e c8 bc
       0.018210176 0.015866905 0.024290277 -0.024443973
000020 d8 b1 68 3c 8b e8 06 bd 10 fd f2 bb 67 3d ec bc
       0.0142025575 -0.032936614 -0.0074154213 -0.028837873
000030 b9 b6 40 bc b7 0d bf bc 57 c4 b4 3c 02 b9 8d 3c
       -0.0117623145 -0.02332197 0.022066278 0.017300133
000040 5a 1f 12 3b a3 70 34 bc 52 9a 88 bc ce 69 25 3b
       0.002229652 -0.011013183 -0.016675148 0.0025240066
000050 af b8 ac 3c 0a b7 36 bc 99 fe c2 3c 2a e1 a6 3c
       0.021084158 -0.011152038 0.023803042 0.020371038
000060 9a b4 05 3d 0f 72 8c ba 6e e8 b9 3c d4 8e d1 3c
       0.03264294 -0.0010715144 0.022693839 0.025580801
000070 1f 39 00 3d 75 87 65 3b c9 87 34 3b 81 55 64 bc
       0.031304475 0.0035023366 0.0027546755 -0.013936401
000080 78 77 95 3c c9 b4 2f 3c d4 32 fd bb 2a e7 f3 37
       0.018245444 0.010724255 -0.0077270065 2.9075502e-05
000090 e5 43 f5 bb c9 b8 94 bc 71 4b a1 3c d6 32 99 bc
       -0.0074849003 -0.018154519 0.019689294 -0.018700998
0000a0 5a 9a 9e 3c 2a ec 83 3b 7b d0 a4 bc 01 99 a6 3c
       0.01936071 0.0040259557 -0.020118942 0.02033663
0000b0 06 b3 c3 3b a3 8d b1 bc af 21 64 bc cf a4 2a 3c
       0.005972269 -0.021673983 -0.013924046 0.01041527
0000c0 f2 5e 4a bc 7d d8 93 3c a3 bd dd 3c 43 33 66 3c
       -0.012351738 0.018047566 0.027067965 0.014050308
0000d0 88 7d de bc d9 88 9b bc 11 50 94 bc dc 18 62 3c
       -0.027159467 -0.018986152 -0.018104585 0.013799872
0000e0 32 b7 af 3c dc aa 1d 3d da 26 c7 3b 65 d5 19 bc
       0.021449659 0.038493022 0.0060776295 -0.009389256
0000f0 84 3d 1a 3d d8 42 f1 bc 64 fb a7 bc ec 24 ae bc
       0.037656322 -0.029450819 -0.020505615 -0.02125784
000100 ca f5 83 ba 41 69 24 bc 93 23 c4 bc f1 9f c4 3c
       -0.0010067758 -0.01003486 -0.023942744 0.024002047
000110 47 39 e0 3c 51 4b df bc 93 c4 ba ba 4c d8 fb bc
       0.027371062 -0.027257593 -0.0014249258 -0.030742787
000120 db a8 6a 3c 28 82 ef bc af 13 7f 3c 20 86 11 bc
       0.014322485 -0.029236868 0.015568658 -0.008882076
000130 cf 39 05 bd 04 f6 49 3c bd 9f 90 3c 27 1c 17 bc
       -0.032525834 0.012326721 0.017654294 -0.009223021
000140 02 25 a1 3c 7d b8 8f 3c b4 fc b9 3c d4 fc 53 3a
       0.019670967 0.017544026 0.022703506 0.00080866856
000150 2b 25 a6 bc ed 7a 96 3c 95 80 03 3d 9b d5 bc 3c
       -0.020281395 0.018369162 0.032105047 0.023051074
000160 21 21 03 bd e2 16 b6 3c 13 ca 58 bc 87 1f 80 ba
       -0.032014016 0.022227708 -0.013231772 -0.0009775021
000170 ac 5d 4b bc e2 c5 8e bc d1 22 8d bc 00 c5 23 bc
       -0.01241247 -0.017428342 -0.017228516 -0.009995699
000180 1d b4 d0 3b ab 2e ea 3c a7 8b 0b 3b 01 64 d3 bb
       0.0063691274 0.028586706 0.0021292956 -0.0064511304
000190 70 91 b2 bc 5c d3 c3 3c e6 51 d3 3c 01 2f b8 3b
       -0.021797866 0.023904495 0.025795888 0.0056208377
0001a0 bb c3 b8 bc eb e2 e8 bc 72 4a 69 3b 34 4a 31 bc
       -0.022554269 -0.028428515 0.0035597351 -0.010820914
0001b0 1c 67 8e bb f4 8f 8c 3c d6 7b 23 3b 64 05 d8 bc
       -0.0043457877 0.017158486 0.0024945638 -0.026369758
0001c0 0e e0 a0 3c ac 09 1c bd 91 c5 92 bc 5d f0 c5 3c
       0.019638088 -0.03809516 -0.017916473 0.024162466
0001d0 bb 7d 3f 3c 6e 9b 65 bc 7b d6 03 bd ff 56 f5 3c
       0.011687691 -0.014014108 -0.032186966 0.02994871
0001e0 1a 1e 51 3c c6 1b 90 3c 77 8d ca ba f3 46 6e 3c
       0.012763524 0.017591368 -0.0015453537 0.014543283
0001f0 96 dc 4b 3c b1 f6 c9 3c aa dc e5 3c c4 f4 cb 3c
       0.0124427285 0.024653764 0.028059322 0.024896987
000200 50 d2 b4 bc 05 65 e5 3c 7c 12 81 3b f6 e9 1c bc
       -0.022072941 0.028002271 0.003938971 -0.009577265
000210 08 c8 95 3a 8a 67 e9 3a 16 2a 9d 3c 50 3c ca 3c
       0.0011427412 0.0017807346 0.019185107 0.024686962
000220 bd c2 6d 3b 92 ea 71 bc b0 e0 47 bc 51 42 9e bc
       0.0036279403 -0.014765399 -0.012199566 -0.019318732
000230 d7 ae d7 bc f2 51 d8 ba de 4e 52 bc 20 60 8b 3a
       -0.026328487 -0.0016503914 -0.012836186 0.0010633506
000240 d6 3e a7 3c bb 08 3e bc a7 cb 09 bd 33 b3 b9 bb
       0.020415705 -0.011598761 -0.033641484 -0.005667114
000250 ef 5f 8e bc d5 63 69 3c d5 fc 83 bc ec 4a bb 3c
       -0.01737973 0.014244993 -0.01611177 0.022862874
000260 4b 32 97 bc 60 d7 27 3b 5c 7d 8b 3c 3c bc ec 3c
       -0.018456599 0.0025610551 0.01702755 0.02889835
000270 31 dd d8 3b 37 aa b1 3c 92 ae cc 3c c6 47 35 3c
       0.006618165 0.02168761 0.024985585 0.011064475
000280 ef d0 3d 3c 2b fa b8 3a 30 99 07 bd 8f 62 0f bd
       0.011585458 0.0014112642 -0.033105075 -0.035006102
000290 09 bc 0b 3c 70 22 18 bd 50 62 0d 3c 1d bc a1 3b
       0.008528718 -0.037142217 0.008629397 0.004935755
0002a0 40 6e d8 bc dc 23 7f 3b d6 bd a6 3c ec 82 d6 3b
       -0.026419759 0.0038931286 0.020354193 0.006546369
0002b0 e0 c3 f6 bb c6 20 9f 3b b8 3e 2d 3c 93 7d c3 bc
       -0.0075306743 0.004856202 0.010574035 -0.02386359
0002c0 63 96 4c bb bf 5f 22 bc 6d a2 35 bc a6 c5 cf 3a
       -0.0031217567 -0.009910523 -0.011086089 0.001585175
0002d0 55 e5 0b 3d d1 a7 ef 3c ee 0f d5 bc 2d 84 51 3c
       0.034154255 0.029254826 -0.026008572 0.012787861
0002e0 85 21 b3 bc ec 3a dd bb 6d f7 7c bc b0 b6 a3 3c
       -0.02186657 -0.006751409 -0.01543985 0.019984573
0002f0 83 31 9a bc 46 22 93 bc 0c 17 68 bb 74 56 be bc
       -0.018822437 -0.017960679 -0.0035414128 -0.023234583
000300 f6 d9 b9 bc 43 55 8d 3c 7f 13 a9 bc 71 0c 4d 3c
       -0.02268694 0.01725257 -0.02063918 0.012515173
000310 37 45 6d bc 06 ec 1c bd 0d e0 6c bc a8 ac 1a 3d
       -0.014481834 -0.038311027 -0.014457715 0.037762314
000320 4e 0a 06 3d 63 28 a2 3c 9c c5 9a bc 4e d4 f1 3c
       0.03272467 0.019794649 -0.018893056 0.02952018
000330 0b a3 89 bc 84 5e 8f 3c 50 e0 18 3d ea 27 85 bc
       -0.016801378 0.017501123 0.037323296 -0.016254384
000340 d9 12 df bb e8 81 8c 3c 87 65 16 3c 41 cf a1 3c
       -0.0068076667 0.017151788 0.009179479 0.019752147
000350 a9 3b 08 3b 30 cc 69 bc ee 8b e1 bc bb 45 f7 bb
       0.0020787513 -0.0142698735 -0.027532544 -0.0075461543
000360 f7 f8 ff 3c ee 6d be 3c 06 f4 68 bc c4 11 07 3c
       0.031246645 0.023245778 -0.014218336 0.008243982
000370 50 b4 49 bc ad ba 3b b9 d4 fb d6 bc 53 65 05 bd
       -0.012311056 -0.00017903252 -0.026243128 -0.032567333
000380 02 a3 36 3c 24 73 63 bc 21 71 24 3c 81 dd 91 bc
       0.0111472625 -0.013882432 0.010036738 -0.017805817
000390 7e 9e ca bc 47 96 eb ba 14 80 24 bd e7 f7 95 3c
       -0.024733778 -0.0017973863 -0.040161207 0.018306686
0003a0 eb 74 0f 3d 6d 17 bc 3c c7 b1 00 bb 92 0d d8 bc
       0.03502361 0.022960389 -0.0019637214 -0.026373658
0003b0 c0 46 2b ba 94 20 5a bc c8 2d 9d 3c fd df 06 bc
       -0.0006533675 -0.013313431 0.01918687 -0.008232114
0003c0 18 9b a3 3c e1 d1 08 3c b3 bd 7e bb 06 3a be bb
       0.019971415 0.00835082 -0.0038870394 -0.005805257
0003d0 34 1a 93 3c f2 53 32 3c e6 9d ae ba 97 7d 00 3c
       0.01795683 0.010884272 -0.0013322204 0.007842443
0003e0 cd b6 e9 bb 9a c8 c6 bb 44 e9 42 3c c8 91 f1 3c
       -0.0071323873 -0.006066394 0.011896435 0.02948846
0003f0 ca 81 0c 3a 60 52 1d 3c be 7b e6 bc 78 3a b0 3c
       0.0005359916 0.009602159 -0.028135177 0.021512255

bias f4 [64]
000000 20 3d 61 bc 89 a9 6b 3c 9b 08 6a bc 71 ba 10 bc
       -0.0137474835 0.014383682 -0.014284278 -0.008833514
000010 75 ca db bb 25 c9 f9 bb 96 19 4b ba 88 96 ee bc
       -0.0067074844 -0.0076228552 -0.0007747648 -0.029124513
000020 84 8b d9 3b d2 d4 b6 bc 29 14 15 3d 2d ea 1c 3d
       0.006638946 -0.022318278 0.03639618 0.038309265
000030 26 58 18 3d 34 b9 bb bb d7 34 bc bb 8d 54 dc bc
       0.03719344 -0.005728865 -0.0057436037 -0.026895786
000040 4a 0d 9e bc 01 31 21 bc 9a 9e 07 bd 7a d1 04 bc
       -0.019293446 -0.009838344 -0.03311024 -0.008106584
000050 b8 a5 c4 bc 30 11 01 bd 4f 90 85 3c 0e f5 b6 3c
       -0.024004802 -0.031510532 0.016304163 0.022333648
000060 ca 1d 07 bd 43 12 85 bb c6 6c dd bc b3 9f 4b bb
       -0.032987393 -0.004061015 -0.027029406 -0.003107053
000070 71 6d d0 bc 1a c8 04 3d a6 ec be bc 0d 9f 16 bc
       -0.02544281 0.032417394 -0.023306202 -0.009193194
000080 4d 80 db bc 9b c9 9c 3c 4a a3 1e bc 58 d0 f6 3b
       -0.026794577 0.019139102 -0.009682486 0.0075321607
000090 bd f4 0a 3d 19 da 8c bc ba db ff 3c 52 0d 24 3d
       0.033924807 -0.01719384 0.031232703 0.040051766
0000a0 fe 46 d3 3b 99 c4 05 3d d3 2b ad 3c f0 1a 2d 3c
       0.006447672 0.032658193 0.021139061 0.010565504
0000b0 3d 9d ba 3c fc bd 25 bd 9a 57 e3 bb 59 d8 19 3d
       0.022780055 -0.040464386 -0.006937933 0.03755984
0000c0 95 f3 c0 3c ac ad 2e bd 10 a6 a2 b7 44 9d 0f bd
       0.023553649 -0.042646095 -1.9389234e-05 -0.03506209
0000d0 7e 07 23 bd 9c ec 9e bc 8b b5 e0 3c 0d ad ac 3c
       -0.039802067 -0.019399934 0.027430316 0.02107861
0000e0 10 33 b4 3a d7 ff 20 3b e1 21 c0 bc 45 23 17 bd
       0.0013748128 0.0024566555 -0.023453655 -0.03689887
0000f0 6a 27 00 bd 3b a7 e2 bc 4b 7a b9 bb 4a 97 af 3a
       -0.03128759 -0.027667632 -0.0056603304 0.0013396528

weight f4 [10, 64]
000000 b4 36 ca bc 9d 46 08 be 9b 42 0f 3d e0 30 87 bd
       -0.024684288 -0.13308187 0.03497563 -0.06601119
000010 3e 8f 5c 3d 94 0c 70 3d 4f 22 f1 bd 03 cc a5 3b
       0.053847544 0.058605745 -0.11774122 0.0050597205
000020 d1 e6 0e be 79 ed ce bd fe ab d3 bd c2 be 4a bc
       -0.13955237 -0.10103888 -0.10335539 -0.012374582
000030 dc d5 95 bd ba 9d 93 ba a0 22 b4 bc 26 2e f6 bb
       -0.07316181 -0.0011262216 -0.021989167 -0.0075128255
000040 c7 49 ed 3d b6 56 99 3c 58 8f 14 3e 57 1b 1d bc
       0.115863375 0.018718105 0.14507806 -0.009589038
000050 c3 55 d3 3d 58 fe 6d 3d 0a e3 e6 3d 1e e9 b8 bd
       0.10319092 0.05810389 0.11273773 -0.090288386
000060 8a 47 51 bc 5e 19 a8 3d fa e5 c7 3d dc 21 34 be
       -0.012773404 0.082079634 0.097606614 -0.17591041
000070 da 9d 0d 3e 45 93 c0 bd 8b 41 3d be 52 37 04 bd
       0.13829747 -0.094030894 -0.18482034 -0.03227932
000080 66 38 1c 3e 1d 63 fc bd f6 b2 35 bd ec 7a 82 bd
       0.1525589 -0.12323592 -0.044360124 -0.06371102
000090 25 ea 3c bc 90 3e ff bd 9b 80 34 bd 40 c5 8a 3d
       -0.011530434 -0.12463105 -0.04406796 0.06775904
0000a0 33 b5 d1 bd c1 af 21 be 79 37 14 be ae f2 83 bd
       -0.10239639 -0.15789701 -0.14474286 -0.06442772
0000b0 1a 3c 51 3d 22 fb a0 3d cc 55 2c 3c da ca 15 be
       0.051082708 0.078604 0.010518502 -0.14628163
0000c0 a6 88 bf 3b f8 43 fe 3d 94 ee be 3d 3b 0a 33 3e
       0.005845147 0.12415308 0.09322849 0.17484371
0000d0 db 8d 3c 3d 44 ad 31 3e bc 54 3a 3d 0f c0 95 bd
       0.04603372 0.17351252 0.045490965 -0.07312023
0000e0 94 5f b5 3d 89 06 0a 3e fb fb 2a bd b7 7b d3 3d
       0.08856121 0.13479055 -0.041744214 0.10326331
0000f0 ea 2e 79 3d 13 70 26 3e af cd 75 bc fe db 35 be
       0.060835756 0.1625369 -0.015002652 -0.17759702
000100 aa ce ec b8 a4 85 1f 3e e0 45 61 be 03 62 19 3b
       -0.00011291851 0.15578324 -0.21999311 0.0023404367
000110 c9 ab 38 be 8b 27 2e be 19 58 2f be 24 c2 a7 bd
       -0.18034281 -0.17007272 -0.1712345 -0.08191326
000120 13 86 2a be a8 aa 03 be 0a 1e 93 bd dd dc d8 3c
       -0.16652708 -0.12858069 -0.07183464 0.026472503
000130 eb ed f5 3d 1a 1c 07 bd 53 18 ba 3d d5 7b 18 be
       0.1200827 -0.032985784 0.09086671 -0.14890988
000140 e7 f9 0f 3e 72 91 ba 3c d7 55 d6 bd ac 23 52 3e
       0.14060174 0.022774432 -0.104655914 0.2052142
000150 53 97 a8 bb 07 6b e1 3d d8 23 50 3e fb 1e 16 3e
       -0.0051449924 0.11006742 0.20326173 0.14660256
000160 ac 1b c2 3d 0f cc c4 bd 8e 08 14 3e 9b c2 b5 bd
       0.09477934 -0.096092336 0.14456388 -0.08875009
000170 de b9 b7 bd e1 9c 4d be 8c b2 14 be 5c c1 32 3e
       -0.08970998 -0.20079376 -0.14521235 0.17456573
000180 b3 b5 eb bd d1 f1 31 be a5 25 73 3e 12 ca d6 bc
       -0.11509266 -0.17377402 0.23744829 -0.026219402
000190 9a e1 20 bd 78 bb 98 bd 98 1e a2 bb 40 32 12 3e
       -0.03927765 -0.07457632 -0.0049474947 0.14276981
0001a0 d0 74 84 3c f4 ca cb bd 70 b6 d2 bc 4b 72 b1 3c
       0.016168982 -0.099508196 -0.025721759 0.021660944
0001b0 58 20 26 bc 21 73 a9 bd 27 fe 57 be ab 79 dc 3d
       -0.010139547 -0.08273912 -0.21093045 0.10765394
0001c0 e0 f4 ee bd 92 4e 97 3d f0 25 23 be 12 63 8c bc
       -0.116678 0.07388033 -0.15932441 -0.017137084
0001d0 f8 7b 1b be 5b 5c 0a bc 83 87 0e 3d 32 08 6c 3d
       -0.15184009 -0.008444871 0.034797203 0.057625003
0001e0 5a 97 c4 bd a1 19 0c be 30 ec 2a 3e 38 ab 44 bb
       -0.095991805 -0.13681652 0.16691661 -0.003000928
0001f0 55 36 24 be 8a dc 18 3d 03 ad 8a 3d 3d bd 43 be
       -0.16036351 0.037319697 0.067712806 -0.19115157
000200 d1 b3 9b bd e6 c6 92 bd 79 ac 53 3e c2 69 ec bc
       -0.07602657 -0.07166843 0.20671262 -0.028859023
000210 22 96 04 3e 8c 85 3a 3e 6f 23 00 3d 50 9f 59 3d
       0.12947896 0.18215007 0.031283792 0.053130448
000220 26 b6 28 3e b5 22 19 3e 61 ec c5 bd 4e 3b 05 be
       0.16475734 0.14954646 -0.09664226 -0.13010904
000230 95 ee 10 3b 12 d4 1b 3d d7 91 02 3e 8e 28 99 bc
       0.0022114862 0.038044043 0.12750946 -0.018696096
000240 74 38 c0 bd b3 ea fe 3d bf 2a e2 3d 82 ff fc bd
       -0.093857676 0.12447109 0.110433094 -0.12353422
000250 b1 25 12 3e 5c 4a a5 bd 98 d8 18 3d 41 79 15 3d
       0.1427219 -0.080708236 0.037315935 0.03649259
000260 f3 b4 dc bd c1 4d 09 3e 65 77 1a be e6 7f 10 3d
       -0.10776701 0.13408567 -0.15084608 0.035278223
000270 3d 29 bd 3d b6 5e d2 bd 5d f0 61 3c 07 53 b5 bd
       0.09236381 -0.10271971 0.013790217 -0.08853727
000280 b9 ca 22 be 12 ad 63 bd 13 86 18 3b 7c 62 c7 bd
       -0.15897645 -0.055584975 0.0023273274 -0.09735581
000290 2d 99 dc 3d 85 9b d6 3d 64 23 94 bd 0c 68 62 3d
       0.107714035 0.10478882 -0.07233313 0.055275008
0002a0 3e 36 00 3e 47 2e 1c 3e f7 10 c7 3b a8 14 5c bd
       0.12520692 0.15252028 0.0060750204 -0.053730637
0002b0 23 ee 2f 3c 78 3c 98 bd 3c de 00 3e 83 49 fb 3d
       0.010737929 -0.074334085 0.12584776 0.122698806
0002c0 ab f8 c8 bc 5f 61 07 bd 92 17 af bd f4 74 5d 3d
       -0.024532637 -0.033051845 -0.085494176 0.054066613
0002d0 8b 1a f5 3d 8d 50 12 3e a5 fe 03 be 0b ba 8b bd
       0.11967953 0.1428854 -0.12890108 -0.06822594
0002e0 db dd 1d bc 88 cb a5 bd e5 3c 04 bd 66 b5 06 be
       -0.009635414 -0.08095461 -0.032284636 -0.13155136
0002f0 67 46 3c 3d 0c 64 28 3e 41 6b 0e 3e fc 96 4d 3d
       0.04596558 0.16444415 0.13908102 0.050192818
000300 3d 1e 9e bc 31 6b be bc 55 c1 0b 3e 08 69 26 bd
       -0.019301528 -0.023244472 0.13647969 -0.04062751
000310 e9 a7 5d bd b7 92 cf bc 79 28 1d 3e 80 73 c4 bc
       -0.05411521 -0.025338514 0.1534747 -0.023980856
000320 48 eb d1 3d 7b 74 1b 3d 51 2a 01 be af 26 83 bd
       0.102499545 0.03795288 -0.12613799 -0.06403863
000330 bc 26 70 bd 0b 40 b3 3d 02 67 1a be f7 87 76 3d
       -0.05863069 0.087524496 -0.15078357 0.06018826
000340 54 a7 2f b9 1a ab 40 3c 26 ea b6 bd af 1a af bd
       -0.00016751635 0.011759544 -0.08931379 -0.08550011
000350 6c f0 53 ba 97 d8 51 bd 5b 9b 05 be 59 23 b2 bd
       -0.0008084837 -0.051231947 -0.13047545 -0.08698148
000360 d7 b3 e4 bc c6 28 4b 3a 51 d4 ca 3d 27 31 88 bd
       -0.027917786 0.0007749911 0.099037774 -0.0665
000370 10 82 7e 3d 2e 54 0b 3e d5 a4 ec 3d c7 51 6f bd
       0.062135756 0.13606331 0.11554877 -0.0584276
000380 6a 7f fa bd da 76 d1 ba 5e b3 6a bc 7b 42 e9 bd
       -0.122313336 -0.0015980855 -0.014324991 -0.11389633
000390 cd b8 f8 3c b1 aa 52 bd 6c c8 16 be 00 61 38 be
       0.030361557 -0.051432315 -0.14724892 -0.18005753
0003a0 4b b7 ca bd 71 3c 63 3c b8 e3 24 3e 25 da 2d 3e
       -0.098982416 0.013869391 0.16102493 0.16977747
0003b0 80 d0 47 bd 21 c4 b7 3d 65 75 d2 3b 24 26 da 3d
       -0.048782825 0.089729555 0.006422686 0.10651806
0003c0 c4 5b 44 3d 10 9f 39 bd 25 b2 70 3d 6d 4b de bd
       0.047939077 -0.04531771 0.058763642 -0.1085423
0003d0 5c 8a 42 bd e0 97 c4 3d 2d 7e 28 3d da 5a 00 3e
       -0.04749523 0.0959928 0.041135956 0.12534657
0003e0 fe c2 26 be b7 5f ae 3d 03 31 0e 3c b4 b0 94 3d
       -0.16285321 0.0851435 0.0086786775 0.07260266
0003f0 66 28 83 3d 2d 7f 4f bd cc 70 3d 3d f3 18 f5 3d
       0.0640419 -0.050658394 0.04625015 0.11967649

bias f4 [10]
000000 a7 c9 b3 bd 0e a6 2d bc 0c 2a ac bd 0b 82 6f 3d
       -0.087786965 -0.010598673 -0.08406457 0.058473628
000010 18 e1 f6 bc 88 66 e4 bc 45 95 03 3e d2 37 87 bd
       -0.03013663 -0.027880922 0.1284991 -0.06602444
000020 8e 9b 3c bd db 43 a2 bd
       -0.046046786 -0.07923099
