models/xue_epoch_7.pth (torch, 592503 bytes, 22 tensors)

module.0.weight f4 [32, 3, 5, 5]
-0.03552742 -0.098068126 -0.027550949 0.032673083 0.027310414 -0.20893021 -0.1677836 -0.18755914
-0.21159239 -0.12118002 -0.28929392 -0.22475928 -0.18144631 -0.18944292 -0.25061545 -0.12212562
-0.26798728 -0.22238512 -0.17806785 -0.094645776 -0.2078661 -0.16803811 -0.27119905 -0.27376541
-0.11835402 0.049566977 0.042793594 -0.0071585034 -0.07457072 -0.08243398 0.027979935 0.0379911
0.058050897 0.037763283 0.12742232 0.0020037284 -0.00080455653 -0.0005111235 0.12475509 0.020355945
-0.060465768 0.18956067 0.14249514 0.024150131 0.01837254 0.11931471 0.094343565 -0.13231488
0.026023272 0.0072973324 0.013086727 0.05093674 0.100916915 0.14189316 0.027217925 0.12183197
0.1616477 0.21669781 0.12361594 0.18817759 0.23062043 0.18840232 0.11626335 0.121634856
0.14843448 0.22025424 0.2574845 0.12807824 0.18143928 0.029257517 0.16681646 0.14123206
0.018949699 0.041993912 -0.023752036 0.054154348 -0.013219009 0.16793787 0.11622018 0.1081995
0.13822755 0.14869098 0.24778245 0.23692968 0.17205189 0.05473365 0.06645069 0.0368813
0.05200694 -0.06733225 0.016096018 0.010952518 0.061933063 0.02430295 0.10941683 0.043023895
0.032304265 -0.03610881 0.039245825 -0.0059104296 0.062962055 -0.044563804 0.0043897606 -0.056135405
0.037764102 -0.0071716625 0.038472537 -0.07718504 0.11877189 0.040124867 -0.055352606 -0.13755132
-0.110895105 -0.1360029 -0.010916618 -0.07930173 -0.06142389 -0.026645772 -0.14288998 -0.10054492
0.046328653 -0.07811387 0.010967399 0.045800924 -0.07071915 -0.04239775 0.085015565 -0.026875423
0.1791685 0.15378493 0.034290135 0.022364696 -0.037066467 0.055806432 0.06329802 -0.03125285
-0.1159723 -0.02176761 -0.13421741 -0.105475836 -0.06453145 -0.087688126 -0.19103509 -0.103380784
-0.04073306 -0.10380736 -0.08535053 -0.13551696 0.010262197 0.0032804755 0.0623239 -0.013524988
-0.054949917 0.020853007 0.07559636 -0.13004665 -0.10566964 -0.09074281 0.21076235 0.13427722
-0.11718726 -0.07321836 0.124129966 0.27709562 0.13870564 0.014236887 -0.028832458 0.1457205
-0.077235326 -0.0073521105 -0.1544053 0.06365332 0.054730058 -0.03948483 -0.1890435 0.0746803
0.043724444 -0.15841411 0.0008716241 0.018332988 -0.017482145 -0.12654038 -0.06140609 0.03341429
0.061314926 0.048409183 -0.01382109 0.07361101 0.18508118 0.052088637 0.08635016 -0.02175436
0.057601046 0.12808307 -0.07236232 0.059272863 0.17616779 0.009802098 -0.022958804 -0.15176542
-0.14761204 0.033218108 -0.029710457 -0.04033225 0.008585482 -0.111077495 -0.06011585 -0.009505439
0.13164544 0.19156638 -0.113757364 0.07242308 -0.04595291 0.2178563 0.01909105 -0.034812912
-0.042031746 0.11950119 -0.028757034 -0.03170996 0.054805968 -0.042864393 0.09443517 -0.042806506
-0.07663836 0.014527275 -0.0073937206 -0.01968836 0.09955689 -0.014855514 0.0422805 -0.25247726
-0.077865206 0.15978956 0.20516744 -0.09206806 -0.22204682 -0.04225583 0.07174331 0.12740642
-0.036135703 -0.15397623 -0.07664569 0.1458918 0.20101671 -0.092849396 0.040772837 -0.082042255
-0.08552772 0.14141722 -0.07777152 -0.016520398 0.02769847 0.14856282 0.23867822 -0.07158651
00000000: 3385 11bd f1d7 c8bd 87b2 e1bc 36d4 053d
00000010: 17ba df3c cdf1 55be 77cf 2bbe 810f 40be
00000020: adab 58be 3b2d f8bd 551e 94be 4c27 66be
00000030: 10cd 39be 53fd 41be ab50 80be ff1c fabd
00000040: a135 89be edb8 63be 6b57 36be a5d5 c1bd
00000050: dada 54be 2f12 2cbe 9ada 8abe fb2a 8cbe
00000060: 9863 f2bd be06 4b3d 5648 2f3d e191 eabb
00000070: 89b8 98bd 26d3 a8bd 2d36 e53c 8e9c 1b3d
00000080: c7c6 6d3d acad 1a3d ff7a 023e fc50 033b
00000090: e0e8 52ba ebfc 05ba 997f ff3d 83c1 a63c
000000a0: f4aa 77bd 311c 423e 3fea 113e 7fd6 c53c
000000b0: 0282 963c 455b f43d 3337 c13d 8d7d 07be
000000c0: c22e d53c 761e ef3b b669 563c 0ba3 503d
000000d0: 87ad ce3d 714c 113e 20f8 de3c 0a83 f93d
000000e0: fa86 253e 08e6 5d3e 5b2a fd3d a0b1 403e
000000f0: c327 6c3e 8aec 403e 7b1b ee3d b21b f93d
00000100: 35ff 173e 548a 613e 02d5 833e f126 033e
00000110: 38cb 393e 76ad ef3c efd1 2a3e 239f 103e
00000120: 663c 9b3c cf01 2c3d a193 c2bc f3d0 5d3d
00000130: 8b94 58bc e8f7 2b3e d904 ee3d b397 dd3d
00000140: 868b 0d3e 7342 183e afba 7d3e b29d 723e
00000150: 5f2e 303e 6430 603d 4d17 883d d910 173d
00000160: 3b05 553d 7ee5 89bd ccdb 833c 3172 333c
00000170: 86ad 7d3d fb16 c73c ee15 e03d d339 303d
00000180: 7a51 043d d5e6 13bd 3bc0 203d 47ac c1bb
00000190: 40f2 803d 8988 36bd fbd7 8f3b 3dee 65bd
000001a0: 88ae 1a3d 4400 ebbb 6195 1d3d 3113 9ebd
000001b0: ad3e f33d f959 243d 6ab9 62bd 41da 0cbe
000001c0: f91c e3bd 5844 0bbe 9ddb 32bc f268 a2bd
000001d0: 9e97 7bbd 3c48 dabc c051 12be 7fea cdbd
000001e0: 1dc3 3d3d 2afa 9fbd 9bb0 333c c099 3b3d
000001f0: 34d5 90bd 43a9 2dbd a41c ae3d d929 dcbc
00000200: f277 373e cc79 1d3e d073 0c3d 2b36 b73c
00000210: 02d3 17bd 4995 643d 64a2 813d fd02 00bd
00000220: e382 edbd fd51 b2bc 4a70 09be b703 d8bd
00000230: 1129 84bd d595 b3bd b49e 43be 4eb9 d3bd
00000240: b6d7 26bd f498 d4bd 42cc aebd f5c4 0abe
00000250: c622 283c 3ffd 563b 5947 7f3d e997 5dbc
00000260: 2a13 61bd edd3 aa3c 44d2 9a3d f32a 05be
00000270: 5369 d8bd 5ed7 b9bd 16d2 573e f87f 093e
00000280: e0ff efbd 82f3 95bd da37 fe3d 7adf 8d3e
00000290: da08 0e3e d541 693c 0c32 ecbc c137 153e
000002a0: 8e2d 9ebd f9e9 f0bb 6c1c 1ebe ac5c 823d
000002b0: a02c 603d d8ba 21bd 9f94 41be fcf1 983d
000002c0: 6718 333d 4f37 22be b47d 643a 102f 963c
000002d0: b736 8fbc cd93 01be f484 7bbd 6cdd 083d
000002e0: 5c25 7b3d b548 463d da71 62bc 5fc1 963d
000002f0: ec85 3d3e e55a 553d 5ad8 b03d 3336 b2bc
00000300: 13ef 6b3d 3528 033e b232 94bd 1ac8 723d
00000310: 5465 343e fb98 203c 1a14 bcbc 6568 1bbe
00000320: 9c27 17be b60f 083d 5863 f3bc 6e33 25bd
00000330: 1faa 0c3c 997c e3bd 0a3c 76bd b3bc 1bbc
00000340: 10ce 063e fa29 443e 9ff9 e8bd 8d52 943d
00000350: 1e39 3cbd b915 5f3e d564 9c3c fc97 0ebd
00000360: 7b29 2cbd 0abd f43d df93 ebbc 4ee2 01bd
00000370: 397c 603d 9392 2fbd 3a67 c13d e055 2fbd
00000380: 93f4 9cbd cf03 6e3c 0647 f2bb 7c49 a1bc
00000390: 7ce4 cb3d 8b64 73bc 512e 2d3d b344 81be
000003a0: cb77 9fbd e09f 233e 6a17 523e 2e8e bcbd
000003b0: 3e60 63be 7314 2dbd 28ee 923d d476 023e
000003c0: 0803 14bd f2ab 1dbe 6af8 9cbd a964 153e
000003d0: 53d7 4d3e d327 bebd 6b01 273d c505 a8bd
000003e0: 2829 afbd adcf 103e ad46 9fbd c955 87bc
000003f0: e7e7 e23c da20 183e 1068 743e f39b 92bd

module.0.bias f4 [32]
0.071066484 -0.091957875 0.05748882 0.10722946 0.06298534 0.034762185 -0.064876616 0.026616987
0.08048587 0.063159734 0.063397855 -0.077011004 0.02312349 0.10011477 0.047803514 -0.07202881
-0.10322811 -0.06306273 -0.029323375 0.075416945 0.027561652 -0.042572923 0.10687932 -0.07117975
-0.092682645 0.050604098 0.07606264 0.037814315 0.00035619133 -0.06393779 0.05401876 0.056162324
00000000: 4e8b 913d 6954 bcbd 6679 6b3d 1e9b db3d
00000010: 75fe 803d cb62 0e3d 08de 84bd de0b da3c
00000020: c7d5 a43d e459 813d bcd6 813d f2b7 9dbd
00000030: 796d bd3c f908 cd3d 9ecd 433d d783 93bd
00000040: 4269 d3bd 0827 81bd 9337 f0bc 3374 9a3d
00000050: f9c8 e13c f260 2ebd 8ce3 da3d b0c6 91bd
00000060: 66d0 bdbd 3e46 4f3d bbc6 9b3d 2fe3 1a3d
00000070: 31bf ba39 d1f1 82bd c642 5d3d 770a 663d

module.1.weight f4 [32]
0.7850676 0.8325745 0.79564977 1.1683532 0.9636628 1.0145895 0.74676347 0.9898879
1.2848759 0.81001306 0.8388284 0.9416513 0.8730086 0.9982195 0.9555058 1.0022435
0.79308146 1.0262575 0.83322275 1.5298475 0.8609477 1.1025141 0.74874324 1.1216354
1.3227096 0.93273425 0.78323007 0.9971054 1.1248671 1.0104187 1.1283296 1.1907743
00000000: 31fa 483f 9a23 553f b4af 4b3f 998c 953f
00000010: 9bb2 763f 12de 813f e42b 3f3f 4b69 7d3f
00000020: d076 a43f 045d 4f3f 75bd 563f 0f10 713f
00000030: 7e7d 5f3f 508b 7f3f 079c 743f 8449 803f
00000040: 6307 4b3f 685c 833f 164e 553f 0bd2 c33f
00000050: 1267 5c3f 2f1f 8d3f a3ad 3f3f c091 8f3f
00000060: 8c4e a93f acc7 6e3f c481 483f 4d42 7f3f
00000070: a5fb 8f3f 6655 813f 1b6d 903f 4b6b 983f

module.1.bias f4 [32]
0.13764988 -0.19559523 -0.15379998 -0.07834242 -0.17183189 -0.17774543 0.05606862 -0.09828933
-0.3450462 -0.13964449 -0.0441121 -0.15732342 0.03888929 0.02845512 -0.27516657 -0.06472847
-0.068450205 0.0035232282 -0.19199444 -0.28889805 -0.1808793 -0.07393834 -0.28200024 -0.11048308
0.010134985 -0.30091906 -0.22025976 -0.059495147 -0.09917156 -0.109545425 -0.11398349 -0.055072736
00000000: 17f4 0c3e 1e4a 48be be7d 1dbe fe71 a0bd
00000010: b3f4 2fbe e602 36be 36a8 653d eb4b c9bd
00000020: e5a9 b0be f7fe 0ebe e4ae 34bd 6419 21be
00000030: 604a 1f3d b61a e93c a2e2 8cbe 5c90 84bd
00000040: 9f2f 8cbd f6e5 663b 319a 44be 72ea 93be
00000050: 6c38 39be fc6c 97bd 5662 90be f444 e2bd
00000060: 350d 263c 1012 9abe c68b 61be 2fb1 73bd
00000070: 751a cbbd 5a59 e0bd 2d70 e9bd f393 61bd

module.1.running_mean f4 [32]
-0.06349673 0.04834455 0.36547136 0.041920763 0.11857804 -0.50052536 -0.12617747 0.12765414
-0.5844393 0.35028365 0.25404367 -0.34204888 -0.101351246 0.110255525 0.04671853 -0.032841954
0.23466 -0.034864787 0.17507784 -0.073004745 -0.03273757 -0.28403842 0.5781404 -0.08993544
-0.10092816 -0.58690614 0.3733123 0.07444088 0.017386576 -0.14392908 -0.048349712 -0.13934112
00000000: 930a 82bd ef04 463d 101f bb3e 1bb5 2b3d
00000010: 0bd9 f23d 6e22 00bf ab34 01be c4b7 023e
00000020: d09d 15bf 6158 b33e 0312 823e 0821 afbe
00000030: 3e91 cfbd a6cd e13d ee5b 3f3d 4985 06bd
00000040: b64a 703e 61ce 0ebd 9b47 333e 8383 95bd
00000050: d517 06bd 7c6d 91be 0201 143f 1230 b8bd
00000060: 6cb3 cebd 7b3f 16bf ca22 bf3e 7674 983d
00000070: 4b6e 8e3c 2562 13be 590a 46bd 70af 0ebe

module.1.running_var f4 [32]
0.24455065 0.141275 0.088466875 0.4549817 0.03848429 0.14053899 0.10215796 0.073928416
0.21396121 0.07890886 0.15833229 0.09314983 0.1073951 0.27208728 0.14607802 0.24444272
0.21678478 0.1448031 0.04770123 0.44519067 0.0950299 0.100946054 0.14984506 0.12107671
0.26125634 0.23543845 0.05886723 0.2061067 0.20499325 0.1629127 0.08433301 0.53245497
00000000: 7c6b 7a3e 65aa 103e 1f2e b53d 5df3 e83e
00000010: b4a1 1d3d 74e9 0f3e 3138 d13d c867 973d
00000020: a618 5b3e f89a a13d dc21 223e 57c5 be3d
00000030: f6f1 db3d 064f 8b3e 7a95 153e 314f 7a3e
00000040: d4fc 5d3e 4447 143e 5d62 433d 08f0 e33e
00000050: 099f c23d cebc ce3d fc70 193e 11f7 f73d
00000060: 64c3 853e c716 713e c41e 713d a20d 533e
00000070: c0e9 513e 96d2 263e c9b6 ac3d f84e 083f

module.4.weight f4 [32, 32, 5, 5]
-0.07207169 -0.07619806 -0.07888613 -0.03268777 -0.061657723 -0.032832116 -0.0074306126 -0.015165781
-0.029096784 -0.031652365 -0.00013994629 -0.06753045 -0.011572594 -0.05155893 -0.013037756 0.02303433
0.00078046357 0.031585224 -0.016255092 -0.000855221 0.04294304 0.08404902 0.07978254 0.09066079
0.042245824 -0.059391316 -0.03391497 -0.05520969 -0.0048044636 -0.030739222 -0.013100937 -0.028679455
-0.03545412 -0.04245467 0.015204348 0.025129916 0.04611752 0.04658037 0.03600842 -0.0053274357
-0.097285934 -0.043891005 -0.03621823 -0.04137945 -0.051544677 -0.00040972623 0.012610251 0.02778657
0.079333715 0.05644971 -0.061865263 -0.06373275 -0.03256689 -0.039085798 -0.03221105 -0.04896173
-0.023302075 -0.022412078 -0.03279955 -0.029708682 -0.040178303 -0.00071300275 -0.016805412 -0.05087768
-0.015593353 -0.08181073 -0.06565637 -0.0129648 -0.025069166 -0.032175407 -0.008797472 0.027920071
0.021086005 -0.004274025 0.009352888 -0.074252434 -0.02752363 0.029387034 0.019558312 -0.007847417
-0.00044236387 0.037975065 0.03715054 -0.0238481 0.023431012 -0.062099867 -0.027033448 0.039002586
-0.028067987 -0.029981576 -0.048866823 -0.042045858 -0.043039136 -0.0639256 -0.033675607 -0.094078824
-0.08010166 -0.024342662 -0.06186637 -0.03796238 -0.009956089 -0.0378673 -0.035232827 -0.029672623
-0.04837712 0.022064136 0.0018143757 -0.0033120872 -0.015426649 0.039341707 0.020100862 -0.034381736
-0.049546544 -0.00828303 0.02923442 -0.0065274746 0.06717863 -0.024382647 -0.06319263 -0.042794924
-0.056084685 -0.06505057 -0.055365708 -0.0075213998 0.025333328 -0.066600546 -0.08780451 -0.032575905
-0.09052112 -0.07558386 -0.078806095 -0.03192165 -0.010415968 -0.030471668 -0.0927853 0.009530524
0.05500715 0.117106356 0.030453151 0.016312188 0.16836129 0.2694885 0.25089833 0.22388045
0.15234359 -0.01785348 0.012575811 0.013626159 -0.022392038 0.0033354023 0.039680306 0.05394635
0.03767039 0.0051599294 0.0052404287 0.0012518071 0.038163796 0.033021394 0.022239946 -0.00038614962
-0.021228312 -0.06287835 -0.009292447 -0.05515505 -0.025462521 0.014469266 0.07450929 0.018003171
0.021823563 0.020458173 0.011242081 -0.04046762 0.0077787857 -0.04531978 0.014857725 -0.01746241
-0.010164724 0.0272301 -0.034989316 -0.02552611 -0.011870837 -0.014305632 -0.016715124 0.0125624845
-0.019348651 -6.7432695e-05 0.028297888 0.095247746 0.04456286 0.051317547 0.047993116 -0.020849155
-0.017697416 0.025275996 0.04357282 -0.04018882 -0.020972256 -0.09274199 -0.05714249 -0.065229006
-0.06053471 -0.014028049 -0.06773317 -0.019948877 -0.06641102 -0.004045204 0.02558648 -0.047104523
-0.02567253 -0.056562148 -0.03013188 -0.029496372 -0.02195161 -0.05142958 -0.046300728 -0.03000308
-0.029516466 -0.01884351 -0.05448145 -0.10675195 0.061075747 0.091601975 0.07276729 0.096382484
0.0403721 -0.018796492 -0.024177385 -0.022250181 0.009562754 -0.0102587575 -0.011306585 -0.026909724
-0.004414816 -0.041825183 0.012751511 0.03052291 0.0119052995 0.021154514 -0.01407092 -0.018341642
0.020194516 -0.027075432 -0.020938436 -0.029589515 -0.01581131 -0.0070399134 0.03118379 -0.008158068
0.0241349 0.018311027 0.0094198845 -0.04402427 -0.038143575 -0.02839622 0.018128319 -0.016143974
00000000: 529a 93bd ba0d 9cbd 0d8f a1bd 9ce3 05bd
00000010: cf8c 7cbd f87a 06bd 7f7c f3bb e579 78bc
00000020: 615c eebc e9a5 01bd 8cbe 12b9 684d 8abd
00000030: fa9a 3dbc 752f 53bd 509c 55bc 7eb2 bc3c
00000040: 0698 4c3a 825f 013d 6629 85bc e930 60ba
00000050: 0be5 2f3d e521 ac3d 0765 a33d 5dac b93d
00000060: f509 2d3d 4f44 73bd 6cea 0abd 8e23 62bd
00000070: c36e 9dbb d2d0 fbbc 50a5 56bc 2df1 eabc
00000080: 5738 11bd f3e4 2dbd a81b 793c 41dd cd3c
00000090: bae5 3c3d 0fcb 3e3d 917d 133d c591 aebb
000000a0: d93d c7bd 0ec7 33bd 9159 14bd 807d 29bd
000000b0: 8320 53bd 86d0 d6b9 3a9b 4e3c a9a0 e33c
000000c0: b779 a23d d037 673d 6e66 7dbd 5186 82bd
000000d0: dc64 05bd 6e18 20bd bcef 03bd 188c 48bd
000000e0: fee3 bebc 8999 b7bc d258 06bd 9f5f f3bc
000000f0: 0192 24bd cee8 3aba 81ab 89bc 1d65 50bd
00000100: 437b 7fbc 628c a7bd d976 86bd 506a 54bc
00000110: da5d cdbc 5cca 03bd 4623 10bc a2b8 e43c
00000120: 8fbc ac3c 1f0d 8cbb db3c 193c a911 98bd
00000130: 3c79 e1bc 14bd f03c c138 a03c 7492 00bc
00000140: 13ed e7b9 be8b 1b3d 2a2b 183d 175d c3bc
00000150: 65f2 bf3c 6e5c 7ebd 4075 ddbc 2dc1 1f3d
00000160: d6ee e5bc ec9b f5bc 9428 48bd 4738 2cbd
00000170: ce49 30bd 6deb 82bd 6fef 09bd 66ac c0bd
00000180: 570c a4bd 436a c7bc 9767 7dbd 717e 1bbd
00000190: dd1e 23bc be1a 1bbd 4c50 10bd 0014 f3bc
000001a0: 1627 46bd d9bf b43c 59d0 ed3a 9a0f 59bb
000001b0: 0ec0 7cbc c524 213d 90aa a43c ddd3 0cbd
000001c0: 51f1 4abd 8cb5 07bc 067d ef3c 6de4 d5bb
000001d0: f394 893d 1ebe c7bc 236b 81bd bb49 2fbd
000001e0: 0eb9 65bd 3c39 85bd 27c7 62bd 1376 f6bb
000001f0: d787 cf3c de65 88bd dad2 b3bd 506e 05bd
00000200: 2363 b9bd b6cb 9abd 1765 a1bd 47c0 02bd
00000210: bca7 2abc b89f f9bc 3806 bebd ea25 1c3c
00000220: 2d4f 613d 75d5 ef3d e378 f93c 23a1 853c
00000230: e766 2c3e 66fa 893e bf75 803e eb40 653e
00000240: f5ff 1b3e 7641 92bc c60a 4e3c 4140 5f3c
00000250: 826f b7bc c496 5a3b d187 223d d9f6 5c3d
00000260: 444c 1a3d a014 a93b e7b7 ab3b ad13 a43a
00000270: a451 1c3d 7141 073d 8c30 b63c 2074 cab9
00000280: ffe6 adbc 5dc6 80bd 593f 18bc 43ea 61bd
00000290: c796 d0bc 8010 6d3c 5498 983d 637b 933c
000002a0: 54c7 b23c e697 a73c b530 383c 60c1 25bd
000002b0: 2fe5 fe3b 3ca1 39bd d16d 733c 540d 8fbc
000002c0: f189 26bc a911 df3c f550 0fbd 221c d1bc
000002d0: e67d 42bc 2b62 6abc 28ee 88bc e1d2 4d3c
000002e0: 1081 9ebc a76a 8db8 f9d0 e73c 4011 c33d
000002f0: 8c87 363d 5932 523d 6e94 443d d9cb aabc
00000300: 2cfa 90bc 9b0f cf3c 6a79 323d 089d 24bd
00000310: 02ce abbc 83ef bdbd 3e0e 6abd c996 85bd
00000320: 3ef3 77bd e7d5 65bc b0b7 8abd d46b a3bc
00000330: 8002 88bd a18d 84bb bd9a d13c acf0 40bd
00000340: 334f d2bc b6ad 67bd 22d7 f6bc 60a2 f1bc
00000350: ddd3 b3bc d3a7 52bd d5a5 3dbd 05c9 f5bc
00000360: 84cc f1bc b45d 9abc f127 5fbd c4a0 dabd
00000370: 902a 7a3d d199 bb3d 0407 953d 2e64 c53d
00000380: 375d 253d 1afb 99bc a70f c6bc 0346 b6bc
00000390: 19ad 1c3c 5914 28bc 413f 39bc c871 dcbc
000003a0: 29aa 90bb e250 2bbd b7eb 503c 2f0b fa3c
000003b0: 720e 433c 3b4c ad3c b789 66bc 3641 96bc
000003c0: f86e a53c 4ccd ddbc 1587 abbc b665 f2bc
000003d0: b886 81bc 13af e6bb 2675 ff3c 6ba9 05bc
000003e0: 8eb6 c53c 0201 963c dc55 1a3c cb52 34bd
000003f0: 703c 1cbd 319f e8bc d781 943c 5e40 84bc

module.4.bias f4 [32]
-0.03319361 -0.0022950107 0.0161644 -0.0070950296 -0.021921529 0.026976299 0.022272436 -0.022331772
0.020205302 0.03529011 -0.031070735 0.0025806816 -0.014340195 -0.021360362 -0.032032557 0.009239512
0.024825403 -0.018626945 -0.0016853579 -0.02626214 0.02416139 -0.030579317 0.004410211 0.010886124
0.00037679178 0.026509268 0.025511408 -0.030255096 0.003632493 -0.03030463 0.00022832489 0.0039223195
00000000: 06f6 07bd e467 16bb 346b 843c 6c7d e8bb
00000010: c794 b3bc 66fd dc3c af74 b63c 1ff1 b6bc
00000020: 9785 a53c 5d8c 103d 0e88 febc a720 293b
00000030: 23f3 6abc edfb aebc 9234 03bd 5261 173c
00000040: a55e cb3c 8997 98bc 3ae7 dcba b323 d7bc
00000050: 1bee c53c 7a81 fabc 8883 903b b75b 323c
00000060: 238c c539 f729 d93c 4dfd d03c 89d9 f7bc
00000070: 1f0f 6e3b 6a41 f8bc 7f6a 6f39 cd86 803b

module.5.weight f4 [32]
0.7878164 0.87834054 0.977235 0.9609253 0.9033465 0.99884963 0.88584054 1.003454
1.0740498 0.885256 1.0642108 1.0569452 0.93768317 1.2089232 0.9570646 1.0605448
0.92399824 0.9383199 1.0143571 1.010904 0.9035644 0.89216155 1.0226606 0.8781821
0.959302 1.0472038 0.9442984 0.96717393 1.0256691 1.0297292 1.1145755 0.9766151
00000000: 56ae 493f edda 603f 132c 7a3f 33ff 753f
00000010: b741 673f 9cb4 7f3f 72c6 623f 2e71 803f
00000020: 777a 893f 23a0 623f 0f38 883f fb49 873f
00000030: 010c 703f ffbd 9a3f 3002 753f efbf 873f
00000040: 268b 6c3f bc35 703f 74d6 813f 4d65 813f
00000050: ff4f 673f b364 643f 8be6 823f 8bd0 603f
00000060: d194 753f c60a 863f 8abd 713f b698 773f
00000070: 2049 833f 2bce 833f 69aa 8e3f 7203 7a3f

module.5.bias f4 [32]
-0.18835706 -0.15198505 -0.32261363 -0.31501332 -0.04513096 -0.20724049 -0.20180634 -0.24390306
-0.25244927 -0.2880709 -0.4015939 -0.24342749 -0.28864872 -0.25051537 -0.33066693 -0.20380099
-0.2994486 -0.2181435 -0.15915972 -0.3303284 -0.30120385 -0.13590598 -0.3047415 -0.26802137
-0.3266318 -0.16863188 -0.22000158 -0.2223819 -0.40064552 -0.32924497 -0.10756368 -0.2856692
00000000: ace0 40be f8a1 1bbe 9d2d a5be 6d49 a1be
00000010: 3edb 38bd da36 54be 52a6 4ebe b9c1 79be
00000020: 0841 81be 077e 93be b79d cdbe 0e45 79be
00000030: c4c9 93be 8d43 80be 2d4d a9be 35b1 50be
00000040: 5451 99be 0261 5fbe c4fa 22be ce20 a9be
00000050: 6437 9abe f02a 0bbe 1407 9cbe 193a 89be
00000060: 493c a7be d6ad 2cbe 1848 61be 15b8 63be
00000070: 6921 cdbe cc92 a8be 594a dcbd 3c43 92be

module.5.running_mean f4 [32]
0.37022144 -0.19179909 -2.2262928 1.239034 -0.770831 -0.20335162 0.25021836 -2.98069
-1.8130598 -1.4163026 -1.5646957 -3.7049909 -1.3478869 -2.935946 -1.1818697 -3.682422
-2.3924155 -1.2527117 -2.9529407 -0.5108114 -1.1128197 0.49890748 -3.5870047 -1.1421618
-1.8456566 -0.31165138 -0.5013476 -1.6306789 -2.2322917 -2.7562206 -0.79547286 -1.1660969
00000000: aa8d bd3e fb66 44be 957b 0ec0 ab98 9e3f
00000010: 2e55 45bf 683b 50be 9f1c 803e a0c3 3ec0
00000020: 5812 e8bf 6749 b5bf f347 c8bf 921e 6dc0
00000030: 8f87 acbf 8ae6 3bc0 8247 97bf cdac 6bc0
00000040: 561d 19c0 db58 a0bf fbfc 3cc0 89c4 02bf
00000050: e070 8ebf cd70 ff3e 7c91 65c0 5c32 92bf
00000060: 7a3e ecbf c590 9fbe 5158 00bf 16ba d0bf
00000070: dedd 0ec0 eb65 30c0 1ca4 4bbf aa42 95bf

module.5.running_var f4 [32]
3.7467382 3.562154 5.271781 4.7120275 5.005301 4.631575 6.484979 5.6528997
5.707281 5.4700236 5.0340033 5.427842 4.2015796 8.3594055 3.868729 7.2774653
4.2440867 4.7902384 3.9118674 4.638463 5.4529986 4.0768104 5.4656463 3.662402
4.5946283 4.0813236 2.6280694 4.795772 4.530099 6.5042186 4.0074687 3.9244034
00000000: 8fca 6f40 55fa 6340 6eb2 a840 eec8 9640
00000010: 6d2b a040 dd35 9440 f384 cf40 8ee4 b440
00000020: 0ca2 b640 6f0a af40 8e16 a140 e2b0 ad40
00000030: 5773 8640 20c0 0541 4299 7740 ffe0 e840
00000040: 8fcf 8740 a249 9940 095c 7a40 4a6e 9440
00000050: f77e ae40 3b75 8240 93e6 ae40 cb64 6a40
00000060: 3207 9340 349a 8240 4a32 2840 f776 9940
00000070: 92f6 9040 8f22 d040 2f3d 8040 6d29 7b40

module.8.weight f4 [64, 32, 5, 5]
-0.004002788 -0.013987692 -0.051937155 -0.05079075 -0.06292215 0.009229896 -0.042764995 -0.014669161
-0.058626343 -0.028884418 0.052482728 0.020034483 0.048313543 0.0029565955 0.056868743 0.04778797
-0.016368652 -0.0598882 -0.007601019 0.02257574 0.07302022 0.013028308 0.01999505 0.03591843
0.05428365 0.0038983936 -0.014620797 0.05537358 -0.007967039 -0.01189138 0.03617412 0.0030581402
-0.0012371297 -0.015670907 -0.022311669 0.023612393 0.055691488 0.08834611 0.033778105 0.035998773
0.06504482 0.012049447 0.059632488 0.016161377 0.039130524 0.020412792 0.041932218 0.028611979
0.04717186 0.036884498 0.037335496 0.06005977 0.07097373 0.04974102 -0.004864124 -0.014140761
0.0038492694 0.04357648 0.03701783 0.01792721 0.013686083 -0.012063035 0.010109641 0.032856088
0.005504042 0.021551745 -0.007696318 -0.050668135 -0.030836554 0.011894453 0.0006276189 -0.01713624
0.0144085195 -0.028385364 -0.012870206 -0.013285514 0.0046845707 -0.0016177732 -0.0221089 -0.016671946
0.018390104 -0.020014217 -0.0545156 0.013487798 0.020077681 -0.001644977 -0.023985079 0.035121925
-0.013697346 -0.028849298 -0.10398253 -0.0253639 0.021230899 0.023805259 -0.01930717 -0.09371085
-0.07228353 0.03076884 0.06673509 -0.017413406 -0.09695373 -0.06496207 -0.017957442 -0.03204644
-0.005696333 -0.063928686 -0.076874785 0.018613968 0.018739717 0.016325664 0.043872576 -0.034998957
-0.021560136 0.032246232 0.065425634 0.02733933 -0.012599286 -0.039247323 -0.026142785 -0.0030341302
0.03767483 0.015455229 -0.015844887 -0.016440619 -0.018454565 -0.015577792 -0.032041304 -0.043771792
-0.052687675 -0.011705824 0.012306379 0.055669956 -0.052444592 -0.018296713 -0.005194591 -0.039606158
0.0654322 -0.020414378 0.007571991 -0.034188725 0.013814664 0.025798779 0.06374641 -0.0010263931
-0.0504039 -0.024010617 0.0054269386 0.041672092 0.02124709 -0.022993762 0.025323732 0.05565833
0.029848794 0.044387963 0.03122535 0.033889133 -0.0025409835 0.0024246122 -0.012847049 -0.00059173576
0.06823726 0.047947552 0.027241116 0.040801287 0.0024433797 -0.036808025 -0.0014249388 0.0035784126
-0.034622714 -0.046921283 -0.00052784674 -0.034106534 -0.029407226 -0.053524315 -0.05691946 -0.038654808
0.0010933521 0.048781812 -0.031980366 -0.022044472 -0.042370588 0.026871672 0.038870864 0.02078784
-0.009756548 0.003943799 0.0038048509 0.042775527 0.037122186 0.016562458 -0.026491173 0.00058396545
0.032820553 -0.026497943 0.0029776203 0.048521534 0.034377944 -0.04417908 -0.06874755 -0.015025132
0.03692589 -0.018953232 0.0006091525 -0.020335266 -0.07895165 0.05161878 0.039474912 0.012872784
-0.072375186 -0.070358515 0.07272766 0.04377424 -0.03332388 -0.12820294 -0.15570141 0.12526368
0.07201299 0.000898407 -0.10438934 -0.11551174 0.0529145 0.05421726 0.056480486 -0.03356098
0.008844796 0.033895876 0.015600802 0.0040916256 -0.0011761597 0.022261752 -0.014726271 0.019903913
0.009802992 0.004624995 0.0051725665 -0.007109782 0.019897709 0.03470771 0.021586264 0.011468431
0.035443753 0.023260046 -0.003416235 0.045865737 0.100491025 0.0016717726 -0.0076446775 -0.03507029
0.015424613 0.047463164 0.06804523 0.0064986474 0.047316983 0.017721541 0.010301107 0.006267485
00000000: d229 83bb a22c 65bc 0ebc 54bd f609 50bd
00000010: 54dd 80bd fd38 173c 592a 2fbd ec56 70bc
00000020: 2d22 70bd 049f ecbc 21f8 563d 5b1f a43c
00000030: 6ce4 453d 71c3 413b 33ef 683d 52bd 433d
00000040: 8d17 86bc 544d 75bd f811 f9bb c2f0 b83c
00000050: a08b 953d af74 553c a9cc a33c 341f 133d
00000060: 8858 5e3d 317c 7f3b 118c 6fbc 68cf 623d
00000070: 2f88 02bc 10d4 42bc 502b 143d 146b 483b
00000080: 2f27 a2ba 4660 80bc f6c6 b6bc c76e c13c
00000090: c21c 643d ceee b43d e95a 0a3d 7373 133d
000000a0: 3836 853d 0b6b 453c 3241 743d dd64 843c
000000b0: 5447 203d ba38 a73c 1ec1 2b3d ab63 ea3c
000000c0: 4837 413d 3314 173d 1bed 183d 3c01 763d
000000d0: ad5a 913d 3dbd 4b3d 3b63 9fbb a7ae 67bc
000000e0: 0644 7c3b 407d 323d 02a0 173d 16dc 923c
000000f0: 983b 603c 09a4 45bc e8a2 253c 1b94 063d
00000100: 405b b43b 498d b03c 6531 fcbb 6489 4fbd
00000110: f19c fcbc f4e0 423c cb86 243a 4d61 8cbc
00000120: b611 6c3c 6c88 e8bc 8edd 52bc 7cab 59bc
00000130: 0781 993b 760b d4ba b91d b5bc 9b93 88bc
00000140: d8a6 963c dbf4 a3bc c04b 5fbd edfb 5c3c
00000150: f379 a43c 459c d7ba 5b7c c4bc 02dc 0f3d
00000160: d56a 60bc 5d55 ecbc cbf4 d4bd f4c7 cfbc
00000170: 6cec ad3c 3f03 c33c 122a 9ebc 79eb bfbd
00000180: 6309 94bd ef0e fc3c 68ac 883d 8fa6 8ebc
00000190: ad8f c6bd d50a 85bd 7c1b 93bc 2143 03bd
000001a0: 4ea8 babb 0bed 82bd 8770 9dbd 527c 983c
000001b0: 0984 993c 66bd 853c bbb3 333d 115b 0fbd
000001c0: e29e b0bc a014 043d e0fd 853d bbf6 df3c
000001d0: 3c6d 4ebc cdc1 20bd 6529 d6bc 42d8 46bb
000001e0: ec50 1a3d ee37 7d3c 23cd 81bc 7aae 86bc
000001f0: 072e 97bc ff39 7fbc be3d 03bd 0d4a 33bd
00000200: 08cf 57bd c9c9 3fbc b2a0 493c 2e06 643d
00000210: 24d0 56bd fde2 95bc 6337 aabb 113a 22bd
00000220: 5101 863d 0e3c a7bc 771e f83b 7a09 0cbd
00000230: e756 623c f657 d33c 7a8d 823d 0a88 86ba
00000240: 5274 4ebd eab1 c4bc 76d4 b13b 5bb0 2a3d
00000250: 610e ae3c 6a5d bcbc b773 cf3c fdf9 633d
00000260: 7585 f43c 27d0 353d 4ecc ff3c 55cf 0a3d
00000270: a186 26bb 3ee6 1e3b 6e7c 52bc b71e 1bba
00000280: fabf 8b3d a764 443d c328 df3c 401f 273d
00000290: 1c21 203b 03c4 16bd 03c5 baba cd83 6a3b
000002a0: 8cd0 0dbd 8830 40bd 325f 0aba 4bb3 0bbd
000002b0: 6ce7 f0bc 503c 5bbd 6124 69bd 8154 1ebd
000002c0: cf4e 8f3a 70cf 473d d8fd 02bd 9c96 b4bc
000002d0: c88c 2dbd fb21 dc3c 0e37 1f3d 434b aa3c
000002e0: eed9 1fbc fc3a 813b ce5a 793b 6435 2f3d
000002f0: 6f0d 183d fead 873c 0404 d9bc 4215 193a
00000300: d86e 063d 3712 d9bc 2e24 433b 84be 463d
00000310: e3cf 0c3d 1ff5 34bd 84cb 8cbd f92b 76bc
00000320: 9a3f 173d cf43 9bbc 88af 1f3a 2596 a6bc
00000330: 67b1 a1bd 376e 533d 72b0 213d 5fe8 523c
00000340: 7139 94bd 2018 90bd 3df2 943d 9e4c 333d
00000350: 9f7e 08bd a247 03be 3170 1fbe 1f45 003e
00000360: 8c7b 933d 1383 6b3a 14ca d5bd 6b91 ecbd
00000370: e0bc 583d eb12 5e3d 1558 673d 3d77 09bd
00000380: c3e9 103c 67d6 0a3d 829a 7f3c 0b13 863b
00000390: 5f29 9aba 475e b63c 7546 71bc 880d a33c
000003a0: bb9c 203c 458d 973b a27e a93b 2df9 e8bb
000003b0: 8500 a33c ac29 0e3d add5 b03c 16e6 3b3c
000003c0: 782d 113d da8b be3c eae2 5fbb b6dd 3b3d
000003d0: 3dce cd3d 611f db3a 3480 fabb dda5 0fbd
000003e0: 84b7 7c3c bc68 423d 4c5b 8b3d 9bf2 d43b
000003f0: 74cf 413d c42c 913c f9c5 283c 7a5f cd3b

module.8.bias f4 [64]
0.023214191 -0.013758158 0.010803387 -0.020796381 -0.0018153586 -0.009138292 0.019371 -0.031957738
0.03033476 -0.03040751 -0.032894216 0.010834165 0.00091168465 -1.0918512e-05 0.00037107675 0.031163093
-0.019026008 -0.02831041 -0.02596149 0.03255408 0.015585245 -0.017826075 -0.026756 -0.02566818
-0.0017276328 -0.0017951913 0.029304605 -0.0007375093 -0.034784876 -0.033943154 -0.027886044 -0.03109612
0.03280032 0.013530374 0.006406768 -0.018883526 -0.015007437 0.032912765 -0.0040622964 -0.024922479
-0.015936457 -0.029049607 0.0021976717 -0.035157725 -0.029363541 -0.02879797 -0.010708817 0.009994123
-0.023039129 -0.03128991 -0.034629982 0.0056371773 -0.00030832717 -0.009709982 -0.010610139 -0.026770221
-0.0027434006 0.0028517665 -0.00689675 -0.014130041 -0.0067318357 -0.033655256 -0.0031636676 -0.022567261
00000000: b02b be3c e669 61bc b000 313c 2c5d aabc
00000010: 54f1 edba c6b8 15bc eeaf 9e3c 1ee6 02bd
00000020: 9a80 f83c 2c19 f9bc 16bc 06bd c881 313c
00000030: 1ffe 6e3a a72e 37b7 148d c239 be49 ff3c
00000040: 6edc 9bbc 3ceb e7bc 31ad d4bc 6d57 053d
00000050: 4159 7f3c fd07 92bc 662f dbbc 1346 d2bc
00000060: bd71 e2ba a04c ebba 3610 f03c 6955 41ba
00000070: 967a 0ebd fa07 0bbd 4671 e4bc 4abd febc
00000080: a159 063d 80ae 5d3c deef d13b a0b1 9abc
00000090: c1e1 75bc 89cf 063d 031d 85bb 3a2a ccbc
000000a0: 2c8d 82bc 71f9 edbc d006 103b 8c01 10bd
000000b0: cf8b f0bc b8e9 ebbc 0974 2fbc 64be 233c
000000c0: 8ebc bcbc d929 00bd 2bd8 0dbd 12b8 b83b
000000d0: f9a6 a1b9 9e16 1fbc 26d6 2dbc 394d dbbc
000000e0: a0ca 33bb b4e4 3a3b 22fe e1bb b081 67bc
000000f0: bb96 dcbb 18da 09bd 8955 4fbb fade b8bc

module.9.weight f4 [64]
0.7593552 0.7402874 0.63984746 0.78920203 0.7613903 0.7224819 0.6689713 0.8323241
0.7854803 0.6580366 0.769926 0.55610895 0.66467816 0.66854286 0.7521556 0.5507443
0.7522925 0.76049227 0.6851156 0.6878939 0.75128967 0.7391385 0.7265492 0.7061228
0.5515827 0.6799221 0.8044614 0.67163634 0.7194938 0.6789017 0.8389413 0.711852
0.72939694 0.6963385 0.7066273 0.7801369 0.62675196 0.6384157 0.9005631 0.60691583
0.6918992 0.76615566 0.6262379 0.6605188 0.834102 0.74849963 0.6597693 0.6698265
0.7298896 0.7451503 0.6394442 0.77390057 0.5793315 0.8421603 0.64302534 0.74729276
0.7559065 0.71990734 0.6381098 0.6772977 0.7424571 0.7467636 0.8151333 0.6975163
00000000: 1a65 423f 7a83 3d3f 0bcd 233f 2509 4a3f
00000010: 7aea 423f 93f4 383f b441 2b3f 3113 553f
00000020: 3d15 493f 1675 283f df19 453f 285d 0e3f
00000030: 5928 2a3f a025 2b3f 458d 403f 94fd 0c3f
00000040: 3e96 403f 9faf 423f bc63 2f3f d119 303f
00000050: 8554 403f 2e38 3d3f 21ff 393f 77c4 343f
00000060: 8634 0d3f 600f 2e3f 2ff1 4d3f 5cf0 2b3f
00000070: bf30 383f 80cc 2d3f dbc4 563f ef3b 363f
00000080: c2b9 3a3f 3d43 323f 87e5 343f 0db7 473f
00000090: d172 203f 366f 233f 4e8b 663f d65e 1b3f
000000a0: 4e20 313f c722 443f 2151 203f c317 293f
000000b0: b587 553f ac9d 3f3f a4e6 283f c079 2b3f
000000c0: 0bda 3a3f 2cc2 3e3f 9db2 233f 591e 463f
000000d0: 124f 143f d197 573f 4f9d 243f 944e 3f3f
000000e0: 1783 413f d94b 383f 2a5b 233f 6263 2d3f
000000f0: ab11 3e3f e62b 3f3f 93ac 503f 6e90 323f

module.9.bias f4 [64]
-0.5264539 -0.42219678 -0.43285024 -0.5922315 -0.54834545 -0.5187121 -0.43226963 -0.6701554
-0.5164724 -0.44850335 -0.46798852 -0.4419265 -0.4034716 -0.44182613 -0.48592493 -0.41684762
-0.4510441 -0.40197602 -0.3885666 -0.5117766 -0.5757391 -0.48205373 -0.4001009 -0.46933126
-0.41498205 -0.4430736 -0.4433613 -0.52526325 -0.5695522 -0.39950037 -0.6220072 -0.49405488
-0.44474688 -0.44537786 -0.38148674 -0.4394633 -0.3971281 -0.43006545 -0.54531807 -0.39601207
-0.524843 -0.45249242 -0.41802624 -0.43697098 -0.54072654 -0.44409734 -0.4674378 -0.4238347
-0.39351365 -0.4387833 -0.54741883 -0.49846527 -0.38498047 -0.52966416 -0.46354747 -0.43996406
-0.45273697 -0.4803497 -0.40467283 -0.4850307 -0.4191885 -0.45787394 -0.5572982 -0.48328206
00000000: afc5 06bf 2d2a d8be 8c9e ddbe 7c9c 17bf
00000010: 5e60 0cbf 51ca 04bf 7252 ddbe 4e8f 2bbf
00000020: 8937 04bf 3ba2 e5be 319c efbe 3144 e2be
00000030: d493 cebe 0937 e2be 27cb f8be 0d6d d5be
00000040: 41ef e6be cdcf cdbe 34f2 c6be cb03 03bf
00000050: a363 13bf bfcf f6be 06da ccbe 304c f0be
00000060: 8778 d4be 8bda e2be 4100 e3be a777 06bf
00000070: 2cce 11bf 508b ccbe dd3b 1fbf c3f4 fcbe
00000080: ddb5 e3be 9108 e4be 3b52 c3be 5501 e1be
00000090: 6054 cbbe 8a31 dcbe f799 0bbf 18c2 cabe
000000a0: 1c5c 06bf 16ad e7be 8907 d6be a9ba dfbe
000000b0: 0e6d 0abf ba60 e3be 0254 efbe dd00 d9be
000000c0: 9f7a c9be 34a8 e0be a423 0cbf d736 ffbe
000000d0: 291c c5be 1298 07bf 1856 edbe f842 e1be
000000e0: 24cd e7be 65f0 f5be 4731 cfbe f255 f8be
000000f0: e09f d6be 746e eabe 18ab 0ebf bf70 f7be

module.9.running_mean f4 [64]
-0.7800297 -2.2010174 -1.6830226 0.15132003 -2.3410585 -0.055123407 -1.3904785 -0.51639915
-0.37471366 -1.6397179 -2.4217963 -0.03487028 -0.8191072 0.4402881 -2.9299927 -1.0149835
-1.7363642 -2.5123234 -1.4493337 -0.3442124 -0.6299629 -1.0481849 -0.12219727 -1.5215931
0.27372763 -1.1170399 -2.309886 -1.1693997 -0.43754557 -1.3932086 -0.6332235 -2.0552897
-0.37841472 -0.66356796 -1.7513163 -2.510203 -1.3273013 -1.3028741 -3.560107 0.0035064132
-0.265302 -2.4181204 -1.5560367 -0.66023564 -3.2498465 -1.7975569 0.013263712 -2.2076478
-1.155627 -1.3376023 -0.5099409 -0.89126295 1.2161325 -3.5443323 -1.2636007 -1.5564121
-2.4874985 -0.8157288 0.14308307 0.0037134285 -1.231103 -1.409709 -0.23467244 -1.9196266
00000000: 07b0 47bf 78dd 0cc0 496d d7bf a3f3 1a3e
00000010: e7d3 15c0 15c9 61bd 33fb b1bf bc32 04bf
00000020: 78da bfbe 47e2 d1bf b6fe 1ac0 24d4 0ebd
00000030: 02b1 51bf 716d e13e 0085 3bc0 fbea 81bf
00000040: 2f41 debf e8c9 20c0 c483 b9bf 9c3c b0be
00000050: 4045 21bf ec2a 86bf 9042 fabd 90c3 c2bf
00000060: 0726 8c3e 2afb 8ebf 2cd5 13c0 e4ae 95bf
00000070: f905 e0be a954 b2bf ef1a 22bf de89 03c0
00000080: 93bf c1be 97df 29bf 222b e0bf 2aa7 20c0
00000090: 02e5 a9bf 94c4 a6bf cbd8 63c0 dacb 653b
000000a0: aad5 87be 7cc2 1ac0 362c c7bf 3405 29bf
000000b0: 7cfd 4fc0 5816 e6bf 0a50 593c 1a4a 0dc0
000000c0: 96eb 93bf 8d36 abbf 7d8b 02bf cf29 64bf
000000d0: 3baa 9b3f 57d6 62c0 abbd a1bf 8338 c7bf
000000e0: 2d33 1fc0 9ad3 50bf 5e84 123e fe5c 733b
000000f0: c894 9dbf 5871 b4bf f94d 70be 53b6 f5bf

module.9.running_var f4 [64]
1.638923 1.4190378 1.2848129 1.6066645 1.4535525 1.1970772 1.3660012 1.6116313
1.8283374 1.2736088 1.3573195 0.9805835 1.3717287 1.3519398 1.701302 1.5415362
1.5426602 1.2614776 1.1134151 1.2412846 1.6770235 1.523448 1.2405374 1.5845281
0.9607672 1.3969624 1.9001533 1.3116004 1.7568622 1.1774439 1.7222475 1.4728544
1.3415515 1.1642876 1.2627028 1.5064973 1.3057065 1.5286186 1.9427072 0.822653
1.5904306 1.4019564 1.17268 1.375934 1.6506866 1.5956573 1.450021 1.0723172
1.1641854 1.6937103 1.2732507 1.3710636 1.3325111 2.2849927 1.176735 1.3524032
1.0019387 1.6514019 1.270281 1.053764 1.3371937 1.6512954 2.082464 2.0021815
00000000: 3bc8 d13f 08a3 b53f c074 a43f 2fa7 cd3f
00000010: 020e ba3f d339 993f 21d9 ae3f ef49 ce3f
00000020: f606 ea3f 9d05 a33f a5bc ad3f 8507 7b3f
00000030: ce94 af3f 5d0c ad3f 44c4 d93f 0f51 c53f
00000040: e475 c53f 1978 a13f 6384 8e3f 6ae2 9e3f
00000050: b5a8 d63f 5800 c33f eec9 9e3f d1d1 ca3f
00000060: d7f4 753f aacf b23f 3938 f33f 86e2 a73f
00000070: dce0 e03f 7bb6 963f 9b72 dc3f 7e86 bc3f
00000080: f6b7 ab3f 6007 953f 3fa0 a13f e7d4 c03f
00000090: 6421 a73f c6a9 c33f a1aa f83f 6399 523f
000000a0: 3b93 cb3f 4f73 b33f 611a 963f 9b1e b03f
000000b0: b349 d33f 803e cc3f 4a9a b93f b141 893f
000000c0: 0704 953f 80cb d83f e1f9 a23f 037f af3f
000000d0: b98f aa3f 523d 1240 419f 963f 8c1b ad3f
000000e0: 873f 803f 2361 d33f 9198 a23f bde1 863f
000000f0: 2a29 ab3f a65d d33f 1747 0540 be23 0040

module.13.weight f4 [64, 1024]
-0.0053438134 0.033991933 0.03163766 -0.022364398 -0.022093566 -0.008247868 0.032149695 0.003105871
0.01666042 0.016512478 0.008380195 0.055788618 -0.014795048 0.00954491 0.030047327 0.020211987
0.017205063 0.01847584 0.014806499 0.006098675 -0.04678396 0.040200714 -0.032449134 0.006051781
0.008965396 0.026052753 0.01577066 -0.0116796065 0.0017511129 0.028249405 -0.0012168088 -0.02922443
-0.044117115 -0.015242571 -0.06806491 0.0025655075 -0.021461217 -0.067278095 -0.09361137 0.03551976
0.0368925 -0.06695237 -0.10492704 0.009787581 0.018342018 -0.02606049 -0.049526133 0.023698507
-0.060879663 -0.011464594 0.020617155 0.015505254 0.0049044755 0.050262406 0.0643411 0.03885326
-0.028200462 0.03375991 0.062612034 -0.018821051 -0.054186 -0.01742378 -0.0021988205 -0.010310641
0.061441857 -0.013982713 -0.0062033907 0.0062223333 0.048086856 -0.019017793 -0.029809898 -0.0017627927
0.012583816 0.00575886 -0.0023314916 0.011563749 0.020913715 -0.009582944 9.2300936e-05 0.03587214
0.027208088 -0.049163237 -0.06579915 -0.0494459 0.02020626 -0.010374697 -0.094861075 -0.06007398
0.0099937245 -0.013699359 -0.106043205 -0.089118324 -0.040102966 -0.031023044 -0.029545091 -0.00825771
-0.013554488 -0.035376865 0.038452677 -0.046068262 0.05795552 -0.018988201 0.009081289 0.009711802
0.023854533 0.027805332 0.103133954 0.019010158 -0.013095056 0.05259309 0.03737442 0.040598817
0.016715672 0.015288719 0.029341461 0.0015675344 -0.014379731 0.030465301 -0.015251963 -0.02165046
-0.028679453 -0.018060924 -0.041657373 -0.012728406 0.021514706 0.0093700625 0.051437654 0.025441602
0.0124677485 -0.010330278 0.016920255 -0.046648975 -0.0074385353 0.00054423243 0.004283984 -0.040733695
-0.013639435 0.025431322 0.014261052 0.0056417654 0.002112347 0.039225712 0.057246793 0.048762966
-0.01716131 -0.03041096 0.081674784 0.047132004 0.0011539328 0.0004921658 0.08920182 0.103966475
0.006263131 -0.037607383 0.0070345886 0.030941876 0.009471823 0.017668135 -0.01680065 0.028443472
0.047152046 0.042351507 -0.00033966717 -0.013536921 -0.03876266 -0.05881664 0.022967787 0.00017486345
-0.011169881 -0.0013569386 0.08726696 -8.592523e-05 -0.00045185673 0.009583015 0.08726258 0.025800321
-0.039122093 -0.0031843332 -0.069200255 -0.027705774 -0.04248225 -0.032572396 0.03379065 0.007556845
0.006950813 -0.024680655 -0.005683531 0.006960773 -0.005023297 -0.031995777 -0.015271353 0.02765233
-0.039276667 -0.023632934 0.023914982 0.027450137 0.004702257 -0.055661548 -0.03035932 -0.0026404543
-0.04954911 -0.056630626 -0.00065846124 -0.022592396 0.044920933 0.038688317 0.051131997 -0.01975612
0.041707236 -0.012134024 0.062283974 -0.0117183905 0.014476073 0.0054867226 0.023471717 0.006212763
-0.0059485147 0.023111971 -0.041447565 0.03777609 0.009854504 -0.0027465343 -0.005454804 0.031924546
0.031237623 0.007610893 -0.017958125 0.030503698 0.0049037733 -0.021012561 -0.04016011 -0.011529386
-0.051214844 -0.091782704 0.006401956 -0.03325151 -0.0067414916 -0.06128445 0.007679306 0.041033015
0.009537235 0.005178313 -0.040016115 -0.019399138 0.018465454 -0.048678327 -0.03441409 -0.02079034
0.017755248 -0.042456355 0.021277709 0.060654987 0.021303518 -0.04474681 -0.02900554 0.0033698136
00000000: 281b afbb 203b 0b3d 7e96 013d 8b35 b7bc
00000010: 91fd b4bc 1122 07bc 66af 033d de8b 4b3b
00000020: 6f7b 883c 2d45 873c 164d 093c 9b82 643d
00000030: ee66 72bc 4162 1c3c d025 f63c 9c93 a53c
00000040: a2f1 8c3c a55a 973c f596 723c 65d7 c73b
00000050: 8aa0 3fbd 81a9 243d 62e9 04bd 054e c63b
00000060: 99e3 123c 956c d53c 7931 813c d25b 3fbc
00000070: 9985 e53a 4c6b e73c 547d 9fba 1268 efbc
00000080: 26b4 34bd fabb 79bc 9e65 8bbd 1322 283b
00000090: 6fcf afbc 19c9 89bd 51b7 bfbd 2b7d 113d
000000a0: 971c 173d 531e 89bd fde3 d6bd 175c 203c
000000b0: 0042 963c cf7c d5bc eadb 4abd 5f23 c23c
000000c0: f45c 79bd fed5 3bbc 4fe5 a83c c009 7e3c
000000d0: b9b5 a03b f4df 4d3d 44c5 833d 9924 1f3d
000000e0: a804 e7bc d547 0a3d bd3a 803d 9b2e 9abc
000000f0: 24f2 5dbd 51bc 8ebc 161a 10bb f6ed 28bc
00000100: 75aa 7b3d c017 65bc d045 cbbb b7e4 cb3b
00000110: b9f6 443d 34cb 9bbc e333 f4bc 820d e7ba
00000120: 5a2c 4e3c d2b4 bc3b f0cb 18bb e175 3d3c
00000130: 3d53 ab3c c801 1dbc b091 c138 aaee 123d
00000140: 7fe3 de3c 645f 49bd b4c1 86bd c987 4abd
00000150: 9987 a53c a2fa 29bc 8646 c2bd 2210 76bd
00000160: b8bc 233c 4773 60bc 2e2d d9bd ab83 b6bd
00000170: 0243 24bd 0a24 febc 8c08 f2bc 594b 07bc
00000180: a513 5ebc 55e7 10bd 8e80 1d3d 13b2 3cbd
00000190: c462 6d3d 258d 9bbc b0c9 143c 401e 1f3c
000001a0: 956a c33c 02c8 e33c e537 d33d 31bb 9b3c
000001b0: a58c 56bc da6b 573d eb15 193d f24a 263d
000001c0: 4eef 883c 897d 7a3c 815d f03c ba75 cd3a
000001d0: f798 6bbc 5e92 f93c 5fe3 79bc 4e5c b1bc
000001e0: 2cf1 eabc 81f4 93bc eca0 2abd ce8a 50bc
000001f0: 9c3f b03c e484 193c 4ab0 523d e86a d03c
00000200: 8745 4c3c 5440 29bc 599c 8a3c ff12 3fbd
00000210: f5be f3bb d2aa 0e3a aa60 8c3b 60d8 26bd
00000220: f077 5fbc 5955 d03c 30a7 693c 8fde b83b
00000230: 4d6f 0a3b 24ab 203d 9d7b 6a3d adbb 473d
00000240: e095 8cbc 6820 f9bc 1c45 a73d 7d0d 413d
00000250: 8f3f 973a b004 013a 72af b63d 60ec d43d
00000260: f33a cd3b 330a 1abd 6882 e63b d179 fd3c
00000270: b52f 1b3c c4bc 903c 84a1 89bc 4902 e93c
00000280: 8122 413d c678 2d3d 5b15 b2b9 f6c9 5dbc
00000290: 98c5 1ebd b8e9 70bd f126 bc3c 8d5b 3739
000002a0: e001 37bc 4edb b1ba 05b9 b23d c232 b4b8
000002b0: 2fe7 ecb9 1402 1d3c b9b6 b23d 325b d33c
000002c0: 7d3e 20bd 3fb0 50bb ddb8 8dbd 38f7 e2bc
000002d0: de01 2ebd a26a 05bd 1168 0a3d 699f f73b
000002e0: a5c3 e33b 162f cabc ea3c babb 3217 e43b
000002f0: 789a a4bb 010e 03bd b234 7abc 2487 e23c
00000300: 92e0 20bd db99 c1bc 5ae9 c33c 1cdf e03c
00000310: 6415 9a3b 5dfd 63bd 1cb4 f8bc 790b 2dbb
00000320: 02f4 4abd 84f5 67bd 969c 2cba b013 b9bc
00000330: 03ff 373d a477 1e3d c96f 513d 96d7 a1bc
00000340: 35d5 2a3d c9cd 46bc 7b1d 7f3d 7efe 3fbc
00000350: 0d2d 6d3c f7c9 b33b c247 c03c 6f94 cb3b
00000360: c2eb c2bb 5155 bd3c ecc4 29bd 1abb 1a3d
00000370: c974 213c 33ff 33bb 36be b2bb 50c3 023d
00000380: 0be6 ff3c cc64 f93b eb1c 93bc e4e2 f93c
00000390: d5af a03b 8922 acbc ed7e 24bd c0e5 3cbc
000003a0: a8c6 51bd 92f8 bbbd 80c7 d13b bc32 08bd
000003b0: bbe7 dcbb 6705 7bbd b0a2 fb3b 3c12 283d
000003c0: 1042 1c3c d6ae a93b f0e7 23bd f1ea 9ebc
000003d0: dd44 973c ed62 47bd caf5 0cbd 8150 aabc
000003e0: 7473 913c b7e6 2dbd 974e ae3c 5d71 783d
000003f0: b784 ae3c 6e48 37bd 079d edbc 17d8 5c3b

module.13.bias f4 [64]
-0.0023153115 0.052707884 0.04242351 -0.016437097 0.021267196 -0.008838075 -0.019737171 -0.021684598
0.017519828 0.025123952 -0.034978665 -0.02119248 0.04828647 -0.029299175 -0.022439852 0.026397388
-0.019130241 0.022155633 0.02449874 -0.022762833 0.07469646 0.0018110799 0.00023493021 0.016588595
-0.014929339 0.044934146 0.056041073 -0.030492624 0.030401966 -0.025680754 -0.0021127644 -0.0062778895
0.042886216 0.0024676812 -0.0019106525 0.012227515 0.015478408 -0.0075113387 -0.012578094 0.025332307
0.055721715 0.0136196725 0.009484892 0.048602752 0.0016385639 -0.007146186 -0.009423166 0.03975982
0.042932652 0.0016624372 0.009291728 -0.028213905 0.026152486 0.0008362673 0.019918472 -0.029751107
0.048354942 -0.034761876 0.008403569 -0.0056600575 -0.031139594 0.043082006 0.04028126 -0.0071771033
00000000: 7bbc 17bb 39e4 573d 46c4 2d3d 17a7 86bc
00000010: 8b38 ae3c 93cd 10bc d9af a1bc e6a3 b1bc
00000020: be85 8f3c bfd0 cd3c ca45 0fbd da9b adbc
00000030: 09c8 453d d304 f0bc c8d3 b7bc 563f d83c
00000040: 06b7 9cbc bb7f b53c 95b1 c83c 1f79 babc
00000050: 75fa 983d c261 ed3a 9957 7639 cee4 873c
00000060: 309a 74bc de0c 383d 538b 653d abcb f9bc
00000070: 8b0d f93c 7260 d2bc 4e76 0abb c1b6 cdbb
00000080: 75a9 2f3d d2b8 213b dc6e faba ea55 483c
00000090: 2699 7d3c ad21 f6bb 5a14 4ebc b385 cf3c
000000a0: 743c 643d 0c25 5f3c 8566 1b3c ae13 473d
000000b0: 15c5 d63a 8e2a eabb 9f63 1abc 31db 223d
000000c0: 26da 2f3d 23e6 d93a 553c 183c d920 e7bc
000000d0: bd3d d63c f338 5b3a 102c a33c 98b8 f3bc
000000e0: d50f 463d 7862 0ebd 20af 093c 0178 b9bb
000000f0: 7618 ffbc c276 303d f6fd 243d e82d ebbb

module.16.weight f4 [10, 64]
0.030569457 0.17514247 0.21732934 -0.1299421 0.24266347 0.154052 0.11013602 0.094808385
0.03395314 -0.25394687 0.04415519 0.057725564 -0.1412498 -0.016916914 0.29401878 -0.13360795
0.12170132 0.16292135 -0.24478255 0.060187012 -0.19679217 -0.09092721 -0.039636314 -0.17845127
-0.05487914 -0.22663017 -0.23878948 -0.102270536 0.29210937 0.06383953 0.07221861 0.07123319
0.210447 -0.19984321 0.086276114 0.15585788 0.27070716 -0.0138316825 0.09906873 0.26810163
0.052316397 0.09949683 0.231676 0.19124821 0.2928738 -0.087028384 0.2835805 -0.15549159
0.14284949 -0.028639218 -0.015756834 -0.03270318 -0.017449277 0.19913751 -0.21580823 -0.053025723
-0.33712074 0.039673645 0.03374267 -0.15289536 -0.113305934 0.03528561 0.24709105 -0.17630252
-0.07729659 0.09583926 -0.22363934 -0.23581088 -0.03949472 -0.3187316 0.087564364 0.0768123
0.007732306 -0.19126984 0.06510429 0.047050018 -0.2659558 -0.120516844 -0.11291126 0.36658543
0.035403173 -0.3028923 -0.16647731 0.11951701 -0.2620425 0.09641446 -0.09786262 0.27443662
0.06874903 -0.23332015 -0.2785971 -0.06444139 0.37473905 0.05899802 0.36723897 -0.37115458
0.33382875 -0.19514033 0.078530565 0.21320184 0.00657078 -0.05282227 0.06899103 0.34740457
-0.27796793 -0.057936456 -0.27138874 0.01635798 -0.23149548 0.0980182 0.37010208 -0.1095396
-0.15341167 0.11919539 -0.11211052 -0.017808337 -0.0062225387 0.15098849 -0.18807644 0.03222446
-0.32756862 -0.034928355 0.10995237 0.27398646 0.0104437005 0.32944733 -0.2475337 0.2441086
0.31276518 -0.10648453 0.1808339 0.26538503 -0.09557105 0.20263626 0.0060887686 -0.038246546
-0.11893126 0.22595257 -0.048256375 0.051932003 -0.08023554 -0.07039907 0.22776997 0.11855838
0.07537262 0.2255743 -0.046173085 0.12649669 0.111928314 0.0974096 -0.056248553 -0.044287633
-0.054547053 0.20927748 -0.015440721 0.014452226 -0.20844482 0.00027317507 0.018523345 0.38326666
-0.21850866 -0.13937327 0.020813253 -0.1604733 0.22539133 0.06605501 0.105939455 0.014340738
-0.02374093 0.08216446 0.1374147 -0.09931358 0.29521617 0.027610583 0.06000729 0.12701079
-0.0290926 -0.021248177 0.06664938 0.049466543 0.09636329 0.045487598 0.07564402 0.08236333
0.17458092 0.102603175 0.061275452 -0.02345131 -0.0006787319 -0.23640856 0.1891288 -0.23378873
0.102907 -0.029455265 -0.09859002 0.11921707 -0.15240268 0.056813877 -0.095473595 0.020368611
-0.07094998 0.11523875 -0.11606108 0.12224647 -0.12380934 -0.11225268 -0.065424055 -0.06655045
-0.0434678 -0.020128148 0.31053546 0.090139806 0.16137071 0.10847065 -0.029325115 -0.007891887
-0.08109826 0.15541433 0.24165954 -0.11434108 -0.21258464 0.05895372 -0.16224226 0.06385712
-0.18983734 0.037934225 -0.053435776 -0.06727571 0.06382353 0.06617119 -0.045022797 -0.22142489
0.27832758 0.039675955 0.033798106 -0.14038917 -0.022850202 0.031171387 -0.0938747 0.015385726
-0.052435044 0.040188428 0.088750124 -0.07753266 0.06934416 -0.095547155 0.289774 0.08699122
0.16469479 0.03365127 -0.029047268 0.095158406 0.030741634 -0.12990046 0.26579618 0.11835765
00000000: cc6c fa3c 8c58 333e 958b 5e3e 8b0f 05be
00000010: c67c 783e cfbf 1d3e fe8e e13d e62a c23d
00000020: 7312 0b3d 5305 82be 13dc 343d a471 6c3d
00000030: caa3 10be 5795 8abc a189 963e 86d0 08be
00000040: 8b3e f93d dbd4 263e 47a8 7abe a886 763d
00000050: e383 49be 0c38 babd b059 22bd eebb 36be
00000060: f3c8 60bd bd11 68be 3b85 74be 3773 d1bd
00000070: 5c8f 953e 4dbe 823d 5ae7 933d b5e2 913d
00000080: 6b7f 573e b3a3 4cbe 88b1 b03d 3599 1f3e
00000090: 219a 8a3e 489e 62bc 8ce4 ca3d 9e44 893e
000000a0: b849 563d fec4 cb3d 793c 6d3e 92d6 433e
000000b0: 8ef3 953e f03b b2bd 7731 913e 3039 1fbe
000000c0: 2347 123e cb9c eabc 7a14 81bc c5f3 05bd
000000d0: c9f1 8ebc b4ea 4b3e d5fc 5cbe 8031 59bd
000000e0: 179b acbe d580 223d c135 0a3d 9a90 1cbe
000000f0: f10c e8bd a587 103d 7005 7d3e a688 34be
00000100: ad4d 9ebd 6047 c43d b601 65be 6878 71be
00000110: 37c5 21bd ca30 a3be f254 b33d c44f 9d3d
00000120: 495f fd3b 3edc 43be 6655 853d 85b7 403d
00000130: 5c2b 88be 89d1 f6bd 053e e7bd 16b1 bb3e
00000140: eb02 113d b314 9bbe 0779 2abe 56c5 f43d
00000150: 6f2a 86be f274 c53d 336c c8bd f582 8c3e
00000160: 4bcc 8c3d 7aeb 6ebe 47a4 8ebe d9f9 83bd
00000170: ccdd bf3e e8a7 713d bf06 bc3e f907 bebe
00000180: 9aeb aa3e ded2 47be a2d4 a03d 9551 5a3e
00000190: b34f d73b 2a5c 58bd 2b4b 8d3d 03df b13e
000001a0: d051 8ebe c74e 6dbd 77f3 8abe 2c01 863c
000001b0: 270d 6dbe c4bd c83d 057e bd3e 4c56 e0bd
000001c0: f317 1dbe b61c f43d 339a e5bd cae2 91bc
000001d0: 70e6 cbbb ba9c 1a3e 1c97 40be ccfd 033d
000001e0: 13b7 a7be 0911 0fbd b52e e13d f447 8c3e
000001f0: 0e1c 2b3c 52ad a83e 7979 7dbe 9bf7 793e
00000200: c222 a03e 9014 dabd 862c 393e 8ce0 873e
00000210: c1ba c3bd e17f 4f3e 4b84 c73b 69a8 1cbd
00000220: 3c92 f3bd 1c60 673e 7aa8 45bd a7b6 543d
00000230: 8852 a4bd 632d 90bd 883c 693e bcce f23d
00000240: f65c 9a3d f3fc 663e fd1f 3dbd 5988 013e
00000250: ac3a e53d af7e c73d e264 66bd f366 35bd
00000260: bb6c 5fbd d64c 563e 14fb 7cbc 08c9 6c3c
00000270: 8f72 55be f038 8f39 45be 973c 873b c43e
00000280: bcc0 5fbe deb7 0ebe 8e80 aa3c 1d53 24be
00000290: fccc 663e d947 873d c9f6 d83d 6af5 6a3c
000002a0: 577c c2bc d745 a83d 70b6 0c3e eb64 cbbd
000002b0: 9326 973e 972f e23c 34ca 753d 1e0f 023e
000002c0: 9b53 eebc a810 aebc 787f 883d 6e9d 4a3d
000002d0: 1e5a c53d 3451 3a3d 41eb 9a3d 1bae a83d
000002e0: 57c5 323e 9d21 d23d f8fb 7a3d f61c c0bc
000002f0: edec 31ba 1615 72be fbaa 413e 5066 6fbe
00000300: e8c0 d23d 2b4c f1bc 90e9 c9bd 1428 f43d
00000310: 730f 1cbe abb5 683d a987 c3bd 13dc a63c
00000320: 394e 91bd 4b02 ec3d 6eb1 edbd 5b5c fa3d
00000330: c08f fdbd bce4 e5bd 0cfd 85bd 9a4b 88bd
00000340: 4b0b 32bd c9e3 a4bc 81fe 9e3e 389b b83d
00000350: 5d3e 253e dc25 de3d 393b f0bc f94c 01bc
00000360: d816 a6bd ef24 1f3e 9975 773e a82b eabd
00000370: caaf 59be 7579 713d d622 26be 86c7 823d
00000380: b864 42be eb60 1b3d 79df 5abd d9c7 89bd
00000390: e9b5 823d c384 873d d369 38bd 35bd 62be
000003a0: f480 8e3e 4183 223d e26f 0a3d 2ec2 0fbe
000003b0: 5930 bbbc 235b ff3c 6141 c0bd 6914 7c3c
000003c0: 21c6 56bd 9f9c 243d a0c2 b53d 71c9 9ebd
000003d0: 5004 8e3d 3aae c3bd 425d 943e 7428 b23d
000003e0: c0a5 283e ead5 093d 89f4 edbc 69e2 c23d
000003f0: e1d5 fb3c a004 05be 7016 883e 7f65 f23d

module.16.bias f4 [10]
-0.3440941 -0.24006286 -0.15971087 0.504707 0.04594726 0.030738614 -0.012044425 -0.048744533
-0.12059565 0.16682185
00000000: 1a2d b0be 0ad3 75be 3f8b 23be 7a34 013f
00000010: 3233 3c3d 8ccf fb3c fb55 45bc 59a8 47bd
00000020: dafa f6bd 59d3 2a3e
