models/xue_epoch_8.pth (torch, 592503 bytes, 22 tensors)

module.0.weight f4 [32, 3, 5, 5]
0	0xbd1bea8f	-0.03806549
1	0xbde72f86	-0.11288361
2	0xbd1b56a0	-0.03792441
3	0x3ced79fa	0.028988827
4	0x3c7b8553	0.015351611
5	0xbe50dece	-0.20397493
6	0xbe3358c6	-0.17514333
7	0xbe436a5b	-0.1908354
8	0xbe58303b	-0.21112148
9	0xbe0599a0	-0.13046885
10	0xbe9603d5	-0.292998
11	0xbe76c6de	-0.240993
12	0xbe46cd99	-0.19414367
13	0xbe4b9d3b	-0.19884197
14	0xbe872790	-0.2639737
15	0xbe02d255	-0.12775548
16	0xbe914b37	-0.28377697
17	0xbe725f02	-0.23669055
18	0xbe3eef78	-0.18646038
19	0xbdd6b64e	-0.104839906
20	0xbe4684d2	-0.19386604
21	0xbe24dfb4	-0.16100961
22	0xbe8a2636	-0.26982278
23	0xbe88a8ac	-0.26691186
24	0xbde0927d	-0.109654404
25	0x3d517956	0.051141106
26	0x3d1886a8	0.037237793
27	0xbbe94dbb	-0.007119862
28	0xbd90790d	-0.070543386
29	0xbdbd121d	-0.092319705
30	0x3d1b8fb8	0.037978858
31	0x3d2a0d31	0.041516487
32	0x3d89995c	0.06718704
33	0x3d484b92	0.048900194
34	0x3dfaae93	0.12240329
35	0x3c0a6f4d	0.008449388
36	0xbaa3f5a3	-0.0012509119
37	0x3b582fee	0.0032987553
38	0x3e050eef	0.12993978
39	0x3c63a8fb	0.013895269
40	0xbd5ca9ba	-0.0538728
41	0x3e4459d5	0.19174893
42	0x3e154168	0.14575732
43	0x3cf82207	0.030289663
44	0x3c57fd4e	0.013182951
45	0x3e0eb51a	0.13936272
46	0x3de3fdde	0.11132406
47	0xbdf91f44	-0.121641666
48	0x3d1cfd98	0.038327783
49	0x3c4af3b2	0.012387203
50	0x3bed97b6	0.0072507514
51	0x3d3ed92f	0.04659384
52	0x3dcfe540	0.10151148
53	0x3e13b366	0.14423904
54	0x3c43747b	0.011929627
55	0x3e0887dd	0.13333078
56	0x3e328c52	0.1743634
57	0x3e6ff37e	0.23432729
58	0x3e115782	0.14193538
59	0x3e3f2052	0.18664673
60	0x3e794ec5	0.24346454
61	0x3e4cde35	0.2000664
62	0x3e04ba36	0.12961659
63	0x3e0a8244	0.13526255
64	0x3e16b64d	0.1471798
65	0x3e705f5f	0.23473881
66	0x3e8b5d33	0.27219543
67	0x3e103c15	0.1408542
68	0x3e47cc92	0.19511631
69	0x3ce1bfc1	0.027557256
70	0x3e44bf4f	0.19213603
71	0x3e2b5081	0.16729929
72	0x3d160b05	0.036631603
73	0x3d70bfe7	0.058776762
74	0xbc94f696	-0.018183988
75	0x3d551771	0.05202431
76	0xbc3dcb38	-0.011584096
77	0x3e337483	0.17524914
78	0x3e09fe2f	0.1347587
79	0x3df9176c	0.121626705
80	0x3e167d41	0.14696218
81	0x3e20f42a	0.15718141
82	0x3e871f57	0.26391098
83	0x3e83195d	0.25605288
84	0x3e39e0c8	0.18152153
85	0x3d5d06a8	0.053961426
86	0x3d8648df	0.06556868
87	0x3d2cf055	0.042221386
88	0x3d7209a5	0.05909123
89	0xbd883e5d	-0.0665252
90	0x3ca2bd4c	0.019865654
91	0x3c5d765f	0.013516991
92	0x3d8d2b1f	0.0689299
93	0x3d21bccb	0.039486688
94	0x3dfc78ab	0.12327703
95	0x3d207694	0.039175585
96	0x3cf120f7	0.029434664
97	0xbced826c	-0.028992854
98	0x3d74005e	0.059570663
99	0x3c39ce63	0.01134071
100	0x3d6c3931	0.05767173
101	0xbd391872	-0.04518933
102	0x3c34f9fb	0.011045928
103	0xbd2885fd	-0.041143406
104	0x3d3f3cad	0.046688724
105	0xb91aab47	-0.0001475039
106	0x3d386d5e	0.045026176
107	0xbd7e1355	-0.062030155
108	0x3e0ab234	0.13544542
109	0x3d3a6e29	0.045515213
110	0xbd6d8868	-0.057991415
111	0xbe1149ec	-0.14188355
112	0xbddd7097	-0.108124904
113	0xbe064778	-0.131132
114	0xbc5eed67	-0.013606406
115	0xbda21918	-0.079149425
116	0xbd84737b	-0.06467339
117	0xbcca0437	-0.024660213
118	0xbe0698ae	-0.1314418
119	0xbdb74989	-0.089495726
120	0x3d38158b	0.04494242
121	0xbda32eb4	-0.07967892
122	0x3c9f53bf	0.019449113
123	0x3d8d148e	0.06888686
124	0xbd3efad5	-0.04662593
125	0xbd367619	-0.04454622
126	0x3dab4e41	0.08364535
127	0xbcb3ca71	-0.021947118
128	0x3e44af58	0.19207513
129	0x3e26a487	0.162737
130	0x3d31fbac	0.043452904
131	0x3cc7a9a3	0.024372881
132	0xbcfcaf7d	-0.030845398
133	0x3d84dc40	0.06487322
134	0x3d8695e3	0.065715574
135	0xbd22fe6e	-0.039793424
136	0xbe05155d	-0.1299643
137	0xbd052e8f	-0.032515105
138	0xbe102ddd	-0.14079995
139	0xbde88b3c	-0.11354682
140	0xbd989355	-0.07449976
141	0xbdcffa6c	-0.10155186
142	0xbe4ed2de	-0.20197627
143	0xbdd3b3c6	-0.103370234
144	0xbd1017dd	-0.035179008
145	0xbde73203	-0.11288836
146	0xbdc0ee1f	-0.09420418
147	0xbe0bf2ee	-0.13666889
148	0x3ccbf1ff	0.024895666
149	0x3cbf8c52	0.02338234
150	0x3d3ad842	0.045616396
151	0xbcefc6e3	-0.029269641
152	0xbd9dcf55	-0.07705561
153	0x3ba848f4	0.00513565
154	0x3d85aae3	0.06526735
155	0xbe08b5db	-0.13350622
156	0xbdf575a4	-0.11985329
157	0xbddf02e1	-0.10889221
158	0x3e527e8e	0.2055609
159	0x3df2b83b	0.118515454
160	0xbde38422	-0.11109187
161	0xbd8ec91a	-0.06971951
162	0x3e1239ff	0.14279936
163	0x3e95043a	0.29104787
164	0x3dee8473	0.116463564
165	0x3cc93da2	0.024565522
166	0xbc4b83c9	-0.012421557
167	0x3e3c7422	0.18403676
168	0xbd815516	-0.06315057
169	0xbccb993b	-0.02485334
170	0xbe24d4c4	-0.16096789
171	0x3d8b1eb2	0.06792964
172	0x3d93b096	0.072114155
173	0xbd44ccb3	-0.04804678
174	0xbe50781c	-0.20358318
175	0x3d726162	0.059174903
176	0x3cd79deb	0.026320418
177	0xbe39da9d	-0.181498
178	0xbc8ba7bc	-0.017047755
179	0x3bf4c388	0.007469598
180	0xbc92dfef	-0.017929045
181	0xbe0eeb22	-0.13956884
182	0xbda36c58	-0.07979649
183	0x3cd5e603	0.026110655
184	0x3d3d28e2	0.046181567
185	0x3d5da8b5	0.05411597
186	0xbc548a25	-0.012972389
187	0x3db987ef	0.090591304
188	0x3e48ed71	0.19621827
189	0x3cfa8ca9	0.03058465
190	0x3dca5f59	0.09881467
191	0xbba79043	-0.005113633
192	0x3dc861e3	0.097842954
193	0x3e12b52d	0.14326926
194	0xbdafcbd2	-0.085837975
195	0x3d7613c1	0.060077433
196	0x3e3e29aa	0.18570581
197	0x3d02f2f2	0.031969972
198	0xbceec128	-0.029144838
199	0xbe246688	-0.16054738
200	0xbe21c4e7	-0.15797769
201	0x3c8f7e69	0.017516332
202	0xbd5d583d	-0.05403923
203	0xbd72aa13	-0.059244227
204	0xbb05da2b	-0.0020424228
205	0xbdd895bd	-0.10575435
206	0xbd923c90	-0.07140458
207	0xbd019442	-0.03163553
208	0x3df4a1db	0.11944934
209	0x3e321486	0.17390642
210	0xbdd698d9	-0.10478372
211	0x3d947df8	0.07250589
212	0xbd154171	-0.036439363
213	0x3e62ccc5	0.22148426
214	0xbba62724	-0.005070584
215	0xbcbf7c97	-0.023374839
216	0xbcf7d8b4	-0.0302547
217	0x3e17c00e	0.14819357
218	0xbccfcdb0	-0.025366634
219	0xbd4ddc96	-0.050259195
220	0x3d5f62a1	0.05453742
221	0xbd238c06	-0.03992846
222	0x3dd0b45f	0.10190653
223	0xbd79206d	-0.06082194
224	0xbdbb1b41	-0.09136058
225	0x3a2e90f6	0.0006659174
226	0xbcc68d30	-0.024237245
227	0xbd1635cf	-0.03667241
228	0x3db80073	0.08984461
229	0xbcdbf29f	-0.02684909
230	0x3d1e45fe	0.03864097
231	0xbe86b0ee	-0.26306862
232	0xbdb4c88c	-0.08827314
233	0x3e234c68	0.15947115
234	0x3e509e33	0.20372848
235	0xbdc7ebd0	-0.097617745
236	0xbe6b0781	-0.22952081
237	0xbd5214d4	-0.051289394
238	0x3d99b1a9	0.07504589
239	0x3e10ecb6	0.14152798
240	0xbd10745a	-0.03526721
241	0xbe217997	-0.15769039
242	0xbdaf2907	-0.08552747
243	0x3e1be03e	0.1522226
244	0x3e62dcfe	0.22154614
245	0xbdb65d2a	-0.089044884
246	0x3d2fa1f5	0.042879064
247	0xbdb91f75	-0.09039203
248	0xbda8fb22	-0.08251025
249	0x3e253d7d	0.16136737
250	0xbda8cd4b	-0.082422815
251	0xbcffad90	-0.03121069
252	0x3c375530	0.011189744
253	0x3e116daf	0.14201997
254	0x3e6ddd71	0.23229004
255	0xbd8df771	-0.06931961

module.0.bias f4 [32]
0	0x3d918b3c	0.07106635
1	0xbdbc5467	-0.09195786
2	0x3d6b761a	0.057485677
3	0x3ddb9a79	0.10722823
4	0x3d80ffe0	0.06298804
5	0x3d0e6092	0.034760065
6	0xbd84de07	-0.06487661
7	0x3cda0158	0.026611969
8	0x3da4d6d5	0.080487885
9	0x3d8159d6	0.06315963
10	0x3d81d5dc	0.063396186
11	0xbd9db70b	-0.07700928
12	0x3cbd7477	0.023126824
13	0x3dcd0867	0.10011368
14	0x3d43d3c2	0.04780937
15	0xbd93839c	-0.07202837
16	0xbdd36742	-0.10322429
17	0xbd812401	-0.06305695
18	0xbcf024ea	-0.029314477
19	0x3d9a7726	0.07542257
20	0x3ce1cd65	0.02756376
21	0xbd2e5eac	-0.042570755
22	0x3ddae33d	0.106878735
23	0xbd91c4a5	-0.07117585
24	0xbdbdcfa7	-0.09268122
25	0x3d4f4629	0.05060402
26	0x3d9bc711	0.07606328
27	0x3d1ae60c	0.037817046
28	0x39bb99cf	0.00035782016
29	0xbd82f11d	-0.06393645
30	0x3d5d474f	0.054023083
31	0x3d660ab1	0.05616254

module.1.weight f4 [32]
0	0x3f42e6f3	0.7613365
1	0x3f58b04f	0.84644026
2	0x3f501786	0.81285894
3	0x3f95975d	1.1686817
4	0x3f78e242	0.9722024
5	0x3f812c4f	1.0091647
6	0x3f3e1600	0.7425232
7	0x3f77e149	0.9682813
8	0x3fac6045	1.3466879
9	0x3f4914c8	0.78547335
10	0x3f52b067	0.8230042
11	0x3f7135f9	0.9422298
12	0x3f62285a	0.8834282
13	0x3f760ede	0.96116436
14	0x3f76e32c	0.96440387
15	0x3f8076c7	1.0036248
16	0x3f4c188c	0.79724956
17	0x3f798d2d	0.9748104
18	0x3f54368c	0.8289573
19	0x3fcad0fd	1.5845028
20	0x3f579b53	0.8422138
21	0x3f8ba395	1.0909296
22	0x3f3d48ab	0.7393901
23	0x3f942393	1.1573356
24	0x3faabd24	1.3338971
25	0x3f7a8327	0.9785637
26	0x3f41c604	0.7569277
27	0x3f7dfea1	0.9921666
28	0x3f901855	1.1257426
29	0x3f7dfd18	0.99214315
30	0x3f89b297	1.0757626
31	0x3f98f8a0	1.1950874

module.1.bias f4 [32]
0	0x3df00c7b	0.117211305
1	0xbe5cbe24	-0.21556908
2	0xbe418b59	-0.18900813
3	0xbdad4f22	-0.08462359
4	0xbe367c9b	-0.1782097
5	0xbe6f13a5	-0.23347338
6	0x3d89a1d4	0.067203194
7	0xbe0fb6a3	-0.14034514
8	0xbec132a3	-0.37733945
9	0xbe0d0e79	-0.13775052
10	0xbd76388c	-0.06011252
11	0xbe03b713	-0.12862806
12	0x3ce61566	0.028086375
13	0xba4933ad	-0.0007675242
14	0xbe92b5d6	-0.28654355
15	0xbd98009f	-0.074219935
16	0xbd0d72a6	-0.034533165
17	0xbbdf695e	-0.0068179807
18	0xbe729665	-0.23690183
19	0xbe96ce2d	-0.29454175
20	0xbe7d0974	-0.24710637
21	0xbdfc1fd2	-0.12310757
22	0xbe975cda	-0.29563028
23	0xbdf2605c	-0.11834785
24	0x3cdffa28	0.027340963
25	0xbe97d4e9	-0.29654625
26	0xbe84a22d	-0.2590498
27	0xbd60523a	-0.054765917
28	0xbdbed59e	-0.09318088
29	0xbdff396f	-0.124621265
30	0xbe25ae99	-0.16179885
31	0xbda2e194	-0.07953182

module.1.running_mean f4 [32]
0	0xbc9fcf58	-0.019508049
1	0x3e149b8e	0.14512464
2	0x3ea80529	0.32816437
3	0x3d7b35db	0.061330657
4	0x3e34f3fc	0.17671198
5	0xbed6026b	-0.4179872
6	0xbea2ac34	-0.31772006
7	0xbd7618e4	-0.06008233
8	0xbf217384	-0.6306689
9	0x3ec1b3be	0.37832445
10	0x3e92786a	0.28607494
11	0xbeee0ce5	-0.46494213
12	0x3d85f4f7	0.06540864
13	0x3e16c30d	0.14722843
14	0x3b01c58b	0.0019801583
15	0xbdb57752	-0.08860649
16	0x3dffc094	0.12487903
17	0xbd075b74	-0.0330462
18	0xbe5cdbb7	-0.2156819
19	0x3d8b6d50	0.06807959
20	0x3d2130f7	0.039353337
21	0xbdc89165	-0.09793357
22	0x3f0795c5	0.52962905
23	0xbd222bb6	-0.039592467
24	0xbe840ee9	-0.25792626
25	0xbef4d160	-0.4781599
26	0x3ea17f85	0.31542602
27	0x3d90a28c	0.07062253
28	0x3c856dc5	0.016287694
29	0xbdfaafd4	-0.12240568
30	0x3dc61986	0.09672837
31	0xbbfbf07e	-0.007688581

module.1.running_var f4 [32]
0	0x3e81bdea	0.25340205
1	0x3e264fd7	0.16241394
2	0x3daec1a8	0.08533031
3	0x3ef61c89	0.48068646
4	0x3d30a7f1	0.04312891
5	0x3df66cdc	0.12032482
6	0x3dec01ae	0.11523758
7	0x3d8e61f0	0.06952274
8	0x3e820604	0.25395215
9	0x3db05a67	0.08610993
10	0x3e36e2d8	0.17859972
11	0x3e048041	0.1293955
12	0x3ddea704	0.108716995
13	0x3e995100	0.2994461
14	0x3e1b5b9e	0.15171668
15	0x3e8635e6	0.26212996
16	0x3e585616	0.21126589
17	0x3e3349a0	0.17508554
18	0x3d45239a	0.048129655
19	0x3efc9901	0.49335483
20	0x3dac9c6b	0.08428272
21	0x3db169d3	0.086627625
22	0x3e0cbe82	0.13744548
23	0x3e085084	0.13311964
24	0x3e9a0ba1	0.30086997
25	0x3e5eaa21	0.21744587
26	0x3d502326	0.05081477
27	0x3e617718	0.22018087
28	0x3e5f2bdd	0.21794076
29	0x3e35565a	0.17708722
30	0x3dbb8d49	0.091578074
31	0x3f120592	0.5703975

module.4.weight f4 [32, 32, 5, 5]
0	0xbd90671a	-0.07050915
1	0xbd964c69	-0.07338793
2	0xbd9a60e3	-0.07538011
3	0xbcdddc52	-0.027082596
4	0xbd6790cf	-0.056534585
5	0xbcdb603d	-0.026779288
6	0xb99e66df	-0.00030212753
7	0xbc112b62	-0.008860441
8	0xbca43d7b	-0.020048847
9	0xbcba3f80	-0.022735357
10	0x3c0b7419	0.008511567
11	0xbd629b05	-0.05532362
12	0x39e97f76	0.0004453619
13	0xbd1e8037	-0.038696494
14	0x3abb0cd9	0.0014270797
15	0x3cacbad0	0.021085173
16	0x3b9899a5	0.0046569877
17	0x3d2cbb42	0.04217077
18	0xba9da6d6	-0.001202787
19	0x3c39053d	0.011292753
20	0x3cfc10ec	0.030769788
21	0x3d9b0b44	0.07570508
22	0x3d9d80fa	0.07690616
23	0x3db71dd3	0.089412354
24	0x3d235b57	0.03988203
25	0xbd5312a1	-0.051531438
26	0xbcb021b6	-0.02150045
27	0xbd320f27	-0.04347148
28	0x3c163205	0.009167199
29	0xbca0932c	-0.019601427
30	0xbc5048aa	-0.012712637
31	0xbceff4ef	-0.029291598
32	0xbd11d2fe	-0.03560161
33	0xbd34f165	-0.044175524
34	0x3c3d1f5c	0.011543121
35	0x3cee2af8	0.029073223
36	0x3d5c9c6d	0.053860117
37	0x3d681eaa	0.05666987
38	0x3d329182	0.0435958
39	0xb969e4a6	-0.0002230579
40	0xbdaefbf0	-0.08544147
41	0xbcf73c79	-0.030180203
42	0xbc99cd7a	-0.018774737
43	0xbcf54d61	-0.029944124
44	0xbd3a9c95	-0.045559485
45	0xbb6aad00	-0.0035808682
46	0x3c2b67bb	0.010461743
47	0x3cd9dff9	0.026596056
48	0x3d9b3636	0.07578699
49	0x3d338d2a	0.043835796
50	0xbd951dc2	-0.072810665
51	0xbdaaf9a5	-0.08348397
52	0xbd3dc705	-0.046332378
53	0xbd3e20e9	-0.046418104
54	0xbd4211a0	-0.04738009
55	0xbd7186e7	-0.058966544
56	0xbd15c48f	-0.036564406
57	0xbcd5d001	-0.02610016
58	0xbd1f71d4	-0.038926914
59	0xbd21e396	-0.039523683
60	0xbd3763eb	-0.044773024
61	0xbbd458eb	-0.0064803264
62	0xbc4add7e	-0.012381909
63	0xbd57cfb3	-0.05268831
64	0xbcc39af2	-0.023877595
65	0xbdd16340	-0.102240086
66	0xbda54b81	-0.08071042
67	0xbc8c0fed	-0.017097438
68	0xbd107912	-0.03527171
69	0xbd3558ab	-0.044274013
70	0xbc773528	-0.015088357
71	0x3ccb53a4	0.024820156
72	0x3cb57053	0.022148287
73	0xbc307e3f	-0.010772287
74	0x3bde8fae	0.0067920303
75	0xbdc1fe01	-0.094722755
76	0xbd07cee5	-0.033156294
77	0x3cca8054	0.024719395
78	0x3c5e94b9	0.013585263
79	0xbc42e49d	-0.011895326
80	0xbc8a608d	-0.016891742
81	0x3d1b56e4	0.037924662
82	0x3d3c0f90	0.04591328
83	0xbce6d5ba	-0.028178085
84	0x3ca6b4e3	0.020349925
85	0xbd9e2326	-0.07721548
86	0xbcbffc21	-0.023435654
87	0x3d4adcfd	0.049527157
88	0xbcf39b69	-0.029737191
89	0xbcf0aaa9	-0.029378252
90	0xbd810a8c	-0.0630084
91	0xbd3590aa	-0.044327416
92	0xbd24b70d	-0.040213633
93	0xbd925b9c	-0.07146379
94	0xbd11f14d	-0.035630513
95	0xbdd46a80	-0.10371876
96	0xbdac0757	-0.083998375
97	0xbce44c17	-0.027868314
98	0xbd8e30c6	-0.069428965
99	0xbd389203	-0.045061123
100	0xbbe0385d	-0.0068426565
101	0xbd0584df	-0.03259742
102	0xbd2b6174	-0.041840985
103	0xbcf6f88b	-0.030147811
104	0xbd2dd9f9	-0.042444203
105	0x3d132310	0.03592211
106	0xbb90739f	-0.0044083144
107	0x3aeb665b	0.0017959581
108	0xbc3bc873	-0.011461365
109	0x3d19e5d4	0.037572697
110	0x3ccbc91c	0.02487617
111	0xbd2c3bd0	-0.04204923
112	0xbd3437c9	-0.043998513
113	0xbc75a0ba	-0.0149919335
114	0x3ce33a4c	0.027737759
115	0xbc3a6d52	-0.011378603
116	0x3d6d4c01	0.05793381
117	0xbd0b2b7f	-0.033977028
118	0xbd94407d	-0.07238863
119	0xbd390b2a	-0.045176663
120	0xbd7f503e	-0.062332384
121	0xbd9f0ab3	-0.077657126
122	0xbd743bc8	-0.059627324
123	0xbc213aea	-0.009840706
124	0x3d148ff6	0.036270104
125	0xbd58a74a	-0.052893914
126	0xbd902bcb	-0.07039603
127	0xbc61c12b	-0.013778965
128	0xbd9ed3db	-0.07755252
129	0xbd889194	-0.06668392
130	0xbdac42a6	-0.0841115
131	0xbd0937a2	-0.03350032
132	0xbc0eda6a	-0.008719066
133	0xbd0d9eca	-0.03457526
134	0xbdc82098	-0.09771842
135	0x3bf21f14	0.0073889587
136	0x3d847685	0.06467918
137	0x3e045f8c	0.12927073
138	0x3d06c9f8	0.032907456
139	0x3c575872	0.013143646
140	0x3e3b5f00	0.18297958
141	0x3e95d8b2	0.29266888
142	0x3e8d1037	0.27551433
143	0x3e7308ef	0.23733877
144	0x3e1dc3e3	0.15406756
145	0xbbb80460	-0.005615756
146	0x3ccf5c49	0.02531256
147	0x3cdd2ca7	0.026998831
148	0xbc968f2c	-0.018378817
149	0xbae6aa8e	-0.0017598437
150	0x3d1d75af	0.03844231
151	0x3d6edd67	0.058316614
152	0x3d232fde	0.03984057
153	0x3c6aaa9c	0.014322903
154	0x3c0257e2	0.007955523
155	0x3c477622	0.012174161
156	0x3d50cabd	0.050974596
157	0x3d390688	0.045172244
158	0x3d0f71fe	0.03502082
159	0x3bc09c3f	0.005878001
160	0xbae3971d	-0.0017363761
161	0xbd2b6cee	-0.04185193
162	0x3b99303b	0.004674939
163	0xbd0eb6de	-0.034842364
164	0xbb2cd299	-0.0026370643
165	0x3c714807	0.014726645
166	0x3da3f3b9	0.08005471
167	0x3c7da866	0.015482044
168	0x3cce70fa	0.025200356
169	0x3cb1f856	0.021724861
170	0x3c488dae	0.01224081
171	0xbd1de34f	-0.038546856
172	0x3bc4c218	0.006004583
173	0xbd31f7a4	-0.04344906
174	0x3c8a7c5b	0.016905
175	0xbc23103d	-0.009952602
176	0xbc3c4504	-0.011491064
177	0x3cea7ae4	0.028623052
178	0xbcec3103	-0.028831964
179	0xbcc7e601	-0.024401667
180	0xbc72418a	-0.014786134
181	0xbc785bbc	-0.01515859
182	0xbc419b6e	-0.0118168425
183	0x3c99c519	0.018770741
184	0xbcf12ba0	-0.029439747
185	0x3c802d93	0.015646731
186	0x3d48aae0	0.048991084
187	0x3de6b4ce	0.112649545
188	0x3d7b79d2	0.061395474
189	0x3d44acb9	0.048016284
190	0x3d27c65f	0.040960666
191	0xbcca3206	-0.024682056
192	0xbd0d1829	-0.03444687
193	0x3cb71961	0.022350969
194	0x3cbb4600	0.022860527
195	0xbd168a47	-0.036752965
196	0xbcb1eb60	-0.02171868
197	0xbdbd9da7	-0.092585854
198	0xbd7b7de5	-0.06139936
199	0xbd7706ce	-0.060309224
200	0xbd4aec63	-0.049541842
201	0xbbe44aad	-0.00696691
202	0xbd8a5a6d	-0.067555286
203	0xbcbec65e	-0.023287948
204	0xbd88d4b7	-0.06681197
205	0x3bab153f	0.0052210386
206	0x3d193568	0.037404448
207	0xbd36a6a5	-0.04459252
208	0xbcc7b5de	-0.024378713
209	0xbd75d4f1	-0.06001753
210	0xbca9eb31	-0.02074203
211	0xbc8a45df	-0.01687902
212	0xbcc8a962	-0.02449483
213	0xbd5a1489	-0.05324224
214	0xbd4ccaca	-0.049998082
215	0xbc8c4b47	-0.017125739
216	0xbc96dd26	-0.018415999
217	0xbcc2d81d	-0.023784691
218	0xbd5e0b67	-0.054210093
219	0xbdd74fcf	-0.10513269
220	0x3d98bf90	0.07458413
221	0x3dda3e58	0.106564224
222	0x3dadb5f8	0.084819734
223	0x3de5394f	0.11192571
224	0x3d686d04	0.05674459
225	0xbcedf1ce	-0.029045966
226	0xbd159883	-0.0365224
227	0xbd04e7f5	-0.032447774
228	0x391ea6bd	0.00015130169
229	0xbc8f8865	-0.017521093
230	0xbc915fe0	-0.017745912
231	0xbd0f3356	-0.034961067
232	0xbba1a97d	-0.0049335347
233	0xbd3f97f6	-0.04677578
234	0x3bad710f	0.0052930187
235	0x3d033aad	0.03203838
236	0x3c409992	0.011755364
237	0x3d05f83c	0.032707438
238	0xbc0cf508	-0.008603342
239	0xbca738c6	-0.020412814
240	0x3b9886fc	0.0046547633
241	0xbd3fdcef	-0.046841558
242	0xbcc82ffc	-0.024436943
243	0xbd1bfa7b	-0.038080674
244	0xbcdbd434	-0.026834585
245	0xbcb81835	-0.02247248
246	0x3c671e24	0.014106307
247	0xbcad88e2	-0.021183435
248	0x3c378f0e	0.0112035405
249	0x3ab43e6c	0.0013751513
250	0xbb4fd362	-0.0031711687
251	0xbd5d586b	-0.0540394
252	0xbd31df8f	-0.043426093
253	0xbcfa62d0	-0.030564696
254	0x3c77afb5	0.015117575
255	0xbcb29ef1	-0.021804305

module.4.bias f4 [32]
0	0xbd07f606	-0.03319361
1	0xbb1667ac	-0.0022949977
2	0x3c846b35	0.016164402
3	0xbbe87df3	-0.0070950924
4	0xbcb394c1	-0.021921517
5	0x3cdcfd94	0.026976384
6	0x3cb674a2	0.022272412
7	0xbcb6f129	-0.022331791
8	0x3ca58597	0.020205302
9	0x3d108c5c	0.035290107
10	0xbcfe87ff	-0.031070707
11	0x3b291f88	0.0025806148
12	0xbc6af31f	-0.014340191
13	0xbcaefbdd	-0.021360332
14	0xbd033492	-0.032032557
15	0x3c17613a	0.009239489
16	0x3ccb5eb0	0.024825424
17	0xbc98978f	-0.018626956
18	0xbadce62a	-0.0016853262
19	0xbcd723af	-0.026262132
20	0x3cc5ee0c	0.024161361
21	0xbcfa817e	-0.030579325
22	0x3b90833f	0.004410177
23	0x3c325b93	0.010886091
24	0x39c5988b	0.0003768842
25	0x3cd929ea	0.026509244
26	0x3cd0fd6d	0.025511468
27	0xbcf7d960	-0.03025502
28	0x3b6e0f16	0.003632491
29	0xbcf8416c	-0.030304633
30	0x396f6224	0.00022829376
31	0x3b80873e	0.003922372

module.5.weight f4 [32]
0	0x3f3af8b4	0.7303574
1	0x3f5f638e	0.87261283
2	0x3f74a27d	0.9556044
3	0x3f77ad0b	0.9674842
4	0x3f5d3a44	0.8641703
5	0x3f83cb17	1.0296353
6	0x3f5e1c68	0.86762094
7	0x3f824b5f	1.0179251
8	0x3f87480e	1.0568864
9	0x3f6a1d71	0.91451174
10	0x3f86c84c	1.0529876
11	0x3f8620a2	1.0478709
12	0x3f6ca3ab	0.9243724
13	0x3f9d4afd	1.228851
14	0x3f782156	0.96925867
15	0x3f8a12a3	1.0786937
16	0x3f758ba9	0.9591623
17	0x3f6e1be6	0.9301132
18	0x3f80a108	1.0049143
19	0x3f847e39	1.035102
20	0x3f649542	0.8929025
21	0x3f4d878a	0.8028494
22	0x3f83046a	1.0235722
23	0x3f530db1	0.82442766
24	0x3f76a5f9	0.96347004
25	0x3f85cf72	1.0453932
26	0x3f6e178e	0.9300469
27	0x3f7370e9	0.9509416
28	0x3f871f51	1.0556432
29	0x3f861f83	1.0478367
30	0x3f8dcd22	1.1078227
31	0x3f71f11a	0.94508517

module.5.bias f4 [32]
0	0xbe4eeb7e	-0.2020702
1	0xbe2c573d	-0.16830154
2	0xbeae1f50	-0.34008265
3	0xbea90045	-0.33008018
4	0xbd822ec2	-0.063565746
5	0xbe6942c2	-0.22779372
6	0xbe4a2e32	-0.19744185
7	0xbe94921b	-0.2901772
8	0xbe904b00	-0.2818222
9	0xbe9a8437	-0.30178997
10	0xbeff2768	-0.49834752
11	0xbe932c32	-0.28744656
12	0xbea719d3	-0.3263689
13	0xbea991bc	-0.33119
14	0xbebe5994	-0.37177718
15	0xbe5a0af8	-0.21293247
16	0xbea8f4d2	-0.32999283
17	0xbe8c696a	-0.27424175
18	0xbe5ee893	-0.21768408
19	0xbec9a18b	-0.3938106
20	0xbe9edc0f	-0.31027266
21	0xbe15144f	-0.14558528
22	0xbea5de2d	-0.3239607
23	0xbeaa9abb	-0.33321175
24	0xbea6b9f7	-0.32563755
25	0xbe2fb1d2	-0.17157677
26	0xbe65ebf6	-0.22453293
27	0xbe8de13d	-0.27710906
28	0xbedf07e5	-0.4356071
29	0xbeab61e8	-0.33473134
30	0xbe2807fe	-0.16409299
31	0xbeacd70a	-0.33757812

module.5.running_mean f4 [32]
0	0x3ebc1339	0.36733416
1	0xbe6301d7	-0.2216867
2	0xc00a43f7	-2.1603982
3	0x3fc40dc1	1.5316697
4	0xbf029832	-0.5101348
5	0xbe2d9cbc	-0.1695432
6	0xbde281e3	-0.1105993
7	0xc03f55f2	-2.9896207
8	0xc01e6708	-2.4750385
9	0xc0197865	-2.3979733
10	0xbff89abf	-1.9422225
11	0xc0804092	-4.007882
12	0xbfdc614c	-1.7217193
13	0xc05e8f63	-3.4775016
14	0xbfd4082f	-1.6564997
15	0xc05d3bfc	-3.4567862
16	0xc0211ba0	-2.517311
17	0xbf6b4a1e	-0.9190997
18	0xc044f2af	-3.0773122
19	0xbe9a6ab2	-0.30159527
20	0xbfa18b0f	-1.2620562
21	0x3f1347e9	0.575316
22	0xc0807fea	-4.0156145
23	0xbf960d01	-1.1722718
24	0xc0245b29	-2.568064
25	0xbf54514f	-0.8293657
26	0xbfa4948d	-1.2857834
27	0xbfb147d8	-1.385005
28	0xc0094b60	-2.1452255
29	0xc022f0bf	-2.545944
30	0xbfb57d10	-1.4178791
31	0xbfaaf3ea	-1.3355687

module.5.running_var f4 [32]
0	0x4088ab48	4.2709084
1	0x40684f88	3.6298542
2	0x40b820ad	5.7539887
3	0x40a201ae	5.062705
4	0x40b45831	5.6357656
5	0x40a38c4e	5.110877
6	0x40d8bf8f	6.7733836
7	0x40cca130	6.394676
8	0x40e78ef6	7.2362013
9	0x40ddffe8	6.9374886
10	0x40b3ea89	5.62238
11	0x40be1c60	5.9409637
12	0x4093bcfb	4.616819
13	0x411f154c	9.942699
14	0x4071e381	3.7795107
15	0x40fba8a5	7.8643365
16	0x40931cff	4.5972896
17	0x409734b9	4.725186
18	0x407a3ec0	3.91008
19	0x40ad615e	5.4181356
20	0x40be4a51	5.946572
21	0x4091e9c2	4.559785
22	0x40cb44ba	6.3521395
23	0x40834a29	4.1028028
24	0x409d8a5e	4.9231405
25	0x40952855	4.6611733
26	0x405718b7	3.3608835
27	0x40a01ee2	5.00377
28	0x40a74664	5.2273426
29	0x40b9b514	5.8033543
30	0x407f8f78	3.9931316
31	0x408cc2be	4.3987722

module.8.weight f4 [64, 32, 5, 5]
0	0xbc2291aa	-0.009922424
1	0xbc3f073a	-0.011659438
2	0xbd74e440	-0.05978799
3	0xbd505b5b	-0.050868373
4	0xbd96301a	-0.073333934
5	0x3b98161d	0.004641308
6	0xbd1d10e8	-0.0383462
7	0xbc77e985	-0.015131359
8	0xbd57526b	-0.052568834
9	0xbd094a36	-0.03351804
10	0x3d32ed0f	0.043683108
11	0x3c3433e0	0.010998696
12	0x3cd911eb	0.026497802
13	0xbb4d6153	-0.0031338527
14	0x3d61f702	0.055167206
15	0x3d59dc9c	0.053188905
16	0xbb94ef06	-0.0045450954
17	0xbd807f13	-0.062742375
18	0xbc343f90	-0.011001483
19	0x3cbab250	0.022790104
20	0x3d96cc8c	0.07363233
21	0x3c8ad0ec	0.016945325
22	0x3c87a14f	0.01655641
23	0x3d30b19e	0.04313814
24	0x3d6d5b5d	0.05794846
25	0x3c1e65bb	0.009667809
26	0xbc5241dc	-0.012833085
27	0x3d8411ef	0.06448733
28	0x3bbdbd6a	0.005790402
29	0xbc6e393c	-0.014540013
30	0x3d20a456	0.039219223
31	0xbb85c3e0	-0.004082188
32	0xbc341ae0	-0.010992736
33	0xbcab0ed0	-0.020881087
34	0xbcc1c34f	-0.0236527
35	0x3d19a479	0.03751037
36	0x3d5b89af	0.053598102
37	0x3db354bc	0.08756396
38	0x3d17f6eb	0.037100714
39	0x3d2b99c2	0.04189468
40	0x3d914ae8	0.07094365
41	0xbb3a4dcc	-0.0028427718
42	0x3d32e56b	0.04367582
43	0x3c37e2ce	0.011223508
44	0x3d18dc0e	0.037319236
45	0x3d01bd02	0.031674393
46	0x3d363897	0.044487562
47	0x3ccd4a7a	0.025059927
48	0x3d397081	0.045273308
49	0x3d23480d	0.039863635
50	0x3d0ece59	0.034864757
51	0x3d8afc11	0.06786359
52	0x3dac2e57	0.08407276
53	0x3d8660d7	0.065614395
54	0x3adb96ab	0.0016753277
55	0xbc27f815	-0.010252018
56	0x3bf4f030	0.0074749216
57	0x3d417b55	0.04723676
58	0x3d3e819d	0.046510328
59	0x3cba9009	0.02277376
60	0x3ca1e54c	0.019762658
61	0xbc7d22a5	-0.015450154
62	0xba99992b	-0.0011718621
63	0x3ce28c3c	0.02765476
64	0xbbc36766	-0.005963254
65	0x3d054051	0.03253204
66	0x3bb425bf	0.0054976637
67	0xbd4e70f1	-0.050400678
68	0xbd0df078	-0.034653157
69	0x3b8a1625	0.0042140656
70	0x3c3edae5	0.011648868
71	0x3aabb22f	0.0013099367
72	0x3cf7c49e	0.030245122
73	0xbcace9df	-0.021107612
74	0xbc9b136a	-0.018930156
75	0xbcc04316	-0.023469489
76	0x3cb23df2	0.021758053
77	0x3b2d19d0	0.002641309
78	0xbc4a8b56	-0.012362322
79	0xbbcdf225	-0.0062849694
80	0x3bb723b3	0.0055889725
81	0xbcaaa933	-0.020832634
82	0xbd6f32ed	-0.058398176
83	0x3c8abe8d	0.016936565
84	0x3ca92ec4	0.020652182
85	0xbc8b8739	-0.017032253
86	0xbd48c472	-0.04901547
87	0x3ca8a7bb	0.020587793
88	0xbca821f6	-0.020524006
89	0xbd1125dc	-0.035436496
90	0xbddc8d74	-0.107691675
91	0xbc7ecd06	-0.015551811
92	0x3c882e5a	0.016623665
93	0x3c349d1c	0.011023786
94	0xbcdfdf90	-0.027328283
95	0xbdf39ec1	-0.11895514
96	0xbda69571	-0.081339724
97	0x3c810170	0.015747756
98	0x3d79dd90	0.061002314
99	0xbd1807ac	-0.03711669
100	0xbdd7b3f5	-0.10532371
101	0xbd7bea1c	-0.06150256
102	0x3a8b8273	0.0010643735
103	0xbc723ff1	-0.014785753
104	0xbc2fec25	-0.010737454
105	0xbd44f861	-0.048088435
106	0xbd8c6c11	-0.068565495
107	0x3d25a0d4	0.04043658
108	0x3d0c018d	0.034181166
109	0x3cb246b1	0.021762224
110	0x3d415ba2	0.04720653
111	0xbd6b26db	-0.057410102
112	0xbcee27fc	-0.0290718
113	0x3d05d51c	0.03267394
114	0x3d98090f	0.07423603
115	0x3d5ed605	0.054403324
116	0xbbebeae1	-0.0071996306
117	0xbd0cfd7e	-0.034421436
118	0xbca62e7e	-0.020285841
119	0x3a5dbb24	0.0008458367
120	0x3d73dbb9	0.059535716
121	0x3cfaf883	0.030636078
122	0xbc998650	-0.018740803
123	0xbd0cf33b	-0.03441165
124	0xbc83d091	-0.016090663
125	0xbce00171	-0.027344437
126	0xbce94498	-0.02847509
127	0xbd7b40ec	-0.06134121
128	0xbd56fbf3	-0.05248637
129	0xbc82404c	-0.0158998
130	0x3c395e4f	0.011313989
131	0x3d7507c9	0.059821878
132	0xbd86558c	-0.065592855
133	0xbd0fe1bc	-0.035127386
134	0xba8964ac	-0.0010482273
135	0xbd5a79bd	-0.053338755
136	0x3d846ca2	0.064660326
137	0xbcca8956	-0.02472369
138	0x3c1774d4	0.009244163
139	0xbc86d166	-0.01645727
140	0xbc2963a7	-0.0103387
141	0x3c956c21	0.018240036
142	0x3d3150b1	0.043289844
143	0x3c209084	0.00980008
144	0xbd51c1b0	-0.051210105
145	0xbd681502	-0.05666066
146	0x3c11fd96	0.008910557
147	0x3cfb59b8	0.03068243
148	0x3cee20e5	0.02906842
149	0xbcaf3fec	-0.021392785
150	0x3cc3dec8	0.023909941
151	0x3d85231a	0.06500836
152	0x3d3a43ae	0.0454747
153	0x3d669c62	0.056301482
154	0x3cf87009	0.03032686
155	0x3d07ffda	0.033202983
156	0xbb9e52c7	-0.004831645
157	0xb9705db2	-0.00022923088
158	0xbb761660	-0.0037549958
159	0x3c4169f8	0.01180505
160	0x3d899656	0.067181274
161	0x3d5a99c9	0.053369317
162	0x3d0c3fb6	0.034240447
163	0x3d7694fb	0.060200673
164	0x3c9991f6	0.018746357
165	0xbd46dfa0	-0.04855311
166	0x3c06fc42	0.008238854
167	0x3c6b1a0c	0.014349472
168	0xbcb1d826	-0.021709513
169	0xbd1d8525	-0.038457055
170	0xbbb3409f	-0.00547035
171	0xbd360d70	-0.04444641
172	0xbd17a372	-0.037021108
173	0xbd7a9dd4	-0.061185673
174	0xbd83814c	-0.06421146
175	0xbd2450a3	-0.040115964
176	0x3aa4a794	0.0012562149
177	0x3d40f96f	0.04711288
178	0xbcd862d3	-0.02641431
179	0xbc9ade3f	-0.018904803
180	0xbd3d1e7e	-0.046171658
181	0x3ce1162f	0.027476398
182	0x3d139a1f	0.036035653
183	0x3cf3d4bc	0.029764526
184	0xbc69b405	-0.014264111
185	0x3a158a86	0.00057045405
186	0x3c4dfe29	0.012572804
187	0x3d4015f4	0.046895936
188	0x3d499f4a	0.049224176
189	0x3c314ca8	0.010821499
190	0xbd098272	-0.033571668
191	0xbb85916a	-0.0040761726
192	0x3cf60e60	0.030036151
193	0xbca5cdce	-0.020239737
194	0x395016e2	0.0001984495
195	0x3d5f7bc1	0.05456138
196	0x3d392f94	0.04521139
197	0xbd5261f2	-0.05136294
198	0xbd8f4593	-0.06995692
199	0xbc85d9c2	-0.016339187
200	0x3d055173	0.03254838
201	0xbcd91368	-0.026498511
202	0x3b2966e4	0.002584868
203	0xbcb44dcc	-0.022009753
204	0xbdc9f26c	-0.098606914
205	0x3d99658c	0.07490072
206	0x3d821688	0.06351954
207	0x3c765431	0.015034721
208	0xbd9cc522	-0.076547876
209	0xbdbf24ab	-0.09333166
210	0x3db0885d	0.08619759
211	0x3d880e31	0.06643332
212	0xbd0888af	-0.033333477
213	0xbe0d884b	-0.13821523
214	0xbe313419	-0.1730503
215	0x3dfd98af	0.12382638
216	0x3d83eafb	0.06441303
217	0xbc3b3d6d	-0.011428219
218	0xbe0367d4	-0.12832576
219	0xbe0c70cc	-0.13714904
220	0x3d8b01af	0.067874305
221	0x3d863f84	0.065550834
222	0x3d60e19c	0.054902658
223	0xbd2e6ca5	-0.04258408
224	0x3c4cd24c	0.012501311
225	0x3d2a1b04	0.04152967
226	0x3cf4feba	0.02990662
227	0x3be5e640	0.0070159733
228	0xbb2c5865	-0.0026297804
229	0x3c8830c3	0.016624814
230	0xbbcb47e1	-0.006203637
231	0x3ccbc6d5	0.024875084
232	0x3c8c38c6	0.017116915
233	0x3c1f678f	0.00972928
234	0x3aff3f34	0.0019473792
235	0xbb5ce33e	-0.0033704783
236	0x3c7a988f	0.015295162
237	0x3ceb25e3	0.02870459
238	0x3cb0d3c4	0.021585353
239	0x3be043c9	0.006844018
240	0x3d22e8e2	0.039772876
241	0x3c7369ed	0.014856798
242	0xbc46ba2f	-0.012129351
243	0x3d1b8e91	0.03797776
244	0x3dce02cc	0.10059127
245	0x3cd51d0e	0.02601483
246	0xbc848ba2	-0.016179863
247	0xbd5b71e1	-0.0535754
248	0x3c288ecd	0.010287953
249	0x3d3baacc	0.04581718
250	0x3d9fd3dc	0.07804081
251	0x3bce03fc	0.006287096
252	0x3d70b749	0.058768544
253	0x3cf2b33a	0.029626478
254	0x3c4d82f6	0.012543431
255	0x3cea9d43	0.028639441

module.8.bias f4 [64]
0	0x3cbe2bb0	0.023214191
1	0xbc6169d2	-0.01375814
2	0x3c3100aa	0.010803381
3	0xbcaa5d2c	-0.020796381
4	0xbaedf041	-0.0018153266
5	0xbc15b8da	-0.00913831
6	0x3c9eafee	0.019371
7	0xbd02e61e	-0.031957738
8	0x3cf8809a	0.03033476
9	0xbcf9192c	-0.03040751
10	0xbd06bc16	-0.032894216
11	0x3c3181d5	0.010834177
12	0x3a6efd5d	0.00091167336
13	0xb7372250	-1.0915639e-05
14	0x39c28f3c	0.0003710928
15	0x3cff49be	0.031163093
16	0xbc9bdc6e	-0.019026008
17	0xbce7eb3c	-0.02831041
18	0xbcd4ad31	-0.02596149
19	0x3d05576d	0.03255408
20	0x3c7f594a	0.015585253
21	0xbc9207fd	-0.017826075
22	0xbcdb2f66	-0.026756
23	0xbcd24613	-0.02566818
24	0xbae2700f	-0.0017275828
25	0xbaeb4b0f	-0.0017951446
26	0x3cf01036	0.029304605
27	0xba4153c9	-0.00073748507
28	0xbd0e7a96	-0.034784876
29	0xbd0b07fa	-0.033943154
30	0xbce47140	-0.027886033
31	0xbcfebd4a	-0.03109612
32	0x3d0659a1	0.03280032
33	0x3c5dae7b	0.013530369
34	0x3bd1eff5	0.006406779
35	0xbc9ab1a0	-0.018883526
36	0xbc75e1c8	-0.015007444
37	0x3d06cf89	0.032912765
38	0xbb851d06	-0.0040622978
39	0xbccc2a3a	-0.024922479
40	0xbc828d2c	-0.015936457
41	0xbcedf96f	-0.029049603
42	0x3b100744	0.0021976987
43	0xbd10018c	-0.035157725
44	0xbcf08bcf	-0.029363541
45	0xbcebe9b5	-0.028797964
46	0xbc2f741d	-0.010708836
47	0x3c23be5a	0.009994114
48	0xbcbcbc8e	-0.023039129
49	0xbd0029d9	-0.03128991
50	0xbd0dd82b	-0.034629982
51	0x3bb8b804	0.0056371707
52	0xb9a1a875	-0.00030833823
53	0xbc1f16a0	-0.009709984
54	0xbc2dd626	-0.010610139
55	0xbcdb4d39	-0.026770221
56	0xbb33caa2	-0.002743401
57	0x3b3ae4a1	0.002851762
58	0xbbe1fe3a	-0.0068967612
59	0xbc6781b9	-0.014130049
60	0xbbdc9711	-0.0067318757
61	0xbd09da18	-0.033655256
62	0xbb4f55f1	-0.0031636918
63	0xbcb8defa	-0.022567261

module.9.weight f4 [64]
0	0x3f3695f5	0.71322566
1	0x3f35e89d	0.71058065
2	0x3f27bf67	0.6552643
3	0x3f45be68	0.7724366
4	0x3f3d7770	0.7401037
5	0x3f333658	0.70004797
6	0x3f26a2a9	0.6509195
7	0x3f4bc0c1	0.79590994
8	0x3f409934	0.7523377
9	0x3f26a879	0.6510082
10	0x3f410efa	0.7541348
11	0x3f0f9dd5	0.5610021
12	0x3f2c3e5b	0.67282647
13	0x3f289c20	0.6586323
14	0x3f33579e	0.7005557
15	0x3f019945	0.50624496
16	0x3f3c9c79	0.7367626
17	0x3f338332	0.70122063
18	0x3f282b6e	0.6569127
19	0x3f33ff99	0.70311886
20	0x3f47f857	0.7811331
21	0x3f458af6	0.7716516
22	0x3f2dd319	0.67900234
23	0x3f2fa808	0.6861577
24	0x3f06fa6d	0.5272587
25	0x3f2b45c1	0.6690331
26	0x3f43bbc2	0.7645837
27	0x3f25e02d	0.6479519
28	0x3f358a08	0.70913744
29	0x3f20c8b5	0.62806255
30	0x3f543ca8	0.82905054
31	0x3f4016eb	0.7503497
32	0x3f298403	0.6621706
33	0x3f29ec78	0.6637645
34	0x3f30483a	0.6886021
35	0x3f379c99	0.71723324
36	0x3f1ae135	0.6049989
37	0x3f29cb73	0.66326064
38	0x3f5aca4b	0.85464925
39	0x3f12895e	0.57240856
40	0x3f2ece40	0.6828346
41	0x3f42269a	0.7584015
42	0x3f129829	0.5726343
43	0x3f2883e2	0.6582624
44	0x3f4d003c	0.8007848
45	0x3f3ff4b4	0.7498276
46	0x3f201814	0.6253674
47	0x3f248021	0.6425801
48	0x3f33ae95	0.70188266
49	0x3f412cfe	0.7545928
50	0x3f23606c	0.63819003
51	0x3f395e2c	0.7240932
52	0x3f09a748	0.53770876
53	0x3f522cb1	0.82099444
54	0x3f1d8642	0.61532986
55	0x3f416cd4	0.75556684
56	0x3f3fbc8b	0.7489707
57	0x3f315001	0.692627
58	0x3f1edb29	0.6205316
59	0x3f2a4cea	0.6652361
60	0x3f3dc4c6	0.7412838
61	0x3f37fbfd	0.7186888
62	0x3f5084cb	0.81452626
63	0x3f31879f	0.69347566

module.9.bias f4 [64]
0	0xbf12f02e	-0.57397735
1	0xbef0914e	-0.4698586
2	0xbee67b8c	-0.45016134
3	0xbf2a8711	-0.66612345
4	0xbf1fb122	-0.6237966
5	0xbf112ea4	-0.5671179
6	0xbeed81a9	-0.46387985
7	0xbf42d776	-0.7611002
8	0xbf0de025	-0.5542014
9	0xbeff3fb5	-0.49853292
10	0xbf097a2e	-0.53702056
11	0xbef712d0	-0.4825654
12	0xbedb45ac	-0.42826593
13	0xbeebaaaf	-0.4602866
14	0xbf0d1a11	-0.551179
15	0xbee96a20	-0.4558878
16	0xbefae1c4	-0.4900037
17	0xbeeaff44	-0.45897877
18	0xbedceef5	-0.4315106
19	0xbf12333e	-0.5710944
20	0xbf1ce45e	-0.6128596
21	0xbf054f02	-0.5207368
22	0xbeec316c	-0.46131456
23	0xbf021dee	-0.5082692
24	0xbeec7f5b	-0.46190915
25	0xbf0479f5	-0.5174859
26	0xbf0032f5	-0.50077754
27	0xbf1ad2c8	-0.60477877
28	0xbf1a2fc5	-0.6022914
29	0xbee30b78	-0.44344687
30	0xbf3192ef	-0.6936483
31	0xbf0c7aca	-0.5487486
32	0xbf07807f	-0.52930444
33	0xbf0117f0	-0.5042715
34	0xbed740df	-0.4204168
35	0xbf02acb7	-0.5104479
36	0xbed47f78	-0.415035
37	0xbedfb677	-0.43693897
38	0xbf1c1847	-0.60974544
39	0xbeea6747	-0.4578192
40	0xbf0dd038	-0.5539584
41	0xbf015b52	-0.5052997
42	0xbef5f974	-0.4804188
43	0xbefc66d8	-0.49297214
44	0xbf1b86ab	-0.6075236
45	0xbefdaaf4	-0.4954449
46	0xbf057e10	-0.5214548
47	0xbef70781	-0.48247913
48	0xbeda0cbe	-0.42587847
49	0xbef3381b	-0.47503743
50	0xbf174d8c	-0.591027
51	0xbf11d170	-0.569602
52	0xbed525cf	-0.41630408
53	0xbf1708d1	-0.5899783
54	0xbefc80df	-0.4931707
55	0xbeebf1cc	-0.46082914
56	0xbf009667	-0.50229496
57	0xbf061cbf	-0.52387613
58	0xbed9c61b	-0.42533955
59	0xbf0a2aa5	-0.5397132
60	0xbef1b237	-0.4720628
61	0xbf00acd2	-0.502637
62	0xbf210a86	-0.6290668
63	0xbf0aa2fb	-0.5415494

module.9.running_mean f4 [64]
0	0xbf473185	-0.77809936
1	0xc00aba64	-2.1676264
2	0xbfc2f4ed	-1.5230995
3	0xbe3707e0	-0.17874098
4	0xc01cb9a3	-2.4488304
5	0xbf160250	-0.5859728
6	0xbfa7b1ed	-1.3101174
7	0xbf453a2a	-0.77041876
8	0xbeb68c3f	-0.35653874
9	0xbfc11ec4	-1.5087514
10	0xc0096212	-2.1466107
11	0xbcdda721	-0.027057232
12	0xbfc48152	-1.5351965
13	0x3e7a910d	0.24469395
14	0xc036c4db	-2.855765
15	0xbf98072c	-1.1877189
16	0xbff00f14	-1.8754601
17	0xc026b0ec	-2.6045485
18	0xbf99891a	-1.1994965
19	0xbea9f6d8	-0.3319614
20	0xbf3d0ec8	-0.7385068
21	0xbfc48d60	-1.5355644
22	0xbe2371d6	-0.15961394
23	0xbfb36035	-1.4013735
24	0xbd02643d	-0.031833876
25	0xbf904e2a	-1.1273854
26	0xbff2b3a5	-1.8961073
27	0xbf8f5d9e	-1.1200445
28	0xbe67d468	-0.2263962
29	0xbf4d5bc0	-0.80218124
30	0xbee4dd56	-0.44700116
31	0xc0137458	-2.303976
32	0xbf009d25	-0.50239784
33	0xbf7c85e2	-0.9864179
34	0xbff24759	-1.8928024
35	0xc015cb4e	-2.3405337
36	0xbf981671	-1.1881849
37	0xbfd2a9d3	-1.6458076
38	0xc0546b41	-3.3190463
39	0xbf15a68a	-0.58457243
40	0xbe942b71	-0.28939393
41	0xc034dc3d	-2.8259423
42	0xbfd2ef0c	-1.6479201
43	0xbf303432	-0.68829644
44	0xc04fc7df	-3.2465742
45	0xbfdac179	-1.7090293
46	0xbe111ca2	-0.14171079
47	0xbfebf625	-1.8434492
48	0xbf85955a	-1.0436203
49	0xbf89c6ae	-1.0763757
50	0xbf1ea14d	-0.61964875
51	0xbf8ddac9	-1.1082393
52	0x3f7b7d91	0.98238474
53	0xc050f378	-3.2648602
54	0xbf8da0b1	-1.1064664
55	0xbfade97f	-1.3586882
56	0xc02304ec	-2.5471754
57	0xbf8b77ea	-1.089597
58	0xbe3c6c5c	-0.18400711
59	0xbe39e0c2	-0.18152145
60	0xbfc0f258	-1.5073957
61	0xbf719486	-0.94367254
62	0xbf007a8f	-0.5018701
63	0xbff046e4	-1.8771634

module.9.running_var f4 [64]
0	0x3fcf0427	1.6173142
1	0x3fc05dad	1.5028588
2	0x3f9d2f16	1.2279994
3	0x3fe737ec	1.8063941
4	0x3fc5e42c	1.5460258
5	0x3f944f46	1.1586692
6	0x3fb4ee05	1.4135138
7	0x3fd843bc	1.6895671
8	0x3ff0b330	1.8804684
9	0x3f984438	1.1895819
10	0x3fa83268	1.3140383
11	0x3f6c138f	0.92217344
12	0x3fb4267a	1.4074242
13	0x3f9f68fa	1.2453911
14	0x3fc9193b	1.5710825
15	0x3fca6b25	1.5813948
16	0x3fc303d9	1.5235549
17	0x3fae1ab4	1.3601899
18	0x3f64b705	0.89341766
19	0x3f95c85c	1.170177
20	0x3fb2d9ac	1.3972678
21	0x3fc73800	1.5563965
22	0x3f9f23fe	1.2432859
23	0x3fcd73d9	1.6050979
24	0x3f743fd6	0.95409906
25	0x3fa374be	1.2770002
26	0x3ff38c7d	1.9027249
27	0x3fb2e4ab	1.3976034
28	0x3fd18e38	1.6371527
29	0x3f81c61f	1.0138587
30	0x3fdabc93	1.7088798
31	0x3febd28c	1.8423629
32	0x3fd049c2	1.6272509
33	0x3f90bf91	1.1308461
34	0x3f95d536	1.1705692
35	0x3fadfa77	1.3592061
36	0x3fa77297	1.3081845
37	0x3fbf7a5b	1.4959215
38	0x3fff4263	1.9942135
39	0x3f5fd669	0.8743654
40	0x3fb1ff25	1.3905989
41	0x3fcf18a8	1.61794
42	0x3f85432e	1.0411127
43	0x3faab1a6	1.3335464
44	0x3fda575d	1.7057911
45	0x3fb0f512	1.382479
46	0x3fc99301	1.5747987
47	0x3f9cbcda	1.2245133
48	0x3f888c20	1.0667763
49	0x3fc02326	1.5010726
50	0x3fa0684e	1.2531831
51	0x3fb8a34d	1.4424835
52	0x3f7821af	0.969264
53	0x3ff8288b	1.9387373
54	0x3f83ded5	1.0302378
55	0x3fb6c803	1.4279789
56	0x3f94b20c	1.1616836
57	0x3fc8def6	1.5693042
58	0x3fb0afd3	1.3803657
59	0x3f974d1f	1.182041
60	0x3fbffcc6	1.4999015
61	0x3fc0f304	1.5074162
62	0x3ff9c428	1.9512987
63	0x3fc382f6	1.5274341

module.13.weight f4 [64, 1024]
0	0xbc62f488	-0.013852246
1	0x3d47f1a0	0.048814416
2	0x3d15ae67	0.036543276
3	0xbce58f6a	-0.028022487
4	0xbd58f227	-0.05296531
5	0xbc63cf66	-0.013904428
6	0x3d48b341	0.048999075
7	0x3c23e0cd	0.010002327
8	0x3b0a2c8f	0.0021083688
9	0x3babe096	0.0052452786
10	0x3be51e2c	0.006992122
11	0x3d393563	0.04521693
12	0xbb930269	-0.0044863713
13	0x39970456	0.00028804195
14	0x3cf380ac	0.029724441
15	0x3c82358f	0.01589468
16	0x3cdc3157	0.026878996
17	0x3cdb29a1	0.026753249
18	0x3cd85170	0.02640602
19	0x3c62c7e0	0.013841599
20	0xbd091a9d	-0.033472646
21	0x3d3603a6	0.044437073
22	0xbd03c05d	-0.032165874
23	0x3bcdbff9	0.0062789884
24	0x3c5092cd	0.0127303125
25	0x3cdc7855	0.026912848
26	0x3ce2abd5	0.027669827
27	0xbc66f599	-0.014096641
28	0x3ca28bb1	0.019842
29	0x3d3f3305	0.046679515
30	0x3b9283fd	0.0044713006
31	0xbcf61e43	-0.030043727
32	0xbd3236b7	-0.04350921
33	0xbc6d5382	-0.014485242
34	0xbd8f0b55	-0.06984583
35	0x3c1d5d70	0.009604797
36	0xbca10bdf	-0.01965898
37	0xbd841f7e	-0.06451319
38	0xbdbbbe38	-0.09167141
39	0x3d223375	0.039599854
40	0x3d0554fb	0.032551747
41	0xbd932ad0	-0.071859
42	0xbde16088	-0.1100474
43	0x3c7606cf	0.015016272
44	0x3c6cd2f0	0.014454588
45	0xbd0ba953	-0.034097027
46	0xbd62d534	-0.055379108
47	0x3cc18d49	0.02362694
48	0xbdad5ae7	-0.08464604
49	0xbcb41c5f	-0.021986185
50	0x3afbc24d	0.0019207686
51	0x3a799729	0.0009521121
52	0xbcab160a	-0.020884532
53	0x3cd8d625	0.0264693
54	0x3d36c8c3	0.044625055
55	0x3d4e1bf7	0.050319638
56	0xbd369dfb	-0.044584256
57	0x3c679d90	0.014136687
58	0x3d6f0bb2	0.058360763
59	0xbcb64705	-0.022250662
60	0xbd88b651	-0.06675399
61	0xbc84b764	-0.016200729
62	0xb94a8e5a	-0.00019317251
63	0xbc1cd562	-0.009572359
64	0x3d966908	0.07344252
65	0xbcb35afc	-0.02189397
66	0xbc93ae5a	-0.018027473
67	0x3bb006fc	0.0053719264
68	0x3d976270	0.07391822
69	0xbc7c36ae	-0.015393896
70	0xbcb7f087	-0.02245356
71	0xbc61ef17	-0.013789914
72	0x3cb183ef	0.021669356
73	0x3b61c6ff	0.0034450886
74	0xbba6ac8a	-0.005086486
75	0x3c21aef5	0.009868373
76	0x3cd5e536	0.026110273
77	0xbb857f45	-0.0040740096
78	0xbb5bd106	-0.0033541336
79	0x3d38f22f	0.04515284
80	0x3cb979bb	0.022641053
81	0xbd737170	-0.059434354
82	0xbdb11f84	-0.08648589
83	0xbd452282	-0.048128612
84	0x3cde627f	0.027146576
85	0xbc0b82bb	-0.008515055
86	0xbe077bb0	-0.13230777
87	0xbd6c4c95	-0.05769022
88	0x3b99f267	0.004698086
89	0xbd055043	-0.032547247
90	0xbdfc2b44	-0.1231294
91	0xbdc6ac06	-0.097007796
92	0xbd4b4186	-0.049623035
93	0xbd0dbc8d	-0.034603644
94	0xbcf446a2	-0.029818837
95	0xbb1e5366	-0.0024158596
96	0xbc8e684c	-0.017383717
97	0xbd234157	-0.039857235
98	0x3d15df24	0.036589757
99	0xbd5d70ab	-0.054062527
100	0x3d7cb837	0.06169912
101	0xbcc8ddc2	-0.024519805
102	0x3a328776	0.00068103464
103	0x3b6fe126	0.0036602705
104	0x3ce93cc2	0.028471354
105	0x3cf4c19d	0.029877478
106	0x3e03608b	0.12829797
107	0x3cc0645d	0.023485357
108	0xbcc22db1	-0.023703428
109	0x3d236ae3	0.039896857
110	0x3cdf63b9	0.027269231
111	0x3d0786fd	0.03308772
112	0x3cd7abec	0.026327096
113	0x3c5dc9b6	0.013536861
114	0x3d30ecab	0.043194454
115	0xbcd25eb1	-0.025679918
116	0xbcdabf8e	-0.026702669
117	0x3cfa5307	0.030557169
118	0xbce066eb	-0.027392825
119	0xbc57acdd	-0.013163772
120	0xbcee61b3	-0.029099321
121	0xbc84b7b9	-0.016200887
122	0xbd35dd9d	-0.0444008
123	0xbbec43d4	-0.007210234
124	0x3ccf030b	0.025270006
125	0xbb50285a	-0.0031762333
126	0x3d20bd81	0.039243225
127	0x3ce60295	0.028077403
128	0x3c66dd85	0.0140909
129	0xbb9dba54	-0.004813472
130	0x3ca4d36f	0.02012035
131	0xbd2f0621	-0.042730454
132	0xbcc3178a	-0.023814935
133	0xbcba9dc1	-0.022780301
134	0x3c86f3ba	0.01647364
135	0xbd211f37	-0.03933641
136	0xbd08a858	-0.03336367
137	0x3cdb4a32	0.026768778
138	0x3d1409f0	0.03614229
139	0xbba07ab1	-0.0048974385
140	0x3bb6f8cb	0.0055838577
141	0x3d519e52	0.051176377
142	0x3d8cac66	0.0686882
143	0x3d27317d	0.04081868
144	0xbc836ec6	-0.016044032
145	0xbcdb6a77	-0.026784165
146	0x3da88230	0.08227956
147	0x3d3dd31b	0.046343904
148	0x3c4423f1	0.01197146
149	0x3c113c48	0.00886447
150	0x3dba7b2a	0.09105523
151	0x3dcf3400	0.1011734
152	0x3c86e522	0.01646668
153	0xbd40a120	-0.04702866
154	0x3b0622d6	0.0020467541
155	0x3cbe2a06	0.023213398
156	0x3c7146c6	0.014726346
157	0x3cb0c767	0.021579457
158	0xbc93343b	-0.017969241
159	0x3cf0cdee	0.02939507
160	0x3d66c438	0.056339473
161	0x3d2479af	0.04015511
162	0xba4316f6	-0.0007442081
163	0xbcaeab24	-0.02132184
164	0xbd3f028f	-0.0466333
165	0xbd8b53f7	-0.068031244
166	0x3d2e8a89	0.042612586
167	0x3bbd9652	0.005785742
168	0xbc91aa4e	-0.017781403
169	0xbcaadcff	-0.020857332
170	0x3de42037	0.11138957
171	0x3bed7c16	0.007247458
172	0x3c17e8a7	0.009271777
173	0x3c0d8dfd	0.00863981
174	0x3d98c5ae	0.074595794
175	0x3c8d69ae	0.017262306
176	0xbd2857b9	-0.041099284
177	0x3af33149	0.0018554117
178	0xbd91caee	-0.07118784
179	0xbd0ee84f	-0.034889515
180	0xbd6e6c8c	-0.058208987
181	0xbd531419	-0.05153284
182	0x3d27e9f8	0.040994614
183	0x3c9195a3	0.017771548
184	0xbbaf3ead	-0.0053480477
185	0xbcf3b7fb	-0.029750815
186	0xbc9c8c05	-0.019109735
187	0x3beeb03a	0.0072841914
188	0xbb476854	-0.0030427175
189	0xbcddffda	-0.027099539
190	0xbc755776	-0.014974466
191	0x3cd9cdac	0.02658733
192	0xbd5755e7	-0.052572157
193	0xbcd53ae5	-0.02602906
194	0x3cbc2848	0.022968426
195	0x3ce2d49f	0.027689276
196	0xbc17b5ce	-0.009259654
197	0xbd8de9e1	-0.069293745
198	0xbd0db4a2	-0.034596093
199	0xbbd99016	-0.006639491
200	0xbd70d146	-0.05879333
201	0xbd9d6e5d	-0.07687066
202	0xbc33a540	-0.010964692
203	0xbd10152b	-0.035176437
204	0x3d616057	0.055023517
205	0x3d54e365	0.051974673
206	0x3d79d2fa	0.06099222
207	0xbc43543a	-0.011921937
208	0x3d1a682f	0.037697013
209	0xbca4bdb2	-0.020109985
210	0x3d51597c	0.05111073
211	0xbc493b80	-0.012282252
212	0x3c363430	0.011120841
213	0xbc3e6e97	-0.011623046
214	0x3c91184b	0.01771178
215	0x3b85aad5	0.0040792027
216	0xbcc78786	-0.024356615
217	0x3cb3305c	0.021873645
218	0xbd0b7d91	-0.034055296
219	0x3cf5577e	0.029948946
220	0x3bf1226b	0.0073588393
221	0xbc6069ff	-0.013697146
222	0xbb80d610	-0.0039317682
223	0x3d0a1673	0.033712815
224	0x3d48c84b	0.04901914
225	0x3ca852f6	0.020547371
226	0xbc5ff72a	-0.013669768
227	0x3d05292e	0.032509975
228	0x3ab757cd	0.0013987959
229	0xbcfaf331	-0.03063354
230	0xbd385e0d	-0.04501157
231	0xbc920f4e	-0.017829563
232	0xbd75323e	-0.059862368
233	0xbdf3cbd0	-0.119041085
234	0x3c0e1e20	0.008674175
235	0xbd40f2fa	-0.04710672
236	0x38d70a18	0.00010253879
237	0xbd867922	-0.06566073
238	0xbb89806b	-0.004196217
239	0x3d054747	0.03253868
240	0x3bd4b307	0.0064910683
241	0x3c1d6a2a	0.009607831
242	0xbd184a11	-0.03718001
243	0xbc819704	-0.01581908
244	0x3c65c8c5	0.014024918
245	0xbd7154e5	-0.058918852
246	0xbd2148ad	-0.03937595
247	0xbcc25e35	-0.023726562
248	0x3cc8e338	0.024522409
249	0xbd183323	-0.037158143
250	0x3c95cbe7	0.018285705
251	0x3d6db584	0.058034435
252	0x3c975861	0.01847476
253	0xbd42f05f	-0.047592517
254	0xbd02742c	-0.03184907
255	0x3bee9c52	0.0072818184

module.13.bias f4 [64]
0	0xbbf645b8	-0.0075156353
1	0x3d95bab3	0.07311001
2	0x3d1f3297	0.038866606
3	0xbbe42188	-0.006962005
4	0x3d00a969	0.031411562
5	0xbc7d208e	-0.015449656
6	0xbc809f8d	-0.01570108
7	0xbca59071	-0.020210477
8	0x3c93133c	0.017953508
9	0x3d16c7b3	0.03681154
10	0xbd0fa00c	-0.035064742
11	0xbca1fec4	-0.019774802
12	0x3d80f173	0.06296053
13	0xbc1572e4	-0.00912163
14	0xbc1ae509	-0.00945402
15	0x3cfc1e19	0.03077607
16	0xbca2e2ee	-0.0198836
17	0x3d302d3d	0.043011893
18	0x3c9224ba	0.017839778
19	0xbcba791f	-0.022762833
20	0x3d938e3a	0.07204862
21	0x3aed61c2	0.0018110799
22	0x3a8a04dc	0.0010530013
23	0x3cbb36f1	0.022853347
24	0xbc861fb9	-0.016372548
25	0x3d249793	0.040183615
26	0x3d855d3a	0.06511922
27	0xbcfb656e	-0.030688014
28	0x3d2dbbd3	0.04241545
29	0xbcd1cd7c	-0.025610678
30	0x3c89fff8	0.016845688
31	0xbc64bc9c	-0.013960984
32	0x3d7621c3	0.06009079
33	0x3b9cda64	0.0047867764
34	0xbaf4d3f8	-0.0018678894
35	0x3c8ae850	0.016956478
36	0x3ccf592f	0.02531108
37	0xbbff9b11	-0.007800468
38	0xbc4e145a	-0.012578094
39	0x3d06f659	0.03294978
40	0x3d8636c6	0.06553416
41	0x3c5f0bef	0.013613685
42	0x3c90032c	0.017579637
43	0x3d7f0742	0.06226278
44	0xbc51d94a	-0.012808153
45	0xbbfb87db	-0.0076761073
46	0xbc664686	-0.0140549
47	0x3d7f5a27	0.062341835
48	0x3d36045a	0.044437744
49	0x3a0c3fc0	0.00053500757
50	0x3c0b482e	0.008501096
51	0xbce794b1	-0.028269144
52	0x3cce9c30	0.02522096
53	0xbc8961c5	-0.016770253
54	0x3d1d9d54	0.038480118
55	0xbcfbbc27	-0.030729366
56	0x3d4f86a6	0.05066552
57	0xbd0e6f9d	-0.03477441
58	0x3c09b6fa	0.008405441
59	0xbbb3abc8	-0.0054831244
60	0xbd04d4bb	-0.032429438
61	0x3d38a9ba	0.04508374
62	0x3d44d4da	0.048054554
63	0xbc3c9f2a	-0.011512557
