models/xue_epoch_4.pth (torch, 592503 bytes, 22 tensors)

module.0.weight f4 [32, 3, 5, 5]
-0.007999236 -0.066977225 0.0039586523 0.023654696 0.013828583 -0.19773181 -0.14895135 -0.17040294
-0.22347675 -0.12896307 -0.24059436 -0.16551062 -0.12472954 -0.15960328 -0.2305386 -0.05452717
-0.19438544 -0.14992176 -0.13139498 -0.06893443 -0.16673258 -0.11290327 -0.20821814 -0.22908773
-0.09748849 0.06445165 0.04118384 -0.008144732 -0.097869895 -0.093427956 0.005234853 -0.0034438984
0.008920532 -0.021946955 0.09417839 0.0014046518 -0.017608555 -0.024266182 0.09191074 0.0029622116
-0.046579264 0.1839898 0.13482465 0.009968216 0.008730547 0.13684629 0.10725225 -0.10966391
0.04931242 0.031637967 0.054679345 0.059112463 0.10752514 0.13216399 0.04062137 0.10313592
0.105304636 0.15213984 0.055388134 0.15685819 0.21233952 0.13707134 0.059919763 0.06416511
0.11741615 0.20430055 0.20758486 0.07848371 0.13429989 0.0010570702 0.16556513 0.12661293
0.018731834 0.05030779 -0.0023787867 0.02685522 -0.028572213 0.15935136 0.069503516 0.07269571
0.07538906 0.10161034 0.20547639 0.17989638 0.12993877 0.031152468 0.059770703 0.026137523
0.031725407 -0.08546923 -0.0045483513 0.013142709 0.053611275 0.005623804 0.09334503 0.03775537
0.04348146 -0.032770075 0.035334036 -0.007038315 0.084737584 -0.016312106 0.035460472 -0.055585727
0.05756017 -0.018845512 0.042404387 -0.07019963 0.11638251 0.056895465 -0.040587373 -0.10281605
-0.076222934 -0.10763815 0.020711036 -0.07384136 -0.03130231 -0.0015714096 -0.12654491 -0.08426926
0.04117738 -0.06718511 0.01628937 0.04393424 -0.07251039 -0.04256524 0.09143539 -0.022197593
0.14977822 0.13812989 0.01649854 0.025870308 -0.02892302 0.050054736 0.064625956 -0.0124477055
-0.070805304 0.027507601 -0.09488808 -0.076622345 -0.052022927 -0.046949234 -0.15512818 -0.08164383
-0.028448667 -0.097425774 -0.061157823 -0.119513035 0.011570322 -0.0024360903 0.050629836 -0.01766003
-0.02813883 0.01343137 0.05136372 -0.12625523 -0.070002414 -0.051104605 0.15615676 0.10163012
-0.111472525 -0.053127524 0.10393103 0.19811909 0.14056398 0.016467672 -0.045597844 0.091259
-0.10295407 0.030430563 -0.11570902 0.05871073 0.047751766 0.0048556495 -0.14390494 0.04266789
0.03157361 -0.13351096 -0.0054560457 -0.011153273 -0.016472036 -0.085132375 -0.00799436 -0.0005364612
0.037898086 0.04952127 0.0062165135 0.06649071 0.12899107 0.064172454 0.06617377 -0.054404084
0.0011713151 0.110305086 -0.0400327 0.05708593 0.14108217 -0.01247237 0.013669986 -0.12662329
-0.1542895 0.045092672 0.0048468015 -0.05221354 -0.03231711 -0.09285929 -0.0018914826 0.049909536
0.095784746 0.15914968 -0.10950913 0.0995425 -0.049452845 0.15903667 0.021144433 -0.058560356
-0.06865759 0.070451334 -0.0482049 -0.010171686 0.05550888 -0.06031191 0.09535432 0.0051107686
-0.0488535 0.026613282 -0.022291154 -0.04269582 0.0950969 -0.013484041 0.08472001 -0.21080433
-0.06573008 0.16016062 0.20702197 -0.07015719 -0.17432609 -0.01874828 0.06736419 0.105904035
-0.022650227 -0.11157479 -0.047606442 0.14159821 0.18170081 -0.08330929 0.057036836 -0.057803895
-0.08504605 0.119634114 -0.1110939 -0.057198767 -0.02179132 0.09769442 0.17374395 -0.07897387
00000000: 3a0f 03bc 5b2b 89bd 95b7 813b 7ec7 c13c
00000010: 4891 623c 357a 4abe b486 18be 1c7e 2ebe
00000020: 17d7 64be e50e 04be 5e5e 76be 9e7b 29be
00000030: 3372 ffbd 0b6f 23be 5012 6cbe e257 5fbd
00000040: fa0c 47be 1785 19be 688c 06be 7f2d 8dbd
00000050: f2bb 2abe d439 e7bd 2337 55be f995 6abe
00000060: 0ca8 c7bd 3aff 833d 63b0 283d 7b71 05bc
00000070: 0370 c8bd 2857 bfbd 2189 ab3b 07b3 61bb
00000080: 6c27 123c 1aca b3bc 9ae0 c03d 4b1c b83a
00000090: d13f 90bc dfc9 c6bc b33b bc3d aa21 423b
000000a0: e6c9 3ebd d267 3c3e 790f 0a3e ba51 233c
000000b0: 910a 0f3c 6f21 0c3e 11a7 db3d 7997 e0bd
000000c0: d2fb 493d d096 013d 73f7 5f3d e91f 723d
000000d0: 2436 dc3d ff55 073e 9862 263d ed38 d33d
000000e0: f5a9 d73d 8cca 1b3e abde 623d 6f9f 203e
000000f0: 886f 593e 6e5c 0c3e 6d6e 753d ff68 833d
00000100: e177 f03d 2a34 513e 2091 543e 11bc a03d
00000110: e985 093e 648d 8a3a e889 293e d2a6 013e
00000120: 8173 993c 8b0f 4e3d 6be5 1bbb 7aff db3c
00000130: 4610 eabc 012d 233e dc57 8e3d 7de1 943d
00000140: 9465 9a3d 1519 d03d 6768 523e c236 383e
00000150: ab0e 053e 7633 ff3c 20d2 743d 5c1e d63c
00000160: 80f2 013d 7e0a afbd 560a 95bb 8454 573c
00000170: 7f97 5b3d e347 b83b ae2b bf3d 60a5 1a3d
00000180: 9e19 323d ea39 06bd 6cba 103d aaa1 e6bb
00000190: e68a ad3d f7a0 85bc 003f 113d dcad 63bd
000001a0: 36c4 6b3d e761 9abc 39b0 2d3d d3c4 8fbd
000001b0: f459 ee3d 380b 693d f23e 26bd 3991 d2bd
000001c0: c51a 9cbd 6471 dcbd 31aa a93c 243a 97bd
000001d0: da36 00bd c2f7 cdba fd94 01be 5d95 acbd
000001e0: 9da9 283d 5998 89bd 4971 853c 64f4 333d
000001f0: 5480 94bd e458 2ebd 7a42 bb3d bad7 b5bc
00000200: 765f 193e ec71 0d3e f227 873c f8ed d33c
00000210: f8ef ecbc 3206 4d3d 9d5a 843d 76f1 4bbc
00000220: 5f02 91bd 9f57 e13c af54 c2bd 2dec 9cbd
00000230: fe15 55bd d74d 40bd ecd9 1ebe e134 a7bd
00000240: 2e0d e9bc 2a87 c7bd a080 7abd 40c3 f4bd
00000250: 7391 3d3c d0a6 1fbb 3b61 4f3d c4ab 90bc
00000260: 6783 e6bc 400f 5c3c c462 523d 0d49 01be
00000270: 6d5d 8fbd 1053 51bd 8fe7 1f3e 7423 d03d
00000280: b54b e4bd 3f9c 59bd cbd9 d43d bbdf 4a3e
00000290: 01f0 0f3e 36e7 863c cec4 3abd 00e6 ba3d
000002a0: 95d9 d2bd 8449 f93c daf8 ecbd aa7a 703d
000002b0: 5b97 433d 241c 9f3b d15b 13be 87c4 2e3d
000002c0: 5453 013d 19b7 08be a1c8 b2bb 38bc 36bc
000002d0: 5df0 86bc e259 aebd c7fa 02bc 4da1 0cba
000002e0: 063b 1b3d d1d6 4a3d e5b3 cb3b 482c 883d
000002f0: 3c16 043e d96c 833d 1d86 873d d1d6 5ebd
00000300: d086 993a a2e7 e13d 54f9 23bd f0d2 693d
00000310: d877 103e e958 4cbc 14f8 5f3c 89a9 01be
00000320: 11fe 1dbe 18b3 383d ebd1 9e3b dddd 55bd
00000330: f25e 04bd 032d bebd a0eb f7ba f16d 4c3d
00000340: cb2a c43d 22f8 223e 5346 e0bd f0dc cb3d
00000350: 118f 4abd 82da 223e 1737 ad3c fcdc 6fbd
00000360: 5a9c 8cbd ca48 903d 8072 45bd 25a7 26bc
00000370: 485d 633d 9f09 77bd 2049 c33d 3c78 a73b
00000380: 9c1a 48bd 1904 da3c f09b b6bc d0e1 2ebd
00000390: 2ac2 c23d 2bec 5cbc af81 ad3d 17dd 57be
000003a0: 7e9d 86bd 2501 243e 91fd 533e 93ae 8fbd
000003b0: 8a82 32be fe95 99bc 3df6 893d 37e4 d83d
000003c0: f88c b9bc 5381 e4bd f9fe 42bd 1fff 103e
000003d0: c70f 3a3e 109e aabd 759f 693d c7c3 6cbd
000003e0: a02c aebd bb02 f53d 3385 e3bd 4149 6abd
000003f0: b683 b2bc 0314 c83d efe9 313e 0dbd a1bd

module.0.bias f4 [32]
0.07106418 -0.091961525 0.057490077 0.10723038 0.063003205 0.034760352 -0.06487089 0.026620049
0.08047079 0.06316368 0.06339735 -0.07701492 0.02313613 0.10011854 0.0478212 -0.07202853
-0.10322439 -0.06306421 -0.029328827 0.07543602 0.027569091 -0.042571314 0.1068752 -0.071186915
-0.09268961 0.0506013 0.0760631 0.03780219 0.0003555165 -0.06392982 0.054015897 0.056159783
00000000: 198a 913d 5356 bcbd b77a 6b3d 9a9b db3d
00000010: d307 813d df60 0e3d 07db 84bd 4a12 da3c
00000020: dfcd a43d f65b 813d 78d6 813d 00ba 9dbd
00000030: fb87 bd3c f30a cd3d 2ae0 433d b283 93bd
00000040: 4f67 d3bd cf27 81bd 0243 f0bc 337e 9a3d
00000050: 93d8 e13c 425f 2ebd 63e1 da3d 72ca 91bd
00000060: 0dd4 bdbd 4f43 4f3d f8c6 9b3d 78d6 1a3d
00000070: 9e64 ba39 a3ed 82bd c63f 5d3d cd07 663d

module.1.weight f4 [32]
0.9113195 0.89448965 0.8662297 1.1500744 0.8543332 1.0185333 0.8413182 1.0256855
1.1510873 0.84509486 0.88850474 0.9504107 0.91730464 1.0260969 0.961966 0.99234545
0.86095816 0.9916034 0.9174937 1.3740846 0.95414853 1.0951434 0.81851673 1.1273355
1.1889963 0.9377181 0.8242667 0.9879983 1.0718017 0.94789106 1.164199 1.1690946
00000000: 3c4c 693f 46fd 643f 3bc1 5d3f a335 933f
00000010: 95b5 5a3f 4d5f 823f a160 573f aa49 833f
00000020: d456 933f 2358 583f 0c75 633f 1e4e 733f
00000030: 7ad4 6a3f 2557 833f 6743 763f 5a0a 7e3f
00000040: c167 5c3f b8d9 7d3f dee0 6a3f 01e2 af3f
00000050: 1443 743f a92d 8c3f 508a 513f 884c 903f
00000060: 0831 983f 4b0e 703f 2403 533f 75ed 7c3f
00000070: cc30 893f fda8 723f 7904 953f e4a4 953f

module.1.bias f4 [32]
0.025110705 -0.14702506 -0.050212357 -0.08711893 -0.13531639 -0.17826623 0.026872266 -0.021179238
-0.19927968 -0.109044954 -0.025738627 -0.09316964 -0.001747211 0.006799504 -0.22813824 -0.063388124
-0.059971146 0.013209214 -0.08231756 -0.1560993 -0.11335167 -0.11141509 -0.19816299 -0.03616688
0.03875727 -0.18259887 -0.13836946 -0.037362438 -0.013719791 -0.11951031 -0.09895979 0.012055256
00000000: f7b4 cd3c bd8d 16be 79ab 4dbd 696b b2bd
00000010: 6190 0abe 6c8b 36be 3a23 dc3c 1580 adbc
00000020: f90f 4cbe f652 dfbd d0d9 d2bc b9cf bebd
00000030: ac02 e5ba 60ce de3b 129d 69be a2d1 81bd
00000040: 4ea4 75bd 766b 583c 1c96 a8bd 7fd8 1fbe
00000050: ec24 e8bd 982d e4bd 3deb 4abe b923 14bd
00000060: f1bf 1e3d 33fb 3abe b9b0 0dbe 5b09 19bd
00000070: f9c8 60bc d2c1 f4bd 6eab cabd 6983 453c

module.1.running_mean f4 [32]
0.07005654 0.10441701 0.3426422 -0.014871254 0.16548952 -0.25230974 -0.23428045 0.10294896
-0.43319696 0.24188532 0.34314537 -0.13154745 -0.061518017 -0.013954846 -0.008099851 -0.053587988
0.21796034 -0.14885394 -0.44601697 0.15776463 0.13178925 -0.27212542 0.43602738 -0.12835021
-0.1434326 -0.045981456 0.25085533 0.102847986 0.15195367 -0.054540426 0.0888613 0.029707463
00000000: ce79 8f3d 96d8 d53d cc6e af3e 8fa6 73bc
00000010: 1676 293e be2e 81be 37e7 6fbe e8d6 d23d
00000020: fecb ddbe c9b0 773e c0b0 af3e 60b4 06be
00000030: 51fa 7bbd dea2 64bc 3db5 04bc 147f 5bbd
00000040: ff30 5f3e 2b6d 18be 565c e4be 0d8d 213e
00000050: c3f3 063e 0654 8bbe fb3e df3e 3d6e 03be
00000060: ffdf 12be 0d57 3cbd 1c70 803e f7a1 d23d
00000070: be99 1b3e c865 5fbd eafc b53d 115d f33c

module.1.running_var f4 [32]
0.17905593 0.092126995 0.06315719 0.33130646 0.027485676 0.055182856 0.080742605 0.057172798
0.13040261 0.05356186 0.12601532 0.05373398 0.060365926 0.17856392 0.09848041 0.13853809
0.14474538 0.12773639 0.07963279 0.25600103 0.06526946 0.07956338 0.1068763 0.10259814
0.14148597 0.07976824 0.029470207 0.13526295 0.13948645 0.109980404 0.076693326 0.36213022
00000000: 705a 373e 14ad bc3d 8f58 813d 00a1 a93e
00000010: a429 e13c 6b07 623d 615c a53d 062e 6a3d
00000020: 4388 053e ae63 5b3d 290a 013e 2918 5c3d
00000030: 4342 773d 76d9 363e 19b0 c93d eedc 0d3e
00000040: 2238 143e 54cd 023e 8416 a33d 9112 833e
00000050: ffab 853d 20f2 a23d f6e1 da3d f91e d23d
00000060: b3e1 103e 885d a33d 816b f13c 5f82 0a3e
00000070: 89d5 0e3e 683d e13d 6411 9d3d 2269 b93e

module.4.weight f4 [32, 32, 5, 5]
-0.05889385 -0.06684483 -0.070365116 -0.02428305 -0.056624915 -0.012782955 0.0069658016 -0.0044453363
-0.014600339 -0.018932093 0.0064682304 -0.0652551 -0.0112115955 -0.043591388 -0.0123303775 0.016893229
-0.013580395 0.013058385 -0.03326493 -0.018384768 0.01745359 0.050191786 0.04195056 0.05675162
0.00913258 -0.047493342 -0.030936219 -0.056602757 -0.009966925 -0.033540685 -0.005199445 -0.028559264
-0.03581255 -0.042342987 0.020435782 0.034307573 0.043767836 0.030515859 0.022888547 -0.011373572
-0.06514923 -0.012690031 -0.013487276 -0.013980461 -0.015614259 0.014612389 0.014326508 0.022132423
0.08260627 0.0787517 -0.029639509 -0.02418116 0.012348632 -0.007047861 -0.0016184262 -0.03692149
-0.01349872 -0.022417787 -0.031935286 -0.029616978 -0.039231867 -0.0008841641 -0.011776668 -0.05192077
-0.007721943 -0.0727908 -0.055090968 -0.010659235 -0.021469777 -0.016605537 -0.023962844 0.017061308
0.014810391 -0.00844869 0.023885446 -0.04468155 -0.024204146 0.018142646 0.01380802 -0.019190455
0.005520741 0.020501096 0.01355727 -0.028987575 0.008961406 -0.059353326 -0.033310633 0.027388863
-0.029999742 -0.035116207 -0.036002535 -0.035074387 -0.03974876 -0.04374266 -0.011542506 -0.08032566
-0.0663642 -0.023890147 -0.04602016 -0.012284016 -0.0038087883 -0.013983002 0.008781277 0.0042880587
-0.018165817 0.004274972 0.0072915284 0.008417858 -0.010766984 0.033111945 0.007638317 -0.023031851
-0.019522268 -0.01592185 0.021302737 -0.010080935 0.03547141 0.012086518 -0.04799455 -0.035318192
-0.013457018 -0.017167883 -0.023740625 0.00020073939 0.009852152 -0.04077394 -0.0818157 -0.029162167
-0.078427404 -0.060188677 -0.044174556 -0.01505215 0.0030767906 -0.006307481 -0.0598414 0.023551458
0.048178453 0.092404254 0.023849517 0.029782182 0.13562901 0.20275956 0.16050856 0.15135641
0.109988265 -0.0023676045 0.012495464 0.007984892 -0.016404765 0.0066299895 0.031888258 0.042994943
0.017451089 -0.014371851 -0.015597091 0.01048851 0.03182405 0.01968058 0.018833369 -0.0107351765
-0.03150721 -0.06374511 -0.0046699494 -0.043307707 -0.042872716 0.0044071483 0.0564138 -0.012285155
-0.0022801836 -0.021321708 0.01558006 -0.029362768 0.018859113 -0.033590235 0.0024910015 -0.012503459
0.0041250275 0.036782447 -0.007073568 0.0040478194 0.02657978 0.02136956 -0.0061704908 0.032164928
0.0032842827 -0.011139402 0.016316533 0.074719876 0.03283448 0.061311796 0.05306187 -0.015050706
-0.009299554 0.02718411 0.04205827 -0.07131037 -0.031520694 -0.098686785 -0.05238675 -0.078125626
-0.063292414 -0.014880683 -0.0542923 -0.0031530536 -0.052362107 -0.019949287 0.015259908 -0.041599777
-0.021705776 -0.05253075 -0.019490432 -0.022501286 -0.01226076 -0.045549497 -0.031856645 -0.015336417
-0.0105556175 -0.0066730953 -0.03099109 -0.08284452 0.042240605 0.06566979 0.03512403 0.06075338
0.0040258705 0.0013646956 -0.010824855 -0.0052225697 0.012577569 -0.010840779 -0.009832303 -0.025521705
-0.010676865 -0.057186287 0.0070124804 0.01710552 0.0072122333 0.00553039 -0.028620485 -0.018099593
0.018634353 -0.02209076 -0.012475406 -0.022963345 -0.004481873 -0.023179865 0.008039981 -0.027529724
0.011531429 0.012614852 0.02066735 -0.034708723 -0.032093972 -0.020300249 0.037026476 -0.017250966
00000000: ad3a 71bd f1e5 88bd 961b 90bd 3fed c6bc
00000010: 87ef 67bd 996f 51bc 6141 e43b 2faa 91bb
00000020: 4336 6fbc 7a17 9bbc 73f3 d33b 77a4 85bd
00000030: d7b0 37bc e28c 32bd 5a05 4abc ab63 8a3c
00000040: 4e80 5ebc d6f2 553c cf40 08bd a79b 96bc
00000050: d5fa 8e3c e795 4d3d 5ad4 2b3d 6374 683d
00000060: d1a0 153c 6188 42bd f46d fdbc 4bd8 67bd
00000070: 504c 23bc f561 09bd 1b60 aabb 1ef5 e9bc
00000080: 2eb0 12bd d76f 2dbd f168 a73c 1986 0c3d
00000090: e745 333d 65fc f93c c380 bb3c 3858 3abc
000000a0: f66c 85bd d9e9 4fbc bcf9 5cbc 4e0e 65bc
000000b0: f3d2 7fbc cd68 6f3c bbb9 6a3c 0e4f b53c
000000c0: 7a2d a93d 9248 a13d 8ece f2bc 9117 c6bc
000000d0: eb51 4a3c bef1 e6bb 5f21 d4ba fd3a 17bd
000000e0: bc29 5dbc 82a5 b7bc 93ce 02bd 4e9f f2bc
000000f0: 98b1 20bd 40c7 67ba edf2 40bc e0aa 54bd
00000100: 5a08 fdbb 5813 95bd 11a7 61bd 12a4 2ebc
00000110: 63e1 afbc 5608 88bc ba4d c4bc 28c4 8b3c
00000120: 48a7 723c 606c 0abc 69ab c33c 0004 37bd
00000130: c647 c6bc e39f 943c 093b 623c 4d35 9dbc
00000140: 55e7 b43b eaf1 a73c 501f 5e3c 5a77 edbc
00000150: dcd2 123c 791c 73bd bb70 08bd 9c5e e03c
00000160: 05c2 f5bc 03d6 0fbd 6577 13bd 29aa 0fbd
00000170: 99cf 22bd 812b 33bd c71c 3dbc c881 a4bd
00000180: f4e9 87bd 45b5 c3bc a37f 3cbd e642 49bc
00000190: dd9c 79bb f618 65bc 58df 0f3c d882 8c3b
000001a0: 7bd0 94bc 1015 8c3b c6ed ee3b 0eeb 093c
000001b0: 0168 30bc 64a0 073d d94a fa3b 4bad bcbc
000001c0: 2aed 9fbc 8a6e 82bc 1483 ae3c 822a 25bc
000001d0: 784a 113d 8806 463c ef95 44bd cfa9 10bd
000001e0: d37a 5cbc a9a3 8cbc b37b c2bc 927d 5239
000001f0: ec6a 213c 9302 27bd fd8e a7bd 7fe5 eebc
00000200: 8c9e a0bd 6788 76bd 61f0 34bd 4b9d 76bc
00000210: fba3 493b fcae cebb 411c 75bd fdee c03c
00000220: c556 453d 713e bd3d 1060 c33c c3f9 f33c
00000230: 55e2 0a3e 34a0 4f3e 5b5c 243e 2dfd 1a3e
00000240: 8741 e13d d029 1bbb c6b9 4c3c 11d3 023c
00000250: 4963 86bc 6240 d93b 439d 023d 771b 303d
00000260: 96f5 8e3c ea77 6bbc f18a 7fbc 00d8 2b3c
00000270: ef59 023d 2b39 a13c 7048 9a3c 98e2 2fbc
00000280: b40d 01bd cc8c 82bd 6006 99bb 6c63 31bd
00000290: 4d9b 2fbd d769 903b 2812 673d ad47 49bc
000002a0: 226f 15bb ddaa aebc 8243 7f3c 308a f0bc
000002b0: 6d7e 9a3c ea95 09bd 1240 233b 4fdb 4cbc
000002c0: 3d2b 873b 31a9 163d 64c9 e7bb 92a3 843b
000002d0: d7bd d93c 370f af3c d431 cabb 5fbf 033d
000002e0: 1f3d 573b 0a82 36bc 40aa 853c bc06 993d
000002f0: 737d 063d 1422 7b3d 6757 593d 3d97 76bc
00000300: 285d 18bc 36b1 de3c 4b45 2c3d 2c0b 92bd
00000310: d81b 01bd 4c1c cabd 7d93 56bd 5400 a0bd
00000320: 749f 81bd 1cce 73bc 9a61 5ebd 76a3 4ebb
00000330: a679 56bd b06c a3bc b104 7a3c 8764 2abd
00000340: 50d0 b1bc 7c2a 57bd 66aa 9fbc 9e54 b8bc
00000350: 5be1 48bc 1c92 3abd 1d7c 02bd 9845 7bbc
00000360: 78f1 2cbc fba9 dabb 07e1 fdbc 63aa a9bd
00000370: 7c04 2d3d e27d 863d 37de 0f3d 89d8 783d
00000380: 73eb 833b 96df b23a bc5a 31bc 1722 abbb
00000390: 2612 4e3c 869d 31bc ab17 21bc e512 d1bc
000003a0: 04ee 2ebc 2b3c 6abd f3c8 e53b e020 8c3c
000003b0: 9954 ec3b 4638 b53b 8275 eabc 9945 94bc
000003c0: 12a7 983c aef7 b4bc a565 4cbc a01d bcbc
000003d0: addc 92bb b3e3 bdbc 20ba 033c 0486 e1bc
000003e0: 52ee 3c3c 86ae 4e3c 934e a93c bc2a 0ebd
000003f0: f874 03bd b54c a6bc 13a9 173d e651 8dbc

module.4.bias f4 [32]
-0.03319358 -0.0022950089 0.016164247 -0.0070949844 -0.021921655 0.026976254 0.022272604 -0.022331683
0.020205136 0.035290107 -0.031070832 0.0025806946 -0.014340294 -0.02136036 -0.032032523 0.009239523
0.024825301 -0.018626878 -0.0016853706 -0.026262267 0.024161402 -0.030579379 0.0044102306 0.010886158
0.00037685476 0.026509313 0.025511695 -0.030255131 0.0036325394 -0.030304661 0.00022820679 0.0039223135
00000000: fef5 07bd dc67 16bb e26a 843c 0b7d e8bb
00000010: 0b95 b3bc 4efd dc3c 0975 b63c eff0 b6bc
00000020: 3e85 a53c 5c8c 103d 4288 febc df20 293b
00000030: 8df3 6abc ecfb aebc 8934 03bd 5e61 173c
00000040: 6e5e cb3c 6597 98bc a7e7 dcba f723 d7bc
00000050: 22ee c53c 9b81 fabc b283 903b db5b 323c
00000060: 9794 c539 0f2a d93c e7fd d03c 9cd9 f7bc
00000070: e60f 6e3b 7b41 f8bc cb4a 6f39 c086 803b

module.5.weight f4 [32]
0.9665614 0.9550539 0.9961855 0.95891964 1.0422163 1.0814942 0.95794725 1.0033478
1.0441127 0.90791225 1.0155749 1.0482464 0.9628128 1.0955464 0.96946037 1.0032392
1.0075225 0.9607296 1.008014 0.93851745 0.99709487 0.9274523 0.95128316 0.90314776
0.99016315 1.0448033 0.9324654 0.9973143 0.9807921 1.0749724 1.0816505 0.9969211
00000000: 9170 773f 6a7e 743f 0306 7f3f c27b 753f
00000010: 5867 853f 676e 8a3f 083c 753f b36d 803f
00000020: 7ca5 853f f06c 683f 5cfe 813f f02c 863f
00000030: e67a 763f dd3a 8c3f 8e2e 783f 246a 803f
00000040: 7ff6 803f 60f2 753f 9a06 813f ae42 703f
00000050: 9c41 7f3f 846d 6d3f 4b87 733f b134 673f
00000060: 557b 7d3f 1dbc 853f 0db6 6e3f fd4f 7f3f
00000070: 3115 7b3f b298 893f 8673 8a3f 3936 7f3f

module.5.bias f4 [32]
-0.14705001 -0.15081981 -0.20083606 -0.1987441 -0.054689977 -0.048300482 -0.12877934 -0.114576176
-0.16297133 -0.15491289 -0.18943839 -0.11915234 -0.15099965 -0.10180717 -0.1899533 -0.12641369
-0.146139 -0.12359276 -0.064495526 -0.17338233 -0.14873493 -0.10327956 -0.15217425 -0.14538756
-0.15123467 -0.10140006 -0.19766334 -0.10839605 -0.20260198 -0.12671399 -0.037481856 -0.15664618
00000000: 4794 16be 8270 1abe f8a7 4dbe 9383 4bbe
00000010: 9902 60bd bad6 45bd bbde 03be eaa6 eabd
00000020: f5e1 26be 7ca1 1ebe 23fc 41be 2406 f4bd
00000030: a79f 1abe 4780 d0bd 1e83 42be 9772 01be
00000040: 76a5 15be 331e fdbd 3b16 84bd 238b 31be
00000050: f84d 18be 3c84 d3bd 91d3 1bbe 7ae0 14be
00000060: 43dd 1abe d6aa cfbd 4268 4abe c0fe ddbd
00000070: e576 4fbe 50c1 01be 9386 19bd db67 20be

module.5.running_mean f4 [32]
-0.6995272 -0.57535094 -1.5288851 1.2401483 -0.36831054 0.19114368 -0.06856744 -3.0214992
-1.1301857 -0.76518995 -1.1635202 -3.7673507 -0.97255963 -3.336768 -0.7134121 -2.5374107
-2.1801422 -0.70415413 -2.1661704 1.3793957 -0.2771665 0.43325308 -3.7087042 -0.35477018
-1.6582141 -0.57323307 -0.3569011 -2.3753366 -2.7706716 -2.1315124 -0.5053109 0.09131514
00000000: 3714 33bf 334a 13bf 82b2 c3bf 2ebd 9e3f
00000010: 3393 bcbe 2bbb 433e 166d 8cbd 3e60 41c0
00000020: eda9 90bf 7de3 43bf 3bee 94bf 461c 71c0
00000030: abf9 78bf 9b8d 55c0 2da2 36bf f064 22c0
00000040: 7387 0bc0 7243 34bf 89a2 0ac0 0a90 b03f
00000050: c4e8 8dbe 59d3 dd3e 695b 6dc0 70a4 b5be
00000060: 5c40 d4bf 67bf 12bf bebb b6be 8405 18c0
00000070: af52 31c0 b36a 08c0 0e5c 01bf 6f03 bb3d

module.5.running_var f4 [32]
3.011736 2.4666638 2.6833413 2.9516337 3.9022653 3.507509 4.19422 4.2901163
3.1381629 3.3491626 3.4646945 4.8794665 3.4501538 5.3325987 3.0395446 4.5999813
3.3279889 3.3601794 2.64704 2.423321 4.474841 2.9080653 3.5761437 2.3557336
3.5082371 2.8742342 2.0728621 4.101706 3.9591694 4.330508 2.3131344 2.5906258
00000000: 48c0 4040 d2dd 1d40 ddbb 2b40 91e7 3c40
00000010: b7be 7940 077b 6040 0d37 8640 a248 8940
00000020: a9d7 4840 ae58 5640 8ebd 5d40 9724 9c40
00000030: 52cf 5c40 a6a4 aa40 e687 4240 0c33 9340
00000040: c5fd 5440 2e0d 5740 1a69 2940 b117 1b40
00000050: e631 8f40 be1d 3a40 8adf 6440 57c4 1640
00000060: f586 6040 74f3 3740 c6a9 0440 2d41 8340
00000070: 0863 7d40 8693 8a40 650a 1440 d0cc 2540

module.8.weight f4 [64, 32, 5, 5]
0.0215742 0.0113760065 -0.033569355 -0.03331285 -0.034310963 0.028456517 -0.020261662 0.0013771645
-0.057283778 -0.001251247 0.044514764 0.0328781 0.060964774 -0.0075787767 0.028319571 0.035743836
0.00058628066 -0.02938033 0.0030495767 0.009652892 0.058487974 0.03608265 0.036502436 0.042897187
0.043702144 0.017985394 -0.009924104 0.048353203 -0.003576562 -0.0024743287 0.022614563 0.013470572
-0.016956089 -0.012601477 -0.006707817 0.016434671 0.041483954 0.052726347 0.010013712 0.030796316
0.033144422 -0.004304208 0.011764323 0.001521548 0.032979347 -0.00073692435 0.026475288 0.009217772
0.050520044 0.041577786 0.03395729 0.053856526 0.054919682 0.032342736 0.0019431516 -0.0029723402
0.004522292 0.022891777 0.0215495 0.0062422357 0.017123483 -0.0030410688 0.020953026 0.043423556
0.022106757 0.008484813 0.005728203 -0.02447203 -0.0053536487 0.008442363 0.0018807267 -0.013040184
0.011890094 -0.021003777 -0.0057737757 0.0075224238 0.011050093 -0.008029487 -0.030043656 -0.019119151
0.04726967 0.033895545 -0.011294575 0.01360362 0.03436301 0.009115405 0.023140687 0.06504025
0.008921166 0.00938132 -0.039304648 0.021833347 0.012203766 0.018270727 0.01170424 -0.054784317
-0.03985203 0.026068598 0.062666416 -0.0013089845 -0.068481855 -0.051203236 -0.031165613 0.0047457037
0.0014863772 -0.054444365 -0.060510874 0.012179502 0.02993948 0.013726858 0.022743843 -0.023821091
-0.02701812 0.013446824 0.019849785 0.0036694636 0.009976894 -0.04403193 -0.020934742 -0.009013049
0.011204106 0.018680302 -0.039005257 -0.005350738 -0.024801798 -0.01776014 -0.034025528 -0.028039856
-0.052648388 -0.038797528 -0.00056592753 -0.00053075765 -0.03893471 -0.003303779 -0.038331777 -0.016469875
0.058180176 -0.007518701 0.023607688 -0.048765585 0.0038599942 0.008645007 0.02037477 -0.018517518
-0.06778315 -0.01791075 -0.0065180417 -0.002501873 -0.021758473 -0.048516426 0.002791406 0.05521156
0.024958234 0.03427975 0.0485338 0.031573724 0.0077672745 0.010870844 -0.013441667 0.0012236333
0.033281576 0.027119532 0.016796203 0.026010027 -0.03139249 -0.031784166 -0.0019333081 -0.019020567
-0.040830072 -0.033225734 -0.004873089 -0.02668861 -0.0016233268 -0.01917535 -0.039601516 -0.014587914
0.011758656 0.050648786 -0.033626653 -0.016817259 -0.031211967 0.021652136 0.0064565623 -0.0020775439
-0.0053574834 0.012256897 0.0036252048 0.0066572917 0.0034889556 0.015332617 -0.026823068 0.0011472869
0.03342798 -0.026327334 0.0009105302 0.044446755 0.041207824 -0.019707877 -0.03545124 -0.006775076
0.049569476 -0.024203004 -0.005215093 0.0009388411 -0.04866934 0.048938844 0.0121414345 0.010932349
-0.042874902 -0.029143915 0.07025493 0.05692689 -0.017328003 -0.05903217 -0.10899995 0.04609137
0.03448101 0.00505162 -0.02882605 -0.052234225 0.04480282 0.04401821 0.044568233 -0.005706802
0.010124679 0.033288125 0.011665931 0.013848865 0.018511623 0.05282848 -0.0073591466 0.014053786
0.027541194 0.026475223 0.029707905 -0.008317921 0.031094976 0.02710102 0.036156524 0.029468795
0.040107757 0.051089108 0.036629688 0.045784205 0.062137358 0.0038563819 0.024548825 0.02015191
0.046586487 0.032435503 0.05512291 0.0032819342 0.024175176 0.011811719 0.021310022 0.0044331867
00000000: 60bc b03c 6e62 3a3c 0580 09bd 0e73 08bd
00000010: a789 0cbd a41d e93c c9fb a5bc f981 b43a
00000020: 65a2 6abd e200 a4ba 1d55 363d 30ab 063d
00000030: 33b6 793d 6357 f8bb 72fe e73c 2168 123d
00000040: a1b0 193a 05af f0bc 68db 473b 2a27 1e3c
00000050: 1691 6f3d 67cb 133d 9483 153d f6b4 2f3d
00000060: 0501 333d 1b56 933c b698 22bc 020e 463d
00000070: c164 6abb 5928 22bb 2d42 b93c adb3 5c3c
00000080: 7fe7 8abc 6d76 4ebc 3fcd dbbb 01a2 863c
00000090: 14eb 293d 95f7 573d 8d10 243c 8e48 fc3c
000000a0: 72c2 073d 500a 8dbb 26bf 403c ae6e c73a
000000b0: 5a15 073d 282e 41ba b4e2 d83c 2306 173c
000000c0: 1bee 4e3d 784d 2a3d cd16 0b3d a998 5c3d
000000d0: 76f3 603d d179 043d 59b1 fe3a 98cb 42bb
000000e0: bc2f 943b 8987 bb3c 9488 b03c ab8b cc3b
000000f0: 8c46 8c3c ab4c 47bb aea5 ab3c e6dc 313d
00000100: 3b19 b53c e303 0b3c a6b3 bb3b 9179 c8bc
00000110: a96d afbb d651 0a3c b782 f63a 7fa6 55bc
00000120: abce 423c 1d10 acbc f131 bdbb aa7e f63b
00000130: 730b 353c 1c8e 03bc 1d1e f6bc c49f 9cbc
00000140: d79d 413d 0ed6 0a3d e20c 39bc b8e1 5e3c
00000150: 3ac0 0c3d c858 153c 8a91 bd3c d333 853d
00000160: 152a 123c 1cb4 193c e9fd 20bd d9db b23c
00000170: 4ef2 473c 7eac 953c 24c3 3f3c 8565 60bd
00000180: e23b 23bd d08d d53c 4057 803d 3b92 abba
00000190: 3740 8cbd 7cba 51bd 074f ffbc d981 9b3b
000001a0: 8bd2 c23a 0e01 5fbd 40da 77bd 898c 473c
000001b0: a443 f53c 9ee6 603c 4c51 ba3c 7324 c3bc
000001c0: 1b55 ddbc 1150 5c3c 049c a23c 627b 703b
000001d0: 2076 233c d35a 34bd 567f abbc 78ab 13bc
000001e0: 6d91 373c 6f07 993c fac3 1fbd 3e55 afbb
000001f0: 242d cbbc b77d 91bc 5a5e 0bbd d7b3 e5bc
00000200: d6a5 57bd 28ea 1ebd c15a 14ba 8b22 0bba
00000210: 017a 1fbd 3784 58bb c801 1dbd d5eb 86bc
00000220: 564e 6e3d 6f5f f6bb e964 c13c 6cbe 47bd
00000230: f5f7 7c3b caa3 0d3c fde8 a63c 0db2 97bc
00000240: e4d1 8abd 91b9 92bc 4c95 d5bb 77f6 23bb
00000250: d33e b2bc 29b9 46bd 05f0 363b 8425 623d
00000260: 3675 cc3c ec68 0c3d 61cb 463d 7353 013d
00000270: 9f84 fe3b a01b 323c 703a 5cbc 5262 a03a
00000280: 4352 083d c829 de3c 3198 893c fb12 d53c
00000290: 6995 00bd 1d30 02bd 0e67 fdba 05d1 9bbc
000002a0: 6f3d 27bd b517 08bd 6fae 9fbb 12a2 dabc
000002b0: cfc5 d4ba a015 9dbc 3335 22bd 2502 6fbc
000002c0: 61a7 403c 1a75 4f3d 1abc 09bd 59c4 89bc
000002d0: 3db0 ffbc d25f b13c 9291 d33b 6727 08bb
000002e0: d48d afbb 27d1 483c d894 6d3b 6925 da3b
000002f0: f6a6 643b a835 7b3c 0dbc dbbc 8f60 963a
00000300: c7eb 083d 6cac d7bc a6b0 6e3a cd0d 363d
00000310: 89c9 283d 6a72 a1bc 5235 11bd 7501 debb
00000320: 5d09 4b3d 6145 c6bc 5fe3 aabb 8f1c 763a
00000330: 8059 47bd 1974 483d deec 463c 981d 333c
00000340: 989d 2fbd 38bf eebc d1e1 8f3d 2c2c 693d
00000350: 75f3 8dbc b7cb 71bd 5e3b dfbd 4eca 3c3d
00000360: f63b 0d3d 0f88 a53b 9c24 ecbc 8ef3 55bd
00000370: 2983 373d 704c 343d 2e8d 363d 2000 bbbb
00000380: fbe1 253c 2159 083d 7622 3f3c 5ae6 623c
00000390: b0a5 973c ad62 583d ff24 f1bb da41 663c
000003a0: 129e e13c 91e2 d83c fe5d f33c e447 08bc
000003b0: e4ba fe3c f502 de3c dd18 143d 8b68 f13c
000003c0: 0848 243d d042 513d 0309 163d 3888 3b3d
000003d0: be83 7e3d 5abb 7c3b 9e1a c93c 9e15 a53c
000003e0: 79d1 3e3d 17db 043d 8fc8 613d b815 573b
000003f0: 050b c63c f185 413c 5b92 ae3c 4444 913b

module.8.bias f4 [64]
0.023214187 -0.013758141 0.010803401 -0.020796381 -0.0018153497 -0.009138283 0.019371 -0.031957738
0.03033476 -0.03040751 -0.032894216 0.01083416 0.0009116778 -1.0925673e-05 0.00037110705 0.031163093
-0.019026008 -0.02831041 -0.02596149 0.03255408 0.015585229 -0.01782607 -0.026756 -0.025668181
-0.00172766 -0.0017952459 0.029304605 -0.00073754665 -0.034784876 -0.033943154 -0.027886052 -0.03109612
0.03280032 0.013530373 0.006406761 -0.018883526 -0.01500743 0.032912765 -0.0040622554 -0.024922479
-0.015936457 -0.029049603 0.0021976572 -0.035157725 -0.029363543 -0.028797977 -0.010708792 0.009994127
-0.023039129 -0.03128991 -0.034629982 0.0056371316 -0.00030833052 -0.009709954 -0.010610149 -0.026770221
-0.0027434025 0.0028517423 -0.006896772 -0.014130016 -0.006731819 -0.033655256 -0.003163653 -0.022567261
00000000: ae2b be3c d369 61bc bf00 313c 2c5d aabc
00000010: 07f1 edba bdb8 15bc eeaf 9e3c 1ee6 02bd
00000020: 9a80 f83c 2c19 f9bc 16bc 06bd c381 313c
00000030: a9fd 6e3a 694d 37b7 2591 c239 be49 ff3c
00000040: 6edc 9bbc 3ceb e7bc 31ad d4bc 6d57 053d
00000050: 3059 7f3c fa07 92bc 662f dbbc 1446 d2bc
00000060: a672 e2ba 754e ebba 3610 f03c eb57 41ba
00000070: 967a 0ebd fa07 0bbd 4a71 e4bc 4abd febc
00000080: a159 063d 7fae 5d3c ceef d13b a0b1 9abc
00000090: b9e1 75bc 89cf 063d ab1c 85bb 3a2a ccbc
000000a0: 2c8d 82bc 6ff9 edbc 9206 103b 8c01 10bd
000000b0: d08b f0bc bce9 ebbc ee73 2fbc 68be 233c
000000c0: 8ebc bcbc d929 00bd 2bd8 0dbd b0b7 b83b
000000d0: 6ca7 a1b9 8016 1fbc 31d6 2dbc 394d dbbc
000000e0: a8ca 33bb 4ce4 3a3b 51fe e1bb 9581 67bc
000000f0: 9796 dcbb 18da 09bd 4a55 4fbb fade b8bc

module.9.weight f4 [64]
0.79030114 0.8629982 0.7911755 0.8269896 0.83829755 0.81380284 0.8402077 0.8968546
0.82199067 0.80221313 0.85687274 0.7250775 0.73751813 0.7937757 0.87012553 0.7560717
0.8411612 0.8412664 0.8058725 0.81301016 0.82840335 0.8205989 0.83248246 0.8689503
0.7055672 0.8127112 0.86592495 0.8140611 0.8405257 0.8303025 0.90715337 0.81280196
0.8333273 0.82294667 0.8244291 0.86458486 0.7536836 0.79333514 0.9177807 0.7334429
0.8529097 0.8400904 0.7864592 0.80902886 0.88629293 0.8626861 0.82758343 0.7389786
0.8348334 0.8575907 0.75935847 0.8511429 0.7502535 0.92151445 0.7975595 0.84142345
0.8456085 0.87292606 0.73253846 0.7715754 0.84956646 0.8837287 0.8826458 0.79770476
00000000: 2d51 4a3f 73ed 5c3f 7a8a 4a3f 97b5 533f
00000010: ab9a 563f 6255 503f da17 573f 4398 653f
00000020: fb6d 523f d75d 4d3f 035c 5b3f ae9e 393f
00000030: fdcd 3c3f e234 4b3f 8cc0 5e3f ea8d 413f
00000040: 5756 573f 3c5d 573f a94d 4e3f 6f21 503f
00000050: 3e12 543f c512 523f 921d 553f 8773 5e3f
00000060: 0da0 343f d70d 503f 42ad 5d3f 4f66 503f
00000070: b12c 573f b48e 543f 343b 683f ca13 503f
00000080: f054 553f a2ac 523f c90d 533f 6f55 5d3f
00000090: 69f1 403f 0318 4b3f adf3 6a3f eac2 3b3f
000000a0: 4a58 5a3f 2a10 573f 6455 493f 841c 4f3f
000000b0: 18e4 623f ffd8 5c3f 82dc 533f b42d 3d3f
000000c0: a4b7 553f 108b 5b3f 5165 423f 80e4 593f
000000d0: 9d10 403f 5fe8 6b3f dc2c 4c3f 8767 573f
000000e0: cc79 583f 1578 5f3f a487 3b3f f785 453f
000000f0: 307d 593f 0b3c 623f 13f5 613f 6136 4c3f

module.9.bias f4 [64]
-0.30679804 -0.19974345 -0.24200097 -0.27861306 -0.28710955 -0.2529002 -0.2432948 -0.3799359
-0.29239613 -0.25627318 -0.2601764 -0.2463017 -0.25890207 -0.27440518 -0.28868186 -0.23253904
-0.2544486 -0.2581685 -0.22368781 -0.25762773 -0.34494293 -0.27970567 -0.21070977 -0.2406259
-0.24865274 -0.2586342 -0.22973098 -0.24161735 -0.3125211 -0.23711762 -0.30080575 -0.25852373
-0.25257137 -0.2620716 -0.20539665 -0.24631055 -0.2268005 -0.26298493 -0.31499773 -0.24277303
-0.31540802 -0.25555953 -0.2468811 -0.22961368 -0.31247863 -0.23572963 -0.25451443 -0.24101497
-0.22288087 -0.2472849 -0.28261697 -0.26594755 -0.23444693 -0.308718 -0.26112118 -0.26821065
-0.23489976 -0.28585508 -0.2480392 -0.2817904 -0.22499713 -0.2328046 -0.319158 -0.25523663
00000000: a214 9dbe 8c89 4cbe 1acf 77be 5fa6 8ebe
00000010: 0600 93be 237c 81be 4622 79be f586 c2be
00000020: f2b4 95be 3d36 83be d735 85be 8336 7cbe
00000030: d08e 84be d67e 8cbe 1cce 93be b71e 6ebe
00000040: 1647 82be a92e 84be 6b0e 65be c8e7 83be
00000050: 5c9c b0be 9535 8fbe 4dc4 57be a366 76be
00000060: d39e 7ebe b46b 84be 993e 6bbe 8a6a 77be
00000070: c402 a0be f6ce 72be 3603 9abe 395d 84be
00000080: 0951 81be 402e 86be 8053 52be d538 7cbe
00000090: 643e 68be f6a5 86be 6247 a1be 7e99 78be
000000a0: 297d a1be b3d8 82be 66ce 7cbe d91f 6bbe
000000b0: 33fd 9fbe 1c63 71be b74f 82be a1cc 76be
000000c0: e23a 64be 4138 7dbe 2cb3 90be 472a 88be
000000d0: db12 70be 4910 9ebe adb1 85be e852 89be
000000e0: 9089 70be 995b 92be fdfd 7dbe d546 90be
000000f0: a665 66be 5464 6ebe ad68 a3be 60ae 82be

module.9.running_mean f4 [64]
0.14031628 -1.9548368 -1.3516772 0.67545396 -2.4319866 0.574532 -0.8975067 -0.1326791
-0.31570205 -1.1350846 -2.3138208 0.82070506 -0.36036438 0.98188025 -2.591434 -0.5338917
-1.7210664 -2.4585068 -1.2496707 -0.25393885 -0.1880219 -0.4854245 -0.46412438 -0.8918466
0.5636163 -0.7123261 -1.7191337 -0.37252215 0.12957615 -0.7322539 -0.32377154 -1.3249694
-0.9316851 -1.0155127 -1.5014515 -2.4848812 -1.1747959 -0.67262405 -3.403673 -0.22800761
0.16645972 -1.5069627 -1.001031 -0.7050314 -3.5671864 -1.184053 0.92297655 -1.2699705
-1.363173 -0.63854396 -0.12494297 -0.6336739 1.4709052 -3.7183142 -0.8494498 -1.6885225
-2.563413 -0.49833438 1.2518826 0.57690865 -1.1392728 -1.4760475 0.1664238 -1.0279243
00000000: 12af 0f3e 1838 fabf c203 adbf 8dea 2c3f
00000010: aba5 1bc0 8714 133f 00c3 65bf 08dd 07be
00000020: b3a3 a1be 744a 91bf a415 14c0 ba19 523f
00000030: ae81 b8be 815c 7b3f 0eda 25c0 20ad 08bf
00000040: e74b dcbf 2d58 1dc0 36f5 9fbf 4604 82be
00000050: d088 40be 8f89 f8be b6a1 edbe 0f50 64bf
00000060: 2849 103f 015b 36bf 930c dcbf 39bb bebe
00000070: 9caf 043e fe74 3bbf 62c5 a5be 9998 a9bf
00000080: ea82 6ebf 52fc 81bf 902f c0bf 4b08 1fc0
00000090: b65f 96bf 1731 2cbf c7d5 59c0 d47a 69be
000000a0: 6b74 2a3e 27e4 c0bf c921 80bf f07c 34bf
000000b0: c84c 64c0 0c8f 97bf 3148 6c3f 658e a2bf
000000c0: 747c aebf 9e77 23bf 1ae2 ffbd 7438 22bf
000000d0: 9f46 bc3f dcf8 6dc0 8b75 59bf 8121 d8bf
000000e0: f50e 24c0 af25 ffbe b03d a03f 49b0 133f
000000f0: b1d3 91bf 20ef bcbf 006b 2a3e 0693 83bf

module.9.running_var f4 [64]
0.87618625 1.2883018 1.2721968 1.0220026 1.436705 0.8344938 1.1181267 1.3332759
1.1096553 0.904351 1.2855583 1.1565181 1.3356076 1.2793301 1.6486385 1.3111231
1.5855939 1.5432533 1.1321319 1.1869192 1.4090508 1.3189623 0.98505026 1.2189624
0.89299285 1.2564412 1.0241113 1.0265338 1.502788 0.859182 1.2520674 1.0130873
1.3239304 1.1595057 1.1661294 1.3029702 1.2707204 1.1809992 1.7749848 0.781174
1.110575 1.2700397 1.0228596 1.1199001 2.0066717 0.9665436 1.410111 0.7796879
1.2291642 1.1479727 0.833926 1.1113037 1.2809863 2.2137442 0.8725391 1.3814249
1.3993243 1.1167296 0.94801795 0.9913561 1.297452 1.6342757 1.2396321 1.5070496
00000000: be4d 603f 13e7 a43f 58d7 a23f fbd0 823f
00000010: f3e5 b73f 63a1 553f c71e 8f3f c9a8 aa3f
00000020: 2f09 8e3f 8c83 673f 2d8d a43f c908 943f
00000030: 31f5 aa3f 17c1 a33f 9606 d33f e2d2 a73f
00000040: bef4 ca3f 5389 c53f b3e9 903f f8ec 973f
00000050: c75b b43f c2d3 a83f 412c 7c3f f606 9c3f
00000060: 2e9b 643f 11d3 a03f 1416 833f 7665 833f
00000070: 5b5b c03f 5af3 5b3f bf43 a03f d8ac 813f
00000080: 8d76 a93f af6a 943f ba43 953f bac7 a63f
00000090: f7a6 a23f fb2a 973f b432 e33f 05fb 473f
000000a0: 5227 8e3f a990 a23f 10ed 823f e358 8f3f
000000b0: 4f6d 0040 676f 773f 847e b43f a099 473f
000000c0: 4155 9d3f c5f0 923f 2d7c 553f 333f 8e3f
000000d0: 5cf7 a33f fcad 0d40 b95e 5f3f 88d2 b03f
000000e0: 0f1d b33f fff0 8e3f 4eb1 723f 83c9 7d3f
000000f0: e812 a63f f22f d13f 44ac 9e3f 00e7 c03f

module.13.weight f4 [64, 1024]
-0.0003187788 0.015921958 0.011152738 0.0055420278 -0.016739817 -0.011055833 -0.0043549486 -0.014414942
0.0044406983 -0.017924853 0.0015706159 0.03135681 -0.0013338269 -0.0068890345 -0.015322251 -0.010309004
0.009443616 -0.0079664765 0.0058719018 -0.013370954 -0.03755493 -0.0106453495 -0.033894774 0.01057155
0.0053639486 -0.0119964415 0.0047147823 0.012924123 -0.022777261 0.0022705668 -0.015179601 -0.025880804
-0.02233956 0.0013841148 -0.04499387 -0.003938589 -0.022384718 -0.02329104 -0.017918963 0.0135642
0.030277777 -0.020221103 -0.040619407 0.0048259967 0.028516922 -0.0043228525 -0.028937371 0.0058442117
0.00880672 0.049487174 0.029925287 0.025790283 0.027544362 0.025693983 0.026378656 0.024355588
0.007750154 -0.0038786994 0.04176006 -0.025142891 -0.023002334 0.0014268277 0.003501144 -0.014017666
0.019218862 -0.025991144 -0.00962331 0.006329953 0.019552743 -0.022390207 -0.0034834796 0.018979482
0.014287071 0.012265001 -0.008656035 -0.008507946 0.024511669 -0.0035917063 0.01940534 0.032748718
0.05106184 -0.019569648 -0.021377485 -0.04881518 0.05505069 0.012544085 -0.041127738 -0.034397162
0.021343214 0.00925624 -0.042335603 -0.049786154 -0.008668963 -0.019008748 -0.013963104 0.00048731494
-0.013271639 -0.039860163 0.01973458 -0.024933714 0.032718033 -0.008161366 -0.0022623942 0.015513064
0.003919876 -0.018118175 0.038024914 -0.022512887 -0.01967212 -0.007868515 -0.015383013 0.016115166
0.016989112 0.0018080673 -0.022301212 -0.020634439 -0.037335232 -0.0085707335 -0.0031090889 -0.007101086
-0.025360597 0.0133929625 -0.0069823833 -0.023867097 0.011861024 -0.004050769 0.038340658 0.00019219745
0.025526429 -0.015130773 0.020994991 -0.02714567 0.007354224 0.019179624 -0.0058564655 -0.02690883
0.0068508363 0.027819455 0.008404284 0.010947625 0.029975288 0.028101603 0.03148746 0.03602168
-0.022804344 -0.009984575 0.0293425 0.013933593 -0.011781636 0.016744558 0.046144716 0.027984947
0.016473636 0.013979338 -0.0280225 -0.019841896 -0.008374575 0.036691055 -0.012085128 0.00016428102
0.011729285 0.010308358 -0.02401544 -0.017801257 -0.021115378 -0.020305295 -0.024820775 -0.011556195
0.0074494095 0.0045178495 -0.008552978 -0.007271213 -0.0009331814 0.0153520275 0.03578348 -0.006930558
-0.020546006 -0.017910982 -0.025590649 -0.009091568 -0.030587813 -0.03512552 0.012970104 0.00543575
-0.0010346703 -0.020831717 -0.026046272 0.01693588 -0.0032232665 -0.023044165 -0.017371347 0.025760159
-0.017070733 0.009445085 0.0264051 0.0062573818 0.0147975255 -0.045859884 -0.034191925 -0.014543341
-0.037990466 -0.022589728 0.0060661915 -0.019902067 0.026388513 0.01516518 0.0264834 -0.032841966
0.021190315 -0.0270375 0.034104764 -0.0029060119 -0.0025127125 0.00019318228 -0.004114047 -0.0030591972
-0.017235339 0.0047474997 -0.02603603 0.028824309 -0.014654027 0.00588846 -0.0043434165 0.010478772
0.017598288 -0.0015876588 -0.004369145 0.02670075 0.005974869 0.001867627 -0.022076795 0.0299671
-0.030638667 -0.03742549 -0.008352413 0.004682422 -0.007849234 -0.027991844 0.008754294 0.017630953
0.014205358 -0.008318868 -0.04173679 -0.01337158 0.020290399 0.0060981386 0.00408194 -0.010376939
0.012670766 -0.024517223 0.02690691 0.04011089 0.023375407 -0.0027080397 -0.034296114 -0.027510375
00000000: c421 a7b9 c46e 823c f9b9 363c e699 b53b
00000010: f121 89bc 8623 35bc f5b3 8ebb a62c 6cbc
00000020: 4783 913b 24d7 92bc 20dd cd3a 0070 003d
00000030: ced3 aeba 69bd e1bb 2e0a 7bbc 19e7 28bc
00000040: 65b9 1a3c d385 02bc 1569 c03b d911 5bbc
00000050: 33d3 19bd d569 2ebc 3fd5 0abd 4b34 2d3c
00000060: 10c4 af3b b98c 44bc 767e 9a3b b3bf 533c
00000070: 6197 babc cacd 143b dcb3 78bc fb03 d4bc
00000080: 7401 b7bc 306b b53a 7e4b 38bd 470f 81bb
00000090: 2860 b7bc dacc bebc caca 92bc 613c 5e3c
000000a0: 1a09 f83c baa6 a5bc 8960 26bd 6523 9e3b
000000b0: 529c e93c b7a6 8dbb 110e edbc cd80 bf3b
000000c0: 104a 103c 10b3 4a3d e025 f53c 2546 d33c
000000d0: b7a4 e13c 307c d23c 0d18 d83c 5f85 c73c
000000e0: 01f5 fd3b c731 7ebb 990c 2b3d 77f8 cdbc
000000f0: 646f bcbc 6504 bb3a 7373 653b 5aaa 65bc
00000100: e070 9d3c 61eb d4bc 16ab 1dbc 7f6b cf3b
00000110: 132d a03c ab6b b7bc 174b 64bb dc7a 9b3c
00000120: 5214 6a3c 25f3 483c 0bd2 0dbc e964 0bbc
00000130: b2cc c83c d562 6bbb f3f7 9e3c 8523 063d
00000140: 3826 513d 8750 a0bc d61f afbc 6df2 47bd
00000150: d57c 613d b585 4d3c 8f75 28bd 0ae4 0cbd
00000160: f7d7 ae3c 7ca7 173c 1968 2dbd 91ec 4bbd
00000170: 4408 0ebc 3cb8 9bbc 81c5 64bc 4e7e ff39
00000180: 4a71 59bc 6944 23bd 6aaa a13c ca41 ccbc
00000190: 5803 063d 40b7 05bc ad44 14bb 822a 7e3c
000001a0: 4e72 803b 916c 94bc 03c0 1b3d f26c b8bc
000001b0: 6d27 a1bc f2ea 00bc 0809 7cbc f403 843c
000001c0: c02c 8b3c acfc ec3a 08b1 b6bc 8e09 a9bc
000001d0: d4ec 18bd 436c 0cbc dbc1 4bbb 3ab0 e8bb
000001e0: 07c1 cfbc 286e 5b3c 7acc e4bb ee84 c3bc
000001f0: be54 423c 50bc 84bb 180b 1d3d 9c88 4939
00000200: cd1c d13c 10e7 77bc b0fd ab3c 9960 debc
00000210: b4fb f03b 961e 9d3c 98e7 bfbb e86f dcbc
00000220: fb7c e03b a0e5 e33c 1fb2 093c ab5d 333c
00000230: bc8e f53c 5535 e63c fff8 003d 788b 133d
00000240: 2dd0 babc 5896 23bc af5f f03c ba49 643c
00000250: c307 41bc e22b 893c 3e02 3d3d b040 e53c
00000260: b8f3 863c 9809 653c 718f e5bc 798b a2bc
00000270: 8335 09bc 5c49 163d b300 46bc da42 2c39
00000280: 302c 403c 63e4 283c 07bc c4bc f1d3 91bc
00000290: 28fa acbc 4a57 a6bc f054 cbbc 3256 3dbc
000002a0: 2d1a f43b 780a 943b ca21 0cbc 5b43 eebb
000002b0: bea0 74ba 1287 7b3c b391 123d bc19 e3bb
000002c0: 1950 a8bc 0dba 92bc 7ba3 d1bc cdf4 14bc
000002d0: 4b93 fabc c7df 0fbd 8f80 543c 601e b23b
000002e0: c69d 87ba 47a7 aabc fe5e d5bc 1dbd 8a3c
000002f0: 703d 53bb 1ec7 bcbc 5b4e 8ebc f806 d33c
00000300: ecd7 8bbc 8fbf 1a3c 824f d83c b90a cd3b
00000310: 5271 723c 93d7 3bbd d50c 0cbd 3147 6ebc
00000320: e49b 1bbd 180e b9bc e7c6 c63b a909 a3bc
00000330: b92c d83c 6077 783c b7f3 d83c 4c85 06bd
00000340: 5097 ad3c bf7d ddbc 70b1 0b3d ca72 3ebb
00000350: 52ac 24bb f990 4a39 21cf 86bb d07c 48bb
00000360: 2031 8dbc ea90 9b3b 8349 d5bc f520 ec3c
00000370: 7217 70bc fcf3 c03b 3853 8ebb 28af 2b3c
00000380: 492a 903c fd18 d0ba 0b2b 8fbb 88bb da3c
00000390: d5c8 c33b 2acb f43a 65da b4bc 907d f53c
000003a0: f1fd fabc 784b 19bd 8fd8 08bc 016f 993b
000003b0: 139a 00bc 274f e5bc 2c6e 0f3c ca6e 903c
000003c0: 97bd 683c dc4b 08bc 32f4 2abd 7914 5bbc
000003d0: 0d38 a63c e5d2 c73b cbc1 853b 0904 2abc
000003e0: 0b99 4f3c 58d8 c8bc e16b dc3c 514b 243d
000003f0: c87d bf3c 5e79 31bb 157a 0cbd 705d e1bc

module.13.bias f4 [64]
-0.012182096 0.0161455 0.01741916 -0.01445043 0.00081301027 -0.030719385 -0.01956231 -0.021717984
0.0184158 0.01449153 -0.034978665 -0.019944748 0.018441642 -0.032739688 -0.007945925 0.007930029
-0.017934045 0.018768672 0.016508965 -0.022762833 0.03989906 0.0018110799 0.0002716995 0.008110729
-0.0149647305 0.03010723 0.035778753 -0.029894205 0.012452187 -0.026002714 -0.015722115 0.005962505
0.025697093 -0.006543488 -0.0019080857 -0.007227362 0.006800816 -0.0075113387 -0.012578094 0.009351558
0.030963736 0.013979389 -0.007156193 0.019910103 -0.0098386435 -0.008362566 -0.022142693 0.008487474
0.031277772 0.0010949596 0.009002871 -0.028018232 0.02742392 -0.024874123 0.013773718 -0.028592095
0.043584708 -0.034682374 0.008530527 -0.025010025 -0.03002024 0.028196963 0.036202896 -0.0109742535
00000000: 6a97 47bc 9143 843c a0b2 8e3c 7fc1 6cbc
00000010: 3220 553a 38a7 fbbc 2341 a0bc eae9 b1bc
00000020: bbdc 963c e26d 6d3c ca45 0fbd 2b63 a3bc
00000030: ed12 973c 0d1a 06bd a02f 02bc f4ec 013c
00000040: 6bea 92bc c2c0 993c cf3d 873c 1f79 babc
00000050: 326d 233d c261 ed3a e472 8e39 dde2 043c
00000060: a12e 75bc 70a3 f63c be8c 123d b1e4 f4bc
00000070: 4204 4c3c a503 d5bc aacb 80bc 1e61 c33b
00000080: b682 d23c c16a d6bb bb18 faba 82d3 ecbb
00000090: 61d9 de3b ad21 f6bb 5a14 4ebc 4737 193c
000000a0: a9a7 fd3c cf09 653c 7f7e eabb 831a a33c
000000b0: 4332 21bc 2503 09bc 9864 b5bc 0c0f 0b3c
000000c0: 1f1d 003d bf84 8f3a c780 133c 7e86 e5bc
000000d0: 21a8 e03c d1c4 cbbc 29ab 613c f839 eabc
000000e0: e185 323d 1b0f 0ebd a0c3 0b3c d3e1 ccbc
000000f0: 02ed f5bc 51fd e63c 7d49 143d 5bcd 33bc

module.16.weight f4 [10, 64]
-0.025048345 0.10130325 0.22057474 -0.09523826 0.1544311 0.22130388 0.10990652 0.094809726
0.03414802 -0.15629315 0.04415519 0.057782352 -0.07183318 -0.015884075 0.25255236 0.008727386
0.122328065 0.17861643 -0.20042588 0.060187012 -0.14018093 -0.09092721 -0.039650057 -0.12287751
-0.05517055 -0.154511 -0.17731683 -0.10225047 0.26888543 0.06390125 -0.002020478 0.07129523
0.16847557 -0.07177134 0.086282566 -0.06448193 0.100582674 -0.0138316825 0.09906873 0.2380593
0.13501778 0.099498555 0.11880491 0.0046998546 0.28434628 -0.08734772 0.21823202 -0.03126147
0.18349184 -0.028490152 -0.015929665 -0.032676443 -0.017400922 0.12446309 -0.10848106 -0.05327697
-0.22612776 0.03967963 0.03374267 -0.0977341 -0.11331317 -0.01647219 0.18744794 -0.09664457
0.019548956 0.05557192 -0.14723457 -0.11678167 0.04710278 -0.26099584 0.08756387 0.076798595
0.0077324426 -0.14464517 0.06510429 0.04735923 -0.2315342 -0.120934375 -0.017173158 0.29967147
0.035593066 -0.18365249 -0.1514256 0.11951701 -0.24043643 0.09641446 -0.09785833 0.20721065
0.06883094 -0.176735 -0.23781699 -0.06444963 0.25662303 0.059112355 0.36141655 -0.36804903
0.24087767 -0.070043 0.07853093 0.08257434 0.06504763 -0.05282227 0.06899103 0.27970564
-0.071683235 -0.057936367 -0.20216545 -0.06954132 -0.11130583 0.098230734 0.31549048 -0.097954884
-0.12883437 0.11916807 -0.11166836 -0.017699244 -0.00606214 0.036916688 -0.16396263 0.03265772
-0.26856738 -0.034927893 0.10994944 0.15985596 0.011433494 0.21559088 -0.08244408 0.08218592
0.19806944 -0.023248665 0.15331705 0.116335034 -0.11421966 0.15279017 0.0061676195 -0.038246095
-0.1191225 0.18567994 -0.048256375 0.052126404 -0.065566614 -0.069273606 0.07957117 0.072948344
0.075460635 0.1361819 0.037966292 0.12649669 0.046641167 0.0974096 -0.05623475 -0.09171382
-0.054456983 0.14892343 0.031887673 0.014475752 -0.20430802 0.00070213596 -0.05901166 0.28457484
-0.1680895 -0.100303866 0.020813461 0.013434232 0.09936746 0.06605501 0.105939455 0.036834985
0.0718771 0.08216468 0.15728559 -0.07482443 0.18929465 0.027797481 0.018892461 0.11195258
0.0545395 -0.021240838 0.06757141 0.049160507 0.0963938 0.004694697 0.15612134 0.082668945
0.10231798 0.102625996 0.061280422 -0.045035284 -0.00014248349 -0.22042616 0.14957365 -0.103870586
0.06011891 0.076285936 -0.114090145 0.12551388 -0.19249934 0.027090529 -0.09562326 0.020368945
-0.07094828 0.11931319 -0.11606108 0.12274273 -0.022381281 -0.11268204 0.00690191 -0.06408256
-0.04281914 -0.03335778 0.26926368 0.090139806 0.15402015 0.10847065 -0.029391589 -0.004931706
-0.08102846 0.04213336 0.20856111 -0.114484675 -0.1507135 0.05853843 -0.07014606 0.089540735
-0.117424615 0.018057957 -0.053435747 -0.022652974 0.0774649 0.06617119 -0.045022797 -0.19902888
0.076176405 0.03967598 -0.0045085703 -0.06385863 -0.028375622 0.031131975 -0.10520299 -0.04108471
-0.060570333 0.03996608 0.08745772 -0.0774759 0.06948337 -0.118002445 0.25342077 0.08727966
0.13028659 0.033663347 -0.029112684 0.059956823 0.03036152 -0.10805897 0.19816105 0.10396287
00000000: 3032 cdbc 1478 cf3d 58de 613e 470c c3bd
00000010: 3023 1e3e 7c9d 623e ab16 e13d 9a2b c23d
00000020: cbde 0b3d 500b 20be 13dc 343d 30ad 6c3d
00000030: 461d 93bd 521f 82bc 8b4e 813e 4ffd 0e3c
00000040: 2387 fa3d 3ae7 363e 713c 4dbe a886 763d
00000050: 978b 0fbe 0c38 babd 1968 22bd 34a7 fbbd
00000060: 84fa 61bd 2238 1ebe 8b92 35be b268 d1bd
00000070: 5aab 893e a9de 823d ff69 04bb 3c03 923d
00000080: dc84 2c3e dafc 92bd eab4 b03d 1a0f 84bd
00000090: 4afe cd3d 489e 62bc 8ce4 ca3d d1c5 733e
000000a0: 1a42 0a3e e6c5 cb3d fd4f f33d 3d01 9a3b
000000b0: d695 913e 5de3 b2bd 3778 5f3e 070c 00bd
000000c0: 49e5 3b3e 2e64 e9bc ee7e 82bc bcd7 05bd
000000d0: 618c 8ebc 81e6 fe3d 512b debd f438 5abd
000000e0: 098e 67be 1c87 223d c135 0a3d d128 c8bd
000000f0: bc10 e8bd b0f0 86bc 5af2 3f3e 97ed c5bd
00000100: 2225 a03c 629f 633d a9c4 16be 3a2b efbd
00000110: d8ee 403d 3fa1 85be b054 b33d 9548 9d3d
00000120: 6e60 fd3b dd1d 14be 6655 853d c1fb 413d
00000130: 4d17 6dbe 71ac f7bd b9ae 8cbc 8a6e 993e
00000140: 09ca 113d 660f 3cbe 500f 1bbe 56c5 f43d
00000150: f834 76be f274 c53d f369 c8bd 072f 543e
00000160: 3cf7 8c3d 05fa 34be 4c86 73be 2bfe 83bd
00000170: 1864 833e cc1f 723d 970b b93e ec70 bcbe
00000180: a3a8 763e b472 8fbd d3d4 a03d bc1c a93d
00000190: b137 853d 2a5c 58bd 2b4b 8d3d 9435 8f3e
000001a0: a9ce 92bd af4e 6dbd 7604 4fbe ae6b 8ebd
000001b0: 50f4 e3bd 322d c93d f887 a13e 929c c8bd
000001c0: 28ed 03be 640e f43d 62b2 e4bd 01fe 90bc
000001d0: eba4 c6bb f435 173d d2e5 27be 1ac4 053d
000001e0: aa81 89be 8d10 0fbd 2c2d e13d 48b1 233e
000001f0: 8d53 3b3c dbc3 5c3e 71d8 a8bd 1751 a83d
00000200: b7d2 4a3e fc73 bebc 25ff 1c3e 1041 ee3d
00000210: ffeb e9bd 0775 1c3e be19 ca3b f0a7 1cbd
00000220: 7ff6 f3bd e222 3e3e 7aa8 45bd 7f82 553d
00000230: ca47 86bd 52df 8dbd 36f6 a23d f165 953d
00000240: 1b8b 9a3d 4573 0b3e 8b82 1b3d 5988 013e
00000250: cf0a 3f3d af7e c73d 6956 66bd 75d4 bbbd
00000260: 490e 5fbd 627f 183e a69c 023d b42b 6d3c
00000270: 1f36 51be 8c0f 383a 36b6 71bd cbb3 913e
00000280: a71f 2cbe 1d6c cdbd fe80 aa3c 411b 5c3c
00000290: 2b81 cb3d d947 873d c9f6 d83d 48e0 163d
000002a0: 4d34 933d f545 a83d 790f 213e 8d3d 99bd
000002b0: 75d6 413e 8bb7 e33c 5dc4 9a3c 6547 e53d
000002c0: d064 5f3d 4401 aebc e162 8a3d 875c 493d
000002d0: 1d6a c53d f9d5 993b 46de 1f3e 564e a93d
000002e0: 178c d13d 942d d23d 2e01 7b3d eb76 38bd
000002f0: 9f67 15b9 65b7 61be d629 193e 1aba d4bd
00000300: 3f3f 763d cd3b 9c3d 18a8 e9bd b686 003e
00000310: 8c1e 45be f5ec dd3c 21d6 c3bd c6dc a63c
00000320: 554d 91bd 795a f43d 6eb1 edbd 8a60 fb3d
00000330: f358 b7bc d7c5 e6bd 6b29 e23b b83d 83bd
00000340: 1f63 2fbd 2ba2 08bd eedc 893e 389b b83d
00000350: 75b7 1d3e dc25 de3d a1c6 f0bc 269a a1bb
00000360: 40f2 a5bd 0894 2c3d 0b91 553e f176 eabd
00000370: a454 1abe fec5 6f3d bda8 8fbd 2261 b73d
00000380: 517c f0bd 48ee 933c 71df 5abd bb92 b9bc
00000390: eba5 9e3d c384 873d d369 38bd 3ace 4bbe
000003a0: 6002 9c3d 4883 223d a1bc 93bb 50c8 82bd
000003b0: fe73 e8bc 7c08 ff3c aa74 d7bd 7148 28bd
000003c0: 9918 78bd 79b3 233d 081d b33d afab 9ebd
000003d0: 4c4d 8e3d 44ab f1bd 5ec0 813e aebf b23d
000003e0: d969 053e 94e2 093d b97d eebc 4995 753d
000003f0: b9b8 f83c 054e ddbd bbea 4a3e 7cea d43d

module.16.bias f4 [10]
-0.25808632 -0.13163021 -0.08604109 0.32661632 -0.04833603 0.065226346 -0.1371525 -0.04242407
-0.023744898 0.15853381
00000000: e423 84be 12ca 06be 5036 b0bd 413a a73e
00000010: 00fc 45bd 6495 853d b471 0cbe ddc4 2dbd
00000020: a984 c2bc b056 223e
