models/xue_15.pth (torch, 587967 bytes, 10 tensors)

weight f4 [32, 3, 5, 5]
00000000: 9c85 c7bd 9326 9b3d 96a1 8a3d 7766 fd3c
00000010: c8f3 883d a0b1 3c3c aea7 adbc ec2b 203d
00000020: a3e0 96bd 7b98 943d 7b3e a8bd ab29 c8bd
00000030: ad66 5bbe b912 89bd 691c 8abd 3e3a 1cbd
00000040: 61a1 193c 40a2 09be 6835 6abd cb94 a8bc
00000050: cc5a 1abd f84c 513d d5a3 d93d 595f 263d
00000060: f354 d03d 0d01 a3bc fac3 693d 802c db3d
00000070: 1e62 cf3a 1cbb c7bd 234f 343d 6ad0 903c
00000080: b332 203e 8979 26bb feb0 9ebd a8e2 40bd
00000090: 1566 afbd 4609 f7bd 222b d5bd 3756 a9bd
000000a0: 2d30 c93d e773 25bd 4813 313c 4bcb 7bbc
000000b0: 3b89 d53d da24 823d 3921 5e3c 8b51 343d
000000c0: ac87 36b8 9e79 dabd 9664 1b3d 01b0 b33d
000000d0: 87b8 393e 6283 373d 8835 85bd f31f c73d
000000e0: c1b6 bc3d 5096 543d 2d24 343e 1cc2 933d
000000f0: b7d7 81bd 34f1 bbbd 3672 a83d 5c83 ca3d
00000100: 3e4a 12bc 6f47 dd3d 5288 d0bd b8a2 c0bd
00000110: 42ec 48bd b0ba ad3d b394 1c3d 6121 30bd
00000120: 31c6 c3bc 7b21 e5bd 8ecf 973d e540 a13d
00000130: 0a07 08bd c437 52bd 6c2f 8f3c 4717 14be
00000140: 296e c2bc f57a 803d 0e96 a53d 124c b9bc
00000150: fb7c b2bc 91d9 f53d e2fd 913d a5e6 b63d
00000160: 298b fabc 2b48 1cbe 9558 f8bd ce25 20be
00000170: ea5d 2abd d5ca 91bd 872c 67bd e470 2cbc
00000180: ce8e 9bbd 9653 633d c837 5d3d c41a 0f3e
00000190: 4f5e 123e 7fc7 083e e18f af3d 1895 53bd
000001a0: 4f94 bcbd 08ab cc3d 517e 913d 9bd4 1c3e
000001b0: a521 81ba 5221 d93c 18e8 033e 6d9c 9a3c
000001c0: 4e6f f9bd da23 9f3d 2ddf 6e3d 2628 c0bc
000001d0: 2373 0dbe dca0 07be c7cc 0fbe e5f1 09be
000001e0: 1a6c b33d e154 05be dcda 30bc 99a8 b13d
000001f0: 33e8 c63d e912 103e 0f4b 1c3e 6938 963d
00000200: c15c 053d 92c2 49bb 65fc 44bd f43c aa3d
00000210: b6da d8bb 47e1 603d 3184 cc3d 4dfa 71bd
00000220: 49ec a03d 2d4f d9bd b614 263d c1af 08be
00000230: 31d4 51bd bd16 12bd 0538 c2bd ce11 ecbc
00000240: a7df 80bd 283d 923d 8bd9 c8bd 2c79 44bd
00000250: afe1 123c 81a6 8b3d 7852 5c3d 7d13 213e
00000260: 7f86 cbbd beca 46be 70b3 a4bd 38d1 9d3c
00000270: b3e7 533e dcb1 ba3b 94f3 0d3b 5d99 d2bd
00000280: ffff 2e3c c426 5f3e 6f48 133d c914 11be
00000290: e92b 62be b93d 2d3e 8753 0c3e 4072 3ebd
000002a0: 142b 113d 5f83 5bbe 624b 473d e1a0 643d
000002b0: d6c6 b7bb ec20 4a3d 91d1 93bd 933e 213e
000002c0: 9447 ba3d 2741 0e3b d09e 99bd d224 95bc
000002d0: 98d9 4d3e 2f2a a93d 26f8 ddbd f056 5dbe
000002e0: 64af afbd 6d70 b53b 0a4b 6a3e a82c b23d
000002f0: 7f93 61be b42f 7fbd 8961 1f3e 24c5 bfbb
00000300: 42b5 4b3d 4238 41be bfa7 5cbe 8217 d43d
00000310: dd30 1a3e 7080 08bd b50a 84bd 8554 09be
00000320: b299 013e 2663 3f3c 6d4c a9bd ce87 2fbe
00000330: 0200 6f3d cd66 1f3e 70c3 f23d 6d99 f7bd
00000340: 6fbb 6bbe 19ea 26be e367 3b3e 52f7 493e
00000350: 1193 d3bd d2b1 c0bd 76f3 25bd c6b6 113e
00000360: 6cb6 a9bc 14f5 a73d c9f8 1ebc 62e5 48be
00000370: f5e1 5b3d 8087 183e 1328 0f3d 2a61 fdbd
00000380: 9d5b 15be 9664 35bd 8a69 f6bc eff7 0cbd
00000390: 47bd f1bd ce77 ebbc bc89 8a3c 4896 f1bc
000003a0: 92fc b33d 7822 9f3c 93cd 47bc 8f57 aebd
000003b0: 7db9 08be 01bb a0bd f040 ae3d 9751 033d
000003c0: 1c1a 45bd 8e8f ffbd 3ea8 6ebe b401 54be
000003d0: 5684 2dbd abc0 623d 2c8c d0bd 4590 84bd
000003e0: b808 1f3c 4e1b 8abd dc49 bebd d496 7cbd
000003f0: b5cc a13d 1fb4 84bd e512 1fbd 8c74 f63d
-0.09742281 0.07575717 0.06769101 0.030932648 0.066871226 0.0115169585 -0.02119812 0.039104387
-0.07367065 0.07255646 -0.08215042 -0.097735725 -0.21425886 -0.06693024 -0.067437 -0.03814148
0.009376855 -0.134408 -0.05717984 -0.020578763 -0.037684247 0.051098794 0.106269516 0.040618274
0.10172453 -0.019897962 0.057071663 0.10701847 0.0015822088 -0.09752485 0.044020783 0.017677505
0.1564434 -0.002540203 -0.07748602 -0.047091156 -0.085643925 -0.12062316 -0.104086176 -0.08268397
0.09823642 -0.040393736 0.01080782 -0.015368293 0.10426565 0.06354685 0.013557726 0.044023078
-4.3518536e-05 -0.10667728 0.037937723 0.087738045 0.18136798 0.04480303 -0.06504351 0.09722891
0.09214545 0.05190116 0.17591925 0.07214758 -0.063399725 -0.09176865 0.08224909 0.09888336
-0.0089288335 0.108046405 -0.10182251 -0.09406036 -0.049053438 0.084828734 0.038227748 -0.043000583
-0.023898216 -0.111880265 0.07412635 0.07873706 -0.033209838 -0.051322713 0.017478667 -0.14462005
-0.02373417 0.06273452 0.08085261 -0.022619281 -0.021788111 0.12004388 0.071285024 0.08930711
-0.030583935 -0.15261905 -0.12126271 -0.15639421 -0.04159347 -0.07118765 -0.05643895 -0.010524962
-0.07595597 0.055499636 0.054008275 0.13975054 0.14293788 0.13357352 0.085723646 -0.05165586
-0.09207975 0.09993559 0.07104171 0.15315478 -0.0009851946 0.026505146 0.12881505 0.018873418
-0.12179433 0.0777051 0.058318306 -0.023456644 -0.13813452 -0.13244957 -0.1404296 -0.13471182
0.08760853 -0.1302066 -0.010794368 0.086747356 0.09712257 0.14069714 0.15263008 0.07334978
0.03255916 -0.003078614 -0.048092265 0.08312407 -0.0066178693 0.05490234 0.09986151 -0.059076596
0.07857568 -0.10610805 0.040547095 -0.13348295 -0.051227752 -0.035666216 -0.09483341 -0.028817084
-0.06292658 0.07140571 -0.09807118 -0.04796712 0.00896494 0.068188675 0.053789586 0.1573009
-0.099377625 -0.19413278 -0.080420375 0.019264802 0.20693855 0.005697472 0.0021660076 -0.10283158
0.010681151 0.21792132 0.03595775 -0.14168085 -0.22087063 0.16918077 0.13703738 -0.046495676
0.035441473 -0.21436833 0.048655875 0.05581749 -0.00560842 0.049347803 -0.07217706 0.15746526
0.09095684 0.0021706314 -0.07500994 -0.018206034 0.20102537 0.08259999 -0.10838346 -0.21615195
-0.08578375 0.005537084 0.22880188 0.08699924 -0.22028922 -0.062301353 0.1556455 -0.0058523584
0.049733408 -0.18869117 -0.21548365 0.10356046 0.15057702 -0.033325613 -0.06447355 -0.13411148
0.12656286 0.011681354 -0.0826653 -0.17141649 0.058349617 0.15566559 0.11853683 -0.120898105
-0.23020719 -0.16300239 0.18301348 0.19723251 -0.10330785 -0.094089165 -0.040515386 0.14229879
-0.020716868 0.08201042 -0.00970287 -0.19618753 0.053682286 0.14895439 0.034950327 -0.12372048
-0.14585729 -0.04428538 -0.030079622 -0.034416135 -0.1180368 -0.02874365 0.01691138 -0.029490605
0.08788408 0.019425616 -0.012195009 -0.08512794 -0.13352008 -0.07848168 0.085084796 0.032060232
-0.048120603 -0.12478553 -0.23306367 -0.20703775 -0.042362534 0.055359524 -0.10182986 -0.0647283
0.009706669 -0.06743489 -0.09291431 -0.06166728 0.07900373 -0.06479668 -0.03883638 0.12033948

bias f4 [32]
00000000: 8132 d1bd 05c6 51be 6ace 163b d372 03be
00000010: f165 82be 61e3 c7be e64f cc3d de05 af3c
00000020: 6523 9ebd e83d d3bd 76a8 81be b5ef 66be
00000030: cac1 98be 8940 debd 5287 13bd fc24 2b3e
00000040: 8f6f cbbd 5195 84bc c8e3 69be acb8 9bbe
00000050: df0e 1d3d 4fe1 583e dfad 0ebe 2058 423e
00000060: 5a25 f43c 9e9e e53d e70c 863d b121 f23d
00000070: 9eaf ff3d cd7a 863b d934 113e 5aab 913d
-0.10214711 -0.20485695 0.0023011216 -0.1283677 -0.254684 -0.39040664 0.09976177 0.021365102
-0.07721595 -0.10314542 -0.25323838 -0.22552378 -0.2983535 -0.10852153 -0.036017723 0.16713327
-0.099333875 -0.01618448 -0.22840798 -0.3041433 0.03834426 0.21179698 -0.13933514 0.1897893
0.029802967 0.112118945 0.0654543 0.118228324 0.12484668 0.0041039945 0.14180316 0.07112761

weight f4 [32, 32, 5, 5]
00000000: eade e83c f131 2a3c e6bb cd3c ae34 333d
00000010: 7b1c df3c 9d62 44bc ecce da3c 10ca 043d
00000020: 1f9d 6abc 6033 13bc 72e7 72bc 809e 2a3d
00000030: 65f3 583c 9cdf 9dbb 6a3d 393d 0832 ba3c
00000040: 5b14 c9bb 40ea d13b dcf4 d93b 830c c5bc
00000050: 9d0c e83c 5bb6 973c 185a 86bb 8f7c c73c
00000060: 5be8 27bc e0e4 173d 74c5 973b 3bfa f73c
00000070: fa7b ec3b c3cd 813c 9b1f 7bbc 684b 113d
00000080: 4a4a f93b 446d 4b3d c11c 023d 8b9f 873b
00000090: 368b 353d 8873 653c 7a3d 5d3c 050d 3fbc
000000a0: 230b 073c d083 0f3d caac 78bc 30aa 1fbd
000000b0: 4bc7 ecbc f158 9bbc 7d08 eebc 8610 d83c
000000c0: a9f0 423d 99b9 223d 4b3d 263c 4a9c 79ba
000000d0: bc23 b2bc a81a 2abc 6d06 a0bc ca72 93bb
000000e0: 6611 62bc d600 b2bb 39a6 d33c da82 e1bb
000000f0: ed64 06bc 6a0d c23c 0f01 d3bb 541f 94bc
00000100: 8c0e 46bc 4dd3 e4bb 2222 583c 5538 e0bc
00000110: dbf5 9a3b 75f6 983c fb4e a8bc 2613 e3bc
00000120: 62e2 5f3b 00e6 90bb cd5c aa3c 76c7 0dbd
00000130: 565d 703c cd99 8a3b b8ae da37 9e97 ab3c
00000140: aea4 9c3c 00d4 203d 0456 e1bc b176 d7bc
00000150: 5aca e23c 1e27 f43c 35cd 643c 9555 c63c
00000160: d2ba 0dbc 8a89 2d3d 7caf 1b3d 8a0b 293d
00000170: 3ba6 3d3d 5f19 203d 71fb efbc b72b 02bc
00000180: 38b0 0f3c 3dcf 59bc eb7b 433d 33ec 593c
00000190: 504d 073c b36b 753c 307b 9c3b 31d6 cf3c
000001a0: f5d6 0a3d 0a14 103d 3bc7 9e3b b956 05bd
000001b0: f115 aa3c 40fb 06bc 3c3f 113d ffb3 aa3c
000001c0: 1a42 503c fceb ebbb 577e a4bc b0d0 cdbc
000001d0: 6365 08bc eb66 15bb acae 163d 7582 c13c
000001e0: 3870 113d c95b 2c3d ad9d 88bc 4193 83bc
000001f0: 52f1 dfbc 9fe6 d73b e2a9 453d 8584 833d
00000200: df4f 853d c4e9 113d 70a0 0f3d 1d19 443d
00000210: 760b 34bb d0f3 d53b a7d0 6cbb 8411 dd3c
00000220: 016a 563d edbc c23c 8c23 1c3c 3da7 9d3c
00000230: e9a1 ba3c b459 ee3b 6d44 95bc 76ce aa3a
00000240: 7c1b 8bbc fe59 9a3c 935f 8abc fd45 d7bb
00000250: 1f29 8bbb 8780 ffbb b5f5 4bbd 08e5 d7bb
00000260: 3fc4 47ba 5076 073c a28a b13b c8ee 993c
00000270: b92a 4239 3587 4b3d d8c0 c9bb 974f 143c
00000280: f22d c3bc ea60 163d 611d f63c f197 353c
00000290: 14d0 233c 1b34 b53c f7d6 873d 342d 1c3d
000002a0: 7353 433c 3170 2e3c 6ed1 f23c 1b74 813d
000002b0: 2628 683d afd9 763d 55d5 a03b c32f eb3a
000002c0: ed9a 223d a5b8 deb9 1271 babc 6e29 1f3c
000002d0: 43e2 0f3d 738e 90bc fda6 3f3d d3b8 5c3c
000002e0: 5411 1c3d 36e2 0c3d 220e 033d 49a0 453d
000002f0: 12b9 483c 0dc4 923b 2e58 0c3d 4bf6 e03c
00000300: 2bac 0bbc 1267 113d 9d33 f63b 9309 7b3c
00000310: 7782 d53c 54fb 763c 16be 1d3d 6f83 45bc
00000320: f021 a3bc e6e3 debc fa73 01bb 23ce fe3b
00000330: 3a9a 0c3c 3381 d8bc 61af 953c 3c9f bb3c
00000340: ab2a 463c 23b9 15bc ce57 5fbc a043 bdbb
00000350: 78af 573c 4cd9 eb3b 9ac0 bdbb 8e59 233d
00000360: 2c56 a23d 07c1 9d3d b3ec a03d 091b f73c
00000370: 3f2f 573d 8801 013d b517 813c 3dbd d5bc
00000380: e0d2 dfbc 429a bc3c f916 da3c 1381 af3c
00000390: e7ac 8a3c 6a7f 1dbd 23cc 88bb 837f cf3c
000003a0: 5d22 033d e0ca 3d3c e9f3 fbbb 2fab dd3c
000003b0: 3f2e 8f3c 1361 763b 0ed9 cdbc f6b0 a0bc
000003c0: e52a 6a3d c017 643d 7bb9 593d 7d3b 2e3d
000003d0: c864 ae3c d80e 833b e146 863c 60c0 cc3c
000003e0: a0b4 8f3c 77d0 95bc a6a5 14bc bd8f 863c
000003f0: af91 89bc b267 18bc 7fd2 a73c ed91 b03a
0.028426606 0.0103878835 0.025114011 0.04375141 0.02723526 -0.011986402 0.026709996 0.032419264
-0.014319687 -0.008984417 -0.014825689 0.041655064 0.0132416235 -0.004817916 0.045224585 0.022728935
-0.0061364598 0.0064060986 0.006651504 -0.024053818 0.028326327 0.018519571 -0.0041000955 0.024351386
-0.010248269 0.037083507 0.0046316925 0.030270686 0.0072169276 0.015845185 -0.01532736 0.035472304
0.007607733 0.04966475 0.031765703 0.004138892 0.044322215 0.014004596 0.013503427 -0.011660819
0.008242401 0.035037816 -0.015177915 -0.038980663 -0.028903624 -0.018963309 -0.029056782 0.026375066
0.047592793 0.03972778 0.010146449 -0.0009521885 -0.021745555 -0.010382332 -0.019534314 -0.004499768
-0.013798093 -0.0054322286 0.025836097 -0.006882054 -0.0082027735 0.023688037 -0.006439335 -0.018081345
-0.012088429 -0.006983197 0.013191732 -0.027370611 0.0047290153 0.018672207 -0.020545473 -0.027719092
0.0034162034 -0.0044219494 0.020796204 -0.03461405 0.0146706905 0.0042297603 2.6068985e-05 0.02094632
0.019121494 0.03926468 -0.027506836 -0.026301714 0.02768438 0.029803809 0.013964941 0.02421073
-0.008650498 0.042367496 0.03800915 0.04127077 0.046301108 0.039086696 -0.029294701 -0.007944993
0.008770041 -0.013294038 0.0477256 0.013300943 0.008258179 0.014979291 0.0047754273 0.02537069
0.033896405 0.03517536 0.0048455275 -0.03255341 0.020762416 -0.008238614 0.035460696 0.020837782
0.012711072 -0.0071997624 -0.020079775 -0.025123924 -0.008324954 -0.002279694 0.036787674 0.023621777
0.03550741 0.04207972 -0.016676748 -0.016061427 -0.02733675 0.0065887715 0.048257716 0.064217605
0.06509375 0.035623327 0.035065114 0.047875512 -0.0027472652 0.006529309 -0.0036135109 0.026985891
0.052347187 0.023771727 0.009529959 0.019244784 0.022782283 0.007273877 -0.018221105 0.0013031501
-0.016980879 0.01884174 -0.016891276 -0.0065696226 -0.0042468454 -0.007797304 -0.04979487 -0.006588582
-0.00076204905 0.008267954 0.0054181376 0.018790618 0.00018517197 0.04968949 -0.006157022 0.009052179
-0.02382562 0.03671352 0.030043306 0.011083589 0.00999834 0.022119572 0.06632798 0.038129047
0.011921751 0.010646866 0.02964088 0.063209735 0.056678914 0.060266193 0.0049082437 0.0017943311
0.03969853 -0.0004248071 -0.022758994 0.009714467 0.03512789 -0.01764605 0.04679011 0.0134718
0.038102463 0.03439542 0.0319959 0.048248563 0.012251155 0.0044789375 0.034263782 0.027461192
-0.008524935 0.035498686 0.007513477 0.015322107 0.026063187 0.01507457 0.03851136 -0.012055262
-0.019913644 -0.02720828 -0.0019752965 0.0077760383 0.008581692 -0.026428794 0.018272104 0.022903077
0.012095134 -0.009138378 -0.013631774 -0.005775884 0.013164394 0.0071975347 -0.005790782 0.039880328
0.07926592 0.07702833 0.07857647 0.030164259 0.05253529 0.0314956 0.015758375 -0.026091212
-0.027322233 0.023022775 0.026622282 0.021423852 0.01692815 -0.03845159 -0.0041747256 0.025329357
0.032015193 0.011584014 -0.0076889885 0.027059166 0.017478107 0.0037594482 -0.025127914 -0.019615632
0.057169814 0.055686712 0.053155404 0.0425372 0.02128829 0.0039995722 0.01639122 0.024994075
0.017542183 -0.01828788 -0.009072697 0.016425962 -0.0167931 -0.009302067 0.020486115 0.0013471224

bias f4 [32]
00000000: af28 b6bc 3ce3 33bd b06a 45bd 5188 33be
00000010: fe7d 03be e39a 0bbd b6ad 1abe 0faf a9bd
00000020: a2ed a2bd c4f9 b4bc e248 7cbe 8663 58bb
00000030: 78f2 9ebd b3bd 25bc e240 51bd d80c a7bc
00000040: 73c6 c4bc 70e8 043d 0853 90bd fd8d b1bc
00000050: c887 62bd 7d0f cfbc 8a74 67bd 456f 533d
00000060: 6067 873c 5312 cdbd 04c7 63bd 4528 76bd
00000070: 4e9a 37bd af77 243c d9cd d3bd 8f32 32bc
-0.022236196 -0.04391788 -0.04819745 -0.1753247 -0.12841031 -0.03408326 -0.15105328 -0.08285343
-0.07955481 -0.022091754 -0.24637178 -0.0033018305 -0.07761091 -0.010116029 -0.051087268 -0.020391867
-0.02402041 0.032448232 -0.07047087 -0.02167415 -0.055305272 -0.02527594 -0.056507625 0.051619787
0.016528785 -0.10013261 -0.055609718 -0.060096998 -0.04482489 0.0100383 -0.10341997 -0.010876312

weight f4 [64, 32, 5, 5]
00000000: 8e0d 66bc bf8a 04bc 9807 9fbc 6e16 28bd
00000010: c408 03bd 9623 193d a879 c03b c041 013c
00000020: ab01 11bc 1612 bf3c f51e b7bc ccf7 debb
00000030: af8a 4ebc 5bfc f73c 5ce0 93bc 6634 b6bc
00000040: c880 0ebd e26d ecbc 3850 36bc 983e 843c
00000050: 1628 c13a da05 093c 522d 89bc 2c3b 143d
00000060: 5655 003c 9e45 c1bc 3bf8 43bc 8b44 8ebc
00000070: 0719 09bd c184 c4bc 850d 2f3d 6b37 2f3b
00000080: fa26 5c3c 474a 8fbb d620 c2bc 9891 d33c
00000090: ef3f 1dbb fd99 4d3c 1d55 473b 0d10 57bc
000000a0: a369 cabc d96e be3c 3a1a ccbc b1f9 78bc
000000b0: c926 b2ba 9843 4b3b 47fd 8ebc dad8 45bd
000000c0: e4a1 ee3a ec3d e3bc c249 9839 6c0b 0dbd
000000d0: 98ee 013c c6c1 adbc 94f9 013d 543a cb3b
000000e0: 91c6 21bd 4baa 093b ad6f ab3c b30b a13c
000000f0: bc54 133c e7c1 243d cc62 17bd e5e7 7a3c
00000100: 167d 073d 3c3d 30bd 5bf7 83bb 529e dfbb
00000110: 4843 25bd b26b 033d 951d 9f3c dccf 16bd
00000120: 0087 bb3b 2d6a af3c 4bd8 cf3c 2d4b 8dbc
00000130: 4ee2 f9bc 8d6a b9bc 72a5 3a3d bd72 103c
00000140: e7e9 443c a9bd 61bd 50a9 2e3c c869 343d
00000150: 5788 483d 1d3e f9bc 493f b8bc d8a0 643d
00000160: 40ad eb3c 1cf7 99bc eef8 933c 201f da3c
00000170: 485e ce3c d949 523c d595 483c 051f 90bc
00000180: 5f09 b4bc e44e a23c a4b4 a4bc 45ec fb3c
00000190: b739 593c 2ef7 693d 0b7a 693d 4ca4 c1bc
000001a0: 4ebd 2dbd 9e1a 7bbc adf4 c23c 6e12 97ba
000001b0: 33ad b93c 92d4 e5bc 5db4 093b a3c1 a33b
000001c0: 788b f73c 1365 4fbc f7b7 e6bb 7c3c 053d
000001d0: 5fd0 c13c f286 0ebc 5121 363c 9b8d 9e3c
000001e0: cbf0 c2ba b71d 163d 7299 043d daf9 063d
000001f0: 25f4 b03c 0adf f2bb dffd ff3c 04db 2d3b
00000200: bf00 da3b 3256 b9bc b4a8 36bd 0f43 843d
00000210: 99fc ed3c d4a1 b2bc e682 323c 6392 c4bc
00000220: e8e8 75bc 9564 81bc 71a0 2dbc 2eed 8c3c
00000230: e85b 38bc ca7f 89bb 4598 96bc d210 f9bc
00000240: 12a6 7ebc 80a6 043d 46a5 2b3d d4b8 e0bc
00000250: 7125 c23c bcbd e9bc b219 213c c54c f8bc
00000260: 0ab8 ef3a 280f 54bc 00af 21bd 6cbc 293d
00000270: 42e6 693c fc0f c5bc 6272 41bd 91ed 8f3c
00000280: 1bd4 8d3c 30b6 4cbd 1f88 e33a f1f1 b0bc
00000290: 9827 563c b498 033d 52f8 63bc 8f33 10bb
000002a0: b986 e23b a137 2abd 927f 38bd 75f1 60bd
000002b0: 4c0d 6c3c 5bfd 1cbc 92e9 293d 1389 493b
000002c0: 692b 40bd 3a78 f0bb cc63 0b3b f6c3 28bd
000002d0: 37d4 d3bc a74c 26bd b886 4bbc ac50 82bc
000002e0: 33d6 d43c 5d4f c33c c101 3ebd 9459 94bc
000002f0: 87b5 093d 1580 31bc 4816 373c 3797 3bbc
00000300: 9813 103c 7b11 213c 70bf 7b3a fcb3 d9bb
00000310: 424a 653c 7ae5 24bc 7332 7abc 479b a13c
00000320: ed2e e3b9 4d99 90bc 9013 e73c 3966 4fbc
00000330: 8679 24b9 de80 4dbc 2ca2 bcbc cf20 05bc
00000340: 81fa af3c 6067 ddbc f646 4c3c f034 5bbc
00000350: 8579 443d 7706 dcbc 5dd5 9e3c 4354 b73c
00000360: 6c4b c3bc c44d dd3c ba78 ba3c 58d9 e7bc
00000370: 4ec5 5abc 28d4 533c 86dd 9339 e1b8 4d3c
00000380: 5047 13bc 971f 41bc b911 933b 9092 a6bc
00000390: e9e6 b63c 0211 f3bc 4ce6 40bc 54c4 b5bc
000003a0: df22 eb3c d2e3 833c 467f 453d fc45 acbc
000003b0: dd20 89bc 8d46 383d 5651 eebc 8e7b dd3c
000003c0: df5b 43bd 0f17 fcb8 b054 64bc 118b b4bc
000003d0: 1e5c dcbc cd1d 58bc 0e05 5dbc b8d8 a03c
000003e0: 088a 5bbb 9505 123b fc10 803c a834 c6ba
000003f0: 5765 10bc adb6 f03c 32d0 91bc 7f83 99bc
-0.014041318 -0.00808972 -0.0194128 -0.041037016 -0.03199078 0.037387453 0.0058738776 0.007889211
-0.008850495 0.023324054 -0.022353629 -0.006804442 -0.012606307 0.0302717 -0.018051319 -0.022241782
-0.034790784 -0.02886099 -0.011127524 0.016143128 0.0014736678 0.0083632115 -0.016745243 0.036189243
0.007832846 -0.023592766 -0.011961038 -0.017366668 -0.033471134 -0.023989083 0.042737503 0.0026735913
0.013437027 -0.004372868 -0.023697298 0.02582626 -0.0023994406 0.012548921 0.0030415722 -0.013126385
-0.024708575 0.023246216 -0.02491485 -0.01519625 -0.0013591881 0.003101563 -0.017454756 -0.04830251
0.0018206206 -0.027739488 0.00029046653 -0.03443472 0.00793042 -0.021210562 0.031732157 0.0062020216
-0.03949601 0.0021006044 0.020927275 0.019658899 0.00899237 0.040223982 -0.036959454 0.015314077
0.033078276 -0.043027148 -0.00402729 -0.006824293 -0.040347368 0.032085128 0.019423285 -0.036819324
0.0057228804 0.021412933 0.025371691 -0.01724776 -0.030503418 -0.022633815 0.045567937 0.008816418
0.012018657 -0.055112515 0.010660484 0.044046193 0.04895815 -0.030425126 -0.022491114 0.055817455
0.028769135 -0.018794589 0.018063035 0.02662617 0.025191441 0.0128349895 0.012242754 -0.017592916
-0.021977125 0.019813009 -0.020105667 0.03075231 0.013258389 0.057120495 0.057001155 -0.023637913
-0.042416863 -0.01532617 0.023798311 -0.0011525878 0.022665596 -0.028055463 0.0021012046 0.0049974485
0.030217871 -0.012658375 -0.0070409733 0.032528386 0.02365893 -0.008699166 0.011116342 0.019354632
-0.0014872787 0.036649432 0.0323729 0.03295312 0.021600792 -0.0074118422 0.031248985 0.0026528249
0.006652921 -0.022624109 -0.04459448 0.06458103 0.029051112 -0.021805681 0.010895466 -0.023995584
-0.015009142 -0.015795032 -0.010597334 0.01720294 -0.011252381 -0.004196142 -0.018383155 -0.030403528
-0.015542524 0.03238535 0.041905664 -0.027431883 0.023699494 -0.028532855 0.009832786 -0.030310044
0.0018289101 -0.012943067 -0.039473534 0.04143946 0.014276089 -0.024055474 -0.047228225 0.017569335
0.017313054 -0.049978435 0.0017359293 -0.021599742 0.013070963 0.03212805 -0.013914185 -0.0022003388
0.006913033 -0.041556958 -0.045043536 -0.05491777 0.014407467 -0.009581889 0.041482516 0.0030751869
-0.0469164 -0.007338551 0.00212692 -0.041202508 -0.025858028 -0.040600445 -0.012422256 -0.015907608
0.025981044 0.023841554 -0.04638839 -0.01810912 0.033620384 -0.01083376 0.011174746 -0.011449627
0.008793734 0.009830828 0.00096034165 -0.0066437703 0.013994755 -0.010064477 -0.015270817 0.019727362
-0.00043331776 -0.017651225 0.02820757 -0.012658649 -0.0001568553 -0.012542931 -0.023026548 -0.008125498
0.021481754 -0.027026832 0.01246809 -0.0133793205 0.047967453 -0.026858551 0.019388849 0.022379046
-0.023839675 0.02701462 0.022762645 -0.02830188 -0.013352705 0.012929 0.00028203073 0.012556286
-0.00898917 -0.011787317 0.0044881967 -0.020333558 0.022326903 -0.029671196 -0.011773657 -0.022188343
0.028703151 0.016099844 0.04821708 -0.021029465 -0.016739303 0.044989157 -0.029091518 0.027036455
-0.047695037 -0.000120205914 -0.013936207 -0.022038968 -0.026899394 -0.013190699 -0.013489975 0.01963459
-0.003349902 0.002228116 0.015633099 -0.0015121894 -0.008813224 0.029383982 -0.01779947 -0.01873946

bias f4 [64]
00000000: 76fc f0bc c9c9 1dbd 9fe1 aabd e0b3 9a3b
00000010: e515 c8bd 16fb 10bd 7808 52bd f67e c1bc
00000020: ea57 21bd 3222 8cbd 6f00 c4bc cdc0 97bd
00000030: 1de9 0bbd 166d 03bd 3abf 6cbd f02c b738
00000040: fd45 31bd 600b dbbc a2bc 61bd 72d9 233d
00000050: 33f9 24bd 22b3 e0bc 21cc 83bd ec5b 45bc
00000060: 98b6 dfbd 81ed a8bd 25c0 6fbd addd 80bd
00000070: 90b7 1d3c c956 d8bc 9133 e1bb c98c 6cbd
00000080: 326b 23bc 8385 a9bc 52a5 8abd 1fdd 493d
00000090: 761e 5fbd 1d53 0e3d d845 88bd a9c7 d9bb
000000a0: eea9 8ebd 9fd1 dcbd 097d dbbc 7da7 22bd
000000b0: 228d 00be f2ee c9bc 26eb d6bc e5f9 b73c
000000c0: 1606 3bbd 9b1e dabd 097d 51bb 8f80 34bd
000000d0: 06fe b13c 88b7 43bc 5273 d4bd a778 88bb
000000e0: c5af 4dbd 1dd9 82bc 001b dcba 6310 0a3d
000000f0: 5fb1 193d a3c7 2a3c c267 e0bc 02c5 943c
-0.029417258 -0.038522515 -0.08343815 0.00472115 -0.09769801 -0.035395704 -0.051277608 -0.02362011
-0.039390482 -0.0684246 -0.023925988 -0.07409821 -0.03415786 -0.032086454 -0.057799555 8.73449e-05
-0.043279637 -0.026738822 -0.055111535 0.040002294 -0.040276717 -0.027429167 -0.06435419 -0.012045842
-0.10923499 -0.08248425 -0.058532853 -0.06292281 0.009626284 -0.02640857 -0.0068726023 -0.05775145
-0.009974288 -0.020693546 -0.067698136 0.049283143 -0.05447241 0.03474723 -0.06653947 -0.006646116
-0.06966005 -0.107821696 -0.02679302 -0.03971051 -0.12553838 -0.02465007 -0.026235174 0.022458026
-0.0456601 -0.10650369 -0.0031965396 -0.044067916 0.021727573 -0.011945613 -0.10373558 -0.0041647735
-0.050216455 -0.015972668 -0.0016792715 0.033707034 0.03752267 0.010423574 -0.027393226 0.018160347

weight f4 [64, 1024]
00000000: 7fa2 2cbc e069 fd3c 89a6 523b 229c 0a3d
00000010: 83a6 0a3d 57b1 6d3c 9e83 cc3c b1a0 b1bc
00000020: 6d0d 5d3c b4b3 22bd 7a6a 923b d2bd 0cbd
00000030: 24fc a4bc fd8d d5bc 2e08 e23c 10b2 183c
00000040: c0ae c735 9157 e4bb 66a0 bebc b38a de3c
00000050: b6d9 d93c 5d68 90bc 7f81 1f3d 6671 293d
00000060: fb5f 103d 7474 fa3a cff6 1b3d 3034 233d
00000070: 6f7c 263d 8f6f 4f3c 756f 8c3c 05c4 42bc
00000080: 579c 3b3c 0373 88bb e61d 07bd 41fc 24bc
00000090: 10c7 353a e941 a9bc a717 843c e821 b0bc
000000a0: 3c99 df3c 6953 033b 7a8a d9bc fee3 e63c
000000b0: c505 673a 1e8f aebc d6ff 9cbc dc1d 393c
000000c0: 537d e23a 3a87 5c3c 601a 293d ce81 813c
000000d0: efbd c1bb ed47 d3bc 7475 a0ba d602 973c
000000e0: a488 2b3d c651 1c3d a82b b23c d8d9 5cbc
000000f0: 51be 2a3d 9590 14bd 957f e6bc 1afe 8dbc
00000100: 08a6 17bb 4cf6 65bc ddc0 32bd 3a2f ec3c
00000110: f587 013d bdcc ddbc a9be b43b 1e40 e1bc
00000120: ff52 6a3c 5298 ddbc 7e70 f13c 79ca 3cbc
00000130: 93a6 08bd 21d7 8f3c 5020 463c 5ccc 8bbb
00000140: ee4f c73c 6d87 763c 3c27 de3c d1eb b63b
00000150: e3fe cabc 2bb8 8abc f758 233d fb10 203c
00000160: 7df9 29bd 60a7 9439 7f3d 1ebc 16c9 c0bb
00000170: a448 83bc c589 d8bb 8ba8 90bc 7d38 0bbc
00000180: e4cb 18bc 10d8 a33c aeab dbbc c5b6 75bc
00000190: 304a a5bc 2aab 413c e882 273c ed2d 4a3b
000001a0: e3af f6bc ffb7 a0bc 50f3 2cbc 8fae 36ba
000001b0: 21bf 89bc 6388 853c 2b2e 1f3b 093a 0dbd
000001c0: 197d 1b3d ba7d 32bd 0be5 2ebd 6768 e53c
000001d0: 5537 b93c 4847 b5ba f97f 7abd 378c d83c
000001e0: 4bed d13c a6aa d23c c288 6ebc 9eb7 a73a
000001f0: 4d72 223d ff02 f43c 55c4 d03c 1252 d53c
00000200: 311c 08bd fa76 833c 8b45 24bc 8011 b4bc
00000210: b556 7f3c d324 4abc b135 22bc 5ddf a63c
00000220: 29a5 503c 9f24 69bc cebb 9bbc 3cad d6bc
00000230: f7a5 10bd 0011 183a 89ad 4abc 802e 2ebb
00000240: d586 963c 7dee 84bc 5d1e 08bd 2e90 35bc
00000250: 94ea 04bc fdab 40bc 4ff0 e6bc be72 ba3c
00000260: e8de d8bb d6f8 c63a 59ee ac3c e6e5 c03c
00000270: c869 f93b 3fb6 ca3c dd0c 833c ba1c 9d3c
00000280: 5879 573c df39 3fbb ef9a 64bd 58e9 2abd
00000290: c748 503c 0fd0 aebc 8b83 a23c c8c8 0abc
000002a0: 9c19 00bd 4e12 a83b 3d0d d739 37a0 0ebc
000002b0: 3f96 6fbb 6ef0 1a3b af0e e53b 8083 45bc
000002c0: 737c 5a39 b9d8 64bc fc5e 69bc d980 6d3c
000002d0: 6abf 093d 50b3 e03c 22ed 07bd 9515 903b
000002e0: b4d4 9dbc 21fd 013b 18cb f6b8 a94f b63c
000002f0: ead4 9bbc b337 b5bb 4c12 403c 9160 f6bc
00000300: 258f 52bc a5ba fe3b cc3e 2ebc bce5 8b3c
00000310: bcfd 39bc 2642 aabd e06e d8bc 29ec 063d
00000320: 18a4 883c 6b18 063d 351c 27bd 000e be3c
00000330: ff29 afbc b90c c43c 4f3b 3c3d 329f 16bd
00000340: 1429 b8bb 1e38 f33c 0f25 593b 0cbd 363d
00000350: 2089 78bb 2710 84bc e281 e7bc a434 dcba
00000360: ec77 073d 3f10 8d3c 84d1 58bc 6a97 4b3c
00000370: 46b7 ddbc af73 19bc c00b c8bc 799f 08bd
00000380: f29b 673c a2a8 26bc db6e 573c f87e acbc
00000390: 92d3 02bd 959b 66bc 0cc6 1abd f87c c73c
000003a0: cb02 bb3c 7ba7 9f3c 99b9 aa3c 3235 d3bb
000003b0: 8a10 263a 8c50 87bc 8ecf 553c 047a 45ba
000003c0: f478 cc3c c253 f03b 6c1a c6bb 0db6 693b
000003d0: f5ff 6e3c 7f6e cebb 7800 203a faa3 983b
000003e0: e6c7 6cbc 2271 09bc 4075 c3b9 2044 0e3d
000003f0: a86a 333a eec0 eb3b 0e14 93bc 41a3 b13c
-0.010536789 0.030934274 0.003214272 0.033840306 0.033850204 0.014507613 0.024965104 -0.021683069
0.0134919705 -0.03972216 0.0044682594 -0.034360714 -0.020139761 -0.026068682 0.027591791 0.009319797
1.4877514e-06 -0.0069684465 -0.023269843 0.027165746 0.02659307 -0.01762789 0.038941856 0.04136791
0.035247784 0.0019108192 0.038077172 0.03984469 0.040646013 0.012660875 0.01714299 -0.011887555
0.011450849 -0.004164101 -0.032987498 -0.010069908 0.00069342647 -0.020661311 0.01612456 -0.021500543
0.027294748 0.002003873 -0.026555289 0.028184887 0.00088128104 -0.021308478 -0.01916496 0.011298623
0.0017279781 0.013459975 0.04128492 0.015808966 -0.0059125344 -0.025791133 -0.0012242035 0.01843397
0.041878358 0.038163923 0.021749333 -0.013479672 0.041685406 -0.036270697 -0.028137008 -0.01733308
-0.0023139734 -0.0140357725 -0.04364096 0.028831113 0.0316238 -0.027075166 0.0055158925 -0.027496394
0.014302014 -0.027050171 0.029472586 -0.011522883 -0.033361983 0.017558636 0.012092665 -0.004266305
0.024330106 0.015046936 0.027118318 0.0055823107 -0.024779743 -0.016933521 0.039879765 0.009769673
-0.041497696 0.00028353464 -0.0096582165 -0.0058833463 -0.016025849 -0.0066082203 -0.017658493 -0.008497355
-0.009325955 0.020000488 -0.026815262 -0.014997189 -0.020176977 0.011820594 0.010224082 0.0030850128
-0.030113166 -0.019618986 -0.010556057 -0.000696876 -0.01681477 0.016300386 0.0024288993 -0.034479175
0.0379611 -0.043576933 -0.0426989 0.028003884 0.022609392 -0.0013830448 -0.0611572 0.026434047
0.025625845 0.025716137 -0.014558973 0.0012795811 0.039659787 0.029786585 0.025484243 0.02604011
-0.03323001 0.016047943 -0.010026346 -0.021981 0.015584637 -0.012337881 -0.009900496 0.02037018
0.01273469 -0.014229923 -0.01901045 -0.026205651 -0.035314526 0.0005800873 -0.012370476 -0.002657801
0.01837484 -0.016227001 -0.03323208 -0.011081738 -0.008112568 -0.011759755 -0.02819076 0.022759791
-0.0066183694 0.001518036 0.021109747 0.023547124 0.007611487 0.024745105 0.015997345 0.019178737
0.013151489 -0.002917878 -0.05581182 -0.04172644 0.012712664 -0.021339444 0.019838115 -0.008470722
-0.031274423 0.005129135 0.0004101786 -0.00870519 -0.003655806 0.0023641842 0.006990276 -0.012055278
0.00020836461 -0.013967686 -0.014243837 0.014496052 0.033629812 0.027429253 -0.03318513 0.004397104
-0.019266464 0.0019834714 -0.00011768023 0.022254782 -0.019022424 -0.0055303215 0.011723112 -0.030075343
-0.012851511 0.0077737146 -0.010635089 0.01707732 -0.011351999 -0.08313398 -0.026420057 0.032940064
0.016679808 0.03273813 -0.040798385 0.023200035 -0.02138233 0.023931848 0.045955 -0.036772914
-0.0056201313 0.029689845 0.003313366 0.044613883 -0.003792353 -0.016120983 -0.028260175 -0.0016800356
0.03307335 0.01721966 -0.013233546 0.012426237 -0.02706493 -0.00936596 -0.024419665 -0.03335521
0.014136301 -0.010172041 0.013148989 -0.021056637 -0.03194005 -0.01407518 -0.03778653 0.024351582
0.02282848 0.01948904 0.020840453 -0.0064455504 0.0006334862 -0.0165179 0.013049973 -0.00075331354
0.024960019 0.0073342035 -0.00604563 0.003566149 0.014587392 -0.0062997933 0.00061035855 0.0046582194
-0.014451956 -0.008388789 -0.00037280656 0.034732938 0.0006844201 0.00719463 -0.017953899 0.02168429

bias f4 [64]
00000000: 3de9 0bbb 9d54 983c 4740 bcbc 4abf 11bb
00000010: de5a 80bb 1a2d 543a 54b1 713a dc5a 0dbd
00000020: eeb3 473c c305 09bd eca2 583d 2fe8 5f3d
00000030: a589 2f3d a751 823b 0dff a2bc 9663 e7bc
00000040: fc74 dabc 2041 d7bc 9ea3 27bd 7f5e 0bbc
00000050: 725c 3ebd 4a28 e9bc 2014 083d 85e8 083c
00000060: 80ce 0ebd 1b94 6bba cc13 5fbd 94ed 083a
00000070: 63e2 d4bc 6702 4b3d c8db 10bd 607c 17bd
00000080: 8bdb e3bc f8c0 d93c cd1e 12bd d5e5 233c
00000090: e2a0 233d ab97 8cbc 0750 223d c48d 5b3d
000000a0: 0c35 253c 21ed eb3c e0b4 1f3d d769 a13c
000000b0: d664 083d d578 12bd 7d38 2a3b 107c 203d
000000c0: 59ea bb3c 8b27 4dbd 2350 783c 4a40 ddbc
000000d0: c94c 4cbd 6d5f f8bc d71e 163d dd69 ff3c
000000e0: 6421 6a3c 465c 5d3c 6553 e2bc e96e 28bd
000000f0: ab35 ffbc 1923 09bd b4e8 e5bc 5f4b 8e3b
-0.0021348738 0.018595034 -0.022979869 -0.0022239261 -0.003917082 0.0008093879 0.00092198444 -0.03451048
0.012188895 -0.03345276 0.05288975 0.054664787 0.042855877 0.003977019 -0.019897008 -0.028245728
-0.02666711 -0.026276171 -0.040927522 -0.008506416 -0.04647488 -0.028461594 0.033222318 0.008356218
-0.034864902 -0.0008986608 -0.05446224 0.000522339 -0.025986856 0.049562838 -0.03536585 -0.036983848
-0.027814647 0.026581272 -0.035673905 0.010003527 0.03994835 -0.017162165 0.0396271 0.053601995
0.010083448 0.028799595 0.038990855 0.019703789 0.03329929 -0.035759766 0.002597361 0.039180815
0.022938894 -0.05008654 0.015155825 -0.027008194 -0.049877916 -0.03031894 0.036650505 0.03117841
0.0142901875 0.013510769 -0.027627656 -0.041121397 -0.03115352 -0.033480737 -0.028065063 0.004342481

weight f4 [10, 64]
00000000: a148 7ebd d903 4dbe 7f10 af3d 0a88 4dbd
00000010: e298 d63d 3a9c b43d 3fec 0ebe ada8 c23c
00000020: 905d 47be cec6 14be 38c5 30be da91 d9bc
00000030: 90df 18be baf6 2ebd 7a0b 6a3d ce74 f43a
00000040: 57c4 243e f1a0 57bd fb60 4e3e d11f 6bbd
00000050: 971c 233e ccf9 e83b 8fd1 063e 1cbe 29be
00000060: 9936 73bd 2e33 143e 770b e73d 9c50 39be
00000070: a8a2 743e ea21 18be 2895 5fbe ecf7 4cbb
00000080: c8f3 633e 66e5 5abe 6cff 1cbd b32a 04be
00000090: ed86 fa3b 5950 37be e073 a1bd 0f58 673d
000000a0: b41e 9bbd 7cc9 12be 1d6b 84be 6ca7 d7bd
000000b0: 2b51 ca3d 6588 a83d 75fc 973c db7c 1dbe
000000c0: 2df8 623d a877 293e f3b2 f93d 0e73 883e
000000d0: c832 4d3d ca9d 7e3e 7d73 1c3d 06b8 a9bd
000000e0: 907d 723d 96aa 133e d5fd dcbd b797 e93d
000000f0: 752f db3d 35c1 423e fca5 383d ca60 75be
00000100: 1a36 133a 91f4 473e 93e2 a4be bbc2 ddbb
00000110: 4a49 8fbe 05fd 41be 0916 65be bfc1 00be
00000120: a068 38be daf9 30be 86fd f0bd dec7 023d
00000130: 2301 373e 07b7 12bd 70ef da3d 3ec8 58be
00000140: 3b7c 2e3e 1a02 8f3c edd5 25be 2e26 8a3e
00000150: 7c3e 92bd 5255 3a3e f9c5 833e 1c39 783e
00000160: e445 103e 6e9d 2ebe a90f 333e bab0 13be
00000170: df5c 2ebe e6c1 6fbe 58aa 46be f5ec 583e
00000180: e654 35be 7c6b 64be 6a8c ab3e 204c 6cbc
00000190: 4d3b 4fbd c2c1 b7bd 3ddd d6bc 7749 2e3e
000001a0: d5c4 e73c 5eac 09be e677 55bc 6aeb 7f3d
000001b0: 4209 f6bc 2fe4 1abe 4129 9cbe 4815 033e
000001c0: bb29 2cbe bce2 8d3d b66a 82be 14f2 d0bc
000001d0: c3f1 5dbe f55d f8bc c404 e33c 99a4 7e3d
000001e0: 8387 06be 34d2 42be 6542 693e 6eea cbbc
000001f0: 6628 52be fe28 2f3d e6d5 843d 623d 65be
00000200: 805b d8bd 16e1 93bd baaa 943e f6c8 c5bc
00000210: 1426 533e 895d 753e 8fd1 e43d e4d1 c33d
00000220: 17fa 623e b061 4b3e 4e3d dfbd 2e56 49be
00000230: 8198 13bc f3b7 973c a770 403e 5059 fdbc
00000240: fcf4 29be db73 063e bb4a f93d d9b3 21be
00000250: 0b24 603e cfca 13be 53e6 a23c 4601 7a3d
00000260: e1b3 25be 03e2 4a3e 7b2b 7fbe 3791 8f3d
00000270: 66f2 053e 2768 26be cc5d 973c cc85 15be
00000280: d5fe 6fbe 89e3 4fbd fa58 ebba 3275 15be
00000290: fa20 2c3e 2bdc 403e c324 03be 04e7 8a3d
000002a0: 54d6 3c3e 3d5c 483e eded b83c e716 31bd
000002b0: 0dee c23c d093 76bd 7ee1 203e f224 273e
000002c0: c00f a83c ab67 65bd 0dad 43bd 3a7f a43d
000002d0: 9e8a 213e 5f28 453e 75bd 23be a32f dabd
000002e0: 6620 6fbc 634f debd 5830 67bd 4ad8 22be
000002f0: 85e8 4a3d 3808 5a3e 6078 263e 91bd bf3c
00000300: 6fc3 8e3c 5514 68bc d634 1d3e 6961 69bd
00000310: 98c3 85bd af97 29bd 4e74 3b3e ee80 92bd
00000320: 75f6 d83d d94a 6b3d e0b3 e4bd 9a17 7bbd
00000330: 1d79 b3bd 35d2 1b3e 229f 6bbe eb29 923d
00000340: a717 dc3c 6304 093d 7821 d0bd d3ac 0ebd
00000350: fbfb a4bb c72f 40bd 2e26 25be d343 9bbd
00000360: bc72 29bc 4188 70bc 217f 383e 10b7 e7bd
00000370: 3605 d63d a8ee 373e 8892 d33d 430a f3bd
00000380: 18df 0abe c6da 0bbb 18ea e53a 66d2 adbd
00000390: 8ecb 3f3c 5da1 57bd abf2 2abe 8aa2 7dbe
000003a0: b655 14be 0008 1abc fec3 623e 14f3 523e
000003b0: c142 e3bd ef3d a53d 2b5e 12bd d033 ee3d
000003c0: 65b3 253d 2ccb 67bd 3156 373d 3e4d 20be
000003d0: 974e 9bbd e900 d93d 2b46 913d 047d 213e
000003e0: 416a 3abe 4cd8 1c3e 6dce 143d a7a5 043e
000003f0: 3ad8 983d c332 b3bc aa4a 123d 2525 1d3e
-0.062080983 -0.20020999 0.08548068 -0.050178565 0.10478379 0.0881886 -0.13957308 0.023762072
-0.19469285 -0.14528963 -0.17262733 -0.026558805 -0.14929032 -0.042715766 0.05713985 0.0018650533
0.16090523 -0.05264372 0.20154183 -0.05740339 0.15928875 0.0071098562 0.13165878 -0.16576427
-0.05937824 0.14472649 0.112814836 -0.18097156 0.23890173 -0.14856687 -0.21834242 -0.0031275703
0.22260964 -0.21376571 -0.038329527 -0.12906913 0.007645479 -0.17901744 -0.078834295 0.056480464
-0.075742155 -0.14334673 -0.2586297 -0.1052998 0.09878763 0.0822914 0.018552998 -0.1537966
0.05541246 0.16549551 0.12192335 0.2665028 0.050097257 0.24864879 0.038196076 -0.08287053
0.059201777 0.14420542 -0.10790602 0.114058904 0.10702411 0.19019015 0.04508017 -0.23962703
0.0005615667 0.19526888 -0.32204112 -0.0067675984 -0.27985603 -0.18944176 -0.22371687 -0.12573908
-0.18008661 -0.17282811 -0.11767106 0.03192889 0.17871527 -0.03581908 0.106902 -0.21170136
0.17039578 0.017457057 -0.16194887 0.26982254 -0.07140824 0.1819661 0.2573698 0.24240535
0.14089161 -0.17052242 0.17486443 -0.14422885 -0.17027615 -0.2341381 -0.19400918 0.21184142
-0.17708167 -0.22306627 0.33505565 -0.0144224465 -0.050593663 -0.08972503 -0.026228542 0.17020212
0.028292099 -0.13444659 -0.013029074 0.062480368 -0.030033711 -0.15126108 -0.30500224 0.12801087
-0.16812794 0.06928012 -0.2547204 -0.025506057 -0.21674256 -0.03031824 0.027712233 0.06216869
-0.13137631 -0.19025499 0.22779234 -0.024892058 -0.20523223 0.042763703 0.064861104 -0.22386697
-0.10564327 -0.07220666 0.29036504 -0.024143677 0.20619994 0.23961462 0.11172783 0.09561518
0.22165714 0.19861484 -0.10900365 -0.19661781 -0.009008528 0.018520331 0.18792973 -0.030926377
-0.1659736 0.13130133 0.12172457 -0.15791263 0.2188875 -0.14432834 0.019885218 0.06103637
-0.161819 0.19812779 -0.2491893 0.070101194 0.13080749 -0.16250668 0.018477343 -0.1460182
-0.23437054 -0.050754104 -0.0017955594 -0.14595488 0.16809455 0.18833987 -0.12806992 0.06782344
0.18441135 0.19566436 0.02257439 -0.043234732 0.023795152 -0.06019956 0.15711018 0.16322687
0.020515323 -0.05600707 -0.047772456 0.08032079 0.15775535 0.19253682 -0.15990241 -0.10653617
-0.014595127 -0.108549856 -0.05644259 -0.1590282 0.049538154 0.21292198 0.16256857 0.023405822
0.017427174 -0.014165004 0.15352187 -0.056977663 -0.06531447 -0.041404422 0.18306085 -0.07153498
0.10593883 0.057444427 -0.11167121 -0.061301805 -0.08763335 0.15216906 -0.23009923 0.071369015
0.026866747 0.03345145 -0.10162634 -0.034832787 -0.005034921 -0.046920564 -0.16127846 -0.07581296
-0.010342296 -0.014680923 0.18017246 -0.11314213 0.10450213 0.17962134 0.10330683 -0.11867192
-0.13561666 -0.0021340116 0.0017541079 -0.08487396 0.011706246 -0.052644122 -0.16694133 -0.24769035
-0.14485821 -0.009401321 0.22145078 0.2060054 -0.11096717 0.080684535 -0.035734337 0.11630976
0.040454287 -0.056590244 0.044759933 -0.15654466 -0.07583349 0.10595877 0.070934616 0.15770346
-0.18204595 0.15316886 0.036329675 0.12953816 0.07463117 -0.021874791 0.035715736 0.15346201

bias f4 [10]
00000000: 408a e7bd b77e 03bd 2e84 d2bd 385f 863d
00000010: 65fb 193d 0d6f 97bd 83a8 2a3e 73c2 a7bd
00000020: 3877 e6bc d968 a9bd
-0.11305666 -0.032103267 -0.102791175 0.0656113 0.037593264 -0.07394228 0.16665845 -0.08191385
-0.02813302 -0.08271951
