models/xue_2.pth (torch, 587967 bytes, 10 tensors)

weight f4 [32, 3, 5, 5]
00000000: 9194 94bd ae30 863d 4ec5 1a3d 7185 f63c
00000010: ceee 983d bea3 263d 9062 88bb 94df 013d
00000020: ceb7 93bd 0531 953d 5ded d1bc 796f 3abc
00000030: 2fe6 01be 81eb 7bbc 5a16 30bd 91ea 08bd
00000040: bf08 373d 0142 afbd d166 fbbc 5727 fcbc
00000050: 198a 0ebd 6a4f 4b3d 795b c23d 65e5 2f3d
00000060: c8dd c53d 716c dbbc 0c7a 623c 356f 323d
00000070: b3db bcbc 0b60 d0bd eb68 0e3d d2a6 b2bb
00000080: 808d d63d 3829 12bd b072 c9bd 2e68 babc
00000090: 0db7 f8bc 85a5 90bd 03ed adbd 3dcf a3bd
000000a0: f663 af3d 35c8 95bc 2e22 313d 0b3e 31bb
000000b0: 3a4b af3d 7830 823d 7ba0 673c 0bc9 0e3d
000000c0: f611 0b3c 1128 d3bd 6eaf 1e3d a216 5f3d
000000d0: f2b8 043e 246a 003d 638d 62bd 0bc4 b63d
000000e0: 7e62 8d3d c79c e8ba a598 0f3e d67c 5d3d
000000f0: ee8a 27bd 235a 31bd 6878 f73d cfea e13d
00000100: 4320 8ebb 816c cd3d 901c a0bd 556f 80bd
00000110: 7102 06bd 20f4 9d3d e142 423d d750 02bd
00000120: b7aa b6bc c38c b7bd d367 c23d 9f2d 893d
00000130: f14c 4abd 9ab6 4dbd bda3 0a3d 2406 d0bd
00000140: 7ff3 1dbd 94c6 d83c f5cb 6c3d 795b cabc
00000150: bb8a b6bb 8c8f d73d 645c 7f3d a166 dc3d
00000160: b511 d3bb d1b1 e7bd 4a82 c0bd 2fa6 c9bd
00000170: e242 a63c b2c1 c3bc 84e9 e3bc 1339 2a3a
00000180: 1544 61bd d927 643d a64e e63c d50f ba3d
00000190: 7611 b43d 7002 9a3d 972c 493d 83bd 91bd
000001a0: 1cab b2bd eb07 493d 5f1a 4a3b 10e8 d03d
000001b0: 6fc5 19bd 899e 003b 0cb5 bb3d 92ee 96bb
000001c0: 21e0 e9bd 6e54 a53d 8847 8e3d b712 38bc
000001d0: 43d8 b1bd bd75 91bd 9fcd cabd 8f8d eebd
000001e0: 4aaa bd3d 757b debd 1584 debb 0053 803d
000001f0: 827f 403d 9324 ed3d 8024 003e e1d2 853d
00000200: 1a4c 143d 2c0f 9a3c edc7 88bd e5dc 403d
00000210: b779 f5bc 130d 203d 148a bc3d 205c 8dbd
00000220: 9b29 9c3d 8552 a7bd 703f 6b3d 1687 e1bd
00000230: 8bad cebc 460e a03c 6678 00bd a4ae 913c
00000240: 5c9e 14bd cca8 b83d ec8d 90bd 5670 1bbd
00000250: 9ece 4bbb 2f78 063d abae ff3c 663a ea3d
00000260: bcc8 49bd bf68 e3bd f413 3fbd 9496 30bd
00000270: b4e6 c63d 57b6 bd3c b824 e43d 8217 09bd
00000280: 806c 75bd a506 ee3d f7ca 6b3d ce85 25bb
00000290: 51e6 c2bd f262 d23d 652f 283d 0d15 86bd
000002a0: 247d e43d 6d4a f2bd 2032 bc3b 4961 8abc
000002b0: a20e e2bc d789 b33d f403 8ebb d78f df3d
000002c0: e8f4 f83c eac6 453d bfcb 493c 2128 8e3c
000002d0: e4a5 ed3d 13ce 2cbd 825f c7bd 06f3 dbbd
000002e0: d7a1 8cbc c147 96bd 26a8 ff3d ddcc e23d
000002f0: 3f35 9dbd 456b 893d 6f7f a93d 022b d2bd
00000300: 18fa 063d 6743 e4bd 0c8a f9bd 58f9 543d
00000310: 1e80 983d 5ccf 6abd 39b4 f9bc 83a4 97bd
00000320: b1c2 963d 5772 39bd 6566 01bd 22a5 abbd
00000330: e2df c23d ae64 8f3d 8ff8 bc3a 70d9 d0bd
00000340: 625f f7bd 3a0b c0bd da2e db3d a38d d63d
00000350: b8f3 8fbd 859f 4f3d 393d bb3d c69e 823d
00000360: b824 ebbd a13d 893d 01d7 7b3d 7cf6 dbbd
00000370: 1b67 37bc c0ce 863d 5ca3 993b b719 d0bd
00000380: 98fb c5bd 970f bbbc 8da6 a0bc 2743 67bc
00000390: 4a42 a4bd 239b 18bc 60b2 583c 4822 0bbd
000003a0: c166 7d3d bac8 5a3a 608c 2ebd e5ff 8cbd
000003b0: f030 cebd 6771 66bd 490c 9e3d 9afa 83bb
000003c0: 51e2 143c 7045 3bbd 582d 07be 1005 f2bd
000003d0: 877d d8ba 40ee 793d 3bed b8bd e8f9 65bd
000003e0: 9abc 033d 158a 69bd d890 acbd 3d78 a1bd
000003f0: 6d8d 873d b597 4ebd 9d60 24bd f5c6 9a3d
-0.07254899 0.06552254 0.03778582 0.030092927 0.074674234 0.0406835 -0.00416214 0.03170736
-0.07212792 0.0728474 -0.025625879 -0.011379116 -0.12685464 -0.015375973 -0.042990066 -0.033426825
0.044686075 -0.08557511 -0.030688675 -0.030780477 -0.03479967 0.049636282 0.09490103 0.042943377
0.09661442 -0.026785107 0.013823044 0.043563087 -0.02305398 -0.10174569 0.034768026 -0.0054520154
0.10476208 -0.03568384 -0.09836328 -0.022754755 -0.030360723 -0.0706282 -0.08492472 -0.07998512
0.08563988 -0.018283943 0.043245487 -0.0027045037 0.0855927 0.06356901 0.014137383 0.0348597
0.008488169 -0.103103764 0.03874152 0.054464944 0.12961176 0.031351224 -0.055310618 0.08924111
0.069035515 -0.0017746919 0.14023073 0.05407413 -0.040903978 -0.04329885 0.120835125 0.11031114
-0.004337342 0.10030461 -0.07817948 -0.06271235 -0.032717172 0.07712579 0.047427062 -0.031815376
-0.0222982 -0.08962395 0.09492459 0.06698155 -0.049389783 -0.05022297 0.03384756 -0.10157421
-0.038562294 0.026461877 0.057811696 -0.02470182 -0.005570737 0.10525426 0.06234397 0.107617624
-0.00644132 -0.11313213 -0.09399851 -0.0984615 0.020295564 -0.023896072 -0.02782131 0.000649349
-0.05499657 0.055702064 0.028113674 0.09085051 0.08792393 0.07519996 0.04911479 -0.071162246
-0.08724043 0.049079817 0.0030838472 0.102005124 -0.037541803 0.0019625744 0.09165391 -0.0046060765
-0.11419702 0.08072744 0.06947237 -0.011234931 -0.08683827 -0.07102535 -0.099025 -0.11648094
0.09260996 -0.10863391 -0.0067906477 0.06265831 0.0469966 0.115792416 0.12513924 0.065343626
0.03620539 0.018806063 -0.06678758 0.04708566 -0.029965265 0.03907497 0.09206024 -0.06902337
0.07625123 -0.08170036 0.057433546 -0.11012094 -0.025229236 0.019538056 -0.03136482 0.01778347
-0.036283836 0.090165704 -0.070583194 -0.03794893 -0.0031098495 0.03282946 0.031211218 0.1143692
-0.0492637 -0.11103963 -0.04664989 -0.043112352 0.09711972 0.023158235 0.11139816 -0.033469684
-0.059917927 0.11622361 0.05756661 -0.0025256756 -0.095165856 0.102727786 0.041060824 -0.06546984
0.11156681 -0.11830602 0.00574328 -0.016892092 -0.027594868 0.08766525 -0.0043339673 0.10916107
0.030390218 0.048285402 0.012316643 0.01735312 0.11603907 -0.042188715 -0.097350135 -0.107397124
-0.017167015 -0.07337905 0.12483244 0.11074231 -0.076761715 0.06709913 0.08276259 -0.10262109
0.03295335 -0.111456685 -0.121845335 0.051995605 0.074463114 -0.05732666 -0.030481445 -0.07404425
0.07361353 -0.04527506 -0.03159179 -0.08381106 0.095153585 0.07001625 0.0014417338 -0.10197723
-0.1207874 -0.09377141 0.107022956 0.10476234 -0.070289075 0.05068924 0.09142537 0.0637794
-0.11481613 0.06701208 0.06148434 -0.107403725 -0.011194016 0.06582403 0.0046886634 -0.10161155
-0.09667128 -0.022834582 -0.019610668 -0.014115131 -0.08020456 -0.009314331 0.013226122 -0.03396824
0.061865572 0.00083459506 -0.04261434 -0.068847455 -0.10067928 -0.056260493 0.07717187 -0.004027677
0.009087161 -0.045720518 -0.13200891 -0.11817372 -0.0016516902 0.06101823 -0.09029623 -0.056146532
0.032162286 -0.05701645 -0.08426064 -0.07884262 0.06618772 -0.050437648 -0.0401312 0.07557479

bias f4 [32]
00000000: b63f 4ebd f811 02be 2cc1 663d af5e f0bd
00000010: bc29 5ebe f0eb 57be 5ee2 a63c ebf7 813d
00000020: 9003 2fbd 556a 8e3c 40f9 27be 9158 06be
00000030: e214 21be a655 b4bd a6e2 253d cd20 f13d
00000040: 8944 9fbb 19b3 93bc 35d6 aebd f630 4abe
00000050: 8e05 0dbd 554f 093d 9963 8ebd a79b 363e
00000060: 0455 8b3d 0753 cd3d 3128 b83c 8446 3a3d
00000070: 57e3 fe3c aecb 02bd 6874 f33d ec6a 19bc
-0.05035373 -0.12702167 0.056336567 -0.117368095 -0.21695608 -0.21086097 0.020371612 0.06346115
-0.042728007 0.017384687 -0.16403675 -0.13119723 -0.15730622 -0.08805399 0.040499352 0.117738344
-0.004860465 -0.018029736 -0.085369505 -0.1974524 -0.034429125 0.033522923 -0.069525905 0.17832814
0.06803325 0.10025602 0.022480102 0.045477405 0.031114263 -0.031932525 0.11887437 -0.009363871

weight f4 [32, 32, 5, 5]
00000000: e417 bc3c 0c96 ad3b 0f9a 6e3c 784f 043d
00000010: 04fd 373c f99a 94bc 670f 603c 31fe 853c
00000020: dc71 d8bc 0420 99bc 3e47 73bc aa5d 193d
00000030: 5520 693b b0a7 65bc d2fe 0f3d ea2d b13c
00000040: 609c abb6 ec58 4e3c 48f0 ad3c fb4e 84bc
00000050: 7198 ff3c 40f2 a13c bf6f 67bc 2863 7f3c
00000060: 7f8a 5bbc 0d6b e43c 45df 81bb b3dd a33c
00000070: 859f 89bb a045 523b 10c8 b9bc 73fd ce3c
00000080: 2173 62bc c6b2 ff3c 1047 9a3c d646 72bb
00000090: dc78 293d 0ba7 623b 8410 b43b b9e1 bebc
000000a0: b4dd d83b 98ed 103d 9834 65bc b842 00bd
000000b0: e335 c8bc d09b 52bc e871 bebc af31 d83c
000000c0: c830 323d 61dc f13c ae2f 743c 637a 353c
000000d0: 12ad cabc f507 14bc fe03 5cbc 5a39 613b
000000e0: 199b bebb ff80 47bb dbd2 113d 17df c83b
000000f0: d42e 1f3c a144 ed3c d7a2 4a3c 617c 5e3a
00000100: 549b 513b 5270 793c 0b5e b53b 78a7 5abc
00000110: 0fdd 9e3c 2c2e 923c 99d2 073c 0935 d5bc
00000120: 1dc0 a03c df75 b53c 0cad 953c 2e3e 12bd
00000130: 2170 6b3c d890 9c3b 3950 76ba 1e78 aa3c
00000140: 63b6 7f3c 1b74 f23c 3f7b 12bd 0f02 0cbd
00000150: daf8 d53c b883 9b3c eb69 da3b 59fc 973c
00000160: c9c6 a3bc 631b ea3c df3d e43c 871a e83c
00000170: f90d 103d ec85 f03c 47c3 0cbd 7c6c 6cbc
00000180: 485f 1837 b1bb c6bc e4b7 003d 223a 3939
00000190: 5bc0 543c af33 213c 8384 d4bb 05d5 803c
000001a0: d30f e53c 80c3 033d 5226 ee3b cdcf d9bc
000001b0: 253c 853c 29c3 96bc ddaf cb3c beea 283c
000001c0: a07c 3039 c2aa bfbc 6f6a e2bc 5366 e2bc
000001d0: 3fb6 8bbc 2a65 37bc 68fb a63c 296f 0b3c
000001e0: e1cc 093d bd10 143d 6e24 02bc f6c6 57bc
000001f0: 79e0 b9bc b7e3 50bb 4fa5 fd3c dba9 1a3d
00000200: d85b 163d 0501 5b3c cf5e df3c 60aa 033d
00000210: 6c16 b0bc c40a 10bc 59ca 40bc f8e8 4e3c
00000220: 29e5 193d f50b 703c 7b58 8a3a 8552 603c
00000230: 88b9 a33c 0906 983b 7844 9dbc f5d9 39bb
00000240: 99e2 a3bc aaaa 9f3c dd66 abbc 006d 07bc
00000250: 0bd0 d1bb 6db3 10bc 1ee2 11bd 11dd 1e3c
00000260: 233e 4b3c 3c9f a13c c464 8e3c f9e5 ca3c
00000270: 66da a0bb e09f 273d 36b8 56bc dc81 e23b
00000280: 7f69 b9bc 9d4d 053d 8e1b c03c ffc3 9aba
00000290: c541 90ba 9edf 163a 3d6d 243d 6028 5c3c
000002a0: 2d9c b6bb 1eba 89bb 3b5f a93c 9ebd 3a3d
000002b0: 4262 0f3d c999 013d 8c31 b7bc 8040 653c
000002c0: ab86 3c3d c1ee 373c ca6c 3fbc 588d ac3c
000002d0: 0983 293d afc8 3bbc 99ca 483d a172 473c
000002e0: 3ed8 2f3d 6177 cf3c 92f9 933c ae5f a83c
000002f0: 0331 ebbb 13e2 c8b9 edb4 ca3c 0a17 a03c
00000300: 2599 91bc cdc6 cf3c 46ad 1e3c 7607 853c
00000310: f017 e53c c61d 5f3c ce96 e43c 4e9c 8ebc
00000320: 5216 d73a ff83 18bc 3fb7 153c f77e 983c
00000330: cbbf e13c 823c 86bc b435 fb3c dd94 213d
00000340: 7b1e aa3c d127 e2bb 5954 8abc e7d8 9ebc
00000350: 2145 8cbb d4da 34bc 1b4c 5bbc 987a 153d
00000360: 604e 5a3d f843 4e3d 6a46 4f3d 407e c53b
00000370: 3e82 403d b03c 813c d969 fa3b f52e b3bc
00000380: 545d dfbc 3740 033d b053 bf3c 8381 c93c
00000390: 0559 f03c 0986 d2bc 8231 163a c58f c43c
000003a0: 30fc 153d 7e70 be3c 8c5e 9d3b 7e6a 9c3c
000003b0: 702c 663c 603d 9db9 c825 aabc 6d5c d3bb
000003c0: ccb4 303d 17b0 2b3d 0d01 193d a80e d43c
000003d0: 3e87 ae3c bcc3 88ba 6db0 8b3c e145 063d
000003e0: 5032 0e3c 4af6 86bc be90 513c 98e9 d33c
000003f0: 30b3 1fbc ec9a 8dbb bf84 ea3c 1040 593c
0.02296061 0.005297428 0.014563098 0.03230235 0.011229757 -0.018140303 0.013675547 0.01635656
-0.02642148 -0.018692024 -0.014848528 0.03744284 0.003557225 -0.014017031 0.035155125 0.021628339
-5.1144016e-06 0.012594443 0.02123274 -0.016150942 0.03120062 0.019768834 -0.014125763 0.015587606
-0.013399719 0.027883077 -0.0039633834 0.020003175 -0.0041999244 0.0032084957 -0.022678405 0.025267338
-0.013821394 0.031213176 0.018832713 -0.003696849 0.041375026 0.0034584429 0.005495133 -0.023300992
0.006618226 0.035382837 -0.01398959 -0.031313628 -0.024439758 -0.012854531 -0.023247674 0.026390878
0.043503553 0.02952403 0.014903946 0.011076543 -0.02474073 -0.0090351 -0.013428686 0.003436646
-0.005816829 -0.0030441878 0.035601478 0.00613011 0.009715755 0.028963389 0.012367926 0.0008487162
0.0031983452 0.015224533 0.0055348924 -0.013345592 0.019392518 0.017844282 0.0082899565 -0.026026266
0.019622857 0.022150932 0.018270992 -0.03570383 0.014369995 0.004778009 -0.00093961094 0.02080923
0.015607449 0.029596379 -0.035762068 -0.03418165 0.026119638 0.018983707 0.0066654584 0.018552946
-0.01999225 0.028577512 0.027861534 0.028332962 0.035169575 0.029360734 -0.03436592 -0.014430162
9.08209e-06 -0.02425942 0.03142537 0.00017664631 0.012985314 0.0098389825 -0.006485523 0.015726576
0.027961647 0.032168865 0.0072677517 -0.026588345 0.01626403 -0.018403606 0.024864132 0.010309873
0.00016831094 -0.023396853 -0.027638642 -0.027636683 -0.017054675 -0.011193553 0.020383552 0.008510389
0.033642653 0.036148775 -0.007943256 -0.013169995 -0.022690045 -0.003187401 0.030962614 0.037759643
0.036708683 0.013366942 0.027266888 0.032144904 -0.021495067 -0.008791629 -0.011766993 0.012628786
0.03757206 0.014651288 0.0010554934 0.013691549 0.01998593 0.0046393913 -0.019197688 -0.0028358672
-0.020005511 0.019490559 -0.020923072 -0.008265734 -0.0064029745 -0.008831841 -0.035616033 0.009696261
0.012404951 0.01972925 0.017382033 0.024767863 -0.0049088476 0.040923953 -0.013105443 0.006912453
-0.022633312 0.03254472 0.02345064 -0.0011807679 -0.0011005929 0.00057553675 0.04014324 0.0134373605
-0.005572817 -0.004203095 0.020675292 0.04559099 0.035005815 0.0316408 -0.022362493 0.013992429
0.046026867 0.011226357 -0.011683652 0.021063492 0.04138473 -0.011461421 0.049021337 0.012173326
0.042930834 0.025325479 0.01806334 0.020553436 -0.0071774735 -0.0003831541 0.024744475 0.019542236
-0.01777322 0.02536335 0.009684866 0.01623891 0.027965516 0.013617938 0.02790394 -0.017408516
0.001640985 -0.009308814 0.009137928 0.018615229 0.027557274 -0.016386274 0.030665256 0.039448608
0.020766487 -0.006901719 -0.016885923 -0.019390536 -0.0042807017 -0.011038501 -0.013384844 0.036493868
0.0532974 0.05035779 0.05060426 0.006027013 0.04699921 0.015776008 0.0076420126 -0.021872977
-0.027266182 0.032043662 0.023355335 0.024597889 0.029339323 -0.025698679 0.0005729423 0.023994336
0.036617458 0.023247 0.0048025306 0.019093748 0.014048681 -0.00029991101 -0.020769969 -0.006450227
0.04314117 0.04191598 0.037354518 0.025885895 0.021304723 -0.001043431 0.0170519 0.032781485
0.008678988 -0.016474862 0.012790857 0.025868222 -0.0097473115 -0.0043214466 0.028627751 0.013259903

bias f4 [32]
00000000: 3584 0abd 4894 91bc 1b13 0bbc a826 62bd
00000010: 8265 a0bc 4276 243d d7dc 9dbd 0e63 f8bc
00000020: 6e1f ffbc d9ad 0bbd 3a92 66bd 5ba3 c4bc
00000030: a4be fdbc c2b2 86bc 0bd9 90bc 9c49 803c
00000040: e617 4c39 41ce e83c 12d0 b83c 4b66 c0bc
00000050: 6383 5abb 0911 18bc c07c aebb bf60 993c
00000060: 2b00 363d cfbe 1fbd c5f8 5c3c d045 bb38
00000070: 7654 87bc c005 183b c021 693b 3441 ad3c
-0.03381749 -0.017770901 -0.008488442 -0.055212647 -0.019579653 0.040151842 -0.077081375 -0.03032067
-0.031142917 -0.03410134 -0.056291796 -0.024003675 -0.030974694 -0.01644266 -0.01768162 0.0156601
0.00019463859 0.028418662 0.022560153 -0.023486277 -0.0033342473 -0.009281405 -0.00532493 0.01872289
0.044433754 -0.03900033 0.013487046 8.9298584e-05 -0.016519766 0.0023196787 0.0035573095 0.021149255

weight f4 [64, 32, 5, 5]
00000000: 3c60 a4bc 5398 a3bc de19 81bc c405 9cbc
00000010: 5769 a9bc ee9d 0b3d 86c7 e939 8e4a ce3c
00000020: a9fd 2f3b 3c24 af3c 3656 b9bc 8b77 62bc
00000030: 4673 43bc bfaa c23c 2124 0dbd 66fa e3bc
00000040: 0ab3 00bd f165 bdbc 0cef 89bc bd72 b53b
00000050: 9a23 563c 890f 3d3c f446 9abc af9e e73c
00000060: cd9d 853c 89c0 eebc 3789 e83a 86fc 3dbc
00000070: af2f 12bd 3126 b8bc 1215 c83c f2a1 093c
00000080: 295d 8d3c ea6c d9bb f0e8 ccbc 0a73 bb3c
00000090: f48c 833b d9ad 6b3c 83a8 083b aa81 76bc
000000a0: 9e10 c6bc 322f e93c d30b aabc d0ec 57bc
000000b0: 841c 2438 b20d ca3b c682 18bc f6ab 02bd
000000c0: 97a3 8d3c 72e8 d7bc 6512 1d3c 1adb d9bc
000000d0: 6946 513c 5953 aebc eecb dc3c 9d5f ee3b
000000e0: 99a1 02bd 3e60 243c 9e7a bd3c a61c 613c
000000f0: f05c 4e3a 41ae 123d bb8f e6bc 693e 943c
00000100: 552a 033d f898 d4bc a059 213c 9d21 de3b
00000110: 08d2 00bd 79d6 f33c 8769 e03c 953a 04bd
00000120: 8344 1d3c 3464 ab3c ceb7 8e3c afa1 20bd
00000130: f4b2 26bd 8579 b4bc d409 043d a8db c3bb
00000140: b47b 063c ab59 e8bc acf5 e23b 90bc 843c
00000150: d8bf 9b3c 04de 03bd 532e a0bc 681d 023d
00000160: c178 9a3b 6a33 a5bc f68d 463c 02fd b13c
00000170: 20f7 b13c f78f 0f3c aba2 9f3c 6c4c 3ebc
00000180: f41a 3bbc 87da ba3c fe59 07bd 01b2 013d
00000190: ae06 533c 705d 173d 216e 183d 56b7 99bc
000001a0: 8385 0ebd a640 dabb 48c2 4f3c e01a fc3b
000001b0: 3a05 f53c 102a 03bd 8048 203c 8f6f 693b
000001c0: c8bc ee3c 5936 d4bc 498d f5bc 8070 053d
000001d0: 8931 b33c ad3a 4abc 83ea 193c 034f 203c
000001e0: 4e44 d93b e294 133d f7b6 cd3c c215 003d
000001f0: 3f6a 033d e616 dc3c c22b e73c d76a 4e3a
00000200: fe5e 6c3c 0544 eabb 4b68 cdbc 4da9 003d
00000210: 4177 ae3c b32e 34bc 8a03 803c b532 37bb
00000220: 7653 eabc a4c3 babb d426 25ba 5eae 293c
00000230: a337 fd39 15b7 83bb 9fd9 16bc 8933 8abc
00000240: 2fd5 f9bc 11b9 063d 82b5 033d e521 bfbc
00000250: c3ce 093d 07c3 08bd 8a2a 103c cd8f 05bd
00000260: 8385 973b f835 5738 f5d5 f3bc 309d 303c
00000270: cce2 033c 61da 71bc 331f debc 8b3f 873c
00000280: 6294 213c 4697 05bd 83ea 3dbb dcbf eebc
00000290: 3a74 6abc 3693 0838 94fc 89bc 14b1 9cbb
000002a0: 1c78 163c 214f eabc 590f 13bd 440e 16bd
000002b0: 6262 ef3c eaeb ccbc 487d 9f3c f984 303c
000002c0: e9ea d6bc 7d43 2fbc 516a 263b 2ac5 11bd
000002d0: b502 0bbd 9aae 17bd 20b7 11bc 72b1 84bb
000002e0: 6ea2 0f3d c47c 083d 5cf3 11bd 499b aebc
000002f0: 710f 143d 5d92 abbc 48ac 09bb 8715 cfbc
00000300: e5cc f33b d51f b23c 6d6f 373c a076 b1bb
00000310: 2ba7 973c 499c dc3b 9109 0f3b 5156 df3c
00000320: cb53 c9bb c0fa efbc 557e f73c 934b e6bb
00000330: 7ea7 fc3b 63b1 afbc b3bc e7bc b627 22bb
00000340: b643 bc3c d2d7 f7bc 2597 3fbb 9fe0 43bc
00000350: 7e9c fa3c 4b3a c7bc 8955 993c fe12 cb3a
00000360: b01c cebc c784 c83c dd2c e33c e156 85bc
00000370: 5519 40bc 3911 963c e087 733b 74a7 643c
00000380: fe14 86bb b2c0 b6bc 3820 113c cfeb 5bbc
00000390: 6332 bc3c 023e 04bd 0fc5 5a3b 2879 963b
000003a0: a5c5 083d edce 6c3c f3f4 093d 3615 2dbc
000003b0: c1e7 18bc 266b fd3c 1a87 f8bc dc0b 283c
000003c0: 7bf4 01bd 9b00 313c b634 efbb 40f5 15bc
000003d0: 8a7e 02bd f422 5d3b c673 fcbb 1eca ea3c
000003e0: 9dac f93b 0cde 103b d46f d43b 0a6c 023c
000003f0: 8894 cb3b 1dcc a13c 39c1 5bbc 6d79 90bc
-0.02006542 -0.019970095 -0.015759405 -0.019045718 -0.020680113 0.03408616 0.0004458988 0.025182035
0.0026854074 0.021379583 -0.022624116 -0.013822447 -0.011929339 0.023763059 -0.034458283 -0.02782936
-0.031420745 -0.023119899 -0.01683762 0.0055373595 0.0130700115 0.011539348 -0.018832661 0.028273908
0.016310597 -0.029144542 0.0017741089 -0.011595851 -0.035690006 -0.022479149 0.02442411 0.008400427
0.017256336 -0.006635298 -0.025013417 0.022882003 0.0040146057 0.01438471 0.0020852394 -0.015045563
-0.024177846 0.028464887 -0.020757591 -0.013179019 3.9127204e-05 0.0061661834 -0.009308523 -0.031902276
0.01728992 -0.026355956 0.009586905 -0.026593734 0.012773135 -0.021279978 0.02695271 0.0072745816
-0.031892393 0.010032712 0.023129757 0.0137397405 0.0007872125 0.035810713 -0.028144708 0.018096166
0.032022793 -0.025951847 0.009848028 0.0067789094 -0.0314503 0.029765354 0.02739407 -0.03228243
0.009598854 0.020921804 0.01742163 -0.039216693 -0.040698007 -0.022030601 0.032235935 -0.005977113
0.008208204 -0.02836307 0.006926259 0.016203195 0.019012377 -0.032194152 -0.01955334 0.031766325
0.004714102 -0.020166118 0.012118807 0.021727089 0.021724284 0.008762351 0.019486746 -0.0116149
-0.01142 0.02280928 -0.033044808 0.0316639 0.0128800105 0.036954343 0.037214402 -0.01876418
-0.034795295 -0.0066605387 0.012680598 0.0076936334 0.029909719 -0.032022536 0.00978291 0.0035619473
0.029142752 -0.025904821 -0.029974597 0.03257799 0.021874206 -0.012343091 0.009394291 0.009784463
0.006630457 0.036030658 0.025111658 0.03127075 0.032083746 0.026866388 0.028219108 0.0007874197
0.014426945 -0.007149222 -0.025074145 0.031411458 0.0212971 -0.010997462 0.015626688 -0.0027953808
-0.02860425 -0.0056995917 -0.00063000363 0.010356514 0.00048297373 -0.004019628 -0.009207158 -0.016870277
-0.030497162 0.032891337 0.03215552 -0.023331592 0.03364445 -0.033389118 0.008799205 -0.032607842
0.00462407 5.1310257e-05 -0.029765109 0.010779664 0.008049678 -0.014761538 -0.027114486 0.016509792
0.009862037 -0.03261497 -0.0028978891 -0.02914422 -0.014309937 3.2562028e-05 -0.016844071 -0.0047818515
0.00918391 -0.028602185 -0.03590331 -0.0366347 0.029221717 -0.025014836 0.019468918 0.010773891
-0.02623506 -0.010697243 0.002539296 -0.03558842 -0.03393813 -0.037031747 -0.008893758 -0.0040494734
0.035067014 0.03332211 -0.035632476 -0.02131428 0.03614754 -0.020943815 -0.0021007229 -0.02527882
0.007440197 0.021743694 0.011196 -0.0054157525 0.01851233 0.006732498 0.002182577 0.027262839
-0.006144022 -0.029294372 0.030211607 -0.007028052 0.0077103963 -0.02144689 -0.028288221 -0.0024742908
0.022981506 -0.030254278 -0.0029234376 -0.011955409 0.0305922 -0.024319788 0.018717544 0.0015493331
-0.025160164 0.024477376 0.027731353 -0.016276779 -0.01172479 0.01831876 0.0037159845 0.01395594
-0.004091858 -0.022308681 0.008857779 -0.01342292 0.022973245 -0.032285698 0.0033381616 0.0045920797
0.033391614 0.014453632 0.033680867 -0.010564139 -0.009332598 0.030934881 -0.030337859 0.010256734
-0.031727295 0.010803367 -0.007299985 -0.00915271 -0.03185896 0.0033742758 -0.007704231 0.02866083
0.007619454 0.0022105007 0.0064830575 0.007960329 0.0062127747 0.01975065 -0.013412767 -0.017636025

bias f4 [64]
00000000: 632a a5ba e480 f9bc 5a9d 0bbd 662c e13c
00000010: c2e5 29bd 27bb ba3c 2709 20bc 4d21 0a3c
00000020: 07f4 b2bc 3ccf ffbc fe3c 933c 28c6 f1bb
00000030: 0f62 b7bb 7bbe f2bb 6446 b6bc 4dbb 953c
00000040: 36af 5fbc 8a2e 8d3c 4e5a 32bd fae4 3e3d
00000050: 507e f13a 5c2b a7bc 9b7b f5bc c68b 94bc
00000060: 17cf 3bbd 0596 c7bc 086c 6bbc 3b4d 0ebd
00000070: f3ff 023d a40f ffba e77d 133d fcf8 25bc
00000080: c6dc d6ba dd82 e1ba b2f8 cfbc 7d6e 3c3d
00000090: 0dc4 a3bc 4247 093d 678e 1fbb 135d 943c
000000a0: 97cd 00bd d387 30bd 94a1 8ebc 4a31 6b3b
000000b0: 76f7 2dbd ed73 593c 37c2 e43c 65f0 f43c
000000c0: 1b61 b5bc 6e7c eebc 7e14 f5bb 8191 7abc
000000d0: 0e10 9f3c b9d1 ea3c abd6 e4bc 7d1e eebb
000000e0: 2e6c f63c 7484 5f3c 4922 0f3c 2a82 113d
000000f0: 249f b23c d681 b63c 9b84 dd3c 5613 dc3c
-0.0012601133 -0.030456968 -0.03408561 0.027486991 -0.04147888 0.02279432 -0.009767807 0.008430791
-0.021844877 -0.031226747 0.01797342 -0.0073783584 -0.0055964063 -0.007407961 -0.022250362 0.018277789
-0.013652613 0.017234106 -0.043543153 0.046605088 0.0018424485 -0.020406418 -0.029966166 -0.018133055
-0.045851793 -0.024363527 -0.014369018 -0.03474162 0.031982373 -0.0019459617 0.03600874 -0.010130163
-0.00163927 -0.0017205138 -0.025387142 0.046003807 -0.019990945 0.033515222 -0.0024346353 0.018110787
-0.031446066 -0.043098282 -0.01741103 0.0035887533 -0.042472325 0.013272268 0.02792464 0.029899785
-0.02214103 -0.029112067 -0.0074792495 -0.01529348 0.019416835 0.028664457 -0.027934393 -0.007266818
0.030080881 0.013642419 0.008736202 0.035524525 0.0218044 0.022278707 0.02704077 0.026864689

weight f4 [64, 1024]
00000000: 59b0 4ebc 6cc0 c13c 329d 403c ef41 e83c
00000010: 345d 8c3c bb1e 883c d79a c73c 718d c7bc
00000020: 85b6 723c 2a38 cfbc 791f 17bc d305 c4bc
00000030: b9b6 63bc ed39 afbc 9399 b33c 5261 813c
00000040: d49f f3b9 8c32 57bc c4ac 92bc 9017 17bb
00000050: a3a9 ac3c 1d8c 80bc 1870 8d3c 4a6a 763c
00000060: fec6 e43c e2f3 beba 5f6b 983c 4054 a43c
00000070: 01dd ed3c d4b2 a7ba 5d45 11bb 2548 7bbc
00000080: bf87 9c3c 4201 4b3c c8b8 88bb f8bf 9139
00000090: 193e 01bc 08a3 8abc 2057 913c 8526 acbc
000000a0: f41d 8b3c ae6e e43b 9dfb a9bc 1cef 9f3c
000000b0: 7f9c 913b eabb d0bc 909d 80bc eb52 243c
000000c0: 8e81 46bc 3cc7 9c3c d7d3 d03c ff2c 753c
000000d0: 69cc ebbc 36ce 84bc 0da7 93bc 5c6c 4c3c
000000e0: 93a6 993c 2f11 0f3d 3c49 6e3b 3729 22bc
000000f0: 9d45 093d 8fd0 f5bc 1217 a5bc 6966 b5bc
00000100: 67bf 9cba 3d12 19bc 695d a5bc eccf c83c
00000110: dce2 d33c d8ba f0bc e5ef 103c 3c37 00bd
00000120: 0aed 833c afeb cebc 3c78 8a3c cba1 8abb
00000130: bcd8 00bd 2941 3e3c dfa6 803c 6476 35bc
00000140: 10dd 903c 150b 9d3c 795d a03c 828b 7aba
00000150: 6fff a0bc d0c1 af3c 7539 fa3c febc bb3c
00000160: 08df d9bc 238b d23c 7064 9bbc 4ea2 0f39
00000170: 1026 17bc c9b9 adbc 0458 b4bc fba6 5fbc
00000180: 0141 323c 7d44 ee3c fb23 ee3b 2258 adbb
00000190: b21a 91bc c5a9 ce3c b02f c93c 1236 7c3b
000001a0: 7b83 99bc 6098 f2bc 3ccd a5ba a639 69bc
000001b0: ede9 1bba d1a7 8a3c fcbf 86ba 1513 d3bc
000001c0: 89a8 883c 5ab8 19bd febd 87bc 5276 b93c
000001d0: 4f37 153c 0260 26bc 05b9 b8bc edb7 cf3c
000001e0: c440 3f3c c661 8b3c 8b86 0abb 29c8 943c
000001f0: b9ad 1b3c f0ca d23c 5ad1 053d c0a1 d63c
00000200: af25 a8bc 95b0 ff3c da93 d03b ad0f 25bc
00000210: 766b a0ba b8a1 e639 6e0a ac3c 34fa c53c
00000220: 3620 a838 5399 8abc dc10 5fbc 500f b4bc
00000230: cc35 eabc e67d cabb 67e3 9dbc 684b 12bb
00000240: bc05 903c 0725 4bbc 4935 0bbd 1543 a1bb
00000250: ed8a a4bc a96a 9e3c 6b19 14bc d41a b63c
00000260: ce2c a2bc cd59 5e3a 0676 603c da00 013d
00000270: ea8f 933b cfd4 aa3c 04f1 d83c 8647 303c
00000280: d9cf 603c bd35 123b 2bf3 debc 1d70 0abd
00000290: f908 173c b4ec 12bd 8aca 863c 00ec af3b
000002a0: 0c2c dabc 1c15 5e3a 2bd6 e63c c77b fc3b
000002b0: cd25 dabb 67cd a73b ecee 0d3c 57db e1bc
000002c0: 0da8 ebba fe70 13bc e4d5 22bc e035 b0ba
000002d0: 87da 063d 8cad e93c 4180 c6bc df37 3e3c
000002e0: 9a07 d7bc cc96 18bc 7eb4 9abc 3c9b 803c
000002f0: d178 a4bc 2561 a9bc 703a cfbb 1452 c2bc
00000300: e19e cabc 9206 8c3c e0b7 acbc 38f3 613c
00000310: 6f7d 9ebc 6d61 fcbc af57 15bc 07ad 083d
00000320: a673 f63c 00f1 603c 8c49 9dbc 83b5 c63c
00000330: 7da4 98bc 44dc 033c 5f96 003d 186f 8dbc
00000340: f172 92bb 74a1 233c de1e 4d3c b22f 813c
00000350: 37ca 903b 364a 82bc 4696 c6bc c020 17bc
00000360: df6b 033d aae3 a13c 508f 99bc 8c61 643b
00000370: fc46 14bb 4883 123c 6177 b9bc 74ba f2bc
00000380: f9ed 193c 4b0a 7bbc a30b f23b a7b2 96bc
00000390: faad e3bc babe aa3b 7e40 1fbd 5923 9f3c
000003a0: 3a2e 0c3d 87cf ba3c caba 46b9 6190 cebc
000003b0: eaa6 57bb fb57 56bc 407f 913c 29de 32bc
000003c0: afdc 9a3c afc3 8d3b a4e6 babb ae45 1ebc
000003d0: 4fd1 af3c 3ce5 7d3c b206 39bb 497c f93b
000003e0: 963a 45bb d12d c5bb 3d0b 253c 3333 eb3c
000003f0: 9433 d73a 337c 223c 4420 e2bc 31bd ba3c
-0.012615287 0.023651324 0.011756228 0.028351752 0.017134286 0.016616216 0.024365826 -0.024359437
0.014814024 -0.025295336 -0.009223812 -0.023928558 -0.013898545 -0.021389926 0.021923816 0.015793476
-0.00046467653 -0.01313461 -0.017904647 -0.0023054816 0.021076983 -0.015691811 0.017265365 0.01503999
0.027926918 -0.0014568532 0.018605886 0.020059705 0.029036047 -0.0012794384 -0.0022166588 -0.015337025
0.019107698 0.012390437 -0.0041724183 0.00027799583 -0.00788834 -0.016923442 0.01774174 -0.021014461
0.016982056 0.006971202 -0.020749861 0.019523196 0.0044437046 -0.02548023 -0.015700132 0.010029535
-0.012115849 0.019137971 0.025491638 0.014964341 -0.028783994 -0.01621161 -0.018023992 0.012477007
0.018756187 0.034928497 0.003635957 -0.009897522 0.033513654 -0.030006675 -0.020152602 -0.02214356
-0.0011958898 -0.009342727 -0.020186143 0.024513207 0.02586501 -0.029385969 0.008846258 -0.031302676
0.01610424 -0.025258867 0.016903035 -0.004230713 -0.031456694 0.011612215 0.01570457 -0.01107559
0.017683536 0.019170323 0.019575821 -0.00095575314 -0.01965305 0.021454722 0.030544976 0.022917267
-0.026595607 0.025701111 -0.01896879 0.00013698006 -0.009225383 -0.021206753 -0.022014625 -0.013650651
0.010879756 0.029085392 0.007267473 -0.0052900473 -0.017712925 0.025227437 0.024558872 0.0038484377
-0.018739453 -0.029613674 -0.0012649666 -0.014234936 -0.00059476384 0.016925724 -0.0010280604 -0.025765935
0.016681926 -0.037529327 -0.016570088 0.022639427 0.009107425 -0.010154726 -0.022549162 0.025356257
0.011673156 0.017014395 -0.0021137323 0.01816185 0.009501868 0.025731534 0.032670356 0.026200175
-0.020525781 0.03121213 0.0063652815 -0.010074538 -0.0012239057 0.00043989508 0.021001067 0.024167158
8.016864e-05 -0.016918814 -0.013614859 -0.021979958 -0.028590105 -0.006179559 -0.019273473 -0.0022322778
0.01758086 -0.012398965 -0.033986364 -0.004921327 -0.020085776 0.019337969 -0.009039263 0.02222959
-0.019796755 0.0008482009 0.013700014 0.031494953 0.00450324 0.020853428 0.026482113 0.01075924
0.01372143 0.0022309863 -0.02721556 -0.033798326 0.009218448 -0.03587027 0.016454 0.0053687096
-0.026632331 0.00084717735 0.028178295 0.007705185 -0.0066573382 0.0051209214 0.00866292 -0.02757041
-0.001797916 -0.008999107 -0.009938691 -0.001344379 0.032923248 0.028525136 -0.024231078 0.01161
-0.026248742 -0.0093132965 -0.018884894 0.015699022 -0.020077141 -0.020676205 -0.006324105 -0.023720779
-0.024733962 0.017092977 -0.021083772 0.013790898 -0.01934692 -0.030808175 -0.009115144 0.033368137
0.030084442 0.013729334 -0.019200109 0.024256473 -0.018633122 0.008048121 0.031393405 -0.017264888
-0.0044692685 0.009987224 0.012519566 0.015769813 0.004418637 -0.015904527 -0.024241578 -0.009224117
0.032085296 0.019761879 -0.018745095 0.0034848182 -0.0022625318 0.008942433 -0.022639932 -0.029629923
0.009395116 -0.015322278 0.007386641 -0.018395735 -0.02779292 0.0052107247 -0.038879864 0.019426035
0.034223773 0.022804035 -0.00018952336 -0.02521533 -0.0032905885 -0.0130825 0.017760873 -0.010917225
0.018904058 0.004326306 -0.005703764 -0.009660168 0.02146211 0.015496548 -0.002823275 0.007613693
-0.0030094734 -0.0060174246 0.01007348 0.028710937 0.001641857 0.009917307 -0.027603276 0.022795292

bias f4 [64]
00000000: ded5 a4bc 212d cc3b 0d8e 28bc 0951 5fbc
00000010: dde9 debb 272f e2bb d4c2 f4bb b1de e7bc
00000020: 3506 993a 8e74 a0bc 74ab de3c 4416 063d
00000030: e1c2 033d c189 6abc a94f ee3a 3b75 edbc
00000040: 21c3 2abc a64a d2ba 138d b4bc a184 02bc
00000050: 54b5 4abc d31b eabc a894 733c 5124 d23c
00000060: 435e e2bc ca49 9abb b8ab 81bc 1833 31bc
00000070: 33a5 d6bc b518 b63c 2826 d2bc 946e 343b
00000080: c872 a5bc 44ea 583c 9f62 10bb 0292 033c
00000090: 7d6f 063d 1141 b6bc 2e78 d73c e39a 1d3d
000000a0: 1a93 893b 16f8 f33c c7b1 073c b2d7 a83b
000000b0: 1b36 a63c b0e1 31bd 61c8 3dbc f61c 053d
000000c0: b499 b53c 5a4e 1dbd 02b5 03bc 1c05 e1bc
000000d0: d3f4 0cbd 0607 56bc bfe9 b33c 9839 483c
000000e0: 7fdf 6b3a c0bf 6d37 cb57 c7bc 3d86 07bd
000000f0: 530a febc a40f acbc e2de 223b 1157 80bb
-0.020121511 0.0062309657 -0.010287774 -0.01363016 -0.006802781 -0.0069025937 -0.0074695144 -0.02830443
0.0011674823 -0.019586828 0.027181365 0.032736078 0.032168273 -0.01431507 0.00181817 -0.028986564
-0.010422499 -0.0016043975 -0.022039926 -0.0079661915 -0.012372334 -0.02857772 0.014866985 0.025652083
-0.027632838 -0.0047085034 -0.015828952 -0.010815404 -0.02620182 0.022228578 -0.02565296 0.002753173
-0.020196334 0.013239447 -0.002203144 0.008030416 0.032821167 -0.022247823 0.026302423 0.03847779
0.004198444 0.029781383 0.0082821315 0.005152666 0.020289471 -0.043428123 -0.011583419 0.032498322
0.022168018 -0.0384048 -0.008038761 -0.027468257 -0.03441317 -0.013063198 0.021962045 0.012220763
0.0008997842 1.4170946e-05 -0.024333855 -0.033087004 -0.031010782 -0.021003552 0.0024852087 -0.003916629

weight f4 [10, 64]
00000000: e7a1 c5bc c6e0 e0bd a75a d03c 7a2b 8dbd
00000010: 4fd1 543d a07e 243d 5b81 ddbd b0a8 0a3c
00000020: 248c 05be 57f2 97bd 72a1 b4bd 5b38 063b
00000030: 69ce 7ebd 85c4 983a cd28 dabc 52ff f53a
00000040: 6d26 d43d 7fb6 e43c 3054 0c3e ce9f a5bc
00000050: f950 d03d a82f 533d a210 c53d 8a5b 92bd
00000060: ca85 edbb 96de 9d3d fcd1 cb3d e4da 1dbe
00000070: 23cf e93d 3abf acbd 8b76 1dbe 4283 42bc
00000080: 2079 103e 9eda d0bd e974 22bd 4da7 37bd
00000090: c33c d4bb 11a2 d7bd 2922 afbc 3e00 7d3d
000000a0: 3976 dcbd 05f7 19be f2ab 01be 7127 7fbd
000000b0: e9d2 333d 60c9 963d 189c c13c bf36 0abe
000000c0: 25e4 62bb 9ebb eb3d 787e a13d 924b 133e
000000d0: 5a2d 673d db60 0f3e 69dc 363d 1974 9cbd
000000e0: 122c c23d 8a65 ff3d 0d1b 02bd 76fb cb3d
000000f0: 2cf8 453d 0c3e 173e 0a82 3cbc f26a 20be
00000100: f292 8cbc 28cc f33d 0d8c 2bbe 646e 973b
00000110: 8e06 22be aad3 0fbe c0b2 0cbe 7a5b 8ebd
00000120: 0ccb 0abe cc10 ccbd 748b a4bd 037b b73c
00000130: 6d48 c83d fcd8 44bd 8c29 a63d 5eb2 03be
00000140: 1041 103e e733 0a3d 44b6 a9bd 7376 333e
00000150: d24d 2bbc 2e49 d53d ae9a 323e f90c e63d
00000160: 74a8 ca3d 95af 9fbd a219 003e 5b78 aebd
00000170: 18ee afbd e349 2ebe 5298 f6bd 5d08 243e
00000180: b6d5 d8bd c785 21be fd4f 463e f8e6 d5bc
00000190: b869 b7bc cefc a8bd 73ae d7bc a102 003e
000001a0: 52e0 923c a120 babd feb2 d6bc a941 fc3c
000001b0: 3909 96bb f229 a8bd f991 3dbe 56d9 e03d
000001c0: ad4b e5bd 6427 843d 90f9 0ebe 7bee 73bc
000001d0: 9b8b ffbd d949 52bb 626c 9f3c ee3c 4c3d
000001e0: aef3 b0bd 7fd0 fbbd 9609 143e 047c 6fba
000001f0: 1892 0fbe ff5f 093d 7c55 8e3d 95cb 1fbe
00000200: 6d33 87bd e540 6fbd 8e8a 3a3e 77fc e4bc
00000210: 6f7e f93d f1a1 373e efc1 313c 37ce 3b3d
00000220: 412c 133e 6cb2 033e 9e74 aebd 6706 f5bd
00000230: 5d3c 553b 458c 4c3d 4e36 003e 79af a9bc
00000240: e3bc b6bd 8f14 eb3d 7d64 d53d b816 e0bd
00000250: ce73 fb3d 8cbb 7bbd 2db1 873d 5264 073d
00000260: 095f d1bd 5c2b 053e 3828 17be de73 eb3c
00000270: 12ff b63d 1612 dcbd 4ea0 2abc cf45 bcbd
00000280: c5ed 10be 9082 8abd ed9f b73b d59f bebd
00000290: 6585 bf3d 64ec c63d 6d0a 44bd a29d 9e3d
000002a0: 6115 e63d 67fc 0b3e 9eb9 013c 55cf 5cbd
000002b0: d077 b83c 78f2 9cbd 3d6f ef3d aff3 ce3d
000002c0: d353 0fbd 218c c0bc 8cb7 a0bd 9d6a 7b3d
000002d0: b662 dd3d 563b 0f3e 0558 f5bd 00c7 88bd
000002e0: 0e2c 623b 74fb a0bd 5fb0 e1bc 9b78 07be
000002f0: 12f5 2d3d 91bb 293e 59f3 ef3d c0b0 e43c
00000300: 9b1c 49bc 1d58 dbbb 730b fc3d 08a1 edbc
00000310: 5bdb 70bd bf79 0bbd 50c5 153e 02ac 7bbc
00000320: b303 b63d caf9 973c 5037 f9bd 4d01 5bbd
00000330: dca2 53bd 4605 b13d db3b 0ebe c585 7c3d
00000340: 6eed 903b 3d38 7c3b ac33 c3bd 820e 9abd
00000350: ce36 65bc ad9d 56bd 3bd7 eebd 8f5d aebd
00000360: c3b5 08bd 37c3 a5bb de41 d63d 8719 6ebd
00000370: 4256 843d e8e3 093e 1723 ed3d 42f1 58bd
00000380: 6f29 f1bd 0620 ffbb d284 b13b b3c5 edbd
00000390: 2959 9f3c 85c3 74bd 5434 01be 3bad 20be
000003a0: 44b9 c8bd 31e6 f43b 1ffe 183e 7b00 1c3e
000003b0: 39d3 0cbd ba8a bc3d 3884 4b3c 6865 d83d
000003c0: cafe 293d 7cb4 c3bc cceb 793d df9e f0bd
000003d0: f1ab 4fbd fcb5 a53d 6972 2c3d b1ca 063e
000003e0: 8964 1fbe f922 973d 94fd a43c 28cc 863d
000003f0: da1c 723d 1d56 69bd cf79 3d3d cd72 db3d
-0.024125053 -0.10980372 0.025433851 -0.06893058 0.051957425 0.04015982 -0.10815688 0.00846307
-0.1304174 -0.074192695 -0.08819856 0.0020480368 -0.062208567 0.0011655247 -0.026630783 0.0018768108
0.10358892 0.027919052 0.1370399 -0.020217802 0.10171694 0.05155912 0.09622313 -0.07146366
-0.007248615 0.077084705 0.09952161 -0.15415531 0.11416461 -0.08434911 -0.15377252 -0.011872115
0.14108706 -0.10197948 -0.039662275 -0.044837285 -0.00647697 -0.105289586 -0.021378594 0.06176781
-0.10764737 -0.15035637 -0.12663248 -0.062293474 0.04390231 0.07362628 0.023634002 -0.13497446
-0.0034620848 0.115103945 0.0788545 0.14384297 0.056439735 0.14001791 0.044643793 -0.07639331
0.09481062 0.12470539 -0.03176408 0.09960072 0.04833238 0.14769763 -0.011505613 -0.15665796
-0.017159913 0.11904174 -0.16752644 0.004621314 -0.15822813 -0.14045587 -0.13740063 -0.069510415
-0.13554019 -0.09964141 -0.08034411 0.022397524 0.09779439 -0.048058495 0.08113393 -0.1286101
0.1408732 0.033740904 -0.082867175 0.17525654 -0.0104555655 0.104143485 0.17441818 0.11232943
0.09895411 -0.077971615 0.12509778 -0.0851905 -0.08590335 -0.17020373 -0.120407715 0.16018815
-0.10587637 -0.15773688 0.1936645 -0.026111111 -0.022389278 -0.08251344 -0.026328301 0.12501003
0.01792923 -0.09088255 -0.026208397 0.030793028 -0.004578736 -0.082111254 -0.18512715 0.109789535
-0.11196075 0.06452826 -0.13962388 -0.014888401 -0.124777995 -0.0032087474 0.01946086 0.049862795
-0.08640228 -0.12295627 0.14456782 -0.0009135606 -0.14020574 0.033538815 0.069498986 -0.15605004
-0.066016056 -0.058411498 0.18216917 -0.027952416 0.121823184 0.1793287 0.01084946 0.04585096
0.1437235 0.12861031 -0.08518337 -0.11964112 0.00325372 0.04993846 0.12520716 -0.020713555
-0.08922746 0.114785306 0.10419557 -0.10941833 0.12277947 -0.061458156 0.066255905 0.033054657
-0.10223205 0.13004822 -0.14761436 0.028741773 0.089353696 -0.10745637 -0.010414196 -0.091930024
-0.14153202 -0.06763184 0.0056037814 -0.09307829 0.09351615 0.09713057 -0.047861505 0.0774491
0.112345465 0.13670503 0.00791779 -0.053908665 0.022518069 -0.07663435 0.11691139 0.10105073
-0.03499205 -0.023504319 -0.07847509 0.06138097 0.10809843 0.13987479 -0.11979679 -0.06678581
0.0034511122 -0.07860461 -0.02754992 -0.13229601 0.042470045 0.16575457 0.11716337 0.027916312
-0.0122748865 -0.0066938535 0.12306871 -0.02900745 -0.058802944 -0.034051653 0.1462605 -0.015360834
0.08887424 0.018551726 -0.12168753 -0.053468037 -0.051668987 0.08643584 -0.1389002 0.06165101
0.004422835 0.003848567 -0.0953134 -0.075222984 -0.013990117 -0.052396465 -0.11662146 -0.08513939
-0.033376466 -0.005058672 0.10461782 -0.058129814 0.06461765 0.13465846 0.115789585 -0.052964456
-0.11775481 -0.0077858 0.0054174447 -0.11609974 0.019451695 -0.059756774 -0.12617618 -0.15691082
-0.098009616 0.00747373 0.1494069 0.15234558 -0.034381125 0.092061475 0.01242166 0.10566217
0.04150275 -0.023889773 0.06101589 -0.11749052 -0.050701085 0.080913514 0.042101298 0.13163258
-0.15565695 0.073797174 0.020140447 0.065819085 0.059109546 -0.05696689 0.046258744 0.10715256

bias f4 [10]
00000000: 110c 3fbd d1b8 163b 0983 a2bd ed89 1d3d
00000010: fc49 61bd 51c6 2eba feb8 d93d 8bfa 74bd
00000020: 4460 8bbd 02a3 a8bd
-0.046642367 0.0022998343 -0.07935149 0.038461614 -0.055002198 -0.00066671247 0.106309876 -0.05980925
-0.068054706 -0.08234216
