models/xue_21.pth (torch, 587967 bytes, 10 tensors)

weight f4 [32, 3, 5, 5]
000000 f3 33 e6 bd 7f ef a8 3d 42 80 a0 3d bb a1 c2 3c
       -0.11240377 0.08248805 0.07836963 0.02375876
000010 5d c6 63 3d 59 17 04 3c 72 de 6d bc f0 a9 3e 3d
       0.055609096 0.008062207 -0.014518367 0.046548784
000020 fd ef 9b bd c4 a2 89 3d 16 e9 b1 bd b7 b1 f0 bd
       -0.076141335 0.06720498 -0.08687036 -0.117526464
000030 77 fa 7c be e5 4e 9f bd e4 30 81 bd 66 61 eb bc
       -0.2470492 -0.0777872 -0.06308153 -0.028732967
000040 9e fc fe 3b 9e f5 19 be af fb 6d bd 12 cd 4f bb
       0.007781579 -0.15035102 -0.058101352 -0.0031707925
000050 c0 c4 28 bd 22 f5 6c 3d 55 4e ec 3d 9e 47 26 3d
       -0.04120326 0.057850964 0.11538378 0.040595643
000060 dd a2 cf 3d 1c c9 ec bc c4 d2 8f 3d 74 c4 fc 3d
       0.101384856 -0.02890449 0.07022622 0.12342158
000070 fc ef 49 bb 92 8f de bd c0 bc 4b 3d 90 b1 0d 3d
       -0.0030813208 -0.108672276 0.049740553 0.034593165
000080 4d ae 33 3e 39 ae 74 3b 30 1c 9d bd 11 84 33 bd
       0.17546959 0.003733529 -0.07671392 -0.04382712
000090 61 54 c7 bd 11 65 12 be a2 f0 d7 bd eb 4d 92 bd
       -0.09732891 -0.14296366 -0.10543944 -0.07143768
0000a0 8d 0f df 3d df de 27 bd 7b 55 68 bb 31 2c 73 bc
       0.10891638 -0.04098403 -0.003545134 -0.014842079
0000b0 9f ee f9 3d 5d a2 65 3d 92 4f 81 3c f5 a3 42 3d
       0.122037165 0.056063045 0.015785012 0.047519643
0000c0 85 1c cc bb 89 d7 e6 bd 41 b2 bf 3c be 9d c2 3d
       -0.0062289857 -0.11271579 0.023400428 0.09502743
0000d0 43 64 46 3e 92 17 16 3d d5 66 a5 bd 0b 56 ce 3d
       0.19374184 0.036643572 -0.08076254 0.10075005
0000e0 d6 2c de 3d fd a8 97 3d 97 60 3d 3e e3 48 95 3d
       0.108483955 0.07405279 0.18493877 0.07289293
0000f0 b6 48 7a bd fa cc d0 bd 31 52 87 3d 3c 88 cf 3d
       -0.0611045 -0.10195346 0.06607474 0.101334065
000100 2b dc 8e 3a 49 d0 eb 3d 21 c4 d7 bd f0 9b de bd
       0.0010899355 0.115143366 -0.105354555 -0.108695865
000110 df 95 4f bd b2 00 c8 3d 45 5e d1 3c 1e 4f 45 bd
       -0.050680038 0.097657576 0.025557647 -0.048171155
000120 ba 9e dc bc df 1a 00 be e3 9a 77 3d d6 00 8a 3d
       -0.026931155 -0.1251025 0.060450446 0.06738441
000130 c7 ae 05 bd 99 34 6b bd df a5 9a 3b dc 1a 1f be
       -0.032637384 -0.057423208 0.0047194804 -0.1553759
000140 08 a4 ef bc 3a f5 a1 3d 49 92 b6 3d 37 b5 f0 bc
       -0.02925302 0.079081014 0.089146204 -0.029383285
000150 ad af cd bc e8 b2 f8 3d 21 9c a4 3d e5 06 b4 3d
       -0.025108183 0.12143499 0.08037592 0.087903775
000160 e8 af 16 bd 8f 95 21 be 20 af 06 be a6 9d 30 be
       -0.03678885 -0.15779708 -0.13152742 -0.17247638
000170 f9 5a 6c bd 85 88 aa bd 92 a3 60 bd 39 a8 22 bc
       -0.057703946 -0.0832682 -0.054843493 -0.009927803
000180 1d c2 9d bd 06 c5 6e 3d 93 3e 85 3d ef e4 26 3e
       -0.0770304 0.058293365 0.06506076 0.16298269
000190 e9 1d 17 3e b3 de 17 3e 81 64 bd 3d 16 21 5a bd
       0.14757504 0.14831047 0.09247685 -0.05325421
0001a0 c1 13 c0 bd 9a d2 da 3d ff fc ca 3d a2 33 31 3e
       -0.09378768 0.106847 0.099115364 0.17304853
0001b0 17 8e 9e 3b 19 86 0e 3d 96 86 0a 3e 77 44 05 3d
       0.004838716 0.034795854 0.13527903 0.032535996
0001c0 cf 83 f2 bd ac b8 9f 3d 56 8f 73 3d 30 94 05 bd
       -0.11841547 0.07798895 0.059462868 -0.032612026
0001d0 cf 48 1e be 36 93 18 be be 00 1d be 5e 3f 09 be
       -0.15457462 -0.14899907 -0.15332314 -0.13403079
0001e0 0d 8a b3 3d 68 1e 09 be 80 29 24 bc 1e 99 c3 3d
       0.087665655 -0.13390505 -0.01001966 0.09550689
0001f0 2a f9 f0 3d 71 06 0b 3e 69 1c 21 3e 2a d5 91 3d
       0.11766274 0.13576676 0.15733494 0.07120736
000200 03 e8 ba 3c a4 f8 29 bc 86 78 51 bd 00 67 cf 3d
       0.02281571 -0.010374222 -0.05114033 0.101270676
000210 89 17 be 3b 2c b9 60 3d 89 73 d4 3d 1f db 7a bd
       0.0058011455 0.054864094 0.10373599 -0.061244126
000220 e7 16 b0 3d 63 5b da bd 16 28 18 3d aa aa 0a be
       0.08598118 -0.10661962 0.037147604 -0.13541666
000230 06 76 89 bd f4 e8 62 bd cc 23 e6 bd a5 dd 35 bd
       -0.06711964 -0.055397943 -0.112372965 -0.04440083
000240 5a 25 88 bd 01 f7 7f 3d 50 2f dd bd 48 11 56 bd
       -0.06647749 0.06249142 -0.1080004 -0.052262574
000250 2c 78 27 3c 77 8a a4 3d 0f c1 29 3d 60 1c 22 3e
       0.010221522 0.080342226 0.04144388 0.15831137
000260 aa 6c e4 bd e1 f1 50 be 6f b5 9e bd 9a 15 9e 3c
       -0.111535385 -0.2040477 -0.077494495 0.01929741
000270 4d 1c 6f 3e d1 e9 8d 3b ba 42 95 bc f3 2a d2 bd
       0.2335064 0.0043308516 -0.018220294 -0.10262098
000280 97 c2 a5 3c 67 8b 7a 3e 0e 7f 03 3d 60 bc 32 be
       0.02023439 0.2446724 0.03210359 -0.17454672
000290 0f 17 74 be 7f c2 36 3e 50 63 1f 3e c4 e1 1e bd
       -0.23836921 0.17847632 0.15565228 -0.038789526
0002a0 1e bb c2 3c e0 94 65 be b1 b5 0c 3d 7d 8e 55 3d
       0.023770865 -0.22420073 0.034352962 0.05213784
0002b0 55 57 d0 bb b8 60 39 3d 7b 32 9d bd e9 d4 1e 3e
       -0.006358067 0.045258254 -0.07675644 0.15510906
0002c0 d2 3a cf 3d 9c c0 73 bb 0c 22 a1 bd 65 4e f4 bb
       0.10118641 -0.0037193662 -0.07867822 -0.0074556344
0002d0 4c 22 56 3e a0 94 ec 3d c3 0c d5 bd ca 4c 6c be
       0.2091152 0.115517855 -0.10402825 -0.23076168
0002e0 24 4d a2 bd 81 78 8b 3c 91 9e 83 3e 2c e2 ad 3d
       -0.0792487 0.017025234 0.25706914 0.084904045
0002f0 7e d3 7f be 51 d4 9b bd 21 58 2a 3e 1e bb 5f 3c
       -0.24983022 -0.076088555 0.16635181 0.013655452
000300 e3 3a 70 3d e4 62 49 be 3b 80 61 be ef a4 c0 3d
       0.05864991 -0.1966663 -0.22021572 0.094064586
000310 ea 15 19 3e 78 b9 02 bd c1 0e 86 bd 28 b3 09 be
       0.14949766 -0.031915158 -0.06545783 -0.13447249
000320 77 5a 01 3e 9f 97 d3 3c 74 c8 b6 bd 3a cc 36 be
       0.12632166 0.025829135 -0.08924952 -0.17851344
000330 d1 46 85 3d 75 82 26 3e de d9 1a 3e 30 8c fa bd
       0.06507648 0.16260703 0.15122172 -0.1223377
000340 78 28 81 be 17 a9 27 be 3e f6 43 3e 6e 7d 63 3e
       -0.25226188 -0.16373096 0.19136903 0.22215816
000350 a3 88 e5 bd 6e d6 04 be 01 c1 78 bd f5 fb 1b 3e
       -0.11207702 -0.12972423 -0.060730938 0.15232833
000360 7d 9c 22 bb 45 2e b2 3d bf dc a7 bc 62 7b 51 be
       -0.0024812513 0.087002315 -0.020491002 -0.20457223
000370 01 25 42 3d f2 49 1c 3e a9 0b 18 3d e6 6c fe bd
       0.04739857 0.15262583 0.037120495 -0.124231145
000380 b0 b6 15 be 83 6f 1f bd 42 2f ec bc dd fc 14 bd
       -0.14620471 -0.038924705 -0.028831128 -0.03637396
000390 fd 96 00 be 58 e7 f1 bc 47 7c 98 3c 1b 31 1a bd
       -0.12557597 -0.029529259 0.018613948 -0.037644487
0003a0 a3 a8 be 3d 47 53 bd 3c ba ac 33 bc 11 2a b3 bd
       0.09309509 0.023110999 -0.010966474 -0.08748258
0003b0 32 1c 19 be bf 35 b4 bd 2d ce ba 3d 9b 0c 1d 3d
       -0.14952162 -0.08799314 0.09121356 0.0383421
0003c0 23 bb 63 bd 66 b3 14 be 94 47 87 be 43 24 70 be
       -0.05559839 -0.1452156 -0.26421797 -0.23451333
0003d0 8f 88 61 bd 23 1c 8b 3d 04 42 c6 bd cd 7b 55 bd
       -0.055061873 0.06792476 -0.0968056 -0.05212002
0003e0 c4 77 5c 3c 94 01 80 bd e2 24 bf bd 56 7c 6d bd
       0.013456289 -0.06250301 -0.09333207 -0.057979904
0003f0 b0 be a6 3d fc d7 98 bd ef dd 36 bd d9 cb ff 3d
       0.081418395 -0.07463071 -0.044645246 0.12490053

bias f4 [32]
000000 d0 8d ec bd bd 90 67 be a5 d0 d7 bb f9 bb 11 be
       -0.11550486 -0.22613807 -0.0065861517 -0.14231862
000010 7d cc 7b be 52 1d c8 be 29 da cb 3d 4d 46 92 3b
       -0.24589725 -0.3908487 0.0995372 0.004463947
000020 c1 4b 9b bd 5f 26 fc bd b1 67 8a be 6f 97 73 be
       -0.07582808 -0.12312006 -0.27032235 -0.23788236
000030 52 40 a6 be d8 dc fc bd 8a 6a 63 bd 7c dc 26 3e
       -0.32470948 -0.1234681 -0.055521525 0.16295046
000040 25 5b ea bd dd a7 07 bd 07 ac 8a be db 6b 9b be
       -0.11443166 -0.03311907 -0.2708437 -0.30355725
000050 0e bd 00 3d fb b1 60 3e 85 a0 17 be 02 2d 1d 3e
       0.031430297 0.21942894 -0.14807327 0.153492
000060 6a d3 c5 3c 66 c5 ed 3d a2 17 80 3d 4c 24 f1 3d
       0.024148662 0.116099164 0.062545076 0.11774501
000070 ff b8 0d 3e 1b 75 0f 3b e9 c0 0f 3e a8 ef 92 3d
       0.13840102 0.0021889869 0.14038433 0.07174617

weight f4 [32, 32, 5, 5]
000000 02 2a f3 3c ba da 13 3c 59 2d db 3c de 3e 44 3d
       0.029683117 0.009024316 0.026755022 0.047911517
000010 8f fc 06 3d c5 9a 27 bc 06 88 07 3d 1e 2e 15 3d
       0.032955702 -0.010229771 0.033088706 0.036420934
000020 f4 9c 4d bc a1 9d c9 bb d8 17 7b bc e9 04 23 3d
       -0.012549628 -0.006152824 -0.015325509 0.039799605
000030 05 8f 79 3c d6 66 e9 ba 7e 6e 3d 3d 4c 61 b9 3c
       0.015231852 -0.0017807137 0.04624795 0.022629403
000040 49 3b 27 bc 35 8c e6 39 98 15 40 b7 8d 84 d9 bc
       -0.010207006 0.0004397348 -1.14491195e-05 -0.026552463
000050 f0 25 d5 3c 65 f1 90 3c 46 df a0 b9 e7 27 ed 3c
       0.026019067 0.01769323 -0.0003068393 0.028949691
000060 ed 62 01 bc 3f 02 0b 3d 24 b8 ac 3b 06 c3 f0 3c
       -0.007897121 0.03393769 0.0052709747 0.02938987
000070 fa d7 2d 3c 23 f8 a4 3c 76 04 5a bc 4e 47 1c 3d
       0.010610575 0.020137852 -0.013306728 0.03815394
000080 e6 18 6a 3c 1e dc 51 3d 29 af fa 3c 7b d2 f6 3b
       0.014288163 0.05123531 0.030601101 0.0075324154
000090 23 48 30 3d a3 7f 5b 3c 2c b0 7e 3c a5 3a b9 bb
       0.043037545 0.01339713 0.015544932 -0.005652743
0000a0 77 b0 bb 3a 56 5c ed 3c 15 5a a9 bc d3 cf 3c bd
       0.0014319558 0.028974693 -0.020672837 -0.046096634
0000b0 18 53 09 bd 6c 73 cb bc 04 a2 13 bd 79 69 e0 3c
       -0.03352651 -0.02483531 -0.036043182 0.027394043
0000c0 32 ca 4a 3d 2a 8f 28 3d 07 04 69 3c f2 9b 92 3a
       0.049509235 0.041152157 0.014222152 0.0011185391
0000d0 6c 17 93 bc 2f fd 01 bc 0f a2 72 bc 27 80 e5 39
       -0.017955504 -0.007933899 -0.014809146 0.00043773765
0000e0 bb 99 92 bc 22 13 9d bb a1 4d c4 3c 58 9c dc bb
       -0.01789557 -0.0047935406 0.023962798 -0.006732505
0000f0 bc 00 5c bc 61 4c b5 3c 44 92 95 bc 02 bb d5 bc
       -0.013427909 0.022131147 -0.018258221 -0.026090149
000100 fd 5e 8d bc 31 f0 95 bc c7 54 23 3c 34 1e 02 bd
       -0.017257208 -0.018303009 0.009968943 -0.031767085
000110 b9 a8 9f ba 47 09 87 3c 17 02 a6 bc be 86 00 bd
       -0.001218102 0.016483916 -0.020264668 -0.0313785
000120 46 b9 91 bb cf 02 62 bc e8 81 a4 3c 9a 3d f7 bc
       -0.004447135 -0.013794615 0.020081475 -0.030180741
000130 21 c0 8d 3c 54 bf 29 3c 61 a2 c7 3b 90 86 d3 3c
       0.017303528 0.010360558 0.006092355 0.025821
000140 bb 75 98 3c c3 20 29 3d 20 09 d5 bc 6c 95 d9 bc
       0.018610826 0.04129101 -0.026005328 -0.026560508
000150 bd f2 ab 3c 84 c4 12 3d 3e 7d 83 3c e6 a2 e9 3c
       0.02098977 0.035831943 0.016050931 0.028520059
000160 43 b4 92 39 b8 9f 48 3d 39 d9 23 3d cf 7a 34 3d
       0.00027981595 0.048980445 0.04000208 0.044062432
000170 5a 51 4a 3d a5 f5 2b 3d 2c a9 05 bd e5 4f 1d bc
       0.04939399 0.04198231 -0.032632038 -0.009601568
000180 75 85 33 3c 17 36 1f bc 44 97 4f 3d 68 0b 7c 3c
       0.010957112 -0.009717486 0.050681368 0.015383579
000190 a6 5b f0 3b fd e8 87 3c c7 af 03 3c 79 26 e0 3c
       0.007335144 0.01659059 0.008037514 0.027362095
0001a0 5c a8 11 3d a4 fb 11 3d c6 5f ea 3a 92 15 05 bd
       0.03556095 0.035640374 0.0017881326 -0.032491274
0001b0 79 83 d4 3c 9d 84 01 bb 45 57 01 3d a7 d9 a0 3c
       0.025941597 -0.0019762882 0.031577367 0.019635035
0001c0 60 f0 77 3c 2e 12 a9 bb 71 9a a6 bc 5b 70 e2 bc
       0.015132993 -0.005159638 -0.020337315 -0.027641466
0001d0 e4 0e d2 bb 07 fb 9a ba f2 8f 27 3d 3d bd f4 3c
       -0.0064104665 -0.001182408 0.04090876 0.029875392
0001e0 c8 81 18 3d a1 5a 35 3d ea 89 9f bc c3 13 55 bc
       0.037233144 0.044275884 -0.019474942 -0.0130052
0001f0 33 cc d6 bc f7 96 bf 3b 90 d4 4b 3d 6f d6 85 3d
       -0.026220417 0.005846854 0.049763262 0.065350406
000200 70 56 96 3d e8 9a 2f 3d 02 e2 12 3d c3 24 59 3d
       0.073407054 0.04287234 0.03586007 0.053013574
000210 12 3d 0b 3a ed d8 22 3c 5d 12 07 bb 28 ac e0 3c
       0.00053115294 0.009939414 -0.002061031 0.02742584
000220 23 72 5c 3d d8 d0 a8 3c 79 1b fd 3b 3f 43 93 3c
       0.053819787 0.020607397 0.0077242223 0.017976401
000230 10 a0 91 3c 05 d1 40 3b 4b 7c ba bc b0 5d df 37
       0.017776519 0.002942146 -0.022764346 2.6627298e-05
000240 29 14 a2 bc 2a 9a a2 3c 08 24 89 bc 29 b9 11 bc
       -0.019785004 0.019848902 -0.016740814 -0.008894243
000250 84 38 9e bb ac f4 09 bc 48 78 5a bd 34 7e 93 bc
       -0.0048285145 -0.008420151 -0.053337365 -0.018004514
000260 5a 69 cc bb b5 30 9b 3b 5a 38 74 3b a1 26 59 3c
       -0.006238145 0.004736031 0.0037265033 0.013253839
000270 17 09 aa bb af 49 35 3d 5e 1e 10 bc 95 e8 bf 3b
       -0.005189072 0.044259723 -0.008796303 0.0058565834
000280 a1 ed e6 bc 82 96 04 3d 31 1d ed 3c 60 db 9b 3c
       -0.028189482 0.032370098 0.028944584 0.019025505
000290 06 74 57 3c ae 5b c8 3c 71 49 90 3d f8 a2 1a 3d
       0.013150221 0.024457779 0.07045258 0.037753075
0002a0 49 a5 84 3c fb 70 46 3c b0 87 c3 3c 05 39 84 3d
       0.016192095 0.012111898 0.023868412 0.06456188
0002b0 21 08 6a 3d 2b 80 8b 3d 6d 7b 41 3c 5d a8 1c bc
       0.05713666 0.068115555 0.011809212 -0.009561625
0002c0 5a 92 ea 3c 64 5e 9c bc 75 59 04 bd 6f 2b f2 b9
       0.028634239 -0.019087978 -0.032311875 -0.00046190197
0002d0 e9 5a c0 3c b5 e4 e6 bc 4e 5f 2d 3d 3c b0 8e 3b
       0.02348085 -0.028185228 0.042327218 0.004354505
0002e0 ca f7 0f 3d 1d 42 0d 3d 6f e4 16 3d 6a db 40 3d
       0.03514842 0.03448688 0.036838945 0.04708425
0002f0 9d e5 ce 3b 5b 43 b7 bb 5f b0 08 3d 82 c8 ea 3c
       0.006313993 -0.005592746 0.033371326 0.028660063
000300 ff 34 5c bc 50 fd f1 3c a0 ff 16 3c a7 84 b6 3b
       -0.01344037 0.029539734 0.009216219 0.0055700126
000310 63 70 51 3c c5 de 93 3b 51 38 2a 3d 89 28 61 bc
       0.012783143 0.00451264 0.041557614 -0.0137425745
000320 bf 15 e8 bc 9b ce 02 bd f0 3b 85 bb a1 9c 5e 3b
       -0.028330682 -0.031935316 -0.004065983 0.003396787
000330 9d e6 08 3b 19 3d e4 bc 83 c9 31 3c 85 a0 49 3c
       0.002088941 -0.027861165 0.010851267 0.012306337
000340 99 f5 54 3c 6e 5d 75 ba de 69 af bc 98 1a 0d bb
       0.012998008 -0.00093599304 -0.021412786 -0.0021530744
000350 6d a9 95 3c 23 d6 85 3c 47 d9 c4 ba 72 1a 1d 3d
       0.018269265 0.01633746 -0.0015018367 0.0383553
000360 84 95 ab 3d 9f 62 ac 3d 67 c0 a9 3d 85 39 0e 3d
       0.08378127 0.08417248 0.08288651 0.034722824
000370 ad 03 67 3d b3 86 07 3d 40 54 2c 3c 6f 16 08 bd
       0.05639999 0.033087444 0.010518134 -0.03322452
000380 36 3c 04 bd 5b 55 ad 3c fb d8 a7 3c 68 1a 80 3c
       -0.032283984 0.021158865 0.020489207 0.015637591
000390 cf 8c f6 3b ff 3c 2b bd c0 1e c5 bb cd 2d 96 3c
       0.00752411 -0.041806217 -0.0060156286 0.018332386
0003a0 6c 3e c8 3c f6 d6 ff 3b 55 92 7e bc 50 12 cb 3c
       0.024443828 0.0078076078 -0.015537818 0.024789006
0003b0 09 19 3a 3c 1f 5c 29 bb 8b 72 04 bd e6 44 e2 bc
       0.011358508 -0.0025842262 -0.0323358 -0.027620744
0003c0 c4 5e 5c 3d 93 8e 71 3d 43 b2 42 3d 49 6e 12 3d
       0.053801313 0.05897386 0.047533285 0.035749707
0003d0 bf 29 4a 3c e2 4a 46 ba 39 50 2c 3c 74 fc 57 3c
       0.012339055 -0.0007564259 0.010517173 0.013182748
0003e0 e2 3c 76 3c a3 62 b6 bc 79 7c 1c bc ab 5d a8 3c
       0.015029164 -0.02226383 -0.009551161 0.020552477
0003f0 97 91 62 bc d8 ad e1 bb 8c 4d bb 3c 70 53 c9 39
       -0.013828657 -0.006887179 0.022864126 0.00038399873

bias f4 [32]
000000 ee e6 ae 3a 47 e6 5c bd 56 00 92 bd 1a da 64 be
       0.0013343969 -0.053930547 -0.0712897 -0.22348824
000010 f1 06 1d be 21 54 7d bd a0 0f 26 be dc 23 c9 bd
       -0.15334679 -0.06184781 -0.16216898 -0.09821293
000020 e5 ce c6 bd 87 b9 8e bc 88 fe 99 be 45 ad ab 3b
       -0.09707431 -0.01742245 -0.30077004 0.005239161
000030 f4 d3 c8 bd 58 cd 4c bc 4e a6 83 bd 40 08 44 bd
       -0.09806052 -0.01250013 -0.064282045 -0.04785943
000040 b9 1a 4e bd ce 5a c4 3b c4 3c c5 bd ca 73 c7 bc
       -0.050318453 0.00599227 -0.09630731 -0.024347205
000050 13 b3 8e bd 65 f8 13 bd 63 87 a7 bd ae 3b 32 3d
       -0.069677494 -0.03612556 -0.0818012 0.043513946
000060 ff ae de 3b d1 35 03 be 03 d2 97 bd 50 6d 96 bd
       0.0067957635 -0.12813498 -0.074131034 -0.073450685
000070 40 fe 8a bd 40 0d 23 3c 4a 96 17 be b2 26 eb bc
       -0.067867756 0.0099518895 -0.14803424 -0.028704975

weight f4 [64, 32, 5, 5]
000000 58 3a 06 bc 3c 37 5b bb 03 e3 ab bc c0 24 52 bd
       -0.008192621 -0.003344967 -0.020982271 -0.05130458
000010 ea 77 12 bd 1d 23 18 3d 2a 20 09 3c 9a 9d 62 3b
       -0.03575889 0.03714286 0.008369485 0.00345788
000020 8b 39 7a bc 34 9e ad 3c 58 87 d6 bc e5 81 89 3a
       -0.015272508 0.021193601 -0.026187584 0.0010490982
000030 d4 bc 3b bc 96 52 04 3d 42 af 34 bc 7b ac 74 bc
       -0.011458594 0.032305323 -0.011028113 -0.014933701
000040 b0 43 12 bd 5f 4c eb bc 48 87 bc bb 6c de d7 3c
       -0.035709083 -0.02872294 -0.0057534315 0.026351176
000050 26 04 db ba 83 dd 1b 3c 05 58 e8 bb c2 1c 21 3d
       -0.001670961 0.009513262 -0.007090571 0.039334066
000060 36 4f 95 3b 8c 92 02 bd 7f a0 a7 bc f0 2f 80 bc
       0.004556562 -0.03187804 -0.020462273 -0.015647858
000070 a8 f7 f2 bc e6 9f d5 bc 60 9d 34 3d 90 38 2e 3a
       -0.029659107 -0.026077222 0.044095397 0.0006646002
000080 e8 f3 da 3b 87 fb e2 bb e7 d0 c1 bc b2 02 d2 3c
       0.006681908 -0.006926957 -0.023659183 0.02563605
000090 95 cb d7 ba f3 be 26 3c 87 21 6f 3b a2 bd 86 bc
       -0.001646387 0.010177362 0.003648849 -0.016447846
0000a0 4d 8c bc bc e9 61 9d 3c 96 e0 08 bd 6d 4f c6 bc
       -0.02301612 0.019211726 -0.033417307 -0.024207795
0000b0 b1 b5 86 bb 26 f6 c5 3b 45 fe 87 bc 44 c5 63 bd
       -0.004111015 0.006041306 -0.016600737 -0.05560805
0000c0 10 2f 9c bb 5b 22 ab bc 18 f5 22 b9 5f 8c 17 bd
       -0.0047663525 -0.020890405 -0.00015540828 -0.036999103
0000d0 df af ab 3b ce f3 98 bc 18 a1 19 3d 96 7b 35 3c
       0.0052394713 -0.018670943 0.037507147 0.011076828
0000e0 79 da 39 bd 5d ed 96 b9 f5 f4 bc 3c 4d e1 a6 3c
       -0.045374367 -0.0002878708 0.023066023 0.020371104
0000f0 ba cb 64 3c 71 b4 39 3d 4c b1 1b bd ca 4f 93 3c
       0.013964588 0.045338098 -0.03801088 0.017982382
000100 55 d6 04 3d 60 b6 4b bd cc 8e 53 bb 10 64 a6 bb
       0.032430965 -0.049734473 -0.0032281158 -0.0050778463
000110 85 34 37 bd e1 cf e2 3c bb 8e a4 3c a9 0f 17 bd
       -0.04472782 0.027687015 0.02008759 -0.03688017
000120 8f d2 ee 3b 3c 6a 8b 3c 21 cf ed 3c 89 c9 da bc
       0.007288284 0.01701843 0.02902943 -0.026707428
000130 b0 a7 0c bd f4 36 f1 bc da 17 42 3d 6f 8b 78 3b
       -0.034339607 -0.029445149 0.047386028 0.0037924906
000140 cb ab 5c 3c e0 41 67 bd 30 48 4e 3c 96 0c 66 3d
       0.013468693 -0.056459308 0.012590453 0.056164347
000150 7e a1 70 3d 58 b3 1f bd a9 d3 0f bd f0 b6 5d 3d
       0.05874776 -0.038989395 -0.035113964 0.05412954
000160 bf 28 0b 3d 06 88 8f bc 21 9a 70 3c 96 11 cb 3c
       0.033974405 -0.017520916 0.014685185 0.024788659
000170 54 b0 bf 3c dd 25 ac 3c 83 60 3f 3c 99 80 6a bc
       0.02339951 0.021014148 0.011680725 -0.014312887
000180 f8 9b 19 bc 57 bd d5 3c 1f 85 94 bc c1 fd 07 3d
       -0.009375565 0.02609126 -0.018129883 0.033200983
000190 a2 4a ab 3c 3a 6a 84 3d ce 4b 91 3d 47 20 09 bd
       0.020909611 0.064655736 0.07094537 -0.033478048
0001a0 5b 60 4e bd 9c 47 21 bc 7a 1d f7 3c f5 74 c3 3b
       -0.05038486 -0.009843733 0.030165423 0.00596487
0001b0 5a 5c b4 3c 72 9d c3 bc 04 40 8d 3b 30 81 7a 3b
       0.022016693 -0.023878787 0.00431061 0.0038223974
0001c0 5f 9a fe 3c 60 9b e8 bb 3f 70 8c 3a 85 9e 0f 3d
       0.03107947 -0.0070986003 0.0010714604 0.035063285
0001d0 cb c1 d8 3c 34 df e6 bb a2 1b 45 3c ce fa d3 3c
       0.026459595 -0.007045651 0.012030514 0.025876429
0001e0 bd 82 17 bc 45 f3 08 3d 37 c0 0b 3d 84 f8 f7 3c
       -0.009247479 0.033435125 0.034118857 0.030269869
0001f0 76 b8 43 3c a7 25 b0 bb 1e 3e 2a 3d a2 6e de 3b
       0.011945834 -0.0053755823 0.041563146 0.006788091
000200 08 58 ce 39 48 fb c7 bc 3c 05 58 bd eb 30 a3 3d
       0.0003935697 -0.024411812 -0.052739367 0.07968315
000210 24 23 16 3d 98 32 cc bc 5d 40 0d 3c f6 1f 00 bd
       0.036654606 -0.024926469 0.008621302 -0.03128048
000220 1e e7 06 bc ec 55 41 bc c7 fd 7a bc d2 6d f7 3b
       -0.008233814 -0.0118002705 -0.015319294 0.0075509334
000230 13 0e 75 bc c8 7b 0f 3a 8f 6e 7f bc 7f f1 1b bd
       -0.014956969 0.0005473462 -0.015590324 -0.038072105
000240 1b 62 83 bc 45 a7 08 3d 5a e7 3f 3d e3 30 e6 bc
       -0.016037991 0.033362646 0.046851493 -0.028099483
000250 a6 34 c2 3c 37 64 ef bc e3 4a bc 3a d9 d5 18 bd
       0.023706745 -0.02922259 0.001436558 -0.037313316
000260 31 fa 67 ba 57 70 b2 b9 22 e1 26 bd a5 df ea 3c
       -0.0008849232 -0.00034034505 -0.040742047 0.028671095
000270 e1 11 d7 3b eb e5 58 bc 50 f1 47 bd 7e 01 68 3c
       0.0065634106 -0.01323841 -0.048814118 0.014160512
000280 74 63 f4 3b c3 bc 6d bd 36 50 bd ba 91 b2 af bc
       0.007458145 -0.058041345 -0.001444346 -0.021447452
000290 b0 cc c4 3c b7 d1 01 3d 5c 99 7b bc cc 57 51 bb
       0.024023384 0.03169414 -0.015356388 -0.00319432
0002a0 03 d1 1f 3c 5d 0c 16 bd b8 48 3c bd 02 f7 51 bd
       0.009754422 -0.036632884 -0.045967788 -0.051260956
0002b0 02 38 88 3c 94 27 65 bb d0 df 35 3d a7 46 d3 bb
       0.01662827 -0.0034966217 0.044402897 -0.0064476314
0002c0 87 61 5e bd e6 5d e6 3a b1 05 55 3c 99 f9 10 bd
       -0.054292228 0.0017575591 0.013001845 -0.035394285
0002d0 e1 2b 00 bd 69 91 21 bd 3a 5e 37 bb 01 67 ba bc
       -0.031291846 -0.039445315 -0.0027979747 -0.022754194
0002e0 17 6a 98 3c cb 5a 7c 3c a8 8e 33 bd 42 a1 e8 bb
       0.018605275 0.015402506 -0.04383722 -0.0070993016
0002f0 5b 99 0b 3d d2 c1 2a bc de 08 4e 3c b1 b8 0b bc
       0.034081798 -0.010422187 0.012575356 -0.008527921
000300 3e 66 33 3c 83 65 09 3c 3f 93 91 39 00 a7 79 39
       0.010949669 0.008386019 0.00027766262 0.00023808703
000310 da 59 dd 3c b7 a9 f3 bb cf be a9 bc 5f bc 03 3c
       0.027020384 -0.007436003 -0.020720867 0.008040517
000320 98 60 fe 3a 9c a7 61 bc 64 4e e4 3c ed 2e 83 bc
       0.0019407449 -0.013772871 0.02786941 -0.016013587
000330 ef 47 aa bb 91 2b 9b bc d3 25 97 bc f6 62 e3 bb
       -0.0051965634 -0.018941673 -0.018450653 -0.0069392873
000340 73 f3 c0 3c 32 bb ca bc ab 17 4b 3c d3 bd 43 bc
       0.023553586 -0.024747465 0.01239578 -0.011947113
000350 24 e4 64 3d 7d fd 07 bd 8b f7 a9 3c 69 1a cc 3c
       0.055881634 -0.03320073 0.02074792 0.024914937
000360 0d 15 c0 bc 4f 50 0a 3d 06 81 a9 3c 0a 33 ce bc
       -0.023447538 0.033767994 0.020691406 -0.025170822
000370 90 f6 bc bc 36 ce 5f 3c 9d 16 1a 3b b8 65 a2 3c
       -0.023066789 0.013660004 0.0023512014 0.019823894
000380 8a 1c 3e bc 6a 6d 45 bb 0a f5 1a b9 09 b4 9a bc
       -0.011603484 -0.003012503 -0.00014777869 -0.018884676
000390 a1 1e 6f 3c d4 3a 0d bd 40 c4 78 bc 24 19 ff bc
       0.014594705 -0.03447993 -0.015183508 -0.031139918
0003a0 15 90 f4 3c a6 61 d8 3b 7a 1a 50 3d 24 ba e0 bc
       0.02985386 0.0066034375 0.0508065 -0.027432509
0003b0 a3 22 bc bc 3e 0f 39 3d af 0a 19 bd 67 d2 01 3d
       -0.022965735 0.04518055 -0.037363704 0.031694796
0003c0 c2 8e 6f bd 6d df 0b bc 9d de c3 bc f8 ef 0c bd
       -0.058485754 -0.008537156 -0.023909861 -0.03440854
0003d0 65 84 fb bc bd 55 9a bc 09 56 9d bc 9a a7 ae 3c
       -0.03070278 -0.018839711 -0.019206064 0.021320153
0003e0 b6 0c 26 bc ba 5f 20 3a db c8 81 3c 09 c6 c7 3b
       -0.010134866 0.000611778 0.015842846 0.0060966057
0003f0 bd 8f ca bc cb b3 ca 3c a8 61 e1 bc 21 5c f5 bb
       -0.024726743 0.024743935 -0.027512386 -0.0074877893

bias f4 [64]
000000 21 1d 2c bd 7c 25 41 bd 7d 6d d0 bd 0f 00 99 bc
       -0.042019967 -0.04715489 -0.10177133 -0.018676786
000010 c7 19 ee bd 18 ee 44 bd 58 97 6b bd fe 96 1c bd
       -0.116260104 -0.048078626 -0.05751738 -0.038229935
000020 36 fa 47 bd 57 d1 9f bd 60 cd 1a bd a7 1f b7 bd
       -0.048822604 -0.078036 -0.037793517 -0.08941584
000030 b6 7e 32 bd 47 ef 21 bd 5a cb 8d bd 1c a4 3c bc
       -0.043577872 -0.039534833 -0.06923552 -0.011513736
000040 a5 52 54 bd b8 65 1a bd 81 fd 60 bd b8 78 07 3d
       -0.05183663 -0.037694663 -0.05492926 0.03307411
000050 2e 4b 5a bd a4 0f 03 bd 75 a1 9d bd 1f 8d 48 bc
       -0.053294353 -0.031997338 -0.07696811 -0.012240677
000060 dc 80 02 be 85 71 d3 bd b6 14 8b bd 14 77 9a bd
       -0.12744468 -0.103243865 -0.0679106 -0.075422436
000070 54 2a 90 3b 26 33 1a bd 9c 8d 87 bc 8e 14 9a bd
       0.004399577 -0.037646435 -0.016547017 -0.07523452
000080 8e 60 9b bc d5 bb ef bc d8 8b b2 bd e6 3b 49 3d
       -0.01896694 -0.02926437 -0.08718079 0.04912939
000090 b3 99 84 bd c5 05 01 3d 18 cb b5 bd 76 0c ad bc
       -0.06474628 0.031499643 -0.08876628 -0.021124106
0000a0 2b 3d a3 bd cb 5f 01 be 76 e1 0f bd 3c 78 6f bd
       -0.07970651 -0.12634198 -0.035127126 -0.058464274
0000b0 91 f5 1f be e8 52 2e bd 4e 58 1a bd 23 1a 68 3c
       -0.1562102 -0.042559534 -0.03768187 0.014166388
0000c0 8c 3d 4d bd 9f f6 05 be b6 db b7 bb 84 a8 74 bd
       -0.050107524 -0.1308236 -0.0056109084 -0.05973102
0000d0 97 5a 8f 3c 2d cc d5 bc 64 bd ff bd 1a e5 7c bc
       0.017499251 -0.026098335 -0.12487295 -0.015435481
0000e0 07 a3 82 bd 67 4b ec bc fc 6e 3b 3b 2c 31 f8 3c
       -0.06378751 -0.028844548 0.0028600087 0.030296884
0000f0 7f 5c 05 3d 9c a7 53 3b 1a fd 34 bd a2 f8 14 3c
       0.032558914 0.0032295948 -0.04418669 0.009092482

weight f4 [64, 1024]
000000 4a 1d 4b bc 52 47 16 3d e6 5d fc b9 ec 1f 0d 3d
       -0.01239712 0.03668911 -0.00048135145 0.03445427
000010 3d e2 18 3d 75 6e 87 3c 48 99 df 3c d5 4d bb bc
       0.037325133 0.016532162 0.02729477 -0.022864262
000020 07 5f 33 3c 51 64 2e bd b6 d3 d5 3b cb 10 29 bd
       0.010947949 -0.042576138 0.006525482 -0.04127578
000030 7c 75 f2 bc a6 51 f9 bc 0c 43 d2 3c d7 de ee 39
       -0.029597037 -0.03043444 0.025666736 0.00045560926
000040 9a 4d 9d bb ae d6 8d bb f1 78 e2 bc ff 65 09 3d
       -0.0048005106 -0.0043285703 -0.02764556 0.033544537
000050 e1 13 00 3d cf 4c d1 bc 0f 0f 2a 3d 5b a2 23 3d
       0.031268958 -0.02554932 0.041518267 0.039949756
000060 9c 68 11 3d 17 3b 68 3b c8 24 fe 3c ee df 36 3d
       0.035500154 0.003543561 0.031023398 0.04464715
000070 72 ed 32 3d 25 96 9a 3c ca ae ca 3c ff 5d 2c bc
       0.043683477 0.018870423 0.024741549 -0.010520457
000080 03 55 3a 3c f2 f7 9f bb 68 91 14 bd b2 17 5c bc
       0.011372807 -0.0048818523 -0.036271483 -0.013433384
000090 df 4f 5a 3c 6f 05 95 bc 31 aa 69 3c 62 30 cc bc
       0.013324707 -0.018191068 0.014261768 -0.024925414
0000a0 fb 5c d4 3c 5b 26 1a 3c 07 70 d9 bc 3b 61 13 3d
       0.025923243 0.009408559 -0.026542677 0.035981398
0000b0 0b c5 75 bb 1a c3 a6 bc f2 75 8b bc e6 da 1f 3c
       -0.003750148 -0.020356704 -0.017024014 0.009756779
0000c0 02 e6 f8 3b d0 81 2e 3c a2 df 3c 3d b0 3a 81 3c
       0.0075957784 0.010651067 0.04611171 0.015775055
0000d0 5f 38 24 bb c5 82 db bc c3 4b 34 3b 2b fc 8f 3c
       -0.0025058014 -0.026795754 0.0027510978 0.017576298
0000e0 f2 20 51 3d 0c 40 24 3d dd 4b 03 3d d7 f2 84 bc
       0.05105681 0.040100142 0.03205477 -0.016229076
0000f0 ae 2d 3b 3d 7d 10 24 bd 50 24 f3 bc b1 fd 8f bc
       0.04569786 -0.040054787 -0.029680401 -0.017577024
000100 7a 65 d0 ba 8d 15 95 bc 2e 69 61 bd 4a 21 f5 3c
       -0.0015899383 -0.018198753 -0.055031948 0.0299231
000110 1e 16 06 3d 09 45 a2 bc 6a 1b f2 3b c6 b7 03 bd
       0.032735936 -0.01980831 0.007388522 -0.032157682
000120 98 5a f4 3b 59 16 ff bc 6b 6f 13 3d 48 54 f5 bb
       0.0074570887 -0.031138586 0.03599493 -0.0074868537
000130 44 bb 16 bd c9 ff 68 3c 56 a2 1b 3c 90 66 01 bb
       -0.036799684 0.01422114 0.009499153 -0.001974497
000140 6b 86 da 3c 2a 9d 52 3c 83 b5 df 3c 1d 58 da 3b
       0.026675424 0.012854854 0.027308231 0.006663336
000150 37 41 be bc 80 bb d7 bc 42 62 50 3d d8 75 e8 3a
       -0.023224456 -0.026334524 0.050874956 0.0017735315
000160 ae 6c 2a bd 1a 3e bb bb 61 b4 74 bc 40 96 e0 bb
       -0.04160755 -0.00571419 -0.014935584 -0.0068538487
000170 d9 8c 51 bc 6b 21 57 bb 7c 13 89 bc ed b3 63 bc
       -0.012789928 -0.0032826315 -0.016732924 -0.013897878
000180 df 26 dd bb 70 40 b4 3c 67 b4 dd bc 31 54 8d bc
       -0.0067490186 0.022003382 -0.027063562 -0.01725206
000190 f1 0a 3c bc 56 de 85 3c 91 31 07 3c 02 0c 8a 3b
       -0.011477218 0.01634137 0.008251564 0.004212857
0001a0 8d 81 09 bd 88 36 5c bc 61 1f 24 bc 08 91 0f 3c
       -0.033570815 -0.013440736 -0.010017247 0.0087626055
0001b0 80 74 a2 bc a1 dd b2 3b a1 dd 7f bb bb b4 23 bd
       -0.019830942 0.005458549 -0.0039042013 -0.03996728
0001c0 44 84 30 3d 61 80 48 bd 7a 78 40 bd ec ac fa 3c
       0.04309489 -0.048950557 -0.046989895 0.030600034
0001d0 56 4d b7 3c c8 c8 35 3c 61 8f 73 bd d3 4c 00 3d
       0.022375744 0.011095233 -0.05946291 0.031323265
0001e0 02 45 d2 3c 67 af c5 3c 0b 29 83 bc ba 3f 72 3b
       0.025667671 0.02413149 -0.016010782 0.0036964254
0001f0 36 78 30 3d ee 65 cb 3c 44 d3 dc 3c 1f eb e0 3c
       0.043083392 0.024828877 0.026956208 0.027455864
000200 4b b7 23 bd fd 0f 0d 3c ba 10 22 bc 85 09 c3 bc
       -0.039969724 0.008609769 -0.009891683 -0.02380825
000210 e8 db a8 3c 69 72 86 bc 15 f5 9f bc 54 6f 8b 3c
       0.020612672 -0.016411977 -0.019526044 0.017020859
000220 0e 45 84 3c ed 7b 57 bc 54 5c 89 bc 0c 35 fd bc
       0.01614621 -0.013152105 -0.016767658 -0.030909084
000230 99 37 16 bd 1e 71 ce ba 69 6e 85 bc 83 29 8f bb
       -0.036674116 -0.0015750264 -0.016288 -0.0043689623
000240 33 c4 92 3c 86 4b 89 bc 29 c1 f8 bc 00 0e 5b bc
       0.01791582 -0.016759645 -0.030365543 -0.013370037
000250 e9 f8 a3 bb dd bd b3 bc 59 62 ef bc b3 07 c2 3c
       -0.0050040376 -0.02194112 -0.0292217 0.023685312
000260 3c aa bb bb 16 b6 b7 b9 9b 99 94 3c 0b a3 bc 3c
       -0.0057270806 -0.00035040145 0.018139651 0.023026964
000270 96 be 3a 3c c2 89 f4 3c a4 4c 04 3c 32 c8 80 3c
       0.011397978 0.029850844 0.008074913 0.01572046
000280 fc 89 5c 3c 92 bb a3 ba e8 d1 5c bd 9d 1e 50 bd
       0.013460632 -0.0012491813 -0.05391112 -0.050810445
000290 c8 80 74 3c e9 39 8b bc 1b 82 73 3c 5b 76 77 bc
       0.014923282 -0.016995387 0.0148625625 -0.015103902
0002a0 92 45 12 bd 93 cd 63 3c 1a 23 ae bb 7e 24 81 bc
       -0.03571088 0.013903993 -0.005314243 -0.015764471
0002b0 aa ac d8 bb 37 54 0c ba 1c 49 05 3b 0a 2d 3b bc
       -0.00661238 -0.0005353125 0.0020337766 -0.011424312
0002c0 08 1d 29 3b 41 8a 69 bc ee 27 78 bc 79 bd 86 3c
       0.0025804657 -0.014254154 -0.015146239 0.01644777
0002d0 b3 42 1d 3d 6e d3 f4 3c d7 7a 0a bd bc 23 05 bb
       0.038393687 0.029885974 -0.033808555 -0.0020315489
0002e0 ed e2 98 bc ef f9 29 3b 09 35 25 3c 62 55 f2 3c
       -0.018662894 0.0025936326 0.010083445 0.02958173
0002f0 7e 81 65 bc f2 2e 1c bb b8 76 4d 3c c7 48 0b bd
       -0.014007924 -0.0023831693 0.012540512 -0.034004953
000300 2e e4 0d bc 52 58 18 3c a4 cb 80 ba d9 28 87 3c
       -0.008660359 0.009298401 -0.0009826315 0.01649897
000310 2d f4 4f bb de 77 b9 bd 4e 5a a8 bc 6b 60 12 3d
       -0.0031731233 -0.09056066 -0.020550873 0.035736483
000320 7a 31 8d 3c 0f 65 15 3d ac 29 28 bd e5 bb ac 3c
       0.017235506 0.03647333 -0.041055366 0.021085689
000330 a0 bc 8b bc 93 88 4c 3c a2 1f 3c 3d c2 10 1d bd
       -0.017057717 0.012483734 0.045928605 -0.03834606
000340 e7 ec d9 bb 07 ce 07 3d 48 69 ad 3b 3e 76 51 3d
       -0.0066505554 0.033155467 0.0052920915 0.051138155
000350 be 06 28 bb 47 3c b5 bc ee 4d e1 bc 46 dd a0 bb
       -0.0025638784 -0.022123469 -0.02750298 -0.0049091903
000360 fd 7f 0d 3d 36 64 1b 3c b1 2b 2b bc 26 61 67 3c
       0.034545887 0.009484341 -0.010447429 0.014122283
000370 a3 1e 02 bd 78 b6 de bb 00 bb b7 bc 8c eb f8 bc
       -0.0317675 -0.0067966543 -0.022428036 -0.030385755
000380 6e dd 69 3c 99 5f a6 bb e3 92 93 3c ef c5 87 bc
       0.014273984 -0.005077314 0.018014377 -0.016573874
000390 4d 09 f7 bc 2b 53 b0 bb e9 5f 14 bd fa 97 e8 3c
       -0.030155802 -0.005381008 -0.03622428 0.02839278
0003a0 22 84 af 3c 99 92 85 3c 4e da 07 3d 31 41 32 3b
       0.02142531 0.016305255 0.033167176 0.0027199502
0003b0 e0 ca b1 3b cc e2 81 bc 42 9f 36 3c ca 42 1d 3b
       0.005425796 -0.015855215 0.011146368 0.0023996108
0003c0 0f b2 d3 3c 35 f7 3e 3b ae 66 09 bc 50 72 a6 3b
       0.02584174 0.0029139046 -0.008386297 0.005079545
0003d0 83 c2 a8 3c d1 6f 1f bc 0c c1 06 3b 19 d2 b5 b9
       0.020600563 -0.009731249 0.0020561842 -0.00034679545
0003e0 b2 52 9d bc c8 ac 4e bc 90 30 03 bc f6 72 24 3d
       -0.019204471 -0.012614436 -0.008007184 0.040148698
0003f0 8d 8b 8c bb 16 e6 90 3b 5e 59 4c bc b5 f4 a3 3c
       -0.0042890967 0.0044219596 -0.012472479 0.020014146

bias f4 [64]
000000 c0 53 cf 3a ba 4d 90 3c a9 f0 b8 bc ac 3a 89 ba
       0.0015817806 0.017615188 -0.022575693 -0.0010469756
000010 a3 f1 28 bb 0a b0 7e 3b 93 88 ca 3a 6a 99 0b bd
       -0.0025778792 0.0038862252 0.0015452079 -0.034081854
000020 70 da 65 3c 14 33 18 bd a3 ba 62 3d 21 03 6a 3d
       0.01402913 -0.037158087 0.055353772 0.05713189
000030 98 18 27 3d ad 7c f9 3b 8a 2d bb bc 2d d4 dc bc
       0.04079494 0.0076137395 -0.022848863 -0.026956642
000040 db 7f ef bc aa 4e f1 bc ea 7d 27 bd 3a cf 3b bc
       -0.02923577 -0.029456455 -0.040891565 -0.011462981
000050 bc 2f 4b bd 40 e7 ed bc 45 f3 18 3d e3 c7 d6 3a
       -0.04960607 -0.029040933 0.037341375 0.0016386475
000060 f6 2b 1b bd 9e 0c de 39 6b 96 78 bd b4 59 15 3b
       -0.03788372 0.0004235254 -0.060690325 0.0022789063
000070 d7 83 b8 bc 6b 41 5a 3d be 25 1a bd 50 9f 37 bd
       -0.022523804 0.053285044 -0.03763365 -0.044829667
000080 53 2e d6 bc f5 7a d8 3c 4e 06 29 bd 8f 61 11 3c
       -0.026145136 0.026425818 -0.04126578 0.008873357
000090 a7 a9 2c 3d 1a 31 8f bc 95 e9 27 3d 75 10 64 3d
       0.04215398 -0.017479468 0.040994246 0.055679757
0000a0 84 47 54 3c 19 61 f5 3c 3e 82 2c 3d 39 f5 a3 3c
       0.012956504 0.029953526 0.042116396 0.020014392
0000b0 c1 c1 18 3d 0d 90 07 bd 09 80 ce 3b 7a 11 28 3d
       0.037294153 -0.033096362 0.006301884 0.041032292
0000c0 3e b8 c5 3c 29 fe 51 bd 18 6b 9a 3c 4a d7 be bc
       0.024135705 -0.051267777 0.018849894 -0.023296017
0000d0 e1 3e 53 bd 4c 36 01 bd 5a c7 1e 3d 56 54 0a 3d
       -0.051573638 -0.031545922 0.038764335 0.033771835
0000e0 72 63 84 3c a2 60 91 3c 46 aa ea bc 88 db 2c bd
       0.0161607 0.017746273 -0.028645646 -0.04220155
0000f0 a6 51 f0 bc f2 cc 0e bd 7a d9 01 bd ce 47 ca 3b
       -0.029335808 -0.03486342 -0.031701542 0.0061731106

weight f4 [10, 64]
000000 d0 95 a0 bd 6e 0b 5e be 98 b8 c7 3d 3f b7 3a bd
       -0.078410745 -0.21684048 0.09752005 -0.045584913
000010 9b 97 fc 3d 84 1f b5 3d 29 f5 18 be 77 a4 cb 3c
       0.12333604 0.08843902 -0.14937271 0.024858696
000020 80 d8 61 be 9f 30 2a be a8 8a 52 be e1 9d f4 bc
       -0.22055244 -0.1662011 -0.20560706 -0.029860439
000030 81 3b 27 be 8b 78 46 bd 62 30 9d 3d 44 31 9d bb
       -0.16331293 -0.048454802 0.07675244 -0.0047971327
000040 9f 61 34 3e b9 cd 85 bd ca a1 68 3e c7 bf 80 bd
       0.17615364 -0.06533379 0.22717968 -0.062865786
000050 4c 2b 37 3e 0b 12 24 bb 9b 77 10 3e 8c 57 39 be
       0.1788761 -0.0025035169 0.14108126 -0.18099803
000060 68 b6 81 bd 9b 09 26 3e 9e ce ff 3d 45 2b 48 be
       -0.06333619 0.16214602 0.12490581 -0.19547756
000070 fc 26 87 3e c4 2d 37 be c0 d1 75 be 7d 5b 50 3c
       0.2639693 -0.17888552 -0.24005795 0.012717125
000080 d2 19 80 3e 0a 96 6b be 9e 6b 13 bd 29 77 11 be
       0.250197 -0.23006454 -0.035991304 -0.14205612
000090 a2 7d 50 3c 38 74 41 be d0 ce be bd 3e 7f 6d 3d
       0.012725266 -0.1889199 -0.0931679 0.057982676
0000a0 1b c0 a5 bd e5 b0 24 be e5 2c 9b be 41 e1 f9 bd
       -0.08093282 -0.16083105 -0.3030769 -0.12201167
0000b0 46 3e dd 3d f8 50 c1 3d 55 a1 1a 3c f6 95 29 be
       0.10802893 0.09439272 0.009437879 -0.16561112
0000c0 37 c8 8a 3d fd d3 37 3e 40 81 0a 3e d5 ce 96 3e
       0.06776469 0.17951961 0.13525867 0.29454675
0000d0 60 be 5c 3d 6d cb 92 3e 21 82 25 3d 37 0c c0 bd
       0.053892493 0.28670827 0.040407304 -0.0937733
0000e0 ef 60 5e 3d a7 d8 10 3e 92 15 fb bd f1 bb fc 3d
       0.05429166 0.14145146 -0.122599736 0.123405345
0000f0 3d 5e ed 3d ba a0 4d 3e d3 2b 65 3d 5d 6f 8b be
       0.1159024 0.20080844 0.055949997 -0.272334
000100 9f 7d 1c 3c c5 70 63 3e db 4b b8 be 29 13 f5 3a
       0.009551435 0.22210987 -0.35995373 0.0018697727
000110 c8 63 9e be 7a a7 4c be e8 b8 81 be 8a bc 1b be
       -0.30935502 -0.19985762 -0.25336385 -0.1520864
000120 b6 3d 44 be 94 e8 3d be 0f dc fa bd ea fd 05 3d
       -0.19164166 -0.18545753 -0.12249004 0.032712854
000130 22 52 4a 3e 07 9b ed bc 23 2a d7 3d ff 1f 70 be
       0.19757894 -0.029004587 0.10506084 -0.23449706
000140 fd ec 30 3e a5 78 3f 3c d0 58 39 be ef 16 99 3e
       0.17277904 0.011686479 -0.18100286 0.2990031
000150 71 c2 97 bd 1e d6 45 3e 7f 39 90 3e 0a f6 8c 3e
       -0.07410134 0.1931996 0.28168866 0.27531463
000160 d9 72 20 3e 37 fa 46 be 10 b2 3c 3e d2 62 1f be
       0.15668811 -0.19431387 0.184273 -0.1556504
000170 e9 46 43 be 93 66 84 be c7 ff 62 be db ef 61 3e
       -0.19070019 -0.25859508 -0.22167884 0.22064154
000180 3c 6a 4a be b3 28 6f be be f4 ba 3e 87 8c 9d bc
       -0.19767088 -0.2335537 0.36514848 -0.019232048
000190 5c fa 7b bd 2b cb b9 bd c0 26 e6 bc 3a 38 37 3e
       -0.06151806 -0.09071954 -0.02809465 0.17892542
0001a0 4d f1 0a 3d b8 f9 14 be 6c 72 aa bb 12 23 a8 3d
       0.03392153 -0.14548385 -0.0052016284 0.08209814
0001b0 2d 8f 35 bd d5 1d 2b be 7b d9 ae be 69 77 05 3e
       -0.044325996 -0.16710599 -0.341503 0.13033833
0001c0 9f e2 32 be d2 71 94 3d 01 a2 8c be e0 ee 8e bc
       -0.17469262 0.07248272 -0.2746735 -0.017447889
0001d0 17 42 71 be 7b 68 f0 bc 14 33 db 3c 34 70 7c 3d
       -0.23560368 -0.029346695 0.026757754 0.061630443
0001e0 39 58 1e be b4 f9 55 be 51 e9 71 3e 79 38 25 bd
       -0.15463342 -0.20896035 0.2362416 -0.04033706
0001f0 43 99 65 be fc 5f 4a 3d e2 26 72 3d 2b 70 83 be
       -0.22421746 0.049407944 0.059119113 -0.25671515
000200 66 f9 eb bd 2b 50 a5 bd bc 5b a1 3e 49 19 f9 bc
       -0.11522178 -0.080719315 0.315153 -0.030407565
000210 9c cf 67 3e 13 fe 87 3e 2c 23 ec 3d b4 ad c1 3d
       0.2263779 0.2656103 0.11530146 0.09456959
000220 6a db 80 3e f1 f1 54 3e 02 32 e0 bd 0d 25 6b be
       0.251674 0.20795418 -0.10947038 -0.22963353
000230 ed 6c 47 bc 00 83 07 3d 24 b8 4f 3e ff 00 12 bd
       -0.012171966 0.033083916 0.20285088 -0.03564548
000240 df 20 3c be 22 86 18 3e 22 59 00 3e 5c f1 25 be
       -0.18371914 0.14894918 0.12534001 -0.16205353
000250 77 3e 71 3e 1a 81 19 be 11 dc 7d 3c da 3d a6 3d
       0.23558985 -0.14990655 0.015494362 0.08117266
000260 24 0a 45 be c7 6e 66 3e 42 40 89 be f6 9e a9 3d
       -0.1924215 0.22503196 -0.26806837 0.082822725
000270 75 15 1a 3e 34 eb 34 be a4 66 82 3c 26 a3 30 be
       0.15047248 -0.17667848 0.015918083 -0.17249736
000280 69 6a 82 be 2c cf 71 bd 5a ff e4 3b 69 7c 27 be
       -0.2547181 -0.059035465 0.006988448 -0.16356052
000290 26 6b 39 3e f3 bc 65 3e 16 2b 09 be 91 94 8b 3d
       0.1810728 0.2243536 -0.13395342 0.06815446
0002a0 db 25 4f 3e ba ef 5b 3e 69 44 ee 3c ae 05 80 bd
       0.20229284 0.21478167 0.029085355 -0.06251083
0002b0 99 0d ab 3c b8 0f 9e bd 5a 9d 30 3e 77 7e 2a 3e
       0.020880507 -0.07717842 0.17247525 0.16649805
0002c0 a7 06 77 3c b3 16 70 bd 0f bc 35 bd cf f9 a9 3d
       0.01507727 -0.058615398 -0.0443688 0.082996
0002d0 11 e0 29 3e 50 76 56 3e ce 3a 33 be 51 cd f7 bd
       0.16589381 0.2094357 -0.17502901 -0.12099708
0002e0 92 3e fd bb 56 f8 00 be 93 6b 48 bd d7 e1 24 be
       -0.007728406 -0.12594733 -0.048930716 -0.16101776
0002f0 3b 16 54 3d 47 c0 73 3e 02 7c 32 3e 8b 06 93 3c
       0.051779013 0.23803817 0.17430118 0.017947456
000300 36 c4 d7 3c 82 af 9f bc 52 e9 3e 3e 5e 09 90 bd
       0.026338678 -0.019492868 0.18643692 -0.07033037
000310 65 75 99 bd c1 03 21 bd ab 7c 54 3e cf 23 a9 bd
       -0.07493094 -0.03931022 0.20750682 -0.08258783
000320 0e 74 e9 3d bc 26 8d 3d 96 87 03 be 87 89 99 bd
       0.11399089 0.068921536 -0.1284469 -0.074969344
000330 7d c9 ea bd 54 d2 39 3e 80 67 81 be 40 a9 a6 3d
       -0.11464212 0.1814664 -0.25274277 0.081377506
000340 c2 4e 41 3d 43 99 10 3d e8 e7 db bd 05 fb 34 bd
       0.04719425 0.03530241 -0.10737592 -0.044184703
000350 91 d2 b6 bb 67 1e 6f bd 6f 2a 39 be 9b 6e 9e bd
       -0.0055793007 -0.058378603 -0.18082593 -0.0773594
000360 ef 18 10 bc a4 72 a0 bc c9 e5 57 3e 66 f9 ff bd
       -0.008795007 -0.019585915 0.2108375 -0.12498741
000370 90 6e f5 3d 69 53 56 3e d7 73 e5 3d fb 27 f9 bd
       0.11983979 0.20930256 0.11203735 -0.12165829
000380 40 76 19 be fd 13 03 bc ce 67 97 3c 68 b5 b5 bd
       -0.14986515 -0.008000371 0.018482115 -0.08872491
000390 68 27 94 3b f6 90 7d bd 15 a2 40 be b0 e5 8e be
       0.004521299 -0.061905824 -0.1881183 -0.27909613
0003a0 0f c6 20 be 6d 94 ed bb 8a 38 79 3e d0 bf 6f 3e
       -0.15700553 -0.0072503597 0.24337974 0.23413014
0003b0 a0 43 01 be 82 d5 9c 3d d3 d9 1d bd 14 79 09 3e
       -0.12623453 0.07657911 -0.03853781 0.13425094
0003c0 a8 93 3f 3d 78 3b 80 bd 1b 1c 0a 3d a3 57 35 be
       0.046771675 -0.06261343 0.03371821 -0.17709212
0003d0 28 bb b9 bd 81 af db 3d f5 2d 8f 3d 05 9b 36 3e
       -0.090689 0.10726834 0.069911875 0.17832573
0003e0 b2 02 4e be 1d e6 37 3e 82 10 57 3d c9 4f 24 3e
       -0.20118216 0.17958875 0.052505977 0.1604606
0003f0 49 15 a6 3d 61 75 97 bc cf 8a 51 3d 1f 7b 38 3e
       0.081095286 -0.018488588 0.05115777 0.18015717

bias f4 [10]
000000 14 01 e6 bd 54 5a 2d bd d2 0c d5 bd 58 d5 8f 3d
       -0.112306744 -0.04232247 -0.10402836 0.07023114
000010 f0 24 4a 3d 26 50 a8 bd f0 23 30 3e 3c 70 b4 bd
       0.049351633 -0.08218412 0.17201209 -0.088104695
000020 ab bd f4 bc 83 dc 9e bd
       -0.029875597 -0.07756903
