models/xue_epoch_1.pth (torch, 592503 bytes, 22 tensors)

module.0.weight f4 [32, 3, 5, 5]
0	0x3ce60751	0.02807966
1	0xbd1ca114	-0.038239554
2	0x3d637c82	0.05553866
3	0x3d44bb2a	0.048030056
4	0x3c5dd646	0.013539856
5	0xbe1182aa	-0.1421
6	0xbdba2ccc	-0.090905756
7	0xbdb54563	-0.08851125
8	0xbe238429	-0.15968384
9	0xbdc3bee6	-0.09557895
10	0xbe302eb4	-0.17205316
11	0xbdbfb3e9	-0.09360487
12	0xbd202efa	-0.0391073
13	0xbd9b126e	-0.075718746
14	0xbe2a30ce	-0.1662018
15	0x3c7a298f	0.015268697
16	0xbddc295e	-0.10750078
17	0xbd2f1a70	-0.042749822
18	0xbc6b1274	-0.014347661
19	0x3ca4b265	0.020104596
20	0xbe1930c3	-0.14960007
21	0xbd6d8e16	-0.05799683
22	0xbdd58e9f	-0.104275934
23	0xbe07cbd5	-0.1326135
24	0xbd20ed57	-0.039288845
25	0x3d8e0960	0.06935382
26	0x3cca0341	0.024659755
27	0xbb8e777a	-0.004347739
28	0xbdd32448	-0.103096545
29	0xbde7248d	-0.112862684
30	0xbc653eab	-0.013991992
31	0xbd17f5e3	-0.03709973
32	0xbbb4e513	-0.005520472
33	0xbd25e0bd	-0.04049753
34	0x3d6eae32	0.058271594
35	0xbcdbcf63	-0.026832288
36	0xbd7961d0	-0.060884297
37	0xbd720a9f	-0.05909216
38	0x3d8af8ea	0.06785758
39	0xbcb91be0	-0.0225963
40	0xbdb858f9	-0.09001345
41	0x3e0b3fc6	0.13598546
42	0x3dd913a8	0.10599452
43	0x3bb9400d	0.0056533874
44	0xba863552	-0.0010239279
45	0x3d9444cb	0.07239684
46	0x3d8b1001	0.06790162
47	0xbdc8e9ff	-0.09810256
48	0x3d84d6e8	0.064863026
49	0x3cf209ef	0.029545752
50	0x3d8a1aa9	0.06743366
51	0x3d0bd77c	0.03414105
52	0x3dd280b0	0.102784514
53	0x3e036a95	0.12833627
54	0x3d13ae7e	0.03605508
55	0x3da00a1d	0.07814429
56	0x3d554479	0.052067254
57	0x3df167f6	0.11787407
58	0x3ce5877e	0.02801871
59	0x3dffb146	0.12484984
60	0x3e295ffb	0.1654052
61	0x3d82104a	0.06350763
62	0xbbb4ad74	-0.0055138413
63	0x3cbae694	0.022815026
64	0x3db402d0	0.08789599
65	0x3e10a007	0.14123546
66	0x3e040d13	0.12895612
67	0x3c907559	0.01763408
68	0x3de5fc45	0.11229757
69	0xbc50db8b	-0.012747656
70	0x3de3c95c	0.11122391
71	0x3db78b1e	0.089620814
72	0x3cf9e810	0.030506164
73	0x3d9e10f1	0.07718075
74	0x3c85885f	0.016300378
75	0x3d3f81f8	0.046754807
76	0xbc63d4fa	-0.013905758
77	0x3e11a46d	0.1422288
78	0x3d00cf22	0.031447537
79	0x3d0640e0	0.032776713
80	0x3d12f8a1	0.035881642
81	0x3d989565	0.0745037
82	0x3e16bba9	0.14720024
83	0x3de373db	0.11106082
84	0x3d92dd79	0.07171149
85	0xbb3b3060	-0.002856277
86	0x3d6fc4f0	0.058537424
87	0x3c7f8ed8	0.015598021
88	0x3c862132	0.01637325
89	0xbdc6de57	-0.09710377
90	0xbc06ec4b	-0.008235048
91	0x3d09cbf3	0.033641767
92	0x3d964c5e	0.07338785
93	0x3ccc4db8	0.024939403
94	0x3dd8250a	0.1055394
95	0x3d33f6a2	0.04393638
96	0x3d85248c	0.065011114
97	0xbc734a24	-0.0148492195
98	0x3d826b8d	0.0636817
99	0x3bdfff58	0.0068358593
100	0x3df7c0fd	0.120973565
101	0x3b865cfd	0.0041004405
102	0x3ccf8526	0.025332045
103	0xbd94be20	-0.07262826
104	0x3d4eaf55	0.05046018
105	0xbcac1bdf	-0.021009384
106	0x3d447c95	0.047970373
107	0xbdbe06a9	-0.09278614
108	0x3dbdc81f	0.09266686
109	0x3d56a371	0.052401964
110	0xbd2a4fdd	-0.04158007
111	0xbd962335	-0.07330934
112	0xbd611858	-0.054954857
113	0xbdab734e	-0.08371602
114	0x3d5d9777	0.054099526
115	0xbd57bc99	-0.052670095
116	0x3c84630e	0.016160514
117	0x3d43b50c	0.04778008
118	0xbd998922	-0.07496859
119	0xbd240d98	-0.040052027
120	0x3d44774c	0.047965333
121	0xbd2a2790	-0.041541636
122	0x3d25de82	0.040495403
123	0x3d9b77d0	0.07591212
124	0xbd760c9a	-0.06007061
125	0xbcaab0f8	-0.020836338
126	0x3dcffb31	0.10155333
127	0xbd41745a	-0.047230102
128	0x3de37651	0.111065514
129	0x3dcd6cbd	0.10030506
130	0x3c1ffc30	0.009764716
131	0x3d0bf9b6	0.03417369
132	0xbd4dbda7	-0.050229695
133	0x3cab0ef7	0.02088116
134	0x3d2b54b4	0.041828826
135	0xbc791717	-0.015203259
136	0xbd13796f	-0.03600448
137	0x3d559005	0.0521393
138	0xbd9dcd90	-0.077052236
139	0xbd825eee	-0.06365763
140	0xbce9fd32	-0.028563116
141	0x3bfe7887	0.007765833
142	0xbdcea1fc	-0.1008949
143	0xbd142af0	-0.03617376
144	0xbb6212da	-0.00344961
145	0xbdb37264	-0.08762053
146	0xbcefb5a5	-0.02926142
147	0xbdb9bb36	-0.09068911
148	0x3d1de96b	0.038552683
149	0xbbbb970f	-0.0057247947
150	0x3cfeb45e	0.031091865
151	0xbc41f27a	-0.011837596
152	0x3aece5a0	0.0018073805
153	0x3d4bdba3	0.04977001
154	0x3d878937	0.066179685
155	0xbdc7dc6b	-0.09758838
156	0xbce0ee07	-0.02745725
157	0xbcf940a9	-0.03042634
158	0x3dfb8b27	0.122824006
159	0x3d8c9bf9	0.06865687
160	0xbdd5f341	-0.104467876
161	0xbd6886ca	-0.05676917
162	0x3da5cb62	0.08095433
163	0x3e0a80c2	0.1352568
164	0x3dec7430	0.115455985
165	0x3c262af0	0.010142073
166	0xbd91fd0a	-0.071283415
167	0x3dab54cd	0.08365784
168	0xbdb6b8f5	-0.089219965
169	0x3d9a80df	0.075441115
170	0xbde3720b	-0.11105736
171	0x3ce451e3	0.027871078
172	0x3d883268	0.06650239
173	0x3d7fb1ad	0.062425304
174	0xbd979c13	-0.07402816
175	0x3c6f74b2	0.014615225
176	0x3d0775a2	0.033071168
177	0xbddff0b9	-0.10934586
178	0x3d13e801	0.036109928
179	0x3c5a49a6	0.013323223
180	0x3c67278f	0.014108553
181	0xbd1eee77	-0.038801637
182	0x3ca8bf0a	0.020598907
183	0xbc142161	-0.009041161
184	0x3d0919b4	0.033471778
185	0x3d48a9ed	0.04899018
186	0xbb939b81	-0.0045046215
187	0x3d2b4551	0.041814152
188	0x3dadf50b	0.08494004
189	0x3d7c7e74	0.061644033
190	0x3d20ce4f	0.03925925
191	0xbdcf5e7f	-0.101254456
192	0xbcfa605f	-0.030563531
193	0x3ded0546	0.115732715
194	0xbafbf66d	-0.0019223221
195	0x3d0202b3	0.031740855
196	0x3da1c3bc	0.078986615
197	0xbceb6396	-0.02873401
198	0x3d3f95a7	0.04677358
199	0xbda87735	-0.08225862
200	0xbe04158c	-0.12898844
201	0x3dc284f7	0.09498017
202	0x3d3ec40b	0.04657368
203	0xbcd7e214	-0.02635292
204	0xbd024a16	-0.031808935
205	0xbcbcd7a1	-0.023052039
206	0x3d9c5443	0.07633259
207	0x3da4c136	0.080446646
208	0x3d812767	0.063063435
209	0x3dfc02c2	0.123052135
210	0xbd9bf58a	-0.07615192
211	0x3deecfbf	0.11660718
212	0xbd91a19d	-0.071109034
213	0x3dc50344	0.096197635
214	0xbbe21727	-0.0068997326
215	0xbd4a84e4	-0.04944314
216	0xbda5cc66	-0.080956265
217	0x3d5e3414	0.054248884
218	0xbd3c2154	-0.04593022
219	0x3c9b362b	0.018946728
220	0x3d733560	0.059377074
221	0xbdbb9e85	-0.091610946
222	0x3dc3d4ae	0.0956205
223	0x3d2eb4b0	0.042652786
224	0xbbdd81f5	-0.006759877
225	0x3b89ef82	0.0042094598
226	0xbd028832	-0.031868167
227	0xbd3ed986	-0.046594165
228	0x3da5c051	0.08093322
229	0xbcd0bf04	-0.025481708
230	0x3d875897	0.06608694
231	0xbe1f209e	-0.15539786
232	0xbd332a7c	-0.043741688
233	0x3dd9d213	0.106357716
234	0x3e26c969	0.1628777
235	0xbdd24120	-0.10266328
236	0xbdb817ce	-0.089889154
237	0x3c99e37a	0.018785227
238	0xbbf7847a	-0.0075536342
239	0x3d0e46a7	0.034735348
240	0xbd03051a	-0.031987287
241	0xbd4d57c2	-0.05013252
242	0xbcc62932	-0.024189565
243	0x3dafa862	0.08577038
244	0x3e0cec9e	0.13762137
245	0xbd91823d	-0.07104919
246	0x3db3ccc4	0.0877929
247	0xbceb5ccd	-0.028730774
248	0xbdbcea06	-0.09224324
249	0x3dcf784a	0.10130365
250	0xbdf77d1f	-0.12084412
251	0xbd0c1486	-0.03419926
252	0x3c0b9e3d	0.008521614
253	0x3da9fd97	0.083003215
254	0x3e01b2fa	0.1266593
255	0xbdb548aa	-0.0885175

module.0.bias f4 [32]
0	0x3d918412	0.071052685
1	0xbdbc56b8	-0.09196228
2	0x3d6b78ad	0.057488132
3	0x3ddb9ff5	0.10723869
4	0x3d81098f	0.06300651
5	0x3d0e5f88	0.034759074
6	0xbd84e226	-0.06488447
7	0x3cda21a3	0.026627367
8	0x3da4cd80	0.080470085
9	0x3d8160ee	0.06317316
10	0x3d81d428	0.06339294
11	0xbd9dbb95	-0.07701794
12	0x3cbd8e70	0.023139209
13	0x3dcd0f8e	0.100127324
14	0x3d43dd84	0.047818676
15	0xbd938776	-0.072035715
16	0xbdd3692f	-0.103227966
17	0xbd8125f3	-0.06306066
18	0xbcf05228	-0.02933605
19	0x3d9a8642	0.07545139
20	0x3ce21341	0.027597072
21	0xbd2e6cb5	-0.04258414
22	0x3ddae273	0.10687723
23	0xbd91c958	-0.071184814
24	0xbdbdce12	-0.092678204
25	0x3d4f4125	0.050599236
26	0x3d9bc492	0.07605852
27	0x3d1ad484	0.037800327
28	0x39b6cf1d	0.00034868057
29	0xbd82f213	-0.06393828
30	0x3d5d3c61	0.05401266
31	0x3d65f846	0.056144975

module.1.weight f4 [32]
0	0x3f7dd9fc	0.9916074
1	0x3f750e68	0.9572511
2	0x3f74adbc	0.955776
3	0x3f8a1909	1.078889
4	0x3f6c7f6a	0.9238192
5	0x3f7d37f0	0.9891348
6	0x3f76db10	0.9642801
7	0x3f80957f	1.0045623
8	0x3f822dd6	1.0170238
9	0x3f7596a8	0.9593301
10	0x3f741c9c	0.95356154
11	0x3f7d8d5f	0.9904384
12	0x3f7d9465	0.9905456
13	0x3f81f172	1.0151808
14	0x3f8494e6	1.035794
15	0x3f7cc6e2	0.9874097
16	0x3f7300f1	0.9492331
17	0x3f7e993e	0.9945258
18	0x3f7dc6aa	0.9913126
19	0x3f87c4f1	1.0606977
20	0x3f80fac3	1.0076526
21	0x3f8353c4	1.0259938
22	0x3f725296	0.94657266
23	0x3f80daa6	1.0066726
24	0x3f82e04e	1.0224702
25	0x3f80fb02	1.0076602
26	0x3f739f20	0.9516468
27	0x3f877e1e	1.0585363
28	0x3f82d12f	1.0220088
29	0x3f7f8a6c	0.9982059
30	0x3f84b22d	1.0366875
31	0x3f8ab3bf	1.0836104

module.1.bias f4 [32]
0	0xbd379d65	-0.044827837
1	0xbd70917a	-0.058732487
2	0xbcf8fe6c	-0.030394755
3	0xbcd96193	-0.026535785
4	0xbd2aac5e	-0.04166829
5	0xbce7c322	-0.028291289
6	0x3b3f77ee	0.002921577
7	0xbc62bbf8	-0.013838761
8	0xbc978c3a	-0.018499482
9	0xbd4de62d	-0.05026834
10	0xbd1c4ebb	-0.03816102
11	0xbc086c15	-0.00832655
12	0xbc5f487a	-0.01362812
13	0x3c7d2a52	0.0154519845
14	0xbd09afac	-0.0336148
15	0xbd55cfcc	-0.052200124
16	0xbd116152	-0.035493203
17	0x3c724bb4	0.014788557
18	0x3a368fa5	0.0006964154
19	0xbc498080	-0.012298703
20	0x3c87c941	0.016575458
21	0x3c98b8af	0.018642752
22	0xbd687263	-0.056749713
23	0xbc53681a	-0.012903238
24	0x3c2ce809	0.010553368
25	0xbcbf35b0	-0.02334103
26	0xbd092378	-0.03348109
27	0xbd6d0435	-0.05786534
28	0x3bf6a7dd	0.007527335
29	0xbcfff06e	-0.031242575
30	0x3c037c39	0.008025222
31	0x3c572afd	0.013132808

module.1.running_mean f4 [32]
0	0x3d49da68	0.049280554
1	0x3e6e07da	0.23245183
2	0x3ee5a0ea	0.4484933
3	0x3ca9bb37	0.020719154
4	0x3ecafb7b	0.3964499
5	0xbe47bf5c	-0.19506592
6	0xbdbff54c	-0.093729585
7	0xbd8096f0	-0.06278789
8	0xbea50fd5	-0.3223864
9	0x3e9f4155	0.31104532
10	0x3ea01fd7	0.31274292
11	0xbe90faea	-0.28316432
12	0xbe218791	-0.1577437
13	0x3dbf9f4a	0.09356554
14	0x3e1da64b	0.15395467
15	0x3e224db5	0.15849955
16	0x3ed62e20	0.41832066
17	0xbd900f99	-0.07034225
18	0xbe9bd2e2	-0.30434328
19	0x3e08accb	0.13347165
20	0x3da41897	0.08012503
21	0xbe1545cf	-0.14577411
22	0x3ec2c33b	0.38039574
23	0xbdd16bb1	-0.10225619
24	0xbcd83220	-0.026391089
25	0xbe596c89	-0.21232809
26	0x3e99ca57	0.30037186
27	0x3e244a2a	0.16043916
28	0xbd0e6dd1	-0.034772698
29	0xbd545ef8	-0.05184838
30	0x3bc2ebc3	0.005948515
31	0x3d211a8a	0.03933195

module.1.running_var f4 [32]
0	0x3d7b49f9	0.061349843
1	0x3d6b092e	0.0573818
2	0x3da15f7c	0.0787954
3	0x3e0332a3	0.12812285
4	0x3d2a21a0	0.041535974
5	0x3d04a88b	0.032387298
6	0x3d0a49e3	0.03376187
7	0x3cf6ba8f	0.030118255
8	0x3d83c654	0.064343125
9	0x3d2c5536	0.04207345
10	0x3d68b4f1	0.056813184
11	0x3d1d9f73	0.03848214
12	0x3ce290e5	0.027656982
13	0x3d5b9c8d	0.053616095
14	0x3da5a7b2	0.08088626
15	0x3d8a111d	0.06741545
16	0x3df1bc6d	0.118035175
17	0x3d314efc	0.043288216
18	0x3d38154a	0.044942178
19	0x3d44b1d8	0.048021168
20	0x3cc971f5	0.024590472
21	0x3cb5cef3	0.022193408
22	0x3d4c5766	0.049888037
23	0x3d8c7287	0.06857782
24	0x3cd15296	0.025552075
25	0x3d536cef	0.05161756
26	0x3cd65d67	0.026167585
27	0x3d89b22b	0.06723436
28	0x3d2ea152	0.042634316
29	0x3d71ec22	0.059063084
30	0x3d468053	0.048462223
31	0x3ddb4cd7	0.107080154

module.4.weight f4 [32, 32, 5, 5]
0	0xbd06b86c	-0.032890722
1	0xbd49ea37	-0.04929563
2	0xbd3aa4d8	-0.045567364
3	0x3c79f8ae	0.015257044
4	0xbc652eeb	-0.013988237
5	0x3cd1b35f	0.025598226
6	0x3d103b42	0.035212763
7	0x3ce4f34c	0.027948044
8	0x3cc06744	0.02348674
9	0x3cbbbe51	0.022917898
10	0x3d08c3ff	0.03339004
11	0xbd151951	-0.036401097
12	0x3cde8aa2	0.027165715
13	0xbb8dff87	-0.0043334397
14	0x3cc24388	0.023713842
15	0x3c9558fa	0.018230904
16	0xbc8fbfde	-0.017547544
17	0x3c240be3	0.0100126
18	0xbcfdfc94	-0.031004228
19	0xbc59184f	-0.0132504245
20	0xbaf2804a	-0.0018501368
21	0x3cdd6273	0.027024483
22	0x3cad29a8	0.021138027
23	0x3d28be53	0.041197132
24	0xbba2db8a	-0.0049700188
25	0xbcffbc28	-0.03121765
26	0xbc0de85a	-0.008661354
27	0xbd25da07	-0.04049113
28	0x3c13af92	0.009014027
29	0xbcb7fb01	-0.022458555
30	0x3c6af51c	0.014340665
31	0xbbbbc3f8	-0.0057301484
32	0xbcb56d72	-0.022146914
33	0xbcc3a767	-0.023883535
34	0x3cc29de0	0.023756921
35	0x3d348305	0.044070262
36	0x3d44c99b	0.04804383
37	0x3d09eb83	0.033671867
38	0x3d153ad8	0.03643307
39	0xbbad6f08	-0.005292777
40	0xbcc8bfd0	-0.024505526
41	0x3c8f15c3	0.017466431
42	0x3af008bf	0.0018313153
43	0xba82e369	-0.0009985986
44	0xba280eab	-0.0006410877
45	0x3c8b1a31	0.016980262
46	0xbb0cc540	-0.0021479875
47	0xbc16fd8a	-0.009215722
48	0x3d6d2bb3	0.057903003
49	0x3d50d6b7	0.050986018
50	0x3c132f0c	0.008983385
51	0xba9d1197	-0.0011983392
52	0x3ce9557b	0.028483143
53	0x3c5aa45f	0.013344853
54	0x3c6937c8	0.014234491
55	0xb9b225a9	-0.00033978865
56	0x3c4252a4	0.011860523
57	0x3c291392	0.010319607
58	0x3b468b40	0.0030295402
59	0xbcb248b4	-0.021763183
60	0xbc1e418e	-0.009659184
61	0x3c6d3485	0.014477854
62	0xbbedebd9	-0.0072607812
63	0xbd49b0df	-0.049240943
64	0xbc726996	-0.014795681
65	0xbd02f21d	-0.03196918
66	0xbcec87b1	-0.028873296
67	0xba9ee9fe	-0.0012124178
68	0x3c02ffd1	0.007995562
69	0xba282801	-0.00064146525
70	0xbcd2d9d2	-0.02573863
71	0x3abfda5f	0.0014637223
72	0x3b8dc724	0.004326718
73	0xbb397173	-0.002829638
74	0x3c8cfd15	0.017210523
75	0xbd4d90cc	-0.050186917
76	0xbd083563	-0.03325404
77	0xbbd7ff9e	-0.0065917512
78	0xbc5c66bf	-0.013452231
79	0xbd013aec	-0.031550333
80	0xba2fb6a8	-0.0006702938
81	0x3c21c3dd	0.009873358
82	0xbc05c975	-0.008165707
83	0xbd5ca2b9	-0.053866122
84	0xbc46c7bc	-0.012132581
85	0xbd34f518	-0.044179052
86	0xbd124455	-0.035709698
87	0x3cb99354	0.02265326
88	0xbd0eb2dc	-0.034838542
89	0xbd43a543	-0.047765028
90	0xbc8f9549	-0.01752724
91	0xbd0c8afb	-0.03431223
92	0xbcf4d727	-0.029887749
93	0xbd1069e0	-0.03525722
94	0xbcd0eb5e	-0.025502857
95	0xbd5699cd	-0.05239277
96	0xbd1aff02	-0.03784085
97	0x3c085e52	0.008323269
98	0xbc943fca	-0.018096823
99	0x3b1048b1	0.0022015984
100	0xbcc81414	-0.024423636
101	0xbcb11fd5	-0.021621624
102	0x3ac261ac	0.0014830134
103	0x3b6154bb	0.0034382779
104	0xbd499d10	-0.049222052
105	0xbc0b18c8	-0.008489795
106	0xbb30daef	-0.0026985963
107	0xba8b5718	-0.0010630814
108	0xbd22bac7	-0.039728906
109	0x3c5958d6	0.013265809
110	0x3b995ad2	0.004680016
111	0xbcd69b0c	-0.026196979
112	0xbcd0f0d6	-0.025505465
113	0xbc18044c	-0.009278368
114	0x3c6abb90	0.014326945
115	0xbc51ebf3	-0.012812602
116	0x3cbe2be9	0.023214297
117	0x3c8b74ee	0.01702353
118	0xbcdfd7ba	-0.027324546
119	0xbcb68b17	-0.02228312
120	0x3ba11eb2	0.0049169892
121	0x3cb9f686	0.02270056
122	0x3bc33851	0.005957641
123	0x3cee6dbf	0.029105065
124	0x3c6404d5	0.013917168
125	0x3c3e0f7d	0.011600372
126	0xbd237274	-0.039904073
127	0x3c1a9f9d	0.009437469
128	0xbd2a1a10	-0.04152876
129	0xbbcf9297	-0.0063346135
130	0xbc6a5df2	-0.014304625
131	0x3bb3988f	0.005480833
132	0x3c3a213c	0.011360463
133	0x3c2a4b79	0.010393971
134	0xbc9d8f3e	-0.019233342
135	0x3bb1e418	0.005428802
136	0x3c6c3266	0.014416313
137	0x3d1dfe1d	0.03857242
138	0xbc8e61a2	-0.01738054
139	0x3cc3e56f	0.023913113
140	0x3d5380a5	0.051636357
141	0x3dbc1321	0.09183336
142	0x3d186596	0.037206255
143	0x3d50a4df	0.050938483
144	0x3d313009	0.0432587
145	0xbcd1f864	-0.025631137
146	0xbc9bfaaf	-0.019040434
147	0xbcdc5b4e	-0.026899006
148	0xbd24eb6b	-0.040263575
149	0x3a73d25a	0.0009301059
150	0xbbb93fc4	-0.0056533534
151	0x3c3d79a1	0.011564643
152	0x3bb929e0	0.005650744
153	0xbd0a52c6	-0.033770345
154	0xbc74acd4	-0.014933784
155	0x3bdb4056	0.006691019
156	0x3cf47e5d	0.029845411
157	0x3c2287cd	0.009920073
158	0x3bf3ea99	0.0074437377
159	0xbc3cff0d	-0.011535418
160	0xbcd69402	-0.026193622
161	0xbd3ae25c	-0.04562603
162	0x3cdbf817	0.026851697
163	0xbcb003d8	-0.021486208
164	0xbca9b370	-0.020715445
165	0xbcf89a87	-0.030347122
166	0x3ccab0c7	0.024742497
167	0xbd399265	-0.04530563
168	0xbcdae128	-0.026718691
169	0xbd2e914c	-0.042619035
170	0x3b179093	0.0023126944
171	0xbd0e41ff	-0.034730908
172	0x3cc84065	0.024444768
173	0xbcaf1495	-0.021372119
174	0x3bc807ff	0.006104469
175	0x3b9d2680	0.0047958493
176	0x3d356ef3	0.044295263
177	0x3d551003	0.052017223
178	0xbad9f2d4	-0.0016628155
179	0xbb61d641	-0.003445998
180	0x3d2b07f1	0.04175562
181	0x3bd2dbea	0.006434907
182	0xbc17256c	-0.009225231
183	0x3d103928	0.03521076
184	0x3b8ff0e3	0.0043927296
185	0xbcbe46f3	-0.02322719
186	0xbb3284ff	-0.0027239916
187	0x3d8328a5	0.06404237
188	0x3afe358a	0.0019394618
189	0x3d3b9c58	0.045803398
190	0x3d90339b	0.07041093
191	0x3c8c53a3	0.017129725
192	0x3c386399	0.011254215
193	0x3d75542c	0.059894726
194	0x3d5f5b4b	0.054530423
195	0xbd0406f0	-0.03223318
196	0x3bb7620e	0.005596406
197	0xbd47fb3f	-0.04882359
198	0xba0a9315	-0.0005286199
199	0xbd236832	-0.03989429
200	0xbd6854bf	-0.056721445
201	0xbcafc04a	-0.021453995
202	0xbd6c372c	-0.057669804
203	0xbc6a93a4	-0.014317427
204	0xbd83faf6	-0.064443514
205	0xbba9795f	-0.0051719393
206	0x3c90af2a	0.01766165
207	0xbd2586c6	-0.040411733
208	0xbcde0b03	-0.02710486
209	0xbd61a866	-0.055092238
210	0x3cb35d22	0.021894995
211	0x3ab22663	0.0013591762
212	0x3bee296e	0.0072681224
213	0xbd09eb2c	-0.033671543
214	0xbc1fbd17	-0.009749672
215	0x3c85a6c9	0.01631488
216	0x3c5aaa58	0.013346277
217	0x3c740195	0.014892955
218	0xbc0c3805	-0.008558278
219	0xbd1cb737	-0.038260665
220	0x3d2d3025	0.042282242
221	0x3d728ea0	0.05921805
222	0x3bf3f8ce	0.0074454313
223	0x3cfe219f	0.031021891
224	0xbb312608	-0.0027030725
225	0x3c8295bf	0.015940545
226	0x3ac9d157	0.0015397471
227	0x3c6ec346	0.014572924
228	0x3cf1389d	0.02944594
229	0x3b30c30b	0.0026971723
230	0x3c42b6fc	0.011884447
231	0xbb85df74	-0.0040854756
232	0x3c5e308b	0.013561378
233	0xbd10f1a5	-0.0353867
234	0x3c889bd8	0.016675875
235	0x3ca4a9e9	0.02010055
236	0x3bfec7cb	0.007775282
237	0x3c21838a	0.0098580215
238	0xbc9b8bb4	-0.018987514
239	0xbcd3e32c	-0.02586516
240	0x3d0ec935	0.034859855
241	0xbc077189	-0.008266815
242	0xbbd73c45	-0.006568464
243	0xbb704532	-0.0036662337
244	0xbc0bd9f4	-0.008535851
245	0xbd0aaefe	-0.03385829
246	0xbc834fd3	-0.016029274
247	0xbd30cc0e	-0.04316335
248	0x3c563774	0.0130747445
249	0xbc3b9bc9	-0.011450716
250	0x3cbeb968	0.023281768
251	0xbcb7727b	-0.022393456
252	0xbcc7d066	-0.024391364
253	0xbcb1e0c2	-0.021713618
254	0x3cc0bc24	0.023527212
255	0xbb9cdd1b	-0.0047871

module.4.bias f4 [32]
0	0xbd07f600	-0.03319359
1	0xbb166a58	-0.002295157
2	0x3c846ae6	0.016164254
3	0xbbe87e57	-0.007095139
4	0xbcb3950a	-0.021921653
5	0x3cdcfd28	0.026976183
6	0x3cb674db	0.022272518
7	0xbcb6f128	-0.02233179
8	0x3ca58529	0.020205097
9	0x3d108c42	0.03529001
10	0xbcfe8857	-0.031070871
11	0x3b29216c	0.0025807275
12	0xbc6af376	-0.014340272
13	0xbcaefbd6	-0.02136032
14	0xbd033486	-0.032032512
15	0x3c17617b	0.00923955
16	0x3ccb5eb1	0.024825426
17	0xbc9897ae	-0.018627014
18	0xbadce512	-0.0016852936
19	0xbcd723fb	-0.026262274
20	0x3cc5edfd	0.024161333
21	0xbcfa81ba	-0.030579437
22	0x3b908317	0.0044101584
23	0x3c325bee	0.010886176
24	0x39c5938e	0.00037684705
25	0x3cd92a42	0.026509408
26	0x3cd0fe2d	0.025511825
27	0xbcf7d989	-0.030255096
28	0x3b6e1045	0.0036325615
29	0xbcf840d3	-0.030304348
30	0x396f4800	0.00022819638
31	0x3b808764	0.00392239

module.5.weight f4 [32]
0	0x3f85ce0d	1.0453507
1	0x3f7eee71	0.9958258
2	0x3f7e0365	0.9922393
3	0x3f7a8ab6	0.97867906
4	0x3f84c984	1.0373998
5	0x3f815ce9	1.0106479
6	0x3f811532	1.0084593
7	0x3f801275	1.0005633
8	0x3f7ed557	0.9954428
9	0x3f7ff5a3	0.99984187
10	0x3f7e0b36	0.99235857
11	0x3f800485	1.0001379
12	0x3f7c0646	0.9844707
13	0x3f82256b	1.0167669
14	0x3f820ab3	1.0159515
15	0x3f816a65	1.0110594
16	0x3f8283a2	1.0196421
17	0x3f7d4a2b	0.98941296
18	0x3f7deeff	0.99192804
19	0x3f7c14f2	0.9846946
20	0x3f847bc8	1.0350275
21	0x3f7a9147	0.97877926
22	0x3f7b70fd	0.9821928
23	0x3f79fa38	0.9764743
24	0x3f7c44a3	0.9854223
25	0x3f7ea398	0.99468374
26	0x3f7b67f2	0.9820548
27	0x3f7f121b	0.99637
28	0x3f7e09b9	0.99233586
29	0x3f813434	1.0094056
30	0x3f825569	1.0182315
31	0x3f79e1a4	0.97609925

module.5.bias f4 [32]
0	0xbc8e3338	-0.017358407
1	0xbd2d1ed9	-0.042265747
2	0xbc82a776	-0.015948992
3	0xbd082b6b	-0.03324453
4	0xbb0f0953	-0.0021825626
5	0xbc853789	-0.016261833
6	0xbd159b71	-0.036525194
7	0xbbf59275	-0.0074942657
8	0xbcfa9d9b	-0.03059273
9	0xbcb08bfe	-0.021551128
10	0xbcb4abce	-0.02205458
11	0xbce13901	-0.027493002
12	0xbcd3b609	-0.025843637
13	0xbc827ec5	-0.015929589
14	0xbcdccc82	-0.026952986
15	0xbcc58e21	-0.024115624
16	0xbc83876d	-0.016055787
17	0xbc700387	-0.0146492785
18	0xbc42dc23	-0.011893305
19	0xbcf098f1	-0.029369803
20	0xbc7516df	-0.014959066
21	0xb87634e4	-5.870023e-05
22	0xbc994a3b	-0.018712154
23	0xbcea96c9	-0.028636353
24	0xbccf5b52	-0.0253121
25	0xbc85b4d3	-0.016321575
26	0xbd733cf5	-0.059384305
27	0xbca4c739	-0.020114528
28	0xbd1ce362	-0.038302787
29	0xbcafae70	-0.021445483
30	0xbb193746	-0.0023378893
31	0xbcc0e4d5	-0.023546616

module.5.running_mean f4 [32]
0	0x3ec5109c	0.38489234
1	0x3ec2b497	0.38028404
2	0x3e62ffa5	0.22167833
3	0x3f386483	0.7202837
4	0xbf48179b	-0.7816102
5	0xbcb2cf52	-0.021827374
6	0xbe20900e	-0.15679953
7	0xc0130146	-2.2969527
8	0x3e334843	0.17508034
9	0x3f39f3ab	0.7263743
10	0xbef80b76	-0.48446244
11	0xc0036a78	-2.0533733
12	0xbfa46028	-1.2841845
13	0xc01cc022	-2.4492269
14	0xbf03b01a	-0.51440585
15	0xbfc54704	-1.5412297
16	0xbfe1ee43	-1.7650837
17	0xbf092d3a	-0.53584635
18	0xbfefb836	-1.8728092
19	0x3f85932a	1.0435536
20	0x3e38b57f	0.18037985
21	0x3f6fa17c	0.9360578
22	0xc03afcbc	-2.9216757
23	0xbdf55042	-0.119781986
24	0xbe999960	-0.29999828
25	0xbf0f8097	-0.5605559
26	0x3d92742f	0.071510665
27	0xc0043203	-2.0655525
28	0xbfefffb7	-1.8749913
29	0xbf802de0	-1.0014
30	0x3db2af3d	0.0872483
31	0xbea4a8f0	-0.3216014

module.5.running_var f4 [32]
0	0x3fa24fbb	1.2680582
1	0x3fc80113	1.5625328
2	0x3f57a789	0.84240013
3	0x3f9a565f	1.2057608
4	0x3f183421	0.5945454
5	0x3f663642	0.8992654
6	0x3f8fa2a7	1.1221513
7	0x4003700e	2.0537143
8	0x3f5c3fe0	0.86034966
9	0x402cc37b	2.6994312
10	0x3f8a7939	1.0818244
11	0x3fadcf5f	1.357891
12	0x3fa530c5	1.2905508
13	0x3fc106c3	1.5080189
14	0x3f96c289	1.1778117
15	0x3f967379	1.175399
16	0x3fe79bc0	1.8094406
17	0x3fc2f186	1.5229957
18	0x3f418d8d	0.75606614
19	0x3f668d6f	0.9005956
20	0x3fa715d9	1.3053542
21	0x3f602160	0.87550926
22	0x3fda9146	1.7075584
23	0x3f99dda3	1.2020763
24	0x3fbbf9c9	1.4685603
25	0x3f679174	0.9045632
26	0x3f764ff7	0.96215767
27	0x3fc30c0c	1.5238051
28	0x3fccf39c	1.6011844
29	0x3fa36153	1.2764076
30	0x3f833f58	1.0253706
31	0x3f40c3d7	0.7529883

module.8.weight f4 [64, 32, 5, 5]
0	0x3c1cdce9	0.009574153
1	0x3c88d250	0.016701847
2	0xbcbb51d1	-0.022866162
3	0xbb839130	-0.0040151104
4	0xbc02de7a	-0.007987613
5	0x3cbc399c	0.022976689
6	0xbc1f2e8e	-0.009715689
7	0x3c548f51	0.012973622
8	0xbd0faf09	-0.035079036
9	0x3c996724	0.01872594
10	0x3cdd8c8b	0.027044555
11	0x3c9f9566	0.019480418
12	0x3d42ac2d	0.04752748
13	0xbb8d3538	-0.0043093227
14	0x3c4aef30	0.012386128
15	0x3d036636	0.032079898
16	0x3c64df81	0.013969303
17	0xbc8accc0	-0.016943336
18	0x3cc4c4e6	0.02401967
19	0x3c4c48fa	0.012468571
20	0x3d23673d	0.039893378
21	0x3d3915ec	0.045186922
22	0x3d47c7d0	0.04877454
23	0x3d62f85b	0.05541263
24	0x3cd42248	0.025895253
25	0x3ca7e97b	0.020497074
26	0xbbf72394	-0.007542083
27	0x3d31b201	0.04338265
28	0x3c01deb7	0.0079266345
29	0x3c34ded0	0.011039451
30	0x3d197384	0.03746368
31	0x3cb7b007	0.022422804
32	0xbc9aee42	-0.018912438
33	0xbb339e21	-0.0027407485
34	0x3b807c21	0.0039210473
35	0x3c13d42c	0.009022754
36	0x3d0eee75	0.03489538
37	0x3cf83e94	0.030303277
38	0xb891b937	-6.948638e-05
39	0x3c663773	0.014051306
40	0x3cc4c4d9	0.024019646
41	0xbc30583a	-0.010763222
42	0x3b882d06	0.004155758
43	0x3ad9d31a	0.0016618699
44	0x3ce8511f	0.028358994
45	0xbcc34b5a	-0.023839641
46	0xba87d554	-0.0010363259
47	0xbc8cb43b	-0.017175784
48	0x3d1cb3d9	0.038257454
49	0x3d025573	0.031819772
50	0x3cfe87c3	0.031070596
51	0x3cd9d3f9	0.026590334
52	0x3c484913	0.0122244535
53	0xbabab55d	-0.0014244724
54	0x3a74c29d	0.0009336861
55	0xbbb291c1	-0.005449504
56	0xbaf6b067	-0.0018820883
57	0x3c3d5d7f	0.011557936
58	0x3ca3fd13	0.020018136
59	0x3c1e2c96	0.009654185
60	0x3c621ecd	0.013801289
61	0xbbde4d4c	-0.006784117
62	0xbb8dfb9a	-0.0043329718
63	0x3d06c5b8	0.032903403
64	0x3c6449a9	0.013933578
65	0x3bf2fdc6	0.007415506
66	0x3cfe7fa1	0.031066718
67	0x3bc7bede	0.006095751
68	0x3ccecc99	0.025244044
69	0x3d04030b	0.032229465
70	0x3b462a0c	0.0030237464
71	0xbcf18cd1	-0.029486092
72	0x3c320e12	0.010867612
73	0xbb2a1753	-0.0025953844
74	0x3cd6b8ce	0.026211169
75	0x3c4ae0b6	0.012382677
76	0x3c6dc1fa	0.01451158
77	0x3b28343d	0.0025665902
78	0xbc8b264d	-0.016986037
79	0xbce69a9b	-0.028149894
80	0x3d055072	0.03254742
81	0x3ca0dd16	0.019636672
82	0x3a890e56	0.0010456543
83	0x3d0c12de	0.03419768
84	0x3d132350	0.03592235
85	0x3b360b24	0.0027777636
86	0x3b69b54f	0.0035661047
87	0x3d4970be	0.049179785
88	0x3cd228da	0.025654245
89	0x3c5549dc	0.013018098
90	0xbcd5e5c4	-0.026110537
91	0x3c9f7754	0.01946608
92	0xbcfef2b8	-0.031121597
93	0xbc28befb	-0.01029944
94	0x3c918318	0.017762706
95	0xbd06c4af	-0.032902416
96	0xbc4141a4	-0.011795435
97	0x3b8551c2	0.004068584
98	0x3ce59e87	0.028029693
99	0x3a7f716b	0.00097443786
100	0xbd293f9f	-0.04132044
101	0xbd0484d9	-0.032353256
102	0xbd007ceb	-0.03136913
103	0x3c17e4b9	0.00927084
104	0x3cd0abd8	0.025472566
105	0xbd12a54a	-0.035802163
106	0xbcdb63e6	-0.026781034
107	0x3cdbc180	0.026825666
108	0x3cb5a7cf	0.022174744
109	0x3ca455d1	0.020060452
110	0xbb165a02	-0.0022941832
111	0xbcae25e0	-0.021258295
112	0xbd05a388	-0.03262666
113	0xbc263171	-0.010143624
114	0xbc410f57	-0.011783442
115	0xbc0bddd2	-0.008536773
116	0x3cc84573	0.024447178
117	0xbcfd6e3a	-0.03093635
118	0xbc82c465	-0.015962789
119	0xbca0b25f	-0.019616304
120	0x3cdf8ab2	0.027287815
121	0x3c5e2829	0.01355938
122	0xbceaafbb	-0.028648248
123	0x3d1c2262	0.038118728
124	0x391e8084	0.0001511593
125	0x3ca10f1c	0.019660525
126	0x3cedf855	0.029049078
127	0x3c204963	0.009783122
128	0xbb457393	-0.0030128702
129	0x3c01c830	0.007921264
130	0xbca065b6	-0.01957975
131	0xbc5e748e	-0.0135775935
132	0xbcbf6c93	-0.023367202
133	0x3cc3291a	0.02382331
134	0xbcbf8ac1	-0.023381593
135	0xbcccbdbe	-0.02499282
136	0x3cae255b	0.021258047
137	0xbc0b4d92	-0.008502381
138	0x3d077299	0.033068273
139	0xbcb9f654	-0.022700466
140	0x3d01e002	0.03170777
141	0xbc7480ca	-0.014923284
142	0xbc20da38	-0.009817652
143	0x3a95c1c5	0.0011425546
144	0xbcbe0fea	-0.023200948
145	0x3c032696	0.008004805
146	0xbcbbb60e	-0.022913959
147	0xbcdb9f16	-0.026809257
148	0xbcc8b6ee	-0.02450129
149	0xbb8f5855	-0.0043745437
150	0xbcc33625	-0.023829529
151	0x3ce59778	0.028026327
152	0x3b66004c	0.0035095392
153	0x3cc151b0	0.023598522
154	0x3d254693	0.040350508
155	0x3d365964	0.044518843
156	0x3c83854f	0.016054777
157	0x3c9b3a6b	0.018948754
158	0xbb244c1a	-0.0025069774
159	0x3c1f515f	0.00972399
160	0x3cf348d2	0.02969781
161	0x3ccd9828	0.025096968
162	0x3bffd016	0.007806788
163	0x3d0bb0dc	0.034104213
164	0xbc8d4986	-0.017246973
165	0xbba1ae39	-0.004934099
166	0x3cf06d1e	0.029348906
167	0xbb71db96	-0.0036904565
168	0xbca68c70	-0.020330638
169	0xbc327968	-0.010893203
170	0x3c46ed51	0.012141542
171	0xbc556d87	-0.013026602
172	0x3c297a99	0.010344171
173	0x3b8b7133	0.0042554378
174	0xbcb0abcf	-0.0215663
175	0x3c4d0bf6	0.012515059
176	0x3cd786bd	0.026309365
177	0x3d4b68b9	0.04966042
178	0xbca93b0b	-0.020658037
179	0x3c5244f7	0.012833825
180	0xbc6ab7c9	-0.014326044
181	0x3d0b7081	0.03404284
182	0xbb75cc02	-0.0037505631
183	0xbbab4df9	-0.005227801
184	0x3c9751ff	0.018471716
185	0x3c995464	0.018716998
186	0x3bf127e7	0.007359493
187	0xbbeb6c47	-0.0071845385
188	0xbbc165a1	-0.0059020077
189	0x3c9ad86b	0.018902024
190	0xbca9032c	-0.020631395
191	0x3c17bdc5	0.009261553
192	0x3d20b545	0.039235372
193	0xbc8bfbfd	-0.01708793
194	0x3c6551f0	0.013996586
195	0x3cc6bb81	0.02425933
196	0x3d00a00f	0.031402644
197	0xbc4e0a6a	-0.012575725
198	0xbc989b4a	-0.018628735
199	0xbb36c845	-0.0027890366
200	0x3d0c87c0	0.03430915
201	0xbd1219ad	-0.035669018
202	0xbc38f20b	-0.011288176
203	0x3c528be1	0.012850733
204	0xbc7aeb17	-0.015314839
205	0x3cf9fcd9	0.030516075
206	0xbb249963	-0.002511584
207	0x3bf53eb6	0.0074842824
208	0x3bf0f7b5	0.0073537477
209	0x3cc5ce4e	0.024146225
210	0x3ce79d2c	0.028273188
211	0x3d45c24a	0.04828099
212	0xbabbfea8	-0.0014342861
213	0xbb52ff26	-0.0032195537
214	0xbd184650	-0.03717643
215	0x3b7d41ae	0.0038643884
216	0x3a58130e	0.00082425855
217	0x3c9c6ac6	0.019093882
218	0x3d08b96c	0.033379957
219	0x3c832a32	0.016011331
220	0x3d1f40cb	0.03888015
221	0x3cf18c8b	0.029485961
222	0x3c4e1981	0.012579323
223	0x3be2f619	0.00692631
224	0x3d081e10	0.033231795
225	0x3cc61121	0.02417809
226	0xbc5801a0	-0.013183981
227	0xbb21d0e1	-0.0024691152
228	0x3c36768e	0.011136664
229	0x3d25a270	0.040438116
230	0xbc01c676	-0.007920852
231	0x38d1e230	0.00010008027
232	0x3c7ad685	0.0153099345
233	0x3cd8d559	0.02646892
234	0x3ca28dbf	0.01984298
235	0x3b628cc5	0.0034568768
236	0x3cd24e5e	0.025672134
237	0x3ab55cd1	0.0013836866
238	0x3c8a8fff	0.016914366
239	0x3abfa4b8	0.0014621234
240	0x3d12a2da	0.03579984
241	0x3d3cc3d4	0.046085194
242	0x3c8e6e62	0.017386619
243	0x3c2d7612	0.010587232
244	0x3c51a23a	0.0127950255
245	0x3a88711b	0.0010409685
246	0x3cd64863	0.026157564
247	0x3ce788c7	0.028263463
248	0x3d1b419e	0.037904374
249	0xbc294cd8	-0.010333262
250	0x3c8e5154	0.017372765
251	0xbcd8bb46	-0.026456486
252	0xbbc46f7f	-0.0059947367
253	0x3ba505d4	0.005036095
254	0x3cd9cae6	0.026586007
255	0xbc136c80	-0.008998036

module.8.bias f4 [64]
0	0x3cbe2bae	0.023214187
1	0xbc6169cc	-0.013758134
2	0x3c3100c3	0.010803404
3	0xbcaa5d2c	-0.020796381
4	0xbaedef97	-0.0018153068
5	0xbc15b8be	-0.009138284
6	0x3c9eafee	0.019371
7	0xbd02e61e	-0.031957738
8	0x3cf8809a	0.03033476
9	0xbcf9192c	-0.03040751
10	0xbd06bc16	-0.032894216
11	0x3c3181c6	0.010834163
12	0x3a6efb40	0.00091164187
13	0xb736d5ea	-1.0897851e-05
14	0x39c28c67	0.0003710717
15	0x3cff49be	0.031163093
16	0xbc9bdc6e	-0.019026008
17	0xbce7eb3c	-0.02831041
18	0xbcd4ad31	-0.02596149
19	0x3d05576d	0.03255408
20	0x3c7f592f	0.015585228
21	0xbc9207fa	-0.01782607
22	0xbcdb2f66	-0.026756
23	0xbcd24614	-0.025668181
24	0xbae272bd	-0.0017276626
25	0xbaeb4e20	-0.001795236
26	0x3cf01036	0.029304605
27	0xba4156ed	-0.00073753187
28	0xbd0e7a96	-0.034784876
29	0xbd0b07fa	-0.033943154
30	0xbce47150	-0.027886063
31	0xbcfebd4a	-0.03109612
32	0x3d0659a1	0.03280032
33	0x3c5dae89	0.013530382
34	0x3bd1f00a	0.0064067887
35	0xbc9ab1a0	-0.018883526
36	0xbc75e1ba	-0.015007431
37	0x3d06cf89	0.032912765
38	0xbb851c4f	-0.0040622125
39	0xbccc2a3a	-0.024922479
40	0xbc828d2c	-0.015936457
41	0xbcedf96f	-0.029049603
42	0x3b10067c	0.0021976521
43	0xbd10018c	-0.035157725
44	0xbcf08bd0	-0.029363543
45	0xbcebe9bc	-0.028797977
46	0xbc2f73ff	-0.010708808
47	0x3c23be68	0.009994127
48	0xbcbcbc8e	-0.023039129
49	0xbd0029d9	-0.03128991
50	0xbd0dd82b	-0.034629982
51	0x3bb8b767	0.0056370976
52	0xb9a1a60b	-0.00030832025
53	0xbc1f1689	-0.009709963
54	0xbc2dd632	-0.01061015
55	0xbcdb4d39	-0.026770221
56	0xbb33cac3	-0.0027434088
57	0x3b3ae486	0.0028517558
58	0xbbe1fe59	-0.0068967757
59	0xbc678199	-0.01413002
60	0xbbdc9678	-0.0067318045
61	0xbd09da18	-0.033655256
62	0xbb4f5668	-0.0031637195
63	0xbcb8defa	-0.022567261

module.9.weight f4 [64]
0	0x3f72fb5e	0.94914806
1	0x3f78d53e	0.9720038
2	0x3f76a649	0.9634748
3	0x3f7587b4	0.9591019
4	0x3f76b857	0.9637503
5	0x3f73556b	0.9505221
6	0x3f7ad60e	0.9798287
7	0x3f7de724	0.9918082
8	0x3f77d1f0	0.96804714
9	0x3f772cb5	0.9655259
10	0x3f7d7c1f	0.9901752
11	0x3f75dedc	0.9604318
12	0x3f75352d	0.95784265
13	0x3f78c568	0.9717622
14	0x3f7e5747	0.99351925
15	0x3f777227	0.9665856
16	0x3f7b6411	0.98199564
17	0x3f799b02	0.9750215
18	0x3f746490	0.95465946
19	0x3f794250	0.9736681
20	0x3f7456ef	0.9544515
21	0x3f7745e5	0.96591026
22	0x3f75347d	0.95783216
23	0x3f768ad7	0.963056
24	0x3f71f8e4	0.945204
25	0x3f76ea69	0.9645143
26	0x3f76b027	0.9636254
27	0x3f726dee	0.9469899
28	0x3f7961ad	0.97414666
29	0x3f7801a8	0.9687753
30	0x3f7c609a	0.985849
31	0x3f76ce19	0.9640823
32	0x3f7c8132	0.98634636
33	0x3f7c5707	0.98570293
34	0x3f787f1f	0.9706897
35	0x3f7d443f	0.9893226
36	0x3f74b66c	0.95590854
37	0x3f7b34d0	0.9812746
38	0x3f7982a3	0.9746496
39	0x3f75ebc2	0.9606286
40	0x3f7a238b	0.97710484
41	0x3f76c1c3	0.96389407
42	0x3f775237	0.96609825
43	0x3f7294c4	0.9475825
44	0x3f7ce103	0.9878084
45	0x3f7ae6eb	0.980086
46	0x3f7944a2	0.9737035
47	0x3f71d7a3	0.9446966
48	0x3f79d26a	0.9758669
49	0x3f78cc7c	0.9718702
50	0x3f70bbc8	0.9403653
51	0x3f779ffb	0.96728486
52	0x3f7260ae	0.9467877
53	0x3f7f5d62	0.99751866
54	0x3f779513	0.96711844
55	0x3f7b1e38	0.98092985
56	0x3f76737b	0.9626996
57	0x3f7ceb18	0.98796225
58	0x3f774561	0.9659024
59	0x3f7b8346	0.9824718
60	0x3f79335a	0.9734398
61	0x3f7d0468	0.9883485
62	0x3f776f85	0.9665454
63	0x3f7ab9c0	0.9793968

module.9.bias f4 [64]
0	0xbd3cf6ba	-0.046133734
1	0xbcf740a6	-0.030182194
2	0xbd1c9505	-0.038228054
3	0xbd4e6442	-0.050388582
4	0xbd63a9c5	-0.055581827
5	0xbd37c6b0	-0.044867218
6	0xbd215959	-0.03939185
7	0xbd3f0b25	-0.046641488
8	0xbd15ca4c	-0.03656988
9	0xbd17beae	-0.03704708
10	0xbcf65c0f	-0.030073194
11	0xbd263411	-0.040577
12	0xbd187c06	-0.037227653
13	0xbd46bbc1	-0.0485189
14	0xbcfeeb46	-0.031118046
15	0xbd03113a	-0.03199885
16	0xbd30dd72	-0.043179937
17	0xbd27b7a1	-0.040946607
18	0xbd384904	-0.044991508
19	0xbd0d5a74	-0.03451009
20	0xbd420ff5	-0.0473785
21	0xbd29a447	-0.041416433
22	0xbd228de9	-0.039686117
23	0xbd4c6453	-0.049900364
24	0xbd13a283	-0.036043655
25	0xbd311c21	-0.043239716
26	0xbd2948a2	-0.041329034
27	0xbd1459a6	-0.036218308
28	0xbd7d886a	-0.061897673
29	0xbd33e591	-0.043920103
30	0xbd16b9a4	-0.036798134
31	0xbd333ef3	-0.043761205
32	0xbd1ae376	-0.03781458
33	0xbd2af6b9	-0.0417392
34	0xbd1181cb	-0.03552417
35	0xbd1e0cfa	-0.038586594
36	0xbd23b1e4	-0.03996457
37	0xbd25ab51	-0.040446583
38	0xbd2b70be	-0.041855566
39	0xbd39daf2	-0.04537482
40	0xbd55bb13	-0.05218036
41	0xbd1e34fc	-0.03862475
42	0xbd258818	-0.040412992
43	0xbd273b22	-0.040827878
44	0xbcfd280c	-0.030902885
45	0xbd2005de	-0.039068095
46	0xbd1cff0c	-0.03832917
47	0xbd1ba967	-0.03800335
48	0xbd0c3c38	-0.034237117
49	0xbd3ba24f	-0.045809086
50	0xbd4deac5	-0.05027272
51	0xbd4a8899	-0.049446676
52	0xbd1bfe5d	-0.038084377
53	0xbd1114d2	-0.035420246
54	0xbd2f3da2	-0.042783387
55	0xbd2d6d74	-0.04234071
56	0xbd3a405b	-0.04547153
57	0xbd2afe84	-0.04174663
58	0xbd23eb32	-0.04001922
59	0xbd4cb216	-0.049974523
60	0xbd3217cd	-0.04347973
61	0xbcfcfc84	-0.030882128
62	0xbd481b04	-0.04885389
63	0xbd3123a8	-0.043246895

module.9.running_mean f4 [64]
0	0x3f837a7c	1.0271754
1	0xbf8d5153	-1.1040443
2	0xbf151001	-0.58227545
3	0x3f34e23e	0.7065772
4	0xbf2bd7aa	-0.6712595
5	0x3f0f83cb	0.56060475
6	0x3e9d6cf8	0.307472
7	0x3e08491d	0.1330914
8	0x3f046e78	0.5173106
9	0xbe73c831	-0.23806836
10	0xbfc21854	-1.5163674
11	0x3f37472b	0.7159297
12	0x3e25cc70	0.16191268
13	0x3f5c664b	0.86093587
14	0xbfbfc579	-1.4982139
15	0x3e434637	0.19069754
16	0xbf6c2d1c	-0.9225633
17	0xbfb6a3d7	-1.426875
18	0xbf2e206c	-0.6801822
19	0x3f870f44	1.0551534
20	0xbd8c9c11	-0.06865705
21	0x3e25859d	0.1616425
22	0xbf0d21a2	-0.55129445
23	0xbf3e80ac	-0.7441509
24	0x3ea87e80	0.32909012
25	0xbecddca0	-0.40207386
26	0xbf1b0fb2	-0.60570824
27	0x3f266a66	0.650061
28	0x3f5f4a9d	0.87223226
29	0xbf40ae7e	-0.75266254
30	0xbed22a02	-0.41047674
31	0xbf3b6ef5	-0.7321618
32	0xbd51f1d4	-0.051256016
33	0xbf00e098	-0.503427
34	0xbf854250	-1.0410862
35	0xbf849f0a	-1.0361035
36	0xbe8845b0	-0.26615667
37	0x3f079270	0.5295782
38	0xbff9068f	-1.9455127
39	0x3f407e43	0.7519266
40	0x3ea33194	0.31873763
41	0xbf07dc38	-0.530704
42	0xbf0bc9b2	-0.5460464
43	0x3d2191f8	0.039445847
44	0xbffbb409	-1.9664317
45	0xbf372f88	-0.715569
46	0x3f80f295	1.007403
47	0x3e6a62ea	0.22889295
48	0xbf23c9a7	-0.6397957
49	0xbf1111ea	-0.5666796
50	0x3ec4ccf1	0.38437608
51	0x3ebc64c5	0.3679563
52	0x3fc3df73	1.5302566
53	0xbfdce796	-1.7258174
54	0xbf0559dd	-0.52090245
55	0xbf04bdec	-0.518523
56	0xbf8f0f76	-1.1176593
57	0xbed3aa2b	-0.41340765
58	0x3f6d09f0	0.9259329
59	0x3f035e5e	0.5131587
60	0xbf6db294	-0.92850614
61	0xbfbf2ddb	-1.4935869
62	0x3e01df6b	0.12682883
63	0xbc975788	-0.018474355

module.9.running_var f4 [64]
0	0x3f79fe31	0.9765349
1	0x3f433859	0.76257855
2	0x3f73dcb4	0.9525864
3	0x3f668848	0.900517
4	0x3f078dcd	0.52950746
5	0x3efeb883	0.49750146
6	0x3f30980c	0.68982005
7	0x3f1281bb	0.57229203
8	0x3f0cb490	0.54963017
9	0x3f0c5f75	0.54833156
10	0x3f36da51	0.71426874
11	0x3f33ccdc	0.70234466
12	0x3f2ffdf9	0.68746907
13	0x3ebfc6b9	0.374563
14	0x3f2fbe88	0.686501
15	0x3f92f20b	1.1480116
16	0x3f6cdd38	0.92525053
17	0x3f45faa6	0.77335584
18	0x3f1935ac	0.5984752
19	0x3f2ba535	0.6704896
20	0x3f178248	0.5918317
21	0x3f26fbec	0.6522815
22	0x3f4a0ada	0.7892281
23	0x3f0f67b3	0.5601761
24	0x3f2208ed	0.6329487
25	0x3f14503c	0.5793493
26	0x3f01ddcc	0.5072906
27	0x3f36b0bd	0.7136343
28	0x3f05d9af	0.52285284
29	0x3f297af1	0.6620322
30	0x3f2603fc	0.6484983
31	0x3efcbe81	0.49364093
32	0x3f26152c	0.64876056
33	0x3f146fab	0.5798289
34	0x3f3b30e6	0.7312149
35	0x3f17169d	0.5901888
36	0x3f2c3f1b	0.6728379
37	0x3f122f1e	0.57103145
38	0x3f25ea1c	0.6481035
39	0x3ed8131e	0.42202085
40	0x3f00880b	0.50207585
41	0x3eff05cc	0.4980911
42	0x3f60c35d	0.877981
43	0x3f6005f8	0.8750911
44	0x3f453146	0.7702831
45	0x3f20ded8	0.6284003
46	0x3f6145d7	0.8799719
47	0x3f2a3f66	0.6650299
48	0x3f65c28f	0.8975
49	0x3f2e4995	0.6808103
50	0x3f24ecbf	0.64423746
51	0x3f0dfd37	0.554645
52	0x3f872e19	1.0560943
53	0x3f3b51de	0.73171794
54	0x3f2b7811	0.6698008
55	0x3f0b9a53	0.54532355
56	0x3f24a238	0.64310026
57	0x3f308d4d	0.6896561
58	0x3f1016bd	0.56284696
59	0x3f0c0116	0.54689157
60	0x3f18409c	0.59473586
61	0x3f3ef58f	0.7459344
62	0x3f28ff2e	0.66014373
63	0x3f32644d	0.69684297

module.13.weight f4 [64, 1024]
0	0x3b9a1fed	0.004703513
1	0x3ca0db2a	0.019635756
2	0x3cc1dfa8	0.023666218
3	0x3c645e64	0.01393852
4	0xbc397e9e	-0.011321692
5	0xbae81bb3	-0.001770845
6	0x3b1c7787	0.0023874955
7	0xbbb3c833	-0.005486512
8	0x3a9ce5a7	0.0011970297
9	0xbc3e25ef	-0.011605724
10	0xbc32edf2	-0.010920988
11	0x3cc1b50e	0.023645904
12	0xbc2962cf	-0.010338499
13	0xbc8ab135	-0.016930202
14	0xbcd9728d	-0.02654388
15	0xbcc017ab	-0.023448786
16	0x3c181245	0.0092817
17	0xbc3c5970	-0.011495933
18	0xbc4e9444	-0.0126085915
19	0xbce0196d	-0.027355874
20	0xbcd07fb2	-0.025451515
21	0xbaf3a42c	-0.0018588356
22	0xbcd3b90c	-0.025845073
23	0x3c870dad	0.016486013
24	0x3bc997a4	0.00615211
25	0xbc92b109	-0.017906683
26	0x3c96d0a2	0.01841003
27	0x3cc46dc1	0.023978116
28	0xbce22b8e	-0.02760866
29	0xbbacb874	-0.005271012
30	0xbc446d01	-0.011988879
31	0xbcfb208c	-0.030655168
32	0xbc7cc3e8	-0.015427567
33	0x3c703bae	0.014662666
34	0xbcfc7bc8	-0.030820742
35	0x3b993a8e	0.0046761697
36	0xbcb6819c	-0.0222786
37	0xbc7c9fd5	-0.015418966
38	0xbc066d66	-0.008204794
39	0x3b08dcd3	0.0020883575
40	0x3cce7165	0.025200555
41	0xbc60545b	-0.013691987
42	0xbcfe0cdc	-0.031011991
43	0xbc4efffa	-0.012634272
44	0x3cc7c129	0.024384098
45	0xbb35ad8f	-0.0027721857
46	0xbcce4cdb	-0.025183132
47	0x3af6b1f9	0.001882135
48	0x3a1e0edc	0.0006029436
49	0x3c9fb5c2	0.019495849
50	0x3c76137e	0.015019296
51	0x3cc5b1e9	0.024132686
52	0x3c3e3f72	0.011611806
53	0x3b14c8ef	0.0022702774
54	0x3bcac47e	0.0061879745
55	0x3c8a5a89	0.016888874
56	0xb8a2e654	-7.767664e-05
57	0xbc320a18	-0.010866664
58	0x3cc127c7	0.023578538
59	0xbcfdb34a	-0.03096928
60	0xbc373379	-0.011181706
61	0xbb0ace9d	-0.002118028
62	0xbb7f04a6	-0.0038912683
63	0xbc99a4f9	-0.018755423
64	0x3cf0fd71	0.029417725
65	0xbcd9c820	-0.026584685
66	0xbc5bfc03	-0.0134267835
67	0x3bfdd56f	0.0077463905
68	0x3ce6b91c	0.028164439
69	0xbca326f2	-0.019916032
70	0xbc6c3407	-0.014416701
71	0x3c06e76a	0.008233884
72	0x3ce8529e	0.028359707
73	0x3cbca9cc	0.023030184
74	0x3bae5d41	0.0053211753
75	0xbc376d0c	-0.011195432
76	0x3ca4eb65	0.020131776
77	0xbc2791fe	-0.010227678
78	0x3c4937a6	0.012281334
79	0x3ca2c824	0.019870825
80	0x3ce132c8	0.027490035
81	0xbc22dd4a	-0.009940455
82	0x3c1da0d7	0.009620867
83	0xbce01875	-0.027355412
84	0x3cb6a349	0.022294657
85	0x3c0447ea	0.008073786
86	0xbc5ea94a	-0.013590166
87	0xbc567052	-0.013088303
88	0x3b763eb3	0.0037573993
89	0x3b11bfa6	0.0022239476
90	0xbca2bd6d	-0.019865716
91	0xbcd33ad5	-0.02578489
92	0xbcbf48c6	-0.02335013
93	0xbcd6be13	-0.026213681
94	0xbc052cd2	-0.008128362
95	0x3b6ca734	0.0036110403
96	0xbc784066	-0.0151520725
97	0xbcdc5880	-0.026897669
98	0x3ccb05d3	0.02478305
99	0xbcb53f54	-0.022124924
100	0x3c642084	0.013923768
101	0xbc1a7190	-0.0094264895
102	0xbc56eefa	-0.0131185
103	0x3b8c7c94	0.004287312
104	0xbc563f17	-0.013076565
105	0xbc9ea474	-0.019365527
106	0x3cc2bb1f	0.023770867
107	0xbd01b9ef	-0.03167146
108	0xbcecc0d9	-0.02890055
109	0xbc937851	-0.018001707
110	0xbc844073	-0.016144013
111	0x3c93e2a4	0.018052407
112	0x3c1f7d81	0.009734512
113	0xbc368d3f	-0.011142074
114	0xbcefabb7	-0.029256685
115	0xbccc9b30	-0.024976343
116	0xbd0a49a0	-0.03376162
117	0xbc48210e	-0.012214912
118	0x3c208410	0.009797111
119	0x3bd66937	0.0065433043
120	0xbcaf509f	-0.021400748
121	0x3c490315	0.012268801
122	0xbbc609d7	-0.0060436535
123	0xbce2af58	-0.027671501
124	0x3bece4f3	0.0072294413
125	0xbc89976d	-0.016795838
126	0x3cd653b5	0.026162961
127	0xbc6369ce	-0.013880206
128	0x3ceac2de	0.028657373
129	0xbc799417	-0.015233061
130	0x3ce1f5d8	0.027583048
131	0xbc82e45f	-0.015978036
132	0x3b3a9ef1	0.0028476084
133	0x3c10c582	0.008836152
134	0xbc6f86d6	-0.01461955
135	0xbcfb3303	-0.030663973
136	0x3addaa90	0.0016911794
137	0x3c71ebd5	0.014765699
138	0xbc061d0a	-0.008185634
139	0x3b9651a1	0.0045873676
140	0xbb9187ad	-0.0044412226
141	0xbc05e3e7	-0.008172012
142	0x398bac11	0.00026640345
143	0x3c27e1f5	0.010246743
144	0xbd016a6e	-0.03159564
145	0xbc9ca744	-0.019122727
146	0x3bdf8959	0.006821793
147	0xbba6b45b	-0.005087418
148	0xbcc83fb4	-0.024444439
149	0x3c3b1fe8	0.011421181
150	0x3cadd6f2	0.021220658
151	0x3af0cda6	0.0018371835
152	0x3b0e2779	0.0021691008
153	0x3c0bfdaf	0.00854437
154	0xbd072c95	-0.0330015
155	0xbcb9e682	-0.022692923
156	0xbc99ed8e	-0.018790033
157	0x3cea03f2	0.028566334
158	0xbc8f127c	-0.017464869
159	0xbb57eb92	-0.0032946807
160	0x3bfe8e66	0.00776844
161	0x3c8863eb	0.016649207
162	0xbca6b22e	-0.020348635
163	0xbcd33435	-0.02578173
164	0xbca1309c	-0.0196765
165	0xbc7b422f	-0.015335604
166	0xbd0688ae	-0.03284519
167	0xbbf44ed9	-0.0074556884
168	0x3c12d54f	0.00896199
169	0x3c307e67	0.010772324
170	0xbc3d3cad	-0.011550111
171	0xbbefeb27	-0.0073217335
172	0xbc6bbdaf	-0.014388486
173	0x3b4b1a54	0.0030991035
174	0x3cd56530	0.026049227
175	0xbca5af3e	-0.020225164
176	0xbc4b6792	-0.01241483
177	0xbbfea82e	-0.0077715134
178	0xbc44ac00	-0.012003899
179	0xbb5104a7	-0.0031893642
180	0xbcfd0084	-0.030884035
181	0xbcf74ea2	-0.030188862
182	0x3cb5c475	0.022188405
183	0x3c26b0f7	0.010174028
184	0xbb5b0d85	-0.0033424806
185	0xbc2c3a61	-0.0105119655
186	0xbcd96624	-0.026537962
187	0x3c7c6e33	0.015407133
188	0xbbb052b3	-0.0053809523
189	0xbcbe74d6	-0.023249071
190	0xbcd37b94	-0.025815763
191	0x3cc234db	0.023706844
192	0xbc737c4a	-0.014861176
193	0x3b85a1e9	0.004078139
194	0x3cc8c442	0.024507646
195	0x3bdc0b99	0.0067152497
196	0x3ca8c9d7	0.020604057
197	0xbd0031a8	-0.031297356
198	0xbcbf184e	-0.023327019
199	0xbc3500a1	-0.011047513
200	0xbcfa98e9	-0.030590491
201	0xbc0c8afb	-0.008578057
202	0x3c2c2987	0.010507948
203	0xbcb81ad7	-0.022473736
204	0x3cea5193	0.02860335
205	0x3c8f5e5a	0.017501045
206	0x3cdfa3d1	0.027299793
207	0xbd01b040	-0.031662226
208	0x3ca4bb6b	0.0201089
209	0xbcef122a	-0.029183466
210	0x3cb2fc5b	0.021848848
211	0xbc507175	-0.012722363
212	0xbc07f9f1	-0.008299337
213	0xbbba647d	-0.0056882487
214	0xbc4da82f	-0.012552305
215	0xbcb460fa	-0.022018898
216	0xbcac0775	-0.02099965
217	0x3b69d75f	0.003568135
218	0xbc94057a	-0.018069018
219	0x3ce7fc78	0.028318629
220	0xbc9e91d2	-0.019356642
221	0x3ba38988	0.0049907602
222	0xbbb1bc06	-0.0054240255
223	0x3c11ca11	0.008898274
224	0x3c9af838	0.018917188
225	0x3c0b2536	0.0084927585
226	0x3c00fcfe	0.007872818
227	0x3c69fcaa	0.014281431
228	0x3c838638	0.016055211
229	0x3cf6cdd5	0.030127445
230	0xbb4e047e	-0.0031435783
231	0x3cdc02f7	0.026856882
232	0xbcbd8d00	-0.023138523
233	0xbca2b7fd	-0.019863123
234	0x3b78d247	0.0037967132
235	0x3c1ce63a	0.009576375
236	0xbc8f8014	-0.017517127
237	0xbcd153d3	-0.025552666
238	0x3b102d84	0.0021999786
239	0x3c32a7c1	0.010904253
240	0x3c84ef59	0.016227411
241	0x3b01cd5a	0.0019806237
242	0xbd0241db	-0.031801086
243	0xbc1afb9e	-0.009459404
244	0x3cbd8719	0.023135709
245	0x3c4e9eea	0.01261113
246	0x3c570cc8	0.013125606
247	0xbc80ccb2	-0.015722606
248	0x3c5f2875	0.013620486
249	0xbcea0bfc	-0.028570168
250	0x3cf14118	0.029449984
251	0x3cfaf331	0.03063354
252	0x3ccea6cc	0.02522602
253	0x3b2834fe	0.0025666351
254	0xbcfbb014	-0.030723609
255	0xbcf8fbdd	-0.030393535

module.13.bias f4 [64]
0	0xbc9cd1c3	-0.019142991
1	0x3c832803	0.01601029
2	0x3cb357ea	0.021892507
3	0xbc810103	-0.015747553
4	0xbc058bc4	-0.0081509985
5	0xbce62e1e	-0.028098162
6	0xbca04123	-0.01956231
7	0xbcb1e9ea	-0.021717984
8	0x3c96dcbb	0.0184158
9	0x3bc8f9ed	0.006133309
10	0xbd0f45ca	-0.034978665
11	0xbca2b61d	-0.019862229
12	0x3b40102f	0.0029306521
13	0xbd074efd	-0.033034313
14	0xbc003931	-0.0078261355
15	0x3cafbb42	0.021451596
16	0xbc8f3a17	-0.017483754
17	0x3c1187b6	0.008882454
18	0x3c21657c	0.009850856
19	0xbcba791f	-0.022762833
20	0x3caf7573	0.021418309
21	0x3aed61c2	0.0018110799
22	0x398e72e4	0.0002716995
23	0x3bb21519	0.005434644
24	0xbc68544e	-0.014180256
25	0x3ca894ba	0.02057873
26	0x3cb4c03c	0.02206432
27	0xbcf558c3	-0.029949551
28	0x3a6a5134	0.0008938492
29	0xbcd25434	-0.025674917
30	0xbd18c22a	-0.037294544
31	0xba277af1	-0.0006388864
32	0x3c7e2b8e	0.015513314
33	0xbc4782bb	-0.012177165
34	0xbafe996b	-0.0019424384
35	0xbc0397a6	-0.008031761
36	0x3bded961	0.006800816
37	0xbbf621ad	-0.0075113387
38	0xbc4e145a	-0.012578094
39	0xbb50e4e7	-0.0031874718
40	0x3cb27d9a	0.021788407
41	0x3c6509cf	0.013979389
42	0xbc4caa94	-0.012491841
43	0x3ca30079	0.019897686
44	0xbca7f1e5	-0.020501086
45	0xbbd5a1e5	-0.0065195435
46	0xbc8adea5	-0.016951868
47	0xbae12a13	-0.0017178677
48	0x3c2da0c9	0.010597416
49	0x3a8f84bf	0.0010949596
50	0x3c1380c7	0.009002871
51	0xbce5867e	-0.028018232
52	0x3ce81fae	0.028335419
53	0xbcc8734d	-0.024469042
54	0x3c1f1db7	0.009711674
55	0xbce8c156	-0.028412502
56	0x3d168447	0.036747243
57	0xbd0e0f1b	-0.034682374
58	0x3c0c012f	0.008545204
59	0xbcf14b46	-0.029454838
60	0xbcf0d9be	-0.029400703
61	0x3b0c6d5b	0.0021427486
62	0x3ccabf19	0.024749326
63	0xbc354a09	-0.011065015
